001-machine_learning/Code/00001-MLP-temperature/checkpoint.pth (torch_old, 143615 bytes, 5 tensors)

hidden_layers.0.weight f4 [256, 9]
-0.18702415 -0.11834785 0.2546742 0.30679488 0.06637059 0.029291311 -0.3974221 -0.119460344
0.16621326 -0.35982254 -0.027623147 -0.11377639 -0.2997845 0.39761686 0.23410808 -0.22089592
-0.36836404 0.14507942 0.19366667 0.13059142 0.028177198 -0.00489231 -0.25983253 0.27226007
0.20997445 -0.38848338 -0.124328 -0.0753779 -0.074645996 -0.50396967 -0.19171725 -0.092508875
-0.22394794 0.3160575 -0.42550448 0.028157666 0.21725976 0.034890056 -0.20502156 -0.35999534
0.18746287 -0.3249865 0.021296108 -0.40966585 -0.09713997 -0.05124725 -0.3109051 0.070187666
0.29964548 -0.21083857 -0.14622706 -0.15803072 -0.12148676 -0.045782775 0.18377666 0.071802944
0.07823195 -0.15963551 0.18147768 0.3443225 -0.28544873 0.11613804 0.06794823 0.103129625
-0.237024 -0.35179242 -0.0917519 0.08439211 -0.22013889 0.22781914 -0.40376204 -0.31294933
-0.10887396 -0.088803455 -0.2016534 -0.11476211 0.31103936 -0.10523483 -0.22105059 -0.18786785
-0.31685492 0.17002863 -0.30730128 0.10096381 0.20395918 -0.010324504 0.12263408 0.0049984017
0.12651041 -0.35576472 -0.03733156 -0.25787747 0.078690305 -0.17054442 -0.21373141 -0.12463874
0.21800241 -0.3432706 -0.12410847 0.00043384268 -0.10578768 0.2071979 -0.16019806 0.09207577
0.028545018 0.11979309 0.09034619 -0.23747973 0.051099245 0.2989005 -0.34863845 0.24458162
0.20415345 0.24944362 -0.03716327 -0.03843039 0.034557994 -0.019867742 0.2389448 -0.062262286
-0.04615293 0.09923136 0.20880944 -0.21393906 -0.22224559 0.17340474 -0.046886683 -0.24393646
0.024145097 -0.08415994 -0.023495674 0.011632949 0.09844723 0.13850114 -0.241564 0.13160174
-0.1412085 0.2421684 0.02290374 -0.23465936 0.2846975 -0.1270691 0.14301825 0.25086114
-0.07151011 0.04966533 0.18491146 -0.26640582 -0.1492742 -0.01763346 0.25477672 0.1450014
-0.20131171 0.11952177 0.3300493 0.13444817 0.021866351 -0.31308305 0.27590773 -0.21739781
-0.19558327 -0.32756695 0.06555968 -0.031252623 -0.32135037 0.10840964 -0.20823678 -0.016696477
-0.33653635 -0.20964004 -0.19057482 -0.20527816 -0.20400175 -0.25846606 0.29994386 -0.3613437
0.20289898 0.022687312 -0.24303518 0.30622655 -0.2289704 0.15480518 0.2847569 0.0064976984
0.0041584135 0.36977813 -0.1355207 0.15076436 0.09536039 -0.23135847 0.11998466 -0.046952758
-0.22642012 0.16564691 -0.19839539 0.21252723 0.19257058 -0.13903223 0.032668892 -0.3287885
0.02932962 -0.0096958345 0.1463133 -0.3571937 0.052949525 0.06053771 -0.113290355 -0.11856632
-0.078639895 -0.291214 0.3075013 -0.3087164 -0.1519233 0.29159734 0.1332719 6.222725e-05
0.12751748 -0.18902409 -0.011614129 -0.060119145 -0.15515924 -0.24575096 -0.1480532 0.06672779
-0.054811504 0.1986839 0.022057205 -0.043669183 -0.18913916 0.13613945 -0.15638083 -0.09244136
0.20849489 -0.100850165 -0.19760019 0.0006207526 -0.13029785 -0.08850906 -0.27067202 0.037031524
0.1350623 -0.27389047 -0.38400343 -0.40437925 -0.004007727 -0.19338885 -0.23662439 0.12840736
-0.17986935 0.05564389 -0.08824468 0.109834194 0.15069711 -0.12808406 -0.26246247 -0.21466668
00000000: 4283 3fbe 5c60 f2bd a864 823e 3814 9d3e
00000010: 4eed 873d 55f4 ef3c e97a cbbe a0a7 f4bd
00000020: cf33 2a3e a93a b8be f049 e2bc 9903 e9bd
00000030: 5b7d 99be 7094 cb3e 07ba 6f3e 8a32 62be
00000040: 369a bcbe b38f 143e 8e50 463e c2b9 053e
00000050: ded3 e63c ac4f a0bb c508 85be ac65 8b3e
00000060: 8b03 573e 4be7 c6be ae9f febd ba5f 9abd
00000070: 00e0 98bd 2804 01bf 8751 44be 4b75 bdbd
00000080: 9c52 65be 4ad2 a13e b9db d9be e8aa e63c
00000090: 5879 5e3e e0e8 0e3d 2cf1 51be 4f51 b8be
000000a0: 44f6 3f3e a164 a6be 2d75 ae3c b9bf d1be
000000b0: 52f1 c6bd a3e8 51bd f42e 9fbe 8dbe 8f3d
000000c0: 226b 993e 11e6 57be 8cbc 15be ced2 21be
000000d0: 0dce f8bd b886 3bbd f32f 3c3e 6c0d 933d
000000e0: 1338 a03d 7e77 23be 49d5 393e 0a4b b03e
000000f0: 5626 92be c8d9 ed3d 7128 8b3d a035 d33d
00000100: 6bb6 72be 231e b4be 6ce8 bbbd c5d5 ac3d
00000110: 176c 61be 6c49 693e e6b9 cebe e53a a0be
00000120: 50f9 debd 96de b5bd 3b7e 4ebe 6608 ebbd
00000130: 8d40 9f3e 5c85 d7bd 165b 62be 6e60 40be
00000140: cf3a a2be fc1b 2e3e 9856 9dbe 1dc6 ce3d
00000150: adda 503e 1c28 29bc 9427 fb3d a2c9 a33b
00000160: f28b 013e cb26 b6be fae8 18bd 8408 84be
00000170: 6228 a13d 32a3 2ebe 68dc 5abe 9942 ffbd
00000180: 063c 5f3e 2ac1 afbe 952c febd 6175 e339
00000190: 36a7 d8bd b02b 543e f60a 24be 3992 bc3d
000001a0: 3ed7 e93c 1456 f53d 6c07 b93d e32d 73be
000001b0: 714d 513d 7d09 993e bd80 b2be 9b73 7a3e
000001c0: 9a0d 513e 266e 7f3e 8338 18bd 2f69 1dbd
000001d0: af8c 0d3d adc1 a2bc f2ad 743e bd06 7fbd
000001e0: db0a 3dbd d039 cb3d 24d2 553e d712 5bbe
000001f0: 5994 63be 0391 313e 400c 40bd 7bca 79be
00000200: f0cb c53c 0c5c acbd 007a c0bc 2098 3e3c
00000210: b49e c93d 3ed3 0d3e 8e5c 77be 9bc2 063e
00000220: f698 10be fefa 773e a0a0 bb3c 8b4a 70be
00000230: dfc3 913e 671e 02be 6073 123e df70 803e
00000240: e473 92bd e06d 4b3d 6e59 3d3e 5866 88be
00000250: 56db 18be 0c74 90bc 1872 823e 3f7b 143e
00000260: a824 4ebe d4c7 f43d 39fc a83e c8ac 093e
00000270: 1021 b33c 6c4c a0be c743 8d3e 889d 5ebe
00000280: fb46 48be dbb6 a7be 2744 863d c002 00bd
00000290: 0988 a4be e005 de3d 063c 55be 0dc7 88bc
000002a0: 7e4e acbe e1ab 56be 0c26 43be 7034 52be
000002b0: d6e5 50be aa55 84be 3e92 993e 0b02 b9be
000002c0: c0c4 4f3e beda b93c 37de 78be bac9 9c3e
000002d0: 3777 6abe 4085 1e3e a8cb 913e a5ea d43b
000002e0: 4d43 883b 8f53 bd3e f0c5 0abe f961 1a3e
000002f0: 4f4c c33d 3ce9 6cbe 84ba f53d 8951 40bd
00000300: adda 67be 589f 293e 2928 4bbe bda0 593e
00000310: 3931 453e 775e 0ebe d1cf 053d f756 a8be
00000320: ac44 f03c 47db 1ebc 27d3 153e 18e2 b6be
00000330: 9ae1 583d 64f6 773d c604 e8bd e6d2 f2bd
00000340: f40d a1bd 001a 95be cf70 9d3e 1310 9ebe
00000350: c891 1bbe 3f4c 953e 6e78 083e 0080 8238
00000360: f193 023e 888f 41be 3049 3ebc 7e3f 76bd
00000370: 10e2 1ebe 24a6 7bbe 429b 17be 94a8 883d
00000380: 0782 60bd cb73 4b3e 50b1 b43c 75de 32bd
00000390: b2ad 41be 2468 0b3e 4c22 20be e551 bdbd
000003a0: af7f 553e 888a cebd b457 4abe 00ba 223a
000003b0: cd6c 05be 3d44 b5bd 8695 8abe 5eae 173d
000003c0: c64d 0a3e 5f3b 8cbe 199c c4be cc0a cfbe
000003d0: 4053 83bb ba07 46be aa4d 72be 387d 033e
000003e0: ac2f 38be d9ea 633d a0b9 b4bd c0f0 e03d
000003f0: 5850 1a3e 7828 03be 7b61 86be 95d1 5bbe

hidden_layers.0.bias f4 [256]
-0.15841904 0.04328214 -0.0367449 -0.046721883 0.021017877 0.06908608 -0.279341 -0.10393459
-0.114060566 0.23037162 0.16459794 -0.35234317 0.011982745 0.19021612 -0.28985235 0.004938488
0.16551206 -0.33094484 -0.12614702 0.14989641 0.06944606 -0.1296661 0.06301121 -0.28740704
0.05204595 0.21420008 0.097455256 0.19452637 -0.018859819 0.023892611 -0.028594194 -0.185201
0.01418954 -0.04587069 -0.07112579 -0.4002554 -0.15936302 -0.2740408 0.18152204 -0.24363133
-0.1388734 -0.25277898 -0.333071 0.21143463 0.12915094 0.21614343 -0.18357976 0.25923133
0.003503185 -0.2798018 -0.057585936 0.030689193 0.13575849 -0.09801868 0.11619554 -0.010549229
-0.13709046 0.1930696 -0.014009572 0.14669685 -0.10613699 -0.071602345 0.22721648 0.06348222
-0.1793871 0.005797633 -0.056259483 0.24974616 0.17658085 0.18232666 0.119880624 0.14588146
-0.2323371 -0.12544017 -0.10572374 0.24525085 0.22330199 0.24073216 0.024235556 -0.05790797
-0.03854528 0.085265495 -0.31874144 -0.19905755 -0.2112283 0.18817727 -0.10400555 -0.16191038
-0.21499075 0.17550752 0.075124584 0.12078129 0.016181543 -0.18966755 -0.09826425 -0.13095936
-0.35107636 -0.33045107 -0.15275995 -0.0750905 -0.03203614 -0.08667409 -0.27760214 0.022388851
0.27514756 0.25220618 -0.27116883 -0.004546885 -0.23107357 -0.10295439 -0.2599377 -0.012151439
0.13944586 0.08978817 0.079687335 -0.32168278 0.017598271 -0.26667967 -0.1508467 0.005431984
0.10495066 -0.18740702 -0.081652075 0.20069683 -0.18962376 -0.10095155 -0.31455764 0.085180216
0.26372916 -0.06477663 -0.0017113991 -0.06806424 -0.0018983694 -0.1586266 0.091949545 -0.13813841
-0.34271166 -0.021666786 -0.24601862 0.10897315 -0.31193972 0.015982488 -0.16638674 -0.0072405413
-0.063222975 0.14001761 0.03572604 -0.27840114 -0.15775482 0.26793995 -0.20891999 0.18009691
-0.026676243 0.22200859 -0.05735848 0.055401057 -0.17606941 0.2478258 0.25191173 0.089758486
-0.22395408 -0.09910884 0.029792564 0.17282143 0.073617116 0.12756811 -0.23405361 -0.011613629
0.23970547 -0.25706938 0.14064386 -0.037647873 0.19186902 -0.040238827 -0.011852148 0.061107
0.16322567 -0.32789522 -0.24105263 -0.12321954 0.19865213 -0.19568996 -0.34260404 0.22178155
-0.16104962 -0.33111224 0.030628959 -0.09546861 -0.20788823 -0.21343319 0.24849701 -0.27915955
0.10652056 -0.25008792 -0.16833226 0.10736051 -0.27226388 0.007913382 0.1454942 -0.07092199
-0.32782406 0.008019328 0.08166344 0.19027324 -0.04580063 0.0589106 0.012768292 0.2107393
-0.19670808 -0.031124705 -0.29525673 -0.14324029 -0.19604991 0.063610375 0.16003022 -0.30325657
0.19779177 0.10499149 0.23148338 -0.31147283 0.07627344 -0.29793793 0.17234066 -0.12705684
-0.018074846 -0.27463672 -0.03988646 -0.107939325 -0.37420762 0.011870784 0.2519642 0.23030579
0.0781543 -0.2595602 -0.07648487 -0.019060096 -0.22422259 0.2023295 -0.31651396 0.15107626
-0.08780956 -0.17520116 -0.26344776 -0.15866497 0.057344634 0.01720187 0.0970463 -0.060057312
-0.29924065 -0.38244295 0.12906097 0.002078937 0.074752636 -0.13184142 -0.054653205 -0.159006
00000000: 9a38 22be 9d48 313d d281 16bd 725f 3fbd
00000010: af2d ac3c 017d 8d3d c905 8fbe a9db d4bd
00000020: 9698 e9bd 8ae6 6b3e 5d8c 283e 5366 b4be
00000030: 4653 443c 04c8 423e 8767 94be 0ad3 a13b
00000040: fe7b 293e 9a71 a9be af2c 01be 727e 193e
00000050: bc39 8e3d 31c7 04be 050c 813d 0427 93be
00000060: 222e 553d 4457 5b3e 9f96 c73d ec31 473e
00000070: e87f 9abc 70ba c33c 5f3e eabc 55a5 3dbe
00000080: 3f7b 683c e8e2 3bbd 66aa 91bd 47ee ccbe
00000090: 0f30 23be 134f 8cbe eae0 393e 7e7a 79be
000000a0: d434 0ebe 3f6c 81be 4888 aabe 5282 583e
000000b0: 2540 043e b454 5d3e 55fc 3bbe f8b9 843e
000000c0: b195 653b 2e42 8fbe 3bdf 6bbd e767 fb3c
000000d0: 4604 0b3e 05be c8bd edf7 ed3d acd6 2cbc
000000e0: 7161 0cbe 0ab4 453e 6788 65bc b337 163e
000000f0: 5a5e d9bd 40a4 92bd 70ab 683e f702 823d
00000100: 40b1 37be 12fa bd3b 5870 66bd 75bd 7f3e
00000110: 9cd1 343e d7b3 3a3e f983 f53d f361 153e
00000120: c7e9 6dbe 6373 00be b085 d8bd 0a23 7b3e
00000130: 47a9 643e 7e82 763e a589 c63c e830 6dbd
00000140: a8e1 1dbd ad9f ae3d 1432 a3be bed5 4bbe
00000150: 3b4c 58be 8bb1 403e dd00 d5bd d6cb 25be
00000160: 8926 5cbe 3eb8 333e ebda 993d 2e5c f73d
00000170: 288f 843c 3638 42be c43e c9bd 361a 06be
00000180: 48c0 b3be e230 a9be 1b6d 1cbe 0cc9 99bd
00000190: 5438 03bd 2f82 b1bd de21 8ebe d368 b73c
000001a0: 24e0 8c3e 2b21 813e a4d6 8abe 09fe 94bb
000001b0: 8d9e 6cbe c0d9 d2bd 8e16 85be d416 47bc
000001c0: e5ca 0e3e dce2 b73d 1d33 a33d 9bb3 a4be
000001d0: 402a 903c 3d8a 88be 8f77 1abe c9fe b13b
000001e0: 5ff0 d63d a0e7 3fbe 3439 a7bd 7883 4d3e
000001f0: bb2c 42be b0bf cebd b30d a1be f772 ae3d
00000200: 8207 873e 9ca9 84bd 0651 e0ba 4465 8bbd
00000210: b5d2 f8ba 036f 22be 0b50 bc3d 2874 0dbe
00000220: e777 afbe 8b7e b1bc 4eec 7bbe 512d df3d
00000230: 90b6 9fbe b5ed 823c 4961 2abe 1042 edbb
00000240: 0c7b 81bd c760 0f3e 7855 123d 988a 8ebe
00000250: 7b8a 21be 6d2f 893e 1fef 55be 536b 383e
00000260: 2388 dabc 3856 633e baf0 6abd 38ec 623d
00000270: 8a4b 34be 0cc6 7d3e 93fa 803e 4cd3 b73d
00000280: 3854 65be 93f9 cabd 890f f43c 1af8 303e
00000290: 92c4 963d 37a1 023e c0ab 6fbe 1747 3ebc
000002a0: 5a75 753e 999e 83be f204 103e a834 1abd
000002b0: 5079 443e 78d1 24bd 832f 42bc 554b 7a3d
000002c0: a124 273e e2e1 a7be 80d6 76be 875a fcbd
000002d0: 776b 4b3e f362 48be cc69 afbe b41a 633e
000002e0: 31ea 24be 8b87 a9be 95e9 fa3c 0c85 c3bd
000002f0: a7e0 54be 3b8e 5abe 0076 7e3e 00ee 8ebe
00000300: 7427 da3d 860b 80be 4b5f 2cbe d4df db3d
00000310: 2c66 8bbe 21a7 013c 6efc 143e 8c3f 91bd
00000320: 8ed8 a7be 8063 033c 293f a73d fdd6 423e
00000330: 7199 3bbd 3e4c 713d 1932 513c 0bcc 573e
00000340: d86d 49be 3df9 febc e42b 97be 95ad 12be
00000350: 4fc1 48be 2846 823d f6de 233e 7244 9bbe
00000360: ed89 4a3e c705 d73d fb09 6d3e 5e79 9fbe
00000370: 4035 9c3d 528b 98be 127a 303e 301b 02be
00000380: b311 94bc 2f9d 8cbe fc5f 23bd 4b0f ddbd
00000390: 2498 bfbe ad7d 423c 7401 813e 48d5 6b3e
000003a0: 5d0f a03d 13e5 84be 19a4 9cbd eb23 9cbc
000003b0: 9b9a 65be 772f 4f3e 1e0e a2be bcb3 1a3e
000003c0: 80d5 b3bd ef67 33be a0e2 86be 1279 22be
000003d0: 35e2 6a3d f0ea 8c3c 36c0 c63d a8fe 75bd
000003e0: 1236 99be 90cf c3be 8f28 043e c63e 083b
000003f0: e917 993d 7001 07be 0adc 5fbd 78d2 22be

hidden_layers.1.weight f4 [128, 256]
-0.054039944 0.08287309 -0.020250361 0.07183244 0.06477948 -0.070687376 -0.09848868 0.028111272
-0.03049554 -0.043130103 -0.051911205 -0.03173075 -0.0005218118 0.0019214478 0.05453726 -0.111882396
-0.015594304 0.00768169 0.014988512 -0.049543872 -0.07024068 0.07323204 -0.07469912 -0.025556743
-0.07879481 -0.11088025 -0.030535894 0.009707132 -0.07195767 -0.06757138 0.018358968 0.050205782
-0.0017783167 -0.05548551 -0.110683374 -0.09484508 0.024365414 -0.057516918 -0.0486982 0.08421422
-0.039283507 -0.053843997 -0.007858604 0.0014944632 -0.0620581 -0.11457735 -0.0599733 0.0012494839
-0.029147426 -0.045979034 -0.03555154 0.03594083 -0.04109285 -0.1048933 0.05508273 -0.044599004
-0.064021304 -0.10909495 -0.054979406 -0.008348504 0.03109248 0.054859906 -0.11455747 -0.07776498
0.062680796 0.039581414 -0.050096095 -0.044080194 -0.059439667 -0.06800228 0.00089293753 -0.11077482
-0.11884202 0.03710846 0.045955442 -0.103335574 -0.10320926 -0.10425715 0.04300129 0.052945048
-0.07167866 -0.03105058 0.04071267 -0.06431496 -0.013959907 -0.0110068 0.016110344 0.031935804
-0.010182917 -0.09627579 -0.04221488 0.025492117 0.08484517 -0.026060648 -0.07354794 0.001318437
-0.10044626 0.0014969766 -0.047323264 -0.116652906 -0.06544943 0.013525599 0.046981722 -0.069748044
-0.0012825404 -0.059818145 -0.019383885 -0.06646067 -0.09017693 -0.016846843 -0.043039445 -0.022942824
0.05216916 -0.07537491 -0.10580175 -0.033142783 -0.015812716 -0.05142914 0.008849601 -0.04626124
-0.081045486 -0.0046384037 0.053143933 -0.06220079 -0.10828217 -0.09156435 -0.037965484 -0.12171011
-0.015458621 -0.029449817 -0.077013634 -0.04829578 0.113598675 0.043287896 -0.09342134 0.1078351
-0.052976266 -0.11463942 -0.015019864 -0.017051809 -0.09831685 -0.023603216 0.04065142 -0.09127268
-0.058250993 0.0006292172 0.013583474 -0.044425778 -0.060673125 -0.044228986 -0.09793165 -0.039701328
-0.041069992 -0.06272638 -0.024015017 0.009240359 -0.06295722 -0.023807216 -0.09414087 -0.058401044
-0.010700226 -0.00744639 -0.10050283 0.024453446 -0.02960909 0.04046146 -0.033724956 0.11952919
-0.036561444 0.08211069 -0.053330958 0.041770108 -0.113000914 0.060091756 -0.07262212 -0.038759023
-0.10063086 -0.016230412 0.056645155 0.029819887 -0.08288251 0.0043394044 -0.052766208 -0.07352377
-0.09251893 -0.011434399 -0.074729264 -0.049534887 -0.10727526 -0.0096465945 -0.04520774 -0.035965726
-0.02247841 0.054505795 -0.049882416 -0.041170053 0.05229166 -0.015516993 0.010758795 -0.030695118
0.023606911 -0.050105557 0.10743245 -0.051949736 -0.025019856 -0.07289423 -0.030262722 -0.0006810914
-0.0881323 -0.0358593 0.055752806 -0.061722454 -0.0551715 -0.11856985 -0.006666634 -0.1022828
-0.01905239 -0.07165605 -0.017263535 0.015110776 -0.011196509 -0.028421178 0.058177464 -0.042154167
0.0038593784 -0.034531355 -0.08783009 -0.07962386 -0.08815498 -0.084506266 -0.062319644 -0.050723914
-0.10799745 -0.041563496 0.06764673 -0.07987381 -0.04327276 -0.014651437 0.044535533 -0.09457128
-0.017740408 -0.120993935 0.0018337797 -0.0787323 -0.10871122 -0.00880152 -0.08814084 -0.0014636815
-0.008719954 -0.021033596 -0.10007399 -0.08304245 0.06779416 0.052724943 -0.096334 0.0016911626
00000000: fd58 5dbd 5eb9 a93d 16e4 a5bc e31c 933d
00000010: 1bab 843d 8bc4 90bd 6fb4 c9bd 9c49 e63c
00000020: c8d1 f9bc 31a9 30bd d8a0 54bd 1af8 01bd
00000030: 32ca 08ba 17d9 fb3a 7662 5f3d 9922 e5bd
00000040: 407f 7fbc b0b6 fb3b 6092 753c 84ee 4abd
00000050: 58da 8fbd aefa 953d dafb 98bd 605c d1bc
00000060: 2c5f a1bd 2f15 e3bd 6926 fabc aa0a 1f3c
00000070: 8b5e 93bd dd62 8abd 8c65 963c 94a4 4d3d
00000080: 6816 e9ba c644 63bd f7ad e2bd 233e c2bd
00000090: fa99 c73c dc96 6bbd c477 47bd 8178 ac3d
000000a0: bee7 20bd 868b 5cbd 60c1 00bc dde1 c33a
000000b0: a230 7ebd 88a7 eabd 90a6 75bd b9c5 a33a
000000c0: 95c6 eebc 8354 3cbd 7e9e 11bd b136 133d
000000d0: fa50 28bd 4cd2 d6bd 6e9e 613d 72ad 36bd
000000e0: 9a1d 83bd 2c6d dfbd 1632 61bd 2ac8 08bc
000000f0: a8b5 fe3c c8b4 603d 1b9d eabd 3f43 9fbd
00000100: ca5e 803d 1f20 223d 9031 4dbd 6f8d 34bd
00000110: 0277 73bd c844 8bbd 0614 6a3a e9dd e2bd
00000120: 7263 f3bd 0aff 173d c63b 3c3d 9aa1 d3bd
00000130: 605f d3bd c684 d5bd 1f22 303d e8dc 583d
00000140: 43cc 92bd c95d febc 54c2 263d 90b7 83bd
00000150: 18b8 64bc de55 34bc d7f9 833c 1ecf 023d
00000160: 40d6 26bc 3e2c c5bd 83e9 2cbd d8d4 d03c
00000170: 4ec3 ad3d 247d d5bc 4da0 96bd 68cf ac3a
00000180: c5b6 cdbd 3336 c43a 0ad6 41bd b8e7 eebd
00000190: 5a0a 86bd 799a 5d3c e86f 403d 10d8 8ebd
000001a0: ea1a a8ba df03 75bd f4ca 9ebc 881c 88bd
000001b0: afae b8bd 6402 8abc 214a 30bd 97f2 bbbc
000001c0: 54af 553d 295e 9abd 97ae d8bd bac0 07bd
000001d0: ab89 81bc 5da7 52bd ebfd 103c 6d7c 3dbd
000001e0: 2dfb a5bd c0fd 97bb 74ad 593d 41c6 7ebd
000001f0: 0bc3 ddbd 1786 bbbd b281 1bbd 2643 f9bd
00000200: 2846 7dbc be40 f1bc 53b9 9dbd ccd1 45bd
00000210: 6ca6 e83d a64e 313d b053 bfbd a6d8 dc3d
00000220: a4fd 58bd 12c8 eabd e015 76bc 3cb0 8bbc
00000230: 585a c9bd 885b c1bc 1a82 263d 2ced babd
00000240: 9898 6ebd 0df2 243a 388d 5e3c cef7 35bd
00000250: 6284 78bd 7429 35bd 6490 c8bd dc9d 22bd
00000260: 0239 28bd b076 80bd 24bb c4bc e064 173c
00000270: b7ef 80bd 5a07 c3bc eecc c0bd ef35 6fbd
00000280: 0050 2fbc d900 f4bb 6ed4 cdbd 9852 c83c
00000290: c38e f2bc eaba 253d 2e23 0abd b8cb f43d
000002a0: 74c1 15bd a629 a83d 9071 5abd 2217 2b3d
000002b0: 066d e7bd c622 763d e8ba 94bd c8c1 1ebd
000002c0: 8d17 cebd a4f5 84bc c004 683d d648 f43c
000002d0: 4ebe a9bd 9031 8e3b 6121 58bd a193 96bd
000002e0: 917a bdbd 5857 3bbc a80b 99bd 18e5 4abd
000002f0: 22b3 dbbd c00c 1ebc c02b 39bd cc50 13bd
00000300: a424 b8bc 7841 5f3d 8151 4cbd eea1 28bd
00000310: c82f 563d fc3a 7ebc a845 303c 5474 fbbc
00000320: 4863 c13c 7c3b 4dbd 8b05 dc3d 3fc9 54bd
00000330: 71f6 ccbc 9249 95bd 87e9 f7bc 458b 32ba
00000340: b57e b4bd 34e1 12bd 0e5d 643d afd0 7cbd
00000350: 83fb 61bd c0d4 f2bd c873 dabb a579 d1bd
00000360: c213 9cbc 68c0 92bd 426c 8dbc 3093 773c
00000370: 9071 37bc 88d3 e8bc 7e4b 6e3d d9a9 2cbd
00000380: a0ed 7c3b c070 0dbd 43e0 b3bd d611 a3bd
00000390: 998a b4bd 9f11 adbd e242 7fbd e1c3 4fbd
000003a0: c42d ddbd 7c3e 2abd 5e8a 8a3d e194 a3bd
000003b0: c73e 31bd 950c 70bc e46a 363d 96ae c1bd
000003c0: 5554 91bc abcb f7bd 705b f03a 663e a1bd
000003d0: fda3 debd 4034 10bc 2f83 b4bd 00d9 bfba
000003e0: 23de 0ebc a64e acbc 98f3 ccbd 2912 aabd
000003f0: aad7 8a3d 1cf6 573d c34a c5bd 00aa dd3a

hidden_layers.1.bias f4 [128]
-0.02516059 -0.05222755 -0.07615386 -0.067221075 -0.0074584237 -0.11363728 -0.075578906 -0.1018324
-0.018133583 -0.079507 -0.09484792 -0.030729337 -0.09894398 0.0027924809 -0.018832065 -0.053077843
0.014439902 -0.011516666 -0.08701301 -0.03825225 -0.09859981 -0.024881009 -0.062243715 -0.101738855
-0.013573975 0.007890529 -0.039463334 -0.06502291 0.02312173 -0.066112585 0.0145163685 -0.10972696
-0.10901246 -0.008861368 -0.11842705 -0.051167592 0.069985256 -0.1027351 0.017451195 -0.031520814
-0.020119349 -0.02551681 0.061209716 0.004826592 -0.081271596 -0.08727818 -0.023529954 -0.08272944
-0.041226856 -0.092997134 -0.074705176 -0.015388287 0.005929464 -0.08616308 0.08513763 -0.031161765
-0.08439038 -0.11327655 -0.08037924 -0.044540312 -0.0011832834 -0.10411339 -0.06626993 -0.08683837
0.0007029923 -0.00192832 -0.059420146 0.059341602 -0.07873301 -0.045596056 -0.07411074 3.5879264e-05
-0.060473375 0.024719825 -0.08482092 -0.039868332 0.0026016014 -0.11785938 -0.06128246 0.027580924
-0.08750674 -0.06726712 -0.024566766 -0.08237188 -0.027073553 -0.023317873 -0.08849081 -0.14435902
-0.032716367 -0.045770355 -0.003296492 -0.09901452 -0.11805184 -0.09845821 -0.072254494 -0.052523173
-0.04845697 -0.063234076 -0.024691377 -0.0042780526 -8.680159e-06 -0.027670689 -0.077095464 -0.0032168373
-0.0075358734 -0.013587795 0.04177602 -0.018397637 -0.020345675 -0.021566609 -0.012462675 -0.06851605
-0.0027498154 -0.07482717 -0.0022761847 -0.08278467 -0.01424408 -0.047922216 -0.09971338 -0.06903502
-0.059130605 -0.13834302 -0.059656244 -0.045180313 -0.016987754 0.0016472219 -0.008585468 0.05110683
00000000: 951d cebc 8eec 55bd 8ef6 9bbd 34ab 89bd
00000010: cb65 f4bb aaba e8bd 1dc9 9abd 818d d0bd
00000020: e18c 94bc 91d4 a2bd a03f c2bd 17bc fbbc
00000030: 24a3 cabd 0e02 373b b445 9abc 2768 59bd
00000040: 5795 6c3c 66b0 3cbc e133 b2bd 64ae 1cbd
00000050: b2ee c9bd 42d3 cbbc 44f3 7ebd 765c d0bd
00000060: 6165 5ebc 4747 013c 4ea4 21bd bb2a 85bd
00000070: c869 bd3c 0966 87bd 10d6 6d3c 87b8 e0bd
00000080: ed41 dfbd 452f 11bc e289 f2bd 1c95 51bd
00000090: 6e54 8f3d c866 d2bd cff5 8e3c f81b 01bd
000000a0: 55d1 a4bc a108 d1bc 0ab7 7a3d 6328 9e3b
000000b0: b971 a6bd e7be b2bd e4c1 c0bc 0d6e a9bd
000000c0: 7edd 28bd 4875 bebd 07ff 98bd 271f 7cbc
000000d0: f34b c23b 4576 b0bd a35c ae3d f546 ffbc
000000e0: ddd4 acbd 89fd e7bd df9d a4bd e76f 36bd
000000f0: 6718 9bba 6739 d5bd 87b8 87bd 51d8 b1bd
00000100: 0449 383a afbf fcba 8a62 73bd 2e10 733d
00000110: c63e a1bd eec2 3abd 5fc7 97bd 117d 1638
00000120: eeb2 77bd 3b81 ca3c 97b6 adbd fa4c 23bd
00000130: a17f 2a3b 4260 f1bd 5103 7bbd 64f1 e13c
00000140: bc36 b3bd 58c3 89bd 3e40 c9bc 97b2 a8bd
00000150: 5bc9 ddbc 2005 bfbc ab3a b5bd dad2 13be
00000160: 9901 06bd b279 3bbd f509 58bb 20c8 cabd
00000170: 2ac5 f1bd 75a4 c9bd 2afa 93bd 8a22 57bd
00000180: d17a 46bd de80 81bd 9245 cabc e82e 8cbb
00000190: 00a1 11b7 a4ad e2bc 3ae4 9dbd 93d1 52bb
000001a0: 7def f6bb 589f 5ebc 551d 2b3d a4b6 96bc
000001b0: f9ab a6bc 75ac b0bc 3f30 4cbc 2552 8cbd
000001c0: 3f36 34bb fd3e 99bd 0b2c 15bb 028b a9bd
000001d0: 0060 69bc 164a 44bd 8736 ccbd 3c62 8dbd
000001e0: ef32 72bd cba9 0dbe 1b5a 74bd fe0e 39bd
000001f0: e729 8bbc 98e7 d73a 10aa 0cbc 6555 513d

output.weight f4 [1, 128]
-0.016872719 -0.03287885 0.016612949 0.0021872593 -0.009018214 0.030595697 -0.015062365 -0.0027920445
-0.032978997 0.016188122 0.020158764 0.037071545 0.009381871 0.016571147 0.041325986 0.016435694
0.024507273 -0.020510636 -0.03466294 0.022906369 -0.008058605 0.010390031 -0.049707286 0.057487827
0.02707566 -0.005143998 -0.050379783 0.03353832 -0.027978938 0.0010970989 0.036936175 0.017880049
-0.03929666 0.03677433 0.01624367 0.03480011 0.033133946 -0.035797328 -0.0005485444 -0.057158135
0.009537867 -0.020533044 0.030420175 -0.04146321 -0.03514605 0.012452536 0.009090119 -0.0009001274
0.057204116 -0.008468988 0.044418998 0.03235915 0.01660336 -0.041630503 0.03254612 0.0329642
-0.0063864863 0.009355095 0.036582183 -0.010613312 -0.041677237 -0.05004951 -0.023957338 -0.02119346
0.030173108 -0.00051364966 0.023876928 0.031004483 0.0006233058 0.024238087 -0.008305644 0.037970185
-0.02711686 0.035621915 0.01615562 -0.00060627237 0.020403776 0.040953863 -0.008610659 -0.037219554
-0.01124076 -0.010042845 0.04958806 0.018238716 0.030291453 0.0063412795 0.015636886 0.017710613
0.049904425 -0.03666504 -0.038361873 -0.015739487 0.004201518 -0.0015548951 -0.0050370204 -0.008129967
0.016869195 0.030337343 0.008700019 0.057452332 0.0057691755 -0.006352651 -0.036015842 -0.0070411325
0.031443022 -0.015568955 0.02819077 0.043192983 0.058599584 0.025880273 0.029150978 0.026322652
0.03027819 0.05852076 0.03566637 0.05978988 0.024515456 -0.0064829285 0.04042491 -0.009764014
-0.018884303 0.06278423 0.035896618 0.0044571683 0.008090517 0.03795159 0.019793529 0.020829828
00000000: a838 8abc f9ab 06bd e117 883c 1f58 0f3b
00000010: 22c1 13bc d4a3 fa3c 23c8 76bc bcfa 36bb
00000020: fc14 07bd f49c 843c fe23 a53c 55d8 173d
00000030: 6bb6 193c 37c0 873c 7045 293d 26a4 863c
00000040: 7ac3 c83c ec05 a8bc bafa 0dbd 23a6 bb3c
00000050: 3d08 04bc f33a 2a3c de99 4bbd 5b78 6b3d
00000060: c6cd dd3c fc8e a8bb 085b 4ebd 7a5f 093d
00000070: 1634 e5bc 88cc 8f3a 634a 173d 2e79 923c
00000080: 89f5 20bd aea0 163d 7211 853c 8f8a 0e3d
00000090: 76b7 073d 38a0 12bd 31cc 0fba a61e 6abd
000000a0: b744 1c3c ea34 a8bc bb33 f93c 54d5 29bd
000000b0: 4ef5 0fbd b905 4c3c b9ee 143c 87f6 6bba
000000c0: dd4e 6a3d 83c1 0abc b2f0 353d 078b 043d
000000d0: c503 883c bf84 2abd 154f 053d 7805 073d
000000e0: bb45 d1bb 1d46 193c 33d7 153d 75e3 2dbc
000000f0: c0b5 2abd b700 4dbd 2e42 c4bc e89d adbc
00000100: 982d f73c 72a6 06ba 8c99 c33c 1dfd fd3c
00000110: 5865 233a f48e c63c 6514 08bc a086 1b3d
00000120: 2d24 debc 49e8 113d ca58 843c 40ee 1eba
00000130: d225 a73c 3dbf 273d b913 0dbc 8873 18bd
00000140: 2a2b 38bc bf8a 24bc d91c 4b3d 5c69 953c
00000150: c825 f83c 82ca cf3b ed18 803c d915 913c
00000160: 9568 4c3d 152e 16bd 5721 1dbd 19f0 80bc
00000170: e3ac 893b 9fcd cbba 970d a5bb 8e33 05bc
00000180: 4431 8a3c 0586 f83c 868a 0e3c 2353 6b3d
00000190: 5a0b bd3b e629 d0bb 5985 13bd 4db9 e6bb
000001a0: 66ca 003d ee14 7fbc 54f0 e63c 20eb 303d
000001b0: 1e06 703d de02 d43c 08ce ee3c 9aa2 d73c
000001c0: f709 f83c 77b3 6f3d e616 123d 3ce6 743d
000001d0: a3d4 c83c bf6e d4bb 9794 253d 3ef9 1fbc
000001e0: 41b3 9abc 0595 803d 5508 133d 700d 923b
000001f0: 168e 043c 2073 1b3d 0a26 a23c 51a3 aa3c
