001-machine_learning/code/00001-MLP-temperature/model.pt (torch_old, 6280 bytes, 5 tensors)

hidden_layers.0.weight f4 [32, 5]
0	0x3e511c88	0.2042104
1	0xbe043a7a	-0.12912932
2	0xbe2e6738	-0.17031562
3	0x3e9f1c2c	0.3107618
4	0x3ddec1ac	0.10876784
5	0x3e8f83d0	0.28030252
6	0xbd35b5e0	-0.044362903
7	0xbee0c47a	-0.438999
8	0xbec20b0c	-0.37899053
9	0x3e53f2f4	0.20698148
10	0xbed030aa	-0.40662128
11	0x3ed5ca3f	0.41755864
12	0x3ec8a9ff	0.39192197
13	0x3ea9d585	0.33170715
14	0x3ecee851	0.40411618
15	0x3ec50c72	0.38486058
16	0xbe6855bf	-0.2268896
17	0xbeb118a2	-0.34589106
18	0xbec0b260	-0.3763609
19	0xbe95d29e	-0.2926225
20	0xbd65d660	-0.056112647
21	0xbdeb4430	-0.11487615
22	0xbe84b087	-0.2591593
23	0x3e9b276e	0.3030352
24	0xbdefda7a	-0.11711593
25	0xbeaf2889	-0.34210613
26	0xbe46ba1f	-0.19406937
27	0xbeb64b1b	-0.35604176
28	0xbeca72a1	-0.3954058
29	0xbe8dbcf9	-0.27683237
30	0xbe8ac290	-0.27101564
31	0xbe23cb3f	-0.15995501
32	0x3edcb242	0.4310475
33	0xbcf749fe	-0.03018665
34	0x3cf2870e	0.029605415
35	0x3e0f2170	0.13977599
36	0xbce4f9b8	-0.027951106
37	0x3e97e859	0.29669455
38	0xbed3e1cb	-0.41383204
39	0x3e7f6eb5	0.24944575
40	0x3ec157a0	0.37762165
41	0x3e04c9c5	0.12967594
42	0xbeaee386	-0.34157962
43	0xbe8596a1	-0.26091483
44	0x3d3f1762	0.04665316
45	0xbd9fff90	-0.078124166
46	0x3e9fc5f0	0.31205702
47	0x3e9941f9	0.29933146
48	0xbd074384	-0.033023372
49	0xbe3b2c34	-0.18278581
50	0x3e6c83c4	0.2309714
51	0x3eb8aaf0	0.36067915
52	0x3ed4f082	0.41589743
53	0x3d27d13d	0.04097103
54	0x3e814f4f	0.2525582
55	0xbcb36810	-0.021900207
56	0xbeb68612	-0.35649163
57	0x3de11bbe	0.109916195
58	0xbe10c098	-0.14135969
59	0xbe8fe922	-0.28107554
60	0xbeab0ce8	-0.33408284
61	0xbe88b82e	-0.26703018
62	0x3e0b1a48	0.13584244
63	0xbe7df82d	-0.24801703
64	0x3f0b4170	0.54396725
65	0x3e8d20c8	0.27564073
66	0x3ebc3094	0.36755812
67	0x3eca514a	0.39515144
68	0x3e75d82b	0.24008243
69	0xbe3222fe	-0.17396161
70	0x3c527120	0.012844354
71	0x3e89bef5	0.269035
72	0xbe0cae04	-0.13738257
73	0x3dbfb847	0.0936132
74	0x3b807ddf	0.003921255
75	0x3ee24d06	0.4419939
76	0xbec81819	-0.39080885
77	0xbe92987b	-0.28631958
78	0xbe616224	-0.22010094
79	0xbe9c7a50	-0.30562067
80	0xbea2894a	-0.31745368
81	0x3ea147cd	0.31500092
82	0x3c26213d	0.010139761
83	0x3ee46f23	0.4461604
84	0x3d12e8c0	0.0358665
85	0x3e1d2878	0.15347469
86	0xbe8f68d3	-0.28009662
87	0xbe8c54b4	-0.27408373
88	0xbe79df7a	-0.24401656
89	0xbea02af6	-0.31282777
90	0x3ea78b98	0.3272369
91	0x3def401b	0.11682149
92	0x3dd79087	0.10525613
93	0xbdb05f3f	-0.08611917
94	0xbe51197b	-0.20419876
95	0xbab1b100	-0.0013556778
96	0xbe65abb1	-0.22428776
97	0xbe2ad5f5	-0.1668318
98	0x3e719516	0.23592028
99	0x3ef38f07	0.4757006
100	0xbd9bcb20	-0.076071024
101	0xbe8ff4cb	-0.2811645
102	0x3db5e0d2	0.08880772
103	0x3e691835	0.2276314
104	0x3f0d2532	0.5513488
105	0xbeb6ce85	-0.35704437
106	0xbdada09a	-0.08477898
107	0x3ef5dddc	0.48020828
108	0xbe67638b	-0.22596566
109	0xbd8503a4	-0.06494835
110	0xbe79b5d4	-0.24385768
111	0xbeade703	-0.3396531
112	0xbe96df52	-0.29467255
113	0x3e9367a0	0.28789997
114	0xbe6004ed	-0.21876879
115	0xbe72d20f	-0.23712943
116	0x3eee65ec	0.46562135
117	0x3e2150ce	0.15753481
118	0x3ec32969	0.3811753
119	0x3da39b62	0.07988621
120	0xbcd33b30	-0.025785059
121	0x3daa29c4	0.083087474
122	0x3dd3df6f	0.10345351
123	0x3dad69bc	0.08467433
124	0xbeafdb59	-0.34347036
125	0xbebf2cd5	-0.37338892
126	0xbe9ed047	-0.31018278
127	0xbe60854f	-0.21925853
128	0xbe9e7c75	-0.30954328
129	0x3ede315d	0.43397036
130	0xbd3ca968	-0.046059996
131	0xbd9694c0	-0.073525906
132	0xbe3be4ec	-0.18349046
133	0xbe0e5e66	-0.13903198
134	0x3d7ef620	0.06224644
135	0x3eb89daa	0.36057788
136	0xbdb083dc	-0.086189
137	0xbebc1abe	-0.36739153
138	0xbe3c44f6	-0.18385682
139	0xbebe2d5b	-0.37143978
140	0x3dd760c0	0.105165005
141	0xbe9fc81a	-0.31207353
142	0x3ed94090	0.4243207
143	0x3d816445	0.06317953
144	0x3eaf6851	0.34259275
145	0x3c9110c0	0.017708182
146	0x3e8aa4df	0.27078912
147	0x3ed7fe84	0.42186368
148	0x3c8252f3	0.015908694
149	0xbe9a03ae	-0.30080932
150	0xbed47ccc	-0.41501462
151	0x3e23c938	0.15994728
152	0x3cbe0326	0.02319486
153	0xbea5965c	-0.32341278
154	0xbe8891b4	-0.26673663
155	0xbe384918	-0.17996633
156	0xbe0297b1	-0.12753178
157	0xbd8d1d10	-0.06890309
158	0x3d06396d	0.03276961
159	0x3c26c653	0.01017912

hidden_layers.0.bias f4 [32]
0	0x3e9e6591	0.30936864
1	0xbe6848ea	-0.22684065
2	0xbecd5b6a	-0.40108806
3	0xbd732258	-0.059358925
4	0xbe9bd71a	-0.30437547
5	0x3dc6906a	0.096955135
6	0x3e56ff49	0.20995821
7	0x3eab1147	0.3341162
8	0x3ecaab9e	0.3958406
9	0x3df32bca	0.118735865
10	0xbda4ec31	-0.080528624
11	0x3e444721	0.19167759
12	0xbc8db955	-0.017300287
13	0xbe4206ab	-0.18947856
14	0x3e0e7b42	0.13914207
15	0xbe901bac	-0.28146112
16	0xbe469f8f	-0.19396804
17	0x3e83cd11	0.2574239
18	0x3e3b0a02	0.18265536
19	0xbe02cae6	-0.12772712
20	0xbe983f8b	-0.2973598
21	0x3eb7f828	0.35931516
22	0x3e1194a6	0.14216861
23	0xbd1de00e	-0.038543753
24	0x3ee35959	0.44404104
25	0x3e97885b	0.29596218
26	0xbebac9cc	-0.36482084
27	0xbe5202c6	-0.2050887
28	0x3efe3a5b	0.49653897
29	0xbe676bce	-0.22599718
30	0x3e357356	0.17719778
31	0x3ec97fa8	0.39355206

hidden_layers.1.weight f4 [32, 32]
0	0xbe1bdd91	-0.1522124
1	0x3de44f62	0.111479536
2	0x3c4fd62d	0.012685341
3	0xbe345a54	-0.17612582
4	0x3df51c0e	0.11968242
5	0xbde93b1d	-0.11388228
6	0xbd89aaa8	-0.06722003
7	0xbd9a5291	-0.075352795
8	0x3d6b0c96	0.05738505
9	0xbe14a11a	-0.1451458
10	0xbb87994c	-0.0041381475
11	0x3c9c35d8	0.019068643
12	0x3e297247	0.165475
13	0x3de1b481	0.110207565
14	0xbddaff59	-0.10693235
15	0xbda6a089	-0.081360884
16	0x3d957523	0.07297733
17	0xbdb2c1cf	-0.08728372
18	0xbdb3d756	-0.087813064
19	0x3da3e38b	0.08002385
20	0x3d07cc18	0.033153623
21	0xbcfe4dc1	-0.031042935
22	0xbd56b238	-0.052416056
23	0xbd06c063	-0.032898318
24	0xbe2720bb	-0.1632108
25	0xbe17ba79	-0.14817227
26	0xbdeade1e	-0.11468147
27	0xbc7acc80	-0.015307546
28	0xbe0cee1e	-0.1376271
29	0xbe160912	-0.14651898
30	0xbd0f41a0	-0.034974694
31	0x3e18717f	0.14887045
32	0x3daf4ac2	0.08559181
33	0xbd3f2648	-0.046667367
34	0x3d98a053	0.074524544
35	0x3d7ed234	0.062212184
36	0xbdb2f113	-0.087373875
37	0x3e1ae253	0.15125398
38	0x3d9b99c3	0.07597687
39	0xbe02a226	-0.12757167
40	0xbdc42a5c	-0.09578392
41	0xbde43eaa	-0.11144765
42	0x3dec7257	0.11545246
43	0x3e359350	0.17731977
44	0xbe0af375	-0.13569434
45	0xbca4e3b3	-0.020128107
46	0x3e301af1	0.17197777
47	0xbd8af82d	-0.06785617
48	0x3dd3e259	0.10345907
49	0xbe747c37	-0.23875509
50	0x3c42254c	0.011849713
51	0x3e68dce5	0.22740515
52	0xbc8ce6ce	-0.0171999
53	0x3da74637	0.08167689
54	0xbdb8cc2d	-0.090233184
55	0xbd9033de	-0.07041143
56	0xbe121f46	-0.14269742
57	0x3c82d725	0.01597173
58	0x3dbfb19a	0.09360047
59	0xbd3c65c8	-0.045995504
60	0x3cf25d45	0.02958549
61	0xbce1d6d9	-0.027568268
62	0xbdf6bc48	-0.120476305
63	0xbe2cd402	-0.1687775
64	0x3e28cb73	0.1648386
65	0x3de3361a	0.110943034
66	0x3d0e9399	0.03480873
67	0xbd930da0	-0.07180333
68	0x3c91fbba	0.017820228
69	0x3da93fd7	0.082641296
70	0x3dfe3003	0.12411501
71	0xbd30c6f6	-0.043158494
72	0x3e173764	0.14767224
73	0xbe01e295	-0.1268409
74	0xbd0e9e9c	-0.03481923
75	0xbda5b290	-0.08090699
76	0xbe77348f	-0.24141143
77	0xbdaf0bbb	-0.08547159
78	0x3e460185	0.19336517
79	0x3c602870	0.013681516
80	0xbe360b62	-0.1777778
81	0x3dad1990	0.08452141
82	0x3e8bbe86	0.27293795
83	0xbdcdb6bd	-0.1004462
84	0xbe54f643	-0.20797066
85	0xbe060770	-0.13088775
86	0xbe039d11	-0.12852885
87	0x3ce3dbb1	0.027814718
88	0x3d818bd0	0.06325495
89	0x3e311057	0.1729139
90	0xbd5e8afe	-0.054331772
91	0xbcf2baf0	-0.029630154
92	0xbd8b9c9a	-0.06816979
93	0x3e51f36c	0.20503014
94	0x3e4fe8cb	0.20303647
95	0x3e348078	0.17627132
96	0x3dd42c04	0.10359958
97	0x3cfbdb50	0.030744225
98	0xbdb19751	-0.086714394
99	0xbd7784ec	-0.0604295
100	0xbe13791e	-0.14401671
101	0xbe7ed88b	-0.24887292
102	0xbdcc9911	-0.099901326
103	0xbd053134	-0.032517627
104	0x3cd34c98	0.025793359
105	0x3d12f42f	0.035877403
106	0x3d8b8100	0.06811714
107	0xbe1cfc62	-0.15330651
108	0x3cb69fc7	0.022292985
109	0xbdc23e11	-0.094844945
110	0x3e29ace2	0.16569856
111	0x3d6fa2cc	0.058504865
112	0x3d8fcad3	0.070211075
113	0xbe312c3a	-0.17302027
114	0xbe350142	-0.17676261
115	0x3dd27ed8	0.102781
116	0x3e8a9dea	0.27073604
117	0xbdb582d6	-0.088628456
118	0xbdd564df	-0.1041963
119	0x3e0b69c3	0.13614564
120	0x3c9f7d10	0.019468814
121	0xbca9f6b0	-0.020747513
122	0x3dbee422	0.09320857
123	0x3db130e6	0.08651905
124	0x3d6d0faa	0.057876267
125	0xbd89837e	-0.06714533
126	0x3d333102	0.04374791
127	0x3e2a3228	0.16620696
128	0x3d9768a1	0.07393003
129	0xbdf299d4	-0.11845747
130	0xbdb50ed6	-0.0884072
131	0x3da73fe6	0.081664845
132	0x3cf52b85	0.029927978
133	0xbc955701	-0.018229963
134	0xbc1f7c28	-0.009734191
135	0x3e4119a4	0.18857437
136	0x3db59ac7	0.08867412
137	0x3cb6c616	0.022311252
138	0x3e32ffdd	0.17480417
139	0xbe1ac52b	-0.15114276
140	0x3e85e9c6	0.26154917
141	0xbd79935c	-0.06093155
142	0x3d1ef863	0.0388111
143	0xbde0505d	-0.10952828
144	0x3d03268b	0.03201918
145	0x3dcbe388	0.099555075
146	0xbe379342	-0.17927268
147	0x3ead1daf	0.3381171
148	0x3e03900e	0.12847921
149	0xbdf5d15a	-0.12002821
150	0x3e3e2cc7	0.18571769
151	0x3dcc99f5	0.099903025
152	0x3e3d6961	0.1849723
153	0xbcb5015b	-0.022095373
154	0xbdc05408	-0.09391028
155	0xbe00027a	-0.12500945
156	0x3d865379	0.0655889
157	0xbe2284fa	-0.15871039
158	0xbc86f476	-0.01647399
159	0xbbaaec91	-0.005216189
160	0xbd60a137	-0.054841246
161	0xbd262a38	-0.040567607
162	0x3dafa04b	0.08575495
163	0xbe326bd2	-0.17423943
164	0x3c910c2a	0.017705996
165	0x3e00a3f4	0.12562543
166	0xbbc1b5a0	-0.005911544
167	0xbdf288f0	-0.11842525
168	0xbe01cc6a	-0.12675634
169	0x3dc6523f	0.09683656
170	0xbcb4a656	-0.022051971
171	0x3e1293f0	0.14314246
172	0x3e1bf2fe	0.15229413
173	0xbe273e9e	-0.1633248
174	0xbe0a356c	-0.13496941
175	0xbca0f210	-0.019646674
176	0x3dbd2947	0.09236389
177	0xbd9ca158	-0.076479614
178	0xbcb714af	-0.02234873
179	0xbdf089a5	-0.117450036
180	0xbdfe636f	-0.12421309
181	0xbe1515f5	-0.14559157
182	0xbd449e3f	-0.048002478
183	0xbd119aa4	-0.035547867
184	0xbe3c628e	-0.1839697
185	0x3e04710c	0.12933749
186	0xbd08172c	-0.033225223
187	0x3df1deda	0.11810084
188	0xbe1c32a1	-0.15253688
189	0xbe192759	-0.14956416
190	0x3c5645cd	0.013078165
191	0x3e019925	0.12656076
192	0xbc5c7d82	-0.013457658
193	0xbdc9b4b1	-0.09848917
194	0xbc2d7b0a	-0.010588417
195	0xbe2cfd46	-0.16893491
196	0xbd9a58db	-0.07536479
197	0xbda71b56	-0.08159511
198	0x3d53df7b	0.0517268
199	0x3e254e13	0.16143064
200	0x3defe504	0.11713603
201	0xbd861052	-0.065460816
202	0x3d961659	0.07328481
203	0xbe16e17d	-0.14734454
204	0x3ea48372	0.32131535
205	0x3d758804	0.059944168
206	0x3e78ae0c	0.24285144
207	0x3d7cb458	0.061695427
208	0x3dc49c39	0.096001096
209	0xbda3b99a	-0.07994385
210	0xbb89a3b8	-0.004200425
211	0x3d850e66	0.06496887
212	0x3eb0885f	0.34479043
213	0x3dd95345	0.106115855
214	0x3e196989	0.14981665
215	0x3d23a699	0.0399538
216	0xbc6f7c99	-0.014617109
217	0xbca032af	-0.019555418
218	0xbd20da20	-0.03927052
219	0xbd5459f2	-0.05184359
220	0x3d14bb74	0.03631158
221	0x3d238c5a	0.03992877
222	0xb9946767	-0.000283058
223	0xbc9ffbab	-0.019529184
224	0x3e5d423d	0.21607299
225	0xbe2dbedb	-0.16967337
226	0x3e3dab87	0.18522464
227	0xbde7c5e7	-0.11317044
228	0x3de3df69	0.111265965
229	0x3d919f33	0.07110443
230	0x3e4903db	0.19630377
231	0xbb76f578	-0.0037682932
232	0x3dc01c68	0.09380418
233	0x3c72289c	0.01478019
234	0x3e556a1d	0.2084126
235	0xbe1a8036	-0.15087971
236	0xbd25b400	-0.040454865
237	0x3c3bca24	0.011461768
238	0x3d27ed5d	0.04099785
239	0x3de02af2	0.10945691
240	0xbde176fc	-0.110090226
241	0xbd983a6d	-0.07433019
242	0xbdf81561	-0.12113453
243	0x3ea9681e	0.33087248
244	0x3e97a703	0.29619607
245	0x3d5336d4	0.05156596
246	0x3e6ee800	0.23330688
247	0x3e1d78e5	0.15378149
248	0x3df0abcb	0.11751517
249	0x3d30b5bd	0.04314207
250	0x3e0b379b	0.1359543
251	0x3e027b79	0.12742414
252	0x3ce0e111	0.02745107
253	0xbce80e4a	-0.028327126
254	0xbe3e8d21	-0.18608524
255	0xbd318ace	-0.043345265

hidden_layers.1.bias f4 [32]
0	0x3c0f664f	0.00875242
1	0x3d910af4	0.07082167
2	0xbdde3fb0	-0.10851991
3	0x3e2b504c	0.1672985
4	0x3c23d417	0.009999297
5	0x3d912f89	0.07089145
6	0x3d36ebbd	0.04465841
7	0x3d7f71e9	0.062364493
8	0x3d2c72ff	0.042101856
9	0xbd3f0830	-0.046638668
10	0xbd8f094d	-0.06984196
11	0xbe2215a3	-0.15828566
12	0x3cbd0c5c	0.023077182
13	0xbbbb1fc1	-0.0057105725
14	0x3e254c6a	0.16142431
15	0x3e2f1b50	0.17100263
16	0xbd10324c	-0.035204217
17	0x3e5866bb	0.21132939
18	0x3d1bd98c	0.038049266
19	0x3dbebb74	0.093130976
20	0x3e22dfb6	0.15905651
21	0x3d203228	0.039110333
22	0x3de9d4e5	0.114175595
23	0xbc76f9bd	-0.015074191
24	0x3ce263b3	0.02763543
25	0x3bb27887	0.005446497
26	0xbd54be3a	-0.051939227
27	0xbcb4feb4	-0.022094108
28	0x3e34fce6	0.17674598
29	0x3e1ceddd	0.15325113
30	0x3df8e477	0.12152951
31	0x3e514a9d	0.20438619

output.weight f4 [1, 32]
0	0xbd1d066f	-0.038336214
1	0xbe563cf4	-0.2092169
2	0xbe493df4	-0.1965254
3	0x3e43be3f	0.19115542
4	0x3e83916e	0.25696892
5	0xbe1c9e77	-0.15294825
6	0x3e5de2b0	0.21668506
7	0x3df86cbf	0.12130117
8	0x3ea0b932	0.31391293
9	0xbe3359ff	-0.175148
10	0xbe92dd03	-0.28684244
11	0x3c8f1dd0	0.01747027
12	0xbe1b4901	-0.15164568
13	0xbe311f1a	-0.1729702
14	0xbe237ce4	-0.1596561
15	0x3d830882	0.06398107
16	0xbc01d770	-0.007924899
17	0x3d987cb4	0.0744566
18	0xbe123440	-0.14277744
19	0x3e818e83	0.2530404
20	0x3e84dd03	0.2594987
21	0xbe2f5c53	-0.17125063
22	0xbdb73fe4	-0.08947733
23	0x3eba2498	0.36356044
24	0xbe913a91	-0.28364995
25	0xbe1bffa0	-0.15234232
26	0x3dcfadea	0.10140593
27	0xbda35459	-0.079750724
28	0x3e93578f	0.2877774
29	0x3e152d90	0.14568162
30	0xbeb22043	-0.3479024
31	0x3dee8bb7	0.11647742
