001-machine_learning/data/00001-MLP-temperature/000_checkpoint.pth (torch_old, 18200 bytes, 15 tensors)

exp_avg f4 [32, 5]
00000000: 0000 0000 0000 0000 0000 0000 0000 0000
00000010: 0000 0000 1459 c836 709b 2236 eb35 2537
00000020: 115a bfb6 f741 a036 0000 0000 0000 0000
00000030: 0000 0000 0000 0000 0000 0000 40ff 5935
00000040: db36 1034 619e f135 f047 8435 3c50 15b5
00000050: b503 4235 f667 9135 e7cd 7936 46bc 99b5
00000060: 533f 7434 0000 0000 0000 0000 0000 0000
00000070: 0000 0000 0000 0000 e07e 66b4 91fb 9d35
00000080: da94 3036 c012 3eb6 e1fc 9a35 0f21 6936
00000090: 74bc ee34 3140 3b32 62d9 f8b5 9166 8235
000000a0: d4ad 7636 2680 a7b5 dee4 8036 a5eb 3ab6
000000b0: bb71 2236 df0c a036 6291 5d36 1655 e636
000000c0: 7e17 92b6 801f a036 8703 f1b5 3359 c9b6
000000d0: 78c2 22b7 ca25 e436 6152 50b6 bb5c e936
000000e0: 05c5 9136 8bd5 3a37 4f69 07b7 f086 fc36
000000f0: d709 58b6 996f 3d35 d543 4c36 61da 09b8
00000100: a72c 1f37 c331 e1b4 6596 2eb6 63be 3db7
00000110: af6a 0537 8a61 ccb6 534e 04b5 93b6 7f35
00000120: 7249 f1b6 1451 a237 f0f5 fdb5 2c1c 9635
00000130: 359f 0536 9778 b336 f3af b7b6 4731 1f36
00000140: 53c2 0336 f4f6 4bb7 1104 4eb7 83e1 9737
00000150: 77b9 11b7 5355 a135 6807 6036 03cd 8a36
00000160: 5a88 84b6 e1ad f035 63c2 a7b6 c07c 50b7
00000170: 1053 65b7 3933 3e37 67ad e5b6 426b 9436
00000180: 2212 0b37 a27b 2137 6597 07b7 63b4 fc36
00000190: 34b3 b035 689e 8536 f39c 8436 70a5 9ab6
000001a0: 3364 8336 67a7 d9b5 8396 2cb6 650d 90b6
000001b0: 5d24 2f36 f57e 38b6 2965 ac35 3cd6 5235
000001c0: 111e 0ab6 6a16 7036 2038 fa34 0000 0000
000001d0: 0000 0000 0000 0000 0000 0000 0000 0000
000001e0: 016f 8b35 b842 03b6 851d 2cb5 ad15 0e36
000001f0: cd4b 1335 369f 31b6 a935 acb6 53ae 9ab6
00000200: 9181 c636 525e 5ab6 e453 6cb5 0f43 8635
00000210: ab40 2335 3e68 32b6 462e f7b4 347d 12b6
00000220: a67d b135 dc52 7e36 b812 b3b6 9e39 1cb6
00000230: 29d4 1fb6 d5b0 50b6 102e 8536 d4db fdb6
00000240: 23e6 25b7 9a0f cf35 8185 e036 3fe0 e436
00000250: 88f3 a8b6 2f5f 6836 55c0 a636 23ba 2537
00000260: bd3a 9136 3805 b4b6 1924 fa36 f0be 0fb6
00000270: 64af edb5 d3cd ceb5 e15a 3bb6 7cc3 2b32
0.0 0.0 0.0 0.0 0.0 5.9708345e-06 2.4230358e-06 9.84732e-06
-5.7027287e-06 4.776051e-06 0.0 0.0 0.0 0.0 0.0 8.1210237e-07
1.3431001e-07 1.8001994e-06 9.855703e-07 -5.562358e-07 7.2276026e-07 1.0833598e-06 3.7223742e-06 -1.1454183e-06
2.2747308e-07 0.0 0.0 0.0 0.0 0.0 -2.1466576e-07 1.1770627e-06
2.6312687e-06 -2.832312e-06 1.1547492e-06 3.4738948e-06 4.4468072e-07 1.0899428e-08 -1.8540707e-06 9.715606e-07
3.6758038e-06 -1.2479766e-06 3.841341e-06 -2.7853323e-06 2.420608e-06 4.76987e-06 3.301619e-06 6.8644395e-06
-4.353874e-06 4.7720387e-06 -1.7956926e-06 -6.000651e-06 -9.701231e-06 6.7993287e-06 -3.1042366e-06 6.9547364e-06
4.344273e-06 1.1136183e-05 -8.071146e-06 7.525894e-06 -3.2192236e-06 7.057038e-07 3.0437852e-06 -3.2866727e-05
9.487535e-06 -4.1945722e-07 -2.6015562e-06 -1.1309606e-05 7.952257e-06 -6.091029e-06 -4.928781e-07 9.5260583e-07
-7.19091e-06 1.934966e-05 -1.8921546e-06 1.118407e-06 1.9911215e-06 5.348654e-06 -5.474308e-06 2.372153e-06
1.9633633e-06 -1.2157241e-05 -1.2279504e-05 1.8105615e-05 -8.685855e-06 1.2020267e-06 3.3382912e-06 4.136587e-06
-3.94978e-06 1.7931999e-06 -4.9996174e-06 -1.2426812e-05 -1.3668803e-05 1.1336809e-05 -6.8449185e-06 4.42323e-06
8.2892675e-06 9.625133e-06 -8.081876e-06 7.531185e-06 1.3165177e-06 3.98215e-06 3.952178e-06 -4.608817e-06
3.915769e-06 -1.621648e-06 -2.5717607e-06 -4.2930938e-06 2.6098198e-06 -2.7492035e-06 1.284444e-06 7.854285e-07
-2.0581103e-06 3.5775834e-06 4.6606965e-07 0.0 0.0 0.0 0.0 0.0
1.0388613e-06 -1.9559357e-06 -6.411795e-07 2.1172266e-06 5.487207e-07 -2.6467728e-06 -5.1322463e-06 -4.6098517e-06
5.9159433e-06 -3.2539433e-06 -8.803893e-07 1.0003295e-06 6.0816336e-07 -2.6584744e-06 -4.6041004e-07 -2.1828573e-06
1.3224096e-06 3.789718e-06 -5.336795e-06 -2.327935e-06 -2.381634e-06 -3.1097345e-06 3.9690713e-06 -7.565579e-06
-9.888349e-06 1.5427242e-06 6.691262e-06 6.821035e-06 -5.035141e-06 3.4626098e-06 4.969576e-06 9.878105e-06
4.328175e-06 -5.3650256e-06 7.454783e-06 -2.14198e-06 -1.7708921e-06 -1.5408099e-06 -2.791807e-06 9.997958e-09

exp_avg_sq f4 [32, 5]
00000000: 0000 0000 0000 0000 0000 0000 0000 0000
00000010: 0000 0000 7c92 a031 08fc 5c31 f620 3131
00000020: 09e2 3631 152d 2931 0000 0000 0000 0000
00000030: 0000 0000 0000 0000 0000 0000 2a03 c230
00000040: 64bc 5d2e 4e3a 2630 b401 0030 ddea 0a30
00000050: 3526 6c30 f8f6 3a2e 29a0 1e30 4a0e 9930
00000060: 5142 4b30 0000 0000 0000 0000 0000 0000
00000070: 0000 0000 0000 0000 40a7 0931 73e7 d32f
00000080: ea36 9230 c8c2 a830 dced ad30 bea2 b330
00000090: 9910 cb2f 6049 3a31 1f32 8a30 a6bc 7630
000000a0: e136 2c31 b7b0 0931 732f aa30 4713 d130
000000b0: 6f1a 4d30 5be8 2731 3b50 fd30 09cf 1431
000000c0: f52b 1731 0f1e 3931 8af7 0232 8ce1 2d31
000000d0: c69b bf31 4a29 c331 93b9 e631 b46b 5a32
000000e0: c692 f731 8eb4 0a32 88d5 0e32 d402 1e32
000000f0: 05d8 8f33 87c3 2c33 e11b 2433 7865 5533
00000100: dba4 9533 0a06 b032 def0 0a32 e3b8 6032
00000110: e186 5332 287d 5032 e458 4a32 2088 5a32
00000120: 9820 8732 fce7 8932 0988 7b32 a846 7531
00000130: 3f31 3231 77f8 ed30 b752 fd30 c5c5 0331
00000140: 2e8b db32 6e63 9332 4b40 8a32 237d c132
00000150: 5a93 fb32 2adf 0e30 de67 1130 b8c8 1d30
00000160: 2e45 2630 9f45 5830 83d5 9932 13b4 ca31
00000170: cc82 4332 8882 4a32 b104 8e32 bab2 ac31
00000180: 1b4d 8431 c928 4f31 053e 7c31 0383 d931
00000190: 5b97 5c31 b263 da30 c244 c530 0a1c 0531
000001a0: b69a 4a31 a0e9 0330 5ffb 9530 4bc9 ab30
000001b0: 2ae4 9a30 3560 c830 c932 012f ffc2 8a2f
000001c0: 69cc 6a2f a21e ca2f 9e50 b52f 0000 0000
000001d0: 0000 0000 0000 0000 0000 0000 0000 0000
000001e0: 41e4 ca30 86e8 d72f 923b 9d30 477f 9730
000001f0: 2cbb c630 b337 bb31 bad5 de30 0d64 4331
00000200: 19b9 5d31 ad21 9931 10bc 7e30 5f72 0130
00000210: fb48 b72f 538e 3b30 0bdc 8730 1406 4431
00000220: 9d3e 3530 898c 1131 1260 1731 ba03 3731
00000230: c062 6f31 1887 1d30 ce65 0f31 d702 4731
00000240: fcd6 3331 1352 a531 affd cb30 32f9 6231
00000250: baba 4f31 1533 9431 1022 2c32 a6be 8331
00000260: add1 6f31 bfc8 9331 710a fa31 f1ee 7c30
00000270: 9ef0 3630 85fc 4f2f b573 1f30 fdca 082d
0.0 0.0 0.0 0.0 0.0 4.673266e-09 3.2157477e-09 2.5775626e-09
2.6612972e-09 2.4618363e-09 0.0 0.0 0.0 0.0 0.0 1.4116257e-09
5.0416907e-11 6.0473304e-10 4.656855e-10 5.053787e-10 8.5910595e-10 4.2510856e-11 5.7707666e-10 1.1136276e-09
7.394521e-10 0.0 0.0 0.0 0.0 0.0 2.0031194e-09 3.854513e-10
1.0638506e-09 1.2278969e-09 1.265501e-09 1.3070218e-09 3.6937278e-10 2.7108271e-09 1.0055067e-09 8.9762364e-10
2.506049e-09 2.0036575e-09 1.2382614e-09 1.521223e-09 7.461613e-10 2.4433777e-09 1.8430976e-09 2.165452e-09
2.1998379e-09 2.693813e-09 7.62328e-09 2.5303022e-09 5.576541e-09 5.679941e-09 6.7149784e-09 1.2713759e-08
7.2053323e-09 8.073711e-09 8.314039e-09 9.1974535e-09 6.69825e-08 4.0224702e-08 3.820958e-08 4.9685212e-08
6.96834e-08 2.0491843e-08 8.087424e-09 1.3080554e-08 1.2312484e-08 1.2135651e-08 1.1778159e-08 1.2720221e-08
1.573089e-08 1.6054393e-08 1.4641054e-08 3.5692356e-09 2.5930402e-09 1.7314638e-09 1.8431682e-09 1.9175428e-09
2.5558247e-08 1.7158268e-08 1.6094551e-08 2.2525063e-08 2.9287254e-08 5.1976434e-10 5.2898297e-10 5.7401506e-10
6.048876e-10 7.867928e-10 1.7908638e-08 5.899446e-09 1.1380234e-08 1.1787627e-08 1.6533109e-08 5.0261777e-09
3.8504715e-09 3.0145648e-09 3.670608e-09 6.3304255e-09 3.210025e-09 1.5889923e-09 1.4353179e-09 1.9369986e-09
2.9482812e-09 4.7989523e-10 1.0912621e-09 1.2499098e-09 1.1269823e-09 1.4579259e-09 1.1750524e-10 2.5240607e-10
2.1354797e-10 3.6765352e-10 3.298099e-10 0.0 0.0 0.0 0.0 0.0
1.4762308e-09 3.927349e-10 1.1440184e-09 1.102287e-09 1.4459594e-09 5.4487486e-09 1.6213371e-09 2.8433107e-09
3.2264948e-09 4.4567146e-09 9.2671915e-10 4.709246e-10 3.3339362e-10 6.823246e-10 9.885083e-10 2.8525209e-09
6.5936395e-10 2.1180162e-09 2.2028002e-09 2.6632123e-09 3.483521e-09 5.7308247e-10 2.0867108e-09 2.8959926e-09
2.6170133e-09 4.811463e-09 1.4842295e-09 3.302898e-09 3.0228606e-09 4.3131743e-09 1.0019463e-08 3.834276e-09
3.4898264e-09 4.3010853e-09 7.2771447e-09 9.201662e-10 6.655315e-10 1.8916253e-10 5.800829e-10 7.775777e-12

exp_avg f4 [32]
00000000: 0000 0000 1bf0 0e37 0000 0000 ce96 e635
00000010: f47f 9734 0000 0000 02bc 4eb5 879c a833
00000020: eec6 7236 8141 ed36 9c9b 38b5 e067 2637
00000030: dacd 2d37 94bf 11b7 cf45 4fb6 1e12 e8b3
00000040: f09b 9eb6 fdc0 a034 4d9f abb6 744e 1737
00000050: fe44 9d36 6954 4bb6 871e 8334 0000 0000
00000060: fa33 eb35 6954 46b6 2a99 8cb5 2b73 dcb6
00000070: feab 31b7 ef95 b2b4 3458 ea36 a418 09b7
0.0 8.5197635e-06 0.0 1.7180225e-06 2.821904e-07 0.0 -7.701457e-07 7.851582e-08
3.6176602e-06 7.070776e-06 -6.8771783e-07 9.918556e-06 1.0359532e-05 -8.687279e-06 -3.0886038e-06 -1.08066374e-07
-4.7269205e-06 2.994274e-07 -5.114742e-06 9.018568e-06 4.6869964e-06 -3.029849e-06 2.4422863e-07 0.0
1.7523992e-06 -2.9553432e-06 -1.047539e-06 -6.5699182e-06 -1.0590067e-05 -3.3264175e-07 6.9840116e-06 -8.171573e-06

exp_avg_sq f4 [32]
00000000: 0000 0000 e310 8432 0000 0000 8b95 0531
00000010: bc50 4831 0000 0000 fb2d 8a31 a123 3b31
00000020: e214 1c32 b99b 1f32 ced2 af32 d0e8 1e33
00000030: c11a 2734 9eba 5733 a555 9533 a165 3432
00000040: a0d2 a833 b62d 3231 9acc 2e33 dd14 7532
00000050: 5f08 e031 1623 9431 43f8 9530 0000 0000
00000060: 6ab4 6a31 9c51 3732 19ca 0731 7710 dc31
00000070: 2e71 0132 ec37 3132 fc86 8132 7212 1831
0.0 1.5374502e-08 0.0 1.9439053e-09 2.9149723e-09 0.0 4.021556e-09 2.7232334e-09
9.085143e-09 9.290425e-09 2.0468544e-08 3.6998983e-08 1.556282e-07 5.0228316e-08 6.953932e-08 1.0500487e-08
7.861422e-08 2.5928393e-09 4.0698616e-08 1.4265621e-08 6.5202097e-09 4.3113557e-09 1.0911737e-09 0.0
3.4154035e-09 1.0670558e-08 1.9759965e-09 6.4047145e-09 7.534522e-09 1.0315471e-08 1.507896e-08 2.2129396e-09

exp_avg f4 [32, 32]
00000000: 0000 0000 111f 8835 0000 0000 0e21 4b35
00000010: 6368 ceb3 0000 0000 aa52 29b3 11b7 86b3
00000020: d4a3 bf35 a511 e334 3194 dab3 cfe5 b534
00000030: 8c75 7234 9fab 9434 a1f3 90b3 ba0a c134
00000040: 4527 bbb4 904e 0235 8342 0d35 b946 a435
00000050: 6f97 c535 00c7 ed34 31aa 7e33 0000 0000
00000060: dc1a acb4 55a0 df31 d42c 4cb5 752b 0635
00000070: 35e4 5334 3733 a235 3fc4 0835 e3c6 a9b3
00000080: 0000 0000 b3e4 15b6 0000 0000 85f3 86b6
00000090: 2292 b634 0000 0000 c3f8 ff34 678b b134
000000a0: 3a02 c4b5 796f 0cb6 ff4f 46b4 9844 2435
000000b0: 3205 ffb4 9b10 9bb4 a9be 5c35 8742 a4b5
000000c0: 8563 aa35 bf4f d5b4 a9ff d5b5 afe0 04b6
000000d0: 69fa 45b6 6d2b 5035 a732 05b4 0000 0000
000000e0: 3fd3 5c35 84b8 41b5 9f18 2f35 f492 86b5
000000f0: 4843 b434 ff84 25b6 658c 12b6 6d5c bc34
00000100: 0000 0000 1a37 9eb6 0000 0000 ca8f 6eb6
00000110: 9294 f434 0000 0000 80c2 6c33 e54e 9234
00000120: bc61 e3b6 0154 14b6 1719 c734 63b4 f6b5
00000130: 1fb0 8db5 41fd b7b5 d79b 9634 2749 f7b5
00000140: f155 cf35 5b74 26b6 3cfe 28b6 8c0c c0b6
00000150: 49ce e9b6 f19b 0eb6 2ad0 dcb4 0000 0000
00000160: 74a8 b235 b042 f4b3 7965 6436 2445 21b6
00000170: 4f10 8eb5 0841 bcb6 f0d8 1fb6 2c8a c534
00000180: 0000 0000 02ff bc36 0000 0000 1012 1336
00000190: 37b6 53b4 0000 0000 616e 1236 16d8 2bb5
000001a0: 747d 1a37 d86c 1e36 0f7c 9735 278f 9736
000001b0: 5d65 c535 c71b 0d36 eaf5 f035 ba78 c735
000001c0: 3e7d 2b34 f192 9b36 2e4e 5536 634c 1a37
000001d0: 9e1c 1337 8e24 8736 dd5b da34 0000 0000
000001e0: af43 8db5 fed0 5f35 9b58 0db6 a116 fa35
000001f0: c2a3 7236 1dad d436 7bb1 6236 711f 5fb3
00000200: 0000 0000 b2f7 0936 0000 0000 ddf0 cd35
00000210: 6c9f 51b4 0000 0000 7d0f b0b3 a1f5 08b4
00000220: 8e31 4236 9631 6535 073a 61b4 5999 3735
00000230: a9bd f534 aa6b 1635 e733 14b4 28d1 4235
00000240: 0359 3eb5 93a8 8335 86dc 8e35 3888 2636
00000250: 0a50 4836 31bf 7035 9765 0034 0000 0000
00000260: 6f77 2fb5 8813 2632 235c cfb5 e406 8835
00000270: 8a74 d634 4483 2436 5e85 8a35 7c51 2cb4
00000280: 0000 0000 2a7e 9bb5 0000 0000 6af4 b1b5
00000290: 7a43 5734 0000 0000 9b99 1e35 eecd a633
000002a0: dc4d 1cb6 31b1 93b4 6a9b 3035 4bae 87b4
000002b0: d3e1 c9b3 ade7 4db5 d484 1c34 de66 1834
000002c0: 7e99 3235 a562 9ab4 46e0 29b5 76b1 d7b5
000002d0: 116a 35b6 22a0 39b5 5035 bb32 0000 0000
000002e0: f9aa 5635 0ff3 4735 2dee e535 aa50 9db5
000002f0: 0f39 09b5 8d67 10b6 be48 43b4 b98e 3034
00000300: 0000 0000 8950 bab5 0000 0000 772d 8bb5
00000310: 4d73 0e34 0000 0000 43c6 7d33 f60e bb33
00000320: c701 03b6 0789 19b5 5907 1f34 e79c f5b4
00000330: 411d a6b4 5bf5 c9b4 c0b2 ce33 a871 02b5
00000340: 55ee 0135 517f 30b5 c6ad 3fb5 83e1 e0b5
00000350: 0d58 07b6 7dd8 21b5 2d58 aab3 0000 0000
00000360: bf7e f034 4299 89af 06bd 8c35 dff4 37b5
00000370: fb79 90b4 4f93 deb5 02fa 3ab5 449f e933
00000380: 0000 0000 c2bf 7cb6 0000 0000 c2c5 3cb6
00000390: 5ce1 c034 0000 0000 87ea 2834 5307 7d34
000003a0: 4dbd b1b6 3ec3 d0b5 a43b d534 f703 a7b5
000003b0: 7954 61b5 cb23 89b5 3b36 8b34 e862 b1b5
000003c0: abc9 af35 85e7 efb5 e336 02b6 0589 98b6
000003d0: c78f b7b6 c1bb dbb5 b558 68b4 0000 0000
000003e0: 9882 a235 169c b6b1 7da0 3e36 716b f9b5
000003f0: 6a19 44b5 71e4 96b6 81b6 fdb5 d648 9e34
0.0 1.0141831e-06 0.0 7.5671494e-07 -9.61161e-08 0.0 -3.942356e-08 -6.273161e-08
1.4278289e-06 4.2294883e-07 -1.0178372e-07 3.3881085e-07 2.258077e-07 2.769202e-07 -6.7498384e-08 3.5956856e-07
-3.4860037e-07 4.85431e-07 5.262338e-07 1.2239535e-06 1.4721717e-06 4.4289482e-07 5.929377e-08 0.0
-3.205704e-07 6.508382e-09 -7.6061156e-07 4.998213e-07 1.9733928e-07 1.2084846e-06 5.0949524e-07 -7.905853e-08
0.0 -2.233585e-06 0.0 -4.0218606e-06 3.4006467e-07 0.0 4.767845e-07 3.3070248e-07
-1.4603786e-06 -2.0926511e-06 -1.846929e-07 6.119458e-07 -4.750123e-07 -2.8883082e-07 8.2233834e-07 -1.2238314e-06
1.2694951e-06 -3.9732365e-07 -1.5944144e-06 -1.9800316e-06 -2.9501045e-06 7.754923e-07 -1.2405017e-07 0.0
8.226379e-07 -7.216661e-07 6.522841e-07 -1.0026547e-06 3.3576566e-07 -2.466433e-06 -2.1837416e-06 3.5084977e-07
0.0 -4.7151816e-06 0.0 -3.554846e-06 4.555664e-07 0.0 5.512493e-08 2.7252023e-07
-6.776505e-06 -2.2102615e-06 3.7084894e-07 -1.8380928e-06 -1.0556577e-06 -1.3708269e-06 2.8053066e-07 -1.8424224e-06
1.5447714e-06 -2.4803655e-06 -2.5181935e-06 -5.7235065e-06 -6.967956e-06 -2.1250419e-06 -4.1129653e-07 0.0
1.331106e-06 -1.1374266e-07 3.4033712e-06 -2.4031115e-06 -1.0584571e-06 -5.6104072e-06 -2.381912e-06 3.6794643e-07
0.0 5.6325234e-06 0.0 2.191522e-06 -1.9717196e-07 0.0 2.1819944e-06 -6.401691e-07
9.208325e-06 2.360719e-06 1.1286483e-06 4.516816e-06 1.4707144e-06 2.1026806e-06 1.7952964e-06 1.4861791e-06
1.5971179e-07 4.636466e-06 3.178498e-06 9.1969005e-06 8.768546e-06 4.027569e-06 4.0672504e-07 0.0
-1.0525017e-06 8.33781e-07 -2.1062212e-06 1.8633037e-06 3.615613e-06 6.3382454e-06 3.3779932e-06 -5.194983e-08
0.0 2.0558768e-06 0.0 1.5343791e-06 -1.9522639e-07 0.0 -8.198456e-08 -1.2755346e-07
2.8937097e-06 8.5381305e-07 -2.0975868e-07 6.839596e-07 4.5772802e-07 5.6036026e-07 -1.3802456e-07 7.2574994e-07
-7.0910045e-07 9.809322e-07 1.0644005e-06 2.4815217e-06 2.9848911e-06 8.968519e-07 1.1957887e-07 0.0
-6.536638e-07 9.666913e-09 -1.5449517e-06 1.0134795e-06 3.99454e-07 2.451431e-06 1.0320616e-06 -1.6048392e-07
0.0 -1.1585119e-06 0.0 -1.3258662e-06 2.0047983e-07 0.0 5.908311e-07 7.767436e-08
-2.3291132e-06 -2.7509807e-07 6.5791266e-07 -2.5272524e-07 -9.400869e-08 -7.6705584e-07 1.4576955e-07 1.4193526e-07
6.653353e-07 -2.875651e-07 -6.3283767e-07 -1.6070396e-06 -2.703284e-06 -6.9150894e-07 2.1793909e-08 0.0
7.997001e-07 7.4486974e-07 1.7131148e-06 -1.1720888e-06 -5.111951e-07 -2.1517947e-06 -1.8187254e-07 1.64432e-07
0.0 -1.3881519e-06 0.0 -1.0369539e-06 1.3266727e-07 0.0 5.908647e-08 8.7105875e-08
-1.9521556e-06 -5.719634e-07 1.4810702e-07 -4.5748968e-07 -3.0941194e-07 -3.7617687e-07 9.625137e-08 -4.8594165e-07
4.8403064e-07 -6.575038e-07 -7.140592e-07 -1.6754933e-06 -2.016782e-06 -6.0292206e-07 -7.932281e-08 0.0
4.4795704e-07 -2.502905e-10 1.0485826e-06 -6.8529147e-07 -2.6910843e-07 -1.6583161e-06 -6.965421e-07 1.0878878e-07
0.0 -3.7662544e-06 0.0 -2.8129293e-06 3.5926757e-07 0.0 1.573154e-07 2.3565126e-07
-5.2970486e-06 -1.5554031e-06 3.9717736e-07 -1.2443624e-06 -8.3941956e-07 -1.0217713e-06 2.5930225e-07 -1.3216313e-06
1.3097209e-06 -1.7874269e-06 -1.9403458e-06 -4.545904e-06 -5.470563e-06 -1.6371415e-06 -2.1638955e-07 0.0
1.2107948e-06 -5.314642e-09 2.8405623e-06 -1.8583215e-06 -7.305267e-07 -4.4969424e-06 -1.8903085e-06 2.9482788e-07

exp_avg_sq f4 [32, 32]
00000000: 0000 0000 9b4b 342f 0000 0000 09e4 542e
00000010: f70e a52c 0000 0000 24b4 282f 2ec6 ab2c
00000020: eb0d 0530 249d 1830 ac47 b52f 9c48 ea2f
00000030: 4964 5f2d 0779 c02e 3ab0 712e 139d f22f
00000040: 59b7 fe2e 9754 1330 1e8f cf2f d1d5 662f
00000050: 9e5d 602f c93b 262f df83 2f2e 0000 0000
00000060: 697a a42f 0bf1 d42f 40d4 b12e d6c3 b62d
00000070: 0918 212e dffe 0d2e 4394 ce2e d98f 922a
00000080: 0000 0000 f51e 0731 0000 0000 3986 cf30
00000090: f55c 3f2d 0000 0000 9148 6330 f0a0 a62e
000000a0: b574 8a31 2c96 3032 a3de b031 7b8a 5f31
000000b0: 5834 212f 6172 b330 6664 ed2f 4940 e931
000000c0: 8f88 af30 32c4 c131 ecdf e331 fb4a 9f30
000000d0: 9bbe 2f31 3e70 8a30 d9e7 1e2c 0000 0000
000000e0: 8d89 9b31 810f dc31 bad0 2530 d3a9 b62f
000000f0: 02a8 fa2f d765 4630 3c5f 3131 678a a72c
00000100: 0000 0000 276c 7231 0000 0000 a298 8b30
00000110: 21d3 dd2e 0000 0000 37c1 6131 84eb e72e
00000120: 8797 3032 64c5 4732 e75e f331 16c1 1932
00000130: 0e19 932f 3201 fe30 33f8 a230 5747 2032
00000140: ceaf 2b31 60c8 4232 04fc 0a32 e562 9b31
00000150: 291c 9231 1993 5f31 faa1 6a30 0000 0000
00000160: 3956 da31 560b 0f32 7966 ee30 a2d1 db2f
00000170: 4806 4930 556f 3730 1541 0a31 7d72 c62c
00000180: 0000 0000 1fcc 8d31 0000 0000 b1ff 5e30
00000190: dd29 422f 0000 0000 a59f 9731 a23c 812d
000001a0: 504e 2e32 e982 4932 b3f0 8131 6d7e 4932
000001b0: 0076 1530 0b5c 4930 63e2 d52f c3d5 3132
000001c0: ad5e 6030 12a9 5732 1af8 8231 b0e0 d031
000001d0: e390 af31 d1a3 1231 46da c230 0000 0000
000001e0: 6551 7b31 11ef b631 ffd8 0231 6519 3b30
000001f0: b26e 8d30 21fb 8630 7db1 1f31 ad94 f02a
00000200: 0000 0000 6d91 3a30 0000 0000 9a50 5c2f
00000210: 85cc aa2d 0000 0000 e893 2e30 1bb9 b12d
00000220: 8caf 0931 a8ee 1d31 6897 bb30 3d71 f230
00000230: 6725 672e 242c c72f b515 7a2f 6910 fb30
00000240: 12c9 0330 f875 1831 05c9 d630 e9de 6e30
00000250: fa2d 6830 5503 2c30 ca9e 352f 0000 0000
00000260: 9e34 aa30 ba5b dc30 0706 b82f d322 bd2e
00000270: e1b4 262f 20f0 122f c5c5 d52f 3ca5 972b
00000280: 0000 0000 c22b 2930 0000 0000 c2f6 512f
00000290: 870d b22d 0000 0000 9e48 2530 497f b82d
000002a0: c526 0531 0451 0f31 e5b6 b530 0532 e430
000002b0: 76c6 352e 316f cc2f 225b 822f cd91 de30
000002c0: cab8 0730 db04 0e31 70bf d030 363c 6430
000002d0: d413 5d30 d5d4 2d30 c868 3a2f 0000 0000
000002e0: cc54 a430 e502 cf30 b375 b12f 2ffa b12e
000002f0: ee0e 2b2f 8f3b 062f 29d8 ac2f b41a 9e2b
00000300: 0000 0000 1d15 aa2f 0000 0000 1dd7 c82e
00000310: f9b5 1b2d 0000 0000 6227 9f2f c509 222d
00000320: 1e0a 7b30 31fa 8f30 4404 2b30 4d06 5d30
00000330: 19bf d22d 2693 352f d1fe e32e 88e1 6430
00000340: da4a 702f 7dfd 8a30 60ce 4330 36c3 d92f
00000350: 2daa d32f 4ad1 9c2f b993 a52e 0000 0000
00000360: d92a 1b30 fae2 4830 c8c4 272f a36e 2c2e
00000370: 92fa 972e 34f5 852e 71e1 422f 9644 0a2b
00000380: 0000 0000 c513 1d31 0000 0000 5d7c 3930
00000390: 45c6 8f2e 0000 0000 64f8 1231 fb9b 952e
000003a0: cfd8 e731 6ffa 0432 52ed 9d31 4f21 cc31
000003b0: 09a3 422f 03af a730 4f84 5230 3466 d331
000003c0: c6de dd30 ad5d 0032 d6d3 b431 5717 4931
000003d0: 427d 4331 c7cf 1031 c3e1 1830 0000 0000
000003e0: b14d 8f31 fa84 b931 7de9 9a30 dc48 9f2f
000003f0: 3f58 0c30 fa6f f72f 9dfc b330 8e4f 7f2c
0.0 1.6397765e-10 0.0 4.8405755e-11 4.6912435e-12 0.0 1.534351e-10 4.8821147e-12
4.8404897e-10 5.552059e-10 3.2974634e-10 4.2615944e-10 1.269835e-11 8.752648e-11 5.4953576e-11 4.4131152e-10
1.1583152e-10 5.35985e-10 3.7754772e-10 2.0994341e-10 2.0405941e-10 1.5118852e-10 3.9907518e-11 0.0
2.9918404e-10 3.8733847e-10 8.086731e-11 2.0777973e-11 3.662851e-11 3.228606e-11 9.394132e-11 2.6034624e-13
0.0 1.9662683e-09 0.0 1.5099381e-09 1.0877734e-11 0.0 8.268524e-10 7.577394e-11
4.0295967e-09 1.02786935e-08 5.147585e-09 3.2529488e-09 1.4661461e-10 1.3056473e-09 4.3181386e-10 6.788501e-09
1.2771738e-09 5.639344e-09 6.6320265e-09 1.1590083e-09 2.5574198e-09 1.0072723e-09 2.2581852e-12 0.0
4.5267314e-09 6.4046053e-09 6.032327e-10 3.3226275e-10 4.5594112e-10 7.2176704e-10 2.5811024e-09 4.7617912e-12
0.0 3.5277112e-09 0.0 1.0156962e-09 1.00874205e-10 0.0 3.285164e-09 1.05465e-10
1.0279002e-08 1.1628206e-08 7.08302e-09 8.949675e-09 2.6756947e-10 1.8481272e-09 1.1857594e-09 9.3294465e-09
2.4983708e-09 1.1337846e-08 8.089959e-09 4.5223367e-09 4.2523607e-09 3.2534386e-09 8.5358887e-10 0.0
6.3544374e-09 8.326273e-09 1.7345904e-09 3.998482e-10 7.31323e-10 6.6733225e-10 2.0118638e-09 5.6402092e-12
0.0 4.126846e-09 0.0 8.112649e-10 1.765907e-10 0.0 4.412828e-09 1.4692528e-11
1.0145939e-08 1.1729505e-08 3.7817585e-09 1.1728486e-08 5.437357e-10 7.3254175e-10 3.8905332e-10 1.035136e-08
8.162527e-10 1.2553089e-08 3.811704e-09 6.0791407e-09 5.109642e-09 2.1338915e-09 1.4177395e-09 0.0
3.6571575e-09 5.324076e-09 1.9040838e-09 6.806629e-10 1.0290562e-09 9.821158e-10 2.3238436e-09 4.273573e-13
0.0 6.787307e-10 0.0 2.0037519e-10 1.9417587e-11 0.0 6.351102e-10 2.0204774e-11
2.003591e-09 2.2982167e-09 1.3649073e-09 1.7640002e-09 5.255654e-11 3.6229253e-10 2.274508e-10 1.8267318e-09
4.794326e-10 2.2185969e-09 1.5627682e-09 8.690067e-10 8.4466445e-10 6.257797e-10 1.6518267e-10 0.0
1.2384083e-09 1.6033177e-09 3.3473688e-10 8.600911e-11 1.5161873e-10 1.3363932e-10 3.8884998e-10 1.0775057e-12
0.0 6.1544025e-10 0.0 1.9096105e-10 2.0242264e-11 0.0 6.0129846e-10 2.0974904e-11
1.9376085e-09 2.085529e-09 1.3221465e-09 1.66034e-09 4.1330904e-11 3.718639e-10 2.3711616e-10 1.6194065e-09
4.9375315e-10 2.066648e-09 1.5188402e-09 8.303148e-10 8.042751e-10 6.3239486e-10 1.6953827e-10 0.0
1.1956671e-09 1.5062055e-09 3.2279743e-10 8.0934696e-11 1.5557663e-10 1.2208388e-10 3.144021e-10 1.1233987e-12
0.0 3.0937822e-10 0.0 9.133159e-11 8.851136e-12 0.0 2.8949915e-10 9.210803e-12
9.1327645e-10 1.0475728e-09 6.22155e-10 8.0408286e-10 2.39591e-11 1.6514132e-10 1.03680294e-10 8.3266416e-10
2.1854465e-10 1.0112867e-09 7.1233863e-10 3.9610776e-10 3.8501594e-10 2.8524944e-10 7.529572e-11 0.0
5.644956e-10 7.308213e-10 1.5258472e-10 3.9206537e-11 6.911195e-11 6.0916966e-11 1.772429e-10 4.912263e-13
0.0 2.2857745e-09 0.0 6.747934e-10 6.538107e-11 0.0 2.138699e-09 6.803443e-11
6.747633e-09 7.740353e-09 4.5962816e-09 5.940968e-09 1.7702119e-10 1.220059e-09 7.6585577e-10 6.1525274e-09
1.6143182e-09 7.47188e-09 5.2627724e-09 2.9262617e-09 2.8447436e-09 2.1072866e-09 5.5618105e-10 0.0
4.1706802e-09 5.3993263e-09 1.1271336e-09 2.89737e-10 5.105711e-10 4.5008602e-10 1.3095761e-09 3.6281841e-12

exp_avg f4 [32]
00000000: 2a71 d835 539a 40b6 f237 02b7 e5d4 5837
00000010: 662f 5b36 b20a 29b6 949b 13b6 a55d c8b6
00000020: 4f4e e8b6 cd6d 3f36 478b 0935 f90c 10b7
00000030: 808d 5337 8f70 3636 08a8 1a37 0400 0000
00000040: 6497 46b6 7f3f b8b5 0000 0000 4819 cd36
00000050: 0400 0000 70c7 b736 73a4 8336 ce1a 07b6
00000060: d915 d536 0000 0000 0000 0000 0000 0000
00000070: fdbd 0a37 7165 01b6 0400 0000 eb9a 20b5
1.6126189e-06 -2.8700058e-06 -7.76163e-06 1.2924172e-05 3.2661133e-06 -2.5189188e-06 -2.1995265e-06 -5.971366e-06
-6.923255e-06 2.852513e-06 5.123915e-07 -8.586089e-06 1.2609526e-05 2.718563e-06 9.218238e-06 6e-45
-2.959242e-06 -1.3727548e-06 0.0 6.112419e-06 6e-45 5.4770426e-06 3.9232486e-06 -2.013217e-06
6.350438e-06 0.0 0.0 0.0 8.269676e-06 -1.9281545e-06 6e-45 -5.983008e-07

exp_avg_sq f4 [32]
00000000: 15fd af30 7b3c 8332 10b9 e932 e657 be32
00000010: 351e b631 1909 b131 3706 2631 2653 9932
00000020: 2e5c ce32 c3cb 8931 c017 3732 ca56 e631
00000030: fde8 1c32 abab 7a31 2795 aa33 12df 930f
00000040: c36a c932 8ecb 3032 0000 0000 f69c 9f32
00000050: f2b2 910f 80f2 c830 3457 0332 612f d730
00000060: e559 7932 0000 0000 0000 0000 0000 0000
00000070: 1a4c 1233 57b9 0331 6f4c a50f 004c 8d2f
1.2804856e-09 1.527791e-08 2.7208927e-08 2.2158883e-08 5.3003313e-09 5.1524123e-09 2.4159712e-09 1.7849356e-08
2.4023475e-08 4.01039e-09 1.0657402e-08 6.703748e-09 9.1333705e-09 3.647737e-09 7.9433725e-08 1.4581243e-29
2.344803e-08 1.0290831e-08 0.0 1.8581414e-08 1.4367031e-29 1.4620838e-09 7.645031e-09 1.5656775e-09
1.4514147e-08 0.0 0.0 0.0 3.4062488e-08 1.9168362e-09 1.6299697e-29 2.5701752e-10

exp_avg f4 [1, 32]
00000000: 52ae a937 a897 2b36 4c53 3b36 03ba 4437
00000010: 478d 8437 e6e9 1a37 4885 2437 df9a cd35
00000020: 3a9e 21b6 31e2 9a36 2991 e534 c639 af36
00000030: 7f1d 8237 d0cf b537 db31 49b6 0400 0000
00000040: 0b53 85b3 8475 5736 0000 0000 11fc 7437
00000050: 0400 0080 9fcc 6034 3631 2937 ce95 0b37
00000060: af41 2136 0000 0000 0000 0000 0000 0000
00000070: 6053 aa37 7d7d 0935 0400 0080 9474 b832
2.0227544e-05 2.5569261e-06 2.7913657e-06 1.172582e-05 1.5801414e-05 9.233574e-06 9.806194e-06 1.5318764e-06
-2.408297e-06 4.61589e-06 4.2760192e-07 5.222132e-06 1.5510943e-05 2.1673652e-05 -2.9980354e-06 6e-45
-6.2084005e-08 3.21059e-06 0.0 1.4602222e-05 -6e-45 2.0936066e-07 1.0084643e-05 8.319925e-06
2.4029102e-06 0.0 0.0 0.0 2.0304404e-05 5.1219087e-07 -6e-45 2.1473433e-08

exp_avg_sq f4 [1, 32]
00000000: 585e 0c35 6bf5 1f32 cebf c232 bc25 6f32
00000010: 0b63 4034 9bfd cc33 069f 9632 21fe 2833
00000020: 8fed 0d2f 6994 8134 e0da ad30 adbb bd32
00000030: 8f10 a332 b818 a734 0cfd f730 437b 430e
00000040: 5748 9e32 0700 ad32 0000 0000 c7d3 8734
00000050: cc9f 1f0d 62e5 112d 31c4 4734 ad13 e032
00000060: 6f73 1f30 0000 0000 0000 0000 0000 0000
00000070: abd2 d333 03df 822c 9ce2 780a bc0b df29
5.229135e-07 9.31082e-09 2.2671795e-08 1.3920211e-08 1.7917425e-07 9.545621e-08 1.7534614e-08 3.9346677e-08
1.2908273e-10 2.4136105e-07 1.2649615e-09 2.2087841e-08 1.8983227e-08 3.112416e-07 1.8043536e-09 2.4094954e-30
1.8426517e-08 2.0139863e-08 0.0 2.5299798e-07 4.9188006e-31 8.293229e-12 1.8604693e-07 2.608598e-08
5.8007904e-10 0.0 0.0 0.0 9.8637734e-08 3.7195815e-12 1.1983386e-32 9.905225e-14

hidden_layers.0.weight f4 [32, 5]
00000000: 8d2e cdbe 6ad4 d6be 1ec3 23be a8ae 5cbd
00000010: 404d d33c 9564 04bc 6984 ba3e ca89 fa3b
00000020: 8ad1 d6bd 9f58 e93e 98b9 52bd ffef b6be
00000030: 707c 3cbd f2e6 923e a2cd 8bbe f040 033f
00000040: e843 9bbe 0acd c43c 06ba 61be 6d8d eb3d
00000050: dfe1 4bbe c6b1 23bf ecb0 7dbe c31b d1bd
00000060: 1b66 573e 682e a9bd 3888 2c3e 286c cebe
00000070: d0ae 08be 0396 4ebe b77e 8fbe d7d0 e9bb
00000080: eed6 9dbe 2248 563e 029f b43e 4d87 c83b
00000090: e0d0 4a3e 1017 693e 2fcb 9b3b ac8c a5be
000000a0: c6a4 77be df38 9a3e f4bf b33e 4bf6 aabb
000000b0: c9e1 613e 2700 e63e ac8f 82be c891 96bd
000000c0: b6fc f83e c31f 903e df41 2f3e e51c 993e
000000d0: c68a 67be 53bc 063e 8927 a9be 6bae 7cbe
000000e0: 90af 3cbe 1213 113c 9e71 de3e e2f9 e93e
000000f0: 34bf 50bc b159 2ebe a325 73bc 35c8 d63d
00000100: 03b5 273f db33 953d 723c 183c fd3e 3d3e
00000110: cef0 013d b4a1 d6be c2c5 1cbe 2a07 da3d
00000120: fd99 1b3c 1df5 e9bc 17e2 f7be 45cb 673e
00000130: 0c84 343e 1905 afbc 3b05 e73e 44b3 eb3e
00000140: c38b 69bd 0caf 5b3e b3b0 c1bd 70be 793d
00000150: 5fc3 02bf 9be5 92bd 36d4 003d eea3 2ebd
00000160: a0ef ba3e 2036 c73e 7a4f 8d3e f38c d13e
00000170: bb28 2a3d 51a2 903b 0f90 cbbe 4fda aabe
00000180: 2fc2 3c3e 3d22 03be 9e01 4fbe 0792 113f
00000190: f32e 1b3d 4afc 8dbe 59ae 6c3e 5a90 76bd
000001a0: fc42 a93e 4629 88be 2a07 023f 4f04 833e
000001b0: 819d 80bd 6021 52be c16d 26bf 6887 023e
000001c0: 1d50 3ebd e14c b73e 8667 e33e b00c 033d
000001d0: 3dba 67be 6a16 9bbe 4bb0 5abe a7ef b9be
000001e0: 9008 223e b7d3 623e ff16 463c f3d8 b53e
000001f0: 0343 bdbe 957e 733e 4d64 eb3e 830f 6cbe
00000200: 2588 303e d5e0 0ebe 85e1 1abe 9dcc 99bd
00000210: 5675 d6be 8aab b23e 2994 bf3c 15d6 b83d
00000220: f385 c9be 5b72 863e 75d0 123e dbee 8a3e
00000230: ca4e 633c 9722 52bf 4825 403c b9e2 203e
00000240: dbd2 a63d 31ba 593e 2e4a 9ebe f567 193e
00000250: a053 6dbe c51c e33e df4a 003f 2875 523e
00000260: d8e5 4dbe b0c2 cc3d 0cdb d03e d60e 0a3d
00000270: d56b ba3c 5fe8 d0bc 9e3d 4a3e 171a 3bbf
-0.40074578 -0.41958934 -0.159924 -0.053877503 0.025793672 -0.008080621 0.36429146 0.0076458203
-0.10489185 0.45575425 -0.051446527 -0.35729977 -0.04601711 0.28691822 -0.27305323 0.5127096
-0.30325246 0.024023551 -0.22043619 0.11501584 -0.19910382 -0.63943136 -0.24774522 -0.10210373
0.21035044 -0.082608044 0.16848838 -0.40316892 -0.13347936 -0.20174412 -0.28026363 -0.0071354914
-0.3082804 0.20925954 0.35277563 0.0061196447 0.19806242 0.22762704 0.004754446 -0.32333887
-0.2418395 0.30121514 0.35107386 -0.0052173487 0.22058786 0.4492199 -0.25500238 -0.07352024
0.48630303 0.28149232 0.17114972 0.29904857 -0.22611532 0.13157777 -0.33037975 -0.2467591
-0.18426347 0.008854644 0.43446058 0.45698458 -0.012740899 -0.17026402 -0.014840516 0.10487405
0.65510577 0.07285281 0.009291755 0.1848106 0.03172379 -0.41920245 -0.15309814 0.10645898
0.009497163 -0.028559262 -0.4841468 0.22636135 0.17628497 -0.021364735 0.45121178 0.46035206
-0.057018053 0.21453494 -0.09457531 0.06097263 -0.5107936 -0.071727 0.03145238 -0.042636804
0.36510944 0.38908482 0.27599698 0.40927848 0.04154275 0.004413881 -0.39758345 -0.3336968
0.1843345 -0.1280603 -0.2021546 0.56863445 0.03788657 -0.27731544 0.23113383 -0.060196258
0.33058918 -0.2659399 0.5079218 0.25589225 -0.062800415 -0.20520544 -0.6501122 0.12746966
-0.04646312 0.3580084 0.4441492 0.03199452 -0.22629638 -0.30290538 -0.21356313 -0.36315653
0.15823579 0.22151075 0.012090444 0.35517082 -0.36965188 0.23778756 0.4597496 -0.23052792
0.17239435 -0.13952954 -0.15125091 -0.0750973 -0.41886395 0.348965 0.023386078 0.09025208
-0.39360008 0.2625912 0.14337333 0.27135357 0.013873765 -0.8208403 0.011727639 0.15711488
0.08145686 0.21262433 -0.3091597 0.14981063 -0.23176432 0.44357887 0.50114244 0.20552504
-0.2010721 0.09998071 0.4079212 0.033705555 0.022756496 -0.025501428 0.19750068 -0.73086685

hidden_layers.0.bias f4 [32]
00000000: f4e8 ebbd b858 353d 69e7 e1be 4950 263b
00000010: 65ff 983e 5e14 ddbe 54de bc3e 5e0e 95bd
00000020: 160e c33e 8186 803e 497b d23e ddc2 dc3e
00000030: 9f9f 62be b4be 8b3e 3f31 c63e 6827 af3c
00000040: 30df cd3e f5fe c43e 8ef2 a13e 76fb c63e
00000050: c31c a73e 19b6 593e ff45 99bd 438b 73be
00000060: 66da 883e 8936 823e 0a8a a83e 09be 98bd
00000070: a80f 963e 2066 2e3c def0 98be fa81 fcbc
-0.11519042 0.044274062 -0.44121864 0.0025377444 0.2988235 -0.431796 0.36888373 -0.07278131
0.38096684 0.25102618 0.41109684 0.4311742 -0.22131203 0.27293932 0.38709447 0.021381095
0.4020934 0.38475767 0.31630367 0.38863724 0.3263913 0.21260871 -0.07484054 -0.23783593
0.26729125 0.25432232 0.32917815 -0.07458121 0.2930882 0.010644466 -0.29871267 -0.030823696

hidden_layers.1.weight f4 [32, 32]
00000000: 6070 f0bc a84a 47bd 0008 8d3d 80e1 c6bd
00000010: fc28 a1bd f7a5 183e 82d8 363e 6d80 153e
00000020: ae44 443e f058 593e 4a2c e53d ff1e 4f3e
00000030: 0f5c b93e e454 1fbc 3f76 e63c d053 ac3d
00000040: 8cde 6f3d a04b 033e c22c 063e 799a acbc
00000050: ed6b 323e d842 553e f081 873d 80fd b63c
00000060: a1e4 d23d 9af9 8b3d 0994 b4bc 64aa a4bc
00000070: 9bb1 91bd 80f2 ba3d 7fff 0d3e beae fb3c
00000080: bbf1 103e 3eae de3d 1f9a 34be 2a53 473e
00000090: 53d7 6f3d 2410 d9bd 6ac5 8fbd 4b61 d2bd
000000a0: 1557 903d f84f 3b3e b25c 46bd 1917 71bc
000000b0: 2fc6 00bf 11be 183e 07d7 8d3d 77f4 b8bd
000000c0: d239 c5bc 3592 0d3e 778a d23d c411 d83c
000000d0: 4703 b1bd b5e7 3cbe 47e6 74bf dc50 d1bd
000000e0: 69b1 dc3d 4e97 173e 7f01 b7bd c84d dc3c
000000f0: 8885 24be cfda f7bd 7466 d6bc cafd 98bc
00000100: c678 d83d c67b 593d 149b 633d 8475 293e
00000110: 620c 00bd 9ef0 cb3d c734 533d d7d0 c0bd
00000120: 6e25 df3c 2b8f 19be 38ed 8c3d 4b68 863c
00000130: 52e5 1bbe 7a11 3b3e d53b 383e 02a1 093e
00000140: 5535 8e3d 4874 36be bfa5 083e db3b 773d
00000150: 1aa2 4f3d ba40 703c dd5f 1fba 7668 ecbd
00000160: 8266 063b 9995 e33c e244 473e 8bda 49bd
00000170: b7a0 edbd e01f 8b3d 6537 e6bd 20b1 38be
00000180: 6730 0e3e 2cc7 533d 1c81 363d 959a 633d
00000190: 26d1 05bd 50d0 76bc e205 9c3d b1fd 0e3e
000001a0: b586 923d ba8f 8a3d d99d 313d 5e6e 713e
000001b0: 0fcd 843e bccd 48be 4c48 aabe 2148 67bd
000001c0: 7732 8bbe 3ea4 f4bd 0536 89bd d608 503e
000001d0: 80e2 033e 43f7 c53d ef37 65be ae9c f73d
000001e0: 7789 49bd 5c57 edbd 9f3f 213e 5322 90bd
000001f0: 4379 9f3d 1879 dfbd 8bb5 71bb a44e df3d
00000200: 07dc 0a3e 8d28 83bc 3d44 0a3e a1de b6bb
00000210: e3db 933d 6b1a 1f3e e3e4 febd 94ad e2bd
00000220: 9d9f 213e 45eb a33c 3ec0 c53d 323b 913d
00000230: 52ca 7e3e 1c09 b93d 3413 aa3d 21cd bc3c
00000240: d609 133e 9df4 e6bd 6661 b4bd f028 da3d
00000250: c35c debc 0f41 393e 6e3e 5c3d 31ef 18be
00000260: f2d4 323d 2815 2d3e 9ca3 553c 49d7 863d
00000270: a7c4 69bd fbe9 bb3d ceb6 b0bd b8ce f43c
00000280: 9420 0fbd d99b 30be d069 323d bbb0 1b3e
00000290: 49c4 81bd de3f 993d 7c02 503e 9518 173d
000002a0: e3e3 e43d ad6d 5dbe 2617 073e 0daf 25be
000002b0: 41f9 fbbe baf4 763e f6fb 403e 3363 2ebe
000002c0: 1c10 3e3e 8428 a33b fc17 183e 1146 8abb
000002d0: d270 403e cf91 923d 9611 193e 7041 25be
000002e0: 638d b93d ceb2 523d a620 f6bc ac3b a63d
000002f0: cb95 3f3e 4638 cabd 1a6e 043e bd99 7cbe
00000300: 0057 633d 1caa e73c 7a9c fb3d bf58 6c3e
00000310: 3260 9d3d 6d52 113e 9ebd 86bd 2096 4fbe
00000320: 4238 243e 874e c7bc 8d91 e13d dfe9 0dbe
00000330: 8e18 11be 0ed4 323d 2b88 213e e6d5 d0bc
00000340: fe8e 8cbd def2 803d 91fe 78bd 66d5 233e
00000350: b5e2 323d 3907 eb3c 33d4 fb3d a6a9 fb3d
00000360: 2a0c 2e3e c38d 22bd f607 423c e01b 8fbd
00000370: 6d7c d9bc 66ca e63c 463f 8d3d 04af 27bd
00000380: 182c ecbc 0123 a13d 6830 bbbd 9498 0abd
00000390: 2e0d 21bd b3b8 b5bd c493 43bd 3788 da3c
000003a0: 32c3 64bd d28f 12bd 7a5b 683e 3a90 3ebe
000003b0: ec85 54be 706f 4a3e 6822 2abd 7ddd 2abd
000003c0: ddcc e83d 2ef6 7e3d c2fe 81bb 4204 7e3d
000003d0: 79fd dd3d 8cc8 39bc dd0f ca3d 844c 5cbd
000003e0: a62c b93c 7627 513d 0a4d 553e 13ab 03bb
000003f0: 4ef7 0fbe 10ce 8d3d d4c7 4ebe 04f2 b2bd
-0.02935046 -0.048655182 0.068862915 -0.097109795 -0.07869145 0.1490706 0.17856029 0.14599772
0.19166824 0.21225333 0.11190088 0.20226668 0.36203048 -0.009724829 0.028132556 0.084144235
0.058561847 0.12821817 0.13103011 -0.021069752 0.17423983 0.2082628 0.066165805 0.022337675
0.10297514 0.06834717 -0.022043245 -0.02010078 -0.07113954 0.091282845 0.13866995 0.030722972
0.14154713 0.10873078 -0.17636918 0.19465318 0.05855496 -0.10598782 -0.070200756 -0.102724634
0.070478596 0.18292224 -0.048428245 -0.01471498 -0.50302404 0.14916255 0.06925779 -0.09031003
-0.024075422 0.13825305 0.10280316 0.026375659 -0.08643203 -0.18447764 -0.95663875 -0.10220501
0.10776026 0.14803812 -0.08935832 0.026892558 -0.16066563 -0.12102281 -0.0261719 -0.018675704
0.10569911 0.053096555 0.055567816 0.16548735 -0.03126181 0.099580035 0.051564004 -0.09414833
0.027239528 -0.1499602 0.068811834 0.016407153 -0.15224198 0.18268386 0.17991574 0.13440326
0.06943766 -0.17817795 0.13344477 0.060359817 0.0506917 0.0146638695 -0.00060796534 -0.11543362
0.0020507877 0.027781295 0.1945987 -0.049280684 -0.116029195 0.06793189 -0.112410344 -0.18036318
0.13885652 0.051703617 0.044556722 0.055567343 -0.032670163 -0.015064314 0.076183096 0.13963963
0.071545996 0.06765695 0.043363426 0.23577258 0.25937697 -0.19609731 -0.33258283 -0.05646527
-0.2718694 -0.11945389 -0.066997565 0.2031587 0.12879372 0.09666302 -0.22384618 0.12090431
-0.049203362 -0.11588928 0.15746926 -0.07037797 0.07786801 -0.10911769 -0.003688189 0.109036714
0.13560496 -0.016010547 0.13502593 -0.0055807387 0.072196744 0.15537421 -0.124460004 -0.11068264
0.15783544 0.020009646 0.09655808 0.07091369 0.24881867 0.090349406 0.08304444 0.023047032
0.14359221 -0.11277125 -0.0880764 0.106523395 -0.027143842 0.18091224 0.053770475 -0.14934994
0.04366011 0.16902602 0.013039496 0.06584031 -0.057072308 0.091754876 -0.08628617 0.029883727
-0.03494318 -0.17246951 0.043557942 0.15204136 -0.063362665 0.07482885 0.20313448 0.036888678
0.111762784 -0.21623869 0.13192424 -0.16180058 -0.49213603 0.24116793 0.18846115 -0.17030029
0.18560833 0.004979195 0.148529 -0.0042197783 0.18793038 0.07156717 0.14948115 -0.16138244
0.090601705 0.051440053 -0.030044865 0.0811685 0.18709485 -0.098740146 0.12932625 -0.24668022
0.05550289 0.028279357 0.12285705 0.23080729 0.076843634 0.14191599 -0.06579135 -0.20272112
0.16037086 -0.024329437 0.1101409 -0.13858746 -0.14169523 0.043659262 0.157746 -0.02549262
-0.06863211 0.06296323 -0.06078965 0.15999374 0.043673236 0.028689967 0.12296333 0.12288217
0.16996828 -0.039685976 0.011842718 -0.069877386 -0.026548589 0.028172683 0.06896834 -0.040938392
-0.02882962 0.078680046 -0.09140092 -0.033836916 -0.03931921 -0.08873119 -0.047748342 0.02667628
-0.055850215 -0.03578169 0.22691146 -0.18609706 -0.20754212 0.19769073 -0.04153672 -0.041715134
0.113671996 0.062246494 -0.003967137 0.06201578 0.10839362 -0.011339318 0.09866307 -0.05378391
0.022604298 0.051063024 0.2083017 -0.0020090982 -0.14059183 0.06924069 -0.20193416 -0.08737567

hidden_layers.1.bias f4 [32]
00000000: 4a96 c0bc 3640 0dbe 07a7 d1bc c79a 9a3c
00000010: 0e14 4f3e e1b1 e73d ec2a b9bd 0524 eb3d
00000020: 8965 3cbe 3e9c 353d 5f7c 343e fd24 38bb
00000030: 6c6e e5bd 0cae 513e d7af 84be c1ca 103e
00000040: 5d7d bd3d e5f8 403c 4efb c5bd c327 3e3b
00000050: 4378 02be 4fcb d5bd a32d e8bc f038 bb3d
00000060: 5c0a 51bd 00f9 b5bc 2383 cebd cb2a 80bd
00000070: e771 05bd c826 1cbe 35d5 08be d628 ffbd
-0.023509163 -0.13794026 -0.02559234 0.018872632 0.20222494 0.113132246 -0.0904139 0.114814796
-0.18398108 0.044338457 0.17625569 -0.0028098219 -0.11202702 0.2047655 -0.25915405 0.14139844
0.09252427 0.011778091 -0.09667073 0.00290154 -0.12741189 -0.10439169 -0.028342074 0.09141719
-0.05103527 -0.022213459 -0.10083606 -0.06258162 -0.03257933 -0.15249169 -0.13362582 -0.12458961

output.weight f4 [1, 32]
00000000: 06f4 3c3d e0ae 84be f27d 5bbe 3aef 993e
00000010: 5ab3 bf3d e80e c4bd 69c1 81bd fcd9 2fbe
00000020: b63c 533f 0163 a73d 6194 9fbe 7429 fbbd
00000030: 0888 473e 1686 9f3d bc95 583f 027c ab3d
00000040: 5120 61be 471a 2abe 8e48 c53d 7891 333e
00000050: 608a b7bd 9e13 aabe f15e e63d ff64 5bbd
00000060: 2a09 9bbe a0ba 1fbe 9687 ca3d 180d 823d
00000070: 7203 733e c418 0abf 1614 4ebd 0536 1fbf
0.046131156 -0.2591467 -0.21434763 0.30065328 0.093603805 -0.09573156 -0.06335718 -0.17172998
0.8251451 0.0817318 -0.31167892 -0.12263766 0.19485486 0.07789247 0.84603477 0.08373262
-0.21984984 -0.16611587 0.09632979 0.1753596 -0.0896194 -0.33218092 0.112485774 -0.053563114
-0.3028043 -0.15598536 0.09889142 0.06350154 0.23731783 -0.5394404 -0.050312124 -0.621918
