001-machine_learning/data/00001-MLP-temperature/000_checkpoint.pth (torch_old, 111076 bytes, 24 tensors)

exp_avg f4 [64, 4]
0	0x00000000	0.0
1	0xb72c1b7f	-1.0258401e-05
2	0xb72762b2	-9.976955e-06
3	0xb742adac	-1.1603737e-05
4	0x00000000	0.0
5	0xb8aff9e9	-8.3912e-05
6	0xb89c3648	-7.44877e-05
7	0xb8b9e776	-8.8646004e-05
8	0x00000000	0.0
9	0xb8b1a3a3	-8.4704974e-05
10	0xb883e677	-6.289494e-05
11	0xb880405e	-6.115505e-05
12	0x00000000	0.0
13	0x00000000	0.0
14	0x00000000	0.0
15	0x00000000	0.0
16	0x00000000	0.0
17	0x38ec5509	0.00011269196
18	0x391f1f4f	0.00015175085
19	0x3934c215	0.00017238439
20	0x00000000	0.0
21	0x00000000	0.0
22	0x00000000	0.0
23	0x00000000	0.0
24	0x00000000	0.0
25	0x382c73a7	4.1115705e-05
26	0x37eea64c	2.8449249e-05
27	0xb5c2a3f1	-1.450184e-06
28	0x00000000	0.0
29	0xb8550c29	-5.0794482e-05
30	0xb7e89f7c	-2.773082e-05
31	0xb84d7b68	-4.899074e-05
32	0x00000000	0.0
33	0x37e16092	2.686706e-05
34	0x36adfe92	5.1854377e-06
35	0x3822c01d	3.880273e-05
36	0x00000000	0.0
37	0x389e79c9	7.556711e-05
38	0x383d34cf	4.5110293e-05
39	0x383a2b9c	4.438647e-05
40	0x00000000	0.0
41	0x3834b23c	4.3081338e-05
42	0x38238ce0	3.899343e-05
43	0x381f8c02	3.8038947e-05
44	0x00000000	0.0
45	0xb8b4b9b3	-8.617658e-05
46	0xb8bfc633	-9.144507e-05
47	0xb914e68e	-0.00014200268
48	0x00000000	0.0
49	0x39790d2e	0.000237514
50	0x3933094a	0.0001707423
51	0x3993c33c	0.00028183486
52	0x00000000	0.0
53	0x38c351d7	9.3135684e-05
54	0x38b648ae	8.691974e-05
55	0x391a334a	0.00014705691
56	0x00000000	0.0
57	0x00000000	0.0
58	0x00000000	0.0
59	0x00000000	0.0
60	0x00000000	0.0
61	0xb8c2b525	-9.284382e-05
62	0xb90a16ec	-0.00013169245
63	0xb91a0c6d	-0.00014691213
64	0x00000000	0.0
65	0x00000000	0.0
66	0x00000000	0.0
67	0x00000000	0.0
68	0x00000000	0.0
69	0x38c89345	9.564174e-05
70	0x38d519e7	0.00010161456
71	0x38a7aaa9	7.9949685e-05
72	0x00000000	0.0
73	0xb912facf	-0.00014017079
74	0xb8901227	-6.869836e-05
75	0xb8b15881	-8.456503e-05
76	0x00000000	0.0
77	0x39390b8a	0.00017647273
78	0x3917fb86	0.00014494182
79	0x392cceb5	0.00016480203
80	0x00000000	0.0
81	0xb7e2d80f	-2.704191e-05
82	0xb7d330e2	-2.5175923e-05
83	0xb857da88	-5.1463518e-05
84	0x00000000	0.0
85	0xb9d06fac	-0.00039756054
86	0xb9b09e58	-0.0003368731
87	0xb9da3426	-0.00041619054
88	0x00000000	0.0
89	0x00000000	0.0
90	0x00000000	0.0
91	0x00000000	0.0
92	0x00000000	0.0
93	0xb71524f8	-8.8896995e-06
94	0xb6fa6a0d	-7.4629265e-06
95	0xb729f1dd	-1.0129498e-05
96	0x00000000	0.0
97	0xb8c0dd14	-9.1964524e-05
98	0xb90a02c7	-0.0001316174
99	0xb92b36e5	-0.0001632828
100	0x00000000	0.0
101	0xb7ac6aea	-2.0553784e-05
102	0xb63adfff	-2.7846543e-06
103	0x37da6082	2.6032565e-05
104	0x00000000	0.0
105	0x37f43150	2.911003e-05
106	0xb6f49b3b	-7.289838e-06
107	0x381e3b46	3.772534e-05
108	0x00000000	0.0
109	0x00000000	0.0
110	0x00000000	0.0
111	0x00000000	0.0
112	0x00000000	0.0
113	0x3976bc87	0.0002353062
114	0x39534b7c	0.00020150648
115	0x397da67c	0.0002418998
116	0x00000000	0.0
117	0x3886d022	6.428386e-05
118	0x380a9866	3.3043696e-05
119	0x38538cbe	5.0437397e-05
120	0x00000000	0.0
121	0x00000000	0.0
122	0x00000000	0.0
123	0x00000000	0.0
124	0x00000000	0.0
125	0x00000000	0.0
126	0x00000000	0.0
127	0x00000000	0.0
128	0x00000000	0.0
129	0xb9159e39	-0.0001426869
130	0xb8ad7522	-8.2711005e-05
131	0xb909561f	-0.00013097421
132	0x00000000	0.0
133	0x369bc34d	4.642096e-06
134	0x36dbd1a3	6.5511135e-06
135	0xb7723be4	-1.4438268e-05
136	0x00000000	0.0
137	0x00000000	0.0
138	0x00000000	0.0
139	0x00000000	0.0
140	0x00000000	0.0
141	0x00000000	0.0
142	0x00000000	0.0
143	0x00000000	0.0
144	0x00000000	0.0
145	0x38ae3792	8.307317e-05
146	0x384954ce	4.8001115e-05
147	0x389b5ffa	7.408853e-05
148	0x00000000	0.0
149	0xb64655a4	-2.9554149e-06
150	0xb79be25a	-1.8582843e-05
151	0x374e6a75	1.2303343e-05
152	0x00000000	0.0
153	0xb9cd7e26	-0.00039194635
154	0xb9261879	-0.0001584011
155	0xb9cb0b35	-0.00038727527
156	0x00000000	0.0
157	0x39181095	0.00014502027
158	0x388a9d78	6.6096836e-05
159	0x390b497b	0.00013283447
160	0x00000000	0.0
161	0xb72dc9ba	-1.0358572e-05
162	0xb717903a	-9.033882e-06
163	0xb742775d	-1.15910925e-05
164	0x00000000	0.0
165	0x00000000	0.0
166	0x00000000	0.0
167	0x00000000	0.0
168	0x00000000	0.0
169	0x390b5b5f	0.00013290111
170	0x39121797	0.00013932433
171	0x392606f6	0.00015833587
172	0x00000000	0.0
173	0xb8221481	-3.8642906e-05
174	0xb8687595	-5.5422617e-05
175	0xb87e67a3	-6.065484e-05
176	0x00000000	0.0
177	0xb8e816ab	-0.00011066844
178	0xb9008dda	-0.00012259875
179	0xb91a9124	-0.00014740654
180	0x00000000	0.0
181	0x388948c3	6.546222e-05
182	0x37e76bbe	2.7587517e-05
183	0x3823e141	3.9072012e-05
184	0x00000000	0.0
185	0x00000000	0.0
186	0x00000000	0.0
187	0x00000000	0.0
188	0x00000000	0.0
189	0xb8ddba5a	-0.00010572812
190	0xb9030bdb	-0.0001249755
191	0xb9183496	-0.0001451544
192	0x00000000	0.0
193	0x00000000	0.0
194	0x00000000	0.0
195	0x00000000	0.0
196	0x00000000	0.0
197	0xb548f260	-7.485851e-07
198	0x35cf0409	1.5423876e-06
199	0x357d4ae5	9.435883e-07
200	0x00000000	0.0
201	0x384f2888	4.9390394e-05
202	0x37722e77	1.44351425e-05
203	0x383e9047	4.54339e-05
204	0x00000000	0.0
205	0xb864d70c	-5.4559714e-05
206	0xb7b11d41	-2.1113667e-05
207	0xb7dccc64	-2.632122e-05
208	0x00000000	0.0
209	0x3976e5b9	0.00023545967
210	0x39610529	0.00021459594
211	0x3988fe57	0.0002612944
212	0x00000000	0.0
213	0xb799a4fb	-1.8315846e-05
214	0xb80d1293	-3.363432e-05
215	0xb7c3d17f	-2.3343366e-05
216	0x00000000	0.0
217	0xb8f6cde5	-0.00011768545
218	0xb93d49bc	-0.00018051913
219	0xb94bbc2a	-0.00019429685
220	0x00000000	0.0
221	0xb98ac221	-0.00026466048
222	0xb9804469	-0.00024465032
223	0xb9a3411a	-0.00031138287
224	0x00000000	0.0
225	0xb8baa84f	-8.900521e-05
226	0xb89516dc	-7.1091315e-05
227	0xb89f2928	-7.589377e-05
228	0x00000000	0.0
229	0x38f0a803	0.000114753864
230	0x39053adc	0.00012705795
231	0x38fd3195	0.000120732155
232	0x00000000	0.0
233	0x00000000	0.0
234	0x00000000	0.0
235	0x00000000	0.0
236	0x00000000	0.0
237	0xb78740e5	-1.6123473e-05
238	0xb7d7370e	-2.5655634e-05
239	0xb6b7135a	-5.456078e-06
240	0x00000000	0.0
241	0x37eb15c8	2.8024326e-05
242	0x378ddcc9	1.6911321e-05
243	0x37e79bb4	2.760985e-05
244	0x00000000	0.0
245	0xb9915341	-0.00027718584
246	0xb95cc0a0	-0.00021052593
247	0xb98ce454	-0.00026873
248	0x00000000	0.0
249	0x3875adb0	5.857431e-05
250	0x388696da	6.417716e-05
251	0x38e794bf	0.000110426445
252	0x00000000	0.0
253	0x00000000	0.0
254	0x00000000	0.0
255	0x00000000	0.0

exp_avg_sq f4 [64, 4]
0	0x00000000	0.0
1	0x32b98519	2.159736e-08
2	0x33848214	6.17039e-08
3	0x334981df	4.6917076e-08
4	0x00000000	0.0
5	0x3308f26e	3.1885456e-08
6	0x32cee8a1	2.4087344e-08
7	0x330241fa	3.032799e-08
8	0x00000000	0.0
9	0x317938d0	3.6266563e-09
10	0x31aee1e0	5.0897455e-09
11	0x318581a1	3.8855466e-09
12	0x00000000	0.0
13	0x00000000	0.0
14	0x00000000	0.0
15	0x00000000	0.0
16	0x00000000	0.0
17	0x34e00adb	4.173115e-07
18	0x34abcce3	3.2000307e-07
19	0x34eb40eb	4.3819395e-07
20	0x00000000	0.0
21	0x00000000	0.0
22	0x00000000	0.0
23	0x00000000	0.0
24	0x00000000	0.0
25	0x33dfa538	1.04143e-07
26	0x330cee9e	3.281331e-08
27	0x2f71fb7c	2.2008168e-10
28	0x00000000	0.0
29	0x32423098	1.1303335e-08
30	0x32cf57c3	2.4137881e-08
31	0x32ae2b6b	2.027601e-08
32	0x00000000	0.0
33	0x32d19e9d	2.4402931e-08
34	0x330b72a0	3.246771e-08
35	0x3300fbff	3.003151e-08
36	0x00000000	0.0
37	0x319a4c9a	4.4906985e-09
38	0x316440f3	3.3215286e-09
39	0x317ef4b8	3.7100971e-09
40	0x00000000	0.0
41	0x328b39da	1.6208038e-08
42	0x32b20ff4	2.0729182e-08
43	0x32b537c8	2.109654e-08
44	0x00000000	0.0
45	0x34d6d458	4.0015107e-07
46	0x34e6faca	4.3023311e-07
47	0x350fff0c	5.3642793e-07
48	0x00000000	0.0
49	0x350bd2de	5.208839e-07
50	0x352318c0	6.075825e-07
51	0x3562fdee	8.4561077e-07
52	0x00000000	0.0
53	0x341ad5ba	1.4420121e-07
54	0x346a60de	2.1828188e-07
55	0x348b2112	2.591483e-07
56	0x00000000	0.0
57	0x00000000	0.0
58	0x00000000	0.0
59	0x00000000	0.0
60	0x00000000	0.0
61	0x34aeb35d	3.254053e-07
62	0x3495f446	2.7931145e-07
63	0x34c0b25a	3.5892555e-07
64	0x00000000	0.0
65	0x00000000	0.0
66	0x00000000	0.0
67	0x00000000	0.0
68	0x00000000	0.0
69	0x34365651	1.6981473e-07
70	0x3427016e	1.5553607e-07
71	0x3449a3ae	1.877913e-07
72	0x00000000	0.0
73	0x32d3498e	2.4597082e-08
74	0x3321cd94	3.7672706e-08
75	0x3319c07f	3.5798163e-08
76	0x00000000	0.0
77	0x33d5be1e	9.9531675e-08
78	0x33c33b17	9.0911435e-08
79	0x34042d38	1.2309908e-07
80	0x00000000	0.0
81	0x33b5f8db	8.473736e-08
82	0x33917749	6.7737865e-08
83	0x33d9e67a	1.01467734e-07
84	0x00000000	0.0
85	0x35cd8da3	1.5314912e-06
86	0x358c6760	1.0460899e-06
87	0x35e73faf	1.7229376e-06
88	0x00000000	0.0
89	0x00000000	0.0
90	0x00000000	0.0
91	0x00000000	0.0
92	0x00000000	0.0
93	0x3330dd80	4.1179646e-08
94	0x346d1e16	2.208329e-07
95	0x342d7c98	1.6157207e-07
96	0x00000000	0.0
97	0x3511675a	5.4167106e-07
98	0x34fe35ca	4.7350323e-07
99	0x352782b0	6.2402523e-07
100	0x00000000	0.0
101	0x33c0f18a	8.9846324e-08
102	0x33bb2b7b	8.715775e-08
103	0x33f059b6	1.1192189e-07
104	0x00000000	0.0
105	0x3284b1d1	1.5447684e-08
106	0x32497f11	1.1728631e-08
107	0x3261304a	1.3107703e-08
108	0x00000000	0.0
109	0x00000000	0.0
110	0x00000000	0.0
111	0x00000000	0.0
112	0x00000000	0.0
113	0x34a478fc	3.0635408e-07
114	0x34a8156a	3.130802e-07
115	0x34d3f8a4	3.9482723e-07
116	0x00000000	0.0
117	0x332aefb5	3.979922e-08
118	0x3357dbcb	5.025849e-08
119	0x3387980c	6.3140845e-08
120	0x00000000	0.0
121	0x00000000	0.0
122	0x00000000	0.0
123	0x00000000	0.0
124	0x00000000	0.0
125	0x00000000	0.0
126	0x00000000	0.0
127	0x00000000	0.0
128	0x00000000	0.0
129	0x339a853b	7.195418e-08
130	0x342f5d76	1.6332146e-07
131	0x34359a3c	1.6913049e-07
132	0x00000000	0.0
133	0x323f9ad8	1.1152871e-08
134	0x31d641b7	6.2356906e-09
135	0x3129103a	2.460196e-09
136	0x00000000	0.0
137	0x00000000	0.0
138	0x00000000	0.0
139	0x00000000	0.0
140	0x00000000	0.0
141	0x00000000	0.0
142	0x00000000	0.0
143	0x00000000	0.0
144	0x00000000	0.0
145	0x31a7b3ff	4.880803e-09
146	0x31ca566e	5.8887997e-09
147	0x3212203a	8.505646e-09
148	0x00000000	0.0
149	0x328c54a4	1.6336635e-08
150	0x3301ade6	3.0193313e-08
151	0x331789eb	3.5282863e-08
152	0x00000000	0.0
153	0x3583dcd0	9.824525e-07
154	0x35e6d31e	1.7197779e-06
155	0x36166d9f	2.241555e-06
156	0x00000000	0.0
157	0x33b32a48	8.343028e-08
158	0x3458c07e	2.0186596e-07
159	0x345ccd0b	2.0563691e-07
160	0x00000000	0.0
161	0x33dcae70	1.0276278e-07
162	0x35027abe	4.860739e-07
163	0x34d85346	4.0293725e-07
164	0x00000000	0.0
165	0x00000000	0.0
166	0x00000000	0.0
167	0x00000000	0.0
168	0x00000000	0.0
169	0x34d8236d	4.025891e-07
170	0x34dd722b	4.1247526e-07
171	0x3509617e	5.1178347e-07
172	0x00000000	0.0
173	0x332cdc8b	4.0247453e-08
174	0x3385373c	6.203342e-08
175	0x3387835b	6.310321e-08
176	0x00000000	0.0
177	0x342e878c	1.6254324e-07
178	0x34079999	1.2628733e-07
179	0x3445951a	1.8401298e-07
180	0x00000000	0.0
181	0x3389fa08	6.42504e-08
182	0x348487cc	2.468572e-07
183	0x3457a873	2.0084717e-07
184	0x00000000	0.0
185	0x00000000	0.0
186	0x00000000	0.0
187	0x00000000	0.0
188	0x00000000	0.0
189	0x3487baee	2.528172e-07
190	0x34787213	2.31383e-07
191	0x34996489	2.857162e-07
192	0x00000000	0.0
193	0x00000000	0.0
194	0x00000000	0.0
195	0x00000000	0.0
196	0x00000000	0.0
197	0x33a8c2f4	7.8585714e-08
198	0x341edfa8	1.4796262e-07
199	0x343a2acc	1.733817e-07
200	0x00000000	0.0
201	0x3258e56d	1.262502e-08
202	0x32999d06	1.788295e-08
203	0x32585e32	1.2594272e-08
204	0x00000000	0.0
205	0x32bd3e0f	2.2030717e-08
206	0x334f3583	4.8244612e-08
207	0x331cca8c	3.6505796e-08
208	0x00000000	0.0
209	0x34bcb82a	3.5151726e-07
210	0x34ba0af3	3.4653166e-07
211	0x34f66045	4.5891116e-07
212	0x00000000	0.0
213	0x3396c9c4	7.02162e-08
214	0x3409e45a	1.2842193e-07
215	0x33e36d3b	1.059038e-07
216	0x00000000	0.0
217	0x357cc35f	9.416162e-07
218	0x356c70be	8.808091e-07
219	0x358c8f15	1.0472455e-06
220	0x00000000	0.0
221	0x35b4156f	1.3417283e-06
222	0x35bfc814	1.4288839e-06
223	0x35ebed1d	1.7577873e-06
224	0x00000000	0.0
225	0x340fe7b5	1.3402207e-07
226	0x340f56f3	1.3349545e-07
227	0x34317859	1.6528192e-07
228	0x00000000	0.0
229	0x34349f0a	1.6821664e-07
230	0x34255fbe	1.5401653e-07
231	0x3440ceae	1.7956583e-07
232	0x00000000	0.0
233	0x00000000	0.0
234	0x00000000	0.0
235	0x00000000	0.0
236	0x00000000	0.0
237	0x331b16fe	3.610966e-08
238	0x33aea397	8.132263e-08
239	0x33664fe2	5.36237e-08
240	0x00000000	0.0
241	0x32bf7d6b	2.229236e-08
242	0x33c06481	8.958978e-08
243	0x3396d94a	7.024444e-08
244	0x00000000	0.0
245	0x351bfef8	5.811303e-07
246	0x352e55dc	6.4944993e-07
247	0x355cb570	8.2220413e-07
248	0x00000000	0.0
249	0x33cf213d	9.645235e-08
250	0x33ad0d9e	8.058417e-08
251	0x33e1f05e	1.05211015e-07
252	0x00000000	0.0
253	0x00000000	0.0
254	0x00000000	0.0
255	0x00000000	0.0

exp_avg f4 [64]
0	0xb71790cf	-9.034017e-06
1	0xb8af19f4	-8.3494844e-05
2	0xb8b429ec	-8.5908774e-05
3	0x00000000	0.0
4	0x38e15b45	0.00010745836
5	0x00000000	0.0
6	0x38273d77	3.9873146e-05
7	0xb856af5b	-5.118489e-05
8	0x37d40312	2.52738e-05
9	0x38a0aaad	7.6611854e-05
10	0x38372a86	4.3670203e-05
11	0xb8a73dbd	-7.97468e-05
12	0x39711858	0.0002299262
13	0x38b9850f	8.8462715e-05
14	0x00000000	0.0
15	0xb8b853cc	-8.789412e-05
16	0x00000000	0.0
17	0x38c4ec9e	9.390082e-05
18	0xb91401b1	-0.0001411501
19	0x3938f248	0.00017637864
20	0xb7ca6a73	-2.4129846e-05
21	0xb9cac289	-0.00038673382
22	0x00000000	0.0
23	0xb731e9fb	-1.06045e-05
24	0xb8b3c84f	-8.5726955e-05
25	0xb7d249a6	-2.5068246e-05
26	0x37f287d4	2.8911898e-05
27	0x00000000	0.0
28	0x39739e7e	0.00023233329
29	0x38838b13	6.2724714e-05
30	0x00000000	0.0
31	0x00000000	0.0
32	0xb9147d04	-0.00014160952
33	0x369919f6	4.5627776e-06
34	0x00000000	0.0
35	0x00000000	0.0
36	0x38adb1b4	8.2823826e-05
37	0xb6a95424	-5.0463877e-06
38	0xb9c80241	-0.00038148652
39	0x391735b1	0.00014420484
40	0xb7495b83	-1.200184e-05
41	0x00000000	0.0
42	0x3905c894	0.0001275859
43	0xb81cc161	-3.7373396e-05
44	0xb8e0e4aa	-0.00010723744
45	0x3884c982	6.331784e-05
46	0x00000000	0.0
47	0xb8d594e8	-0.000101843674
48	0x00000000	0.0
49	0xb50629fd	-4.997999e-07
50	0x384f641a	4.9445873e-05
51	0xb861d552	-5.384285e-05
52	0x39733204	0.00023192918
53	0xb78f8393	-1.7108197e-05
54	0xb8e579e5	-0.000109422755
55	0xb987acdc	-0.00025877997
56	0xb8b5b202	-8.663909e-05
57	0x38eca2be	0.0001128367
58	0x00000000	0.0
59	0xb780ebbf	-1.5368567e-05
60	0x37f73598	2.9469651e-05
61	0xb98f2c9c	-0.00027308322
62	0x38696dfc	5.565396e-05
63	0x00000000	0.0

exp_avg_sq f4 [64]
0	0x33f9b7fb	1.1628432e-07
1	0x3389a508	6.409579e-08
2	0x32673693	1.3458378e-08
3	0x00000000	0.0
4	0x354f4383	7.721175e-07
5	0x00000000	0.0
6	0x34f7be72	4.6145902e-07
7	0x339d3088	7.31971e-08
8	0x33c3f3de	9.124754e-08
9	0x321ce170	9.131654e-09
10	0x33309254	4.1111278e-08
11	0x359672d8	1.1209295e-06
12	0x35cb8038	1.5161995e-06
13	0x3518c6cf	5.6913717e-07
14	0x00000000	0.0
15	0x354713b0	7.4161926e-07
16	0x00000000	0.0
17	0x34a340fc	3.0408398e-07
18	0x33d39c31	9.853864e-08
19	0x343164f1	1.6521132e-07
20	0x344b5d1c	1.8939721e-07
21	0x36063270	1.9996914e-06
22	0x00000000	0.0
23	0x34e81bca	4.3233587e-07
24	0x35a005f8	1.1922666e-06
25	0x348b9f1f	2.6006543e-07
26	0x32df05c2	2.5963235e-08
27	0x00000000	0.0
28	0x353c3e7a	7.0126373e-07
29	0x33f20a44	1.12708705e-07
30	0x00000000	0.0
31	0x00000000	0.0
32	0x34c38a3d	3.6422162e-07
33	0x3360fa1f	5.2381548e-08
34	0x00000000	0.0
35	0x00000000	0.0
36	0x324fef18	1.2103349e-08
37	0x339e465b	7.370246e-08
38	0x36a1ab6b	4.8181296e-06
39	0x351ae8c7	5.7708206e-07
40	0x358804e8	1.0134218e-06
41	0x00000000	0.0
42	0x3588d246	1.0193987e-06
43	0x340d366c	1.3151447e-07
44	0x34a52227	3.0758494e-07
45	0x353827e6	6.86034e-07
46	0x00000000	0.0
47	0x3526e4ec	6.2172944e-07
48	0x00000000	0.0
49	0x34e4b0e1	4.2597006e-07
50	0x335332f6	4.9173615e-08
51	0x341fbd75	1.4876953e-07
52	0x356434e5	8.501359e-07
53	0x34becc6c	3.5538994e-07
54	0x36254deb	2.463227e-06
55	0x36796c48	3.716692e-06
56	0x34be7e88	3.5482321e-07
57	0x34c3b3fe	3.6452542e-07
58	0x00000000	0.0
59	0x3483e958	2.457043e-07
60	0x3447706c	1.8574218e-07
61	0x35db334e	1.6331703e-06
62	0x34686b21	2.1645657e-07
63	0x00000000	0.0

exp_avg f4 [64, 64]
0	0x00000000	0.0
1	0x00000000	0.0
2	0x00000000	0.0
3	0x00000000	0.0
4	0x00000000	0.0
5	0x00000000	0.0
6	0x00000000	0.0
7	0x00000000	0.0
8	0x00000000	0.0
9	0x00000000	0.0
10	0x00000000	0.0
11	0x00000000	0.0
12	0x00000000	0.0
13	0x00000000	0.0
14	0x00000000	0.0
15	0x00000000	0.0
16	0x00000000	0.0
17	0x00000000	0.0
18	0x00000000	0.0
19	0x00000000	0.0
20	0x00000000	0.0
21	0x00000000	0.0
22	0x00000000	0.0
23	0x00000000	0.0
24	0x00000000	0.0
25	0x00000000	0.0
26	0x00000000	0.0
27	0x00000000	0.0
28	0x00000000	0.0
29	0x00000000	0.0
30	0x00000000	0.0
31	0x00000000	0.0
32	0x00000000	0.0
33	0x00000000	0.0
34	0x00000000	0.0
35	0x00000000	0.0
36	0x00000000	0.0
37	0x00000000	0.0
38	0x00000000	0.0
39	0x00000000	0.0
40	0x00000000	0.0
41	0x00000000	0.0
42	0x00000000	0.0
43	0x00000000	0.0
44	0x00000000	0.0
45	0x00000000	0.0
46	0x00000000	0.0
47	0x00000000	0.0
48	0x00000000	0.0
49	0x00000000	0.0
50	0x00000000	0.0
51	0x00000000	0.0
52	0x00000000	0.0
53	0x00000000	0.0
54	0x00000000	0.0
55	0x00000000	0.0
56	0x00000000	0.0
57	0x00000000	0.0
58	0x00000000	0.0
59	0x00000000	0.0
60	0x00000000	0.0
61	0x00000000	0.0
62	0x00000000	0.0
63	0x00000000	0.0
64	0xb6e66087	-6.8657714e-06
65	0xb79e61a5	-1.8880537e-05
66	0xb7ef3d69	-2.8519617e-05
67	0x00000000	0.0
68	0xb8613ca7	-5.3700667e-05
69	0x00000000	0.0
70	0x35d184e5	1.5610391e-06
71	0x36492e0b	2.9978135e-06
72	0xb8aa24b4	-8.113068e-05
73	0xb8921c42	-6.967086e-05
74	0xb73a1260	-1.1090742e-05
75	0xb7cec28e	-2.464771e-05
76	0xb726a74f	-9.933326e-06
77	0xb7de5a03	-2.6506377e-05
78	0x00000000	0.0
79	0xb7b44256	-2.1488562e-05
80	0x00000000	0.0
81	0xb7994594	-1.8271421e-05
82	0xb8f1b8e7	-0.00011526216
83	0xb793fa4d	-1.7640321e-05
84	0xb895cc26	-7.142899e-05
85	0xb6e8bd87	-6.9362027e-06
86	0x00000000	0.0
87	0xb397c296	-7.0668804e-08
88	0xb8697f82	-5.567028e-05
89	0xb7d60a61	-2.5515621e-05
90	0xb8505428	-4.966944e-05
91	0x00000000	0.0
92	0xb87fa5b0	-6.0951046e-05
93	0xb7d3e307	-2.5258878e-05
94	0x00000000	0.0
95	0x00000000	0.0
96	0xb7eee915	-2.8480348e-05
97	0x36b4b35f	5.3852996e-06
98	0x00000000	0.0
99	0x00000000	0.0
100	0xb8204992	-3.821549e-05
101	0xb8079169	-3.2321932e-05
102	0xb59b0ccb	-1.1552123e-06
103	0x36049ad0	1.9759646e-06
104	0xb30d81a4	-3.2947028e-08
105	0x00000000	0.0
106	0xb7aeadf0	-2.0823412e-05
107	0xb80b4359	-3.3202905e-05
108	0xb7f51057	-2.9213885e-05
109	0x360b94e5	2.0799282e-06
110	0x00000000	0.0
111	0xb838226b	-4.3901073e-05
112	0x00000000	0.0
113	0x333efcb3	4.446765e-08
114	0xb88a82bc	-6.604704e-05
115	0xb874d210	-5.836977e-05
116	0xb883923f	-6.273807e-05
117	0xb87d306c	-6.0364997e-05
118	0xb7dbc546	-2.6198697e-05
119	0xb7a0dd11	-1.9176428e-05
120	0xb7d7a30d	-2.5705924e-05
121	0xb786dab7	-1.6075892e-05
122	0x00000000	0.0
123	0xb8791596	-5.938633e-05
124	0xb701905d	-7.722611e-06
125	0xb7604692	-1.3367871e-05
126	0xb89bdce2	-7.4321186e-05
127	0x00000000	0.0
128	0x00000000	0.0
129	0x00000000	0.0
130	0x00000000	0.0
131	0x00000000	0.0
132	0x00000000	0.0
133	0x00000000	0.0
134	0x00000000	0.0
135	0x00000000	0.0
136	0x00000000	0.0
137	0x00000000	0.0
138	0x00000000	0.0
139	0x00000000	0.0
140	0x00000000	0.0
141	0x00000000	0.0
142	0x00000000	0.0
143	0x00000000	0.0
144	0x00000000	0.0
145	0x00000000	0.0
146	0x00000000	0.0
147	0x00000000	0.0
148	0x00000000	0.0
149	0x00000000	0.0
150	0x00000000	0.0
151	0x00000000	0.0
152	0x00000000	0.0
153	0x00000000	0.0
154	0x00000000	0.0
155	0x00000000	0.0
156	0x00000000	0.0
157	0x00000000	0.0
158	0x00000000	0.0
159	0x00000000	0.0
160	0x00000000	0.0
161	0x00000000	0.0
162	0x00000000	0.0
163	0x00000000	0.0
164	0x00000000	0.0
165	0x00000000	0.0
166	0x00000000	0.0
167	0x00000000	0.0
168	0x00000000	0.0
169	0x00000000	0.0
170	0x00000000	0.0
171	0x00000000	0.0
172	0x00000000	0.0
173	0x00000000	0.0
174	0x00000000	0.0
175	0x00000000	0.0
176	0x00000000	0.0
177	0x00000000	0.0
178	0x00000000	0.0
179	0x00000000	0.0
180	0x00000000	0.0
181	0x00000000	0.0
182	0x00000000	0.0
183	0x00000000	0.0
184	0x00000000	0.0
185	0x00000000	0.0
186	0x00000000	0.0
187	0x00000000	0.0
188	0x00000000	0.0
189	0x00000000	0.0
190	0x00000000	0.0
191	0x00000000	0.0
192	0x00000000	0.0
193	0x00000000	0.0
194	0x00000000	0.0
195	0x00000000	0.0
196	0x00000000	0.0
197	0x00000000	0.0
198	0x00000000	0.0
199	0x00000000	0.0
200	0x00000000	0.0
201	0x00000000	0.0
202	0x00000000	0.0
203	0x00000000	0.0
204	0x00000000	0.0
205	0x00000000	0.0
206	0x00000000	0.0
207	0x00000000	0.0
208	0x00000000	0.0
209	0x00000000	0.0
210	0x00000000	0.0
211	0x00000000	0.0
212	0x00000000	0.0
213	0x00000000	0.0
214	0x00000000	0.0
215	0x00000000	0.0
216	0x00000000	0.0
217	0x00000000	0.0
218	0x00000000	0.0
219	0x00000000	0.0
220	0x00000000	0.0
221	0x00000000	0.0
222	0x00000000	0.0
223	0x00000000	0.0
224	0x00000000	0.0
225	0x00000000	0.0
226	0x00000000	0.0
227	0x00000000	0.0
228	0x00000000	0.0
229	0x00000000	0.0
230	0x00000000	0.0
231	0x00000000	0.0
232	0x00000000	0.0
233	0x00000000	0.0
234	0x00000000	0.0
235	0x00000000	0.0
236	0x00000000	0.0
237	0x00000000	0.0
238	0x00000000	0.0
239	0x00000000	0.0
240	0x00000000	0.0
241	0x00000000	0.0
242	0x00000000	0.0
243	0x00000000	0.0
244	0x00000000	0.0
245	0x00000000	0.0
246	0x00000000	0.0
247	0x00000000	0.0
248	0x00000000	0.0
249	0x00000000	0.0
250	0x00000000	0.0
251	0x00000000	0.0
252	0x00000000	0.0
253	0x00000000	0.0
254	0x00000000	0.0
255	0x00000000	0.0

exp_avg_sq f4 [64, 64]
0	0x00000000	0.0
1	0x00000000	0.0
2	0x00000000	0.0
3	0x00000000	0.0
4	0x00000000	0.0
5	0x00000000	0.0
6	0x00000000	0.0
7	0x00000000	0.0
8	0x00000000	0.0
9	0x00000000	0.0
10	0x00000000	0.0
11	0x00000000	0.0
12	0x00000000	0.0
13	0x00000000	0.0
14	0x00000000	0.0
15	0x00000000	0.0
16	0x00000000	0.0
17	0x00000000	0.0
18	0x00000000	0.0
19	0x00000000	0.0
20	0x00000000	0.0
21	0x00000000	0.0
22	0x00000000	0.0
23	0x00000000	0.0
24	0x00000000	0.0
25	0x00000000	0.0
26	0x00000000	0.0
27	0x00000000	0.0
28	0x00000000	0.0
29	0x00000000	0.0
30	0x00000000	0.0
31	0x00000000	0.0
32	0x00000000	0.0
33	0x00000000	0.0
34	0x00000000	0.0
35	0x00000000	0.0
36	0x00000000	0.0
37	0x00000000	0.0
38	0x00000000	0.0
39	0x00000000	0.0
40	0x00000000	0.0
41	0x00000000	0.0
42	0x00000000	0.0
43	0x00000000	0.0
44	0x00000000	0.0
45	0x00000000	0.0
46	0x00000000	0.0
47	0x00000000	0.0
48	0x00000000	0.0
49	0x00000000	0.0
50	0x00000000	0.0
51	0x00000000	0.0
52	0x00000000	0.0
53	0x00000000	0.0
54	0x00000000	0.0
55	0x00000000	0.0
56	0x00000000	0.0
57	0x00000000	0.0
58	0x00000000	0.0
59	0x00000000	0.0
60	0x00000000	0.0
61	0x00000000	0.0
62	0x00000000	0.0
63	0x00000000	0.0
64	0x310f6a90	2.0869813e-09
65	0x324406e1	1.1410266e-08
66	0x337c137a	5.8691036e-08
67	0x00000000	0.0
68	0x33bb6dda	8.727848e-08
69	0x00000000	0.0
70	0x2fb4fe79	3.2922623e-10
71	0x325971b2	1.2656914e-08
72	0x34031c61	1.221065e-07
73	0x340fb76f	1.3384646e-07
74	0x3149844f	2.9324558e-09
75	0x32b8407d	2.1449745e-08
76	0x31498f12	2.9330676e-09
77	0x333e9f0b	4.438247e-08
78	0x00000000	0.0
79	0x33059b8e	3.110795e-08
80	0x00000000	0.0
81	0x31e3e330	6.6323977e-09
82	0x34930699	2.7385684e-07
83	0x312140d5	2.3465436e-09
84	0x34325afe	1.6610645e-07
85	0x2febe9ff	4.2912515e-10
86	0x00000000	0.0
87	0x2fccce24	3.7253856e-10
88	0x33f17d12	1.1245187e-07
89	0x3190c107	4.2128963e-09
90	0x32c92af7	2.3419018e-08
91	0x00000000	0.0
92	0x33aa945d	7.943229e-08
93	0x3311bf33	3.3934338e-08
94	0x00000000	0.0
95	0x00000000	0.0
96	0x31b1be18	5.172989e-09
97	0x310343ec	1.9101618e-09
98	0x00000000	0.0
99	0x00000000	0.0
100	0x3285657b	1.5529386e-08
101	0x33415515	4.5013696e-08
102	0x2fc76ff7	3.6277445e-10
103	0x31ab7bf0	4.990845e-09
104	0x2ff7b513	4.50577e-10
105	0x00000000	0.0
106	0x3315fb11	3.492011e-08
107	0x31da3dee	6.3516756e-09
108	0x328652de	1.5637337e-08
109	0x32547245	1.2366006e-08
110	0x00000000	0.0
111	0x338451c9	6.1616056e-08
112	0x00000000	0.0
113	0x3203b5e7	7.666563e-09
114	0x33e3c938	1.0607113e-07
115	0x33bfcf4c	8.931838e-08
116	0x33c92cf5	9.3679695e-08
117	0x3358f996	5.0518416e-08
118	0x32d8d6eb	2.5243443e-08
119	0x31ecd583	6.8927775e-09
120	0x3359bba4	5.0694908e-08
121	0x32da4aa1	2.5412477e-08
122	0x00000000	0.0
123	0x336f0071	5.5646925e-08
124	0x30d0aa83	1.5182454e-09
125	0x32814235	1.5047684e-08
126	0x339762d8	7.049465e-08
127	0x00000000	0.0
128	0x00000000	0.0
129	0x00000000	0.0
130	0x00000000	0.0
131	0x00000000	0.0
132	0x00000000	0.0
133	0x00000000	0.0
134	0x00000000	0.0
135	0x00000000	0.0
136	0x00000000	0.0
137	0x00000000	0.0
138	0x00000000	0.0
139	0x00000000	0.0
140	0x00000000	0.0
141	0x00000000	0.0
142	0x00000000	0.0
143	0x00000000	0.0
144	0x00000000	0.0
145	0x00000000	0.0
146	0x00000000	0.0
147	0x00000000	0.0
148	0x00000000	0.0
149	0x00000000	0.0
150	0x00000000	0.0
151	0x00000000	0.0
152	0x00000000	0.0
153	0x00000000	0.0
154	0x00000000	0.0
155	0x00000000	0.0
156	0x00000000	0.0
157	0x00000000	0.0
158	0x00000000	0.0
159	0x00000000	0.0
160	0x00000000	0.0
161	0x00000000	0.0
162	0x00000000	0.0
163	0x00000000	0.0
164	0x00000000	0.0
165	0x00000000	0.0
166	0x00000000	0.0
167	0x00000000	0.0
168	0x00000000	0.0
169	0x00000000	0.0
170	0x00000000	0.0
171	0x00000000	0.0
172	0x00000000	0.0
173	0x00000000	0.0
174	0x00000000	0.0
175	0x00000000	0.0
176	0x00000000	0.0
177	0x00000000	0.0
178	0x00000000	0.0
179	0x00000000	0.0
180	0x00000000	0.0
181	0x00000000	0.0
182	0x00000000	0.0
183	0x00000000	0.0
184	0x00000000	0.0
185	0x00000000	0.0
186	0x00000000	0.0
187	0x00000000	0.0
188	0x00000000	0.0
189	0x00000000	0.0
190	0x00000000	0.0
191	0x00000000	0.0
192	0x00000000	0.0
193	0x00000000	0.0
194	0x00000000	0.0
195	0x00000000	0.0
196	0x00000000	0.0
197	0x00000000	0.0
198	0x00000000	0.0
199	0x00000000	0.0
200	0x00000000	0.0
201	0x00000000	0.0
202	0x00000000	0.0
203	0x00000000	0.0
204	0x00000000	0.0
205	0x00000000	0.0
206	0x00000000	0.0
207	0x00000000	0.0
208	0x00000000	0.0
209	0x00000000	0.0
210	0x00000000	0.0
211	0x00000000	0.0
212	0x00000000	0.0
213	0x00000000	0.0
214	0x00000000	0.0
215	0x00000000	0.0
216	0x00000000	0.0
217	0x00000000	0.0
218	0x00000000	0.0
219	0x00000000	0.0
220	0x00000000	0.0
221	0x00000000	0.0
222	0x00000000	0.0
223	0x00000000	0.0
224	0x00000000	0.0
225	0x00000000	0.0
226	0x00000000	0.0
227	0x00000000	0.0
228	0x00000000	0.0
229	0x00000000	0.0
230	0x00000000	0.0
231	0x00000000	0.0
232	0x00000000	0.0
233	0x00000000	0.0
234	0x00000000	0.0
235	0x00000000	0.0
236	0x00000000	0.0
237	0x00000000	0.0
238	0x00000000	0.0
239	0x00000000	0.0
240	0x00000000	0.0
241	0x00000000	0.0
242	0x00000000	0.0
243	0x00000000	0.0
244	0x00000000	0.0
245	0x00000000	0.0
246	0x00000000	0.0
247	0x00000000	0.0
248	0x00000000	0.0
249	0x00000000	0.0
250	0x00000000	0.0
251	0x00000000	0.0
252	0x00000000	0.0
253	0x00000000	0.0
254	0x00000000	0.0
255	0x00000000	0.0

exp_avg f4 [64]
0	0x00000000	0.0
1	0xb890c027	-6.902246e-05
2	0x00000000	0.0
3	0x00000000	0.0
4	0x3753ba35	1.2619935e-05
5	0x00000000	0.0
6	0x3905be72	0.00012754815
7	0xb95a0ee6	-0.0002079565
8	0x38b21776	8.492071e-05
9	0x00000000	0.0
10	0x00000004	6e-45
11	0xb84dbb52	-4.9050264e-05
12	0xb903ef97	-0.00012582388
13	0x37d980fd	2.592848e-05
14	0x392fe0d1	0.00016773051
15	0xb915af65	-0.00014275087
16	0x36bef743	5.6912263e-06
17	0xb75bfedf	-1.3112759e-05
18	0xb7c19e47	-2.3081097e-05
19	0x00000004	6e-45
20	0xb786c679	-1.6066466e-05
21	0x39a0b130	0.00030649593
22	0x37309982	1.0526159e-05
23	0x37a3a7e7	1.95093e-05
24	0x00000004	6e-45
25	0x00000000	0.0
26	0x3902dcae	0.00012479976
27	0x00000004	6e-45
28	0xb9117a3f	-0.00013873818
29	0x00000004	6e-45
30	0x00000000	0.0
31	0x380f53da	3.417195e-05
32	0x00000000	0.0
33	0xb8d7da80	-0.00010292698
34	0xb8b5d001	-8.669496e-05
35	0x00000000	0.0
36	0xb72dcd60	-1.0359421e-05
37	0x381761f5	3.6092435e-05
38	0x389358d2	7.02605e-05
39	0x397725ad	0.00023569791
40	0x00000004	6e-45
41	0x37fcbb1d	3.0127872e-05
42	0x38b5e05a	8.672541e-05
43	0xb8886eea	-6.505645e-05
44	0xb92c66d2	-0.00016441502
45	0x00000004	6e-45
46	0x00000004	6e-45
47	0x00000000	0.0
48	0x00000004	6e-45
49	0x00000000	0.0
50	0x00000000	0.0
51	0x00000004	6e-45
52	0xb56ccfb4	-8.82191e-07
53	0xb965db66	-0.00021920874
54	0x00000000	0.0
55	0xb7aca2c1	-2.0579786e-05
56	0x00000000	0.0
57	0x00000000	0.0
58	0x00000000	0.0
59	0x39eea068	0.0004551441
60	0xb7faacd8	-2.9882809e-05
61	0xb9b6e7f2	-0.00034886558
62	0x00000000	0.0
63	0xb6027c83	-1.9443985e-06

exp_avg_sq f4 [64]
0	0x00000000	0.0
1	0x34961a83	2.7958967e-07
2	0x00000000	0.0
3	0x00000000	0.0
4	0x33df097c	1.0385972e-07
5	0x00000000	0.0
6	0x3539bf12	6.9195914e-07
7	0x353d3bb8	7.049489e-07
8	0x34e209f6	4.2103028e-07
9	0x00000000	0.0
10	0x2bc7920a	1.4180334e-12
11	0x34f09da0	4.481817e-07
12	0x337b16f2	5.846136e-08
13	0x33132b32	3.426539e-08
14	0x357d609f	9.4390447e-07
15	0x354e29ca	7.680179e-07
16	0x356f1429	8.9063775e-07
17	0x34433f30	1.8183778e-07
18	0x350e1bf0	5.2939777e-07
19	0x2b04e47e	4.7212917e-13
20	0x360c9d11	2.095305e-06
21	0x361b5f5c	2.3152306e-06
22	0x320fd258	8.371522e-09
23	0x33fc2de4	1.1743012e-07
24	0x2cf78d63	7.0358593e-12
25	0x00000000	0.0
26	0x356d1d9b	8.833246e-07
27	0x2f4e3270	1.875351e-10
28	0x35acc005	1.2870884e-06
29	0x242947a7	3.6706725e-17
30	0x00000000	0.0
31	0x343afa30	1.7413618e-07
32	0x00000000	0.0
33	0x3591939a	1.08463e-06
34	0x34adaad8	3.2348066e-07
35	0x00000000	0.0
36	0x34607c6a	2.0906887e-07
37	0x346e7a38	2.220994e-07
38	0x33e44358	1.0629327e-07
39	0x363f8e6a	2.8544114e-06
40	0x307149e8	8.7780316e-10
41	0x33f922e1	1.16013105e-07
42	0x3492f9ef	2.737647e-07
43	0x343b991a	1.747143e-07
44	0x352a7ac7	6.35086e-07
45	0x28adc509	1.9292309e-14
46	0x2d5c0392	1.2506345e-11
47	0x00000000	0.0
48	0x27325d84	2.4753157e-15
49	0x00000000	0.0
50	0x00000000	0.0
51	0x2cd9eaf5	6.1935964e-12
52	0x339a6aeb	7.190632e-08
53	0x35578e34	8.0300674e-07
54	0x00000000	0.0
55	0x349685f5	2.8037144e-07
56	0x00000000	0.0
57	0x00000000	0.0
58	0x00000000	0.0
59	0x35a6eb13	1.2436379e-06
60	0x34e6f0d7	4.3016072e-07
61	0x3633acdd	2.6773698e-06
62	0x00000000	0.0
63	0x342f43c3	1.6322797e-07

exp_avg f4 [64, 64]
0	0x00000000	0.0
1	0x38078cf3	3.2317777e-05
2	0x00000000	0.0
3	0x00000000	0.0
4	0xb6de22a5	-6.6201487e-06
5	0x00000000	0.0
6	0xb6ceed04	-6.1668707e-06
7	0xb4ae291c	-3.2439937e-07
8	0xb771cd3b	-1.4412503e-05
9	0x00000000	0.0
10	0x00000004	6e-45
11	0x38228b82	3.8753737e-05
12	0xb5aed56c	-1.3026124e-06
13	0x37969cb7	1.795437e-05
14	0x3769ccc0	1.3935554e-05
15	0x37804034	1.5288686e-05
16	0x30808b45	9.352809e-10
17	0xb5b75ff5	-1.366249e-06
18	0x37aca17f	2.05792e-05
19	0x00000004	6e-45
20	0x372d30e5	1.0322988e-05
21	0xb58e6889	-1.0610248e-06
22	0x37d0647b	2.4842322e-05
23	0x3733f082	1.0725229e-05
24	0x80000004	-6e-45
25	0x00000000	0.0
26	0xb7393d1b	-1.10410865e-05
27	0x80000004	-6e-45
28	0x37e66a13	2.7467531e-05
29	0x80000004	-6e-45
30	0x00000000	0.0
31	0xb65f7b3e	-3.3301326e-06
32	0x00000000	0.0
33	0x38114b78	3.464098e-05
34	0x37af80bb	2.092157e-05
35	0x00000000	0.0
36	0x37d4ac90	2.5352725e-05
37	0x37ef6633	2.853861e-05
38	0xb597871c	-1.1289699e-06
39	0xb7460dde	-1.1804948e-05
40	0x80000004	-6e-45
41	0x3795dc30	1.7864717e-05
42	0x3764fc8a	1.3648658e-05
43	0x3844fecc	4.696734e-05
44	0x370cd14f	8.393384e-06
45	0x00000004	6e-45
46	0x80000004	-6e-45
47	0x00000000	0.0
48	0x00000004	6e-45
49	0x00000000	0.0
50	0x00000000	0.0
51	0x00000004	6e-45
52	0x38046442	3.1564625e-05
53	0x3797c79b	1.8093551e-05
54	0x00000000	0.0
55	0x37bf1a18	2.2781125e-05
56	0x00000000	0.0
57	0x00000000	0.0
58	0x00000000	0.0
59	0x37754f50	1.4621604e-05
60	0x37a244f2	1.934401e-05
61	0x34c04647	3.581392e-07
62	0x00000000	0.0
63	0x381d384a	3.748414e-05
64	0x00000000	0.0
65	0x00000004	6e-45
66	0x00000000	0.0
67	0x00000000	0.0
68	0x00000004	6e-45
69	0x00000000	0.0
70	0x00000004	6e-45
71	0x00000004	6e-45
72	0x00000004	6e-45
73	0x00000000	0.0
74	0x00000000	0.0
75	0x00000004	6e-45
76	0x00000004	6e-45
77	0x00000004	6e-45
78	0x00000004	6e-45
79	0x00000004	6e-45
80	0x00000004	6e-45
81	0x00000004	6e-45
82	0x00000004	6e-45
83	0x00000004	6e-45
84	0x00000004	6e-45
85	0x00000004	6e-45
86	0x00000004	6e-45
87	0x00000004	6e-45
88	0x00000004	6e-45
89	0x00000000	0.0
90	0x80000004	-6e-45
91	0x00000004	6e-45
92	0x00000004	6e-45
93	0x00000000	0.0
94	0x00000000	0.0
95	0x00000004	6e-45
96	0x00000000	0.0
97	0x00000004	6e-45
98	0x00000004	6e-45
99	0x00000000	0.0
100	0x00000004	6e-45
101	0x00000004	6e-45
102	0x00000004	6e-45
103	0x00000004	6e-45
104	0x00000004	6e-45
105	0x00000004	6e-45
106	0x00000004	6e-45
107	0x00000004	6e-45
108	0x00000004	6e-45
109	0x00000000	0.0
110	0x00000004	6e-45
111	0x00000000	0.0
112	0x00000000	0.0
113	0x00000000	0.0
114	0x00000000	0.0
115	0x00000004	6e-45
116	0x00000004	6e-45
117	0x00000004	6e-45
118	0x00000000	0.0
119	0x00000004	6e-45
120	0x00000000	0.0
121	0x00000000	0.0
122	0x00000000	0.0
123	0x00000004	6e-45
124	0x00000004	6e-45
125	0x00000004	6e-45
126	0x00000000	0.0
127	0x00000004	6e-45
128	0x00000000	0.0
129	0xb8d1f655	-0.000100117795
130	0x00000000	0.0
131	0x00000000	0.0
132	0xb80e5d4b	-3.3942324e-05
133	0x00000000	0.0
134	0xb622458b	-2.418036e-06
135	0xb7322e02	-1.0620339e-05
136	0xb635c355	-2.70848e-06
137	0x00000000	0.0
138	0x00000004	6e-45
139	0xb8d16222	-9.984175e-05
140	0xb65dae65	-3.3033077e-06
141	0xb884b65f	-6.32822e-05
142	0xb8755f71	-5.850144e-05
143	0xb8364195	-4.345326e-05
144	0xb29c7ca8	-1.8217477e-08
145	0xb7ebede5	-2.8124961e-05
146	0xb88839c8	-6.495748e-05
147	0x80000004	-6e-45
148	0xb815c6d0	-3.5709527e-05
149	0xb7117796	-8.670517e-06
150	0xb8bb3ec8	-8.928549e-05
151	0xb8638fe8	-5.425504e-05
152	0x80000004	-6e-45
153	0x00000000	0.0
154	0xb6b8d8c3	-5.5088617e-06
155	0x00000000	0.0
156	0xb8992361	-7.302198e-05
157	0x00000000	0.0
158	0x00000000	0.0
159	0xb73a45ee	-1.1102746e-05
160	0x00000000	0.0
161	0xb904c826	-0.00012663062
162	0xb89193a3	-6.941638e-05
163	0x00000000	0.0
164	0xb8df6910	-0.00010653038
165	0xb9145d1a	-0.00014149063
166	0xb75c8e6e	-1.3146184e-05
167	0xb759a109	-1.2971702e-05
168	0x80000004	-6e-45
169	0xb88bf137	-6.672966e-05
170	0xb862efef	-5.4106054e-05
171	0xb9035e31	-0.00012528223
172	0xb7f02876	-2.862907e-05
173	0x00000000	0.0
174	0x00000004	6e-45
175	0x00000000	0.0
176	0x00000004	6e-45
177	0x00000000	0.0
178	0x00000000	0.0
179	0x00000004	6e-45
180	0xb91262ca	-0.00013960447
181	0xb8a2282a	-7.732243e-05
182	0x00000000	0.0
183	0xb8b97b48	-8.84445e-05
184	0x00000000	0.0
185	0x00000000	0.0
186	0x00000000	0.0
187	0xb877df79	-5.9097514e-05
188	0xb8a3d6c0	-7.812446e-05
189	0xb6a5c7d3	-4.940646e-06
190	0x00000000	0.0
191	0xb91bf602	-0.00014873597
192	0x00000000	0.0
193	0x381ec862	3.7856757e-05
194	0x00000000	0.0
195	0x00000000	0.0
196	0x3676faed	3.6802915e-06
197	0x00000000	0.0
198	0xb63149da	-2.6418043e-06
199	0x36027fd2	1.944591e-06
200	0xb6bc66b6	-5.6147937e-06
201	0x00000000	0.0
202	0x00000004	6e-45
203	0x38255513	3.9418297e-05
204	0x35437116	7.280772e-07
205	0x37c3b6a3	2.3330858e-05
206	0x37b7c4c3	2.1906924e-05
207	0x378e3239	1.6951106e-05
208	0xb4fa9260	-4.667263e-07
209	0x37044c25	7.885542e-06
210	0x37cb8099	2.4259369e-05
211	0x00000004	6e-45
212	0x375803d7	1.2875497e-05
213	0x34fea72f	4.743283e-07
214	0x37feac41	3.0359372e-05
215	0x379b3e7a	1.8506533e-05
216	0x80000004	-6e-45
217	0x00000000	0.0
218	0xb6477fbb	-2.972766e-06
219	0x80000004	-6e-45
220	0x37f1c63a	2.8821745e-05
221	0x00000004	6e-45
222	0x00000000	0.0
223	0x349def59	2.9417677e-07
224	0x00000000	0.0
225	0x3838541a	4.3947344e-05
226	0x37c5dff2	2.3588513e-05
227	0x00000000	0.0
228	0x38185f2e	3.6328267e-05
229	0x384b2327	4.843171e-05
230	0x366c5b0f	3.5219743e-06
231	0xb598fbe1	-1.1398189e-06
232	0x00000004	6e-45
233	0x37d1b5ae	2.4999343e-05
234	0x37a53783	1.9695382e-05
235	0x384e75d4	4.9223963e-05
236	0x373365b1	1.0692908e-05
237	0x00000004	6e-45
238	0x80000004	-6e-45
239	0x00000000	0.0
240	0x80000004	-6e-45
241	0x00000000	0.0
242	0x00000000	0.0
243	0x00000004	6e-45
244	0x384384ae	4.661519e-05
245	0x37dbb5dc	2.619152e-05
246	0x00000000	0.0
247	0x37f7eeaa	2.9555831e-05
248	0x00000000	0.0
249	0x00000000	0.0
250	0x00000000	0.0
251	0x37abd9cb	2.0486206e-05
252	0x37e7407a	2.756737e-05
253	0x35a178cb	1.203059e-06
254	0x00000000	0.0
255	0x385a773d	5.20863e-05

exp_avg_sq f4 [64, 64]
0	0x00000000	0.0
1	0x32353ab5	1.0548935e-08
2	0x00000000	0.0
3	0x00000000	0.0
4	0x32c64b73	2.3084544e-08
5	0x00000000	0.0
6	0x30f35f04	1.7707582e-09
7	0x302210c8	5.8959104e-10
8	0x31d3c0dd	6.1628342e-09
9	0x00000000	0.0
10	0x238c9d2c	1.5245395e-17
11	0x32689da3	1.354002e-08
12	0x2e816a5d	5.885135e-11
13	0x31abcef1	5.0002815e-09
14	0x31d07cbb	6.067777e-09
15	0x31cdcd36	5.989615e-09
16	0x30ef0e2b	1.7393565e-09
17	0x31fbbf39	7.326801e-09
18	0x32205007	9.331422e-09
19	0x2746e2c9	2.760096e-15
20	0x30e28583	1.648161e-09
21	0x30aa0f1d	1.2373423e-09
22	0x32cbe8b0	2.3738124e-08
23	0x31edeaf4	6.924319e-09
24	0x283b3f02	1.0394248e-14
25	0x00000000	0.0
26	0x31f1ca47	7.0370194e-09
27	0x2a1c141d	1.3862562e-13
28	0x320507a2	7.743354e-09
29	0x1829412b	2.187564e-24
30	0x00000000	0.0
31	0x31f191f3	7.0306156e-09
32	0x00000000	0.0
33	0x33465e13	4.6186027e-08
34	0x32208c17	9.3450785e-09
35	0x00000000	0.0
36	0x318f4089	4.1691846e-09
37	0x3375e32a	5.7250112e-08
38	0x31811f01	3.757919e-09
39	0x326057dd	1.3058494e-08
40	0x2cbb870d	5.3298533e-12
41	0x320b3027	8.101813e-09
42	0x3283e455	1.535424e-08
43	0x32940faf	1.72366e-08
44	0x2fe3eb66	4.145832e-10
45	0x1d2f9a56	2.3240847e-21
46	0x2821f509	8.990429e-15
47	0x00000000	0.0
48	0x216cd037	8.023548e-19
49	0x00000000	0.0
50	0x00000000	0.0
51	0x2a65e61c	2.0419121e-13
52	0x33832512	6.106906e-08
53	0x31be6e94	5.542299e-09
54	0x00000000	0.0
55	0x32a37338	1.9028093e-08
56	0x00000000	0.0
57	0x00000000	0.0
58	0x00000000	0.0
59	0x3081a703	9.433453e-10
60	0x3252e9a2	1.2276731e-08
61	0x2f078173	1.2324168e-10
62	0x00000000	0.0
63	0x336dc97b	5.5364108e-08
64	0x00000000	0.0
65	0x2eb54085	8.242388e-11
66	0x00000000	0.0
67	0x00000000	0.0
68	0x2d89f61f	1.5684396e-11
69	0x00000000	0.0
70	0x2d6e8490	1.35581685e-11
71	0x2cc738d3	5.662229e-12
72	0x2da63f3d	1.8900099e-11
73	0x00000000	0.0
74	0x00000000	0.0
75	0x2dc26b0f	2.210279e-11
76	0x2a8e538b	2.5282237e-13
77	0x2b58f24d	7.7074875e-13
78	0x298c24d2	6.223636e-14
79	0x2d513b4d	1.1893442e-11
80	0x286176dd	1.2515783e-14
81	0x2d18b3a8	8.680091e-12
82	0x2e5825ef	4.9146406e-11
83	0x269f7357	1.1064104e-15
84	0x2b6e6fa5	8.4709523e-13
85	0x2cbc9198	5.3594455e-12
86	0x2ee60e44	1.0461723e-10
87	0x2deb77be	2.6769583e-11
88	0x27967e74	4.1770464e-15
89	0x00000000	0.0
90	0x2b9e0568	1.1228076e-12
91	0x299dadf2	7.002375e-14
92	0x2bc647e2	1.4088698e-12
93	0x00000000	0.0
94	0x00000000	0.0
95	0x2e4f97dd	4.7201233e-11
96	0x00000000	0.0
97	0x2f19c2ed	1.398452e-10
98	0x2c2c6115	2.4496561e-12
99	0x00000000	0.0
100	0x2ba7dc0a	1.1927137e-12
101	0x2eb75035	8.336124e-11
102	0x2e2272f6	3.693664e-11
103	0x2a7b52ca	2.2322002e-13
104	0x2c41b6dc	2.7528457e-12
105	0x2cbfb2e6	5.4484082e-12
106	0x2c021712	1.8486918e-12
107	0x2e948671	6.7541424e-11
108	0x2afbb519	4.4712218e-13
109	0x00000000	0.0
110	0x2795b7b9	4.1555e-15
111	0x00000000	0.0
112	0x00000000	0.0
113	0x00000000	0.0
114	0x00000000	0.0
115	0x28433a89	1.0837367e-14
116	0x2f655bf4	2.0860097e-10
117	0x2d366435	1.0367753e-11
118	0x00000000	0.0
119	0x2e2063ff	3.6468602e-11
120	0x00000000	0.0
121	0x00000000	0.0
122	0x00000000	0.0
123	0x299e6a6a	7.0350694e-14
124	0x2d4e86bb	1.17396605e-11
125	0x2c81f6c1	3.6937957e-12
126	0x00000000	0.0
127	0x2f78607c	2.2589747e-10
128	0x00000000	0.0
129	0x3432ed7e	1.6663941e-07
130	0x00000000	0.0
131	0x00000000	0.0
132	0x33e9d58b	1.0888751e-07
133	0x00000000	0.0
134	0x317c2e55	3.6697163e-09
135	0x31b71a04	5.3289586e-09
136	0x322fb118	1.0226607e-08
137	0x00000000	0.0
138	0x22abb7db	4.6544307e-18
139	0x34552cd5	1.985348e-07
140	0x2e5dbce2	5.0417344e-11
141	0x339aaf26	7.203043e-08
142	0x336eec03	5.5628345e-08
143	0x338260a0	6.071173e-08
144	0x30d96b38	1.5819301e-09
145	0x332c02ad	4.0049304e-08
146	0x33ec3aff	1.1000338e-07
147	0x231f438f	8.633713e-18
148	0x330a78ae	3.2240386e-08
149	0x322814de	9.783632e-09
150	0x3481fbd6	2.4211357e-07
151	0x339822e5	7.084399e-08
152	0x240d0ede	3.0587094e-17
153	0x00000000	0.0
154	0x32602d13	1.3048765e-08
155	0x00000000	0.0
156	0x33f01a5a	1.1180664e-07
157	0x00000000	0.0
158	0x00000000	0.0
159	0x32d3b60e	2.4646422e-08
160	0x00000000	0.0
161	0x34eb959f	4.3881025e-07
162	0x340d3a6b	1.31529e-07
163	0x00000000	0.0
164	0x33a2a88a	7.57437e-08
165	0x350020ac	4.773126e-07
166	0x32686854	1.3527899e-08
167	0x32fcb66d	2.9419619e-08
168	0x288547dd	1.4797132e-14
169	0x33b8cf9b	8.605931e-08
170	0x33eba0f8	1.097232e-07
171	0x3492f6a0	2.7374062e-07
172	0x3211140e	8.444671e-09
173	0x00000000	0.0
174	0x24bf49f1	8.295831e-17
175	0x00000000	0.0
176	0x1b2f20e0	1.4486283e-22
177	0x00000000	0.0
178	0x00000000	0.0
179	0x24ae2cdd	7.553647e-17
180	0x3516e98f	5.6219227e-07
181	0x33a1e262	7.5383255e-08
182	0x00000000	0.0
183	0x346b7746	2.1929472e-07
184	0x00000000	0.0
185	0x00000000	0.0
186	0x00000000	0.0
187	0x32b24ed0	2.0757767e-08
188	0x34089b34	1.272245e-07
189	0x3138eccf	2.6910134e-09
190	0x00000000	0.0
191	0x35110fb3	5.4039555e-07
192	0x00000000	0.0
193	0x32329f72	1.0397217e-08
194	0x00000000	0.0
195	0x00000000	0.0
196	0x32402049	1.1183212e-08
197	0x00000000	0.0
198	0x302d1708	6.296976e-10
199	0x2f8c9f14	2.5578883e-10
200	0x3107ced0	1.9762645e-09
201	0x00000000	0.0
202	0x21320939	6.032095e-19
203	0x323c188a	1.094862e-08
204	0x2cc0b080	5.4765636e-12
205	0x318c1a1b	4.077504e-09
206	0x31548478	3.092536e-09
207	0x315d5d78	3.2212863e-09
208	0x2f4ac4f2	1.8441762e-10
209	0x310d05c3	2.0521476e-09
210	0x31d1844a	6.09774e-09
211	0x23fb5f40	2.7253814e-17
212	0x30e21855	1.645058e-09
213	0x3042be98	7.084764e-10
214	0x328313e2	1.5259449e-08
215	0x31876b72	3.9412322e-09
216	0x258ea9cc	2.4748132e-16
217	0x00000000	0.0
218	0x30ec8822	1.7209951e-09
219	0x271d2c1a	2.1812034e-15
220	0x31d5d9c1	6.2238716e-09
221	0x1487f339	1.3727451e-26
222	0x00000000	0.0
223	0x313cb3b6	2.7459754e-09
224	0x00000000	0.0
225	0x32ea5f1b	2.7284434e-08
226	0x320a58c4	8.05284e-09
227	0x00000000	0.0
228	0x31961f4b	4.369132e-09
229	0x33074c56	3.1501564e-08
230	0x306df1c1	8.656365e-10
231	0x318dc51b	4.1260484e-09
232	0x29bdbc43	8.425944e-14
233	0x31b66c27	5.3091926e-09
234	0x31c5202e	5.737113e-09
235	0x3285b88a	1.5567156e-08
236	0x301afc8a	5.6383753e-10
237	0x1bab2ad4	2.8317254e-22
238	0x255b7503	1.9034867e-16
239	0x00000000	0.0
240	0x2017be11	1.2853085e-19
241	0x00000000	0.0
242	0x00000000	0.0
243	0x2923f9dd	3.6409992e-14
244	0x331f3f89	3.7077857e-08
245	0x3177303e	3.5970653e-09
246	0x00000000	0.0
247	0x3271c8bc	1.4073688e-08
248	0x00000000	0.0
249	0x00000000	0.0
250	0x00000000	0.0
251	0x30aeb014	1.2710211e-09
252	0x31f882a6	7.232603e-09
253	0x2eb1f590	8.092649e-11
254	0x00000000	0.0
255	0x330ca40a	3.2745483e-08

exp_avg f4 [64]
0	0x377eb4d1	1.5181679e-05
1	0x00000004	6e-45
2	0xb901f5d6	-0.0001239398
3	0x380e954f	3.3994493e-05
4	0x389d7e58	7.509877e-05
5	0x3873da5d	5.813908e-05
6	0xb8d0f90f	-9.964604e-05
7	0x00000000	0.0
8	0x00000004	6e-45
9	0xb7cf2cb7	-2.4697145e-05
10	0xb8a327c4	-7.7798526e-05
11	0x38f333b6	0.00011596775
12	0x3996ac36	0.00028738537
13	0x38b29903	8.516202e-05
14	0xb89babaa	-7.422951e-05
15	0x388c6eeb	6.69638e-05
16	0xb8d63169	-0.000102135185
17	0x3903279e	0.00012507892
18	0xb8235799	-3.894381e-05
19	0x386b9065	5.6162844e-05
20	0xb8c966b9	-9.6035605e-05
21	0x00000000	0.0
22	0x38c5f9c8	9.4402174e-05
23	0x38edcf2b	0.00011339629
24	0x3857b6a1	5.143008e-05
25	0x00000000	0.0
26	0xb64e8d92	-3.0778797e-06
27	0xb70c8fac	-8.3781015e-06
28	0x80000004	-6e-45
29	0x00000000	0.0
30	0x384bbdc0	4.857569e-05
31	0xb92eb912	-0.00016662877
32	0x00000004	6e-45
33	0x380aaa8e	3.3060605e-05
34	0xb770c601	-1.4351216e-05
35	0x37678983	1.380069e-05
36	0x38b15ce1	8.457318e-05
37	0x00000000	0.0
38	0xb8874d9e	-6.451759e-05
39	0x37fd378a	3.0185813e-05
40	0x00000000	0.0
41	0xb080f1c3	-9.381939e-10
42	0xb8ba5e64	-8.886753e-05
43	0x00000000	0.0
44	0x00000004	6e-45
45	0x00000000	0.0
46	0xb82d0d5e	-4.1258863e-05
47	0xb84d376b	-4.892742e-05
48	0x00000000	0.0
49	0x3857bf3e	5.1438103e-05
50	0xb8f42c76	-0.00011643108
51	0xb92decdb	-0.00016586801
52	0x00000000	0.0
53	0x37a4fb91	1.9667468e-05
54	0x38b1eae6	8.483771e-05
55	0xb89cfd84	-7.4858806e-05
56	0x00000000	0.0
57	0x00000000	0.0
58	0x379e00d2	1.883545e-05
59	0x38515d5a	4.9916423e-05
60	0xb72de900	-1.0365853e-05
61	0x00000000	0.0
62	0xb8e36186	-0.00010842369
63	0x00000000	0.0

exp_avg_sq f4 [64]
0	0x34484494	1.86514e-07
1	0x30926c13	1.0653615e-09
2	0x3587d740	1.012093e-06
3	0x339386db	6.869751e-08
4	0x34d0d04f	3.8894584e-07
5	0x3517d4d5	5.6561595e-07
6	0x35417077	7.206176e-07
7	0x00000000	0.0
8	0x2d91a940	1.6559754e-11
9	0x338ae32f	6.46745e-08
10	0x34fc3123	4.697441e-07
11	0x359abde2	1.1529157e-06
12	0x35472a63	7.419496e-07
13	0x34fb29cd	4.6782807e-07
14	0x35340f73	6.7077707e-07
15	0x34948499	2.7663626e-07
16	0x349acdb4	2.8834404e-07
17	0x359c638d	1.1651879e-06
18	0x34f251b1	4.513545e-07
19	0x3441257d	1.7988164e-07
20	0x35859a69	9.954211e-07
21	0x00000000	0.0
22	0x3557175b	8.012773e-07
23	0x359f643a	1.1875593e-06
24	0x345d974d	2.0637272e-07
25	0x00000000	0.0
26	0x33700d1f	5.5891288e-08
27	0x34003244	1.1939215e-07
28	0x2e5c6cf4	5.011898e-11
29	0x00000000	0.0
30	0x3496f7f4	2.8120087e-07
31	0x34d60d16	3.9870127e-07
32	0x2af8e4c9	4.42124e-13
33	0x342a6e60	1.5872638e-07
34	0x33f1d44b	1.1261053e-07
35	0x33b2b0ec	8.320953e-08
36	0x34e196d4	4.2019258e-07
37	0x00000000	0.0
38	0x35187835	5.6799337e-07
39	0x33e4f90e	1.066238e-07
40	0x00000000	0.0
41	0x309266b6	1.065209e-09
42	0x3539aab8	6.91663e-07
43	0x00000000	0.0
44	0x2fb5ee3b	3.309298e-10
45	0x00000000	0.0
46	0x341a41d7	1.436632e-07
47	0x34a3e5c5	3.0528295e-07
48	0x00000000	0.0
49	0x34b3efe4	3.3515892e-07
50	0x359aadf9	1.1524527e-06
51	0x34e308c4	4.2288423e-07
52	0x00000000	0.0
53	0x33fc3aa9	1.1745335e-07
54	0x351ce70b	5.845074e-07
55	0x34eeabc5	4.4455933e-07
56	0x00000000	0.0
57	0x00000000	0.0
58	0x34056441	1.2423062e-07
59	0x343ba665	1.7476266e-07
60	0x341d88ca	1.4671528e-07
61	0x00000000	0.0
62	0x353f5ecc	7.129099e-07
63	0x00000000	0.0

exp_avg f4 [2, 64]
0	0x391a64a6	0.00014724079
1	0x00000004	6e-45
2	0x392746f4	0.00015952793
3	0x37e0ced1	2.6799187e-05
4	0x37996da3	1.8290075e-05
5	0xb8515552	-4.9908944e-05
6	0x39225895	0.00015482523
7	0x00000000	0.0
8	0x80000004	-6e-45
9	0x393acadb	0.00017813912
10	0x3903d4ec	0.00012572453
11	0xb74d5f15	-1.224109e-05
12	0x38667181	5.4941982e-05
13	0x386fb850	5.7153695e-05
14	0x38e5b3e2	0.00010953077
15	0xb7aa6f03	-2.0317273e-05
16	0x390182e6	0.00012351162
17	0x37f925d9	2.9700737e-05
18	0x394b84eb	0.00019409104
19	0xb85dedeb	-5.2912084e-05
20	0x391fa6e8	0.00015225599
21	0x00000000	0.0
22	0x3809fd12	3.2899035e-05
23	0xb6eb8fda	-7.0202923e-06
24	0xb67b407a	-3.7439445e-06
25	0x00000000	0.0
26	0xb8822ba8	-6.207015e-05
27	0x3936dc53	0.0001743895
28	0x80000004	-6e-45
29	0x00000000	0.0
30	0xb57527ca	-9.1327513e-07
31	0x388e492c	6.784717e-05
32	0x00000004	6e-45
33	0xb8460f18	-4.7220936e-05
34	0x3985d393	0.00025525372
35	0x39586c23	0.0002063965
36	0x386b4a61	5.6097637e-05
37	0x00000000	0.0
38	0x397f2bb1	0.00024334971
39	0x397d2bb7	0.00024144245
40	0x00000000	0.0
41	0xaddceda2	-2.5116634e-11
42	0x394c74c6	0.00019498458
43	0x00000000	0.0
44	0x00000004	6e-45
45	0x00000000	0.0
46	0x36f2afb5	7.232617e-06
47	0x38f32a4f	0.000115950235
48	0x00000000	0.0
49	0x36f73c5a	7.3681995e-06
50	0x39073f87	0.00012898269
51	0x38b56048	8.648686e-05
52	0x00000000	0.0
53	0x389f2c2a	7.589937e-05
54	0x367e8e96	3.7931945e-06
55	0x3826f8cc	3.9809194e-05
56	0x00000000	0.0
57	0x00000000	0.0
58	0x341192e0	1.355761e-07
59	0x392875e2	0.00016065643
60	0xb5d7d928	-1.6081949e-06
61	0x00000000	0.0
62	0xb77ef566	-1.5196716e-05
63	0x00000000	0.0
64	0xba22dd95	-0.0006212828
65	0x00000004	6e-45
66	0xba16edb6	-0.00057574676
67	0xb9303cb4	-0.00016807282
68	0xb91f366b	-0.00015183694
69	0x38a4474b	7.833409e-05
70	0xb9e6c982	-0.00044019154
71	0x00000000	0.0
72	0x80000004	-6e-45
73	0xba1e32b3	-0.00060347765
74	0xb9e96619	-0.00044517292
75	0xb92e548f	-0.00016625434
76	0xb947076e	-0.00018980887
77	0xb99a56c4	-0.00029437814
78	0xb9ed7966	-0.00045294611
79	0xb88a496e	-6.59403e-05
80	0xb9f541f5	-0.00046779183
81	0xb9372ffb	-0.00017470114
82	0xba275795	-0.0006383595
83	0x38d98f8c	0.00010374104
84	0xb9da2e9e	-0.00041614933
85	0x00000000	0.0
86	0xb8eb1f81	-0.00011211541
87	0xb8abf07b	-8.1987084e-05
88	0xb8f0ab28	-0.00011475972
89	0x00000000	0.0
90	0x38bf2ed8	9.116315e-05
91	0xba0923d6	-0.0005231475
92	0x80000004	-6e-45
93	0x00000000	0.0
94	0xb87fc8dd	-6.0983806e-05
95	0xb98343c3	-0.00025036754
96	0x00000004	6e-45
97	0x36a6e621	4.973976e-06
98	0xba62173c	-0.0008624678
99	0xba48734a	-0.0007646574
100	0xb9a779cb	-0.00031943465
101	0x00000000	0.0
102	0xba608b35	-0.00085656653
103	0xba577242	-0.0008218625
104	0x00000000	0.0
105	0xade94d0c	-2.6523249e-11
106	0xba454f5e	-0.000752678
107	0x00000000	0.0
108	0x80000004	-6e-45
109	0x00000000	0.0
110	0xb89a00ab	-7.343417e-05
111	0xb9c64b37	-0.00037821542
112	0x00000000	0.0
113	0xb91be880	-0.00014868565
114	0xb9baf5b7	-0.00035659756
115	0xb9af71a3	-0.00033463267
116	0x00000000	0.0
117	0xb9a79cbb	-0.00031969495
118	0xb8b1e7a0	-8.483161e-05
119	0xb9087245	-0.0001301254
120	0x00000000	0.0
121	0x00000000	0.0
122	0xb865793b	-5.471076e-05
123	0xba0f77c2	-0.00054728624
124	0x378e0d20	1.6933831e-05
125	0x00000000	0.0
126	0x35903517	1.0744287e-06
127	0x00000000	0.0
