001-machine_learning/data/00001-MLP-temperature/001_checkpoint.pth (torch_old, 111931 bytes, 24 tensors)

exp_avg f4 [64, 4]
0	0x00000000	0.0
1	0xb88171a3	-6.172366e-05
2	0x36c88138	5.9755075e-06
3	0xb665b5f3	-3.4229568e-06
4	0x00000000	0.0
5	0x00000004	6e-45
6	0x00000004	6e-45
7	0x00000004	6e-45
8	0x00000000	0.0
9	0x393bd908	0.0001791456
10	0xb7305b4f	-1.0511677e-05
11	0x3983a1e8	0.00025106897
12	0x00000000	0.0
13	0x00000000	0.0
14	0x00000000	0.0
15	0x00000000	0.0
16	0x00000000	0.0
17	0xb90211ae	-0.00012404352
18	0xb70ff24c	-8.579878e-06
19	0xb939cb5b	-0.0001771873
20	0x00000000	0.0
21	0x368f57b4	4.271942e-06
22	0xb7d5f60f	-2.5506159e-05
23	0xb81d9298	-3.7568243e-05
24	0x00000000	0.0
25	0x390d3cdb	0.00013469478
26	0x37793b63	1.4855384e-05
27	0x392f18c2	0.00016698524
28	0x00000000	0.0
29	0x392f2827	0.00016704258
30	0x37ea9542	2.7964477e-05
31	0x39680c21	0.00022129763
32	0x00000000	0.0
33	0x3988e1fd	0.00026108316
34	0xb79eb4ac	-1.89192e-05
35	0x39b308c2	0.00034148066
36	0x00000000	0.0
37	0x38b074a1	8.414058e-05
38	0x3743c04e	1.166768e-05
39	0xb746c1ab	-1.18468115e-05
40	0x00000000	0.0
41	0x39023753	0.00012418376
42	0x379320de	1.753907e-05
43	0x3926ab31	0.00015894767
44	0x00000000	0.0
45	0x00000000	0.0
46	0x00000000	0.0
47	0x00000000	0.0
48	0x00000000	0.0
49	0xb97140c4	-0.00023007678
50	0xb8306975	-4.2059884e-05
51	0xb9611769	-0.00021466393
52	0x00000000	0.0
53	0xb8fd9ea7	-0.000120935314
54	0xb6f5a6f7	-7.3210063e-06
55	0x36bf8b9b	5.708496e-06
56	0x00000000	0.0
57	0x00000000	0.0
58	0x00000000	0.0
59	0x00000000	0.0
60	0x00000000	0.0
61	0x388039de	6.114294e-05
62	0x3753f653	1.2633932e-05
63	0x36d7ea65	6.4347864e-06
64	0x00000000	0.0
65	0x38a19912	7.70559e-05
66	0x373ee1c5	1.1377449e-05
67	0xb6c300de	-5.811554e-06
68	0x00000000	0.0
69	0x37e9026c	2.7776892e-05
70	0x372d32d7	1.0323441e-05
71	0x370e444a	8.479759e-06
72	0x00000000	0.0
73	0xb49eb011	-2.9557899e-07
74	0xb4040003	-1.2293462e-07
75	0x342f6f60	1.6338663e-07
76	0x00000000	0.0
77	0x00000000	0.0
78	0x00000000	0.0
79	0x00000000	0.0
80	0x00000000	0.0
81	0x3986668b	0.00025634872
82	0x3891e0c7	6.956007e-05
83	0x39a04f0f	0.0003057648
84	0x00000000	0.0
85	0x00000000	0.0
86	0x00000000	0.0
87	0x00000000	0.0
88	0x00000000	0.0
89	0xb8a376cf	-7.7945755e-05
90	0xb7a7fa5f	-2.002454e-05
91	0xb94b7554	-0.00019403297
92	0x00000000	0.0
93	0xb90816cc	-0.00012978463
94	0xb820fc3f	-3.8381895e-05
95	0xb96104c1	-0.00021459443
96	0x00000000	0.0
97	0xb92bbc7a	-0.00016378044
98	0xb756538b	-1.2774845e-05
99	0xb91b2518	-0.0001479577
100	0x00000000	0.0
101	0x378025c6	1.5276379e-05
102	0xb68ecd3b	-4.2558218e-06
103	0xb54b8877	-7.5821976e-07
104	0x00000000	0.0
105	0x3911d60f	0.0001390802
106	0x37c279ce	2.3183322e-05
107	0x396f5c71	0.00022827253
108	0x00000000	0.0
109	0xb84eab47	-4.927374e-05
110	0x372eb8d6	1.0414244e-05
111	0xb90c04ce	-0.0001335323
112	0x00000000	0.0
113	0x00000000	0.0
114	0x00000000	0.0
115	0x00000000	0.0
116	0x00000000	0.0
117	0x00000000	0.0
118	0x00000000	0.0
119	0x00000000	0.0
120	0x00000000	0.0
121	0x00000000	0.0
122	0x00000000	0.0
123	0x00000000	0.0
124	0x00000000	0.0
125	0x3929cb65	0.00016192866
126	0x3820c7ef	3.8333175e-05
127	0x391a533d	0.00014717593
128	0x00000000	0.0
129	0xb8295053	-4.0367548e-05
130	0xb8072c21	-3.2227606e-05
131	0xb885edba	-6.386214e-05
132	0x00000000	0.0
133	0x369cf343	4.6774817e-06
134	0x36adce3e	5.1798115e-06
135	0xb813b2dd	-3.521411e-05
136	0x00000000	0.0
137	0xb8017329	-3.0863248e-05
138	0x370c6a9c	8.369472e-06
139	0x368886d0	4.06881e-06
140	0x00000000	0.0
141	0xb8dcc587	-0.0001052721
142	0xb8092872	-3.2701013e-05
143	0xb907d091	-0.000129523
144	0x00000000	0.0
145	0x38ac4cef	8.215929e-05
146	0x381f3db6	3.7966027e-05
147	0x38100923	3.4340785e-05
148	0x00000000	0.0
149	0x00000000	0.0
150	0x00000000	0.0
151	0x00000000	0.0
152	0x00000000	0.0
153	0xb7b07713	-2.1036283e-05
154	0x371500d2	8.881283e-06
155	0xb9116ec4	-0.00013869541
156	0x00000000	0.0
157	0x36632423	3.384667e-06
158	0x3664f83e	3.4119143e-06
159	0x365d6191	3.2988357e-06
160	0x00000000	0.0
161	0xb828fc15	-4.028909e-05
162	0x3533e095	6.7009506e-07
163	0xb8604798	-5.347244e-05
164	0x00000000	0.0
165	0x3922ff0f	0.0001554454
166	0x381be168	3.7164806e-05
167	0x392b66a0	0.00016346062
168	0x00000000	0.0
169	0xb8abbccc	-8.1890816e-05
170	0xb79ff628	-1.9068902e-05
171	0xb8a9759a	-8.080453e-05
172	0x00000000	0.0
173	0x372750bd	9.972774e-06
174	0x36d29d48	6.2767976e-06
175	0xb682d289	-3.8988114e-06
176	0x00000000	0.0
177	0xb8b2ed70	-8.5319276e-05
178	0x37a5c9c2	1.9763484e-05
179	0xb9565fa5	-0.00020444261
180	0x00000000	0.0
181	0x00000000	0.0
182	0x00000000	0.0
183	0x00000000	0.0
184	0x00000000	0.0
185	0x00000000	0.0
186	0x00000000	0.0
187	0x00000000	0.0
188	0x00000000	0.0
189	0x39309852	0.00016841412
190	0x38122eb6	3.4852615e-05
191	0x3978b846	0.0002371977
192	0x00000000	0.0
193	0x00000000	0.0
194	0x00000000	0.0
195	0x00000000	0.0
196	0x00000000	0.0
197	0xb89d18dc	-7.490974e-05
198	0xb6be0d7a	-5.66401e-06
199	0xb8a4bc4c	-7.8552024e-05
200	0x00000000	0.0
201	0x38368efb	4.3525342e-05
202	0x37f5dace	2.9308165e-05
203	0x38a4cf19	7.858704e-05
204	0x00000000	0.0
205	0xb93421fd	-0.000171788
206	0xb8260b96	-3.9588274e-05
207	0xb8d46ea3	-0.000101295554
208	0x00000000	0.0
209	0xb8a0cc2d	-7.667425e-05
210	0xb752c6af	-1.2563235e-05
211	0xb8ba5039	-8.884114e-05
212	0x00000000	0.0
213	0x31a4fc66	4.8017226e-09
214	0x323decfa	1.105513e-08
215	0x33b152df	8.257279e-08
216	0x00000000	0.0
217	0x38e869fe	0.00011082365
218	0xb781069b	-1.5381074e-05
219	0xb78f4eec	-1.708368e-05
220	0x00000000	0.0
221	0x390dceea	0.0001352389
222	0x3733e3d3	1.0722276e-05
223	0x393f1bca	0.00018225532
224	0x00000000	0.0
225	0x00000000	0.0
226	0x00000000	0.0
227	0x00000000	0.0
228	0x00000000	0.0
229	0x3899b8c5	7.3300245e-05
230	0xb772da1d	-1.44751075e-05
231	0x3931a374	0.00016940926
232	0x00000000	0.0
233	0xb858988e	-5.164049e-05
234	0xb6bc3468	-5.6089375e-06
235	0xb8a8e68e	-8.0538084e-05
236	0x00000000	0.0
237	0x38beafb0	9.09263e-05
238	0x37ac0a94	2.0508924e-05
239	0x38552184	5.081437e-05
240	0x00000000	0.0
241	0xb918401e	-0.00014519735
242	0xb800ffe5	-3.07559e-05
243	0xb95b3a5a	-0.00020907205
244	0x00000000	0.0
245	0x39680f9d	0.0002213106
246	0x3848e0ca	4.7893067e-05
247	0x39b09084	0.00033677008
248	0x00000000	0.0
249	0x3992e840	0.0002802033
250	0x381702f2	3.600395e-05
251	0x39d85e1d	0.0004126885
252	0x00000000	0.0
253	0xb8b31665	-8.5395564e-05
254	0xb7b16300	-2.1146145e-05
255	0xb9272549	-0.00015940251

exp_avg_sq f4 [64, 4]
0	0x00000000	0.0
1	0x340ca3c7	1.3098098e-07
2	0x359a56cc	1.1499155e-06
3	0x350e5cc4	5.3034114e-07
4	0x00000000	0.0
5	0x2cc107fd	5.486277e-12
6	0x2d65ca5b	1.3062075e-11
7	0x25d285d9	3.6519892e-16
8	0x00000000	0.0
9	0x357d7ac8	9.4428515e-07
10	0x3608924e	2.035074e-06
11	0x35fc2328	1.8785695e-06
12	0x00000000	0.0
13	0x00000000	0.0
14	0x00000000	0.0
15	0x00000000	0.0
16	0x00000000	0.0
17	0x34e025d9	4.175079e-07
18	0x3582d6e3	9.748295e-07
19	0x3544dc21	7.333602e-07
20	0x00000000	0.0
21	0x34ad55ff	3.2286331e-07
22	0x34de98fe	4.146204e-07
23	0x339aba86	7.205112e-08
24	0x00000000	0.0
25	0x34b2b98d	3.329009e-07
26	0x354d6f5b	7.6530495e-07
27	0x3528d8b4	6.290022e-07
28	0x00000000	0.0
29	0x351228c7	5.444858e-07
30	0x35995691	1.1424582e-06
31	0x3581dbdd	9.675238e-07
32	0x00000000	0.0
33	0x3533ea6a	6.7023814e-07
34	0x36310cbb	2.6382465e-06
35	0x35f862c1	1.8506181e-06
36	0x00000000	0.0
37	0x352735ec	6.2290815e-07
38	0x35a51889	1.2300599e-06
39	0x3358efcb	5.050951e-08
40	0x00000000	0.0
41	0x3496444e	2.7989375e-07
42	0x353269e9	6.6464287e-07
43	0x350d683e	5.2678286e-07
44	0x00000000	0.0
45	0x00000000	0.0
46	0x00000000	0.0
47	0x00000000	0.0
48	0x00000000	0.0
49	0x352e32bd	6.4893885e-07
50	0x359dd2df	1.1758783e-06
51	0x3589411c	1.0226245e-06
52	0x00000000	0.0
53	0x33b4b822	8.415397e-08
54	0x35159544	5.5724036e-07
55	0x343e9084	1.7747703e-07
56	0x00000000	0.0
57	0x00000000	0.0
58	0x00000000	0.0
59	0x00000000	0.0
60	0x00000000	0.0
61	0x33c3ae13	9.112059e-08
62	0x330da292	3.2976978e-08
63	0x340032be	1.1939389e-07
64	0x00000000	0.0
65	0x3468cce9	2.168123e-07
66	0x33c7de2a	9.307071e-08
67	0x34922de3	2.7228006e-07
68	0x00000000	0.0
69	0x335a8297	5.087585e-08
70	0x3387c2bf	6.3218515e-08
71	0x3379bfd7	5.8149308e-08
72	0x00000000	0.0
73	0x31f56eba	7.1430266e-09
74	0x3486fc82	2.514317e-07
75	0x33a42fbf	7.64553e-08
76	0x00000000	0.0
77	0x00000000	0.0
78	0x00000000	0.0
79	0x00000000	0.0
80	0x00000000	0.0
81	0x352d3406	6.4523226e-07
82	0x35bc855b	1.4045903e-06
83	0x35aab3c5	1.2718307e-06
84	0x00000000	0.0
85	0x00000000	0.0
86	0x00000000	0.0
87	0x00000000	0.0
88	0x00000000	0.0
89	0x34da2fb5	4.0640376e-07
90	0x3554154a	7.9007134e-07
91	0x3542a5aa	7.2511705e-07
92	0x00000000	0.0
93	0x34fb4cbb	4.6808222e-07
94	0x3577119f	9.204031e-07
95	0x355ccb79	8.225248e-07
96	0x00000000	0.0
97	0x3491afc1	2.7136232e-07
98	0x3526d792	6.2153515e-07
99	0x350dcb6b	5.2822605e-07
100	0x00000000	0.0
101	0x336ffbed	5.587565e-08
102	0x32ea64ff	2.7287113e-08
103	0x33a2a39f	7.5734754e-08
104	0x00000000	0.0
105	0x344a8eac	1.886462e-07
106	0x32ce952e	2.4049395e-08
107	0x344a9a23	1.886879e-07
108	0x00000000	0.0
109	0x3491f2a6	2.7184905e-07
110	0x3520fbbc	5.9970967e-07
111	0x35094aeb	5.1145497e-07
112	0x00000000	0.0
113	0x00000000	0.0
114	0x00000000	0.0
115	0x00000000	0.0
116	0x00000000	0.0
117	0x00000000	0.0
118	0x00000000	0.0
119	0x00000000	0.0
120	0x00000000	0.0
121	0x00000000	0.0
122	0x00000000	0.0
123	0x00000000	0.0
124	0x00000000	0.0
125	0x340af8c7	1.2942756e-07
126	0x34a778d0	3.1194077e-07
127	0x3491909a	2.7113566e-07
128	0x00000000	0.0
129	0x32f7600c	2.8798262e-08
130	0x343b5f8d	1.7450493e-07
131	0x3302da04	3.0466268e-08
132	0x00000000	0.0
133	0x336d04d6	5.518526e-08
134	0x33a5a64a	7.713659e-08
135	0x3396e8d3	7.02727e-08
136	0x00000000	0.0
137	0x331b04e1	3.6093187e-08
138	0x33599b07	5.0665246e-08
139	0x33780a33	5.7751276e-08
140	0x00000000	0.0
141	0x3408b4da	1.273178e-07
142	0x349165d8	2.7082456e-07
143	0x34865e6d	2.502815e-07
144	0x00000000	0.0
145	0x33b0f7f7	8.240743e-08
146	0x3468c866	2.1679588e-07
147	0x33f065bf	1.11943784e-07
148	0x00000000	0.0
149	0x00000000	0.0
150	0x00000000	0.0
151	0x00000000	0.0
152	0x00000000	0.0
153	0x351cc7f8	5.840552e-07
154	0x35734bf0	9.063506e-07
155	0x339f3387	7.413387e-08
156	0x00000000	0.0
157	0x314488b8	2.859947e-09
158	0x32aee454	2.0360098e-08
159	0x32347d6e	1.0505898e-08
160	0x00000000	0.0
161	0x338e018f	6.612674e-08
162	0x3400b4ac	1.1986657e-07
163	0x33dc5f09	1.0261835e-07
164	0x00000000	0.0
165	0x34ac8331	3.213295e-07
166	0x34f8ea04	4.6363868e-07
167	0x35193da5	5.7086646e-07
168	0x00000000	0.0
169	0x34006bff	1.1960218e-07
170	0x34391e06	1.724039e-07
171	0x344a9424	1.8866609e-07
172	0x00000000	0.0
173	0x3277ffe8	1.4435479e-08
174	0x3215fa45	8.729846e-09
175	0x32a91742	1.9684766e-08
176	0x00000000	0.0
177	0x356f2e75	8.910204e-07
178	0x35e05910	1.6715221e-06
179	0x35e4a4e1	1.703531e-06
180	0x00000000	0.0
181	0x00000000	0.0
182	0x00000000	0.0
183	0x00000000	0.0
184	0x00000000	0.0
185	0x00000000	0.0
186	0x00000000	0.0
187	0x00000000	0.0
188	0x00000000	0.0
189	0x34fc4040	4.6985406e-07
190	0x3585bb05	9.963702e-07
191	0x357795b3	9.223251e-07
192	0x00000000	0.0
193	0x00000000	0.0
194	0x00000000	0.0
195	0x00000000	0.0
196	0x00000000	0.0
197	0x33b43e53	8.39324e-08
198	0x3427c552	1.5624872e-07
199	0x3410a1dd	1.346993e-07
200	0x00000000	0.0
201	0x3427b07a	1.5617289e-07
202	0x344c882f	1.9048524e-07
203	0x3444ebdd	1.8339729e-07
204	0x00000000	0.0
205	0x34443e40	1.8276569e-07
206	0x34d54770	3.972632e-07
207	0x34a4b5ff	3.06798e-07
208	0x00000000	0.0
209	0x33e13df4	1.0488648e-07
210	0x3457fad2	2.0114683e-07
211	0x343be306	1.7498323e-07
212	0x00000000	0.0
213	0x31af0de7	5.094751e-09
214	0x3452cc8c	1.9632188e-07
215	0x333e7223	4.434163e-08
216	0x00000000	0.0
217	0x3532fb1d	6.6675585e-07
218	0x35857d52	9.945745e-07
219	0x33519a38	4.8801866e-08
220	0x00000000	0.0
221	0x353e7373	7.0948516e-07
222	0x3596f392	1.1246759e-06
223	0x35a15e42	1.2022867e-06
224	0x00000000	0.0
225	0x00000000	0.0
226	0x00000000	0.0
227	0x00000000	0.0
228	0x00000000	0.0
229	0x3516c352	5.6163583e-07
230	0x358ac390	1.0338717e-06
231	0x35841331	9.840352e-07
232	0x00000000	0.0
233	0x33df51b0	1.03991056e-07
234	0x344f04ea	1.9280165e-07
235	0x34365d65	1.6984048e-07
236	0x00000000	0.0
237	0x331fe9c4	3.723268e-08
238	0x3389d94e	6.419087e-08
239	0x33718136	5.6229702e-08
240	0x00000000	0.0
241	0x34e4641d	4.254115e-07
242	0x3566a564	8.592235e-07
243	0x3552f55f	7.858816e-07
244	0x00000000	0.0
245	0x3575173c	9.130342e-07
246	0x35ff0a30	1.9001945e-06
247	0x35e89aa4	1.7330353e-06
248	0x00000000	0.0
249	0x36169039	2.243569e-06
250	0x36966a1a	4.4827e-06
251	0x36882fd0	4.058682e-06
252	0x00000000	0.0
253	0x3464e6ce	2.1318121e-07
254	0x34fc1afd	4.6958294e-07
255	0x34e2958b	4.2204587e-07

exp_avg f4 [64]
0	0xb88b5854	-6.644489e-05
1	0x00000004	6e-45
2	0x393ce7a0	0.00018015364
3	0x00000000	0.0
4	0xb9034a6c	-0.00012520858
5	0xb715bfdb	-8.925762e-06
6	0x39112a60	0.00013844064
7	0x3937b0e1	0.00017518133
8	0x397fa1f7	0.00024379032
9	0x38a3cbf8	7.810438e-05
10	0x39060afe	0.00012783331
11	0x00000000	0.0
12	0xb978d34f	-0.00023729842
13	0xb90112e0	-0.0001230943
14	0x00000000	0.0
15	0x3889e7a8	6.5758184e-05
16	0x38ae83e0	8.32153e-05
17	0x380560c3	3.1799787e-05
18	0xb4ec88a3	-4.4057842e-07
19	0x00000000	0.0
20	0x398be3b7	0.00026681807
21	0x00000000	0.0
22	0xb8a09c7e	-7.6585435e-05
23	0xb90e5837	-0.00013575038
24	0xb9318c42	-0.00016932286
25	0x3797353f	1.8025397e-05
26	0x39168171	0.00014353335
27	0xb849853f	-4.804623e-05
28	0x00000000	0.0
29	0x00000000	0.0
30	0x00000000	0.0
31	0x3931bc82	0.0001695026
32	0xb832d5b5	-4.2637537e-05
33	0x368cecbe	4.1998856e-06
34	0xb80e3968	-3.3908902e-05
35	0xb8e6034c	-0.00010967869
36	0x38bc915c	8.991614e-05
37	0x00000000	0.0
38	0xb7ee3da5	-2.8400516e-05
39	0x36a0d476	4.7931053e-06
40	0xb82fc9ab	-4.191107e-05
41	0x3927227b	0.00015939206
42	0xb8b72525	-8.733039e-05
43	0x3729c12e	1.0118163e-05
44	0xb8a44e1d	-7.834679e-05
45	0x00000000	0.0
46	0x00000000	0.0
47	0x3934fc9a	0.00017260239
48	0x00000000	0.0
49	0xb8a85bc8	-8.02796e-05
50	0x384ae6d9	4.8375547e-05
51	0xb9436436	-0.0001863398
52	0xb8a1da91	-7.7177894e-05
53	0xb25ffcd1	-1.3037792e-08
54	0x38dd6fe3	0.00010558942
55	0x390cda08	0.00013432663
56	0x00000000	0.0
57	0x38975743	7.216495e-05
58	0xb8625f83	-5.397155e-05
59	0x38c7b6c4	9.523102e-05
60	0xb91fb4d9	-0.00015230793
61	0x396ffe14	0.00022887468
62	0x39966192	0.00028682925
63	0xb8b5725c	-8.652054e-05

exp_avg_sq f4 [64]
0	0x361d619a	2.3451635e-06
1	0x2ec6962d	9.030674e-11
2	0x369df383	4.707313e-06
3	0x00000000	0.0
4	0x362f1875	2.6091268e-06
5	0x3607fd53	2.0264022e-06
6	0x35f740b4	1.8421765e-06
7	0x36459b25	2.9445594e-06
8	0x36b61c21	5.4272973e-06
9	0x36dbe6b3	6.5535655e-06
10	0x35dfcbee	1.6674146e-06
11	0x00000000	0.0
12	0x3655a7bd	3.183711e-06
13	0x35c8e24f	1.4967026e-06
14	0x00000000	0.0
15	0x3423ea4a	1.5265792e-07
16	0x34c07d92	3.585415e-07
17	0x348b06f3	2.5895824e-07
18	0x35201359	5.96328e-07
19	0x00000000	0.0
20	0x365e71de	3.3146857e-06
21	0x00000000	0.0
22	0x36031ecc	1.9538447e-06
23	0x36174ebd	2.2546585e-06
24	0x35cc400d	1.5217826e-06
25	0x33ded804	1.03769736e-07
26	0x3490b158	2.6951125e-07
27	0x35c929e1	1.4987855e-06
28	0x00000000	0.0
29	0x00000000	0.0
30	0x00000000	0.0
31	0x35352fef	6.7497507e-07
32	0x349323ca	2.7406924e-07
33	0x348dd159	2.6415617e-07
34	0x3413c667	1.376262e-07
35	0x35201d01	5.964685e-07
36	0x356de886	8.8627746e-07
37	0x00000000	0.0
38	0x36a98d9e	5.053079e-06
39	0x331e2955	3.6824833e-08
40	0x34c71149	3.7079215e-07
41	0x3597f28f	1.132097e-06
42	0x34f8c939	4.6340008e-07
43	0x330fe01d	3.3498612e-08
44	0x367bbaad	3.7510574e-06
45	0x00000000	0.0
46	0x00000000	0.0
47	0x361a3f63	2.2984684e-06
48	0x00000000	0.0
49	0x34e9b71a	4.3532856e-07
50	0x352a1306	6.335762e-07
51	0x358e141b	1.0585676e-06
52	0x351a1a6b	5.7407914e-07
53	0x3510ef75	5.3992636e-07
54	0x36ac1586	5.128505e-06
55	0x364f7979	3.091611e-06
56	0x00000000	0.0
57	0x363946ce	2.7608362e-06
58	0x35168f97	5.6088305e-07
59	0x345077bf	1.9415073e-07
60	0x3609104d	2.042408e-06
61	0x3693f120	4.409012e-06
62	0x37453ed3	1.1756742e-05
63	0x3590c05d	1.0784821e-06

exp_avg f4 [64, 64]
0	0xb5d22ac9	-1.5658671e-06
1	0x80000004	-6e-45
2	0x374fcbfd	1.2385656e-05
3	0x00000000	0.0
4	0xb7bd5679	-2.2570823e-05
5	0x374df77f	1.2276577e-05
6	0x36aea8c6	5.205252e-06
7	0x3754cf70	1.26844825e-05
8	0x372e7464	1.03983075e-05
9	0x363f6737	2.8521297e-06
10	0x377047d1	1.4321836e-05
11	0x00000000	0.0
12	0xb80b02f8	-3.3142947e-05
13	0x35b853cd	1.3733458e-06
14	0x00000000	0.0
15	0xb7eddc6a	-2.835524e-05
16	0xb6ab6393	-5.107789e-06
17	0xb796f1bd	-1.7993962e-05
18	0xb2022a06	-7.576551e-09
19	0x00000000	0.0
20	0xb70cbfa7	-8.389273e-06
21	0x00000000	0.0
22	0xb8132f2b	-3.509146e-05
23	0xb7aa2702	-2.0283744e-05
24	0xb7fe9f94	-3.0353469e-05
25	0xb841234c	-4.604766e-05
26	0xb720e9f5	-9.5912155e-06
27	0xb7b7c9d9	-2.1909293e-05
28	0x00000000	0.0
29	0x00000000	0.0
30	0x00000000	0.0
31	0x357b325d	9.3578075e-07
32	0xb527771d	-6.238568e-07
33	0xb784aba5	-1.5815554e-05
34	0x3730f5d4	1.0547654e-05
35	0xb71c8847	-9.330054e-06
36	0xb7b344a8	-2.1370433e-05
37	0x00000000	0.0
38	0x36fbd165	7.5047597e-06
39	0xb4c6c570	-3.702403e-07
40	0xb822ece6	-3.884444e-05
41	0x368d2321	4.206217e-06
42	0x37629365	1.3504968e-05
43	0xb813cccf	-3.5238274e-05
44	0xb7da064b	-2.5990556e-05
45	0x00000000	0.0
46	0x00000000	0.0
47	0x37311664	1.0555235e-05
48	0x00000000	0.0
49	0xb5d59834	-1.5914034e-06
50	0xb86a35c0	-5.5840006e-05
51	0x35c090bd	1.4347239e-06
52	0xb7f13ac5	-2.8756805e-05
53	0xb198c1d7	-4.4458193e-09
54	0x37a42885	1.9569192e-05
55	0x34174e36	1.4091424e-07
56	0x00000000	0.0
57	0x37089d06	8.142792e-06
58	0xb797d35e	-1.8099028e-05
59	0xb7ccea65	-2.4427844e-05
60	0xb811813e	-3.469106e-05
61	0x373df0f7	1.1321382e-05
62	0x35bde384	1.4147813e-06
63	0xb77127aa	-1.4373954e-05
64	0x3637ebd2	2.740639e-06
65	0x00000004	6e-45
66	0xb76fb1dc	-1.4286921e-05
67	0x00000000	0.0
68	0xb6c5fc3b	-5.900421e-06
69	0xb78054b7	-1.5298237e-05
70	0xb84ee5fd	-4.932842e-05
71	0xb8498fca	-4.805605e-05
72	0xb758f7de	-1.2932314e-05
73	0x366e74a3	3.5532655e-06
74	0xb81c45a3	-3.7258153e-05
75	0x00000000	0.0
76	0xb7bf0bde	-2.27745e-05
77	0x34c5d182	3.6846546e-07
78	0x00000000	0.0
79	0xb759ea9e	-1.2988834e-05
80	0xb6bf2106	-5.696088e-06
81	0xb8783de9	-5.9185466e-05
82	0x327e63df	1.4807454e-08
83	0x00000000	0.0
84	0xb85dea4f	-5.2908723e-05
85	0x00000000	0.0
86	0xb79d8729	-1.8778797e-05
87	0xb783fe7a	-1.5734917e-05
88	0xb67fd38b	-3.8121095e-06
89	0xb870d484	-5.741838e-05
90	0xb5a13a6b	-1.2012437e-06
91	0xb7460d03	-1.1804749e-05
92	0x00000000	0.0
93	0x00000000	0.0
94	0x00000000	0.0
95	0xb89284e1	-6.986573e-05
96	0x3497eded	2.8299056e-07
97	0xb7cc8453	-2.4380313e-05
98	0xb75a3e44	-1.300831e-05
99	0xb745a755	-1.1781075e-05
100	0xb84dba81	-4.9049504e-05
101	0x00000000	0.0
102	0xb72fa5e5	-1.0469438e-05
103	0xb336874a	-4.2498222e-08
104	0xb8b6d889	-8.718769e-05
105	0xb780edec	-1.536958e-05
106	0xb784b4e3	-1.5819858e-05
107	0xb8154aa9	-3.55939e-05
108	0x35e0e066	1.6754609e-06
109	0x00000000	0.0
110	0x00000000	0.0
111	0xb81de2be	-3.7642887e-05
112	0x00000000	0.0
113	0xb852cb76	-5.025739e-05
114	0xb8b96c24	-8.84163e-05
115	0xb62720eb	-2.49041e-06
116	0xb85edfd9	-5.31374e-05
117	0x31735c8d	3.5413763e-09
118	0xb7aa08b2	-2.0269628e-05
119	0xb7991dc6	-1.8252886e-05
120	0x00000000	0.0
121	0xb712c1e1	-8.747419e-06
122	0xb8572502	-5.129446e-05
123	0xb862a961	-5.4040345e-05
124	0xb84a5a20	-4.824449e-05
125	0xb8189ec0	-3.638747e-05
126	0xb8022f3c	-3.1038406e-05
127	0xb7c80795	-2.3845389e-05
128	0xb5aea085	-1.3010728e-06
129	0x80000004	-6e-45
130	0x370cdc2f	8.395916e-06
131	0x00000000	0.0
132	0xb7820d0b	-1.5503281e-05
133	0x370f58ae	8.544112e-06
134	0x36276f57	2.4949748e-06
135	0x36e9990c	6.961758e-06
136	0x36efe123	7.1489644e-06
137	0x3652ec9d	3.1430166e-06
138	0x370bdf11	8.336982e-06
139	0x00000000	0.0
140	0xb7c27323	-2.3180217e-05
141	0x35bf44f8	1.4250681e-06
142	0x00000000	0.0
143	0xb7a3ad17	-1.9511715e-05
144	0xb67b1672	-3.741498e-06
145	0xb7641781	-1.3595331e-05
146	0xb0c2f204	-1.4184143e-09
147	0x00000000	0.0
148	0xb6d6949a	-6.3949965e-06
149	0x00000000	0.0
150	0xb7c8e1c9	-2.3946997e-05
151	0xb76a4b55	-1.39650265e-05
152	0xb7a64074	-1.9818755e-05
153	0xb8072855	-3.222407e-05
154	0xb6c713e5	-5.932978e-06
155	0xb77dc714	-1.5126327e-05
156	0x00000000	0.0
157	0x00000000	0.0
158	0x00000000	0.0
159	0xb5e5f6dc	-1.7133675e-06
160	0xb54f222b	-7.716323e-07
161	0xb7403203	-1.1455736e-05
162	0x36dad925	6.5221852e-06
163	0xb6dda375	-6.605342e-06
164	0xb78c997c	-1.6760772e-05
165	0x00000000	0.0
166	0x36bcc6c5	5.6259764e-06
167	0xb52c5896	-6.42039e-07
168	0xb7efbfa6	-2.8580263e-05
169	0x3647cc44	2.977221e-06
170	0x370f0692	8.524994e-06
171	0xb7ca6b51	-2.413025e-05
172	0xb78b6593	-1.661739e-05
173	0x00000000	0.0
174	0x00000000	0.0
175	0x36e358cf	6.775466e-06
176	0x00000000	0.0
177	0xb654784b	-3.1660481e-06
178	0xb826e2a1	-3.978855e-05
179	0x356f1f33	8.907984e-07
180	0xb7af6486	-2.0908436e-05
181	0xb120f55d	-2.3422537e-09
182	0x375d8243	1.3202955e-05
183	0x34c19642	3.6058378e-07
184	0x00000000	0.0
185	0x36b7d8f7	5.479083e-06
186	0xb7676e1d	-1.3794311e-05
187	0xb796fd09	-1.7999222e-05
188	0xb7d3eb98	-2.5262867e-05
189	0x36e5f5ea	6.85336e-06
190	0x358da34e	1.0552847e-06
191	0xb73cebd5	-1.1260582e-05
192	0x34957cd7	2.7844246e-07
193	0x80000004	-6e-45
194	0x3558d8ca	8.078174e-07
195	0x00000000	0.0
196	0xb728754c	-1.0040891e-05
197	0xb5bcb716	-1.4060377e-06
198	0xb788808c	-1.6272323e-05
199	0xb780831b	-1.531984e-05
200	0x352fdf11	6.5517185e-07
201	0x36b09909	5.2630244e-06
202	0xb733d570	-1.0718926e-05
203	0x00000000	0.0
204	0xb7bcbd8f	-2.2499617e-05
205	0x35f04143	1.7900387e-06
206	0x00000000	0.0
207	0xb78179e1	-1.5434753e-05
208	0xb6c922f1	-5.9943345e-06
209	0xb7f900c7	-2.9683475e-05
210	0x31c97d33	5.8641034e-09
211	0x00000000	0.0
212	0xb7b3b83e	-2.1424257e-05
213	0x00000000	0.0
214	0xb7a26ba2	-1.9362025e-05
215	0xb759f9dd	-1.2992384e-05
216	0xb730c06a	-1.0535217e-05
217	0xb8234915	-3.893029e-05
218	0xb6629716	-3.3764568e-06
219	0xb7521731	-1.2522375e-05
220	0x00000000	0.0
221	0x00000000	0.0
222	0x00000000	0.0
223	0xb7f2f8b5	-2.8964461e-05
224	0xb51a3e68	-5.7460284e-07
225	0xb786a7ce	-1.6052185e-05
226	0xb61557de	-2.2253876e-06
227	0xb7030071	-7.808311e-06
228	0xb804a8ee	-3.162858e-05
229	0x00000000	0.0
230	0x35622c30	8.425586e-07
231	0xb53f1825	-7.118818e-07
232	0xb84ed8ab	-4.9316015e-05
233	0xb5f73ffe	-1.8421558e-06
234	0xb62c9268	-2.5715217e-06
235	0xb7d28278	-2.5094705e-05
236	0xb7166ff1	-8.96676e-06
237	0x00000000	0.0
238	0x00000000	0.0
239	0xb706e9b8	-8.041439e-06
240	0x00000000	0.0
241	0xb7c2392a	-2.3153221e-05
242	0xb867e81e	-5.5290868e-05
243	0xb5b28b41	-1.3302562e-06
244	0xb8077ba7	-3.230167e-05
245	0xb0c31141	-1.4193021e-09
246	0x3605fa5c	1.9964273e-06
247	0xb6712ad5	-3.593673e-06
248	0x00000000	0.0
249	0x35303e03	6.565535e-07
250	0xb7e943e8	-2.7807386e-05
251	0xb8015e6e	-3.084394e-05
252	0xb80ff99c	-3.4326324e-05
253	0xb71ea98a	-9.457008e-06
254	0xb701be71	-7.73334e-06
255	0xb79b189d	-1.8488901e-05

exp_avg_sq f4 [64, 64]
0	0x33271aca	3.8907082e-08
1	0x298c299b	6.224466e-14
2	0x32da1731	2.5389086e-08
3	0x00000000	0.0
4	0x3215a31c	8.710028e-09
5	0x315aca51	3.1838179e-09
6	0x339f4840	7.417157e-08
7	0x341019d2	1.3420438e-07
8	0x32be8cdb	2.2182965e-08
9	0x325edafc	1.2971892e-08
10	0x33483eae	4.6623136e-08
11	0x00000000	0.0
12	0x33bd8657	8.8254346e-08
13	0x330d7cdb	3.2942676e-08
14	0x00000000	0.0
15	0x31ec374a	6.8747896e-09
16	0x311b69f5	2.2615698e-09
17	0x3401e298	1.2096496e-07
18	0x31eeaffb	6.9467183e-09
19	0x00000000	0.0
20	0x33554915	4.9659395e-08
21	0x00000000	0.0
22	0x32ca27e2	2.3534032e-08
23	0x3382b8ab	6.0871876e-08
24	0x32b156aa	2.0644922e-08
25	0x33a46a2e	7.656159e-08
26	0x2f663757	2.0938039e-10
27	0x33514398	4.872308e-08
28	0x00000000	0.0
29	0x00000000	0.0
30	0x00000000	0.0
31	0x34a27f82	3.0267626e-07
32	0x2d8bd5e9	1.5897466e-11
33	0x334c2106	4.7527486e-08
34	0x33d386ad	9.8499505e-08
35	0x337f0d6c	5.938402e-08
36	0x34423f09	1.809059e-07
37	0x00000000	0.0
38	0x31fdfa77	7.3917437e-09
39	0x3211ceb6	8.4871115e-09
40	0x34a90e65	3.1489176e-07
41	0x335a4826	5.08227e-08
42	0x345d6094	2.0617364e-07
43	0x3305e299	3.1172565e-08
44	0x3249abe3	1.1738822e-08
45	0x00000000	0.0
46	0x00000000	0.0
47	0x336f0b9e	5.565709e-08
48	0x00000000	0.0
49	0x3498bc60	2.8449267e-07
50	0x347744f6	2.3028755e-07
51	0x33d01571	9.689655e-08
52	0x33ec7126	1.1010188e-07
53	0x30e6d356	1.6794768e-09
54	0x326fa9f1	1.3950271e-08
55	0x3399945e	7.1516055e-08
56	0x00000000	0.0
57	0x328fe87f	1.6753118e-08
58	0x34359dcd	1.6914346e-07
59	0x3406daf9	1.2559384e-07
60	0x345bfb07	2.0487288e-07
61	0x32bda421	2.2077133e-08
62	0x332b37d2	3.986481e-08
63	0x33d79aa7	1.0039849e-07
64	0x33aad078	7.954162e-08
65	0x288c8556	1.5600948e-14
66	0x33695c95	5.4333743e-08
67	0x00000000	0.0
68	0x3241153c	1.1238907e-08
69	0x31ce962d	6.012462e-09
70	0x3409d6f2	1.2837316e-07
71	0x347614a5	2.2918046e-07
72	0x334ffef2	4.8427815e-08
73	0x32e7025a	2.6893009e-08
74	0x33a4ac05	7.668135e-08
75	0x00000000	0.0
76	0x33f286a9	1.1293498e-07
77	0x33a596d9	7.71085e-08
78	0x00000000	0.0
79	0x320ddfb3	8.2581435e-09
80	0x314bfe6b	2.9685008e-09
81	0x343a0896	1.7325723e-07
82	0x3262b892	1.3196898e-08
83	0x00000000	0.0
84	0x33a0116b	7.453749e-08
85	0x00000000	0.0
86	0x32d56893	2.4844018e-08
87	0x33d5dea0	9.959081e-08
88	0x32ee770e	2.7760986e-08
89	0x33ad4293	8.06805e-08
90	0x2f89ead4	2.508701e-10
91	0x33a3d924	7.6297766e-08
92	0x00000000	0.0
93	0x00000000	0.0
94	0x00000000	0.0
95	0x350324f7	4.8855094e-07
96	0x2ddfa20b	2.5424126e-11
97	0x338fcf3e	6.6966535e-08
98	0x34421911	1.8076777e-07
99	0x33e1ac00	1.05086656e-07
100	0x34784c25	2.3124501e-07
101	0x00000000	0.0
102	0x327a18bf	1.4557542e-08
103	0x32630675	1.3214607e-08
104	0x34e62aa4	4.2871864e-07
105	0x33e8151c	1.08071816e-07
106	0x34cb94d5	3.7919986e-07
107	0x330a05a3	3.2135755e-08
108	0x3259c6c4	1.26762565e-08
109	0x00000000	0.0
110	0x00000000	0.0
111	0x33ec67c3	1.10084805e-07
112	0x00000000	0.0
113	0x34f5fc13	4.5818214e-07
114	0x348f3f44	2.6681857e-07
115	0x3435d45a	1.6934192e-07
116	0x3414b4d7	1.3849363e-07
117	0x318cdc13	4.099556e-09
118	0x32eac11a	2.7328998e-08
119	0x34233bcb	1.520231e-07
120	0x00000000	0.0
121	0x331885fc	3.5512116e-08
122	0x3487b10b	2.5274525e-07
123	0x3437db36	1.7122952e-07
124	0x3492493a	2.7247899e-07
125	0x3324170c	3.8205187e-08
126	0x33ad1f77	8.061664e-08
127	0x340e7e02	1.3270622e-07
128	0x32c53505	2.2957929e-08
129	0x28efb92d	2.6614637e-14
130	0x3281ae24	1.5096767e-08
131	0x00000000	0.0
132	0x318b0d46	4.0469414e-09
133	0x3113542d	2.1439164e-09
134	0x33389693	4.2977785e-08
135	0x33aa0978	7.917964e-08
136	0x32611f81	1.3103887e-08
137	0x3206a5a4	7.837489e-09
138	0x32ee0d3a	2.7712861e-08
139	0x00000000	0.0
140	0x334ab863	4.719949e-08
141	0x329f07de	1.8513614e-08
142	0x00000000	0.0
143	0x3128ba66	2.4553173e-09
144	0x30840b52	9.607481e-10
145	0x338b4470	6.4851406e-08
146	0x319082b6	4.2058117e-09
147	0x00000000	0.0
148	0x32e7652b	2.6937945e-08
149	0x00000000	0.0
150	0x322e95d3	1.0162199e-08
151	0x3310ff4f	3.3759814e-08
152	0x322e27f8	1.0137221e-08
153	0x330d9426	3.296386e-08
154	0x2ea88f26	7.665184e-11
155	0x32e644cd	2.6806811e-08
156	0x00000000	0.0
157	0x00000000	0.0
158	0x00000000	0.0
159	0x343b859a	1.7464336e-07
160	0x2d467b24	1.128234e-11
161	0x32dd3d39	2.5755627e-08
162	0x337d66a3	5.89995e-08
163	0x33131a27	3.424989e-08
164	0x33d631c2	9.9742024e-08
165	0x00000000	0.0
166	0x31a2a72f	4.733827e-09
167	0x31b840d0	5.362473e-09
168	0x3432b3fc	1.664302e-07
169	0x32feed50	2.9677409e-08
170	0x3404b847	1.2360498e-07
171	0x326352a6	1.3231931e-08
172	0x31b3a69d	5.2285274e-09
173	0x00000000	0.0
174	0x00000000	0.0
175	0x330e7d11	3.31757e-08
176	0x00000000	0.0
177	0x343202f4	1.6578616e-07
178	0x33ed6e15	1.1056196e-07
179	0x33787ccf	5.7855512e-08
180	0x337209a4	5.6353784e-08
181	0x3079c2e2	9.086262e-10
182	0x321adb15	9.013793e-09
183	0x3331e8d7	4.142279e-08
184	0x00000000	0.0
185	0x322a4c33	9.912628e-09
186	0x33c9bad2	9.393774e-08
187	0x338eec61	6.655387e-08
188	0x33ee560c	1.10983905e-07
189	0x32652ab4	1.3339264e-08
190	0x32c895c2	2.3351166e-08
191	0x337633a1	5.7323295e-08
192	0x31370b78	2.6636524e-09
193	0x280fd791	7.984838e-15
194	0x30da6b0b	1.5892011e-09
195	0x00000000	0.0
196	0x30a33f5d	1.187782e-09
197	0x2fa19508	2.9391622e-10
198	0x32091021	7.978117e-09
199	0x327d5e68	1.4748004e-08
200	0x30aa088a	1.2371555e-09
201	0x303b1523	6.806024e-10
202	0x31bf308b	5.5643503e-09
203	0x00000000	0.0
204	0x325deb52	1.2917399e-08
205	0x30d0848d	1.5171665e-09
206	0x00000000	0.0
207	0x3086afca	9.799745e-10
208	0x2fcfe756	3.7817455e-10
209	0x328d8bb6	1.6478094e-08
210	0x300c2702	5.0987137e-10
211	0x00000000	0.0
212	0x31d26aae	6.1239325e-09
213	0x00000000	0.0
214	0x317ac2b7	3.649047e-09
215	0x31f5dbf0	7.1554425e-09
216	0x3154da4d	3.097415e-09
217	0x32502d5b	1.2117506e-08
218	0x2db2c5fa	2.0324176e-11
219	0x31cd479f	5.9744276e-09
220	0x00000000	0.0
221	0x00000000	0.0
222	0x00000000	0.0
223	0x331beae3	3.6302378e-08
224	0x2c19a89d	2.1836207e-12
225	0x31e4ea94	6.662342e-09
226	0x321d4623	9.15455e-09
227	0x31d5560c	6.2088983e-09
228	0x32e966f7	2.7171593e-08
229	0x00000000	0.0
230	0x30096963	4.9990073e-10
231	0x308102a3	9.386735e-10
232	0x3341320f	4.4981842e-08
233	0x316d7efa	3.4560217e-09
234	0x32a28847	1.8921254e-08
235	0x31a0c4e0	4.678995e-09
236	0x31079471	1.9729465e-09
237	0x00000000	0.0
238	0x00000000	0.0
239	0x31999352	4.4696344e-09
240	0x00000000	0.0
241	0x331112d4	3.3777567e-08
242	0x331bc698	3.626937e-08
243	0x322d7b8f	1.0098019e-08
244	0x328fc358	1.6736223e-08
245	0x2eb0b786	8.036154e-11
246	0x308932db	9.982516e-10
247	0x31aa7a77	4.961574e-09
248	0x00000000	0.0
249	0x3097488b	1.1007314e-09
250	0x32bd875f	2.2064055e-08
251	0x329a1118	1.7935733e-08
252	0x32fef814	2.9682305e-08
253	0x312083bb	2.3357944e-09
254	0x3148ee2e	2.923922e-09
255	0x327772c5	1.4403388e-08

exp_avg f4 [64]
0	0xb7d690a5	-2.5578143e-05
1	0xb8b436fb	-8.59331e-05
2	0xb7a3d7a3	-1.9531528e-05
3	0xb833f15c	-4.290171e-05
4	0x00000000	0.0
5	0xb7a4462f	-1.9583005e-05
6	0x3794f159	1.7755361e-05
7	0x00000004	6e-45
8	0xb981c193	-0.0002474902
9	0x00000000	0.0
10	0x396885d6	0.00022175102
11	0x00000000	0.0
12	0xb88df07c	-6.7681976e-05
13	0xb79eda04	-1.893659e-05
14	0x38e7cc5f	0.000110530054
15	0x00000000	0.0
16	0x00000000	0.0
17	0x00000000	0.0
18	0xb817ecba	-3.6221674e-05
19	0x3732640b	1.063292e-05
20	0x80000004	-6e-45
21	0xb8a93e11	-8.070109e-05
22	0x00000004	6e-45
23	0xb8dc44b2	-0.00010503213
24	0xb92a5cb2	-0.00016246995
25	0x00000000	0.0
26	0x37c03131	2.291109e-05
27	0x393bf4d4	0.00017924915
28	0x37bdc3f0	2.2621796e-05
29	0x00000000	0.0
30	0x38a7bab8	7.9979596e-05
31	0x35b8eee2	1.3778592e-06
32	0x37b5e6b7	2.1684316e-05
33	0x00000004	6e-45
34	0xb7d3bbd5	-2.5240626e-05
35	0x3804de21	3.1678126e-05
36	0x00000000	0.0
37	0xb80b1161	-3.3156368e-05
38	0x3917bc6c	0.00014470675
39	0x00000000	0.0
40	0x376885fe	1.3859475e-05
41	0x00000004	6e-45
42	0x00000000	0.0
43	0xb96e5f8c	-0.00022733043
44	0xb825c3af	-3.952131e-05
45	0xb720281a	-9.54608e-06
46	0x38f43607	0.0001164489
47	0xb854b87a	-5.0716546e-05
48	0xb6e583b7	-6.8400655e-06
49	0x00000000	0.0
50	0x00000000	0.0
51	0x37ea5c2d	2.7937896e-05
52	0x382f57ce	4.1805026e-05
53	0x37df820a	2.6644226e-05
54	0x00000000	0.0
55	0xb9570482	-0.00020505677
56	0x00000000	0.0
57	0x3711f540	8.699775e-06
58	0xb71e5b86	-9.438843e-06
59	0xb9e99abe	-0.00044556515
60	0x00000004	6e-45
61	0x00000000	0.0
62	0x38141448	3.5304838e-05
63	0x00000000	0.0

exp_avg_sq f4 [64]
0	0x3526bede	6.211757e-07
1	0x3588bd0c	1.018781e-06
2	0x34bcdb0f	3.5177115e-07
3	0x339bb6bb	7.2509884e-08
4	0x00000000	0.0
5	0x347c97c2	2.3524538e-07
6	0x3524421a	6.119095e-07
7	0x2ec43ae5	8.92351e-11
8	0x3645542d	2.9404284e-06
9	0x00000000	0.0
10	0x36603f58	3.3415472e-06
11	0x00000000	0.0
12	0x361e0406	2.3546177e-06
13	0x353e1749	7.08144e-07
14	0x35382fdd	6.861499e-07
15	0x00000000	0.0
16	0x00000000	0.0
17	0x00000000	0.0
18	0x34fa675f	4.664134e-07
19	0x34ebd4ef	4.392709e-07
20	0x2b5fd782	7.952459e-13
21	0x35d62c76	1.5957182e-06
22	0x2e7df665	5.7744382e-11
23	0x3583278e	9.771773e-07
24	0x35e791ca	1.7253271e-06
25	0x00000000	0.0
26	0x34875ef0	2.5214786e-07
27	0x353e45d0	7.0882106e-07
28	0x357c90cd	9.408803e-07
29	0x00000000	0.0
30	0x36877164	4.036514e-06
31	0x3503b582	4.906543e-07
32	0x358560c4	9.937435e-07
33	0x2000d6e9	1.091313e-19
34	0x34bdd05e	3.53556e-07
35	0x34f5d27f	4.5787962e-07
36	0x00000000	0.0
37	0x34c2fcc0	3.6319216e-07
38	0x36684423	3.4610355e-06
39	0x00000000	0.0
40	0x35750710	9.127989e-07
41	0x2aec08a4	4.1928017e-13
42	0x00000000	0.0
43	0x36048bae	1.9750837e-06
44	0x345a511b	2.0332338e-07
45	0x349688dd	2.8039258e-07
46	0x366426b5	3.3997178e-06
47	0x355b966e	8.180276e-07
48	0x341be789	1.4519732e-07
49	0x00000000	0.0
50	0x00000000	0.0
51	0x361b8fda	2.3180532e-06
52	0x3492caa3	2.7342057e-07
53	0x35307354	6.5732934e-07
54	0x00000000	0.0
55	0x3484f476	2.4764785e-07
56	0x00000000	0.0
57	0x34326edd	1.6617874e-07
58	0x3556f827	8.008232e-07
59	0x3682e921	3.9014417e-06
60	0x2e321766	4.0493296e-11
61	0x00000000	0.0
62	0x34afccde	3.274535e-07
63	0x00000000	0.0

exp_avg f4 [64, 64]
0	0x3835142b	4.3172546e-05
1	0xb685e50c	-3.9903734e-06
2	0x380d7d67	3.373381e-05
3	0xb6e5d2fd	-6.849294e-06
4	0x00000000	0.0
5	0x37ab38b0	2.0411186e-05
6	0x38115588	3.465035e-05
7	0x00000004	6e-45
8	0x36b2861e	5.3204267e-06
9	0x00000000	0.0
10	0xb7a269cb	-1.9361169e-05
11	0x00000000	0.0
12	0xb790b8e6	-1.7252238e-05
13	0xb7df4ae9	-2.6618554e-05
14	0x382fcceb	4.1914096e-05
15	0x00000000	0.0
16	0x00000000	0.0
17	0x00000000	0.0
18	0xb6d9e34e	-6.4935657e-06
19	0x383bb9d8	4.4757355e-05
20	0x80000004	-6e-45
21	0x37b66878	2.1744738e-05
22	0x00000000	0.0
23	0xb745a275	-1.177994e-05
24	0x377e861a	1.5170803e-05
25	0x00000000	0.0
26	0x386e8352	5.6865923e-05
27	0x37ef6891	2.8539713e-05
28	0xb7acf59c	-2.0618369e-05
29	0x00000000	0.0
30	0x36851d3a	3.9671113e-06
31	0x3808f01f	3.2648557e-05
32	0x3882179e	6.203282e-05
33	0x80000004	-6e-45
34	0x37b81919	2.1946196e-05
35	0x38155a49	3.5608453e-05
36	0x00000000	0.0
37	0x375f6fcb	1.3317865e-05
38	0x370f6bc8	8.548559e-06
39	0x00000000	0.0
40	0x364201be	2.8909267e-06
41	0x00000000	0.0
42	0x00000000	0.0
43	0x37a5f6c6	1.9784446e-05
44	0xb69ba001	-4.637987e-06
45	0x3818de0f	3.6446432e-05
46	0x36dd1990	6.589289e-06
47	0xb7159583	-8.915903e-06
48	0x369e3b6e	4.7156855e-06
49	0x00000000	0.0
50	0x00000000	0.0
51	0xb4aa991a	-3.1776364e-07
52	0x380de21e	3.3827608e-05
53	0x3840b08a	4.5940782e-05
54	0x00000000	0.0
55	0xb7674f24	-1.3787099e-05
56	0x00000000	0.0
57	0x380e5150	3.3931166e-05
58	0xb7010631	-7.690441e-06
59	0x353e75ed	7.095212e-07
60	0x00000004	6e-45
61	0x00000000	0.0
62	0x380fc621	3.427838e-05
63	0x00000000	0.0
64	0x00000000	0.0
65	0x00000000	0.0
66	0x00000000	0.0
67	0x00000000	0.0
68	0x00000000	0.0
69	0x00000000	0.0
70	0x00000000	0.0
71	0x00000000	0.0
72	0x00000000	0.0
73	0x00000000	0.0
74	0x00000000	0.0
75	0x00000000	0.0
76	0x00000000	0.0
77	0x00000000	0.0
78	0x00000000	0.0
79	0x00000000	0.0
80	0x00000000	0.0
81	0x00000000	0.0
82	0x00000000	0.0
83	0x00000000	0.0
84	0x00000000	0.0
85	0x00000000	0.0
86	0x00000000	0.0
87	0x00000000	0.0
88	0x00000000	0.0
89	0x00000000	0.0
90	0x00000000	0.0
91	0x00000000	0.0
92	0x00000000	0.0
93	0x00000000	0.0
94	0x00000000	0.0
95	0x00000000	0.0
96	0x00000000	0.0
97	0x00000000	0.0
98	0x00000000	0.0
99	0x00000000	0.0
100	0x00000000	0.0
101	0x00000000	0.0
102	0x00000000	0.0
103	0x00000000	0.0
104	0x00000000	0.0
105	0x00000000	0.0
106	0x00000000	0.0
107	0x00000000	0.0
108	0x00000000	0.0
109	0x00000000	0.0
110	0x00000000	0.0
111	0x00000000	0.0
112	0x00000000	0.0
113	0x00000000	0.0
114	0x00000000	0.0
115	0x00000000	0.0
116	0x00000000	0.0
117	0x00000000	0.0
118	0x00000000	0.0
119	0x00000000	0.0
120	0x00000000	0.0
121	0x00000000	0.0
122	0x00000000	0.0
123	0x00000000	0.0
124	0x00000000	0.0
125	0x00000000	0.0
126	0x00000000	0.0
127	0x00000000	0.0
128	0x389ec0a9	7.569913e-05
129	0x36a6932b	4.964318e-06
130	0x385a29f1	5.201431e-05
131	0x37196832	9.1437705e-06
132	0x00000000	0.0
133	0x3830d5b9	4.2160715e-05
134	0x3873d3ad	5.8132853e-05
135	0x00000004	6e-45
136	0x37396631	1.1050653e-05
137	0x00000000	0.0
138	0xb80fd0e4	-3.42884e-05
139	0x00000000	0.0
140	0xb7721a5c	-1.4430461e-05
141	0xb798a6e9	-1.8197536e-05
142	0x38aa21da	8.112537e-05
143	0x00000000	0.0
144	0x00000000	0.0
145	0x00000000	0.0
146	0xb7114318	-8.658295e-06
147	0x38a08d10	7.6556695e-05
148	0x00000004	6e-45
149	0x38320a4b	4.2448093e-05
150	0x00000004	6e-45
151	0xb6d7d7e7	-6.4326337e-06
152	0x37a146c1	1.9225643e-05
153	0x00000000	0.0
154	0x38ca76d9	9.654248e-05
155	0x37aee4f5	2.0849033e-05
156	0xb747b5b3	-1.19036295e-05
157	0x00000000	0.0
158	0x37e8d9ca	2.7757971e-05
159	0x3851f736	5.0059716e-05
160	0x38c07952	9.177871e-05
161	0x80000004	-6e-45
162	0x37fc14dd	3.0050456e-05
163	0x384e3851	4.9166676e-05
164	0x00000000	0.0
165	0x370152e8	7.708302e-06
166	0x3801f98a	3.0988398e-05
167	0x00000000	0.0
168	0x367b7141	3.7467837e-06
169	0x00000004	6e-45
170	0x00000000	0.0
171	0x379b9cc2	1.8550436e-05
172	0x36ac3ba5	5.132943e-06
173	0x378855b7	1.6252377e-05
174	0x37d30306	2.5154568e-05
175	0xb767e8f6	-1.3822913e-05
176	0x365651cf	3.1936104e-06
177	0x00000000	0.0
178	0x00000000	0.0
179	0x3742f4e7	1.1620322e-05
180	0x387f3468	6.0845545e-05
181	0x388ebd4a	6.8063455e-05
182	0x00000000	0.0
183	0xb80b7a20	-3.325392e-05
184	0x00000000	0.0
185	0x38a7e3e0	8.0056256e-05
186	0x36255629	2.4637068e-06
187	0x365f15a9	3.3242197e-06
188	0x00000004	6e-45
189	0x00000000	0.0
190	0x387e69fa	6.0657017e-05
191	0x00000000	0.0
192	0xb6514889	-3.1185648e-06
193	0x3668089d	3.4575708e-06
194	0xb6b96759	-5.525461e-06
195	0x37356d28	1.0813856e-05
196	0x00000000	0.0
197	0x35f572b9	1.8287311e-06
198	0xb6874548	-4.031379e-06
199	0x80000004	-6e-45
200	0xb5ea96cf	-1.747825e-06
201	0x00000000	0.0
202	0x36af5fa6	5.2265414e-06
203	0x00000000	0.0
204	0x3710b19f	8.6244245e-06
205	0x37772d7f	1.473294e-05
206	0xb5480e66	-7.452676e-07
207	0x00000000	0.0
208	0x00000000	0.0
209	0x00000000	0.0
210	0x365557b6	3.1790528e-06
211	0xb6c3d8f4	-5.8367095e-06
212	0x00000004	6e-45
213	0x34695b86	2.1733112e-07
214	0x80000004	-6e-45
215	0x36c87e6d	5.9751824e-06
216	0xb6c186ab	-5.7675256e-06
217	0x00000000	0.0
218	0xb721b90a	-9.639431e-06
219	0xb6a752e0	-4.9866358e-06
220	0x37489f30	1.1957993e-05
221	0x00000000	0.0
222	0x36d0832c	6.2141535e-06
223	0xb6acbc01	-5.147886e-06
224	0xb7636c94	-1.3555535e-05
225	0x00000004	6e-45
226	0xb6880fad	-4.0549407e-06
227	0xb6e2186d	-6.7381684e-06
228	0x00000000	0.0
229	0xb69eee6d	-4.7365234e-06
230	0x369e00e1	4.7088693e-06
231	0x00000000	0.0
232	0x3619362a	2.2830304e-06
233	0x80000004	-6e-45
234	0x00000000	0.0
235	0xb6fdb959	-7.561565e-06
236	0x36e97fda	6.958825e-06
237	0xb7448fbc	-1.1715976e-05
238	0x368b367b	4.148865e-06
239	0x369bbead	4.6415576e-06
240	0xb60be896	-2.0847997e-06
241	0x00000000	0.0
242	0x00000000	0.0
243	0x3625bff2	2.4698643e-06
244	0xb660483c	-3.3420647e-06
245	0xb71a5f38	-9.201285e-06
246	0x00000000	0.0
247	0x36838ada	3.9202687e-06
248	0x00000000	0.0
249	0x366b71d7	3.5083992e-06
250	0x36d3faba	6.3174784e-06
251	0xb499efce	-2.8672952e-07
252	0x80000004	-6e-45
253	0x00000000	0.0
254	0xb5f86126	-1.8505714e-06
255	0x00000000	0.0

exp_avg_sq f4 [64, 64]
0	0x340162da	1.2050023e-07
1	0x32ba3e27	2.1681513e-08
2	0x336f54f7	5.57238e-08
3	0x3406fd99	1.2571981e-07
4	0x00000000	0.0
5	0x33f75f5f	1.1519182e-07
6	0x33a2e797	7.585839e-08
7	0x2752d98a	2.9261283e-15
8	0x31ae51d2	5.0733684e-09
9	0x00000000	0.0
10	0x33b6e155	8.516023e-08
11	0x00000000	0.0
12	0x33091d71	3.1924575e-08
13	0x332aa902	3.973492e-08
14	0x3399636c	7.1427024e-08
15	0x00000000	0.0
16	0x00000000	0.0
17	0x00000000	0.0
18	0x3313c12f	3.4401804e-08
19	0x3352135e	4.891205e-08
20	0x25c259e2	3.3714542e-16
21	0x33c6a2b3	9.249688e-08
22	0x00000000	0.0
23	0x34010693	1.2016453e-07
24	0x320c4379	8.164414e-09
25	0x00000000	0.0
26	0x33d80da3	1.0060764e-07
27	0x32a41761	1.9102744e-08
28	0x32f87546	2.892433e-08
29	0x00000000	0.0
30	0x3320176c	3.7274205e-08
31	0x33857338	6.214253e-08
32	0x33df1fdc	1.0390042e-07
33	0x152ba7f4	3.4665667e-26
34	0x32a60629	1.9327745e-08
35	0x32989c14	1.7766105e-08
36	0x00000000	0.0
37	0x3094750f	1.0801687e-09
38	0x32a8f234	1.9667915e-08
39	0x00000000	0.0
40	0x32a65e9c	1.9367967e-08
41	0x00000000	0.0
42	0x00000000	0.0
43	0x323003cd	1.02454125e-08
44	0x33a7208e	7.782465e-08
45	0x324f1e2e	1.2055848e-08
46	0x32736785	1.4167999e-08
47	0x320d7548	8.233947e-09
48	0x2f0a4262	1.2574611e-10
49	0x00000000	0.0
50	0x00000000	0.0
51	0x32af5045	2.0409184e-08
52	0x332469d9	3.8280493e-08
53	0x3314fed2	3.4690693e-08
54	0x00000000	0.0
55	0x30115e4c	5.2884697e-10
56	0x00000000	0.0
57	0x340c83ec	1.3086509e-07
58	0x335513ce	4.961094e-08
59	0x3186d5b6	3.9242094e-09
60	0x21ef8d7b	1.623272e-18
61	0x00000000	0.0
62	0x3391bf2b	6.786862e-08
63	0x00000000	0.0
64	0x00000000	0.0
65	0x00000000	0.0
66	0x00000000	0.0
67	0x00000000	0.0
68	0x00000000	0.0
69	0x00000000	0.0
70	0x00000000	0.0
71	0x00000000	0.0
72	0x00000000	0.0
73	0x00000000	0.0
74	0x00000000	0.0
75	0x00000000	0.0
76	0x00000000	0.0
77	0x00000000	0.0
78	0x00000000	0.0
79	0x00000000	0.0
80	0x00000000	0.0
81	0x00000000	0.0
82	0x00000000	0.0
83	0x00000000	0.0
84	0x00000000	0.0
85	0x00000000	0.0
86	0x00000000	0.0
87	0x00000000	0.0
88	0x00000000	0.0
89	0x00000000	0.0
90	0x00000000	0.0
91	0x00000000	0.0
92	0x00000000	0.0
93	0x00000000	0.0
94	0x00000000	0.0
95	0x00000000	0.0
96	0x00000000	0.0
97	0x00000000	0.0
98	0x00000000	0.0
99	0x00000000	0.0
100	0x00000000	0.0
101	0x00000000	0.0
102	0x00000000	0.0
103	0x00000000	0.0
104	0x00000000	0.0
105	0x00000000	0.0
106	0x00000000	0.0
107	0x00000000	0.0
108	0x00000000	0.0
109	0x00000000	0.0
110	0x00000000	0.0
111	0x00000000	0.0
112	0x00000000	0.0
113	0x00000000	0.0
114	0x00000000	0.0
115	0x00000000	0.0
116	0x00000000	0.0
117	0x00000000	0.0
118	0x00000000	0.0
119	0x00000000	0.0
120	0x00000000	0.0
121	0x00000000	0.0
122	0x00000000	0.0
123	0x00000000	0.0
124	0x00000000	0.0
125	0x00000000	0.0
126	0x00000000	0.0
127	0x00000000	0.0
128	0x34e3863a	4.2379708e-07
129	0x33e37d30	1.0593283e-07
130	0x3458739e	2.0158629e-07
131	0x35144127	5.5229106e-07
132	0x00000000	0.0
133	0x3502b321	4.868944e-07
134	0x34913e32	2.7053608e-07
135	0x29e44c85	1.0138508e-13
136	0x32728205	1.4115817e-08
137	0x00000000	0.0
138	0x35026036	4.856878e-07
139	0x00000000	0.0
140	0x343a25d9	1.7336369e-07
141	0x344819cc	1.8635836e-07
142	0x348143b9	2.4077397e-07
143	0x00000000	0.0
144	0x00000000	0.0
145	0x00000000	0.0
146	0x342e9ee0	1.6262811e-07
147	0x341b0c3d	1.4439952e-07
148	0x25519cdb	1.8181005e-16
149	0x34bcb9e8	3.5152993e-07
150	0x251402ba	1.2837878e-16
151	0x3527436a	6.231045e-07
152	0x32bfe756	2.2340526e-08
153	0x00000000	0.0
154	0x34bae655	3.4812788e-07
155	0x334c2f7d	4.754064e-08
156	0x3410979b	1.3466199e-07
157	0x00000000	0.0
158	0x3443b157	1.8225306e-07
159	0x346f2987	2.2273717e-07
160	0x34ba55be	3.4707585e-07
161	0x1682e600	2.1147783e-25
162	0x337ee8e3	5.9350793e-08
163	0x333e5f76	4.4324644e-08
164	0x00000000	0.0
165	0x31caff99	5.908032e-09
166	0x33b6998d	8.502966e-08
167	0x00000000	0.0
168	0x33a7f7cd	7.821618e-08
169	0x22931151	3.9862764e-18
170	0x00000000	0.0
171	0x32ec8e59	2.7538748e-08
172	0x34b87dd0	3.436421e-07
173	0x3322f782	3.794367e-08
174	0x337d6357	5.8996502e-08
175	0x3308254c	3.169889e-08
176	0x2ffb8045	4.5747775e-10
177	0x00000000	0.0
178	0x00000000	0.0
179	0x33f7469a	1.1514676e-07
180	0x34013d7b	1.2036428e-07
181	0x33c1edb9	9.030504e-08
182	0x00000000	0.0
183	0x311cba85	2.2807012e-09
184	0x00000000	0.0
185	0x35055783	4.967371e-07
186	0x348b6d58	2.5970326e-07
187	0x32320833	1.0362828e-08
188	0x2a6499b1	2.030379e-13
189	0x00000000	0.0
190	0x3480f881	2.4022668e-07
191	0x00000000	0.0
192	0x3376127d	5.7293153e-08
193	0x32386fc3	1.0735621e-08
194	0x32e76f22	2.6942477e-08
195	0x3383af0c	6.132004e-08
196	0x00000000	0.0
197	0x3371caaf	5.6296525e-08
198	0x331b33fb	3.6136026e-08
199	0x2a44155e	1.741571e-13
200	0x312ab17e	2.4839149e-09
201	0x00000000	0.0
202	0x334edee4	4.816583e-08
203	0x00000000	0.0
204	0x3294fc73	1.7344268e-08
205	0x32a5702b	1.9259536e-08
206	0x33110fdc	3.3774867e-08
207	0x00000000	0.0
208	0x00000000	0.0
209	0x00000000	0.0
210	0x329733bc	1.760224e-08
211	0x32c578c4	2.2988736e-08
212	0x26a26a08	1.1269748e-15
213	0x333b926e	4.3672507e-08
214	0x278c4662	3.8934115e-15
215	0x3386fb1a	6.2855364e-08
216	0x31857894	3.8845176e-09
217	0x00000000	0.0
218	0x334d572b	4.780956e-08
219	0x3218b3a0	8.8884065e-09
220	0x326c9f27	1.3773195e-08
221	0x00000000	0.0
222	0x32a81bf9	1.9570495e-08
223	0x32ff837b	2.9745697e-08
224	0x335dce6f	5.1643323e-08
225	0x1529a87e	3.4262195e-26
226	0x3218a1d2	8.884358e-09
227	0x3211875d	8.470889e-09
228	0x00000000	0.0
229	0x30384b9d	6.7046263e-10
230	0x322a0b06	9.897809e-09
231	0x00000000	0.0
232	0x32175f95	8.81109e-09
233	0x238f9d87	1.5570806e-17
234	0x00000000	0.0
235	0x31a66674	4.8428834e-09
236	0x332060ad	3.734083e-08
237	0x31e9dd26	6.806334e-09
238	0x31f1d295	7.0379635e-09
239	0x317b7bb1	3.6595618e-09
240	0x2e90ca6f	6.584321e-11
241	0x00000000	0.0
242	0x00000000	0.0
243	0x32472bff	1.1593328e-08
244	0x329be2b7	1.8147473e-08
245	0x328a555b	1.610413e-08
246	0x00000000	0.0
247	0x2f6323e9	2.0658288e-10
248	0x00000000	0.0
249	0x3385e331	6.234621e-08
250	0x32e202de	2.6311167e-08
251	0x31027e55	1.8989301e-09
252	0x2aa6587b	2.954892e-13
253	0x00000000	0.0
254	0x330d8679	3.2951423e-08
255	0x00000000	0.0

exp_avg f4 [64]
0	0x384e8e57	4.924679e-05
1	0x00000000	0.0
2	0x38e556f7	0.000109357694
3	0x3644e577	2.9339842e-06
4	0x00000000	0.0
5	0x386c2d2d	5.6308858e-05
6	0xb8d339c4	-0.00010072024
7	0x00000000	0.0
8	0x38b20e88	8.490408e-05
9	0x3773d41a	1.4533312e-05
10	0xb80b0e9f	-3.31538e-05
11	0xb8845b42	-6.3112486e-05
12	0xb717072b	-9.00197e-06
13	0x381612f7	3.578045e-05
14	0x35aeca7b	1.302294e-06
15	0x00000004	6e-45
16	0x00000000	0.0
17	0x3611517b	2.1654112e-06
18	0x00000004	6e-45
19	0xb819ddba	-3.668454e-05
20	0x37cf84ef	2.4738225e-05
21	0x37f9538c	2.9722018e-05
22	0xb89faa69	-7.613452e-05
23	0x3823fabd	3.9095747e-05
24	0xb7cc3621	-2.43439e-05
25	0x00000000	0.0
26	0xb8cf6265	-9.8888566e-05
27	0xb6a07c05	-4.7828094e-06
28	0x374e2007	1.2286014e-05
29	0x00000000	0.0
30	0x3786866b	1.6036638e-05
31	0xb86e8762	-5.6869707e-05
32	0x39233a5b	0.0001556663
33	0x383707cb	4.3637858e-05
34	0x3860a425	5.3558633e-05
35	0x00000000	0.0
36	0x37bc487d	2.2445101e-05
37	0x00000000	0.0
38	0x37c4acc0	2.3445464e-05
39	0xb809ba27	-3.2836713e-05
40	0x00000000	0.0
41	0xb82fed04	-4.194399e-05
42	0x38f90642	0.00011874411
43	0xb680b940	-3.836263e-06
44	0xb82632e5	-3.9624883e-05
45	0x389c5abf	7.4555624e-05
46	0x379d678f	1.8764082e-05
47	0x80000004	-6e-45
48	0x00000000	0.0
49	0x38343e9b	4.297365e-05
50	0xb8f1341d	-0.000115014824
51	0x00000000	0.0
52	0xb87fc65a	-6.0981467e-05
53	0x00000000	0.0
54	0xb8899b1f	-6.5615626e-05
55	0xb8c8c14f	-9.57275e-05
56	0x80000004	-6e-45
57	0x00000004	6e-45
58	0xb88b577a	-6.64433e-05
59	0x3819774d	3.658915e-05
60	0xb81cff4c	-3.7431062e-05
61	0x00000004	6e-45
62	0xb83afb7c	-4.458007e-05
63	0x38035091	3.1307867e-05

exp_avg_sq f4 [64]
0	0x3521524a	6.009692e-07
1	0x00000000	0.0
2	0x3631e72b	2.6509613e-06
3	0x34a407e3	3.055312e-07
4	0x00000000	0.0
5	0x359e0de9	1.1775966e-06
6	0x3532279a	6.6367795e-07
7	0x00000000	0.0
8	0x359f8327	1.1884594e-06
9	0x33e2df22	1.0564533e-07
10	0x3468a9dc	2.1668478e-07
11	0x33f85763	1.15642955e-07
12	0x34a4fbe0	3.0730644e-07
13	0x356acd02	8.747012e-07
14	0x31c86b91	5.832995e-09
15	0x30baa319	1.3579636e-09
16	0x00000000	0.0
17	0x3402bd96	1.2176164e-07
18	0x314076bb	2.8007168e-09
19	0x34b5a4b8	3.3833726e-07
20	0x350e39f6	5.2983467e-07
21	0x34fa8358	4.6661694e-07
22	0x34472945	1.8548333e-07
23	0x34a2a037	3.0291423e-07
24	0x3512a68e	5.463161e-07
25	0x00000000	0.0
26	0x3534589c	6.718417e-07
27	0x3538772e	6.871877e-07
28	0x349db018	2.9371654e-07
29	0x00000000	0.0
30	0x358897f3	1.0177013e-06
31	0x351dfdbc	5.885629e-07
32	0x33e0d460	1.04694436e-07
33	0x35290cf6	6.2976267e-07
34	0x35cf1605	1.542911e-06
35	0x00000000	0.0
36	0x31dd98ba	6.4493095e-09
37	0x00000000	0.0
38	0x34e23051	4.2130935e-07
39	0x355da07c	8.256245e-07
40	0x00000000	0.0
41	0x34ba7036	3.4726844e-07
42	0x344bfe4b	1.899836e-07
43	0x34a52efe	3.0767836e-07
44	0x357a72ae	9.329914e-07
45	0x34615837	2.098685e-07
46	0x350cb6c3	5.242002e-07
47	0x3037331f	6.664766e-10
48	0x00000000	0.0
49	0x358acf27	1.034209e-06
50	0x36241f9c	2.4456303e-06
51	0x00000000	0.0
52	0x35322805	6.6368403e-07
53	0x00000000	0.0
54	0x35cb5ad7	1.5151116e-06
55	0x360fb739	2.141531e-06
56	0x2f3aaa9c	1.6977214e-10
57	0x2f77203c	2.2475971e-10
58	0x352b5188	6.382111e-07
59	0x35d16b52	1.5602948e-06
60	0x351126bc	5.4073075e-07
61	0x30198e92	5.586368e-10
62	0x34f8279e	4.6222425e-07
63	0x35a5a1a9	1.2340507e-06
