001-machine_learning/data/00001-MLP-temperature/001_checkpoint.pth (torch_old, 111955 bytes, 24 tensors)

exp_avg f4 [64, 4]
00000000: 0000 0000 0000 0000 0000 0000 0000 0000
00000010: 0000 0000 0000 0000 0000 0000 0000 0000
00000020: 0000 0000 c211 8eb8 2edf 0bb8 b8c6 51b8
00000030: 0000 0000 a820 0c3a 0fbd c839 fed7 093a
00000040: 0000 0000 6d5c 0539 1c84 d037 a75e a539
00000050: 0000 0000 0000 0000 0000 0000 0000 0000
00000060: 0000 0000 91ef 90b9 cec1 36b9 9378 a0b9
00000070: 0000 0000 31b9 16ba b1d4 d3b9 6d6c 0eba
00000080: 0000 0000 fef9 b03a 6a62 6c3a cc64 a83a
00000090: 0000 0000 d0b0 7139 9d6a 2038 16cc 7339
000000a0: 0000 0000 d908 6e3a 027d 283a 949e 663a
000000b0: 0000 0000 62d2 b238 70d3 db38 aed4 c238
000000c0: 0000 0000 9225 6aba 5969 1bba 7a5e 64ba
000000d0: 0000 0000 dc39 76ba 9ef1 2aba af36 6fba
000000e0: 0000 0000 0000 0000 0000 0000 0000 0000
000000f0: 0000 0000 98a5 b939 1eed 0d39 90fd 8139
00000100: 0000 0000 fbb0 2d39 7c45 1939 f37b 3f39
00000110: 0000 0000 e259 05b9 e019 18b8 b66b a5b8
00000120: 0000 0000 0000 0000 0000 0000 0000 0000
00000130: 0000 0000 185d a33a 9b75 593a ccb6 9a3a
00000140: 0000 0000 b978 96b9 5066 25b9 9b2d 88b9
00000150: 0000 0000 7eef 11b8 ebb7 a3b8 66f3 bab8
00000160: 0000 0000 d7c7 983a 29b2 523a 7cb0 983a
00000170: 0000 0000 8dd6 4739 b045 2b39 5a2e 5439
00000180: 0000 0000 0000 0000 0000 0000 0000 0000
00000190: 0000 0000 7287 ddb1 ea71 eeb1 7369 cdb1
000001a0: 0000 0000 0000 0000 0000 0000 0000 0000
000001b0: 0000 0000 9268 ae3a c2e9 6d3a 6838 a93a
000001c0: 0000 0000 9a9c 2c39 75fb db38 adf1 1939
000001d0: 0000 0000 15e9 1839 0464 9d38 2965 be38
000001e0: 0000 0000 0000 0000 0000 0000 0000 0000
000001f0: 0000 0000 0000 0000 0000 0000 0000 0000
00000200: 0000 0000 3a7d 4bb9 fe00 74b8 5ad9 31b9
00000210: 0000 0000 c041 813a 8300 3a3a 7af0 7e3a
00000220: 0000 0000 2c86 dd39 60c2 c239 daab e239
00000230: 0000 0000 0000 0000 0000 0000 0000 0000
00000240: 0000 0000 4d06 8db7 a669 32b7 21e9 7db6
00000250: 0000 0000 006e 7db9 28a3 53b9 1028 95b9
00000260: 0000 0000 443f b439 ba62 9c39 bf42 bd39
00000270: 0000 0000 2091 60b2 2f65 5cb2 bb7f 30b2
00000280: 0000 0000 e2d2 3239 226d 2b39 25fb 4439
00000290: 0000 0000 75f4 78ba b98b 1fba d83e 71ba
000002a0: 0000 0000 5888 a6b2 14a0 9cb2 f698 a2b1
000002b0: 0000 0000 b512 78b9 6114 29b9 97b3 69b9
000002c0: 0000 0000 0000 0000 0000 0000 0000 0000
000002d0: 0000 0000 51f4 7635 cc32 2535 a921 2633
000002e0: 0000 0000 d1a8 7639 0029 1f39 f0d6 6539
000002f0: 0000 0000 0000 0000 0000 0000 0000 0000
00000300: 0000 0000 0400 0000 0400 0000 0400 0000
00000310: 0000 0000 e326 01ba e1c1 a4b9 2b20 03ba
00000320: 0000 0000 e272 a53a 7ad6 6c3a 3a10 a03a
00000330: 0000 0000 775c 913a 1f08 503a 1ee0 903a
00000340: 0000 0000 b14a bfb5 004d 53b5 5754 0cb6
00000350: 0000 0000 cd47 ea39 0cab ab39 48d6 e539
00000360: 0000 0000 cf39 26ba bca7 e9b9 de53 2aba
00000370: 0000 0000 a90e d6b9 f965 8fb9 701c d5b9
00000380: 0000 0000 46de 06ba 75b2 c3b9 6077 00ba
00000390: 0000 0000 7c14 24ba 8700 c3b9 5823 16ba
000003a0: 0000 0000 b124 013a 320c c039 7e26 043a
000003b0: 0000 0000 d300 f4b9 4efd afb9 ce28 f7b9
000003c0: 0000 0000 ab3f f539 514a bd39 6adb 003a
000003d0: 0000 0000 02d4 feb9 c1ac a9b9 4dd2 efb9
000003e0: 0000 0000 0000 0000 0000 0000 0000 0000
000003f0: 0000 0000 eb17 473a 6fdf 003a f6b0 423a
0.0 0.0 0.0 0.0 0.0 0.0 0.0 0.0
0.0 -6.774395e-05 -3.3348035e-05 -5.0014554e-05 0.0 0.00053454423 0.00038287832 0.00052583206
0.0 0.000127183 2.485705e-05 0.00031541774 0.0 0.0 0.0 0.0
0.0 -0.0002764431 -0.0001742907 -0.00030607413 0.0 -0.00057496416 -0.00040403524 -0.0005433027
0.0 0.0013502238 0.00090173504 0.0012847423 0.0 0.00023049419 3.8246264e-05 0.00023250314
0.0 0.0009080298 0.0006427319 0.00087974337 0.0 8.526888e-05 0.00010482117 9.2902555e-05
0.0 -0.000893199 -0.0005928479 -0.0008711588 0.0 -0.0009392777 -0.0006520989 -0.0009125275
0.0 0.0 0.0 0.0 0.0 0.00035409327 0.00013535141 0.00024793716
0.0 0.00016564496 0.00014617102 0.00018261354 0.0 -0.00012717352 -3.6263722e-05 -7.887876e-05
0.0 0.0 0.0 0.0 0.0 0.0012463657 0.00082954176 0.0011803745
0.0 -0.00028700175 -0.0001577374 -0.0002597392 0.0 -3.479374e-05 -7.806703e-05 -8.9145076e-05
0.0 0.0011656237 0.0008037412 0.0011649276 0.0 0.00019058045 0.00016333791 0.00020235163
0.0 0.0 0.0 0.0 0.0 -6.447345e-09 -6.939662e-09 -5.9782734e-09
0.0 0.0 0.0 0.0 0.0 0.0013306311 0.0009075665 0.0012910487
0.0 0.00016461537 0.00010489571 0.00014681248 0.0 0.0001458268 7.504973e-05 9.0787486e-05
0.0 0.0 0.0 0.0 0.0 0.0 0.0 0.0
0.0 -0.00019406239 -5.8175057e-05 -0.00016961005 0.0 0.0009861514 0.0007095413 0.0009725165
0.0 0.0004225237 0.00037147384 0.00043234118 0.0 0.0 0.0 0.0
0.0 -1.6811444e-05 -1.0634225e-05 -3.7835637e-06 0.0 -0.00024168938 -0.00020183309 -0.00028449344
0.0 0.00034379412 0.00029828196 0.0003609862 0.0 -1.3071514e-08 -1.2828692e-08 -1.0273591e-08
0.0 0.00017053963 0.00016348486 0.00018785575 0.0 -0.0009496876 -0.0006086189 -0.0009202785
0.0 -1.9386945e-08 -1.8233585e-08 -4.73221e-09 0.0 -0.00023658092 -0.00016124688 -0.00022287514
0.0 0.0 0.0 0.0 0.0 9.199767e-07 6.154121e-07 3.86805e-08
0.0 0.00023523277 0.00015178695 0.00021919212 0.0 0.0 0.0 0.0
0.0 6e-45 6e-45 6e-45 0.0 -0.0004926754 -0.0003142497 -0.0005002047
0.0 0.0012622739 0.0009034645 0.0012211867 0.0 0.0011090179 0.00079357804 0.001105312
0.0 -1.4252347e-06 -7.8715675e-07 -2.0910718e-06 0.0 0.00044685454 0.00032743101 0.00043837936
0.0 -0.00063410116 -0.00044566195 -0.00064974825 0.0 -0.00040828183 -0.0002735106 -0.00040647713
0.0 -0.00051448157 -0.0003732626 -0.0004900601 0.0 -0.0006259156 -0.0003719369 -0.00057273125
0.0 0.0004926427 0.0003663018 0.0005041136 0.0 -0.0004653992 -0.00033567328 -0.00047141913
0.0 0.00046777478 0.0003610426 0.0004915508 0.0 -0.00048604613 -0.00032362904 -0.0004574232
0.0 0.0 0.0 0.0 0.0 0.00075948116 0.00049161067 0.0007426882

exp_avg_sq f4 [64, 4]
00000000: 0000 0000 0000 0000 0000 0000 0000 0000
00000010: 0000 0000 0000 0000 0000 0000 0000 0000
00000020: 0000 0000 164a de34 a61b 9e34 9dae ca34
00000030: 0000 0000 228d 4135 e0c8 ef34 e211 4135
00000040: 0000 0000 9514 5836 5fbe e335 b2cb 0e36
00000050: 0000 0000 0000 0000 0000 0000 0000 0000
00000060: 0000 0000 ef6b 9d34 7e79 2334 cbed 6d34
00000070: 0000 0000 eaf4 4335 be2c 2235 ea72 5735
00000080: 0000 0000 0f22 6436 aa0a 0836 81a7 6536
00000090: 0000 0000 b63f 9434 09c9 8034 25e7 9f34
000000a0: 0000 0000 1390 0936 1316 c035 4829 1136
000000b0: 0000 0000 d583 1a34 7d58 c633 9af0 1d34
000000c0: 0000 0000 324a da35 7596 a935 af55 e035
000000d0: 0000 0000 2956 0536 65aa b635 847e 0936
000000e0: 0000 0000 0000 0000 0000 0000 0000 0000
000000f0: 0000 0000 ad58 ef33 d388 fd32 4bf1 5b33
00000100: 0000 0000 8774 4434 7952 1234 938e 3d34
00000110: 0000 0000 948b 2933 14a9 9832 5dbe 0633
00000120: 0000 0000 0000 0000 0000 0000 0000 0000
00000130: 0000 0000 774d 3d36 740a 0c36 dfd7 4736
00000140: 0000 0000 7f45 b633 6026 2033 b5c4 a133
00000150: 0000 0000 b376 5434 e980 ce33 7f2a 3234
00000160: 0000 0000 f947 5e36 0521 ad35 1d29 4036
00000170: 0000 0000 fbf0 3e34 f6e3 fd33 2235 4634
00000180: 0000 0000 0000 0000 0000 0000 0000 0000
00000190: 0000 0000 c203 c830 e17b 5933 8540 4832
000001a0: 0000 0000 0000 0000 0000 0000 0000 0000
000001b0: 0000 0000 cd53 6536 c9e1 1b36 183e 6b36
000001c0: 0000 0000 237e 3f33 c67b 3e33 c4bf 7033
000001d0: 0000 0000 e78b 5633 02ec c832 9c25 0333
000001e0: 0000 0000 0000 0000 0000 0000 0000 0000
000001f0: 0000 0000 0000 0000 0000 0000 0000 0000
00000200: 0000 0000 c194 0934 77ac 9933 ff0b ec33
00000210: 0000 0000 83cf fc35 6637 c135 9196 0336
00000220: 0000 0000 66a9 7435 b369 3335 ae4e 7435
00000230: 0000 0000 0000 0000 0000 0000 0000 0000
00000240: 0000 0000 8c80 6a33 77de 2c34 99f9 9f33
00000250: 0000 0000 c171 e934 1416 ab34 c22e d134
00000260: 0000 0000 0d4d 2135 147e 0635 9b5b 2235
00000270: 0000 0000 7632 1830 3130 2633 03c1 3632
00000280: 0000 0000 3300 2934 e3bf 8133 4d2a 1d34
00000290: 0000 0000 9196 db35 8f43 5135 11bb c535
000002a0: 0000 0000 804d 3530 ba9e 0033 e239 f831
000002b0: 0000 0000 2d59 a833 de45 8c33 0408 9e33
000002c0: 0000 0000 0000 0000 0000 0000 0000 0000
000002d0: 0000 0000 3168 1431 a612 d933 2e4e be32
000002e0: 0000 0000 0bdf d733 e1d6 8333 b901 dc33
000002f0: 0000 0000 0000 0000 0000 0000 0000 0000
00000300: 0000 0000 8ae8 ee27 fe6d 0022 b074 0421
00000310: 0000 0000 a6db 1035 30c9 8c34 a05a eb34
00000320: 0000 0000 aef0 8336 177e 5136 4422 8d36
00000330: 0000 0000 8a79 6536 6c13 b535 6182 4f36
00000340: 0000 0000 600d b033 b2ca e234 097e 9734
00000350: 0000 0000 531e fa34 b477 c034 df32 ff34
00000360: 0000 0000 add2 a835 327b 7435 c963 a435
00000370: 0000 0000 da32 da34 53ee 4d34 c741 cf34
00000380: 0000 0000 5ec9 2835 e925 1535 0882 3b35
00000390: 0000 0000 cfc5 e434 6167 9134 51c7 d834
000003a0: 0000 0000 715e 2735 7963 f434 2bd1 2f35
000003b0: 0000 0000 d92e 2935 a51a 1235 a79c 2935
000003c0: 0000 0000 2ae4 6535 d02e 1735 bb34 6735
000003d0: 0000 0000 9055 0035 9dd5 b134 12c5 0635
000003e0: 0000 0000 0000 0000 0000 0000 0000 0000
000003f0: 0000 0000 b60a 8935 46d0 2735 ab9e 8335
0.0 0.0 0.0 0.0 0.0 0.0 0.0 0.0
0.0 4.1404627e-07 2.944991e-07 3.775248e-07 0.0 7.210348e-07 4.4663375e-07 7.1924126e-07
0.0 3.2198488e-06 1.6968223e-06 2.1278215e-06 0.0 0.0 0.0 0.0
0.0 2.932206e-07 1.5224757e-07 2.2158854e-07 0.0 7.299956e-07 6.041481e-07 8.0260963e-07
0.0 3.3994472e-06 2.0271787e-06 3.422116e-06 0.0 2.7613504e-07 2.398813e-07 2.9784238e-07
0.0 2.0498453e-06 1.4311539e-06 2.1630713e-06 0.0 1.4390328e-07 9.2361894e-08 1.4709295e-07
0.0 1.6263859e-06 1.263527e-06 1.6714238e-06 0.0 1.9868696e-06 1.3609648e-06 2.0488233e-06
0.0 0.0 0.0 0.0 0.0 1.1145435e-07 2.9515297e-08 5.1209366e-08
0.0 1.8296315e-07 1.3627313e-07 1.7653865e-07 0.0 3.9475324e-08 1.7772017e-08 3.137244e-08
0.0 0.0 0.0 0.0 0.0 2.8208285e-06 2.086771e-06 2.9778964e-06
0.0 8.487677e-08 3.7287805e-08 7.5329275e-08 0.0 1.9787221e-07 9.616071e-08 1.6593002e-07
0.0 3.3122471e-06 1.2899114e-06 2.863416e-06 0.0 1.7782797e-07 1.18226964e-07 1.8459517e-07
0.0 0.0 0.0 0.0 0.0 1.4552983e-09 5.0636917e-08 1.1656202e-08
0.0 0.0 0.0 0.0 0.0 3.4172438e-06 2.3228224e-06 3.5053872e-06
0.0 4.4585374e-08 4.4350394e-08 5.6053764e-08 0.0 4.9952998e-08 2.3390388e-08 3.053502e-08
0.0 0.0 0.0 0.0 0.0 0.0 0.0 0.0
0.0 1.2813236e-07 7.155989e-08 1.09917885e-07 0.0 1.8835857e-06 1.4395744e-06 1.9608162e-06
0.0 9.114359e-07 6.683651e-07 9.101158e-07 0.0 0.0 0.0 0.0
0.0 5.4599283e-08 1.609968e-07 7.449416e-08 0.0 4.34824e-07 3.1867296e-07 3.8963304e-07
0.0 6.00893e-07 5.010236e-07 6.0483006e-07 0.0 5.5368987e-10 3.8693717e-08 1.063768e-08
0.0 1.5739424e-07 6.0419346e-08 1.4637153e-07 0.0 1.6360592e-06 7.795688e-07 1.4732087e-06
0.0 6.595755e-10 2.9946683e-08 7.2243305e-09 0.0 7.8393306e-08 6.531967e-08 7.3589064e-08
0.0 0.0 0.0 0.0 0.0 2.159606e-09 1.0108242e-07 2.2154463e-08
0.0 1.0052289e-07 6.139249e-08 1.0244862e-07 0.0 0.0 0.0 0.0
0.0 6.631039e-15 1.7405464e-18 4.4877774e-19 0.0 5.396381e-07 2.6223415e-07 4.38381e-07
0.0 3.932123e-06 3.121682e-06 4.2061165e-06 0.0 3.4194404e-06 1.3491203e-06 3.0921294e-06
0.0 8.1980716e-08 4.224326e-07 2.8217644e-07 0.0 4.6588193e-07 3.5849882e-07 4.7534465e-07
0.0 1.257829e-06 9.1076356e-07 1.2247993e-06 0.0 4.0642664e-07 1.9178815e-07 3.8604614e-07
0.0 6.2877905e-07 5.556199e-07 6.985215e-07 0.0 4.2612234e-07 2.7083573e-07 4.0378157e-07
0.0 6.234978e-07 4.5520918e-07 6.549696e-07 0.0 6.302558e-07 5.442801e-07 6.3185365e-07
0.0 8.564117e-07 5.6320005e-07 8.613094e-07 0.0 4.7808226e-07 3.3124243e-07 5.0205665e-07
0.0 0.0 0.0 0.0 0.0 1.0210413e-06 6.2515426e-07 9.806439e-07

exp_avg f4 [64]
00000000: 0000 0000 0000 0000 8608 90b8 2c02 0b3a
00000010: c36d 1339 0000 0000 8cbf 91b9 7cc7 15ba
00000020: 8432 b03a 2331 7939 24c4 6b3a 2cdf a738
00000030: 6467 69ba 4d59 74ba 0000 0000 b17e ba39
00000040: 831b 2c39 da6d 08b9 0000 0000 ec6c a23a
00000050: 8092 96b9 de02 05b8 c86c 973a f837 4539
00000060: 0000 0000 07b2 03b2 0000 0000 e064 ad3a
00000070: 65fc 2b39 2f77 1839 0000 0000 0000 0000
00000080: 4a9e 4fb9 1cd5 803a 68de d839 0000 0000
00000090: c6b6 85b7 313b 7bb9 4769 b239 0e69 a5b2
000000a0: 3b2f 3039 615c 78ba 47b5 44b3 679c 77b9
000000b0: 0000 0000 6c3e 8135 8335 7539 0000 0000
000000c0: 0400 0000 8069 01ba a9e8 a33a 29e7 8f3a
000000d0: 846a 05b6 6f3e e939 3f8e 25ba 77d4 d4b9
000000e0: ca6a 06ba e10b 24ba 4562 003a 810a f3b9
000000f0: b41b f239 b111 fdb9 0000 0000 6659 463a
0.0 0.0 -6.868043e-05 0.0005302753 0.00014059902 0.0 -0.0002779927 -0.00057136244
0.0013442789 0.00023764795 0.0008993766 8.0047495e-05 -0.0008903651 -0.0009321168 0.0 0.00035571077
0.00016413447 -0.00013010894 0.0 0.001239208 -0.0002871938 -3.171234e-05 0.0011552805 0.00018808234
0.0 -7.665682e-09 0.0 0.0013228916 0.00016401855 0.00014540249 0.0 0.0
-0.00019800026 0.0009829137 0.00041364436 0.0 -1.5939946e-05 -0.00023959276 0.00034029243 -1.9256301e-08
0.00016802263 -0.0009474215 -4.5799677e-08 -0.0002361402 0.0 9.629416e-07 0.00023384955 0.0
6e-45 -0.000493668 0.0012505251 0.0010978925 -1.9880545e-06 0.0004448774 -0.0006315447 -0.0004059409
-0.0005127607 -0.00062578736 0.0004897456 -0.00046356398 0.00046178477 -0.00048269102 0.0 0.0007566422

exp_avg_sq f4 [64]
00000000: 0000 0000 0000 0000 e816 1d35 884d 9735
00000010: 8b64 b436 0000 0000 8695 0835 c5b5 ca35
00000020: 2f13 c036 a868 4b35 7ff2 6c36 661c 8534
00000030: 4daf 5d36 13c7 6c36 0000 0000 4965 5634
00000040: 8a80 bb34 efc6 8933 0000 0000 d638 ad36
00000050: 146b 0634 a801 b134 8ac6 8336 4dd9 9934
00000060: 0000 0000 5fa9 9533 0000 0000 1994 cb36
00000070: fc88 f433 0a93 d133 0000 0000 0000 0000
00000080: 2723 7334 8275 7036 f2cf c835 0000 0000
00000090: 5d85 9a34 4f7b 6a35 8e04 b235 eba9 7733
000000a0: e94d 2c34 5ed2 1f36 be8e 8d33 27d3 2e34
000000b0: 0000 0000 cb59 1534 5397 2634 0000 0000
000000c0: 484c fc27 45ef 5f35 e06b f636 281f 8a36
000000d0: 9e35 8035 fa5d 7535 efbf 2636 d73b ee34
000000e0: e079 b435 79eb 4035 33d2 9535 1706 b935
000000f0: 3c47 be35 2a3e 5b35 0000 0000 fc11 e435
0.0 0.0 5.852039e-07 1.1272941e-06 5.3761228e-06 0.0 5.0881533e-07 1.5103075e-06
5.724279e-06 7.577569e-07 3.5307892e-06 2.4793843e-07 3.3033605e-06 3.5282617e-06 0.0 1.996715e-07
3.492499e-07 6.4157454e-08 0.0 5.1624183e-06 1.2518677e-07 3.2970024e-07 3.927217e-06 2.8656578e-07
0.0 6.9691616e-08 0.0 6.0671123e-06 1.1387053e-07 9.759067e-08 0.0 0.0
2.2643927e-07 3.5831185e-06 1.4961681e-06 0.0 2.878177e-07 8.735123e-07 1.3263359e-06 5.766371e-08
1.6047092e-07 2.3815296e-06 6.591789e-08 1.628183e-07 0.0 1.3909373e-07 1.5515006e-07 0.0
7.0026755e-15 8.3422157e-07 7.3439296e-06 4.1163476e-06 9.552348e-07 9.1406366e-07 2.4847648e-06 4.4374494e-07
1.3446515e-06 7.186823e-07 1.1162541e-06 1.3785346e-06 1.4176835e-06 8.167432e-07 0.0 1.6992558e-06

exp_avg f4 [64, 64]
00000000: 0000 0000 0000 0000 0400 0000 0400 0000
00000010: 0400 0000 0000 0000 0400 0000 0400 0000
00000020: 0400 0000 0400 0000 0400 0000 0400 0000
00000030: 0400 0000 0400 0000 0000 0000 0400 0000
00000040: 0400 0000 0400 0000 0000 0000 0400 0000
00000050: 0400 0000 0400 0000 0400 0000 0400 0000
00000060: 0000 0000 0400 0000 0000 0000 0400 0000
00000070: 0400 0000 0400 0000 0000 0000 0000 0000
00000080: 0400 0000 0400 0000 0400 0000 0000 0000
00000090: 0400 0000 0400 0000 0400 0000 0400 0000
000000a0: 0000 0000 0400 0080 0400 0000 0400 0000
000000b0: 0000 0000 0400 0000 0400 0000 0000 0000
000000c0: 0000 0000 0400 0080 0400 0000 0400 0000
000000d0: 0400 0000 0400 0000 0400 0000 0400 0000
000000e0: 0400 0000 0400 0000 0400 0000 0400 0000
000000f0: 0400 0000 0400 0000 0000 0000 0400 0000
00000100: 0000 0000 0000 0000 0400 0000 0400 0000
00000110: 0000 0000 0000 0000 0000 0000 0400 0000
00000120: 0000 0000 0000 0000 0400 0000 0400 0000
00000130: 0400 0000 0400 0000 0000 0000 0000 0000
00000140: 0400 0000 0400 0000 0000 0000 0000 0000
00000150: 0400 0000 0000 0000 0000 0000 0400 0000
00000160: 0000 0000 0400 0000 0000 0000 0400 0000
00000170: 0400 0000 0400 0000 0000 0000 0000 0000
00000180: 0400 0000 0400 0000 0400 0000 0000 0000
00000190: 0400 0000 0400 0000 0400 0000 0400 0000
000001a0: 0000 0000 0000 0000 0400 0000 0400 0000
000001b0: 0000 0000 0400 0000 0400 0000 0000 0000
000001c0: 0000 0000 0000 0000 0000 0000 0000 0000
000001d0: 0400 0000 0400 0000 0400 0000 0000 0000
000001e0: 0400 0000 0400 0000 0400 0000 0400 0000
000001f0: 0400 0000 0400 0000 0000 0000 0400 0000
00000200: 0000 0000 0000 0000 0000 0000 0000 0000
00000210: 0000 0000 0000 0000 0000 0000 0000 0000
00000220: 0000 0000 0000 0000 0000 0000 0000 0000
00000230: 0000 0000 0000 0000 0000 0000 0000 0000
00000240: 0000 0000 0000 0000 0000 0000 0000 0000
00000250: 0000 0000 0000 0000 0000 0000 0000 0000
00000260: 0000 0000 0000 0000 0000 0000 0000 0000
00000270: 0000 0000 0000 0000 0000 0000 0000 0000
00000280: 0000 0000 0000 0000 0000 0000 0000 0000
00000290: 0000 0000 0000 0000 0000 0000 0000 0000
000002a0: 0000 0000 0000 0000 0000 0000 0000 0000
000002b0: 0000 0000 0000 0000 0000 0000 0000 0000
000002c0: 0000 0000 0000 0000 0000 0000 0000 0000
000002d0: 0000 0000 0000 0000 0000 0000 0000 0000
000002e0: 0000 0000 0000 0000 0000 0000 0000 0000
000002f0: 0000 0000 0000 0000 0000 0000 0000 0000
00000300: 0000 0000 0000 0000 2a78 08b6 186e 8cb9
00000310: ea8d f936 0000 0000 32a4 deb8 3268 8ab9
00000320: cba9 b0b8 e752 04b7 fcc3 2bb9 006c dbb9
00000330: 9df1 47b9 7067 a3b8 0000 0000 b0a9 edb5
00000340: 89c2 8bb8 9d78 c8b9 0000 0000 07a9 dfb8
00000350: 6aea 5ab9 1c31 8ab9 4200 d5b7 b622 90b9
00000360: 0000 0000 22fa ceae 0000 0000 a0f4 51b7
00000370: 16da 14b9 8acc 00b9 0000 0000 0000 0000
00000380: 435f feb9 e06f 39b7 b25b 17b9 0000 0000
00000390: 250e cc35 bbfa 90b9 29d7 1fb8 534f af2f
000003a0: a309 97b7 7770 2eb9 38de 452f 1c4e 35b9
000003b0: 0000 0000 6795 182f 8232 dbb8 0000 0000
000003c0: 0400 0080 432b 1eb9 b0ae 70b8 69a9 7eb8
000003d0: 00e4 a132 7ae6 85b7 1563 7cb9 bee3 d0b7
000003e0: f564 7cb8 15c8 12ba b84e 0fb8 96d7 95b9
000003f0: ac6c 28b9 1b6a 8db9 0000 0000 0c58 00b7
0.0 0.0 6e-45 6e-45 6e-45 0.0 6e-45 6e-45
6e-45 6e-45 6e-45 6e-45 6e-45 6e-45 0.0 6e-45
6e-45 6e-45 0.0 6e-45 6e-45 6e-45 6e-45 6e-45
0.0 6e-45 0.0 6e-45 6e-45 6e-45 0.0 0.0
6e-45 6e-45 6e-45 0.0 6e-45 6e-45 6e-45 6e-45
0.0 -6e-45 6e-45 6e-45 0.0 6e-45 6e-45 0.0
0.0 -6e-45 6e-45 6e-45 6e-45 6e-45 6e-45 6e-45
6e-45 6e-45 6e-45 6e-45 6e-45 6e-45 0.0 6e-45
0.0 0.0 6e-45 6e-45 0.0 0.0 0.0 6e-45
0.0 0.0 6e-45 6e-45 6e-45 6e-45 0.0 0.0
6e-45 6e-45 0.0 0.0 6e-45 0.0 0.0 6e-45
0.0 6e-45 0.0 6e-45 6e-45 6e-45 0.0 0.0
6e-45 6e-45 6e-45 0.0 6e-45 6e-45 6e-45 6e-45
0.0 0.0 6e-45 6e-45 0.0 6e-45 6e-45 0.0
0.0 0.0 0.0 0.0 6e-45 6e-45 6e-45 0.0
6e-45 6e-45 6e-45 6e-45 6e-45 6e-45 0.0 6e-45
0.0 0.0 0.0 0.0 0.0 0.0 0.0 0.0
0.0 0.0 0.0 0.0 0.0 0.0 0.0 0.0
0.0 0.0 0.0 0.0 0.0 0.0 0.0 0.0
0.0 0.0 0.0 0.0 0.0 0.0 0.0 0.0
0.0 0.0 0.0 0.0 0.0 0.0 0.0 0.0
0.0 0.0 0.0 0.0 0.0 0.0 0.0 0.0
0.0 0.0 0.0 0.0 0.0 0.0 0.0 0.0
0.0 0.0 0.0 0.0 0.0 0.0 0.0 0.0
0.0 0.0 -2.0335524e-06 -0.00026784907 7.4372992e-06 0.0 -0.00010616369 -0.00026399043
-8.4239604e-05 -7.887115e-06 -0.0001638084 -0.000418514 -0.00019068127 -7.7917124e-05 0.0 -1.7707262e-06
-6.6642715e-05 -0.00038236837 0.0 -0.000106649524 -0.00020877426 -0.00026358 -2.5391699e-05 -0.00027491682
0.0 -9.412228e-11 0.0 -1.2514327e-05 -0.00014195623 -0.00012283228 0.0 0.0
-0.0004851763 -1.1052907e-05 -0.00014434641 0.0 1.5203301e-06 -0.0002765263 -3.8108938e-05 3.1888678e-10
-1.800509e-05 -0.0001663583 1.7995994e-10 -0.00017290603 0.0 1.3877398e-10 -0.000104521416 0.0
-6e-45 -0.0001508417 -5.738315e-05 -6.0716095e-05 1.884655e-08 -1.596216e-05 -0.00024069504 -2.4901583e-05
-6.0175505e-05 -0.00055992726 -3.416717e-05 -0.0002858012 -0.00016062212 -0.0002697267 0.0 -7.6498945e-06

exp_avg_sq f4 [64, 64]
00000000: 0000 0000 0000 0000 98a3 8d27 c641 532a
00000010: 5e92 7b27 0000 0000 0e07 a824 356e ec2a
00000020: 61aa 4428 2841 8726 72dc 042a 755e 062b
00000030: fa30 dc29 86a9 0728 0000 0000 d01a c81e
00000040: dd2c ac29 f754 062b 0000 0000 b90f 0f28
00000050: ab74 d229 6678 ef27 58db e025 abeb 002a
00000060: 0000 0000 6fef dc26 0000 0000 841d 7229
00000070: 6e67 482a 1b6d d12a 0000 0000 0000 0000
00000080: 232b 0f2b 986b 1b2a 8072 6028 0000 0000
00000090: acfd d428 290b 282a 49a7 bd29 790f 0628
000000a0: 0000 0000 8930 3326 a06e cf27 2ab0 db2a
000000b0: 0000 0000 8755 ac27 0826 f029 0000 0000
000000c0: 0000 0000 6d65 c726 9efd 5d28 af33 1627
000000d0: f0a9 ba28 6251 452a 1078 7f29 bcb4 1e1c
000000e0: 1f96 8229 8b3b 782b 8fbb c629 497f dd2a
000000f0: d237 882a 72f6 d82a 0000 0000 4d9e 5e29
00000100: 0000 0000 0000 0000 452d cd1e 7b92 9524
00000110: 0000 0000 0000 0000 0000 0000 0cfc f425
00000120: 0000 0000 0000 0000 96b9 8524 e788 e125
00000130: ae5b 0a25 f097 dc22 0000 0000 0000 0000
00000140: 56c8 5d24 3f56 c225 0000 0000 0000 0000
00000150: e6d1 e724 0000 0000 0000 0000 f56d 1123
00000160: 0000 0000 750a 0d23 0000 0000 fd5f 8423
00000170: a834 6e25 0d7b d525 0000 0000 0000 0000
00000180: a6b1 c925 50f9 0925 cfdf 6d22 0000 0000
00000190: 5fbd 3324 b83b 7524 c423 d724 a2f1 0b24
000001a0: 0000 0000 0000 0000 a854 8121 f8f1 e425
000001b0: 0000 0000 06e2 0f23 1fd7 a924 0000 0000
000001c0: 0000 0000 0000 0000 0000 0000 0000 0000
000001d0: 4271 d723 e797 4d25 22e2 4f24 0000 0000
000001e0: 8464 fb24 6971 7226 ae6c ce24 fd1d c925
000001f0: 4c89 5525 5eb8 0226 0000 0000 aa4c d123
00000200: 0000 0000 0000 0000 0000 0000 0000 0000
00000210: 0000 0000 0000 0000 0000 0000 0000 0000
00000220: 0000 0000 0000 0000 0000 0000 0000 0000
00000230: 0000 0000 0000 0000 0000 0000 0000 0000
00000240: 0000 0000 0000 0000 0000 0000 0000 0000
00000250: 0000 0000 0000 0000 0000 0000 0000 0000
00000260: 0000 0000 0000 0000 0000 0000 0000 0000
00000270: 0000 0000 0000 0000 0000 0000 0000 0000
00000280: 0000 0000 0000 0000 0000 0000 0000 0000
00000290: 0000 0000 0000 0000 0000 0000 0000 0000
000002a0: 0000 0000 0000 0000 0000 0000 0000 0000
000002b0: 0000 0000 0000 0000 0000 0000 0000 0000
000002c0: 0000 0000 0000 0000 0000 0000 0000 0000
000002d0: 0000 0000 0000 0000 0000 0000 0000 0000
000002e0: 0000 0000 0000 0000 0000 0000 0000 0000
000002f0: 0000 0000 0000 0000 0000 0000 0000 0000
00000300: 0000 0000 0000 0000 1fc5 852f 57c4 be33
00000310: c2d3 3e2e 0000 0000 a73d 4332 dc31 ea33
00000320: b7d7 2d32 fb21 1231 165f 1a33 ec50 5e34
00000330: bdd5 3f33 dbe3 ed31 0000 0000 a59e e02d
00000340: 6c4c 1d32 8810 4234 0000 0000 f9a0 4f32
00000350: 08a8 5933 0029 8b33 4b46 6f30 70c4 b333
00000360: 0000 0000 b269 f82d 0000 0000 b332 3d31
00000370: 408d f132 bc04 3133 0000 0000 0000 0000
00000380: eadb 9734 77d7 de31 7f46 c832 0000 0000
00000390: 1df0 2830 3b64 cf33 0379 c331 a091 772f
000003a0: 17fa 8530 568f bd32 c6e0 b22d 97df 8133
000003b0: 0000 0000 b97e e52d 497a 8f32 0000 0000
000003c0: 6641 3a21 fd5e 9e32 f84d 8e31 b1a3 4f31
000003d0: 8dee ba30 3d41 1132 89f6 8633 9e42 6330
000003e0: 38a0 0932 e86f d634 e70f ac31 c7fe 0234
000003f0: ec82 3533 63f1 e133 0000 0000 9a70 7631
0.0 0.0 3.931273e-15 1.8763384e-13 3.4912593e-15 0.0 7.287034e-17 4.1998493e-13
1.0917131e-14 9.385167e-16 1.1800437e-13 4.773745e-13 9.778459e-14 7.530765e-15 0.0 2.1186913e-20
7.646117e-14 4.7724276e-13 0.0 7.941504e-15 9.346112e-14 6.646636e-15 3.900644e-16 1.1450448e-13
0.0 1.5330465e-15 0.0 5.3760395e-14 1.7799453e-13 3.7201565e-13 0.0 0.0
5.086367e-13 1.3804095e-13 1.2459326e-14 0.0 2.364674e-14 1.492527e-13 8.4223054e-14 7.441849e-15
0.0 6.216888e-16 5.757398e-15 3.9024453e-13 0.0 4.783232e-15 1.06647384e-13 0.0
0.0 1.383589e-15 1.2322959e-14 2.08447e-15 2.0723847e-14 1.752535e-13 5.6725512e-14 5.251141e-22
5.7992016e-14 8.818993e-13 8.8255026e-14 3.9345808e-13 2.4197186e-13 3.8540314e-13 0.0 4.9431206e-14
0.0 0.0 2.1723942e-20 6.48666e-17 0.0 0.0 0.0 4.2498046e-16
0.0 0.0 5.799395e-17 3.9124047e-16 1.2000654e-16 5.979199e-18 0.0 0.0
4.8091427e-17 3.3712078e-16 0.0 0.0 1.0053586e-16 0.0 0.0 7.88375e-18
0.0 7.64584e-18 0.0 1.4352121e-17 2.066105e-16 3.7032992e-16 0.0 0.0
3.498832e-16 1.1967326e-16 3.2237973e-18 0.0 3.897484e-17 5.317649e-17 9.3301976e-17 3.034549e-17
0.0 0.0 8.763788e-19 3.971566e-16 0.0 7.799908e-18 7.3656496e-17 0.0
0.0 0.0 0.0 0.0 2.3358313e-17 1.7832382e-16 4.5077512e-17 0.0
1.0902418e-16 8.4114316e-16 8.952237e-17 3.4888263e-16 1.8521323e-16 4.5352675e-16 0.0 2.2692294e-17
0.0 0.0 0.0 0.0 0.0 0.0 0.0 0.0
0.0 0.0 0.0 0.0 0.0 0.0 0.0 0.0
0.0 0.0 0.0 0.0 0.0 0.0 0.0 0.0
0.0 0.0 0.0 0.0 0.0 0.0 0.0 0.0
0.0 0.0 0.0 0.0 0.0 0.0 0.0 0.0
0.0 0.0 0.0 0.0 0.0 0.0 0.0 0.0
0.0 0.0 0.0 0.0 0.0 0.0 0.0 0.0
0.0 0.0 0.0 0.0 0.0 0.0 0.0 0.0
0.0 0.0 2.4332622e-10 8.8832785e-08 4.3389077e-11 0.0 1.1364512e-08 1.09055435e-07
1.0118973e-08 2.1265112e-09 3.59424e-08 2.07048e-07 4.4665047e-08 6.923512e-09 0.0 2.5536304e-11
9.155979e-09 1.8073672e-07 0.0 1.2085587e-08 5.0677073e-08 6.48015e-08 8.7047586e-10 8.371069e-08
0.0 2.8241274e-11 0.0 2.753194e-09 2.8120326e-08 4.121533e-08 0.0 0.0
2.828595e-07 6.485546e-09 2.3315122e-08 0.0 6.1459265e-10 9.6574205e-08 5.6890044e-09 2.2516256e-10
9.748103e-10 2.2067677e-08 2.0336077e-11 6.0477014e-08 0.0 2.6090562e-11 1.6703e-08 0.0
6.3105805e-19 1.8436817e-08 4.141608e-09 3.0215512e-09 1.3601081e-09 8.454944e-09 6.284706e-08 8.267679e-10
8.010879e-09 3.994203e-07 5.0076667e-09 1.2199881e-07 4.226142e-08 1.0521287e-07 0.0 3.5861718e-09

exp_avg f4 [64]
00000000: 0400 0000 0400 0000 0000 0000 a36e deb9
00000010: bb53 70ba 0400 0000 0000 0000 fcb8 bbb9
00000020: 2a77 5138 f166 e238 b7a5 5e39 0091 92b9
00000030: 0000 0000 7ec9 3bb9 4de6 9a37 0400 0000
00000040: 0400 0000 23e0 713a 0000 0000 784c a3b8
00000050: 085e a937 0000 0000 0000 0000 0400 0000
00000060: 8e97 4bba ed8b 82b9 0000 0000 0000 0000
00000070: 0000 0000 07c1 003a 08ee adb9 401b ab38
00000080: 0400 0000 32ae 93ba 0400 0000 b923 0bba
00000090: 0000 0000 d695 b639 0400 0000 0000 0000
000000a0: dc21 7539 a468 bdb9 67de 7eb8 0090 e338
000000b0: 0000 0000 0400 0000 a8f9 e8b9 30b0 11b7
000000c0: aed1 41ba 0400 0000 0000 0000 1822 4737
000000d0: 0000 0000 0400 0000 0000 0000 495e f1b7
000000e0: 0400 0000 554f fb38 60c0 bbb8 9f9a 38b8
000000f0: 4f54 ffb8 0400 0000 9e77 1d38 0000 0000
6e-45 6e-45 0.0 -0.0004242557 -0.000916775 6e-45 0.0 -0.00035805244
4.9940463e-05 0.00010795694 0.00021233303 -0.00027955323 0.0 -0.00017908771 1.8465473e-05 6e-45
6e-45 0.00092268194 0.0 -7.786689e-05 2.0190157e-05 0.0 0.0 6e-45
-0.0007766419 -0.00024899785 0.0 0.0 0.0 0.0004911576 -0.00033174478 8.158991e-05
6e-45 -0.0011267124 6e-45 -0.0005307752 0.0 0.00034825382 6e-45 0.0
0.00023377634 -0.00036126853 -6.0765447e-05 0.000108510256 0.0 6e-45 -0.00044436497 -8.683695e-06
-0.00073936104 6e-45 0.0 1.1869262e-05 0.0 6e-45 0.0 -2.8773344e-05
6e-45 0.000119833894 -8.9526875e-05 -4.401302e-05 -0.00012175051 6e-45 3.754312e-05 0.0

exp_avg_sq f4 [64]
00000000: a1cc 9b2b 7bc9 6d26 0000 0000 eca4 9a34
00000010: d55b a735 0d38 e22b 0000 0000 8006 9334
00000020: 27fc 3435 8e67 e834 6580 c233 ff05 1735
00000030: 0000 0000 ebc4 ac33 d87d 8634 5324 5e2d
00000040: 5085 8224 c367 d436 0000 0000 f0b8 5235
00000050: 617c 0a34 0000 0000 0000 0000 f122 2e28
00000060: 8697 a035 a235 5f34 0000 0000 0000 0000
00000070: 0000 0000 a6b8 4736 22f3 6035 4e65 0f34
00000080: 13a0 4826 d9c0 2536 0231 9d2a 66f0 b234
00000090: 0000 0000 eb4f b635 655b a22d 0000 0000
000000a0: bf65 8135 dab8 8a34 5e31 9e34 ddbf e833
000000b0: 0000 0000 5084 3a25 4a04 dd34 8b2c 5834
000000c0: cc43 a335 5531 662c 0000 0000 afc1 c834
000000d0: 0000 0000 feba 7929 0000 0000 8e0c dc34
000000e0: 3ddb 5b2a afce a034 1db8 7433 37a4 9e35
000000f0: 7f62 0336 96b7 352c 13c1 3435 0000 0000
1.1070208e-12 8.249895e-16 0.0 2.8804732e-07 1.2469196e-06 1.6073823e-12 0.0 2.7385613e-07
6.7422155e-07 4.3288713e-07 9.057184e-08 5.626061e-07 0.0 8.045193e-08 2.5051008e-07 1.2627305e-11
5.660435e-17 6.330172e-06 0.0 7.8500216e-07 1.28975e-07 0.0 0.0 9.666517e-15
1.1965028e-06 2.0788005e-07 0.0 0.0 0.0 2.976079e-06 8.380031e-07 1.3354767e-07
6.960588e-16 2.4699168e-06 2.7922808e-13 3.3329997e-07 0.0 1.3583316e-06 1.8457855e-11 0.0
9.640861e-07 2.5839e-07 2.9465713e-07 1.08382416e-07 0.0 1.6177758e-16 4.1167579e-07 2.0132772e-07
1.2164178e-06 3.271235e-12 0.0 3.7393826e-07 0.0 5.5451296e-14 0.0 4.0987328e-07
1.9527171e-13 2.9952704e-07 5.6978127e-08 1.181971e-06 1.9577853e-06 2.5823558e-12 6.7336185e-07 0.0

exp_avg f4 [64, 64]
00000000: 0400 0080 0400 0080 0000 0000 fadf 9b38
00000010: 8bf8 8638 0400 0080 0000 0000 f55e 0539
00000020: 5082 6b38 a482 2a39 7a91 03b6 7634 3d38
00000030: 0000 0000 37f1 fe38 e715 6e39 0400 0080
00000040: 0400 0000 7569 4e37 0000 0000 9e83 ac38
00000050: b89a 0539 0000 0000 0000 0000 0400 0080
00000060: 095a 7838 b049 3139 0000 0000 0000 0000
00000070: 0000 0000 f919 2c38 cbb1 3338 b023 0839
00000080: 0400 0000 0cfe b638 0400 0000 7327 4f38
00000090: 0000 0000 a12c fb37 0400 0080 0000 0000
000000a0: 381d 4a38 b384 7a38 fd62 eb38 7c90 60b6
000000b0: 0000 0000 0400 0080 9da7 4138 09b1 3a39
000000c0: 31c5 8a38 0400 0080 0000 0000 d412 3239
000000d0: 0000 0000 0400 0080 0000 0000 a30d 71b6
000000e0: 0400 0080 a903 94b6 e545 0b39 b17c 56b6
000000f0: beda 8938 0400 0080 3bb4 83b6 0000 0000
00000100: 0400 0000 0000 0000 0000 0000 d803 4636
00000110: e917 8136 0400 0000 0000 0000 7673 15b8
00000120: 4d89 58b7 d0b6 a4b8 2d48 38b6 f3f3 86b4
00000130: 0000 0000 f958 13b8 346c a5b8 0400 0000
00000140: 0400 0080 9afb 12b8 0000 0000 3201 e9b7
00000150: f5cb 36b8 0000 0000 0000 0000 0400 0000
00000160: c4ce 3136 d1af 7db8 0000 0000 0000 0000
00000170: 0000 0000 f0e8 0fb8 cbe2 7bb5 b040 6bb8
00000180: 0000 0000 eb3e a436 0400 0000 98b3 4136
00000190: 0000 0000 5091 70b7 0400 0000 0000 0000
000001a0: 9af9 cdb7 2791 42b7 3ea3 04b8 effb 53b5
000001b0: 0000 0000 0400 0000 3668 2535 cc3b 8db8
000001c0: 0df2 3136 0400 0080 0000 0000 7292 89b8
000001d0: 0000 0000 0000 0000 0000 0000 d362 36b5
000001e0: 0400 0080 c632 c2b5 7124 57b8 68e9 bcb5
000001f0: d8d7 82b5 0400 0080 ebec c7b5 0000 0000
00000200: 0400 0080 0400 0080 0000 0000 3408 e2b7
00000210: 5ad7 ceb7 0400 0080 0000 0000 50f7 84b6
00000220: 0254 8fb6 de06 3e38 03e8 4e37 eca8 6cb7
00000230: 0000 0000 7910 49b6 555e 8b37 0400 0080
00000240: 0400 0000 84d4 4b38 0000 0000 8847 3c36
00000250: 5a9f eb36 0000 0000 0000 0000 0400 0080
00000260: 92e4 b6b7 fb15 3637 0000 0000 0000 0000
00000270: 0000 0000 24b5 2338 0de2 59b7 7f3c b237
00000280: 0400 0080 79f6 0ab8 0400 0000 35e4 9db7
00000290: 0000 0000 b3b7 7937 0400 0080 0000 0000
000002a0: aadb ce37 6d19 f3b6 0cd1 34b6 649c 0836
000002b0: 0000 0000 0400 0080 60cf 81b7 b7f5 6637
000002c0: aa9f c8b7 0400 0080 0000 0000 af8f 8937
000002d0: 0000 0000 0400 0000 0000 0000 5c81 4937
000002e0: 0400 0000 583e 4937 6a95 7937 03ca 4337
000002f0: 5f4d abb7 0400 0080 20f1 4837 0000 0000
00000300: 0000 0000 0000 0000 0000 0000 0400 0000
00000310: 0400 0000 0000 0000 0000 0000 0400 0000
00000320: 0400 0000 0400 0000 0400 0000 0400 0000
00000330: 0000 0000 0400 0000 0400 0000 0000 0000
00000340: 0000 0000 0400 0000 0000 0000 0400 0000
00000350: 0400 0000 0000 0000 0000 0000 0000 0000
00000360: 0400 0000 0400 0000 0000 0000 0000 0000
00000370: 0000 0000 0400 0000 0400 0000 0400 0000
00000380: 0000 0000 0400 0000 0000 0000 0400 0000
00000390: 0000 0000 0000 0000 0400 0000 0000 0000
000003a0: 0400 0000 0400 0000 0400 0000 0400 0000
000003b0: 0000 0000 0000 0000 0400 0000 0400 0000
000003c0: 0400 0000 0000 0000 0000 0000 0400 0000
000003d0: 0000 0000 0000 0000 0000 0000 0400 0000
000003e0: 0000 0000 0400 0000 0400 0000 0400 0000
000003f0: 0000 0000 0000 0000 0400 0000 0000 0000
-6e-45 -6e-45 0.0 7.432695e-05 6.435913e-05 -6e-45 0.0 0.00012719243
5.614973e-05 0.00016261131 -1.96052e-06 4.510997e-05 0.0 0.000121565936 0.00022705608 -6e-45
6e-45 1.230311e-05 0.0 8.226115e-05 0.00012741506 0.0 0.0 -6e-45
5.921166e-05 0.00016907486 0.0 0.0 0.0 4.1032185e-05 4.284251e-05 0.00012983265
6e-45 8.725756e-05 6e-45 4.9389386e-05 0.0 2.9942314e-05 -6e-45 0.0
4.8187765e-05 5.972823e-05 0.00011224111 -3.3462702e-06 0.0 -6e-45 4.6170888e-05 0.00017804293
6.6170825e-05 -6e-45 0.0 0.00016982417 0.0 -6e-45 0.0 -3.5919736e-06
-6e-45 -4.41117e-06 0.00013282111 -3.1961065e-06 6.573413e-05 -6e-45 -3.925086e-06 0.0
6e-45 0.0 0.0 2.9506537e-06 3.847283e-06 6e-45 0.0 -3.56319e-05
-1.2906571e-05 -7.854181e-05 -2.7460148e-06 -2.513694e-07 0.0 -3.5130393e-05 -7.8879675e-05 6e-45
-6e-45 -3.5043435e-05 0.0 -2.7776321e-05 -4.358213e-05 0.0 0.0 6e-45
2.6495409e-06 -6.0483642e-05 0.0 0.0 0.0 -3.4310797e-05 -9.3834814e-07 -5.608861e-05
0.0 4.8949055e-06 6e-45 2.8863778e-06 0.0 -1.4338948e-05 6e-45 0.0
-2.4554134e-05 -1.1597097e-05 -3.1623284e-05 -7.8970237e-07 0.0 6e-45 6.1618937e-07 -6.734542e-05
2.6515947e-06 -6e-45 0.0 -6.5599466e-05 0.0 0.0 0.0 -6.794409e-07
-6e-45 -1.4468903e-06 -5.1293933e-05 -1.4075022e-06 -9.748574e-07 -6e-45 -1.4895608e-06 0.0
-6e-45 -6e-45 0.0 -2.694512e-05 -2.4657395e-05 -6e-45 0.0 -3.9626975e-06
-4.271512e-06 4.5305926e-05 1.2332576e-05 -1.4106026e-05 0.0 -2.9960922e-06 1.6614018e-05 -6e-45
6e-45 4.8596892e-05 0.0 2.805582e-06 7.0220967e-06 0.0 0.0 -6e-45
-2.1802527e-05 1.0853163e-05 0.0 0.0 0.0 3.903093e-05 -1.29868395e-05 2.1247424e-05
-6e-45 -3.313131e-05 6e-45 -1.8822126e-05 0.0 1.4884327e-05 -6e-45 0.0
2.4659403e-05 -7.2449243e-06 -2.6943771e-06 2.035661e-06 0.0 -6e-45 -1.5474565e-05 1.3766278e-05
-2.3916207e-05 -6e-45 0.0 1.639858e-05 0.0 6e-45 0.0 1.2010652e-05
6e-45 1.1995049e-05 1.4876345e-05 1.166994e-05 -2.0420817e-05 -6e-45 1.197707e-05 0.0
0.0 0.0 0.0 6e-45 6e-45 0.0 0.0 6e-45
6e-45 6e-45 6e-45 6e-45 0.0 6e-45 6e-45 0.0
0.0 6e-45 0.0 6e-45 6e-45 0.0 0.0 0.0
6e-45 6e-45 0.0 0.0 0.0 6e-45 6e-45 6e-45
0.0 6e-45 0.0 6e-45 0.0 0.0 6e-45 0.0
6e-45 6e-45 6e-45 6e-45 0.0 0.0 6e-45 6e-45
6e-45 0.0 0.0 6e-45 0.0 0.0 0.0 6e-45
0.0 6e-45 6e-45 6e-45 0.0 0.0 6e-45 0.0

exp_avg_sq f4 [64, 64]
00000000: 7f07 bc2a ea16 a31a 0000 0000 36f5 9332
00000010: e3aa 7032 c641 8529 0000 0000 5c4b 7633
00000020: cc23 9932 b10a 1834 c7a4 cb30 6dce 2032
00000030: 0000 0000 6b65 4c33 76f6 4c34 38ec 082a
00000040: a5c3 8918 15d7 a232 0000 0000 b762 0033
00000050: 81f1 7a33 0000 0000 0000 0000 3c92 bb1f
00000060: 2874 5032 d35f d833 0000 0000 0000 0000
00000070: 0000 0000 8ad5 c332 08bf 9431 4438 9b33
00000080: aae9 461b 98a3 db32 0ec5 ab26 70b7 0c32
00000090: 0000 0000 32bd 0932 2e9b 182c 0000 0000
000000a0: b857 9732 a37b 6c32 983f 2933 2751 e72e
000000b0: 0000 0000 2a33 7c22 6a9c 1032 ad8f 0634
000000c0: 3563 9232 5ed9 7d29 0000 0000 0924 ef33
000000d0: 0000 0000 8537 fa23 0000 0000 b9f2 5231
000000e0: a5cd 2825 62b0 4a31 8943 9133 b0ff 5031
000000f0: 70cd 1f32 142c c928 a086 6a31 0000 0000
00000100: a843 2029 0000 0000 0000 0000 4222 c130
00000110: 55fa 8c30 72a0 e926 0000 0000 2d1d f932
00000120: 37a9 b131 b8de 8c33 b790 6730 0222 2a31
00000130: 0000 0000 1a66 2a32 5bed 8233 99b3 b527
00000140: 35d7 0618 704d 4a32 0000 0000 7166 1332
00000150: c42e 9b32 0000 0000 0000 0000 0b06 be1f
00000160: c7a9 5331 4336 e432 0000 0000 0000 0000
00000170: 0000 0000 6cfc 5332 cdbb 512f beb1 c432
00000180: 0000 0000 361d 3d31 9c5d e023 aee7 a32f
00000190: 0000 0000 b171 0732 8b32 922b 0000 0000
000001a0: 5fb1 3f32 abde 6f32 dd12 3632 97da 1f2f
000001b0: 0000 0000 4846 8022 84b3 5331 77c8 3033
000001c0: 55cc 9130 9e0f 991b 0000 0000 6307 2133
000001d0: 0000 0000 0000 0000 0000 0000 bce5 da30
000001e0: 4f9e 2a16 5e52 c030 0e75 b132 9b27 cd30
000001f0: fd0c 1030 0ed7 6620 c194 e430 0000 0000
00000200: ce34 4829 4650 a41c 0000 0000 2c4a a831
00000210: bf91 8831 400a 8728 0000 0000 a1ef 3e33
00000220: 22fb 3932 71e5 e533 b0ae cf2f d21b aa31
00000230: 0000 0000 8f9d b732 c411 f233 6748 332a
00000240: 18a8 4e16 64dd 7532 0000 0000 709e 9732
00000250: 2c2d 0f33 0000 0000 0000 0000 8ce3 0e1f
00000260: 3495 c731 dc38 6233 0000 0000 0000 0000
00000270: 0000 0000 fd61 8532 b505 9030 dcc7 3f33
00000280: d98d e81b 372b 0d32 e695 1b25 16a0 0331
00000290: 0000 0000 533b 1832 9928 0b2c 0000 0000
000002a0: 6c96 6b32 79f3 9832 c708 a732 d23c 972f
000002b0: 0000 0000 b3d3 c121 0575 b231 f40a a633
000002c0: 2f81 a231 4350 b227 0000 0000 6833 9433
000002d0: 0000 0000 8651 3e23 0000 0000 2112 2c30
000002e0: e36e 8c25 2345 2c30 b632 2933 7465 2b30
000002f0: 23b0 2631 5540 4425 936d 4330 0000 0000
00000300: 0000 0000 0000 0000 0000 0000 929f bd22
00000310: 9327 0722 0000 0000 0000 0000 7013 1e23
00000320: 2b01 1e22 ec7b e122 861a a321 d279 2421
00000330: 0000 0000 6b5f d922 a007 9323 0000 0000
00000340: 0000 0000 bd26 2c21 0000 0000 105e 3d22
00000350: b4fe ed22 0000 0000 0000 0000 0000 0000
00000360: fa0d 8221 365d 3a23 0000 0000 0000 0000
00000370: 0000 0000 b331 8021 300a c321 897d fc22
00000380: 0000 0000 c8df 6722 0000 0000 8846 9221
00000390: 0000 0000 0000 0000 ea06 db1f 0000 0000
000003a0: dfd9 561f 7889 4522 dfca 9522 892d 791e
000003b0: 0000 0000 0000 0000 2301 fb21 3913 4523
000003c0: 381e aa22 0000 0000 0000 0000 fd13 3523
000003d0: 0000 0000 0000 0000 0000 0000 854f 331e
000003e0: 0000 0000 5dc2 181e 8ff3 e522 c4f4 6a20
000003f0: 0000 0000 0000 0000 76e6 0120 0000 0000
3.340071e-13 6.745224e-23 0.0 1.7224561e-08 1.4008694e-08 5.9177964e-14 0.0 5.7344877e-08
1.7827823e-08 1.4159993e-07 1.4817026e-09 9.3601615e-09 0.0 4.758969e-08 1.9088642e-07 1.2161181e-13
3.561122e-24 1.895709e-08 0.0 2.9892103e-08 5.8427307e-08 0.0 0.0 7.9439505e-20
1.2133604e-08 1.0075714e-07 0.0 0.0 0.0 2.2798094e-08 4.3290846e-09 7.2279846e-08
1.6453677e-22 2.556935e-08 1.191892e-15 8.190781e-09 0.0 8.017468e-09 2.1686641e-12 0.0
1.7618603e-08 1.376512e-08 3.9406217e-08 1.05190794e-10 0.0 3.4179454e-18 8.417468e-09 1.2531991e-07
1.7041751e-08 5.636582e-14 0.0 1.11358595e-07 0.0 2.7128568e-17 0.0 3.0696994e-09
1.4641352e-16 2.949513e-09 6.764373e-08 3.0413325e-09 9.301729e-09 2.2334599e-14 3.4128007e-09 0.0
3.558582e-14 0.0 0.0 1.4052335e-09 1.0257489e-09 1.6211112e-15 0.0 2.9000683e-08
5.1706155e-09 6.55977e-08 8.424296e-10 2.4757587e-09 0.0 9.918518e-09 6.0967714e-08 5.043231e-15
1.7427746e-24 1.1775555e-08 0.0 8.579819e-09 1.8065641e-08 0.0 0.0 8.047813e-20
3.0801048e-09 2.6567369e-08 0.0 0.0 0.0 1.23392105e-08 1.907516e-10 2.289823e-08
0.0 2.7519724e-09 2.4325774e-17 2.9814146e-10 0.0 7.883885e-09 1.0387952e-12 0.0
1.1157993e-08 1.396226e-08 1.0598083e-08 1.4538624e-10 0.0 3.4768883e-18 3.0806584e-09 4.1160515e-08
1.0608213e-09 2.532182e-22 0.0 3.7492452e-08 0.0 0.0 0.0 1.5926882e-09
1.3782444e-25 1.3993249e-09 2.0658742e-08 1.492697e-09 5.240535e-10 1.9552913e-19 1.6631462e-09 0.0
4.4454722e-14 1.087336e-21 0.0 4.897876e-09 3.9746904e-09 1.4992456e-14 0.0 4.4455764e-08
1.0825518e-08 1.07053786e-07 3.7777204e-10 4.950814e-09 0.0 2.1375653e-08 1.1272235e-07 1.5923513e-13
1.6693589e-25 1.4311215e-08 0.0 1.7650763e-08 3.3335866e-08 0.0 0.0 3.0257892e-20
5.8086247e-09 5.267144e-08 0.0 0.0 0.0 1.5527798e-08 1.0479001e-09 4.4652424e-08
3.8472847e-22 8.217106e-09 1.3494895e-16 1.9154007e-09 0.0 8.861053e-09 1.9775624e-12 0.0
1.3713002e-08 1.7805847e-08 1.944535e-08 2.7509955e-10 0.0 1.3134225e-18 5.1937854e-09 7.73197e-08
4.729507e-09 4.9491945e-15 0.0 6.901138e-08 0.0 1.0317184e-17 0.0 6.2599e-10
2.4361268e-16 6.2671485e-10 3.93945e-08 6.235361e-10 2.4256301e-09 1.7022087e-16 7.10963e-10 0.0
0.0 0.0 0.0 5.1397504e-18 1.8316862e-18 0.0 0.0 8.569313e-18
2.1413611e-18 6.111758e-18 1.105233e-18 5.572659e-19 0.0 5.8918996e-18 1.5941001e-17 0.0
0.0 5.8327136e-19 0.0 2.5664073e-18 6.4508656e-18 0.0 0.0 0.0
8.812842e-19 1.0102818e-17 0.0 0.0 0.0 8.686773e-19 1.3216411e-18 6.8437652e-18
0.0 3.1424807e-18 0.0 9.912014e-19 0.0 0.0 9.2761546e-20 0.0
4.549648e-20 2.6771254e-18 4.060133e-18 1.3191367e-20 0.0 0.0 1.7008722e-18 1.0683462e-17
4.6110588e-18 0.0 0.0 9.816262e-18 0.0 0.0 0.0 9.492625e-21
0.0 8.087006e-21 6.232845e-18 1.9901557e-19 0.0 0.0 1.1002978e-19 0.0

exp_avg f4 [64]
00000000: c6ca 7039 f11c c3b8 7221 1b38 0400 0000
00000010: db81 92b8 c3c9 60b9 475f 5938 2199 aeb9
00000020: 9f1e c1b9 a5a1 4eb8 4150 28b9 5b06 84b8
00000030: 789c 38b9 0400 0080 0400 0000 62ec 3d39
00000040: 6e3b b5b9 9b4b 1438 c598 9ab7 d99b 3fb9
00000050: 0000 0000 68ca 4939 0400 0000 0400 0000
00000060: 208e a8b9 ad5f beb9 67bb 5539 5c24 f038
00000070: 0400 0000 36d8 c7b9 060e 35b7 6ac6 f5b8
00000080: 285d 87b8 72d0 3a3a 0400 0000 d273 5cb7
00000090: b80a 08b9 4cd6 1f38 0000 0000 e207 ba38
000000a0: 0400 0000 5ab7 28b9 b0b6 c1b8 0400 0000
000000b0: 1a03 dab8 0000 0000 6f91 d8b8 0000 0000
000000c0: f995 05b8 0000 0000 2e55 c233 1e1f eab8
000000d0: 628b 2539 96cd bcb9 14ac 6239 0a19 c538
000000e0: 0400 0000 9a86 0d39 9ebf 6739 5f31 c0b9
000000f0: ad08 0238 bde5 90b9 1a94 50b7 0000 0000
0.00022963723 -9.303715e-05 3.6986028e-05 6e-45 -6.98601e-05 -0.00021437467 5.1825566e-05 -0.00033301956
-0.00036834643 -4.926477e-05 -0.00016051625 -6.295434e-05 -0.00017605897 -6e-45 6e-45 0.00018112504
-0.0003456729 3.5356363e-05 -1.842937e-05 -0.00018273237 0.0 0.00019244256 6e-45 6e-45
-0.00032149348 -0.00036310908 0.00020383076 0.00011450864 6e-45 -0.00038117327 -1.0791706e-05 -0.00011719468
-6.454653e-05 0.00071263977 6e-45 -1.3139988e-05 -0.00012973964 3.8108134e-05 0.0 8.8706394e-05
6e-45 -0.00016090032 -9.236985e-05 6e-45 -0.00010395628 0.0 -0.00010326772 0.0
-3.1849344e-05 0.0 9.049323e-08 -0.000111637855 0.0001578755 -0.00036011328 0.00021617144 9.398356e-05
6e-45 0.00013496951 0.0002210126 -0.00036657878 3.1002495e-05 -0.0002763699 -1.2432249e-05 0.0

exp_avg_sq f4 [64]
00000000: 2847 9434 ccf4 5a34 1fc4 9d34 3ad1 de23
00000010: 307a 8e34 4e11 5234 c29e d134 3126 ee34
00000020: 1f08 3235 74d8 9a33 d497 8634 4bef da33
00000030: 3480 2835 7da3 fe28 c2f6 022f 473e 0f35
00000040: 96dc 5635 ecbf b932 8c83 b533 41a0 4034
00000050: 0000 0000 99f8 9a34 e336 d525 7449 c62b
00000060: 20d5 b234 12fc fc34 5f98 1235 090c 3c34
00000070: b0b6 022c 317d b834 c78c e430 c889 0f34
00000080: 39c3 8b34 945a 9435 cee9 c02b a764 1634
00000090: 073f e633 2771 2434 0000 0000 4d2d 5034
000000a0: 54fe 082b f5c7 9c34 e79d de34 bc00 5a2c
000000b0: dc20 cc34 0000 0000 dffa a633 0000 0000
000000c0: c9f1 8b34 0000 0000 5fe5 5433 9b90 1335
000000d0: 6fe0 ce33 f159 3a34 2510 8935 6dd4 a135
000000e0: 89b1 a52b bbbd 0c34 0d37 1636 ad14 6a35
000000f0: 3480 7932 958e bb35 7f2c 4235 0000 0000
2.761892e-07 2.0391889e-07 2.9386226e-07 2.4157899e-17 2.6538464e-07 1.956407e-07 3.9044795e-07 4.4358742e-07
6.6321985e-07 7.2105564e-08 2.5069914e-07 1.0194943e-07 6.2771437e-07 2.8270567e-14 1.1911097e-10 5.3362277e-07
8.004221e-07 2.162411e-08 8.4523975e-08 1.7939693e-07 0.0 2.8865614e-07 3.6986803e-16 1.4089134e-12
3.3310153e-07 4.7122063e-07 5.461097e-07 1.7513243e-07 1.8575523e-12 3.436376e-07 1.6629195e-09 1.3368037e-07
2.603281e-07 1.1053221e-06 1.3707314e-12 1.4006456e-07 1.0721674e-07 1.5314855e-07 0.0 1.938799e-07
4.8669857e-13 2.9202752e-07 4.146561e-07 3.098007e-12 3.802187e-07 0.0 7.7756106e-08 0.0
2.606669e-07 0.0 4.956871e-08 5.4972196e-07 9.633447e-08 1.735532e-07 1.0211994e-06 1.2057259e-06
1.1773231e-12 1.310754e-07 2.2383786e-06 8.720188e-07 1.4522858e-08 1.3974083e-06 7.233538e-07 0.0

exp_avg f4 [3, 64]
00000000: 6292 28ba 5b15 3bb9 3c39 29ba 0400 0080
00000010: 8eb7 19ba 7d9b 1eba 02f8 8238 43b4 9fb9
00000020: 1715 52ba e166 1b38 7bbc 1338 1b42 75b9
00000030: 60b2 c7b9 0400 0080 0400 0080 e10b e3b9
00000040: df98 85b9 df8d ff35 3ab6 c5b9 458e f0b9
00000050: 0000 0000 3313 07ba 0400 0000 0400 0000
00000060: 2119 33ba bc7a 47ba b028 94ba b3a1 63ba
00000070: 0400 0000 933d d1b9 02c5 9537 8530 9fb9
00000080: 1581 9538 9661 6d38 0400 0000 80a2 65ba
00000090: 5987 f4b9 218b 3dba 0000 0000 76fc 8dba
000000a0: 0400 0080 6985 9238 4532 b238 0400 0000
000000b0: 1420 2bba 0000 0000 3298 4138 0000 0000
000000c0: 87a7 eeb9 0000 0000 5cb5 b82f dac4 cc38
000000d0: b760 0cb9 71d8 8ab9 4052 4738 dacf 8038
000000e0: 0400 0000 5eb8 48ba 7b51 2139 8b85 71ba
000000f0: 7364 0736 8b77 59ba 44a9 2cba 0000 0000
00000100: ac57 3db9 4bf8 5f38 1b19 48b8 0400 0000
00000110: 6155 18b9 9b22 7fb9 295c 2839 5251 81b9
00000120: 4b74 20b5 4d4f 2e39 8d09 1339 b2f3 3cb8
00000130: 1c1f 0539 0400 0000 0400 0000 f0ab 6fb9
00000140: a8ad c838 6ab7 99b6 cca5 40b9 2fb7 20b9
00000150: 0000 0000 a386 b4b9 0400 0080 0400 0000
00000160: bc88 a0b8 9c0b c036 47c3 42b9 142e 7ab8
00000170: 0400 0080 c6ee d9b8 04e0 06b8 b080 f6b8
00000180: 09aa 7c39 7e3b f6b8 0400 0000 8856 cfb8
00000190: a7ef bdb8 8330 81b9 0000 0000 3761 1ab9
000001a0: 0400 0080 a908 5339 150e 8039 0400 0080
000001b0: 754e 87b9 0000 0000 c21e 1939 0000 0000
000001c0: 0537 0a39 0000 0000 c36e 61b1 04e5 9a39
000001d0: 5941 3ab9 ad64 44b9 3d65 d2b8 4416 3a39
000001e0: 0400 0080 c882 29b9 e2e6 25b8 f262 4138
000001f0: b267 96b6 ef32 8c39 abf4 59b9 0000 0000
00000200: 21eb a939 301e 9838 19de 2639 0400 0080
00000210: 0bfd b539 1456 af38 83ff 6239 b881 b6b7
00000220: 6831 d738 a369 e238 e26b a438 3b40 6b38
00000230: cfef 8838 0400 0000 0400 0000 c1cf 3439
00000240: bfb0 1638 0b8f dcb5 0e75 dd38 beb8 e837
00000250: 0000 0000 f523 b638 0400 0000 0400 0000
00000260: 5a73 9038 23e1 d838 2ee1 f939 f596 8239
00000270: 0400 0080 2ba4 4337 9a8c 0db8 1df7 e538
00000280: 3a32 2439 86da e9b8 0400 0000 0975 9e39
00000290: 1467 1239 b5ee 4239 0000 0000 b462 0c3a
000002a0: 0400 0080 7425 0339 ca17 2439 0400 0080
000002b0: e38c 8338 0000 0000 95c3 a438 0000 0000
000002c0: 65b4 db38 0000 0000 20d5 a8b0 dc21 4d39
000002d0: 9e39 0038 ff32 1fb8 44da 1b39 767e 8239
000002e0: 0400 0080 ec9a c239 7759 0539 8608 0f39
000002f0: c179 e6b5 6fc0 1e39 5df0 d339 0000 0000
-0.0006430504 -0.00017841665 -0.0006455367 -6e-45 -0.00058638386 -0.0006050391 6.245078e-05 -0.0003046115
-0.0008014007 3.7050693e-05 3.5223067e-05 -0.00023389647 -0.00038089138 -6e-45 -6e-45 -0.00043305664
-0.00025481635 1.904027e-06 -0.00037710537 -0.00045882366 0.0 -0.0005152702 6e-45 6e-45
-0.00068320526 -0.00076095364 -0.001130363 -0.0008683458 6e-45 -0.00039909463 1.7853923e-05 -0.00030362993
7.128917e-05 5.6596087e-05 6e-45 -0.0008759871 -0.00046640149 -0.00072305097 0.0 -0.0010832686
-6e-45 6.986672e-05 8.497065e-05 6e-45 -0.00065279123 0.0 4.615653e-05 0.0
-0.00045519715 0.0 3.3598269e-10 9.7641445e-05 -0.0001338747 -0.00026482673 4.75219e-05 6.142231e-05
6e-45 -0.00076568674 0.0001538451 -0.000921332 2.0175037e-06 -0.00082957064 -0.0006586502 0.0
-0.00018057105 5.3398584e-05 -4.7707097e-05 6e-45 -0.00014527656 -0.00024331587 0.00016056061 -0.00024665386
-5.9773873e-07 0.00016623475 0.0001402257 -4.504965e-05 0.00012695458 6e-45 6e-45 -0.00022856868
9.569089e-05 -4.5811075e-06 -0.00018372311 -0.0001532703 0.0 -0.00034432588 -6e-45 6e-45
-7.654863e-05 5.7233974e-06 -0.00018574028 -5.964756e-05 -6e-45 -0.00010391841 -3.215672e-05 -0.00011754164
0.00024095936 -0.000117412754 6e-45 -9.886647e-05 -9.056861e-05 -0.0002464094 0.0 -0.000147228
-6e-45 0.00020125754 0.00024424554 -6e-45 -0.00025807662 0.0 0.00014602675 0.0
0.00013181202 0.0 -3.280477e-09 0.000295438 -0.00017762686 -0.00018729521 -0.000100324374 0.00017746637
-6e-45 -0.00016165816 -3.9554092e-05 4.6106936e-05 -4.48242e-06 0.0002674083 -0.00020785879 0.0
0.00032409377 7.253548e-05 0.00015913731 -6e-45 0.00034711542 8.3606836e-05 0.00021648225 -2.1756496e-05
0.000102612015 0.00010796196 7.840224e-05 5.6088185e-05 6.529653e-05 6e-45 6e-45 0.00017243532
3.5927394e-05 -1.6432908e-06 0.00010559904 2.7742582e-05 0.0 8.685134e-05 6e-45 6e-45
6.887941e-05 0.000103416176 0.00047660753 0.00024908004 -6e-45 1.1661129e-05 -3.3747965e-05 0.00010965599
0.0001565897 -0.00011151009 6e-45 0.00030223306 0.00013962045 0.00018590207 0.0 0.0005355284
-6e-45 0.00012507086 0.00015649121 -6e-45 6.272809e-05 0.0 7.8565594e-05 0.0
0.00010476335 0.0 -1.2284183e-09 0.00019562937 3.057124e-05 -3.7956048e-05 0.00014863262 0.00024889753
-6e-45 0.0003711799 0.00012717197 0.00013640718 -1.717177e-06 0.00015139741 0.0004042414 0.0
