001-machine_learning/data/00001-MLP-temperature/002_checkpoint.pth (torch_old, 111067 bytes, 24 tensors)

exp_avg f4 [64, 4]
0	0x00000000	0.0
1	0x00000000	0.0
2	0x00000000	0.0
3	0x00000000	0.0
4	0x00000000	0.0
5	0xb7958f68	-1.7828963e-05
6	0xb8484612	-4.7748974e-05
7	0xb77e12ab	-1.5143926e-05
8	0x00000000	0.0
9	0xb8977d8c	-7.223626e-05
10	0xb86056ae	-5.348649e-05
11	0xb80160ae	-3.0846037e-05
12	0x00000000	0.0
13	0xb74a6533	-1.20637005e-05
14	0xb764193e	-1.3595736e-05
15	0x37d2e31f	2.5139712e-05
16	0x00000000	0.0
17	0x00000000	0.0
18	0x00000000	0.0
19	0x00000000	0.0
20	0x00000000	0.0
21	0x00000000	0.0
22	0x00000000	0.0
23	0x00000000	0.0
24	0x00000000	0.0
25	0xb380dfbd	-6.001162e-08
26	0xb2a5e078	-1.9310605e-08
27	0xb0f65ac8	-1.7924657e-09
28	0x00000000	0.0
29	0xb6efe38e	-7.149246e-06
30	0xb78ab10f	-1.6533331e-05
31	0xb7e29f16	-2.701538e-05
32	0x00000000	0.0
33	0xb8164b80	-3.58331e-05
34	0xb7c18b38	-2.3072222e-05
35	0xb793e7c8	-1.7631697e-05
36	0x00000000	0.0
37	0xb7ec3a22	-2.8160463e-05
38	0x36aef641	5.214272e-06
39	0xb86e79f2	-5.6857192e-05
40	0x00000000	0.0
41	0x37bba3bc	2.2368382e-05
42	0x37b60bf7	2.1701662e-05
43	0xb8423074	-4.629833e-05
44	0x00000000	0.0
45	0xb83e5ec6	-4.5387795e-05
46	0xb7f50df5	-2.9212775e-05
47	0x37bc1b9f	2.2424209e-05
48	0x00000000	0.0
49	0xb7eda871	-2.8331038e-05
50	0xb866a87e	-5.4993194e-05
51	0x381fe80d	3.812467e-05
52	0x00000000	0.0
53	0x37384660	1.098364e-05
54	0x3820de87	3.8354217e-05
55	0xb8d71ba8	-0.0001025715
56	0x00000000	0.0
57	0xb803e498	-3.144573e-05
58	0xb721e2b3	-9.64913e-06
59	0x37814927	1.5412063e-05
60	0x00000000	0.0
61	0x36e5d0eb	6.849053e-06
62	0xb7d6d73e	-2.5611018e-05
63	0x38527ce2	5.0184208e-05
64	0x00000000	0.0
65	0xb70051f1	-7.648473e-06
66	0xb66e454d	-3.5505102e-06
67	0xb5588099	-8.0653405e-07
68	0x00000000	0.0
69	0xb7ae3fd1	-2.0772133e-05
70	0xb7588633	-1.2905849e-05
71	0xb81fc367	-3.8090537e-05
72	0x00000000	0.0
73	0xb738fa83	-1.1025581e-05
74	0xb776a6fe	-1.47016235e-05
75	0xb836cc5d	-4.358251e-05
76	0x00000000	0.0
77	0xb7e3df8e	-2.716461e-05
78	0xb6de3a29	-6.6228863e-06
79	0xb82f4719	-4.1789466e-05
80	0x00000000	0.0
81	0xb6a9ce7c	-5.0606304e-06
82	0xb6148a23	-2.2134125e-06
83	0xb591b20c	-1.085516e-06
84	0x00000000	0.0
85	0x00000000	0.0
86	0x00000000	0.0
87	0x00000000	0.0
88	0x00000000	0.0
89	0x37af1c85	2.0874906e-05
90	0x37932c0e	1.754428e-05
91	0xb847b3b8	-4.7612673e-05
92	0x00000000	0.0
93	0x00000000	0.0
94	0x00000000	0.0
95	0x00000000	0.0
96	0x00000000	0.0
97	0xb6f20027	-7.2121798e-06
98	0x376403ab	1.3590713e-05
99	0xb7f46991	-2.9136225e-05
100	0x00000000	0.0
101	0x00000000	0.0
102	0x00000000	0.0
103	0x00000000	0.0
104	0x00000000	0.0
105	0x00000000	0.0
106	0x00000000	0.0
107	0x00000000	0.0
108	0x00000000	0.0
109	0xb8292db7	-4.0335315e-05
110	0xb892b85e	-6.9961636e-05
111	0x383b81b1	4.470506e-05
112	0x00000000	0.0
113	0x37945b70	1.7685554e-05
114	0xb80f7b9b	-3.4208973e-05
115	0x38814a6a	6.16506e-05
116	0x00000000	0.0
117	0x00000000	0.0
118	0x00000000	0.0
119	0x00000000	0.0
120	0x00000000	0.0
121	0x00000000	0.0
122	0x00000000	0.0
123	0x00000000	0.0
124	0x00000000	0.0
125	0x00000000	0.0
126	0x00000000	0.0
127	0x00000000	0.0
128	0x00000000	0.0
129	0xb703de64	-7.859988e-06
130	0xb8360b0a	-4.3402462e-05
131	0x38096477	3.275691e-05
132	0x00000000	0.0
133	0x00000000	0.0
134	0x00000000	0.0
135	0x00000000	0.0
136	0x00000000	0.0
137	0xb47a8039	-2.3329711e-07
138	0xb7e5e1a8	-2.7404007e-05
139	0x37753b84	1.4616995e-05
140	0x00000000	0.0
141	0xb8de8598	-0.00010610669
142	0x359a4b0a	1.1495733e-06
143	0xb78e3b95	-1.6955464e-05
144	0x00000000	0.0
145	0xb80a6f56	-3.3005454e-05
146	0xb603740d	-1.9588072e-06
147	0x35bb74ea	1.3966612e-06
148	0x00000000	0.0
149	0x00000000	0.0
150	0x00000000	0.0
151	0x00000000	0.0
152	0x00000000	0.0
153	0x36268221	2.4811673e-06
154	0xb5f6ad39	-1.8378843e-06
155	0x361c560b	2.3295895e-06
156	0x00000000	0.0
157	0xb8927545	-6.983666e-05
158	0x379d7e45	1.8774657e-05
159	0x36b5f89a	5.4231614e-06
160	0x00000000	0.0
161	0xb792b720	-1.748983e-05
162	0xb81d7e93	-3.75496e-05
163	0x3891c8c4	6.951534e-05
164	0x00000000	0.0
165	0x00000004	6e-45
166	0x00000004	6e-45
167	0x00000004	6e-45
168	0x00000000	0.0
169	0x3772d42c	1.4473724e-05
170	0x36c04655	5.7302336e-06
171	0xb81539b0	-3.5578094e-05
172	0x00000000	0.0
173	0xb7ad072d	-2.0626549e-05
174	0xb8242b33	-3.914088e-05
175	0x38a8ea1f	8.054473e-05
176	0x00000000	0.0
177	0xb84b8a75	-4.852792e-05
178	0x37ee798e	2.8428414e-05
179	0xb8d0134a	-9.921806e-05
180	0x00000000	0.0
181	0xb7a81a1b	-2.0039317e-05
182	0xb80b34f7	-3.318951e-05
183	0xb721bb5f	-9.6399735e-06
184	0x00000000	0.0
185	0xb6f21045	-7.214056e-06
186	0x378eb7ca	1.7013303e-05
187	0x3758639e	1.2897797e-05
188	0x00000000	0.0
189	0x00000000	0.0
190	0x00000000	0.0
191	0x00000000	0.0
192	0x00000000	0.0
193	0xb75f0c18	-1.3294652e-05
194	0xb7eb5970	-2.805583e-05
195	0xb773bffd	-1.4528629e-05
196	0x00000000	0.0
197	0x3742430a	1.157891e-05
198	0x3750456b	1.2413929e-05
199	0xb8450efc	-4.6982415e-05
200	0x00000000	0.0
201	0x00000000	0.0
202	0x00000000	0.0
203	0x00000000	0.0
204	0x00000000	0.0
205	0x3880ac72	6.135636e-05
206	0x37c908be	2.3965138e-05
207	0x387acf51	5.9797723e-05
208	0x00000000	0.0
209	0xb7be9583	-2.2719387e-05
210	0xb817a36d	-3.6153408e-05
211	0x37d6677e	2.555898e-05
212	0x00000000	0.0
213	0xb903c44e	-0.00012566263
214	0xb8a101df	-7.677427e-05
215	0xb8b96703	-8.840675e-05
216	0x00000000	0.0
217	0xb25459ae	-1.2360415e-08
218	0xb30e5958	-3.314321e-08
219	0xb237311b	-1.0663167e-08
220	0x00000000	0.0
221	0xb7c8c1e5	-2.3932147e-05
222	0xb628df00	-2.5163754e-06
223	0x365be2fa	3.276566e-06
224	0x00000000	0.0
225	0x00000000	0.0
226	0x00000000	0.0
227	0x00000000	0.0
228	0x00000000	0.0
229	0x00000000	0.0
230	0x00000000	0.0
231	0x00000000	0.0
232	0x00000000	0.0
233	0x00000000	0.0
234	0x00000000	0.0
235	0x00000000	0.0
236	0x00000000	0.0
237	0xb92a5828	-0.00016245304
238	0x373d4cbf	1.1283147e-05
239	0xb928f2a2	-0.00016112116
240	0x00000000	0.0
241	0xb85ae4f7	-5.218849e-05
242	0xb7d4c488	-2.5363886e-05
243	0xb781dd7b	-1.5481133e-05
244	0x00000000	0.0
245	0x00000000	0.0
246	0x00000000	0.0
247	0x00000000	0.0
248	0x00000000	0.0
249	0xb9082491	-0.00012983593
250	0xb888958c	-6.5128406e-05
251	0xb8018a34	-3.088471e-05
252	0x00000000	0.0
253	0xb6a52ee7	-4.9228433e-06
254	0xb6f6e4a7	-7.35799e-06
255	0x37bf6e28	2.282027e-05

exp_avg_sq f4 [64, 4]
0	0x00000000	0.0
1	0x00000000	0.0
2	0x00000000	0.0
3	0x00000000	0.0
4	0x00000000	0.0
5	0x3359d614	5.0718953e-08
6	0x343ad6dc	1.7400765e-07
7	0x33547108	4.9462898e-08
8	0x00000000	0.0
9	0x33baf1d8	8.705291e-08
10	0x34c4a485	3.662755e-07
11	0x341b3021	1.4453009e-07
12	0x00000000	0.0
13	0x32da3e51	2.5406878e-08
14	0x33b4e074	8.422731e-08
15	0x333a5162	4.3380517e-08
16	0x00000000	0.0
17	0x00000000	0.0
18	0x00000000	0.0
19	0x00000000	0.0
20	0x00000000	0.0
21	0x00000000	0.0
22	0x00000000	0.0
23	0x00000000	0.0
24	0x00000000	0.0
25	0x30b10624	1.288019e-09
26	0x330dcebc	3.3017145e-08
27	0x301c5386	5.6871163e-10
28	0x00000000	0.0
29	0x3275669e	1.4284209e-08
30	0x332fe92d	4.0957435e-08
31	0x31a10116	4.68584e-09
32	0x00000000	0.0
33	0x327777ef	1.4404562e-08
34	0x3446150a	1.8447841e-07
35	0x339195f6	6.7793664e-08
36	0x00000000	0.0
37	0x33833016	6.10891e-08
38	0x349b984e	2.8981816e-07
39	0x341a3903	1.4363108e-07
40	0x00000000	0.0
41	0x337cdfb0	5.8876765e-08
42	0x347f8a71	2.379909e-07
43	0x33e1ce42	1.0514897e-07
44	0x00000000	0.0
45	0x3308b242	3.1827092e-08
46	0x3185b695	3.8915666e-09
47	0x31ba4a79	5.421779e-09
48	0x00000000	0.0
49	0x34060891	1.2482839e-07
50	0x3504339b	4.924893e-07
51	0x3467cd85	2.1588319e-07
52	0x00000000	0.0
53	0x347449eb	2.2751162e-07
54	0x3581e9e8	9.679325e-07
55	0x35034b72	4.891109e-07
56	0x00000000	0.0
57	0x327d2031	1.4733858e-08
58	0x31e37ca3	6.620739e-09
59	0x319b9f79	4.5292237e-09
60	0x00000000	0.0
61	0x33c070c0	8.961206e-08
62	0x350a48e2	5.1515065e-07
63	0x348fde04	2.6797363e-07
64	0x00000000	0.0
65	0x31889e1e	3.976097e-09
66	0x3404ac60	1.2356168e-07
67	0x3330cd50	4.1164924e-08
68	0x00000000	0.0
69	0x323ecda6	1.1106215e-08
70	0x3350ae0e	4.8587076e-08
71	0x329988dc	1.787378e-08
72	0x00000000	0.0
73	0x32d7060c	2.5032044e-08
74	0x33f8efb8	1.15920045e-07
75	0x33152d04	3.4732707e-08
76	0x00000000	0.0
77	0x32a6b510	1.9407281e-08
78	0x33880fd4	6.3358726e-08
79	0x32d67c8a	2.4969513e-08
80	0x00000000	0.0
81	0x324c5d59	1.1895588e-08
82	0x341b81ab	1.4482673e-07
83	0x33444af9	4.5702993e-08
84	0x00000000	0.0
85	0x00000000	0.0
86	0x00000000	0.0
87	0x00000000	0.0
88	0x00000000	0.0
89	0x3359c185	5.0700255e-08
90	0x3430dcfc	1.6471671e-07
91	0x33a31d5a	7.595618e-08
92	0x00000000	0.0
93	0x00000000	0.0
94	0x00000000	0.0
95	0x00000000	0.0
96	0x00000000	0.0
97	0x32ed7391	2.7642985e-08
98	0x342bb1ee	1.5990346e-07
99	0x33b9f5f5	8.659473e-08
100	0x00000000	0.0
101	0x00000000	0.0
102	0x00000000	0.0
103	0x00000000	0.0
104	0x00000000	0.0
105	0x00000000	0.0
106	0x00000000	0.0
107	0x00000000	0.0
108	0x00000000	0.0
109	0x344ee0a2	1.9266966e-07
110	0x3558b588	8.0730433e-07
111	0x34ce3042	3.8405602e-07
112	0x00000000	0.0
113	0x33ec37ff	1.0999792e-07
114	0x351d21b4	5.85361e-07
115	0x34a5f5d2	3.0912503e-07
116	0x00000000	0.0
117	0x00000000	0.0
118	0x00000000	0.0
119	0x00000000	0.0
120	0x00000000	0.0
121	0x00000000	0.0
122	0x00000000	0.0
123	0x00000000	0.0
124	0x00000000	0.0
125	0x00000000	0.0
126	0x00000000	0.0
127	0x00000000	0.0
128	0x00000000	0.0
129	0x33a0a187	7.479962e-08
130	0x34b25dee	3.3223426e-07
131	0x34256f20	1.540725e-07
132	0x00000000	0.0
133	0x00000000	0.0
134	0x00000000	0.0
135	0x00000000	0.0
136	0x00000000	0.0
137	0x330332e9	3.0547117e-08
138	0x33f86427	1.15666175e-07
139	0x3334f051	4.2128082e-08
140	0x00000000	0.0
141	0x338c0cef	6.5216106e-08
142	0x3307c0c5	3.160746e-08
143	0x3261ce63	1.3143651e-08
144	0x00000000	0.0
145	0x3283e428	1.535416e-08
146	0x3324f4b0	3.8406768e-08
147	0x32a338fb	1.900161e-08
148	0x00000000	0.0
149	0x00000000	0.0
150	0x00000000	0.0
151	0x00000000	0.0
152	0x00000000	0.0
153	0x32d48815	2.4741931e-08
154	0x346bad72	2.194918e-07
155	0x33da75b7	1.0172828e-07
156	0x00000000	0.0
157	0x342230dd	1.5105202e-07
158	0x34e48f24	4.2572458e-07
159	0x3288c96c	1.592408e-08
160	0x00000000	0.0
161	0x340c83c6	1.3086455e-07
162	0x35238d36	6.092772e-07
163	0x34a1773e	3.0075347e-07
164	0x00000000	0.0
165	0x225d12c4	2.996102e-18
166	0x2656bfbc	7.4506013e-16
167	0x20a5f99f	2.8117273e-19
168	0x00000000	0.0
169	0x32d710a9	2.503687e-08
170	0x33a10724	7.4984456e-08
171	0x330a7c2d	3.2243566e-08
172	0x00000000	0.0
173	0x34356e07	1.6896966e-07
174	0x354f7bbd	7.729357e-07
175	0x34cadd43	3.778642e-07
176	0x00000000	0.0
177	0x344c3ceb	1.9021142e-07
178	0x3387b715	6.31973e-08
179	0x346e7dd3	2.2211252e-07
180	0x00000000	0.0
181	0x33739a95	5.6718438e-08
182	0x350b6541	5.192888e-07
183	0x34268876	1.5509599e-07
184	0x00000000	0.0
185	0x32f30405	2.8290751e-08
186	0x329ee64a	1.8498344e-08
187	0x310be502	2.0357338e-09
188	0x00000000	0.0
189	0x00000000	0.0
190	0x00000000	0.0
191	0x00000000	0.0
192	0x00000000	0.0
193	0x34666f9e	2.1461025e-07
194	0x3627b6b2	2.4991282e-06
195	0x358b2707	1.0367665e-06
196	0x00000000	0.0
197	0x3366febc	5.3782728e-08
198	0x344f1996	1.9287685e-07
199	0x33b8f070	8.611903e-08
200	0x00000000	0.0
201	0x00000000	0.0
202	0x00000000	0.0
203	0x00000000	0.0
204	0x00000000	0.0
205	0x33c3c3c7	9.116007e-08
206	0x35933e5e	1.0970505e-06
207	0x350340f9	4.889585e-07
208	0x00000000	0.0
209	0x3369ae22	5.4407913e-08
210	0x32d2d1a1	2.4542546e-08
211	0x338705f5	6.287511e-08
212	0x00000000	0.0
213	0x33f31f43	1.1321256e-07
214	0x351d004a	5.848748e-07
215	0x34814be9	2.4083354e-07
216	0x00000000	0.0
217	0x2ec1590e	8.792443e-11
218	0x32606d79	1.3063407e-08
219	0x2f8406fa	2.4015617e-10
220	0x00000000	0.0
221	0x31f602a7	7.159844e-09
222	0x30aea349	1.2706575e-09
223	0x306342fa	8.26773e-10
224	0x00000000	0.0
225	0x00000000	0.0
226	0x00000000	0.0
227	0x00000000	0.0
228	0x00000000	0.0
229	0x00000000	0.0
230	0x00000000	0.0
231	0x00000000	0.0
232	0x00000000	0.0
233	0x00000000	0.0
234	0x00000000	0.0
235	0x00000000	0.0
236	0x00000000	0.0
237	0x34d51b88	3.9694373e-07
238	0x3620b5f7	2.3947775e-06
239	0x35b45ef3	1.3438679e-06
240	0x00000000	0.0
241	0x3396fa67	7.030467e-08
242	0x3390f994	6.7509205e-08
243	0x31418930	2.8163178e-09
244	0x00000000	0.0
245	0x00000000	0.0
246	0x00000000	0.0
247	0x00000000	0.0
248	0x00000000	0.0
249	0x345e4491	2.0700305e-07
250	0x35859749	9.953302e-07
251	0x34dbac96	4.0917502e-07
252	0x00000000	0.0
253	0x323a02a7	1.0827228e-08
254	0x312ed270	2.5439952e-09
255	0x321f3625	9.267329e-09

exp_avg f4 [64]
0	0x00000000	0.0
1	0xb79288ce	-1.7468261e-05
2	0xb897b5cc	-7.2341034e-05
3	0xb74b1763	-1.2105188e-05
4	0x00000000	0.0
5	0x00000000	0.0
6	0xb3fefbd3	-1.1873603e-07
7	0xb6e6c709	-6.877705e-06
8	0xb8194eb0	-3.6551326e-05
9	0xb7f345fa	-2.9000443e-05
10	0x37bcbeb0	2.2500142e-05
11	0xb841a6a4	-4.6169982e-05
12	0xb7ea9469	-2.7964083e-05
13	0x3739d1c0	1.10756955e-05
14	0xb8064085	-3.2008178e-05
15	0x36ca3ff3	6.027514e-06
16	0xb702b60e	-7.790992e-06
17	0xb7ac1deb	-2.051793e-05
18	0xb7305dda	-1.0512269e-05
19	0xb7e49654	-2.724972e-05
20	0xb6b64d16	-5.4329967e-06
21	0x00000000	0.0
22	0x37ac531d	2.05427e-05
23	0x00000000	0.0
24	0xb6dae877	-6.5239688e-06
25	0x00000000	0.0
26	0x00000000	0.0
27	0xb829260f	-4.0328185e-05
28	0x37936b9e	1.7573879e-05
29	0x00000000	0.0
30	0x00000000	0.0
31	0x00000000	0.0
32	0xb6ffa950	-7.619303e-06
33	0x00000000	0.0
34	0xb431cfb9	-1.6559979e-07
35	0xb8dec9ec	-0.00010623396
36	0xb8097f50	-3.2781914e-05
37	0x00000000	0.0
38	0x358ecf82	1.0640217e-06
39	0xb892ce96	-7.000302e-05
40	0xb79520ec	-1.7777515e-05
41	0x00000004	6e-45
42	0x377325d8	1.449274e-05
43	0xb7add06d	-2.0720263e-05
44	0xb8429b9e	-4.6398134e-05
45	0xb7932f90	-1.7545914e-05
46	0xb6a1a521	-4.8173974e-06
47	0x00000000	0.0
48	0xb7880ff0	-1.6219885e-05
49	0x373ef722	1.1382423e-05
50	0x00000000	0.0
51	0x387698fd	5.8793452e-05
52	0xb7c74e23	-2.3759034e-05
53	0xb90294a1	-0.00012453135
54	0xb3150e01	-3.4704502e-08
55	0xb7cdc224	-2.4528308e-05
56	0x00000000	0.0
57	0x00000000	0.0
58	0x00000000	0.0
59	0xb92a2ad9	-0.00016228425
60	0xb84bf5df	-4.8627957e-05
61	0x00000000	0.0
62	0xb9050679	-0.0001268628
63	0xb6a3de2b	-4.8836423e-06

exp_avg_sq f4 [64]
0	0x00000000	0.0
1	0x3529e989	6.3297244e-07
2	0x359127c6	1.0814917e-06
3	0x3465a26c	2.1386376e-07
4	0x00000000	0.0
5	0x00000000	0.0
6	0x3431f1b4	1.657234e-07
7	0x3453d2be	1.9727574e-07
8	0x34d19d9a	3.9043954e-07
9	0x3535d239	6.773367e-07
10	0x3524613d	6.123626e-07
11	0x3375ca8c	5.7227723e-08
12	0x35b5abf6	1.3535598e-06
13	0x361b6a01	2.3158502e-06
14	0x33449bd2	4.5776524e-08
15	0x358fb9c9	1.0708401e-06
16	0x3487f4ba	2.5323772e-07
17	0x3426cd13	1.553456e-07
18	0x34d2e30a	3.928074e-07
19	0x344efc28	1.9276979e-07
20	0x34ce3095	3.8405838e-07
21	0x00000000	0.0
22	0x34f2ac9b	4.52016e-07
23	0x00000000	0.0
24	0x34ae50a6	3.2468705e-07
25	0x00000000	0.0
26	0x00000000	0.0
27	0x3607a850	2.0214538e-06
28	0x35a53f61	1.2311904e-06
29	0x00000000	0.0
30	0x00000000	0.0
31	0x00000000	0.0
32	0x355eb962	8.297121e-07
33	0x00000000	0.0
34	0x34c71201	3.7079738e-07
35	0x3411a38c	1.3563675e-07
36	0x33de23eb	1.0344214e-07
37	0x00000000	0.0
38	0x34fa6f22	4.6646988e-07
39	0x360c804e	2.0936309e-06
40	0x35bbecbb	1.4001483e-06
41	0x26631127	7.877969e-16
42	0x3469a855	2.1761055e-07
43	0x35ef9ba3	1.7852184e-06
44	0x34b3b8b6	3.3475743e-07
45	0x35b33d71	1.3354421e-06
46	0x339eed74	7.400641e-08
47	0x00000000	0.0
48	0x36c0dca0	5.74773e-06
49	0x350a75be	5.1580344e-07
50	0x00000000	0.0
51	0x36043e3a	1.9705753e-06
52	0x33f60807	1.1456728e-07
53	0x35c71a43	1.4834299e-06
54	0x3378c282	5.7918903e-08
55	0x32931fc4	1.7127498e-08
56	0x00000000	0.0
57	0x00000000	0.0
58	0x00000000	0.0
59	0x36992c8a	4.5649404e-06
60	0x34feacf6	4.7437032e-07
61	0x00000000	0.0
62	0x362f369e	2.6108823e-06
63	0x32a27831	1.8913939e-08

exp_avg f4 [64, 64]
0	0x00000000	0.0
1	0xb7323b5b	-1.06234465e-05
2	0xb72b7ac2	-1.0220976e-05
3	0xb73ef255	-1.1381305e-05
4	0x00000000	0.0
5	0x00000000	0.0
6	0x30767459	8.965962e-10
7	0x35a1051a	1.199692e-06
8	0xb5f71f1d	-1.8411989e-06
9	0xb4a4b66b	-3.0680107e-07
10	0xb6f10e6d	-7.184039e-06
11	0xb4b390f2	-3.344681e-07
12	0xb6a4483a	-4.895989e-06
13	0xb6bd21fe	-5.636596e-06
14	0xb6d33cd0	-6.2953695e-06
15	0xb6981c92	-4.533279e-06
16	0x341637a6	1.3990083e-07
17	0xb72bcc8c	-1.0240019e-05
18	0xb700c0fa	-7.674325e-06
19	0xb73595fd	-1.0823363e-05
20	0x33a1c746	7.533394e-08
21	0x00000000	0.0
22	0xb73754c8	-1.092739e-05
23	0x00000000	0.0
24	0xb7a8e334	-2.013296e-05
25	0x00000000	0.0
26	0x00000000	0.0
27	0xb75d47e3	-1.3189364e-05
28	0xb59110bd	-1.0808213e-06
29	0x00000000	0.0
30	0x00000000	0.0
31	0x00000000	0.0
32	0x34a3106e	3.037307e-07
33	0x00000000	0.0
34	0xb76e5c37	-1.4207376e-05
35	0xb69d09c2	-4.6801006e-06
36	0xb7411875	-1.1509391e-05
37	0x00000000	0.0
38	0xb3719311	-5.624594e-08
39	0xb61be749	-2.3231426e-06
40	0xb61988be	-2.287837e-06
41	0x00000004	6e-45
42	0xb7196d4f	-9.144961e-06
43	0xb714f562	-8.87862e-06
44	0xb59864c2	-1.1354207e-06
45	0xb4dbb081	-4.0920352e-07
46	0xb68adeba	-4.1386493e-06
47	0x00000000	0.0
48	0xb1e9e8d1	-6.8076607e-09
49	0xb603f0bd	-1.966065e-06
50	0x00000000	0.0
51	0xb2d122dd	-2.4346656e-08
52	0xb704ee53	-7.923302e-06
53	0xb66ba4e8	-3.5113717e-06
54	0xb0278ab7	-6.095137e-10
55	0xb485101b	-2.47849e-07
56	0x00000000	0.0
57	0x00000000	0.0
58	0x00000000	0.0
59	0x33be2035	8.853423e-08
60	0x363362f7	2.6730684e-06
61	0x00000000	0.0
62	0xb661f770	-3.367164e-06
63	0xb6b86a1b	-5.4959796e-06
64	0x00000000	0.0
65	0x00000000	0.0
66	0x00000000	0.0
67	0x00000000	0.0
68	0x00000000	0.0
69	0x00000000	0.0
70	0x00000000	0.0
71	0x00000000	0.0
72	0x00000000	0.0
73	0x00000000	0.0
74	0x00000000	0.0
75	0x00000000	0.0
76	0x00000000	0.0
77	0x00000000	0.0
78	0x00000000	0.0
79	0x00000000	0.0
80	0x00000000	0.0
81	0x00000000	0.0
82	0x00000000	0.0
83	0x00000000	0.0
84	0x00000000	0.0
85	0x00000000	0.0
86	0x00000000	0.0
87	0x00000000	0.0
88	0x00000000	0.0
89	0x00000000	0.0
90	0x00000000	0.0
91	0x00000000	0.0
92	0x00000000	0.0
93	0x00000000	0.0
94	0x00000000	0.0
95	0x00000000	0.0
96	0x00000000	0.0
97	0x00000000	0.0
98	0x00000000	0.0
99	0x00000000	0.0
100	0x00000000	0.0
101	0x00000000	0.0
102	0x00000000	0.0
103	0x00000000	0.0
104	0x00000000	0.0
105	0x00000000	0.0
106	0x00000000	0.0
107	0x00000000	0.0
108	0x00000000	0.0
109	0x00000000	0.0
110	0x00000000	0.0
111	0x00000000	0.0
112	0x00000000	0.0
113	0x00000000	0.0
114	0x00000000	0.0
115	0x00000000	0.0
116	0x00000000	0.0
117	0x00000000	0.0
118	0x00000000	0.0
119	0x00000000	0.0
120	0x00000000	0.0
121	0x00000000	0.0
122	0x00000000	0.0
123	0x00000000	0.0
124	0x00000000	0.0
125	0x00000000	0.0
126	0x00000000	0.0
127	0x00000000	0.0
128	0x00000000	0.0
129	0x38316bf4	4.2300628e-05
130	0x37b66167	2.1741447e-05
131	0xb7b1e7d9	-2.1208007e-05
132	0x00000000	0.0
133	0x00000000	0.0
134	0x319ec6e1	4.621015e-09
135	0xb794c5bf	-1.7735058e-05
136	0xb6c63fbe	-5.9082804e-06
137	0xb60175bf	-1.9291035e-06
138	0xb4129cbc	-1.3654329e-07
139	0xb819c1f9	-3.6658694e-05
140	0xb80ef78c	-3.4085984e-05
141	0x37a9c1b1	2.0236565e-05
142	0xb729d296	-1.0122216e-05
143	0xb80bcccd	-3.3330918e-05
144	0xb6301171	-2.6236196e-06
145	0x3820c07b	3.8326234e-05
146	0x38042881	3.1508975e-05
147	0x3846237b	4.7239922e-05
148	0xb4bea7e9	-3.5512429e-07
149	0x00000000	0.0
150	0x3821464a	3.8450853e-05
151	0x00000000	0.0
152	0x38189a22	3.638317e-05
153	0x00000000	0.0
154	0x00000000	0.0
155	0xb6890996	-4.084034e-06
156	0xb7ca7e64	-2.4139132e-05
157	0x00000000	0.0
158	0x00000000	0.0
159	0x00000000	0.0
160	0xb7b24a30	-2.12538e-05
161	0x00000000	0.0
162	0x372a8319	1.0163313e-05
163	0x37320909	1.061173e-05
164	0xb6e42422	-6.799136e-06
165	0x00000000	0.0
166	0x34be183a	3.5407885e-07
167	0x358384de	9.79893e-07
168	0xb84a8359	-4.828288e-05
169	0x80000004	-6e-45
170	0x38213e66	3.8443504e-05
171	0xb76d8b5a	-1.4158746e-05
172	0x36a813f5	5.0091135e-06
173	0xb6265303	-2.4784247e-06
174	0x37635c04	1.3551678e-05
175	0x00000000	0.0
176	0x31b79bb8	5.343704e-09
177	0x370c05c9	8.345997e-06
178	0x00000000	0.0
179	0x3423e624	1.5264283e-07
180	0xb76243d9	-1.3486447e-05
181	0xb74d7be5	-1.2247799e-05
182	0x32042deb	7.693852e-09
183	0xb810e559	-3.4545872e-05
184	0x00000000	0.0
185	0x00000000	0.0
186	0x00000000	0.0
187	0x3488e614	2.5499378e-07
188	0xb7a76458	-1.9954678e-05
189	0x00000000	0.0
190	0x3629b845	2.5290221e-06
191	0xb76102f5	-1.3411734e-05
192	0x00000000	0.0
193	0x00000004	6e-45
194	0x00000004	6e-45
195	0x00000004	6e-45
196	0x00000000	0.0
197	0x00000000	0.0
198	0x00000004	6e-45
199	0x00000004	6e-45
200	0x00000004	6e-45
201	0x00000004	6e-45
202	0x00000004	6e-45
203	0x00000004	6e-45
204	0x00000004	6e-45
205	0x00000004	6e-45
206	0x00000004	6e-45
207	0x00000004	6e-45
208	0x00000004	6e-45
209	0x00000004	6e-45
210	0x00000004	6e-45
211	0x00000004	6e-45
212	0x00000004	6e-45
213	0x00000000	0.0
214	0x00000004	6e-45
215	0x00000000	0.0
216	0x00000004	6e-45
217	0x00000000	0.0
218	0x00000000	0.0
219	0x00000004	6e-45
220	0x00000004	6e-45
221	0x00000000	0.0
222	0x00000000	0.0
223	0x00000000	0.0
224	0x00000004	6e-45
225	0x00000000	0.0
226	0x00000004	6e-45
227	0x00000004	6e-45
228	0x00000004	6e-45
229	0x00000000	0.0
230	0x00000004	6e-45
231	0x00000004	6e-45
232	0x00000004	6e-45
233	0x00000004	6e-45
234	0x00000004	6e-45
235	0x00000004	6e-45
236	0x80000004	-6e-45
237	0x00000004	6e-45
238	0x00000004	6e-45
239	0x00000000	0.0
240	0x00000004	6e-45
241	0x00000004	6e-45
242	0x00000000	0.0
243	0x00000004	6e-45
244	0x00000004	6e-45
245	0x00000004	6e-45
246	0x00000004	6e-45
247	0x00000004	6e-45
248	0x00000000	0.0
249	0x00000000	0.0
250	0x00000000	0.0
251	0x00000004	6e-45
252	0x00000004	6e-45
253	0x00000000	0.0
254	0x00000004	6e-45
255	0x00000004	6e-45

exp_avg_sq f4 [64, 64]
0	0x00000000	0.0
1	0x3264f62e	1.33273215e-08
2	0x32a9e67b	1.9779e-08
3	0x32092a77	7.984105e-09
4	0x00000000	0.0
5	0x00000000	0.0
6	0x303a258f	6.771978e-10
7	0x3196eda6	4.392592e-09
8	0x3291ee40	1.6988565e-08
9	0x30bf96e2	1.3939963e-09
10	0x31a7c519	4.882747e-09
11	0x2ffa1032	4.5486243e-10
12	0x32314088	1.0317429e-08
13	0x2f589198	1.9696811e-10
14	0x30285dfc	6.1251604e-10
15	0x318bb474	4.0659476e-09
16	0x31c0931f	5.604661e-09
17	0x328d58ee	1.6455001e-08
18	0x317ba40b	3.6618555e-09
19	0x31b74dad	5.3348317e-09
20	0x320296b7	7.6012645e-09
21	0x00000000	0.0
22	0x31b46d9a	5.2511497e-09
23	0x00000000	0.0
24	0x322ea869	1.0166425e-08
25	0x00000000	0.0
26	0x00000000	0.0
27	0x329d1e9c	1.8291125e-08
28	0x31247c5b	2.3935829e-09
29	0x00000000	0.0
30	0x00000000	0.0
31	0x00000000	0.0
32	0x3101c0d0	1.8881572e-09
33	0x00000000	0.0
34	0x32504f38	1.2125206e-08
35	0x2e4945c1	4.5764063e-11
36	0x32349132	1.0510393e-08
37	0x00000000	0.0
38	0x30b4fe19	1.3168943e-09
39	0x301d4c12	5.722437e-10
40	0x3222d4ff	9.478071e-09
41	0x202a30d7	1.441572e-19
42	0x3299d8bb	1.7910102e-08
43	0x3213fb08	8.613604e-09
44	0x2da188fe	1.8364418e-11
45	0x3134f36b	2.6331815e-09
46	0x2dfcc69b	2.8737282e-11
47	0x00000000	0.0
48	0x3038e1c5	6.725965e-10
49	0x308186aa	9.424259e-10
50	0x00000000	0.0
51	0x2d7169f8	1.3722794e-11
52	0x3079455c	9.068424e-10
53	0x3227898b	9.751953e-09
54	0x2ee005ec	1.01873926e-10
55	0x2fc308aa	3.547645e-10
56	0x00000000	0.0
57	0x00000000	0.0
58	0x00000000	0.0
59	0x2d970596	1.7169193e-11
60	0x30204b44	5.831462e-10
61	0x00000000	0.0
62	0x30d30bfe	1.5355679e-09
63	0x300efc78	5.201808e-10
64	0x00000000	0.0
65	0x00000000	0.0
66	0x00000000	0.0
67	0x00000000	0.0
68	0x00000000	0.0
69	0x00000000	0.0
70	0x00000000	0.0
71	0x00000000	0.0
72	0x00000000	0.0
73	0x00000000	0.0
74	0x00000000	0.0
75	0x00000000	0.0
76	0x00000000	0.0
77	0x00000000	0.0
78	0x00000000	0.0
79	0x00000000	0.0
80	0x00000000	0.0
81	0x00000000	0.0
82	0x00000000	0.0
83	0x00000000	0.0
84	0x00000000	0.0
85	0x00000000	0.0
86	0x00000000	0.0
87	0x00000000	0.0
88	0x00000000	0.0
89	0x00000000	0.0
90	0x00000000	0.0
91	0x00000000	0.0
92	0x00000000	0.0
93	0x00000000	0.0
94	0x00000000	0.0
95	0x00000000	0.0
96	0x00000000	0.0
97	0x00000000	0.0
98	0x00000000	0.0
99	0x00000000	0.0
100	0x00000000	0.0
101	0x00000000	0.0
102	0x00000000	0.0
103	0x00000000	0.0
104	0x00000000	0.0
105	0x00000000	0.0
106	0x00000000	0.0
107	0x00000000	0.0
108	0x00000000	0.0
109	0x00000000	0.0
110	0x00000000	0.0
111	0x00000000	0.0
112	0x00000000	0.0
113	0x00000000	0.0
114	0x00000000	0.0
115	0x00000000	0.0
116	0x00000000	0.0
117	0x00000000	0.0
118	0x00000000	0.0
119	0x00000000	0.0
120	0x00000000	0.0
121	0x00000000	0.0
122	0x00000000	0.0
123	0x00000000	0.0
124	0x00000000	0.0
125	0x00000000	0.0
126	0x00000000	0.0
127	0x00000000	0.0
128	0x00000000	0.0
129	0x3574527d	9.101712e-07
130	0x35b54b2d	1.350743e-06
131	0x3500a37a	4.7921606e-07
132	0x00000000	0.0
133	0x00000000	0.0
134	0x334a3be9	4.7086278e-08
135	0x34a0e3dd	2.9968115e-07
136	0x359be9bf	1.1616429e-06
137	0x33cd1f34	9.551732e-08
138	0x34a7caf1	3.1253833e-07
139	0x32840fe3	1.5374047e-08
140	0x3532d98e	6.662675e-07
141	0x32074122	7.872844e-09
142	0x32ee5093	2.7743488e-08
143	0x348c5a11	2.6142564e-07
144	0x34cf0521	3.8560486e-07
145	0x3596e5e3	1.1242777e-06
146	0x34852ca9	2.4805675e-07
147	0x34c03804	3.5803544e-07
148	0x350bfa69	5.214593e-07
149	0x00000000	0.0
150	0x34bb7f9a	3.4924307e-07
151	0x00000000	0.0
152	0x35277e56	6.239619e-07
153	0x00000000	0.0
154	0x00000000	0.0
155	0x35a1a720	1.2044075e-06
156	0x34319671	1.653914e-07
157	0x00000000	0.0
158	0x00000000	0.0
159	0x00000000	0.0
160	0x340aea76	1.2937548e-07
161	0x00000000	0.0
162	0x355223e8	7.8283347e-07
163	0x31358ad6	2.6417886e-09
164	0x353111c0	6.596347e-07
165	0x00000000	0.0
166	0x33c1b4b7	9.020135e-08
167	0x33327e54	4.155875e-08
168	0x352985ad	6.315193e-07
169	0x222d8503	2.3516288e-18
170	0x35a41546	1.2225144e-06
171	0x3517661f	5.640049e-07
172	0x2f300c39	1.6011449e-10
173	0x34424e13	1.8096061e-07
174	0x310321ab	1.9082147e-09
175	0x00000000	0.0
176	0x3348abbd	4.6722324e-08
177	0x338b458a	6.485341e-08
178	0x00000000	0.0
179	0x2fb79c4c	3.3398562e-10
180	0x33403008	4.4747168e-08
181	0x3533a9fc	6.6930056e-07
182	0x31e3287b	6.6111716e-09
183	0x32923792	1.7021907e-08
184	0x00000000	0.0
185	0x00000000	0.0
186	0x00000000	0.0
187	0x2da769c3	1.903267e-11
188	0x331bc9fd	3.6272457e-08
189	0x00000000	0.0
190	0x33e4c864	1.0653528e-07
191	0x32c3f8c2	2.281411e-08
192	0x00000000	0.0
193	0x2f44648b	1.7861816e-10
194	0x2f9e14c0	2.8754776e-10
195	0x2f33f4c6	1.6366916e-10
196	0x00000000	0.0
197	0x00000000	0.0
198	0x2c321acc	2.5310197e-12
199	0x2e642aa0	5.1879057e-11
200	0x2f94efc1	2.7091399e-10
201	0x2d97227e	1.718203e-11
202	0x2ee52ea3	1.0421999e-10
203	0x2cdb0c90	6.225749e-12
204	0x2f4c0892	1.8556737e-10
205	0x29539baa	4.698643e-14
206	0x2cd240d6	5.975757e-12
207	0x2e50b606	4.7455394e-11
208	0x2e90b3ff	6.5803356e-11
209	0x2f79613b	2.2680961e-10
210	0x2e39afcf	4.222028e-11
211	0x2e841537	6.0064335e-11
212	0x2ee5a2aa	1.0442609e-10
213	0x00000000	0.0
214	0x2ef6f1dc	1.1229748e-10
215	0x00000000	0.0
216	0x2f7db037	2.307282e-10
217	0x00000000	0.0
218	0x00000000	0.0
219	0x2fb495c0	3.2848213e-10
220	0x2d2243e0	9.223705e-12
221	0x00000000	0.0
222	0x00000000	0.0
223	0x00000000	0.0
224	0x2d59f6c8	1.2389818e-11
225	0x00000000	0.0
226	0x2f68db30	2.1178148e-10
227	0x250c2a72	1.2157445e-16
228	0x2f5ea8ce	2.0250754e-10
229	0x00000000	0.0
230	0x2d00a735	7.313085e-12
231	0x2c74ad09	3.477054e-12
232	0x2f01b701	1.1797498e-10
233	0x1fbe5753	8.0612596e-20
234	0x2f95dfe5	2.726203e-10
235	0x2f1cab3e	1.4248955e-10
236	0x249ad41e	6.7146194e-17
237	0x2e07a556	3.0842294e-11
238	0x274c8433	2.8382352e-15
239	0x00000000	0.0
240	0x2924d2c1	3.6598115e-14
241	0x2cd107a3	5.940985e-12
242	0x00000000	0.0
243	0x2570b408	2.0877679e-16
244	0x2cef58d9	6.8026526e-12
245	0x2ee093bf	1.02125856e-10
246	0x2a982a30	2.7029897e-13
247	0x2c6970c5	3.3173891e-12
248	0x00000000	0.0
249	0x00000000	0.0
250	0x00000000	0.0
251	0x23481e0f	1.0848387e-17
252	0x2c9b4003	4.4124717e-12
253	0x00000000	0.0
254	0x2d22518b	9.22674e-12
255	0x2c8fcc09	4.086957e-12

exp_avg f4 [64]
0	0xb7ab8db9	-2.0450783e-05
1	0x00000000	0.0
2	0xb71c34bb	-9.310602e-06
3	0x00000004	6e-45
4	0x36e7149d	6.886736e-06
5	0x387295a3	5.7836656e-05
6	0x00000000	0.0
7	0xb8052326	-3.1742406e-05
8	0x36a64e75	4.956319e-06
9	0x00000000	0.0
10	0xb61a6814	-2.300837e-06
11	0xb806bfba	-3.212665e-05
12	0xb7a00488	-1.9075596e-05
13	0x37900c98	1.7172002e-05
14	0xb778ebc6	-1.4836847e-05
15	0xb78d4409	-1.6840191e-05
16	0xb629f94f	-2.532808e-06
17	0x37247109	9.80148e-06
18	0xb6bb7721	-5.5869027e-06
19	0x38068ee8	3.208118e-05
20	0xb7efedf7	-2.8601831e-05
21	0x36243323	2.446767e-06
22	0xb8682bbc	-5.535384e-05
23	0x00000000	0.0
24	0xb51265e3	-5.4537503e-07
25	0xb896cef9	-7.191109e-05
26	0xb64a7b5e	-3.0172155e-06
27	0xb3a59815	-7.711075e-08
28	0xb81dbfae	-3.7610233e-05
29	0xb787ec43	-1.6203272e-05
30	0x00000000	0.0
31	0x00000000	0.0
32	0xb80a411a	-3.2962394e-05
33	0xb6452076	-2.9374182e-06
34	0xb730b59b	-1.0532701e-05
35	0xb7f9749b	-2.9737412e-05
36	0x3798b78a	1.8205279e-05
37	0x00000000	0.0
38	0x00000000	0.0
39	0xb7c75f71	-2.3767092e-05
40	0xb7b9725d	-2.2106973e-05
41	0xb867fee7	-5.5312088e-05
42	0x373238e7	1.0622875e-05
43	0x2fdea15d	4.049622e-10
44	0x00000000	0.0
45	0x02bdd15d	2.7891223e-37
46	0xb8029bbb	-3.113945e-05
47	0x00000000	0.0
48	0xb74d5c11	-1.2240388e-05
49	0xb6e36352	-6.7766896e-06
50	0xb7e3aef9	-2.7141987e-05
51	0xb79fa89f	-1.9032797e-05
52	0xb8809ad6	-6.132356e-05
53	0x00000004	6e-45
54	0xb80e6169	-3.394616e-05
55	0xb4b24f21	-3.3212658e-07
56	0x00000000	0.0
57	0xb726ad5e	-9.934736e-06
58	0x364b722c	3.0315814e-06
59	0x00000000	0.0
60	0x35bd52d9	1.4105709e-06
61	0x00000000	0.0
62	0xb813c89d	-3.5234367e-05
63	0x00000000	0.0

exp_avg_sq f4 [64]
0	0x3391dd77	6.792373e-08
1	0x00000000	0.0
2	0x3695f04c	4.4685203e-06
3	0x30bfe36a	1.3961714e-09
4	0x34b1bbcf	3.3105468e-07
5	0x362d65a4	2.5838171e-06
6	0x00000000	0.0
7	0x353f0aa9	7.116856e-07
8	0x34ac8cbb	3.2139891e-07
9	0x00000000	0.0
10	0x3360d744	5.2349847e-08
11	0x345ad753	2.0381167e-07
12	0x3594682c	1.1057177e-06
13	0x34e811a1	4.3226194e-07
14	0x34130bac	1.3694688e-07
15	0x348ed76c	2.66063e-07
16	0x34ca7e9e	3.7717558e-07
17	0x3519e525	5.733039e-07
18	0x34051b1b	1.2396451e-07
19	0x3548ea27	7.484654e-07
20	0x3497f25e	2.8302287e-07
21	0x352505df	6.1475833e-07
22	0x36099897	2.050341e-06
23	0x00000000	0.0
24	0x34960786	2.794515e-07
25	0x33133fb0	3.4284028e-08
26	0x34292167	1.5751503e-07
27	0x2f08c55c	1.2439244e-10
28	0x35a34e25	1.2167189e-06
29	0x34e0e62f	4.1890732e-07
30	0x00000000	0.0
31	0x00000000	0.0
32	0x34388690	1.7185289e-07
33	0x34d0bf01	3.8881993e-07
34	0x35189e8f	5.6855146e-07
35	0x35438dd3	7.284954e-07
36	0x34a015f1	2.9818287e-07
37	0x00000000	0.0
38	0x00000000	0.0
39	0x35131f65	5.480745e-07
40	0x34139235	1.3743632e-07
41	0x35646b5a	8.5092836e-07
42	0x34369ec2	1.7007827e-07
43	0x2e3c6253	4.283358e-11
44	0x00000000	0.0
45	0x2d80cf94	1.4644098e-11
46	0x35b4dc10	1.3475092e-06
47	0x00000000	0.0
48	0x34e9e1fd	4.356406e-07
49	0x35635c2a	8.4698206e-07
50	0x3448efbf	1.871367e-07
51	0x3574b10c	9.115472e-07
52	0x35b73b63	1.3651846e-06
53	0x2d26499c	9.452352e-12
54	0x3540f9d1	7.1889104e-07
55	0x348cbbb6	2.621361e-07
56	0x00000000	0.0
57	0x34f9f284	4.6556318e-07
58	0x349e7d94	2.9521163e-07
59	0x00000000	0.0
60	0x34989115	2.8417767e-07
61	0x00000000	0.0
62	0x348e3ba3	2.6492953e-07
63	0x00000000	0.0

exp_avg f4 [64, 64]
0	0x00000000	0.0
1	0x00000000	0.0
2	0x00000000	0.0
3	0x00000000	0.0
4	0x00000000	0.0
5	0x00000000	0.0
6	0x00000000	0.0
7	0x00000000	0.0
8	0x00000000	0.0
9	0x00000000	0.0
10	0x00000000	0.0
11	0x00000000	0.0
12	0x00000000	0.0
13	0x00000000	0.0
14	0x00000000	0.0
15	0x00000000	0.0
16	0x00000000	0.0
17	0x00000000	0.0
18	0x00000000	0.0
19	0x00000000	0.0
20	0x00000000	0.0
21	0x00000000	0.0
22	0x00000000	0.0
23	0x00000000	0.0
24	0x00000000	0.0
25	0x00000000	0.0
26	0x00000000	0.0
27	0x00000000	0.0
28	0x00000000	0.0
29	0x00000000	0.0
30	0x00000000	0.0
31	0x00000000	0.0
32	0x00000000	0.0
33	0x00000000	0.0
34	0x00000000	0.0
35	0x00000000	0.0
36	0x00000000	0.0
37	0x00000000	0.0
38	0x00000000	0.0
39	0x00000000	0.0
40	0x00000000	0.0
41	0x00000000	0.0
42	0x00000000	0.0
43	0x00000000	0.0
44	0x00000000	0.0
45	0x00000000	0.0
46	0x00000000	0.0
47	0x00000000	0.0
48	0x00000000	0.0
49	0x00000000	0.0
50	0x00000000	0.0
51	0x00000000	0.0
52	0x00000000	0.0
53	0x00000000	0.0
54	0x00000000	0.0
55	0x00000000	0.0
56	0x00000000	0.0
57	0x00000000	0.0
58	0x00000000	0.0
59	0x00000000	0.0
60	0x00000000	0.0
61	0x00000000	0.0
62	0x00000000	0.0
63	0x00000000	0.0
64	0x37f7d2d5	2.954287e-05
65	0x00000000	0.0
66	0x37e0f08a	2.681489e-05
67	0x00000004	6e-45
68	0x375c2fc1	1.312414e-05
69	0x37160b6c	8.943356e-06
70	0x00000000	0.0
71	0x3713c6c0	8.808158e-06
72	0x373e0822	1.1326776e-05
73	0x00000000	0.0
74	0x374ddb8d	1.227007e-05
75	0x379fa02d	1.9028865e-05
76	0x37cbe910	2.4308014e-05
77	0x3715c9a8	8.928044e-06
78	0x37ae5364	2.0781248e-05
79	0x378f0337	1.7048425e-05
80	0x37643a9c	1.3603505e-05
81	0x3720746e	9.563852e-06
82	0x37c5eb68	2.359385e-05
83	0xb48208b8	-2.422073e-07
84	0x37aad336	2.0363932e-05
85	0x37308c61	1.0523102e-05
86	0xb367282c	-5.3820415e-08
87	0x00000000	0.0
88	0x380bbb5a	3.3314667e-05
89	0x36c00e15	5.7236853e-06
90	0x378d3898	1.6834863e-05
91	0xaf44fcba	-1.7915883e-10
92	0x37851946	1.5866604e-05
93	0x37c4a899	2.344353e-05
94	0x00000000	0.0
95	0x00000000	0.0
96	0x373a9eec	1.1123466e-05
97	0x371263ac	8.725485e-06
98	0x37c9b555	2.4045507e-05
99	0x378c0516	1.6691669e-05
100	0x3707abfe	8.086672e-06
101	0x00000000	0.0
102	0x00000000	0.0
103	0x37f16ccc	2.8780101e-05
104	0x378a1bd2	1.6463837e-05
105	0x37dcd00f	2.6322929e-05
106	0x36a1e5d0	4.8249276e-06
107	0xac632635	-3.227985e-12
108	0x00000000	0.0
109	0x8088e320	-1.2571105e-38
110	0x37c55b8c	2.352686e-05
111	0x00000000	0.0
112	0x37fd5350	3.0198746e-05
113	0x36fa128c	7.4527397e-06
114	0x37f61704	2.9336203e-05
115	0x36f60252	7.3316414e-06
116	0xb43ed4b1	-1.7772506e-07
117	0x80000004	-6e-45
118	0x37a1982a	1.9263553e-05
119	0x381b869e	3.708025e-05
120	0x00000000	0.0
121	0x37d9a6c4	2.5946072e-05
122	0x37d72871	2.564883e-05
123	0x00000000	0.0
124	0x380502b8	3.1712203e-05
125	0x00000000	0.0
126	0x3820630e	3.8239225e-05
127	0x00000000	0.0
128	0x00000004	6e-45
129	0x00000000	0.0
130	0x00000004	6e-45
131	0x00000000	0.0
132	0x00000004	6e-45
133	0x00000000	0.0
134	0x00000000	0.0
135	0x00000004	6e-45
136	0x00000004	6e-45
137	0x00000000	0.0
138	0x00000004	6e-45
139	0x00000004	6e-45
140	0x00000004	6e-45
141	0x00000004	6e-45
142	0x00000004	6e-45
143	0x00000004	6e-45
144	0x00000004	6e-45
145	0x00000004	6e-45
146	0x00000004	6e-45
147	0x00000004	6e-45
148	0x00000004	6e-45
149	0x00000004	6e-45
150	0x00000004	6e-45
151	0x00000000	0.0
152	0x00000004	6e-45
153	0x00000000	0.0
154	0x00000004	6e-45
155	0x00000000	0.0
156	0x00000004	6e-45
157	0x00000004	6e-45
158	0x00000000	0.0
159	0x00000000	0.0
160	0x00000004	6e-45
161	0x00000004	6e-45
162	0x00000004	6e-45
163	0x00000004	6e-45
164	0x00000004	6e-45
165	0x00000000	0.0
166	0x00000000	0.0
167	0x00000004	6e-45
168	0x00000004	6e-45
169	0x00000004	6e-45
170	0x00000004	6e-45
171	0x00000000	0.0
172	0x00000000	0.0
173	0x00000000	0.0
174	0x00000004	6e-45
175	0x00000000	0.0
176	0x00000004	6e-45
177	0x00000004	6e-45
178	0x00000004	6e-45
179	0x00000004	6e-45
180	0x00000000	0.0
181	0x00000000	0.0
182	0x00000004	6e-45
183	0x00000004	6e-45
184	0x00000000	0.0
185	0x00000004	6e-45
186	0x00000004	6e-45
187	0x00000000	0.0
188	0x00000004	6e-45
189	0x00000000	0.0
190	0x00000004	6e-45
191	0x00000000	0.0
192	0x376ec119	1.42308645e-05
193	0x00000000	0.0
194	0xb7d1d4bf	-2.501381e-05
195	0x80000004	-6e-45
196	0x37c21494	2.3136185e-05
197	0x37a006fb	1.9076737e-05
198	0x00000000	0.0
199	0x37b088e1	2.1044574e-05
200	0x3712d92e	8.752844e-06
201	0x00000000	0.0
202	0x37cbe557	2.430628e-05
203	0x372f9aaa	1.0466823e-05
204	0x3406a3c5	1.2539302e-07
205	0x37ddf7c4	2.6460628e-05
206	0xb6b31e5c	-5.33815e-06
207	0x33268bce	3.877704e-08
208	0xb697bcda	-4.522136e-06
209	0x37f8675d	2.9612036e-05
210	0xb6c33599	-5.8176925e-06
211	0x36fb05dd	7.4810655e-06
212	0xb71de1e2	-9.410522e-06
213	0x377aa463	1.49394355e-05
214	0x3739aa39	1.1066492e-05
215	0x00000000	0.0
216	0xb60faccc	-2.1409242e-06
217	0xb66e87e7	-3.554387e-06
218	0x3682cde9	3.898273e-06
219	0x2e349334	4.1058004e-11
220	0x36de2474	6.6203593e-06
221	0xb755b133	-1.2737047e-05
222	0x00000000	0.0
223	0x00000000	0.0
224	0xb6a13cbb	-4.805244e-06
225	0x37525638	1.253705e-05
226	0x356a8e4c	8.737886e-07
227	0x36925f3a	4.362225e-06
228	0x37e3b467	2.7144515e-05
229	0x00000000	0.0
230	0x00000000	0.0
231	0x3726de00	9.946059e-06
232	0xb67b32f9	-3.7431585e-06
233	0xb77fb909	-1.5242266e-05
234	0x373e26c8	1.1333912e-05
235	0xacc279eb	-5.5273472e-12
236	0x00000000	0.0
237	0x00a3498b	1.4995568e-38
238	0xb795aaf5	-1.7841792e-05
239	0x00000000	0.0
240	0xb76037e3	-1.3364453e-05
241	0x37cd5d51	2.4481358e-05
242	0xb6d93a79	-6.473911e-06
243	0x377f0632	1.5200627e-05
244	0x370fca70	8.570598e-06
245	0x80000004	-6e-45
246	0xb76e2b5e	-1.4196003e-05
247	0x37163f00	8.955365e-06
248	0x00000000	0.0
249	0xb43f7bc6	-1.783329e-07
250	0xb759eed6	-1.2989816e-05
251	0x00000000	0.0
252	0x371a34d1	9.191413e-06
253	0x00000000	0.0
254	0x36f53429	7.307641e-06
255	0x00000000	0.0

exp_avg_sq f4 [64, 64]
0	0x00000000	0.0
1	0x00000000	0.0
2	0x00000000	0.0
3	0x00000000	0.0
4	0x00000000	0.0
5	0x00000000	0.0
6	0x00000000	0.0
7	0x00000000	0.0
8	0x00000000	0.0
9	0x00000000	0.0
10	0x00000000	0.0
11	0x00000000	0.0
12	0x00000000	0.0
13	0x00000000	0.0
14	0x00000000	0.0
15	0x00000000	0.0
16	0x00000000	0.0
17	0x00000000	0.0
18	0x00000000	0.0
19	0x00000000	0.0
20	0x00000000	0.0
21	0x00000000	0.0
22	0x00000000	0.0
23	0x00000000	0.0
24	0x00000000	0.0
25	0x00000000	0.0
26	0x00000000	0.0
27	0x00000000	0.0
28	0x00000000	0.0
29	0x00000000	0.0
30	0x00000000	0.0
31	0x00000000	0.0
32	0x00000000	0.0
33	0x00000000	0.0
34	0x00000000	0.0
35	0x00000000	0.0
36	0x00000000	0.0
37	0x00000000	0.0
38	0x00000000	0.0
39	0x00000000	0.0
40	0x00000000	0.0
41	0x00000000	0.0
42	0x00000000	0.0
43	0x00000000	0.0
44	0x00000000	0.0
45	0x00000000	0.0
46	0x00000000	0.0
47	0x00000000	0.0
48	0x00000000	0.0
49	0x00000000	0.0
50	0x00000000	0.0
51	0x00000000	0.0
52	0x00000000	0.0
53	0x00000000	0.0
54	0x00000000	0.0
55	0x00000000	0.0
56	0x00000000	0.0
57	0x00000000	0.0
58	0x00000000	0.0
59	0x00000000	0.0
60	0x00000000	0.0
61	0x00000000	0.0
62	0x00000000	0.0
63	0x00000000	0.0
64	0x3309c995	3.2081136e-08
65	0x00000000	0.0
66	0x31e45e2e	6.6463803e-09
67	0x2c2c4bb2	2.448469e-12
68	0x32979bd7	1.7649581e-08
69	0x31228162	2.3647648e-09
70	0x00000000	0.0
71	0x311a8657	2.2486313e-09
72	0x3127bac8	2.4407871e-09
73	0x00000000	0.0
74	0x324750ec	1.1601724e-08
75	0x32927ac6	1.7052468e-08
76	0x32be50f9	2.2155733e-08
77	0x3272e81b	1.4139029e-08
78	0x3247f46a	1.1638898e-08
79	0x31d64994	6.2365846e-09
80	0x321a73dc	8.990323e-09
81	0x31b864e9	5.366577e-09
82	0x329bfa1d	1.8158113e-08
83	0x3134cfbb	2.6311529e-09
84	0x3250e4fb	1.2159258e-08
85	0x32efcdb2	2.7916801e-08
86	0x300059c0	4.669367e-10
87	0x00000000	0.0
88	0x31d8cdd8	6.309829e-09
89	0x2e8959b0	6.2459704e-11
90	0x318ea9e8	4.15206e-09
91	0x259be173	2.7040984e-16
92	0x320214b3	7.571702e-09
93	0x320568bb	7.765432e-09
94	0x00000000	0.0
95	0x00000000	0.0
96	0x318fa1b6	4.180232e-09
97	0x31fb8560	7.3202244e-09
98	0x32afb45e	2.0454703e-08
99	0x31cb161b	5.9105907e-09
100	0x3167d58f	3.3736318e-09
101	0x00000000	0.0
102	0x00000000	0.0
103	0x3306cc28	3.1384985e-08
104	0x3239d471	1.0816721e-08
105	0x31df91ca	6.5067285e-09
106	0x3102fd05	1.9061315e-09
107	0x27c4ad0f	5.458856e-15
108	0x00000000	0.0
109	0x28072b58	7.503404e-15
110	0x321adcd5	9.014191e-09
111	0x00000000	0.0
112	0x31e9f620	6.8091737e-09
113	0x3153e0a6	3.083224e-09
114	0x32182c80	8.857683e-09
115	0x326dcb42	1.3841431e-08
116	0x2f7c30c8	2.2936597e-10
117	0x280d109a	7.830672e-15
118	0x324efca5	1.2048223e-08
119	0x332fd309	4.0937298e-08
120	0x00000000	0.0
121	0x31e2bf61	6.599223e-09
122	0x32998877	1.7873601e-08
123	0x00000000	0.0
124	0x32e65184	2.6812593e-08
125	0x00000000	0.0
126	0x32ebb830	2.744136e-08
127	0x00000000	0.0
128	0x23634cdf	1.2321973e-17
129	0x00000000	0.0
130	0x1fa4f78a	6.986622e-20
131	0x00000000	0.0
132	0x22419a7b	2.6238159e-18
133	0x00000000	0.0
134	0x00000000	0.0
135	0x1ecb45f3	2.1522391e-20
136	0x20459808	1.6736852e-19
137	0x00000000	0.0
138	0x2222de87	2.20729e-18
139	0x2319b7f7	8.333103e-18
140	0x23045293	7.17322e-18
141	0x221da6d4	2.1365786e-18
142	0x22ad374f	4.6950304e-18
143	0x21e5eaaa	1.5579759e-18
144	0x227f65ed	3.4612903e-18
145	0x209fbf2d	2.7062157e-19
146	0x23061122	7.2677826e-18
147	0x208604b3	2.2703593e-19
148	0x22b81232	4.9892565e-18
149	0x23032ffb	7.1116845e-18
150	0x1b81aa28	2.145122e-22
151	0x00000000	0.0
152	0x2091a098	2.4670227e-19
153	0x00000000	0.0
154	0x221c329e	2.1168739e-18
155	0x00000000	0.0
156	0x22adb303	4.708128e-18
157	0x2209f87c	1.8698509e-18
158	0x00000000	0.0
159	0x00000000	0.0
160	0x224ad8f6	2.7490963e-18
161	0x210399e1	4.4588183e-19
162	0x23348088	9.785037e-18
163	0x22ad289b	4.6934737e-18
164	0x20fe328d	4.3062725e-19
165	0x00000000	0.0
166	0x00000000	0.0
167	0x236330f1	1.2316058e-17
168	0x22bbbe6f	5.088808e-18
169	0x1f9e0876	6.69296e-20
170	0x1f858a6c	5.655669e-20
171	0x00000000	0.0
172	0x00000000	0.0
173	0x00000000	0.0
174	0x2298c5cc	4.140911e-18
175	0x00000000	0.0
176	0x1d6be825	3.1222007e-21
177	0x1f71f12b	5.1233225e-20
178	0x2221f9d5	2.1951829e-18
179	0x2282953d	3.5394583e-18
180	0x00000000	0.0
181	0x00000000	0.0
182	0x224664b4	2.6887316e-18
183	0x2370be2a	1.3050695e-17
184	0x00000000	0.0
185	0x218a5fa6	9.376562e-19
186	0x22d869f4	5.86591e-18
187	0x00000000	0.0
188	0x2331b3fe	9.633304e-18
189	0x00000000	0.0
190	0x22c66972	5.3779652e-18
191	0x00000000	0.0
192	0x344957e2	1.8751555e-07
193	0x00000000	0.0
194	0x331d9405	3.6689034e-08
195	0x2d9fcafd	1.8166352e-11
196	0x33d710a9	1.0014748e-07
197	0x3281694c	1.506546e-08
198	0x00000000	0.0
199	0x3297e88c	1.7684464e-08
200	0x326e126c	1.3857612e-08
201	0x00000000	0.0
202	0x338aeb9b	6.468982e-08
203	0x33d90bdd	1.0107008e-07
204	0x34096cef	1.2798749e-07
205	0x33a8519e	7.837956e-08
206	0x339bc580	7.253675e-08
207	0x330c29a3	3.263416e-08
208	0x336c487f	5.5013967e-08
209	0x3307bacd	3.160203e-08
210	0x33f2fc32	1.1314877e-07
211	0x328b78c6	1.6236651e-08
212	0x33a2707f	7.564176e-08
213	0x342f9c50	1.6355011e-07
214	0x319a6179	4.4930712e-09
215	0x00000000	0.0
216	0x33039b18	3.064187e-08
217	0x2ebd8645	8.618576e-11
218	0x32bf1f3c	2.224953e-08
219	0x2651e07f	7.281569e-16
220	0x3334cb96	4.2094676e-08
221	0x33439c02	4.5543864e-08
222	0x00000000	0.0
223	0x00000000	0.0
224	0x32eab9dd	2.7325706e-08
225	0x333693fb	4.2509765e-08
226	0x34068a4e	1.2530037e-07
227	0x33191de1	3.5650263e-08
228	0x32ab5bdb	1.9948791e-08
229	0x00000000	0.0
230	0x00000000	0.0
231	0x3447a6bf	1.8593981e-07
232	0x3399cd4e	7.1619624e-08
233	0x33176ce6	3.525647e-08
234	0x322df1be	1.0124891e-08
235	0x2a4162c7	1.7176114e-13
236	0x00000000	0.0
237	0x29ae3196	7.735754e-14
238	0x336dfba9	5.5409746e-08
239	0x00000000	0.0
240	0x330eed0c	3.3277544e-08
241	0x32a649aa	1.9358442e-08
242	0x335391a4	4.9259725e-08
243	0x33ac6f20	8.029588e-08
244	0x3133c126	2.615772e-09
245	0x2a30e075	1.5709814e-13
246	0x33a1f9e1	7.5425994e-08
247	0x347be09c	2.3457909e-07
248	0x00000000	0.0
249	0x331acfb0	3.604481e-08
250	0x33e710b9	1.07598176e-07
251	0x00000000	0.0
252	0x34254a5e	1.5393877e-07
253	0x00000000	0.0
254	0x34277ff5	1.5599637e-07
255	0x00000000	0.0

exp_avg f4 [64]
0	0x00000000	0.0
1	0x388aacdc	6.61255e-05
2	0x00000004	6e-45
3	0x37c9c428	2.405241e-05
4	0x00b28103	1.6392999e-38
5	0xb8488f16	-4.7816975e-05
6	0x00000000	0.0
7	0x00000000	0.0
8	0xb70dea8f	-8.458867e-06
9	0x369df21a	4.707149e-06
10	0x3806fe5f	3.218499e-05
11	0xb839386a	-4.4159977e-05
12	0xb76fe1fe	-1.4298128e-05
13	0x00000000	0.0
14	0xb79b3da9	-1.8506153e-05
15	0xb764055d	-1.3591108e-05
16	0x385d68bd	5.278805e-05
17	0x00000000	0.0
18	0xb717017f	-9.00065e-06
19	0x00000000	0.0
20	0x35693706	8.6879334e-07
21	0xb7cd9876	-2.45089e-05
22	0x00000000	0.0
23	0xb7988747	-1.8182805e-05
24	0xb8146f4b	-3.53896e-05
25	0x37a79499	1.9977148e-05
26	0xb743a8c1	-1.1662197e-05
27	0x370a8f3f	8.258793e-06
28	0x00000000	0.0
29	0x00000000	0.0
30	0x00000004	6e-45
31	0x00000004	6e-45
32	0xb7318c2f	-1.0582661e-05
33	0x00000004	6e-45
34	0x00000000	0.0
35	0xb7306df1	-1.0516015e-05
36	0xb727462a	-9.970312e-06
37	0xb70b9c1e	-8.3213945e-06
38	0xb7631909	-1.3536083e-05
39	0x00000000	0.0
40	0x00000000	0.0
41	0xb777b522	-1.47645205e-05
42	0x38007c38	3.0633266e-05
43	0xb84d881f	-4.900258e-05
44	0xb7df7a0f	-2.664051e-05
45	0xb7242da2	-9.7857865e-06
46	0xb7b88956	-2.1998461e-05
47	0x00000000	0.0
48	0xb78bba60	-1.6656879e-05
49	0x3755ec09	1.2750746e-05
50	0xb7bca2d2	-2.2487166e-05
51	0xb6d02519	-6.203202e-06
52	0x00000004	6e-45
53	0x00000004	6e-45
54	0xb7a278cd	-1.9368157e-05
55	0x34e5142b	4.2669248e-07
56	0x00000004	6e-45
57	0xb8979bc3	-7.229254e-05
58	0x388d2a62	6.731298e-05
59	0x00000000	0.0
60	0x373afedf	1.1145806e-05
61	0x00000000	0.0
62	0x00000000	0.0
63	0xb75c2519	-1.3121659e-05

exp_avg_sq f4 [64]
0	0x00000000	0.0
1	0x340c3339	1.3057151e-07
2	0x2429a85e	3.6788646e-17
3	0x3548d416	7.481443e-07
4	0x2c979de7	4.309209e-12
5	0x3489fc1a	2.5701667e-07
6	0x00000000	0.0
7	0x00000000	0.0
8	0x34e65323	4.2901328e-07
9	0x349bb4d9	2.9002584e-07
10	0x35acec4e	1.2883772e-06
11	0x3400d719	1.1999181e-07
12	0x34436b13	1.8199744e-07
13	0x00000000	0.0
14	0x35539119	7.881477e-07
15	0x34db2447	4.0818324e-07
16	0x349f039c	2.9618684e-07
17	0x00000000	0.0
18	0x341d5756	1.4653537e-07
19	0x00000000	0.0
20	0x33d0fb26	9.7314384e-08
21	0x355f9414	8.3289456e-07
22	0x00000000	0.0
23	0x34f4a265	4.55667e-07
24	0x34947239	2.7650256e-07
25	0x3506c188	5.0200515e-07
26	0x343e81ee	1.7742397e-07
27	0x35387b95	6.8725177e-07
28	0x00000000	0.0
29	0x00000000	0.0
30	0x211dc8b1	5.345928e-19
31	0x2e8ca199	6.3951684e-11
32	0x3536d79a	6.8114025e-07
33	0x30122743	5.3170285e-10
34	0x00000000	0.0
35	0x34e09f97	4.1839368e-07
36	0x34221e00	1.509834e-07
37	0x348dc2e0	2.6405087e-07
38	0x353db505	7.0671405e-07
39	0x00000000	0.0
40	0x00000000	0.0
41	0x353516fa	6.746119e-07
42	0x359b1a7a	1.1556106e-06
43	0x348b6b43	2.596881e-07
44	0x3584605b	9.86281e-07
45	0x3508725f	5.083038e-07
46	0x352f1005	6.521589e-07
47	0x00000000	0.0
48	0x348c5b62	2.6143522e-07
49	0x34564909	1.9956873e-07
50	0x356d5608	8.841457e-07
51	0x342b94c5	1.5979738e-07
52	0x3235cbcb	1.0581924e-08
53	0x2a94c5dd	2.6427376e-13
54	0x35004ba5	4.7793793e-07
55	0x342799c0	1.5609021e-07
56	0x250ddaf5	1.2303986e-16
57	0x34a73e3e	3.115146e-07
58	0x34cc9822	3.8108652e-07
59	0x00000000	0.0
60	0x356804ed	8.6433903e-07
61	0x00000000	0.0
62	0x00000000	0.0
63	0x35519fe6	7.809125e-07

exp_avg f4 [2, 64]
0	0x00000000	0.0
1	0xb7a53c23	-1.9697536e-05
2	0x80000004	-6e-45
3	0x378fd4bb	1.7145989e-05
4	0x00000959	3.353e-42
5	0x3841a6de	4.6170193e-05
6	0x00000000	0.0
7	0x00000000	0.0
8	0xb898a9fb	-7.279586e-05
9	0xb82a13cc	-4.0549596e-05
10	0xb8031cc1	-3.1259613e-05
11	0xb8c77bbb	-9.512106e-05
12	0xb8347b62	-4.3030253e-05
13	0x00000000	0.0
14	0xb8aa01a3	-8.1065366e-05
15	0xb8c121f3	-9.209281e-05
16	0x38600c0a	5.3416974e-05
17	0x00000000	0.0
18	0xb8dbc01e	-0.000104785184
19	0x00000000	0.0
20	0xb803acee	-3.1393887e-05
21	0xb8c12072	-9.2090006e-05
22	0x00000000	0.0
23	0xb898f4b3	-7.2935036e-05
24	0x38350afd	4.3163996e-05
25	0x36582421	3.2207538e-06
26	0xb8ce17ba	-9.827265e-05
27	0xb4ca5c7b	-3.769272e-07
28	0x00000000	0.0
29	0x00000000	0.0
30	0x00000004	6e-45
31	0x00000004	6e-45
32	0xb8eab5e1	-0.00011191867
33	0x80000004	-6e-45
34	0x00000000	0.0
35	0xb92851ca	-0.00016052197
36	0xb893c25e	-7.04571e-05
37	0xb880bf3b	-6.139135e-05
38	0xb8d21bf2	-0.000100187855
39	0x00000000	0.0
40	0x00000000	0.0
41	0xb8a0794d	-7.6519886e-05
42	0x3776fa8a	1.4721076e-05
43	0xb8207ffa	-3.826616e-05
44	0xb84c3542	-4.868699e-05
45	0xb8b365f7	-8.5543776e-05
46	0xb78376a4	-1.5671663e-05
47	0x00000000	0.0
48	0xb772c59c	-1.4470334e-05
49	0x37ac542a	2.054319e-05
50	0xb8b0fa27	-8.4389285e-05
51	0xb83bae37	-4.4746525e-05
52	0x80000004	-6e-45
53	0x00000004	6e-45
54	0xb86c8eec	-5.639989e-05
55	0xb89744b9	-7.213042e-05
56	0x80000004	-6e-45
57	0x38267919	3.9690265e-05
58	0x3847b145	4.7610392e-05
59	0x00000000	0.0
60	0xb76c99aa	-1.4102474e-05
61	0x00000000	0.0
62	0x00000000	0.0
63	0xb908151d	-0.00012977836
64	0x00000000	0.0
65	0xb73dd3e3	-1.1314612e-05
66	0x00000004	6e-45
67	0xb7d4bf96	-2.5361584e-05
68	0x0000023b	8e-43
69	0x38d65bc5	0.000102214086
70	0x00000000	0.0
71	0x00000000	0.0
72	0xb91647d5	-0.00014331874
73	0x38946eea	7.077849e-05
74	0xb90608d2	-0.00012782522
75	0xb9819646	-0.0002471676
76	0x376b6752	1.4031148e-05
77	0x00000000	0.0
78	0xb745a945	-1.1781526e-05
79	0xb8f32c13	-0.000115953524
80	0x391a00b6	0.0001468685
81	0x00000000	0.0
82	0xb8c66e66	-9.461939e-05
83	0x00000000	0.0
84	0x391bcd96	0.00014858539
85	0xb903c0bb	-0.00012564931
86	0x00000000	0.0
87	0x376af701	1.4004997e-05
88	0x39006a8d	0.00012246725
89	0xb88d4359	-6.7359484e-05
90	0x378b134e	1.657908e-05
91	0x3957d01c	0.00020581525
92	0x00000000	0.0
93	0x00000000	0.0
94	0x80000004	-6e-45
95	0x00000004	6e-45
96	0xb97f2f0c	-0.00024336221
97	0x00000004	6e-45
98	0x00000000	0.0
99	0xb9365437	-0.00017388245
100	0x39469809	0.00018939389
101	0xb8bed3b1	-9.0993366e-05
102	0xb9377147	-0.00017494439
103	0x00000000	0.0
104	0x00000000	0.0
105	0xb8e6edee	-0.000110115725
106	0xb6715080	-3.5958656e-06
107	0xb98dfe6a	-0.0002708317
108	0xb810f738	-3.4562516e-05
109	0xb97bd908	-0.00024018076
110	0x38cb2abd	9.687755e-05
111	0x00000000	0.0
112	0x3926c9b8	0.0001590614
113	0x37d59a3c	2.54634e-05
114	0xb9016a08	-0.00012341898
115	0x39165ec5	0.00014340419
116	0x80000004	-6e-45
117	0x00000004	6e-45
118	0x385dfe41	5.29273e-05
119	0xb9868308	-0.00025656098
120	0x00000004	6e-45
121	0x38dd9059	0.00010564988
122	0x39264715	0.00015857474
123	0x00000000	0.0
124	0x3925ebfc	0.00015823537
125	0x00000000	0.0
126	0x00000000	0.0
127	0xb9131a8f	-0.00014028906
