001-machine_learning/data/00001-MLP-temperature/002_checkpoint.pth (torch_old, 111097 bytes, 24 tensors)

exp_avg f4 [64, 4]
4.9979153e-06 5.407057e-06 1.7720648e-05 1.2378742e-05 -0.0003377875 -0.00034629405 -0.00012950986 -0.00023550153
-4.3070602e-05 -3.9620416e-05 -2.1053835e-05 -2.2367656e-05 0.0 0.0 0.0 0.0
-0.00027171915 -0.00028260003 -0.0002859008 -0.00023894636 -0.000109516695 -0.00012596868 -0.0001834787 -0.00016608354
-0.00027786364 -0.0002872823 -0.00029336003 -0.00023601782 5.0472314e-05 6.707541e-05 0.00013714608 0.00013083944
-0.00032139174 -0.0003154205 -0.00018292798 -0.00018895106 -9.3845025e-05 -8.943143e-05 -8.311907e-05 -3.4905195e-05
0.0 0.0 0.0 0.0 3.6808196e-05 4.3893328e-05 2.1516695e-05 1.5953161e-05
0.0 0.0 0.0 0.0 -0.00036988076 -0.00038459647 -0.00038644767 -0.0003051894
-0.00038749556 -0.00043746183 -0.0006125238 -0.00055172 0.00047051493 0.0005450879 0.00072258804 0.00068659976
0.0 0.0 0.0 0.0 0.0 0.0 0.0 0.0
0.0 -7.3090023e-06 -3.322954e-07 -5.185721e-06 -4.2083958e-08 -9.176936e-10 -3.870871e-08 -7.620061e-09
0.0 0.0 0.0 0.0 0.0 0.0 0.0 0.0
0.00012902476 0.00015780181 0.00025692332 0.00025683834 -0.00023727572 -0.0002632837 -0.00032286363 -0.00029421662
-9.0158464e-05 -8.809049e-05 -0.00016767666 -9.8610646e-05 0.00020503304 0.00023619532 0.00033761194 0.00031568186
-0.00019559573 -0.00020121655 -0.00017845101 -0.00014658895 3.3916185e-05 3.724888e-05 5.336407e-05 5.9627666e-05
3.5201204e-08 4.2254095e-07 3.477217e-07 -1.2730301e-06 0.00013733027 0.00015922001 0.00022177589 0.00021645713
6e-45 -1.932583e-06 -1.7112518e-07 -1.3395709e-06 0.0 0.0 0.0 0.0
0.00036675157 0.00041732052 0.0005046303 0.00044181364 0.0 0.0 0.0 0.0
0.00034704508 0.00038741884 0.0004539379 0.00039159253 -5.8092024e-05 -7.7876866e-05 -0.00014232975 -0.00015122819
-1.1934535e-05 -1.1159391e-05 -1.1034645e-06 -8.001119e-06 -0.00043196674 -0.0004541963 -0.00033830374 -0.000388272
0.00021756504 0.00025218952 0.0003573234 0.00031532737 0.0 0.0 0.0 0.0
0.0 6.022949e-06 5.33997e-07 4.025286e-06 0.0001562843 0.000171935 0.00023208073 0.00019676951
0.0005268989 0.0006320205 0.00083129515 0.00078216364 0.0 0.0 0.0 0.0
-3.3554083e-05 -2.9196162e-05 -1.5970407e-05 9.095127e-06 -8.719713e-05 -7.867661e-05 1.7588904e-05 -4.4480596e-05
6e-45 6e-45 6e-45 6e-45 -9.7735916e-05 -0.00014753257 -0.0002531553 -0.00031039031
0.0 0.0 0.0 0.0 0.00017812641 0.0002008132 0.0002900584 0.000257379
-6.280273e-05 -8.476058e-05 -0.00015719292 -0.0001626024 0.0006960444 0.00070955517 0.00042843408 0.0005441505
0.0 0.0 0.0 0.0 0.00011485933 0.00013687673 0.00023426152 0.00020856888
0.0 1.1191792e-06 -8.89377e-07 9.1997737e-07 -6.588416e-05 -8.409734e-05 -0.00013146312 -0.00015819314
0.0 0.0 0.0 0.0 -0.00013104496 -0.00014938398 -0.00022670376 -0.00019329583
-8.836923e-06 -1.4255694e-05 -6.7345013e-06 -7.8828825e-06 -0.00027423172 -0.0003173629 -0.00045674777 -0.00043404536
0.0 0.0 0.0 0.0 -1.9046807e-05 -2.0501673e-05 -3.9270158e-06 -1.4777591e-05
-0.00012410554 -9.704588e-05 -7.800217e-05 -9.324639e-05 -2.213764e-06 -1.085667e-05 -6.6132365e-05 -6.9287926e-05
00000000: c4b3 a736 446e b536 cda6 9437 4bae 4f37
00000010: 1219 b1b9 cd8e b5b9 0acd 07b9 f6f0 76b9
00000020: b5a6 34b8 192e 26b8 c49c b0b7 2da2 bbb7
00000030: 0000 0000 0000 0000 0000 0000 0000 0000
00000040: 8775 8eb9 ef29 94b9 f5e4 95b9 ad8d 7ab9
00000050: 54ac e5b8 7616 04b9 3064 40b9 b626 2eb9
00000060: 3aae 91b9 619e 96b9 1ece 99b9 8d7b 77b9
00000070: 3cb2 5338 d6aa 8c38 dfce 0f39 f231 0939
00000080: 7880 a8b9 065f a5b9 5bd0 3fb9 2a21 46b9
00000090: aace c4b8 228d bbb8 3650 aeb8 2b67 12b8
000000a0: 0000 0000 0000 0000 0000 0000 0000 0000
000000b0: 8062 1a38 1a1a 3838 c07e b437 27d3 8537
000000c0: 0000 0000 0000 0000 0000 0000 0000 0000
000000d0: 8eec c1b9 aaa3 c9b9 219c cab9 d401 a0b9
000000e0: c628 cbb9 225b e5b9 c791 20ba 4da1 10ba
000000f0: 72af f639 3be4 0e3a 106c 3d3a eefc 333a
00000100: 0000 0000 0000 0000 0000 0000 0000 0000
00000110: 0000 0000 0000 0000 0000 0000 0000 0000
00000120: 0000 0000 da3f f5b6 5566 b2b4 0101 aeb6
00000130: cdbf 34b3 f240 7cb0 ad40 26b3 62e9 02b2
00000140: 0000 0000 0000 0000 0000 0000 0000 0000
00000150: 0000 0000 0000 0000 0000 0000 0000 0000
00000160: d24a 0739 9a77 2539 aab3 8639 42a8 8639
00000170: 37cd 78b9 5709 8ab9 0646 a9b9 1641 9ab9
00000180: 7513 bdb8 39bd b8b8 5cd2 2fb9 30cd ceb8
00000190: 23fe 5639 33ab 7739 8201 b139 1a82 a539
000001a0: d418 4db9 a8fd 52b9 941e 3bb9 acb5 19b9
000001b0: 3a41 0e38 ae3b 1c38 3cd3 5f38 b818 7a38
000001c0: 2230 1733 96d9 e234 82ae ba34 fbdc aab5
000001d0: 5000 1039 4cf4 2639 838c 6839 c5f8 6239
000001e0: 0400 0000 86b1 01b6 88be 37b4 4ecb b3b5
000001f0: 0000 0000 0000 0000 0000 0000 0000 0000
00000200: 9048 c039 d0cb da39 2b49 043a 39a3 e739
00000210: 0000 0000 0000 0000 0000 0000 0000 0000
00000220: 9af3 b539 7a1e cb39 83fe ed39 a94e cd39
00000230: d6a7 73b8 d351 a3b8 5a3e 15b9 0293 1eb9
00000240: 703a 48b7 3839 3bb7 c01a 94b5 8b3c 06b7
00000250: 9879 e2b9 3221 eeb9 5c5e b1b9 fc90 cbb9
00000260: 2c22 6439 4e38 8439 2357 bb39 8652 a539
00000270: 0000 0000 0000 0000 0000 0000 0000 0000
00000280: 0000 0000 bd18 ca36 ff57 0f35 f210 8736
00000290: 3fe0 2339 7349 3439 b25a 7339 ea53 4e39
000002a0: 961f 0a3a 2eae 253a 46eb 593a 1d0a 4d3a
000002b0: 0000 0000 0000 0000 0000 0000 0000 0000
000002c0: 6cbc 0cb8 48ea f4b7 30f8 85b7 4697 1837
000002d0: 9add b6b8 2fff a4b8 e28b 9337 ad90 3ab8
000002e0: 0400 0000 0400 0000 0400 0000 0400 0000
000002f0: 92f7 ccb8 f9b2 1ab9 eeb9 84b9 e2bb a2b9
00000300: 0000 0000 0000 0000 0000 0000 0000 0000
00000310: 72c7 3a39 6291 5239 fb12 9839 d3f0 8639
00000320: f5b4 83b8 7dc1 b1b8 27d4 24b9 4080 2ab9
00000330: c076 363a 7101 3a3a 739f e039 52a5 0e3a
00000340: 0000 0000 0000 0000 0000 0000 0000 0000
00000350: a2e0 f038 9186 0f39 19a4 7539 48b3 5a39
00000360: 0000 0000 b436 9635 86bd 6eb5 5df4 7635
00000370: 4a2b 8ab8 6a5d b0b8 5dd9 09b9 a6e0 25b9
00000380: 0000 0000 0000 0000 0000 0000 0000 0000
00000390: 1d69 09b9 f5a3 1cb9 54b7 6db9 74af 4ab9
000003a0: 4c42 14b7 bd2b 6fb7 edf8 e1b6 b940 04b7
000003b0: c2c6 8fb9 ba63 a6b9 a677 efb9 9590 e3b9
000003c0: 0000 0000 0000 0000 0000 0000 0000 0000
000003d0: b5c6 9fb7 02fb abb7 cfc4 83b6 45ed 77b7
000003e0: 5422 02b9 1c85 cbb8 1995 a3b8 468d c3b8
000003f0: 2d90 14b6 0b25 36b7 8bb0 8ab8 ac4e 91b8

exp_avg_sq f4 [64, 4]
2.0416008e-08 2.3959723e-08 3.1648867e-08 1.7320648e-08 9.810764e-08 2.3756415e-06 9.379403e-07 1.8825598e-06
6.4399e-08 9.860026e-08 8.849934e-08 6.651663e-08 0.0 0.0 0.0 0.0
2.2597706e-07 3.0019794e-07 1.8600046e-07 1.9855482e-07 4.552426e-07 6.90191e-07 2.5926033e-07 4.438477e-07
1.5198468e-07 1.7002677e-07 1.2849512e-07 1.0221407e-07 4.5391513e-07 6.49954e-07 3.8777532e-07 4.650672e-07
1.8008502e-07 4.6297842e-07 4.9257216e-07 4.6631953e-07 1.1788519e-07 1.05692024e-07 7.2366596e-08 6.042644e-08
0.0 0.0 0.0 0.0 1.1999823e-07 1.0251879e-07 5.0092208e-08 5.758135e-08
0.0 0.0 0.0 0.0 4.2357286e-07 4.8555665e-07 3.0049623e-07 3.2478673e-07
4.562651e-06 6.843113e-06 4.7405674e-06 5.18786e-06 6.7455057e-06 6.01489e-06 2.382149e-06 3.3992415e-06
0.0 0.0 0.0 0.0 0.0 0.0 0.0 0.0
0.0 1.9445652e-06 2.6350324e-06 2.3504165e-06 4.0580234e-11 1.1562022e-14 3.4199626e-11 1.3792835e-12
0.0 0.0 0.0 0.0 0.0 0.0 0.0 0.0
1.4335142e-06 2.0038972e-06 1.2815204e-06 1.485415e-06 9.805682e-07 1.299171e-06 9.1817066e-07 1.0091269e-06
1.5658385e-07 2.8152692e-07 1.7408814e-07 1.619218e-07 1.7130095e-06 2.516181e-06 1.7023497e-06 1.8758518e-06
7.57889e-08 4.855583e-08 3.1406767e-08 2.461833e-08 6.5014255e-08 1.0160715e-07 6.980522e-08 7.1325616e-08
6.443176e-08 5.6315606e-09 4.616396e-08 2.714347e-08 8.9757197e-07 1.181356e-06 8.402225e-07 9.1347096e-07
2.308284e-13 1.2548934e-07 1.5691842e-07 1.3937645e-07 0.0 0.0 0.0 0.0
1.9272773e-06 2.8148386e-06 1.8137633e-06 2.0756795e-06 0.0 0.0 0.0 0.0
1.095338e-06 9.90889e-07 3.7240608e-07 5.566939e-07 6.9300194e-07 8.96369e-07 7.016874e-07 7.18583e-07
1.6925036e-08 1.4855231e-08 1.0497882e-08 9.536584e-09 5.2538115e-07 6.741706e-07 4.7726445e-07 5.1944926e-07
1.4002642e-06 1.644638e-06 1.2470582e-06 1.2408345e-06 0.0 0.0 0.0 0.0
0.0 1.4999889e-06 1.5956373e-06 1.4954379e-06 4.059415e-07 5.547509e-07 3.5807054e-07 4.0252135e-07
9.521727e-06 1.3165253e-05 9.004414e-06 9.874528e-06 0.0 0.0 0.0 0.0
9.5929146e-08 1.2235819e-07 1.3129649e-07 1.0333576e-07 1.8580675e-07 4.9881884e-08 1.0302194e-07 4.1988127e-08
1.2300902e-20 5.1698307e-24 2.3358421e-21 2.5770305e-21 1.418825e-06 1.7329478e-06 5.903705e-07 1.0396014e-06
0.0 0.0 0.0 0.0 1.0367764e-06 1.5157743e-06 1.1382843e-06 1.1526555e-06
8.8216916e-07 9.565941e-07 3.38558e-07 5.778215e-07 6.8448423e-07 1.2265072e-06 8.782228e-07 9.3947807e-07
0.0 0.0 0.0 0.0 9.237181e-07 1.3954204e-06 9.104e-07 1.0226722e-06
0.0 4.828413e-07 1.1488414e-06 8.6364014e-07 7.348412e-07 1.0181908e-06 6.843254e-07 7.648756e-07
0.0 0.0 0.0 0.0 6.320671e-07 9.599946e-07 7.236717e-07 7.351649e-07
2.5829866e-08 1.278084e-07 1.6399399e-07 1.5638724e-07 3.3996484e-06 4.7627004e-06 3.1395941e-06 3.61602e-06
0.0 0.0 0.0 0.0 2.7899508e-10 1.221879e-07 1.9060428e-07 1.451029e-07
1.7434054e-07 5.732422e-08 8.7467185e-07 3.6940617e-07 1.2078209e-07 8.829241e-08 3.6990414e-08 4.3229022e-08
00000000: 475f af32 fdcf cd32 4cee 0733 82c8 9432
00000010: 3faf d233 366d 1f36 c4c6 7b35 43ac fc35
00000020: ba4b 8a33 11be d333 070d be33 e7d7 8e33
00000030: 0000 0000 0000 0000 0000 0000 0000 0000
00000040: 1aa4 7234 e42a a134 6bb7 4734 5532 5534
00000050: 1168 f434 9045 3935 7830 8b34 f749 ee34
00000060: 3b31 2334 9a90 3634 78f8 0934 c780 db33
00000070: 9fb1 f334 8078 2e35 6f2f d034 59ae f934
00000080: 655d 4134 458f f834 4d39 0435 785a fa34
00000090: 1228 fd33 cef8 e233 f567 9b33 c9c3 8133
000000a0: 0000 0000 0000 0000 0000 0000 0000 0000
000000b0: ddd8 0034 4d28 dc33 f724 5733 5d4f 7733
000000c0: 0000 0000 0000 0000 0000 0000 0000 0000
000000d0: 6967 e334 3357 0235 e353 a134 595e ae34
000000e0: e018 9936 e59d e536 2a11 9f36 6113 ae36
000000f0: 7457 e236 83d3 c936 02dd 1f36 861e 6436
00000100: 0000 0000 0000 0000 0000 0000 0000 0000
00000110: 0000 0000 0000 0000 0000 0000 0000 0000
00000120: 0000 0000 607f 0236 83d5 3036 d9bb 1d36
00000130: 4879 322e 6a48 5028 5b69 162e ed1d c22b
00000140: 0000 0000 0000 0000 0000 0000 0000 0000
00000150: 0000 0000 0000 0000 0000 0000 0000 0000
00000160: 2c67 c035 b17a 0636 b500 ac35 795e c735
00000170: 119c 8335 2d5f ae35 3578 7635 5671 8735
00000180: 7121 2834 c424 9734 fcec 3a34 badc 2d34
00000190: 8fea e535 a9db 2836 4a7c e435 c7c5 fb35
000001a0: 63c1 a233 b38b 5033 1be4 0633 4878 d332
000001b0: f79d 8b33 1f33 da33 d3e7 9533 ac2b 9933
000001c0: bc5d 8a33 bb7f c131 d045 4633 1f29 e932
000001d0: adf0 7035 158f 9e35 a78b 6135 3f35 7535
000001e0: e1f1 812a 3fbe 0634 687d 2834 82a7 1534
000001f0: 0000 0000 0000 0000 0000 0000 0000 0000
00000200: 5f56 0136 8fe6 3c36 6f70 f335 e74b 0b36
00000210: 0000 0000 0000 0000 0000 0000 0000 0000
00000220: 8703 9335 b0fe 8435 1aef c734 b76f 1535
00000230: bb06 3a35 029e 7035 975b 3c35 a6e4 4035
00000240: 8c62 9132 ff35 7f32 2c5a 3432 57d6 2332
00000250: eb07 0d35 a7f8 3435 5d1d 0035 4870 0b35
00000260: b6f0 bb35 55bd dc35 9860 a735 c08a a635
00000270: 0000 0000 0000 0000 0000 0000 0000 0000
00000280: 0000 0000 3a53 c935 ae29 d635 dbb6 c835
00000290: 2df0 d934 31ea 1435 d73c c034 1d1a d834
000002a0: 82bf 1f37 55e0 5c37 aa11 1737 c6aa 2537
000002b0: 0000 0000 0000 0000 0000 0000 0000 0000
000002c0: 9b01 ce33 9061 0334 81fa 0c34 6fe9 dd33
000002d0: 2c82 4734 b63d 5633 e93c dd33 6f56 3433
000002e0: 835b 681e 86ff c718 c27d 301d 05b7 421d
000002f0: 756e be35 a297 e835 f479 1e35 6f88 8b35
00000300: 0000 0000 0000 0000 0000 0000 0000 0000
00000310: 5e27 8b35 9c71 cb35 27c7 9835 f1b4 9a35
00000320: 34ce 6c35 5364 8035 0fc3 b534 971b 1b35
00000330: 66bd 3735 779e a435 03bf 6b35 7130 7c35
00000340: 0000 0000 0000 0000 0000 0000 0000 0000
00000350: 6df5 7735 484a bb35 3662 7435 c042 8935
00000360: 0000 0000 9a9c 0135 e431 9a35 e6d4 6735
00000370: e741 4535 c5a8 8835 7cb2 3735 da51 4d35
00000380: 0000 0000 0000 0000 0000 0000 0000 0000
00000390: 52ab 2935 2ad9 8035 5742 4235 2658 4535
000003a0: 7ae0 dd32 b53b 0934 5316 3034 66eb 2734
000003b0: 8425 6436 49cf 9f36 d1b1 5236 c0aa 7236
000003c0: 0000 0000 0000 0000 0000 0000 0000 0000
000003d0: 1161 992f c132 0334 e8a8 4c34 95cd 1b34
000003e0: 5d32 3b34 a534 7633 feca 6a35 cc52 c634
000003f0: 54b0 0134 449b bd33 64df 1e33 d0aa 3933

exp_avg f4 [64]
4.335978e-06 -0.0003451371 -4.443569e-05 0.0 -0.00026996908 -0.000106639956 -0.00027785823 4.782794e-05
-0.00032458783 -9.420056e-05 0.0 3.6808207e-05 0.0 -0.00036822847 -0.00037895312 0.00046943914
0.0 0.0 -6.9414564e-06 -4.2083958e-08 0.0 0.0 0.0001246079 -0.00023409554
-8.781405e-05 0.00019987712 -0.00019561249 3.2894495e-05 3.5197854e-08 0.00013428571 -1.8453246e-06 0.0
0.00036172284 0.0 0.00034629274 -5.535027e-05 -1.1443364e-05 -0.0004303732 0.00021588284 0.0
5.6014937e-06 0.00015386163 0.00051577936 0.0 -3.4496174e-05 -8.721218e-05 6e-45 -9.399037e-05
0.0 0.00017407109 -5.9870283e-05 0.0006921387 0.0 0.00011080383 8.403924e-07 -6.2790365e-05
0.0 -0.00012784005 -1.061677e-05 -0.00026763562 0.0 -2.0692985e-05 -0.0001240578 -2.214637e-06
00000000: c47d 9136 84f3 b4b9 7560 3ab8 0000 0000
00000010: a38a 8db9 e4a3 dfb8 80ad 91b9 dc9a 4838
00000020: 712d aab9 8a8d c5b8 0000 0000 8362 1a38
00000030: 0000 0000 ca0e c1b9 3aae c6b9 0e1f f639
00000040: 0000 0000 0000 0000 a8ea e8b6 cdbf 34b3
00000050: 0000 0000 0000 0000 2ea9 0239 8b77 75b9
00000060: cf28 b8b8 1b96 5139 541d 4db9 32f8 0938
00000070: 732c 1733 0ccf 0c39 dfac f7b5 0000 0000
00000080: 9ea5 bd39 0000 0000 a08e b539 e627 68b8
00000090: e0fc 3fb7 b7a3 e1b9 9c5e 6239 0000 0000
000000a0: 77f4 bb36 eb55 2139 5e35 073a 0000 0000
000000b0: fcaf 10b8 afe5 b6b8 0400 0000 b21c c5b8
000000c0: 0000 0000 da86 3639 3a1d 7bb8 a470 353a
000000d0: 0000 0000 5a5f e838 5397 6135 52ae 83b8
000000e0: 0000 0000 cd0c 06b9 ae1e 32b7 7251 8cb9
000000f0: 0000 0000 d995 adb7 8315 02b9 2d9f 14b6

exp_avg_sq f4 [64]
8.053007e-08 4.103041e-06 2.5884427e-07 0.0 4.9287166e-07 9.570861e-07 3.067073e-07 1.1048791e-06
1.293394e-06 2.1094921e-07 0.0 1.1999823e-07 0.0 7.723047e-07 1.2660469e-05 6.8733007e-06
0.0 0.0 6.217072e-06 4.058023e-11 0.0 0.0 3.4698392e-06 2.2875251e-06
5.586743e-07 4.5915613e-06 1.03860025e-07 1.986282e-07 6.443177e-08 2.1294566e-06 4.041711e-07 0.0
4.69227e-06 0.0 1.1113827e-06 1.7542123e-06 3.3874226e-08 1.1663348e-06 3.0554622e-06 0.0
3.9514885e-06 9.492402e-07 2.3474675e-05 0.0 3.291032e-07 2.2126922e-07 1.2300868e-20 1.920623e-06
0.0 2.973567e-06 1.0803041e-06 2.2418442e-06 0.0 2.5260233e-06 2.0642992e-06 1.8328092e-06
0.0 1.8799421e-06 4.336521e-07 8.191274e-06 0.0 4.365627e-07 1.2440652e-06 1.2079364e-07
00000000: e0ef ac33 dbac 8936 49f7 8a34 0000 0000
00000010: e24d 0435 3a75 8035 88a9 a434 5b4b 9435
00000020: ae98 ad35 4781 6234 0000 0000 ddd8 0034
00000030: 0000 0000 6050 4f35 4d68 5437 34a1 e636
00000040: 0000 0000 0000 0000 3e9c d036 4779 322e
00000050: 0000 0000 0000 0000 62db 6836 6283 1936
00000060: cef7 1535 3611 9a36 a709 df33 8146 5534
00000070: bd5d 8a33 c9e7 0e36 dafc d834 0000 0000
00000080: 4b72 9d36 0000 0000 d22a 9535 4772 eb35
00000090: 1b7d 1133 f58a 9c35 710c 4d36 0000 0000
000000a0: 0797 8436 4acf 7e35 7beb c437 0000 0000
000000b0: 99af b034 0596 6d34 595b 681e 0de4 0036
000000c0: 0000 0000 7e8d 4736 f7fe 9035 9772 1636
000000d0: 0000 0000 c084 2936 6488 0a36 d8fe f535
000000e0: 0000 0000 5252 fc35 b1d0 e834 416d 0937
000000f0: 0000 0000 b860 ea34 c1f9 a635 81b3 0134

exp_avg f4 [64, 64]
2.3668637e-05 -6.6168866e-09 5.69135e-06 0.0 3.061739e-05 1.6802047e-05 1.8629267e-05 2.0837511e-05
-2.3705572e-06 3.290188e-05 0.0 4.8950244e-07 0.0 1.085888e-05 1.249166e-05 -2.8574868e-06
0.0 0.0 2.6265103e-09 2.056031e-09 0.0 0.0 4.7480867e-06 3.0674295e-05
7.975044e-06 1.0326116e-05 6.8722798e-06 2.5512867e-05 2.6394687e-07 1.2429201e-05 1.0096726e-08 0.0
1.8276195e-06 0.0 2.9542039e-06 1.7319375e-05 2.1875418e-05 1.0893502e-06 2.7268222e-06 0.0
2.4488898e-09 2.4543442e-05 6.1961984e-08 0.0 4.5561246e-05 -2.7072242e-06 -6e-45 1.1990793e-05
0.0 1.3398383e-05 1.848596e-05 1.1999118e-07 0.0 2.9854862e-05 4.702647e-09 4.2142583e-05
0.0 2.5831456e-05 -6.3215674e-07 2.5617477e-05 0.0 -3.0615666e-08 -3.2544147e-06 8.027776e-06
-0.0002170773 -2.682217e-06 -9.71694e-05 0.0 -0.00029471723 -0.00013784422 -0.00012276822 -9.2189526e-05
-1.8567984e-07 -0.00026638454 0.0 8.275653e-07 0.0 -0.00011326089 -8.174015e-05 5.6442153e-05
0.0 0.0 3.280424e-07 3.7082348e-09 0.0 0.0 -8.271365e-05 -0.00022861961
-3.0483047e-06 -5.8105255e-05 -0.00012710328 -0.00020281966 1.9231706e-07 -9.176879e-05 1.0686701e-06 0.0
3.3138484e-05 0.0 4.985283e-05 -0.0001714675 -0.00020435012 -0.000121502926 -2.2338263e-05 0.0
3.817632e-07 -0.0002404438 4.0171326e-05 0.0 -0.00035833145 4.4810718e-06 -6e-45 -7.828722e-05
0.0 -9.1922404e-05 -0.00010235926 -5.3327744e-07 0.0 -0.00023715524 -1.3914098e-07 -0.0002352714
0.0 -0.00015968169 -1.6509354e-07 -0.00021340429 0.0 1.4356241e-06 -3.456574e-06 8.6024636e-07
0.0003872913 4.5992524e-06 0.00014183417 0.0 0.00042645328 0.00019818326 0.00016309734 0.00019800267
6.0231387e-06 0.0004036311 0.0 1.5860238e-05 0.0 0.00014676228 9.046313e-05 -3.7308746e-05
0.0 0.0 -3.8081734e-07 -6.2824483e-09 0.0 0.0 0.00016555932 0.00032184535
-2.0705476e-05 0.0001526497 0.00018767001 0.00030978047 -7.2603945e-07 0.00015624189 -8.63443e-07 0.0
-1.4945362e-05 0.0 -4.879095e-05 0.00024547963 0.00028092 6.783761e-05 8.2939376e-05 0.0
-6.4953687e-09 0.00041089274 -1.5253839e-05 0.0 0.0005534639 1.8237502e-05 0.0 4.736049e-05
0.0 0.00020370918 0.00012856614 6.923265e-06 0.0 0.00041010216 1.7197837e-07 0.00036783336
0.0 0.00022409292 -2.4480835e-06 0.00028147863 0.0 -9.938244e-07 4.73819e-07 -2.6361624e-05
-5.340585e-05 1.4941736e-06 -7.2149663e-07 0.0 -3.8265774e-05 -2.1793287e-05 -2.7274185e-05 -6.0456856e-05
-5.095196e-08 -5.3402786e-05 0.0 1.3020052e-07 0.0 -8.658134e-06 -1.1530102e-05 -1.5846928e-05
0.0 0.0 -1.4054194e-07 -1.0500273e-09 0.0 0.0 -1.686042e-05 -4.207052e-05
-1.34272495e-05 -4.0380815e-05 -2.4295675e-06 -4.1387568e-05 -1.8130021e-07 -2.712601e-05 -4.9508327e-07 0.0
-2.165978e-05 0.0 -2.2158963e-05 -1.8381133e-05 -2.2178841e-05 1.832364e-05 -2.0416797e-05 0.0
-1.7481953e-07 -4.9254984e-05 -2.0340576e-05 0.0 -7.676557e-05 -4.620821e-07 6e-45 -2.8560444e-06
0.0 -4.2710897e-05 -2.5472578e-05 -7.668696e-08 0.0 -6.448818e-05 2.9706857e-08 -8.1908816e-05
0.0 -3.974749e-05 -2.2102222e-07 -2.5142317e-05 0.0 -4.9513244e-07 3.6109702e-07 -1.4410905e-05
00000000: 038c c637 c05a e3b1 53f8 be36 0000 0000
00000010: 2c6b 0038 1ff2 8c37 0c46 9c37 37cc ae37
00000020: dd15 1fb6 2000 0a38 0000 0000 5a66 0335
00000030: 0000 0000 892e 3637 4593 5137 40c3 3fb6
00000040: 0000 0000 0000 0000 0f7e 3431 144a 0d31
00000050: 0000 0000 0000 0000 c151 9f36 46a8 0038
00000060: 8ecc 0537 553e 2d37 6f98 e636 7704 d637
00000070: 95b4 8d34 0387 5037 df75 2d32 0000 0000
00000080: 874c f535 0000 0000 d640 4636 1349 9137
00000090: 1a81 b737 ca35 9235 73fe 3636 0000 0000
000000a0: 5349 2831 a4e2 cd37 f60f 8533 0000 0000
000000b0: 0419 3f38 c2ad 35b6 0400 0080 102c 4937
000000c0: 0000 0000 9ec9 6037 4c12 9b37 edd6 0034
000000d0: 0000 0000 d470 fa37 ec94 a131 41c2 3038
000000e0: 0000 0000 a1b0 d837 7bb1 29b5 1de5 d637
000000f0: 0000 0000 487e 03b3 6b66 5ab6 09af 0637
00000100: 3e9f 63b9 2300 34b6 6dc7 cbb8 0000 0000
00000110: 4784 9ab9 478a 10b9 58bb 00b9 e055 c1b8
00000120: 495f 47b4 87a9 8bb9 0000 0000 db25 5e35
00000130: 0000 0000 7a86 edb8 e96b abb8 4dbc 6c38
00000140: 0000 0000 0000 0000 ce1d b034 f5d3 7e31
00000150: 0000 0000 0000 0000 8d76 adb8 9cb9 6fb9
00000160: 7a91 4cb6 0bb6 73b8 0747 05b9 fdab 54b9
00000170: b67f 4e34 fe73 c0b8 3a6f 8f35 0000 0000
00000180: 2dfe 0a38 0000 0000 1219 5138 f5cb 33b9
00000190: d146 56b9 63cf feb8 0e63 bbb7 0000 0000
000001a0: 22f5 cc34 a41f 7cb9 a27d 2838 0000 0000
000001b0: 6fde bbb9 1d5c 9636 0400 0080 222e a4b8
000001c0: 0000 0000 77c6 c0b8 b6a9 d6b8 8c26 0fb5
000001d0: 0000 0000 e0ac 78b9 c866 15b4 2fb3 76b9
000001e0: 0000 0000 3a70 27b9 9144 31b4 47c5 5fb9
000001f0: 0000 0000 abaf c035 7df7 67b6 aeeb 6635
00000200: 5c0d cb39 4753 9a36 52b9 1439 0000 0000
00000210: 9795 df39 6acf 4f39 1c05 2b39 f09e 4f39
00000220: 5e1a ca36 739e d339 0000 0000 9a0b 8537
00000230: 0000 0000 33e4 1939 06b7 bd38 f67b 1cb8
00000240: 0000 0000 0000 0000 2373 ccb4 00dd d7b1
00000250: 0000 0000 0000 0000 fe99 2d39 5abd a839
00000260: acb0 adb7 9810 2039 49c9 4439 086a a239
00000270: 0de5 42b5 ddd4 2339 5ac7 67b5 0000 0000
00000280: d7bd 7ab7 0000 0000 e2a4 4cb8 b8b3 8039
00000290: 7248 9339 0a44 8e38 bdef ad38 0000 0000
000002a0: de2d dfb1 176d d739 bdea 7fb7 0000 0000
000002b0: 5516 113a bdfc 9837 0000 0000 f0a4 4638
000002c0: 0000 0000 c49a 5539 b6cf 0639 654e e836
000002d0: 0000 0000 fb02 d739 0ea9 3834 c2d9 c039
000002e0: 0000 0000 7cfa 6a39 c149 24b6 6c93 9339
000002f0: 0000 0000 8c63 85b5 3061 fe34 2823 ddb7
00000300: 1800 60b8 6a8b c835 dfac 41b5 0000 0000
00000310: 907f 20b8 bad0 b6b7 deca e4b7 0e93 7db8
00000320: 46d6 5ab3 cefc 5fb8 0000 0000 3fcd 0b34
00000330: 0000 0000 6742 11b7 6971 41b7 05ef 84b7
00000340: 0000 0000 0000 0000 e0e7 16b4 8d50 90b0
00000350: 0000 0000 0000 0000 7a6f 8db7 e074 30b8
00000360: 9945 61b7 925e 29b8 a70b 23b6 9097 2db8
00000370: 6cab 42b4 aa8c e3b7 dde5 04b5 0000 0000
00000380: 06b2 b5b7 0000 0000 03e2 b9b7 2f31 9ab7
00000390: b30c bab7 b8b5 9937 bd44 abb7 0000 0000
000003a0: 07b6 3bb4 2397 4eb8 0ea1 aab7 0000 0000
000003b0: 34fd a0b8 1514 f8b4 0400 0000 78aa 3fb6
000003c0: 0000 0000 7a24 33b8 f2ad d5b7 1aaf a4b3
000003d0: 0000 0000 d43d 87b8 122e ff32 76c6 abb8
000003e0: 0000 0000 8bb6 26b8 2052 6db4 b7e8 d2b7
000003f0: 0000 0000 3ee9 04b5 ccdc c134 5ec6 71b7

exp_avg_sq f4 [64, 64]
2.9432218e-07 4.1167366e-16 7.378572e-08 0.0 3.2358227e-07 1.8465796e-08 9.559367e-08 1.5395699e-07
7.693949e-08 3.3668366e-07 0.0 1.4815973e-10 0.0 1.22534e-07 1.2299449e-08 1.741166e-08
0.0 0.0 4.4451496e-09 1.2437847e-13 0.0 0.0 1.7743864e-07 1.745135e-07
1.1745128e-08 1.06097836e-07 1.2561728e-07 1.4980459e-07 3.3963335e-10 1.0536099e-07 5.6991574e-08 0.0
1.3114849e-08 0.0 5.933644e-09 6.232102e-08 2.4467465e-07 1.06814774e-07 3.3257407e-08 0.0
2.9354374e-09 3.314423e-07 6.808395e-09 0.0 5.3145754e-07 5.6255134e-09 3.841811e-24 1.2682818e-09
0.0 8.244825e-08 2.1222682e-08 4.098937e-08 0.0 3.5799007e-07 1.120881e-08 2.830473e-07
0.0 6.6676925e-08 3.9123197e-08 3.4482984e-08 0.0 3.195399e-09 5.882912e-09 1.8751813e-08
1.0355075e-06 1.935494e-08 3.1712455e-07 0.0 1.154381e-06 1.6859104e-07 2.659484e-07 5.4494416e-07
1.0054496e-07 1.2508528e-06 0.0 1.6875346e-10 0.0 2.3753131e-07 8.731716e-08 8.017702e-09
0.0 0.0 8.488222e-09 3.5012008e-13 0.0 0.0 2.975081e-07 1.2083528e-06
7.4006174e-08 2.5412882e-07 2.752485e-07 7.8486113e-07 4.2893208e-10 2.898069e-07 1.6575217e-07 0.0
1.7992005e-07 0.0 8.482843e-09 4.4153938e-07 1.108841e-06 1.7207923e-07 5.1522978e-08 0.0
2.318463e-08 1.1755825e-06 5.0461132e-08 0.0 2.5309537e-06 3.5323757e-09 8.113396e-25 3.7746098e-08
0.0 3.724488e-07 1.3998739e-07 1.1952712e-07 0.0 1.3108527e-06 2.4481887e-08 1.6173103e-06
0.0 6.336916e-07 5.3965984e-08 4.1600825e-07 0.0 5.908957e-08 6.351517e-09 2.3250946e-08
5.487965e-07 1.833819e-08 1.2317489e-07 0.0 3.868375e-07 6.339533e-08 9.286446e-08 3.7398593e-07
2.757026e-08 5.007657e-07 0.0 1.214361e-09 0.0 5.2700905e-08 2.3167907e-08 1.9483132e-08
0.0 0.0 6.495362e-09 9.443663e-13 0.0 0.0 1.3617745e-07 4.7522542e-07
3.4218893e-08 2.0049255e-07 7.540452e-08 3.3295115e-07 5.844605e-10 1.3445602e-07 5.976164e-08 0.0
1.4907525e-07 0.0 1.7441334e-08 1.622249e-07 3.8250843e-07 2.061106e-08 5.390688e-08 0.0
4.4830557e-09 5.655337e-07 6.40302e-08 0.0 1.0882375e-06 7.852124e-09 0.0 8.899076e-09
0.0 2.7120373e-07 5.0664077e-08 4.9307047e-08 0.0 6.736946e-07 1.3755184e-09 7.981988e-07
0.0 2.7236163e-07 1.1243047e-08 1.3290871e-07 0.0 2.5316833e-08 1.5304961e-10 1.4393703e-08
8.65323e-08 2.8453453e-09 2.885805e-08 0.0 7.724e-08 9.7332435e-09 1.7225181e-08 5.0596697e-08
8.807305e-09 9.1280874e-08 0.0 2.0372606e-11 0.0 1.5571421e-08 5.3367355e-09 2.0899582e-09
0.0 0.0 1.1680646e-09 2.9448334e-14 0.0 0.0 2.6970865e-08 9.9165455e-08
7.3220403e-09 2.598065e-08 1.9433747e-08 6.0887345e-08 1.0164606e-10 2.479555e-08 1.566707e-08 0.0
2.3898172e-08 0.0 1.0478638e-09 3.3990652e-08 9.2534066e-08 9.081684e-09 5.9590937e-09 0.0
1.4791671e-09 9.596153e-08 7.623668e-09 0.0 1.9647507e-07 8.140773e-10 2.9769792e-26 1.7732886e-09
0.0 3.653411e-08 7.5663165e-09 1.1728335e-08 0.0 1.0764605e-07 8.07928e-10 1.3085922e-07
0.0 5.1970172e-08 4.0973425e-09 2.5822718e-08 0.0 6.237354e-09 1.0367179e-10 1.7546871e-09
00000000: 5503 9e34 4f50 ed25 2174 9e33 0000 0000
00000010: cfb8 ad34 b79e 9e32 2d49 cd33 604f 2534
00000020: ef39 a533 73c1 b434 0000 0000 42e7 222f
00000030: 0000 0000 e491 0334 8c4d 5332 a590 9532
00000040: 0000 0000 0000 0000 f3bb 9831 a709 0c2a
00000050: 0000 0000 0000 0000 f685 3e34 e861 3b34
00000060: 9fc7 4932 e7d7 e333 6ae1 0634 f9d9 2034
00000070: 25b7 ba2f d142 e233 e6c6 7433 0000 0000
00000080: b74f 6132 0000 0000 e2e0 cb31 58d5 8533
00000090: d45b 8334 0b62 e533 e8d6 0e33 0000 0000
000000a0: c3b8 4931 15f1 b134 47ef e931 0000 0000
000000b0: 7ca9 0e35 8a4a c131 749f 9418 b34f ae30
000000c0: 0000 0000 680e b133 2c4d b632 4a0c 3033
000000d0: 0000 0000 c831 c034 de90 4032 baf5 9734
000000e0: 0000 0000 0730 8f33 6908 2833 711a 1433
000000f0: 0000 0000 0e96 5b31 a422 ca31 ac13 a132
00000100: c4fb 8a35 f741 a632 4441 aa34 0000 0000
00000110: 3bf0 9a35 f405 3534 abc7 8e34 4748 1235
00000120: 2deb d733 fae2 a735 0000 0000 e08b 392f
00000130: 0000 0000 1c0c 7f34 1e83 bb33 3abe 0932
00000140: 0000 0000 0000 0000 98d3 1132 9f19 c52a
00000150: 0000 0000 0000 0000 34b9 9f34 b02e a235
00000160: 53ed 9e33 336f 8834 dec5 9334 3faf 5235
00000170: d3ce eb2f c296 9b34 9cf9 3134 0000 0000
00000180: 0c30 4134 0000 0000 f0bb 1132 b60c ed34
00000190: 7dd3 9435 c7c4 3834 1d4a 5d33 0000 0000
000001a0: 8a27 c732 b5c8 9d35 9aba 5833 0000 0000
000001b0: 74d9 2936 36be 7231 f218 7b17 461e 2233
000001c0: 0000 0000 f9f4 c734 714f 1634 5d57 0034
000001d0: 0000 0000 8ef0 af35 3d4c d232 5c12 d935
000001e0: 0000 0000 f51a 2a35 3ac8 6733 bd57 df34
000001f0: 0000 0000 abc9 7d33 893c da31 5fb9 c732
00000200: 0251 1335 1b86 9d32 0e42 0434 0000 0000
00000210: 8bae cf34 f423 8833 c76c c733 3cc8 c834
00000220: a5d3 ec32 5b6c 0635 0000 0000 87e6 a630
00000230: 0000 0000 4259 6233 c402 c732 dc5b a732
00000240: 0000 0000 0000 0000 cf2d df31 62e8 842b
00000250: 0000 0000 0000 0000 2c38 1234 7c22 ff34
00000260: 12f8 1233 f946 5734 13ee a133 75c0 b234
00000270: c0a7 2030 fd5e 1034 4f56 8033 0000 0000
00000280: 7e11 2034 0000 0000 e6d1 9532 0a30 2e34
00000290: 8f5b cd34 330c b132 3e87 6733 0000 0000
000002a0: 6009 9a31 2ecf 1735 fa80 8933 0000 0000
000002b0: 8e0f 9235 02e6 0632 0000 0000 8de2 1832
000002c0: 0000 0000 f599 9134 be99 5933 acc5 5333
000002d0: 0000 0000 f1d7 3435 c00c bd30 ce43 5635
000002e0: 0000 0000 1939 9234 7227 4132 abb5 0e34
000002f0: 0000 0000 4e78 d932 a347 282f 2d48 7732
00000300: a3d3 b933 d887 4331 86e3 f732 0000 0000
00000310: 24df a533 4237 2732 93f6 9332 a84f 5933
00000320: f04e 1732 3106 c433 0000 0000 0833 b32d
00000330: 0000 0000 ebc1 8532 6c5e b731 ef9e 0f31
00000340: 0000 0000 0000 0000 9f89 a030 9e9f 0429
00000350: 0000 0000 0000 0000 8fad e732 c9f4 d433
00000360: 5995 fb31 0e2c df32 43ef a632 2cc1 8233
00000370: a585 df2e fefd d432 4094 8632 0000 0000
00000380: a348 cd32 0000 0000 6e04 9030 1efd 1133
00000390: 24b7 c633 ab05 1c32 bec0 cc31 0000 0000
000003a0: 914b cb30 6913 ce33 3ff9 0232 0000 0000
000003b0: a8f6 5234 99c5 5f30 b269 1315 0cb8 f330
000003c0: 0000 0000 aee9 1c33 03fd 0132 c37d 4932
000003d0: 0000 0000 0b2b e733 e114 5e30 4f82 0c34
000003e0: 0000 0000 cf35 5f33 9bc8 8c31 c2d0 dd32
000003f0: 0000 0000 5950 d631 08fa e32e 9029 f130

exp_avg f4 [64]
2.5052015e-05 -0.00016813367 0.00029542652 -5.829234e-05 0.0 -0.00046555602 -0.00027803628 0.0
0.0 0.0 0.0 0.00036723792 5.5988534e-05 0.0 0.00012977903 0.0
-0.00011191648 0.00017207365 7.437725e-05 -9.04139e-05 -0.00014579152 -0.00014294752 0.0 3.0313342e-05
-6.617511e-06 0.00019913395 0.0 0.0 -1.4785937e-05 0.0 0.0 -2.1042684e-10
6.86454e-05 8.292816e-06 7.310307e-05 0.0 -0.000100292 4.328223e-05 0.0 0.00015858626
6e-45 -0.00011249165 2.7892858e-05 0.0 -2.1402435e-05 3.1643365e-05 0.0 0.0
-0.00017422116 0.00027154852 -0.0002157233 -8.4239204e-05 -3.7842183e-05 6.562148e-05 -5.366924e-05 0.0
0.0 -0.00024004129 0.00020243616 0.0004083653 0.0 6.753509e-05 -5.2536776e-05 0.0
00000000: cb26 d237 0a4d 30b9 7ae3 9a39 ec7e 74b8
00000010: 0000 0000 df15 f4b9 66c5 91b9 0000 0000
00000020: 0000 0000 0000 0000 0000 0000 d789 c039
00000030: 3bd5 6a38 0000 0000 4b15 0839 0000 0000
00000040: b4b4 eab8 ab6e 3439 fbfa 9b38 989c bdb8
00000050: 9ddf 18b9 2fe4 15b9 0000 0000 6849 fe37
00000060: fd0b deb6 9dce 5039 0000 0000 0000 0000
00000070: 1e11 78b7 0000 0000 0000 0000 e45d 67af
00000080: b8f5 8f38 6021 0b37 e94e 9938 0000 0000
00000090: dc53 d2b8 f189 3538 0000 0000 2d4a 2639
000000a0: 0400 0000 7fe9 ebb8 75fb e937 0000 0000
000000b0: 6189 b3b7 ceb8 0438 0000 0000 0000 0000
000000c0: 23af 36b9 a05e 8e39 c833 62b9 94a9 b0b8
000000d0: bcb8 1eb8 449e 8938 e81a 61b8 0000 0000
000000e0: 0000 0000 98b3 7bb9 0b45 5439 dd19 d639
000000f0: 0000 0000 a0a1 8d38 ef5a 5cb8 0000 0000

exp_avg_sq f4 [64]
5.181186e-07 1.4927948e-06 7.0767294e-07 1.3665567e-07 0.0 3.9413067e-06 1.3062742e-06 0.0
0.0 0.0 0.0 9.685865e-07 2.7583337e-07 0.0 8.0241017e-07 0.0
4.136096e-07 1.1457821e-06 1.5269895e-06 1.9619918e-06 2.6316793e-06 3.8711087e-06 0.0 1.7626991e-07
2.847874e-07 6.39897e-07 0.0 0.0 1.2531063e-06 0.0 0.0 1.0584179e-09
1.2839605e-06 1.9994093e-07 5.235351e-07 0.0 4.672244e-07 3.6652186e-06 0.0 1.9258296e-07
2.5536494e-20 8.7006606e-07 3.9220322e-07 0.0 7.8930746e-08 2.4397517e-07 0.0 0.0
3.4637614e-07 2.205462e-06 7.335287e-07 7.7466467e-07 9.604635e-08 3.1820384e-06 1.4741397e-07 0.0
0.0 4.3742628e-07 6.043277e-06 1.0073794e-06 0.0 2.2852694e-06 5.1975115e-07 0.0
00000000: d714 0b35 0a5c c835 eaf6 3d35 a0bb 1234
00000010: 0000 0000 913f 8436 3d53 af35 0000 0000
00000020: 0000 0000 0000 0000 0000 0000 6100 8235
00000030: 4016 9434 0000 0000 3565 5735 0000 0000
00000040: 120e de34 c6c8 9935 f6f2 cc35 c3aa 0336
00000050: e89b 3036 92e4 8136 0000 0000 b444 3d34
00000060: e2e4 9834 63c5 2b35 0000 0000 0000 0000
00000070: 6830 a835 0000 0000 0000 0000 c577 9130
00000080: 8c54 ac35 58af 5634 0f89 0c35 0000 0000
00000090: d5d6 fa34 faf7 7536 0000 0000 cdc8 4e34
000000a0: 742f f11e 7c8e 6935 0090 d234 0000 0000
000000b0: a380 a933 b1fb 8234 0000 0000 0000 0000
000000c0: 93f5 b934 8c01 1436 b5e7 4435 8df2 4f35
000000d0: 0a42 ce33 018b 5536 d848 1e34 0000 0000
000000e0: 0000 0000 69d7 ea34 5bc7 ca36 4b35 8735
000000f0: 0000 0000 a15c 1936 0785 0b35 0000 0000

exp_avg f4 [64, 64]
-5.88894e-09 0.00011190986 -4.2975873e-05 3.414098e-05 0.0 0.00010951041 0.00019002194 0.0
0.0 0.0 0.0 -6.556862e-05 -2.4896059e-05 0.0 3.4604232e-05 0.0
0.00011124584 -5.7214264e-05 8.177586e-06 0.00014511119 0.000117919015 0.00013027954 0.0 5.7887657e-05
6.414322e-05 -5.2863743e-06 0.0 0.0 6.8507657e-06 0.0 0.0 -1.7314502e-11
2.4616038e-05 2.1070994e-06 -4.261036e-06 0.0 5.581378e-05 -2.0596439e-05 0.0 -4.222599e-05
0.0 1.791548e-05 7.3454474e-05 0.0 8.850144e-05 1.1966302e-05 0.0 0.0
4.0314848e-05 -4.965013e-05 3.598862e-05 2.6032347e-05 1.6215146e-05 -3.4419947e-05 7.052751e-05 0.0
0.0 6.915455e-05 -7.896273e-05 2.7923268e-05 0.0 -6.265185e-05 3.4695197e-05 0.0
1.0409643e-07 9.411749e-05 -3.8841812e-05 2.4529843e-05 0.0 9.1858805e-05 0.00015752047 0.0
0.0 0.0 0.0 -5.2107916e-05 -2.1997517e-05 0.0 2.5460355e-05 0.0
8.812294e-05 -5.0904975e-05 9.521315e-07 0.00011997366 9.68523e-05 0.00010896457 0.0 4.5832283e-05
5.2975283e-05 -5.2487994e-06 0.0 0.0 3.4249417e-06 0.0 0.0 -1.3236491e-11
1.790438e-05 -1.049549e-06 -6.1267347e-06 0.0 4.332651e-05 -1.7464366e-05 0.0 -3.3158758e-05
-6e-45 1.2722395e-05 5.738088e-05 0.0 7.0612834e-05 7.1456157e-06 0.0 0.0
3.3671426e-05 -4.3896544e-05 2.8476788e-05 1.9596153e-05 1.289641e-05 -3.0338451e-05 5.685181e-05 0.0
0.0 5.732495e-05 -6.473507e-05 2.3272787e-05 0.0 -5.525885e-05 2.3905677e-05 0.0
8.6501865e-07 5.7478494e-05 -7.2809955e-05 -2.4711175e-05 0.0 0.0001031735 0.00010704232 0.0
0.0 0.0 0.0 -7.292816e-05 -4.7294823e-05 0.0 -3.539725e-05 0.0
-1.9766985e-05 -9.105606e-05 -5.9216967e-05 7.364142e-05 5.8969017e-05 5.690759e-05 0.0 4.2855895e-06
1.371217e-05 -1.1570242e-05 0.0 0.0 -4.6931757e-05 0.0 0.0 -8.398515e-12
-6.4314336e-05 -4.2365315e-05 -6.253894e-05 0.0 -2.5600157e-06 -4.7785554e-05 0.0 -3.7379297e-05
0.0 -1.1087053e-05 -2.7143971e-05 0.0 -9.645887e-06 -3.6531434e-05 0.0 0.0
2.3930284e-05 -7.164233e-05 -9.395668e-06 -1.6401133e-05 -1.9809007e-05 -4.8941023e-05 1.8815002e-05 0.0
0.0 6.473758e-05 -9.169039e-05 2.8967035e-05 0.0 -9.9441895e-05 -2.2342943e-05 0.0
2.2544022e-07 -3.9228707e-05 -6.6613884e-06 -1.1106317e-05 0.0 1.300232e-07 -3.220092e-05 0.0
0.0 0.0 0.0 -5.3071002e-05 -2.1210124e-05 0.0 -2.7535743e-05 0.0
-6.1094564e-05 -1.596211e-05 -5.9966364e-06 -2.862335e-05 -1.5936446e-05 -4.7434307e-05 0.0 -2.0326741e-05
-3.123582e-05 8.24394e-06 0.0 0.0 -3.0107536e-05 0.0 0.0 -1.3431946e-11
-6.133525e-05 -1.7050954e-05 -3.315748e-05 0.0 -1.4805135e-05 -3.402747e-05 0.0 -3.3458487e-05
-6e-45 -4.266592e-06 -5.2283904e-05 0.0 -4.77013e-05 -1.6666236e-05 0.0 0.0
-1.1456746e-05 1.3996132e-06 -2.4436193e-05 -2.1409602e-05 -2.580372e-05 -9.3561985e-06 -1.7552955e-05 0.0
0.0 3.865409e-07 -4.7162062e-05 -6.821304e-06 0.0 -2.5051277e-05 3.7512375e-06 0.0
00000000: aa57 cab1 26b1 ea38 fe40 34b8 9932 0f38
00000010: 0000 0000 f4a8 e538 a040 4739 0000 0000
00000020: 0000 0000 0000 0000 0000 0000 e381 89b8
00000030: e1d7 d0b7 0000 0000 0324 1138 0000 0000
00000040: a84c e938 59f9 6fb8 7732 0937 fd28 1839
00000050: 4a4b f738 a69b 0839 0000 0000 66cc 7238
00000060: a184 8638 9c61 b1b6 0000 0000 0000 0000
00000070: a1df e536 0000 0000 0000 0000 cb4c 98ad
00000080: 8a7e ce37 b167 0d36 05fa 8eb6 0000 0000
00000090: 9719 6a38 84c6 acb7 0000 0000 d01b 31b8
000000a0: 0000 0000 3349 9637 920b 9a38 0000 0000
000000b0: d999 b938 e0c2 4837 0000 0000 0000 0000
000000c0: bd17 2938 6c3f 50b8 7df2 1638 0a60 da37
000000d0: c305 8837 235e 10b8 2be8 9338 0000 0000
000000e0: 0000 0000 1107 9138 cb98 a5b8 c33c ea37
000000f0: 0000 0000 f563 83b8 af85 1138 0000 0000
00000100: 9e8b df33 f160 c538 14ea 22b8 70c5 cd37
00000110: 0000 0000 52a4 c038 142c 2539 0000 0000
00000120: 0000 0000 0000 0000 0000 0000 738e 5ab8
00000130: 4f87 b8b7 0000 0000 b293 d537 0000 0000
00000140: a5ce b838 cd82 55b8 fa95 7f35 5e9a fb38
00000150: 2f1d cb38 e883 e438 0000 0000 0a3c 4038
00000160: c731 5e38 d81e b0b6 0000 0000 0000 0000
00000170: 0dd8 6536 0000 0000 0000 0000 dbdb 68ad
00000180: 5d31 9637 3bde 8cb5 4094 cdb6 0000 0000
00000190: 7cb9 3538 7180 92b7 0000 0000 f213 0bb8
000001a0: 0400 0080 4572 5537 40ac 7038 0000 0000
000001b0: fa15 9438 5fc4 ef36 0000 0000 0000 0000
000001c0: 6b3a 0d38 8e1d 38b8 70e1 ee37 6b62 a437
000001d0: a95d 5837 547f feb7 2b74 6e38 0000 0000
000001e0: 0000 0000 3270 7038 60c2 87b8 ee39 c337
000001f0: 0000 0000 bdc5 67b8 0d89 c837 0000 0000
00000200: a133 6835 1015 7138 8cb1 98b8 d84a cfb7
00000210: 0000 0000 da5e d838 e87b e038 0000 0000
00000220: 0000 0000 0000 0000 0000 0000 02f1 98b8
00000230: 6e5e 46b8 0000 0000 8277 14b8 0000 0000
00000240: 47d1 a5b7 5af5 beb8 bc5f 78b8 f06f 9a38
00000250: 8055 7738 0fb0 6e38 0000 0000 efcc 8f36
00000260: 520d 6637 d01d 42b7 0000 0000 0000 0000
00000270: 97d8 44b8 0000 0000 0000 0000 8dbf 13ad
00000280: 7fe0 86b8 69b1 31b8 5627 83b8 0000 0000
00000290: bccc 2bb6 596d 48b8 0000 0000 b7c7 1cb8
000002a0: 0000 0000 8802 3ab7 3cb3 e3b7 0000 0000
000002b0: c5d4 21b7 5439 19b8 0000 0000 0000 0000
000002c0: e5bd c837 af3e 96b8 16a2 1db7 2a95 89b7
000002d0: 852b a6b7 0646 4db8 e9d4 9d37 0000 0000
000002e0: 0000 0000 b9c3 8738 e749 c0b8 3cfe f237
000002f0: 0000 0000 768b d0b8 1b6d bbb7 0000 0000
00000300: 8910 7234 8189 24b8 e484 dfb6 4555 3ab7
00000310: 0000 0000 819c 0b34 790f 07b8 0000 0000
00000320: 0000 0000 0000 0000 0000 0000 8e98 5eb8
00000330: 65ec b1b7 0000 0000 8ffc e6b7 0000 0000
00000340: e51f 80b8 5fe6 85b7 b736 c9b6 2d1c f0b7
00000350: 42af 85b7 33f4 46b8 0000 0000 5883 aab7
00000360: 3503 03b8 744f 0a37 0000 0000 0000 0000
00000370: 718f fcb7 0000 0000 0000 0000 1b4c 6cad
00000380: 1da1 80b8 a508 8fb7 9312 0bb8 0000 0000
00000390: 9263 78b7 b8b8 0eb8 0000 0000 c755 0cb8
000003a0: 0400 0080 bf29 8fb6 6a4b 5bb8 0000 0000
000003b0: e212 48b8 78ce 8bb7 0000 0000 0000 0000
000003c0: 5936 40b7 58da bb35 53fc ccb7 c598 b3b7
000003d0: 1175 d8b7 91f8 1cb7 af3e 93b7 0000 0000
000003e0: 0000 0000 c785 cf34 e1cf 45b8 8ee2 e4b6
000003f0: 0000 0000 3525 d2b7 c5bd 7b36 0000 0000

exp_avg_sq f4 [64, 64]
4.9082644e-10 1.7841295e-07 3.93085e-08 1.7306185e-07 0.0 9.238044e-09 6.7458825e-07 0.0
0.0 0.0 0.0 5.3249117e-08 2.1739858e-07 0.0 3.9258154e-07 0.0
1.1763716e-06 9.803708e-08 3.762306e-07 3.3584934e-07 2.0359462e-07 3.1995816e-07 0.0 3.2996715e-07
1.07493534e-07 1.0339156e-07 0.0 0.0 3.123968e-07 0.0 0.0 2.4466976e-13
6.3729044e-07 3.697996e-07 2.581643e-07 0.0 3.004003e-07 1.2497843e-07 0.0 2.7200606e-08
0.0 3.2339125e-07 8.79087e-07 0.0 7.3040184e-07 1.3331086e-07 0.0 0.0
1.05504775e-07 6.866247e-08 2.10691e-07 3.0508423e-07 1.3695251e-07 1.3514743e-07 1.838974e-07 0.0
0.0 2.8727032e-09 1.1430037e-07 5.0102464e-09 0.0 2.48553e-07 2.0461208e-07 0.0
3.3924658e-10 1.3579375e-07 2.5000531e-08 1.1943855e-07 0.0 7.153052e-09 4.901737e-07 0.0
0.0 0.0 0.0 3.5035622e-08 1.451951e-07 0.0 2.716666e-07 0.0
8.3232527e-07 6.2280975e-08 2.5277072e-07 2.495831e-07 1.5145734e-07 2.431045e-07 0.0 2.2926677e-07
8.0457355e-08 6.9659244e-08 0.0 0.0 2.1422615e-07 0.0 0.0 1.500092e-13
4.4237345e-07 2.4948028e-07 1.7745336e-07 0.0 2.082314e-07 8.410781e-08 0.0 1.878568e-08
1.3391627e-22 2.1877675e-07 6.162264e-07 0.0 5.1318113e-07 9.177296e-08 0.0 0.0
7.2604365e-08 4.3942247e-08 1.4611776e-07 2.0939692e-07 9.5883905e-08 8.8830255e-08 1.3163672e-07 0.0
0.0 2.2613031e-09 7.457332e-08 3.0663405e-09 0.0 1.6217446e-07 1.394139e-07 0.0
7.068885e-10 2.493434e-07 2.6805154e-08 1.6949268e-07 0.0 1.3737065e-08 7.844896e-07 0.0
0.0 0.0 0.0 3.6909558e-08 1.614389e-07 0.0 3.5021114e-07 0.0
1.2321464e-06 6.1198946e-08 3.0717715e-07 4.2147076e-07 2.5692145e-07 4.3219748e-07 0.0 3.07042e-07
1.5001066e-07 7.3518414e-08 0.0 0.0 2.731752e-07 0.0 0.0 1.03352304e-13
6.1671943e-07 2.9950263e-07 2.265997e-07 0.0 3.00333e-07 9.995777e-08 0.0 1.6477669e-08
0.0 2.642378e-07 8.362059e-07 0.0 7.566816e-07 1.270993e-07 0.0 0.0
1.0669185e-07 4.505402e-08 2.1354272e-07 2.6826172e-07 1.2928116e-07 1.0384555e-07 2.0200996e-07 0.0
0.0 4.4550847e-09 8.707263e-08 2.4357238e-09 0.0 1.825606e-07 1.8387526e-07 0.0
3.0964767e-10 1.3028018e-08 2.3777627e-08 3.6580378e-08 0.0 2.2548287e-13 4.0446825e-08 0.0
0.0 0.0 0.0 2.6340695e-08 4.4944567e-08 0.0 8.519505e-08 0.0
1.8621641e-07 4.309049e-08 8.345875e-08 2.317227e-08 1.3018121e-08 2.5168685e-08 0.0 4.7966168e-08
1.308737e-08 1.8361431e-08 0.0 0.0 6.451585e-08 0.0 0.0 8.419992e-14
1.3411419e-07 6.6786654e-08 6.622938e-08 0.0 4.0956724e-08 3.510921e-08 0.0 1.0678326e-08
7.7061634e-27 4.2940833e-08 1.5920537e-07 0.0 1.16988765e-07 2.988634e-08 0.0 0.0
8.374674e-09 2.4860478e-08 3.233963e-08 4.7614023e-08 2.5773831e-08 2.9158212e-08 2.0706581e-08 0.0
0.0 8.9352875e-14 4.1125624e-08 3.238238e-09 0.0 7.327896e-08 3.7142687e-08 0.0
00000000: d7ea 0630 c791 3f34 27d4 2833 e1d2 3934
00000010: 0000 0000 59b5 1e32 5a15 3535 0000 0000
00000020: 0000 0000 0000 0000 0000 0000 06b4 6433
00000030: 116e 6934 0000 0000 ffc3 d234 0000 0000
00000040: d2e3 9d35 7488 d233 bdfc c934 c84e b434
00000050: aa9b 5a34 b7c6 ab34 0000 0000 5726 b134
00000060: 32d7 e633 1c08 de33 0000 0000 0000 0000
00000070: 7db7 a734 0000 0000 0000 0000 a1bc 892a
00000080: 4412 2b35 df88 c634 d599 8a34 0000 0000
00000090: b446 a134 cf31 0634 0000 0000 c4a6 e932
000000a0: 0000 0000 8e9e ad34 66fa 6b35 0000 0000
000000b0: d510 4435 3624 0f34 0000 0000 0000 0000
000000c0: dd91 e233 9873 9333 4d3a 6234 75ca a334
000000d0: 380d 1334 0b1d 1134 5575 4534 0000 0000
000000e0: 0000 0000 2169 4531 4b75 f533 9826 ac31
000000f0: 0000 0000 dd70 8534 57b3 5b34 0000 0000
00000100: b680 ba2f b4ce 1134 c0c0 d632 053f 0034
00000110: 0000 0000 e9c6 f531 7b94 0335 0000 0000
00000120: 0000 0000 0000 0000 0000 0000 137a 1633
00000130: ede6 1b34 0000 0000 93d9 9134 0000 0000
00000140: f56c 5f35 54bf 8533 8bb4 8734 71fe 8534
00000150: 47a0 2234 0784 8234 0000 0000 5f2c 7634
00000160: e6c7 ac33 9397 9533 0000 0000 0000 0000
00000170: 0906 6634 0000 0000 0000 0000 35e5 282a
00000180: 587f ed34 4ff0 8534 028a 3e34 0000 0000
00000190: 3696 5f34 c29e b433 0000 0000 265e a132
000001a0: 14e5 211b e5e8 6a34 c16a 2535 0000 0000
000001b0: 8ac1 0935 b814 c533 0000 0000 0000 0000
000001c0: acea 9b33 03bb 3c33 8be4 1c34 96d6 6034
000001d0: bce8 cd33 f3c2 be33 0758 0d34 0000 0000
000001e0: 0000 0000 4465 1b31 1e25 a033 a2b7 5231
000001f0: 0000 0000 2d22 2e34 cdb1 1534 0000 0000
00000200: db4e 4230 7fdd 8534 2841 e632 cbfd 3534
00000210: 0000 0000 4000 6c32 b795 5235 0000 0000
00000220: 0000 0000 0000 0000 0000 0000 7d86 1e33
00000230: fd57 2d34 0000 0000 a704 bc34 0000 0000
00000240: 3a60 a535 7a6c 8333 1bea a434 8046 e234
00000250: 04ef 8934 c508 e834 0000 0000 88d7 a434
00000260: 9e12 2134 2de1 9d33 0000 0000 0000 0000
00000270: eaa8 9234 0000 0000 0000 0000 8cba e829
00000280: a38c 2535 54cb a034 404f 7334 0000 0000
00000290: 743d a134 5da8 d633 0000 0000 c78a 8d32
000002a0: 0000 0000 91dc 8d34 a277 6035 0000 0000
000002b0: c31e 4b35 ca78 0834 0000 0000 0000 0000
000002c0: 771e e533 6b81 4133 2d4a 6534 9c05 9034
000002d0: 89d0 0a34 b201 df33 13e8 5834 0000 0000
000002e0: 0000 0000 5713 9931 affc ba33 b561 2731
000002f0: 0000 0000 e005 4434 3f6f 4534 0000 0000
00000300: 093b aa2f d4d1 5f32 8e3f cc32 8d1c 1d33
00000310: 0000 0000 03df 7d2a c1b7 2d33 0000 0000
00000320: 0000 0000 0000 0000 0000 0000 cd43 e232
00000330: 1309 4133 0000 0000 79f4 b633 0000 0000
00000340: c7f2 4734 7f12 3933 ef39 b333 5c0c c732
00000350: 4da6 5f32 8632 d832 0000 0000 5c03 4e33
00000360: ddd6 6032 37b9 9d32 0000 0000 0000 0000
00000370: f78b 8a33 0000 0000 0000 0000 f399 bd29
00000380: 0701 1034 5a6c 8f33 fd39 8e33 0000 0000
00000390: 65e8 2f33 fcca 1633 0000 0000 c673 3732
000003a0: e4a2 1814 f26d 3833 0af2 2a34 0000 0000
000003b0: 413b fb33 615c 0033 0000 0000 0000 0000
000003c0: 35e0 0f32 c58c d532 cde5 0a33 2c80 4c33
000003d0: 4165 dd32 9677 fa32 41de b132 0000 0000
000003e0: 0000 0000 6d34 c929 1aa2 3033 af87 5e31
000003f0: 0000 0000 895d 9d33 d186 1f33 0000 0000

exp_avg f4 [64]
8.400904e-05 6.818517e-05 -3.577372e-05 -8.912916e-05 -0.000459766 -3.442652e-06 3.865877e-05 0.0
6e-45 0.0 0.0 0.00046699075 0.0 0.0 1.6674052e-05 7.6457996e-05
0.0 -5.6180124e-05 6e-45 -7.984253e-05 9.701162e-06 0.00013499137 0.00018826511 2.1950736e-05
-7.639417e-05 0.0 -0.00012767258 8.700901e-05 0.0 0.0 -6e-45 0.0001417219
6e-45 9.316316e-31 0.0 0.0 0.0 -5.003939e-07 -4.959443e-05 -3.470021e-05
0.0 -3.2653872e-05 4.7386806e-05 2.397456e-05 0.0 0.0 0.00047605264 0.0
0.0 6e-45 0.0 0.0 -0.00015612197 6e-45 0.0 0.0
6e-45 -0.00011267619 6e-45 -0.0001581864 -1.7191398e-05 -4.8946054e-05 3.86692e-05 1.3222265e-05
00000000: 032e b038 a2fe 8e38 bd0b 16b8 daea bab8
00000010: bf0c f1b9 5008 67b6 8a25 2238 0000 0000
00000020: 0400 0000 0000 0000 0000 0000 70d6 f439
00000030: 0000 0000 0000 0000 41df 8b37 1358 a038
00000040: 0000 0000 f3a2 6bb8 0400 0000 2271 a7b8
00000050: 2cc2 2237 788c 0d39 0869 4539 d922 b837
00000060: cf35 a0b8 0000 0000 d9df 05b9 9b78 b638
00000070: 0000 0000 0000 0000 0400 0080 2f9b 1439
00000080: 0400 0000 762a 970d 0000 0000 0000 0000
00000090: 0000 0000 cf52 06b5 9d03 50b8 118b 11b8
000000a0: 0000 0000 d4f5 08b8 32c1 4638 fa1c c937
000000b0: 0000 0000 0000 0000 b496 f939 0000 0000
000000c0: 0000 0000 0400 0000 0000 0000 0000 0000
000000d0: acb4 23b9 0400 0000 0000 0000 0000 0000
000000e0: 0400 0000 924c ecb8 0400 0000 d7de 25b9
000000f0: 3f36 90b7 6d4b 4db8 bd30 2238 32d5 5d37

exp_avg_sq f4 [64]
1.9300985e-06 1.3472692e-06 1.8360674e-06 3.089405e-07 1.4467361e-06 5.3471643e-07 1.1067021e-06 0.0
7.321634e-21 0.0 0.0 8.227859e-07 0.0 0.0 4.0911328e-07 2.9222375e-07
0.0 4.5540688e-08 2.2165454e-13 7.8344897e-07 5.2555674e-07 1.879503e-07 5.395729e-07 2.2807656e-06
4.629547e-07 0.0 2.7723766e-07 1.7220954e-07 0.0 0.0 3.1294098e-15 3.1927445e-07
2.1725182e-14 2.265749e-15 0.0 0.0 0.0 1.2083031e-12 2.9323422e-07 1.3369881e-06
0.0 1.934784e-06 4.7090225e-08 1.1248039e-06 0.0 0.0 1.2088223e-06 0.0
0.0 3.0709326e-19 0.0 0.0 1.3995813e-06 2.6700379e-13 0.0 0.0
1.0747761e-13 6.045788e-07 2.7594494e-19 9.643782e-07 5.668019e-09 4.296229e-07 3.1103798e-07 2.2422885e-06
00000000: d786 0136 d1d3 b435 cc6e f635 76dc a534
00000010: 792d c235 6f89 0f35 ff89 9435 0000 0000
00000020: 404d 0a1e 0000 0000 0000 0000 6bdd 5c35
00000030: 0000 0000 0000 0000 1aa4 db34 ede2 9c34
00000040: 0000 0000 8498 4333 928f 792a 344e 5235
00000050: fc13 0d35 63cf 4934 2bd7 1035 410f 1936
00000060: 028c f834 0000 0000 41d7 9434 99e8 3834
00000070: 0000 0000 0000 0000 6c7f 6127 bf68 ab34
00000080: dcae c328 b143 2327 0000 0000 0000 0000
00000090: 0000 0000 b50d aa2b ce6d 9d34 9072 b335
000000a0: 0000 0000 56d7 0136 4040 4a33 f8f7 9635
000000b0: 0000 0000 0000 0000 d13e a235 0000 0000
000000c0: 0000 0000 9f46 b520 0000 0000 0000 0000
000000d0: 3fd9 bb35 4d4f 962a 0000 0000 0000 0000
000000e0: a004 f229 574a 2235 9fe3 a220 c86f 8135
000000f0: 6cc0 c231 eca6 e634 bcfc a634 397a 1636

exp_avg f4 [2, 64]
-0.00079547585 -0.00082050974 -0.00066671864 0.0003455357 0.0011479731 -0.00063035137 -0.00087877765 0.0
6e-45 0.0 0.0 0.0002778242 0.0 0.0 0.0004038611 -0.00050588296
0.0 -0.0001966327 -6e-45 -0.0005835823 -0.00054694456 0.00034415905 0.000113955655 -0.00080443517
0.00036030923 0.0 -0.00032842925 0.00014509457 0.0 0.0 6e-45 0.000677714
6e-45 1.9414976e-36 0.0 0.0 0.0 2.888541e-07 0.0013666184 -0.0011020487
0.0 -0.00064171985 0.00039786584 -0.00082276744 0.0 0.0 0.00034915932 0.0
0.0 6e-45 0.0 0.0 0.0015180883 -6e-45 0.0 0.0
-6e-45 -0.0007576472 6e-45 -0.0003350088 -0.00010001671 -0.0006259488 -0.0007003254 -0.00073933305
0.00016100884 0.0001380317 0.00032407432 8.9368834e-05 0.00019055895 0.00045188196 0.000200406 0.0
-6e-45 0.0 0.0 3.3650917e-06 0.0 0.0 0.000386922 0.00035391285
0.0 0.00037805276 -6e-45 0.00019114296 0.00047278992 3.7139722e-05 0.0002092476 0.0005713374
0.000111549234 0.0 0.000350754 -7.8672665e-06 0.0 0.0 -6e-45 0.00011601895
-6e-45 4.1981885e-38 0.0 0.0 0.0 -3.520889e-07 0.0002216383 0.00026111858
0.0 0.00018390632 -1.9008608e-05 0.0003319075 0.0 0.0 -1.5609096e-06 0.0
0.0 -6e-45 0.0 0.0 0.00018540504 -6e-45 0.0 0.0
-6e-45 0.0001527694 -6e-45 0.0005815845 0.00016072845 0.00017772095 0.00013849945 0.00012113236
00000000: 7b87 50ba 7a17 57ba bbc6 2eba 0429 b539
00000010: 9677 963a 2a3e 25ba c55d 66ba 0000 0000
00000020: 0400 0000 0000 0000 0000 0000 efa8 9139
00000030: 0000 0000 0000 0000 52bd d339 3b9d 04ba
00000040: 0000 0000 302f 4eb9 0400 0080 8cfb 18ba
00000050: d460 0fba 3f70 b439 7afb ee38 bbe0 52ba
00000060: e3e7 bc39 0000 0000 0731 acb9 8724 1839
00000070: 0000 0000 0000 0000 0400 0000 9ea8 313a
00000080: 0400 0000 132a 2504 0000 0000 0000 0000
00000090: 0000 0000 ce13 9b34 1b20 b33a 9e72 90ba
000000a0: 0000 0000 1739 28ba a698 d039 fdae 57ba
000000b0: 0000 0000 0000 0000 5f0f b739 0000 0000
000000c0: 0000 0000 0400 0000 0000 0000 0000 0000
000000d0: 97fa c63a 0400 0080 0000 0000 0000 0000
000000e0: 0400 0080 d89c 46ba 0400 0000 1fa4 afb9
000000f0: 10c0 d1b8 b616 24ba 0b96 37ba cdcf 41ba
00000100: 7bd4 2839 9abc 1039 85e8 a939 876b bb38
00000110: c7d0 4739 92ea ec39 1324 5239 0000 0000
00000120: 0400 0080 0000 0000 0000 0000 d6d3 6136
00000130: 0000 0000 0000 0000 cbdb ca39 618d b939
00000140: 0000 0000 6235 c639 0400 0080 8c6d 4839
00000150: cae0 f739 79c6 1b38 7a69 5b39 cec5 153a
00000160: 8aef e938 0000 0000 68e5 b739 a7fd 03b7
00000170: 0000 0000 0000 0000 0400 0080 334f f338
00000180: 0400 0080 3592 6401 0000 0000 0000 0000
00000190: 0000 0000 bb06 bdb4 9467 6839 bee6 8839
000001a0: 0000 0000 fad6 4039 ad74 9fb7 df03 ae39
000001b0: 0000 0000 0000 0000 7280 d1b5 0000 0000
000001c0: 0000 0000 0400 0080 0000 0000 0000 0000
000001d0: 4969 4239 0400 0080 0000 0000 0000 0000
000001e0: 0400 0080 b930 2039 0400 0080 7a75 183a
000001f0: 3789 2839 9b5a 3a39 2a3a 1139 7108 fe38
