001-machine_learning/data/00001-MLP-temperature/002_checkpoint.pth (torch_old, 111075 bytes, 24 tensors)

exp_avg f4 [64, 4]
0.0 0.0 0.0 0.0 0.0 0.0 0.0 0.0
0.0 0.0 0.0 0.0 0.0 -3.5347468e-05 -2.8423781e-05 -7.4807617e-06
0.0 0.0 0.0 0.0 0.0 4.303653e-05 7.530148e-05 4.5779103e-05
0.0 -3.9995008e-05 3.2674197e-05 6.451323e-06 0.0 0.0 0.0 0.0
0.0 3.229987e-05 5.8960344e-05 3.991761e-05 0.0 6.000143e-05 9.964713e-05 5.1465744e-05
0.0 0.0 0.0 0.0 0.0 0.0 0.0 0.0
0.0 1.351546e-05 2.7886761e-05 2.5514593e-05 0.0 -7.325544e-05 -7.356491e-05 -1.7769215e-05
0.0 0.0 0.0 0.0 0.0 0.0 0.0 0.0
0.0 0.0 0.0 0.0 0.0 0.0 0.0 0.0
0.0 0.0 0.0 0.0 0.0 1.903171e-09 3.789454e-09 4.078685e-09
0.0 -3.7923106e-05 -3.2637494e-05 -5.402688e-06 0.0 -2.3236113e-05 -2.2282125e-05 -8.5470765e-06
0.0 0.0 0.0 0.0 0.0 0.0 0.0 0.0
0.0 -4.5480756e-05 -3.2834192e-05 -3.8757542e-05 0.0 -2.9297342e-05 -5.3977914e-05 -3.1288895e-05
0.0 7.503516e-06 1.8563502e-05 1.8376879e-05 0.0 5.2864275e-06 4.798522e-06 4.4955573e-06
0.0 0.0 0.0 0.0 0.0 0.0 0.0 0.0
0.0 0.0 0.0 0.0 0.0 2.9106224e-05 6.145068e-05 4.0487674e-05
0.0 1.5144311e-06 5.572969e-07 -4.834561e-07 0.0 -1.6622895e-05 -3.581464e-05 -1.9723944e-05
0.0 -0.00010115994 -2.0325162e-06 1.9059765e-06 0.0 6.7674364e-06 6.5120844e-07 2.6413807e-06
0.0 0.0 0.0 0.0 0.0 -2.5335712e-05 -5.4774617e-05 -3.8251375e-05
0.0 0.0 0.0 0.0 0.0 -6.493452e-05 -1.32937075e-05 -1.172554e-05
0.0 -4.6890276e-05 -4.6745277e-05 -5.2260853e-05 0.0 -0.000114303366 -7.920873e-06 -3.6806532e-06
0.0 -5.2636526e-08 4.34475e-06 -1.6883693e-06 0.0 -6.5091313e-06 2.3121744e-05 2.2367543e-05
0.0 0.0 0.0 0.0 0.0 8.930447e-05 0.00012287225 5.3570082e-05
0.0 -5.560228e-05 -6.849288e-05 -3.37652e-05 0.0 -4.201143e-05 -4.3123655e-05 -2.3644297e-05
0.0 1.5670034e-06 6.855056e-05 9.218129e-06 0.0 0.0 0.0 0.0
0.0 0.0 0.0 0.0 0.0 6e-45 6e-45 6e-45
0.0 8.587531e-06 9.104406e-06 6.7673136e-06 0.0 7.4343785e-05 0.00010364568 5.964149e-05
0.0 -4.6083438e-05 -6.1477054e-05 -3.401646e-05 0.0 0.00015360871 0.000217555 9.6297656e-05
0.0 4.793652e-05 7.988217e-05 5.214474e-05 0.0 -0.00010582323 -4.6829213e-05 -3.6282818e-05
0.0 -9.712546e-05 -7.0724745e-05 -3.1316402e-05 0.0 -5.620833e-07 1.5000742e-05 1.977833e-05
0.0 -3.0373965e-05 -2.0443304e-05 -2.906616e-05 0.0 1.4158978e-05 5.1410557e-06 1.9676514e-05
0.0 -8.7806045e-05 -0.00012324228 -7.606068e-05 0.0 1.5521538e-05 3.7906655e-05 2.7022632e-05
00000000: 0000 0000 0000 0000 0000 0000 0000 0000
00000010: 0000 0000 0000 0000 0000 0000 0000 0000
00000020: 0000 0000 0000 0000 0000 0000 0000 0000
00000030: 0000 0000 0e42 14b8 9b6f eeb7 4103 fbb6
00000040: 0000 0000 0000 0000 0000 0000 0000 0000
00000050: 0000 0000 1f82 3438 2deb 9d38 f002 4038
00000060: 0000 0000 50c0 27b8 a70b 0938 7178 d836
00000070: 0000 0000 0000 0000 0000 0000 0000 0000
00000080: 0000 0000 b979 0738 304c 7738 356d 2738
00000090: 0000 0000 0baa 7b38 a5f9 d038 ecdc 5738
000000a0: 0000 0000 0000 0000 0000 0000 0000 0000
000000b0: 0000 0000 0000 0000 0000 0000 0000 0000
000000c0: 0000 0000 75c0 6237 5dee e937 2c08 d637
000000d0: 0000 0000 b7a0 99b8 dc46 9ab8 190f 95b7
000000e0: 0000 0000 0000 0000 0000 0000 0000 0000
000000f0: 0000 0000 0000 0000 0000 0000 0000 0000
00000100: 0000 0000 0000 0000 0000 0000 0000 0000
00000110: 0000 0000 0000 0000 0000 0000 0000 0000
00000120: 0000 0000 0000 0000 0000 0000 0000 0000
00000130: 0000 0000 f0c8 0231 6434 8231 7e24 8c31
00000140: 0000 0000 a00f 1fb8 3ee4 08b8 bd48 b5b6
00000150: 0000 0000 2ceb c2b7 80ea bab7 6a65 0fb7
00000160: 0000 0000 0000 0000 0000 0000 0000 0000
00000170: 0000 0000 0000 0000 0000 0000 0000 0000
00000180: 0000 0000 97c2 3eb8 72b7 09b8 988f 22b8
00000190: 0000 0000 90c3 f5b7 5866 62b8 323c 03b8
000001a0: 0000 0000 b6c6 fb36 d1b8 9b37 0c28 9a37
000001b0: 0000 0000 1162 b136 fd02 a136 8bd8 9636
000001c0: 0000 0000 0000 0000 0000 0000 0000 0000
000001d0: 0000 0000 0000 0000 0000 0000 0000 0000
000001e0: 0000 0000 0000 0000 0000 0000 0000 0000
000001f0: 0000 0000 2429 f437 15df 8038 4fd1 2938
00000200: 0000 0000 7543 cb35 2799 1535 dac6 01b5
00000210: 0000 0000 6571 8bb7 ad37 16b8 d974 a5b7
00000220: 0000 0000 d425 d4b8 5d66 08b6 dbd0 ff35
00000230: 0000 0000 d613 e336 b4ce 2e35 9342 3136
00000240: 0000 0000 0000 0000 0000 0000 0000 0000
00000250: 0000 0000 0788 d4b7 ccbd 65b8 1a70 20b8
00000260: 0000 0000 0000 0000 0000 0000 0000 0000
00000270: 0000 0000 742d 88b8 0a08 5fb7 d0b8 44b7
00000280: 0000 0000 0dac 44b8 5c10 44b8 aa32 5bb8
00000290: 0000 0000 27b6 efb8 e4e3 04b7 2401 77b6
000002a0: 0000 0000 7912 62b3 1ec9 9136 ed9b e2b5
000002b0: 0000 0000 0369 dab6 91f5 c137 efa1 bb37
000002c0: 0000 0000 0000 0000 0000 0000 0000 0000
000002d0: 0000 0000 f948 bb38 45d7 0039 70b0 6038
000002e0: 0000 0000 7e36 69b8 d6a3 8fb8 1c9f 0db8
000002f0: 0000 0000 6e35 30b8 acdf 34b8 be57 c6b7
00000300: 0000 0000 d451 d235 cdc2 8f38 90a7 1a37
00000310: 0000 0000 0000 0000 0000 0000 0000 0000
00000320: 0000 0000 0000 0000 0000 0000 0000 0000
00000330: 0000 0000 0400 0000 0400 0000 0400 0000
00000340: 0000 0000 2a13 1037 20bf 1837 c812 e336
00000350: 0000 0000 04e9 9b38 5a5c d938 9027 7a38
00000360: 0000 0000 b749 41b8 3eed 80b8 e5ac 0eb8
00000370: 0000 0000 0612 2139 7a1f 6439 69f3 c938
00000380: 0000 0000 720f 4938 6a86 a738 fdb5 5a38
00000390: 0000 0000 6aed ddb8 7c6a 44b8 612e 18b8
000003a0: 0000 0000 d6af cbb8 0f52 94b8 bb59 03b8
000003b0: 0000 0000 12e2 16b5 b2ab 7b37 a4e9 a537
000003c0: 0000 0000 98cb feb7 a97d abb7 1ad3 f3b7
000003d0: 0000 0000 598c 6d37 5581 ac36 fe0e a537
000003e0: 0000 0000 8324 b8b8 993a 01b9 c482 9fb8
000003f0: 0000 0000 4034 8237 f6fd 1e38 a9ae e237

exp_avg_sq f4 [64, 4]
0.0 0.0 0.0 0.0 0.0 0.0 0.0 0.0
0.0 0.0 0.0 0.0 0.0 1.5396761e-08 8.893912e-09 4.6502313e-09
0.0 0.0 0.0 0.0 0.0 1.1956918e-07 7.094567e-08 3.3828922e-08
0.0 3.440078e-07 3.027381e-07 1.6329781e-07 0.0 0.0 0.0 0.0
0.0 1.09745834e-07 6.902773e-08 3.6392656e-08 0.0 1.7309729e-07 8.148949e-08 3.2866737e-08
0.0 0.0 0.0 0.0 0.0 0.0 0.0 0.0
0.0 3.659221e-08 3.4738388e-08 2.009942e-08 0.0 1.05600435e-07 6.8830346e-08 3.19551e-08
0.0 0.0 0.0 0.0 0.0 0.0 0.0 0.0
0.0 0.0 0.0 0.0 0.0 0.0 0.0 0.0
0.0 0.0 0.0 0.0 0.0 4.3645327e-11 2.0792805e-09 4.1650863e-10
0.0 3.116574e-08 1.8556655e-08 1.0054015e-08 0.0 7.5108355e-09 4.5446766e-09 1.8735347e-09
0.0 0.0 0.0 0.0 0.0 0.0 0.0 0.0
0.0 1.7682888e-08 2.1449894e-08 2.3031408e-08 0.0 9.2849874e-08 5.9489114e-08 2.8941995e-08
0.0 3.275985e-08 3.6905373e-08 2.3547843e-08 0.0 9.396749e-10 2.591657e-09 7.792325e-10
0.0 0.0 0.0 0.0 0.0 0.0 0.0 0.0
0.0 0.0 0.0 0.0 0.0 1.1644696e-07 7.8031526e-08 4.027467e-08
0.0 4.4056994e-09 1.8742268e-08 6.1521086e-09 0.0 3.2577173e-08 1.276969e-08 3.1668772e-09
0.0 4.22692e-08 1.8739472e-08 4.9033483e-10 0.0 4.8014956e-09 1.900193e-08 3.804207e-09
0.0 0.0 0.0 0.0 0.0 1.576641e-07 8.9096446e-08 6.718478e-08
0.0 0.0 0.0 0.0 0.0 1.4561675e-07 1.4043748e-07 6.2446276e-08
0.0 1.06155255e-07 2.3432325e-07 2.0555592e-07 0.0 7.426348e-08 1.8135962e-08 8.603697e-10
0.0 6.529698e-09 2.5343372e-09 1.7177099e-09 0.0 5.1495633e-08 4.6180546e-08 2.6584173e-08
0.0 0.0 0.0 0.0 0.0 3.5649856e-07 4.0133376e-08 6.1607803e-09
0.0 7.803655e-08 3.556001e-08 1.2046581e-08 0.0 3.0447453e-08 1.567719e-08 6.3304015e-09
0.0 1.998244e-07 1.2111241e-07 3.5741383e-08 0.0 0.0 0.0 0.0
0.0 0.0 0.0 0.0 0.0 2.0879251e-17 5.2349585e-18 3.5939313e-21
0.0 5.7172618e-09 6.3876655e-09 4.371189e-09 0.0 1.5753945e-07 5.658356e-08 1.355783e-08
0.0 6.7802866e-08 3.7354997e-08 1.6228366e-08 0.0 1.2402584e-06 4.073256e-07 5.196967e-08
0.0 1.8592173e-07 1.4370198e-07 7.768676e-08 0.0 1.282874e-08 1.1703381e-08 2.4941635e-09
0.0 6.881579e-08 2.5902159e-08 7.585836e-09 0.0 5.500415e-08 5.9486293e-08 3.5253457e-08
0.0 5.7627595e-08 1.2007506e-07 7.186962e-08 0.0 1.284259e-07 4.1056538e-07 3.1866497e-07
0.0 3.8247828e-07 2.5659838e-07 1.263758e-07 0.0 5.5381328e-08 4.5276238e-08 2.4782022e-08
00000000: 0000 0000 0000 0000 0000 0000 0000 0000
00000010: 0000 0000 0000 0000 0000 0000 0000 0000
00000020: 0000 0000 0000 0000 0000 0000 0000 0000
00000030: 0000 0000 d641 8432 d7cb 1832 dec7 9f31
00000040: 0000 0000 0000 0000 0000 0000 0000 0000
00000050: 0000 0000 ed62 0034 cb5a 9833 4b4b 1133
00000060: 0000 0000 12b0 b834 0288 a234 f656 2f34
00000070: 0000 0000 0000 0000 0000 0000 0000 0000
00000080: 0000 0000 69ad eb33 653c 9433 264e 1c33
00000090: 0000 0000 9fdc 3934 52ff ae33 5c29 0d33
000000a0: 0000 0000 0000 0000 0000 0000 0000 0000
000000b0: 0000 0000 0000 0000 0000 0000 0000 0000
000000c0: 0000 0000 8f29 1d33 4333 1533 18a7 ac32
000000d0: 0000 0000 74c6 e233 e2cf 9333 013f 0933
000000e0: 0000 0000 0000 0000 0000 0000 0000 0000
000000f0: 0000 0000 0000 0000 0000 0000 0000 0000
00000100: 0000 0000 0000 0000 0000 0000 0000 0000
00000110: 0000 0000 0000 0000 0000 0000 0000 0000
00000120: 0000 0000 0000 0000 0000 0000 0000 0000
00000130: 0000 0000 45f4 3f2e 17e3 0e31 61fa e42f
00000140: 0000 0000 18db 0533 8466 9f32 07ba 2c32
00000150: 0000 0000 0109 0132 6627 9c31 92bf 0031
00000160: 0000 0000 0000 0000 0000 0000 0000 0000
00000170: 0000 0000 0000 0000 0000 0000 0000 0000
00000180: 0000 0000 15e5 9732 d140 b832 9ad6 c532
00000190: 0000 0000 c264 c733 f980 7f33 1f9c f832
000001a0: 0000 0000 d6b3 0c33 e381 1e33 4146 ca32
000001b0: 0000 0000 df25 8130 e918 3231 9d31 5630
000001c0: 0000 0000 0000 0000 0000 0000 0000 0000
000001d0: 0000 0000 0000 0000 0000 0000 0000 0000
000001e0: 0000 0000 0000 0000 0000 0000 0000 0000
000001f0: 0000 0000 6511 fa33 4992 a733 78fa 2c33
00000200: 0000 0000 f160 9731 affe a032 8562 d331
00000210: 0000 0000 fbea 0b33 b161 5b32 4ba0 5931
00000220: 0000 0000 7a8b 3533 89f8 a032 3fc8 0630
00000230: 0000 0000 67fa a431 b039 a332 29b6 8231
00000240: 0000 0000 0000 0000 0000 0000 0000 0000
00000250: 0000 0000 614a 2934 4a55 bf33 3947 9033
00000260: 0000 0000 0000 0000 0000 0000 0000 0000
00000270: 0000 0000 d45a 1c34 29cb 1634 341a 8633
00000280: 0000 0000 78f7 e333 499a 7b34 c8b6 5c34
00000290: 0000 0000 c87a 9f33 67c9 9b32 237f 6c30
000002a0: 0000 0000 d55b e031 8828 2e31 8b14 ec30
000002b0: 0000 0000 0c2c 5d33 0c58 4633 375b e432
000002c0: 0000 0000 0000 0000 0000 0000 0000 0000
000002d0: 0000 0000 ca64 bf34 1d5f 2c33 ccae d331
000002e0: 0000 0000 0c95 a733 a5ba 1833 6cf5 4e32
000002f0: 0000 0000 54c5 0233 81aa 8632 cd82 d931
00000300: 0000 0000 508f 5634 200b 0234 1182 1933
00000310: 0000 0000 0000 0000 0000 0000 0000 0000
00000320: 0000 0000 0000 0000 0000 0000 0000 0000
00000330: 0000 0000 bd93 c023 c922 c122 5fc6 871d
00000340: 0000 0000 9171 c431 807a db31 6331 9631
00000350: 0000 0000 1d28 2934 4806 7333 f8eb 6832
00000360: 0000 0000 059b 9133 4170 2033 8e66 8b32
00000370: 0000 0000 f476 a635 67ae da34 4235 5f33
00000380: 0000 0000 c7a1 4734 804c 1a34 bfd4 a633
00000390: 0000 0000 6565 5c32 0410 4932 ca65 2b31
000003a0: 0000 0000 e1c7 9333 737f de32 dc52 0232
000003b0: 0000 0000 b43d 6c33 df7d 7f33 9669 1733
000003c0: 0000 0000 3682 7733 fbed 0034 be56 9a33
000003d0: 0000 0000 71e5 0934 ad6b dc34 fb14 ab34
000003e0: 0000 0000 6a57 cd34 9dc2 8934 eab1 0734
000003f0: 0000 0000 6adc 6d33 c075 4233 3ee0 d432

exp_avg f4 [64]
0.0 0.0 0.0 -3.5711175e-05 0.0 4.4769284e-05 -3.742381e-05 0.0
3.3579567e-05 6.236019e-05 0.0 0.0 1.409433e-05 -7.405463e-05 0.0 0.0
0.0 0.0 0.0 1.1678115e-09 -3.8580856e-05 -2.358411e-05 0.0 0.0
-4.7642312e-05 -3.0692296e-05 8.725091e-06 5.6775484e-06 0.0 0.0 0.0 3.0569354e-05
1.1441751e-06 -1.7006047e-05 -0.00010214452 6.540943e-06 0.0 -2.6435808e-05 0.0 -6.38646e-05
-5.0028833e-05 -0.000118833 7.501198e-07 -5.5134137e-06 0.0 8.848449e-05 -5.7318968e-05 -4.313799e-05
2.674313e-06 0.0 0.0 6e-45 9.198869e-06 7.686006e-05 -4.745369e-05 0.00015640883
5.041297e-05 -0.0001077566 -9.8644916e-05 1.02549265e-07 -3.1776766e-05 1.44309815e-05 -9.135028e-05 1.7032178e-05
00000000: 0000 0000 0000 0000 0000 0000 95c8 15b8
00000010: 0000 0000 a7c6 3b38 83f7 1cb8 0000 0000
00000020: c9d7 0c38 5fc7 8238 0000 0000 0000 0000
00000030: b076 6c37 c74d 9bb8 0000 0000 0000 0000
00000040: 0000 0000 0000 0000 0000 0000 b780 a030
00000050: e1d1 21b8 7ed6 c5b7 0000 0000 0000 0000
00000060: 8bd3 47b8 9abb 00b8 fb61 1237 c581 be36
00000070: 0000 0000 0000 0000 0000 0000 9837 0038
00000080: 8f91 9935 35a8 8eb7 6c36 d6b8 467a db36
00000090: 0000 0000 77c2 ddb7 0000 0000 0cef 85b8
000000a0: 0dd6 51b8 fb35 f9b8 d75b 4935 ddff b8b6
000000b0: 0000 0000 c090 b938 c669 70b8 10ef 34b8
000000c0: 5978 3336 0000 0000 0000 0000 0400 0000
000000d0: d754 1a37 ee2f a138 0309 47b8 ad01 2439
000000e0: 8472 5338 62fb e1b8 96df ceb8 0e39 dc33
000000f0: 0b48 05b8 981c 7237 4f93 bfb8 53e0 8e37

exp_avg_sq f4 [64]
0.0 0.0 0.0 4.8667015e-08 0.0 3.746213e-07 1.2669656e-06 0.0
3.4869922e-07 5.0402645e-07 0.0 0.0 1.3338658e-07 3.4324296e-07 0.0 0.0
0.0 0.0 0.0 5.190355e-09 9.672389e-08 2.4761091e-08 0.0 0.0
3.4759264e-08 3.0130647e-07 1.2212402e-07 1.1633383e-08 0.0 0.0 0.0 3.7877655e-07
6.674291e-08 1.0143313e-07 1.9999445e-07 9.372645e-08 0.0 3.6005108e-07 0.0 6.0709533e-07
4.2978417e-07 2.6458653e-07 1.7685954e-08 1.8530253e-07 0.0 6.5834934e-07 2.4066784e-07 9.3128264e-08
6.878141e-07 0.0 0.0 2.1703103e-17 2.3203212e-08 4.4283428e-07 2.10281e-07 3.514815e-06
6.205975e-07 5.7040864e-08 1.920779e-07 2.1582304e-07 3.6213555e-07 7.120386e-07 1.2601154e-06 1.891828e-07
00000000: 0000 0000 0000 0000 0000 0000 f305 5133
00000010: 0000 0000 8f1f c934 9b0c aa35 0000 0000
00000020: db34 bb34 6f4c 0735 0000 0000 0000 0000
00000030: 0639 0f34 f446 b834 0000 0000 0000 0000
00000040: 0000 0000 0000 0000 0000 0000 d856 b231
00000050: 85b6 cf33 37b2 d432 0000 0000 0000 0000
00000060: 374a 1533 3fc3 a134 3221 0334 29dc 4732
00000070: 0000 0000 0000 0000 0000 0000 a75a cb34
00000080: 4e54 8f33 74d3 d933 0ebe 5634 a946 c933
00000090: 0000 0000 0b4d c134 0000 0000 46f7 2235
000000a0: 16bd e634 7f0c 8e34 d3eb 9732 92f7 4634
000000b0: 0000 0000 6cb9 3035 2335 8134 cefd c733
000000c0: 3aa2 3835 0000 0000 0000 0000 012d c823
000000d0: 6750 c732 aebe ed34 9ac9 6134 10e0 6b36
000000e0: 2397 2635 18fd 7433 f93d 4e34 fcbc 6734
000000f0: 886b c234 ec22 3f35 3c21 a935 2c22 4b34

exp_avg f4 [64, 64]
0.0 0.0 0.0 -3.31354e-05 0.0 -2.6132433e-05 -1.4205044e-05 0.0
-2.2649716e-05 -1.982486e-05 0.0 0.0 -1.572674e-06 -1.2336546e-05 0.0 0.0
0.0 0.0 0.0 -1.7687329e-09 -1.0540767e-05 -2.2746757e-05 0.0 0.0
1.7571266e-06 -1.6326645e-05 -1.54716e-05 6.35033e-07 0.0 0.0 0.0 -1.0010728e-05
3.0962545e-07 -3.2088974e-05 -3.0936823e-07 -4.050744e-07 0.0 -6.8632203e-06 0.0 1.5206583e-06
4.190118e-06 -2.5182487e-08 -1.3267913e-05 -9.913925e-06 0.0 5.6838934e-07 -7.495894e-06 -1.030643e-05
-6.860432e-06 0.0 0.0 -6e-45 -2.3353311e-06 -1.3463804e-05 -1.2765452e-05 -2.8461209e-06
-1.0631368e-05 -2.2456754e-06 -1.1001325e-05 -1.6014877e-05 2.3819987e-06 8.145994e-07 -1.6378361e-06 -1.4085125e-05
0.0 0.0 0.0 0.0 0.0 0.0 0.0 0.0
0.0 0.0 0.0 0.0 0.0 0.0 0.0 0.0
0.0 0.0 0.0 0.0 0.0 0.0 0.0 0.0
0.0 0.0 0.0 0.0 0.0 0.0 0.0 0.0
0.0 0.0 0.0 0.0 0.0 0.0 0.0 0.0
0.0 0.0 0.0 0.0 0.0 0.0 0.0 0.0
0.0 0.0 0.0 0.0 0.0 0.0 0.0 0.0
0.0 0.0 0.0 0.0 0.0 0.0 0.0 0.0
0.0 0.0 0.0 -3.7841262e-05 0.0 -2.7411954e-05 -1.2446881e-05 0.0
-2.4553645e-05 -2.0051253e-05 0.0 0.0 -2.9117296e-06 -1.3167461e-05 0.0 0.0
0.0 0.0 0.0 -1.7883955e-09 -1.1302075e-05 -2.4499805e-05 0.0 0.0
1.781193e-07 -2.0774307e-05 -1.5066307e-05 2.4108917e-07 0.0 0.0 0.0 -1.07740125e-05
2.5183206e-07 -3.7094804e-05 -6.6681054e-07 -6.400058e-07 0.0 -9.618191e-06 0.0 -6.2829216e-08
7.313715e-07 -1.7181012e-06 -1.9686237e-05 -9.31098e-06 0.0 -6.8023627e-07 -1.1268219e-05 -1.3083484e-05
-7.370705e-06 0.0 0.0 6e-45 -4.153578e-06 -1.3799691e-05 -1.3769337e-05 -3.3683e-06
-1.1228266e-05 -3.6088509e-06 -1.1776022e-05 -1.807608e-05 1.5259188e-07 -4.469234e-07 -4.108974e-06 -1.4302945e-05
0.0 0.0 0.0 -7.164667e-05 0.0 -4.6816127e-05 -1.9217141e-05 0.0
-4.1179832e-05 -3.0742278e-05 0.0 0.0 3.4336376e-06 -3.341952e-05 0.0 0.0
0.0 0.0 0.0 9.43087e-10 -2.703797e-05 -5.2713352e-05 0.0 0.0
-3.7000184e-06 -4.7670583e-05 -2.7674458e-05 -6.747078e-07 0.0 0.0 0.0 -1.3223991e-05
-9.921934e-08 -7.737965e-05 2.0847983e-06 1.7472519e-06 0.0 -2.6776708e-05 0.0 6.61937e-06
-8.621082e-06 8.096254e-06 -2.8546423e-05 -1.3698051e-05 0.0 4.236183e-06 -2.3909666e-05 -2.4295205e-05
-7.600808e-07 0.0 0.0 6e-45 -1.755942e-06 -3.644494e-06 -3.9009312e-05 1.4086447e-06
-9.964974e-06 -1.2425587e-05 -3.3226606e-05 -2.5014026e-05 -5.786222e-06 -1.5953212e-06 -1.863741e-05 -2.0949987e-05
00000000: 0000 0000 0000 0000 0000 0000 ddfa 0ab8
00000010: 0000 0000 f936 dbb7 3352 6eb7 0000 0000
00000020: e5ff bdb7 904d a6b7 0000 0000 0000 0000
00000030: ab14 d3b5 10f9 4eb7 0000 0000 0000 0000
00000040: 0000 0000 0000 0000 0000 0000 c217 f3b0
00000050: 40d8 30b7 4ad0 beb7 0000 0000 0000 0000
00000060: 69d6 eb35 34f5 88b7 02c9 81b7 2377 2a35
00000070: 0000 0000 0000 0000 0000 0000 c0f3 27b7
00000080: 993a a634 4697 06b8 3f17 a6b4 0079 d9b4
00000090: 0000 0000 9d4a e6b6 0000 0000 6c19 cc35
000000a0: d798 8c36 e050 d8b2 4199 5eb7 fc53 26b7
000000b0: 0000 0000 6b93 1835 3d85 fbb6 c8e9 2cb7
000000c0: aa32 e6b6 0000 0000 0000 0000 0400 0080
000000d0: afb8 1cb6 99e2 61b7 332b 56b7 fcff 3eb6
000000e0: 615d 32b7 69b4 16b6 5592 38b7 b057 86b7
000000f0: 6dda 1f36 d8aa 5a35 9fd3 dbb5 274f 6cb7
00000100: 0000 0000 0000 0000 0000 0000 0000 0000
00000110: 0000 0000 0000 0000 0000 0000 0000 0000
00000120: 0000 0000 0000 0000 0000 0000 0000 0000
00000130: 0000 0000 0000 0000 0000 0000 0000 0000
00000140: 0000 0000 0000 0000 0000 0000 0000 0000
00000150: 0000 0000 0000 0000 0000 0000 0000 0000
00000160: 0000 0000 0000 0000 0000 0000 0000 0000
00000170: 0000 0000 0000 0000 0000 0000 0000 0000
00000180: 0000 0000 0000 0000 0000 0000 0000 0000
00000190: 0000 0000 0000 0000 0000 0000 0000 0000
000001a0: 0000 0000 0000 0000 0000 0000 0000 0000
000001b0: 0000 0000 0000 0000 0000 0000 0000 0000
000001c0: 0000 0000 0000 0000 0000 0000 0000 0000
000001d0: 0000 0000 0000 0000 0000 0000 0000 0000
000001e0: 0000 0000 0000 0000 0000 0000 0000 0000
000001f0: 0000 0000 0000 0000 0000 0000 0000 0000
00000200: 0000 0000 0000 0000 0000 0000 bfb7 1eb8
00000210: 0000 0000 b9f2 e5b7 f2d2 50b7 0000 0000
00000220: 8df8 cdb7 bd33 a8b7 0000 0000 0000 0000
00000230: 2267 43b6 d0e9 5cb7 0000 0000 0000 0000
00000240: 0000 0000 0000 0000 0000 0000 93cb f5b0
00000250: 0b9e 3db7 ee84 cdb7 0000 0000 0000 0000
00000260: 0f41 3f34 7c44 aeb7 4cc5 7cb7 0b6f 8134
00000270: 0000 0000 0000 0000 0000 0000 08c2 34b7
00000280: 8933 8734 3e96 1bb8 dffe 32b5 ddcc 2bb5
00000290: 0000 0000 d15d 21b7 0000 0000 baec 86b3
000002a0: 7753 4435 8299 e6b5 df23 a5b7 5b36 1cb7
000002b0: 0000 0000 7b99 36b5 a20c 3db7 2381 5bb7
000002c0: e051 f7b6 0000 0000 0000 0000 0400 0000
000002d0: f75e 8bb6 3985 67b7 da02 67b7 f40a 62b6
000002e0: 0961 3cb7 962f 72b6 a191 45b7 16a2 97b7
000002f0: 23d8 2334 aff0 efb4 d1df 89b6 aef6 6fb7
00000300: 0000 0000 0000 0000 0000 0000 0341 96b8
00000310: 0000 0000 6f5c 44b8 7f34 a1b7 0000 0000
00000320: 82b8 2cb8 45f1 00b8 0000 0000 0000 0000
00000330: 726d 6636 f02b 0cb8 0000 0000 0000 0000
00000340: 0000 0000 0000 0000 0000 0000 ed9d 8130
00000350: 99cf e2b7 8818 5db8 0000 0000 0000 0000
00000360: d54d 78b6 e6f1 47b8 7226 e8b7 911d 35b5
00000370: 0000 0000 0000 0000 0000 0000 9cdc 5db7
00000380: 6912 d5b3 e246 a2b8 90e8 0b36 1e83 ea35
00000390: 0000 0000 8b9e e0b7 0000 0000 f51b de36
000003a0: 44a3 10b7 25d5 0737 fa76 efb7 aed0 65b7
000003b0: 0000 0000 8924 8e36 9e91 c8b7 8ecd cbb7
000003c0: 5b08 4cb5 0000 0000 0000 0000 0400 0000
000003d0: b5ad ebb5 ee93 74b6 ee9d 23b8 aa10 bd35
000003e0: 3d2f 27b7 7d77 50b7 cc5c 0bb8 36d5 d1b7
000003f0: 4527 c2b6 d21e d6b5 8957 9cb7 c1bd afb7

exp_avg_sq f4 [64, 64]
0.0 0.0 0.0 5.6682765e-08 0.0 1.8609335e-08 1.5256553e-08 0.0
2.1743148e-08 6.2885777e-09 0.0 0.0 6.4043997e-09 1.0405398e-08 0.0 0.0
0.0 0.0 0.0 5.899203e-11 6.887766e-09 3.0569744e-08 0.0 0.0
3.0153782e-11 2.0344888e-08 5.2444573e-09 4.860615e-09 0.0 0.0 0.0 4.761981e-09
2.3517257e-09 4.3473555e-08 5.0203125e-10 1.4002441e-09 0.0 2.701216e-09 0.0 8.652842e-09
5.4568755e-10 7.6129897e-10 2.5012291e-08 3.2356322e-09 0.0 6.5662635e-11 7.2128836e-09 9.550411e-09
4.3321804e-09 0.0 0.0 2.4652098e-22 2.396857e-09 6.74323e-09 4.828348e-09 3.4139788e-10
3.8811825e-09 5.5148717e-09 1.1677832e-08 1.20440715e-08 1.3432073e-09 1.3768214e-10 2.6518778e-09 8.143678e-09
0.0 0.0 0.0 0.0 0.0 0.0 0.0 0.0
0.0 0.0 0.0 0.0 0.0 0.0 0.0 0.0
0.0 0.0 0.0 0.0 0.0 0.0 0.0 0.0
0.0 0.0 0.0 0.0 0.0 0.0 0.0 0.0
0.0 0.0 0.0 0.0 0.0 0.0 0.0 0.0
0.0 0.0 0.0 0.0 0.0 0.0 0.0 0.0
0.0 0.0 0.0 0.0 0.0 0.0 0.0 0.0
0.0 0.0 0.0 0.0 0.0 0.0 0.0 0.0
0.0 0.0 0.0 4.4239997e-08 0.0 1.3641677e-08 1.1723122e-08 0.0
1.6135486e-08 4.11857e-09 0.0 0.0 4.3122252e-09 9.544268e-09 0.0 0.0
0.0 0.0 0.0 1.2797291e-10 6.1316756e-09 2.5917542e-08 0.0 0.0
1.8501957e-11 1.6938419e-08 4.2416595e-09 4.7841278e-09 0.0 0.0 0.0 3.1933225e-09
2.0184825e-09 3.479159e-08 2.118598e-10 7.6591783e-10 0.0 1.807791e-09 0.0 5.8260117e-09
4.2752193e-10 2.9047723e-10 1.7539495e-08 2.3801945e-09 0.0 2.7094835e-11 5.569152e-09 7.3852857e-09
2.6565232e-09 0.0 0.0 7.186859e-24 1.5760268e-09 3.5026817e-09 4.617354e-09 1.5836163e-10
2.2983138e-09 5.7128866e-09 1.1271342e-08 8.207752e-09 1.5705721e-09 1.9213517e-10 2.5664e-09 5.931004e-09
0.0 0.0 0.0 7.513558e-08 0.0 2.6813568e-08 1.6467808e-08 0.0
2.9780772e-08 1.0173962e-08 0.0 0.0 7.634915e-09 1.23385595e-08 0.0 0.0
0.0 0.0 0.0 1.3011014e-10 8.231264e-09 3.7306922e-08 0.0 0.0
2.4560956e-11 2.5622471e-08 7.431316e-09 4.5906945e-09 0.0 0.0 0.0 7.0290813e-09
2.1507613e-09 5.7590523e-08 3.9730466e-10 1.1365455e-09 0.0 2.1025437e-09 0.0 8.716544e-09
4.4603288e-10 1.0174571e-09 3.448631e-08 4.2891735e-09 0.0 2.5815095e-10 9.019852e-09 1.24480595e-08
7.044588e-09 0.0 0.0 3.7111393e-23 3.549454e-09 1.2590804e-08 6.3793846e-09 1.1861309e-09
6.748422e-09 6.1691168e-09 1.3813407e-08 1.781141e-08 1.6501884e-09 1.7374883e-10 3.0876681e-09 1.1246938e-08
00000000: 0000 0000 0000 0000 0000 0000 5c73 7333
00000010: 0000 0000 5cda 9f32 840d 8332 0000 0000
00000020: b0c5 ba32 ea12 d831 0000 0000 0000 0000
00000030: b20d dc31 6dc3 3232 0000 0000 0000 0000
00000040: 0000 0000 0000 0000 0000 0000 8fb9 812e
00000050: 6ea9 ec31 ca4b 0333 0000 0000 0000 0000
00000060: 249e 042e e2c2 ae32 bc32 b431 6c02 a731
00000070: 0000 0000 0000 0000 0000 0000 d49e a331
00000080: ff9b 2131 aeb7 3a33 4fff 0930 b672 c030
00000090: 0000 0000 4ba0 3931 0000 0000 9aa7 1432
000000a0: 59ff 1530 a743 5130 9cda d632 d859 5e31
000000b0: 0000 0000 c764 902e 32d5 f731 2713 2432
000000c0: 43da 9431 0000 0000 0000 0000 4603 951b
000000d0: f4b5 2431 14b2 e731 99e6 a531 7baf bb2f
000000e0: 3e5b 8531 537d bd31 a69f 4832 63ea 4e32
000000f0: e89b b830 1462 172f 543c 3631 46e8 0b32
00000100: 0000 0000 0000 0000 0000 0000 0000 0000
00000110: 0000 0000 0000 0000 0000 0000 0000 0000
00000120: 0000 0000 0000 0000 0000 0000 0000 0000
00000130: 0000 0000 0000 0000 0000 0000 0000 0000
00000140: 0000 0000 0000 0000 0000 0000 0000 0000
00000150: 0000 0000 0000 0000 0000 0000 0000 0000
00000160: 0000 0000 0000 0000 0000 0000 0000 0000
00000170: 0000 0000 0000 0000 0000 0000 0000 0000
00000180: 0000 0000 0000 0000 0000 0000 0000 0000
00000190: 0000 0000 0000 0000 0000 0000 0000 0000
000001a0: 0000 0000 0000 0000 0000 0000 0000 0000
000001b0: 0000 0000 0000 0000 0000 0000 0000 0000
000001c0: 0000 0000 0000 0000 0000 0000 0000 0000
000001d0: 0000 0000 0000 0000 0000 0000 0000 0000
000001e0: 0000 0000 0000 0000 0000 0000 0000 0000
000001f0: 0000 0000 0000 0000 0000 0000 0000 0000
00000200: 0000 0000 0000 0000 0000 0000 6402 3e33
00000210: 0000 0000 bb5c 6a32 d666 4932 0000 0000
00000220: 4f9a 8a32 5383 8d31 0000 0000 0000 0000
00000230: bc2a 9431 22f8 2332 0000 0000 0000 0000
00000240: 0000 0000 0000 0000 0000 0000 2cb5 0c2f
00000250: caae d231 47a1 de32 0000 0000 0000 0000
00000260: b4be a22d fa7f 9132 08be 9131 a261 a431
00000270: 0000 0000 0000 0000 0000 0000 8671 5b31
00000280: 85b5 0a31 c26d 1533 3bf1 682f ad88 5230
00000290: 0000 0000 fe75 f830 0000 0000 242e c831
000002a0: 5d08 eb2f 09b1 9f2f c2a9 9632 d390 2331
000002b0: 0000 0000 2554 ee2d c75a bf31 a9c1 fd31
000002c0: 0d8e 3631 0000 0000 0000 0000 9a03 0b19
000002d0: 839b d830 d4b3 7031 ada6 9e31 d61e 2e2f
000002e0: 5df0 1d31 154b c431 e3a3 4132 1302 0d32
000002f0: 98db d730 3e41 532f 965c 3031 aac9 cb31
00000300: 0000 0000 0000 0000 0000 0000 395a a133
00000310: 0000 0000 a953 e632 1875 8d32 0000 0000
00000320: 9cd0 ff32 8fc9 2e32 0000 0000 0000 0000
00000330: b62a 0332 8ff9 5332 0000 0000 0000 0000
00000340: 0000 0000 0000 0000 0000 0000 c00e 0f2f
00000350: 7b69 0d32 653b 2033 0000 0000 0000 0000
00000360: 5b0a d82d 6918 dc32 8c56 ff31 2dbc 9d31
00000370: 0000 0000 0000 0000 0000 0000 7484 f131
00000380: 98cc 1331 7359 7733 a96b da2f a434 9c30
00000390: 0000 0000 577c 1031 0000 0000 c4bf 1532
000003a0: 8c35 f52f 97d6 8b30 191e 1433 f85f 9331
000003b0: 0000 0000 84eb 8d2f bbf5 1a32 25db 5532
000003c0: da0c f231 0000 0000 0000 0000 ae75 331a
000003d0: a8ea 7331 f14e 5832 a931 db31 4505 a330
000003e0: bfdf e731 20f8 d331 0250 6d32 b4ff 9832
000003f0: d8cc e230 f309 3f2f d52e 5431 8e38 4132

exp_avg f4 [64]
-2.834949e-05 0.0 -3.2489475e-05 -5.0540297e-05 2.8427672e-05 6e-45 -1.5749729e-05 0.0
0.0 1.3260793e-05 0.0 1.6479453e-05 3.4285164e-05 -7.154452e-06 2.8450931e-05 0.0
-6.6283654e-05 3.2176533e-05 2.944784e-05 -5.7702055e-05 -4.0634637e-05 2.2687205e-05 3.3335658e-07 0.0
0.0 -1.0407162e-05 0.0 -0.0001209763 0.0 0.0 0.0 5.614019e-05
0.0 -3.988616e-05 -0.000117264804 6.548591e-06 -1.3610658e-06 -4.716442e-05 2.7269441e-05 -4.7665657e-05
6e-45 3.984679e-06 -3.235686e-05 5.5425473e-05 0.0 -0.00010557908 1.043674e-05 -1.07437245e-05
-2.3415923e-05 2.8057146e-05 1.1418216e-05 2.5956339e-05 1.5592987e-06 0.0 -2.316846e-05 0.0
-3.5371904e-05 6e-45 0.0 6e-45 0.0 4.5866836e-06 -5.7867594e-05 1.770825e-05
00000000: 11d0 edb7 0000 0000 4f45 08b8 3bfb 53b8
00000010: f677 ee37 0400 0000 491e 84b7 0000 0000
00000020: 0000 0000 ac7a 5e37 0000 0000 5b3d 8a37
00000030: 6acd 0f38 4610 f0b6 e9a9 ee37 0000 0000
00000040: c401 8bb8 4af5 0638 c106 f737 1c05 72b8
00000050: 1c6f 2ab8 6750 be37 2ef8 b234 0000 0000
00000060: 0000 0000 6c9a 2eb7 0000 0000 a8b4 fdb8
00000070: 0000 0000 0000 0000 0000 0000 1278 6b38
00000080: 0000 0000 704b 27b8 10ec f5b8 f8bb db36
00000090: ddad b6b5 69d2 45b8 aec0 e437 9cec 47b8
000000a0: 0400 0000 22b4 8536 eab6 07b8 a678 6838
000000b0: 0000 0000 566a ddb8 7519 2f37 f23f 34b7
000000c0: 506d c4b7 435c eb37 dd90 3f37 d0bc d937
000000d0: 1849 d135 0000 0000 e459 c2b7 0000 0000
000000e0: 4b5c 14b8 0400 0000 0000 0000 0400 0000
000000f0: 0000 0000 50e7 9936 dbb6 72b8 2d8c 9437

exp_avg_sq f4 [64]
8.126641e-08 0.0 6.058431e-08 1.0127566e-07 2.0699161e-07 1.3383336e-08 5.2144603e-08 0.0
0.0 3.8085844e-07 0.0 5.1671577e-08 1.8802578e-07 4.013331e-07 5.0387914e-08 0.0
1.00408585e-07 1.4893837e-07 1.629378e-07 1.4136086e-07 1.1361436e-07 2.2316462e-07 1.7700067e-07 0.0
0.0 4.3201206e-07 0.0 8.422888e-07 0.0 0.0 0.0 2.6866826e-07
0.0 2.323718e-07 4.224704e-07 2.479245e-07 1.989746e-07 3.1775548e-07 8.312133e-08 1.0428461e-07
9.54443e-12 1.3845857e-07 1.804824e-07 1.9276621e-07 0.0 3.0844262e-07 1.2826466e-07 1.3054103e-07
1.9901589e-07 1.2706036e-07 5.831903e-07 1.2028299e-07 3.0451815e-07 0.0 9.4809124e-08 0.0
5.021056e-08 9.640241e-12 0.0 7.417733e-10 0.0 1.8103034e-08 2.154389e-07 1.857478e-07
00000000: ae84 ae33 0000 0000 941a 8233 e27c d933
00000010: 6c41 5e34 89ec 6532 99f5 5f33 0000 0000
00000020: 0000 0000 c978 cc34 0000 0000 80ed 5d33
00000030: 22e4 4934 cd76 d734 196a 5833 0000 0000
00000040: 34a0 d733 deeb 1f34 00f4 2e34 fac8 1734
00000050: 28fc f333 069f 6f34 930d 3e34 0000 0000
00000060: 0000 0000 49ef e734 0000 0000 a519 6235
00000070: 0000 0000 0000 0000 0000 0000 7c3d 9034
00000080: 0000 0000 e081 7934 e4cf e234 7c1a 8534
00000090: b9a5 5534 fb97 aa34 6f80 b233 12f3 df33
000000a0: 4be8 272d 34ab 1434 a0ca 4134 2cfb 4e34
000000b0: 0000 0000 0898 a534 1fb9 0934 d82a 0c34
000000c0: 12b1 5534 166e 0834 888c 1c35 2327 0134
000000d0: a87c a334 0000 0000 de99 cb33 0000 0000
000000e0: 18a7 5733 c997 292d 0000 0000 a8e5 4b30
000000f0: 0000 0000 fe80 9b32 6553 6734 f771 4734

exp_avg f4 [64, 64]
2.4936598e-05 0.0 9.774775e-06 3.7987487e-05 -7.739562e-06 -6e-45 1.8008215e-05 0.0
0.0 2.9363214e-06 0.0 -7.4254276e-06 -2.306987e-06 -1.0511009e-05 -1.6267554e-06 0.0
1.41350665e-05 -8.151675e-06 4.9064547e-06 1.9628455e-05 1.8146273e-05 9.248437e-06 -4.417202e-06 0.0
0.0 4.5304172e-05 0.0 3.472042e-05 0.0 0.0 0.0 1.1805302e-05
0.0 3.6857826e-05 2.1023065e-05 1.3844798e-05 -9.817112e-07 -8.323616e-07 1.2201585e-05 6.7900614e-06
-6e-45 -1.0648036e-05 2.22465e-05 -4.6226055e-06 0.0 3.4650435e-05 1.4116042e-05 1.1817147e-05
9.096909e-06 1.9366373e-05 -4.66595e-06 8.233978e-06 -2.3761622e-06 0.0 7.128912e-06 0.0
1.3771931e-05 6e-45 0.0 -6e-45 0.0 -1.5952769e-06 2.7746562e-05 -7.844043e-06
-4.309459e-05 0.0 -2.6805184e-05 -4.78568e-05 -1.9927404e-05 6e-45 -3.1307158e-05 0.0
0.0 1.6541444e-06 0.0 -2.2907272e-05 -1.5103007e-05 9.592088e-06 -1.7653529e-05 0.0
-1.7005226e-05 -1.45515305e-05 -2.7785247e-05 -1.7877343e-05 -2.2848355e-05 -3.8326223e-05 -1.4730621e-05 0.0
0.0 -4.9094822e-05 0.0 -3.2614473e-05 0.0 0.0 0.0 -1.9823146e-05
0.0 -3.8109047e-05 -3.142619e-05 -2.655633e-05 -2.2762286e-05 -2.4240679e-05 -3.989805e-05 -1.0701269e-05
6e-45 -1.0049774e-05 -1.9700008e-05 -2.7623068e-05 0.0 -3.5642894e-05 -5.235366e-05 -4.0441155e-05
-2.415182e-05 -6.2563864e-05 -2.2406202e-05 -4.016532e-05 -2.1162605e-05 0.0 -2.5653564e-05 0.0
-2.345549e-05 6e-45 0.0 6e-45 0.0 -7.274919e-06 -2.8284376e-05 -1.8354152e-05
1.4288965e-05 0.0 7.4104273e-06 1.676682e-05 4.6748014e-06 0.0 8.993336e-06 0.0
0.0 2.8978183e-14 0.0 6.350841e-06 4.168699e-06 -6e-45 6.3722828e-06 0.0
6.7233864e-06 2.345362e-06 6.9021053e-06 9.532536e-06 7.4483073e-06 1.20606865e-05 3.6508723e-06 0.0
0.0 1.9865154e-05 0.0 1.5316755e-05 0.0 0.0 0.0 8.5449965e-06
0.0 1.5064077e-05 7.0919214e-06 7.5527037e-06 5.241224e-06 3.8984367e-06 1.2213108e-05 2.3792918e-06
0.0 1.3792115e-06 1.0391631e-05 6.7182277e-06 0.0 1.5923513e-05 1.5873507e-05 1.1713902e-05
6.2900444e-06 2.052041e-05 3.0882306e-06 1.13000715e-05 4.945499e-06 0.0 7.2274097e-06 0.0
8.324854e-06 -6e-45 0.0 0.0 0.0 2.8957736e-06 1.2957858e-05 3.648039e-06
0.0 0.0 0.0 0.0 0.0 0.0 0.0 0.0
0.0 0.0 0.0 0.0 0.0 0.0 0.0 0.0
0.0 0.0 0.0 0.0 0.0 0.0 0.0 0.0
0.0 0.0 0.0 0.0 0.0 0.0 0.0 0.0
0.0 0.0 0.0 0.0 0.0 0.0 0.0 0.0
0.0 0.0 0.0 0.0 0.0 0.0 0.0 0.0
0.0 0.0 0.0 0.0 0.0 0.0 0.0 0.0
0.0 0.0 0.0 0.0 0.0 0.0 0.0 0.0
00000000: f02e d137 0000 0000 57fe 2337 c154 1f38
00000010: 2ad9 01b7 0400 0080 5910 9737 0000 0000
00000020: 0000 0000 9e0d 4536 0000 0000 f027 f9b6
00000030: bcd1 1ab6 7158 30b7 e456 dab5 0000 0000
00000040: a625 6d37 2dc3 08b7 20a2 a436 c9a7 a437
00000050: d338 9837 bc29 1b37 7a37 94b6 0000 0000
00000060: 0000 0000 fc04 3e38 0000 0000 c4a0 1138
00000070: 0000 0000 0000 0000 0000 0000 630f 4637
00000080: 0000 0000 ca97 1a38 b05a b037 f446 6837
00000090: 57c3 83b5 746f 5fb5 69b5 4c37 2fd6 e336
000000a0: 0400 0080 f7a4 32b7 ff9d ba37 e11b 9bb6
000000b0: 0000 0000 9f55 1138 f0d3 6c37 4342 4637
000000c0: ed9e 1837 f874 a237 3590 9cb6 ab24 0a37
000000d0: 2876 1fb6 0000 0000 e334 ef36 0000 0000
000000e0: fe0d 6737 0400 0000 0000 0000 0400 0080
000000f0: 0000 0000 4c1d d6b5 4ac1 e837 e899 03b7
00000100: 77c0 34b8 0000 0000 b2db e0b7 d9b9 48b8
00000110: c629 a7b7 0400 0000 ce4f 03b8 0000 0000
00000120: 0000 0000 f803 de35 0000 0000 fe28 c0b7
00000130: ec62 7db7 b4ed 2037 aa16 94b7 0000 0000
00000140: 72a6 8eb7 5922 74b7 5d14 e9b7 4df7 95b7
00000150: 78aa bfb7 78c0 20b8 8923 77b7 0000 0000
00000160: 0000 0000 2aeb 4db8 0000 0000 86cb 08b8
00000170: 0000 0000 0000 0000 0000 0000 e249 a6b7
00000180: 0000 0000 47d7 1fb8 9dcf 03b8 49c5 deb7
00000190: a3f1 beb7 7658 cbb7 3458 27b8 9a89 33b7
000001a0: 0400 0000 739b 28b7 7241 a5b7 16b8 e7b7
000001b0: 0000 0000 447f 15b8 5096 5bb8 5c9f 29b8
000001c0: a399 cab7 b834 83b8 f4f4 bbb7 2f77 28b8
000001d0: 5986 b1b7 0000 0000 9c32 d7b7 0000 0000
000001e0: 48c2 c4b7 0400 0000 0000 0000 0400 0000
000001f0: 0000 0000 141b f4b6 3c44 edb7 3ef7 99b7
00000200: a3ba 6f37 0000 0000 16a7 f836 79a6 8c37
00000210: 3ddc 9c36 0000 0000 16e2 1637 0000 0000
00000220: 0000 0000 9281 0229 0000 0000 4f19 d536
00000230: dae0 8b36 0400 0080 7ed1 d536 0000 0000
00000240: 7399 e136 0365 1d36 a298 e736 eeed 1f37
00000250: 79ec f936 4158 4a37 8201 7536 0000 0000
00000260: 0000 0000 18a4 a637 0000 0000 7b7c 8037
00000270: 0000 0000 0000 0000 0000 0000 7b5c 0f37
00000280: 0000 0000 b8bb 7c37 24f7 ed36 3b6d fd36
00000290: c5dd af36 51cf 8236 e6e6 4c37 ecab 1f36
000002a0: 0000 0000 591d b935 b757 2e37 236d e136
000002b0: 0000 0000 7c93 8537 1928 8537 d386 4437
000002c0: 120f d336 3f23 ac37 663f 4f36 7095 3d37
000002d0: 83f1 a536 0000 0000 fa82 f236 0000 0000
000002e0: faaa 0b37 0400 0080 0000 0000 0000 0000
000002f0: 0000 0000 0355 4236 9465 5937 d5d0 7436
00000300: 0000 0000 0000 0000 0000 0000 0000 0000
00000310: 0000 0000 0000 0000 0000 0000 0000 0000
00000320: 0000 0000 0000 0000 0000 0000 0000 0000
00000330: 0000 0000 0000 0000 0000 0000 0000 0000
00000340: 0000 0000 0000 0000 0000 0000 0000 0000
00000350: 0000 0000 0000 0000 0000 0000 0000 0000
00000360: 0000 0000 0000 0000 0000 0000 0000 0000
00000370: 0000 0000 0000 0000 0000 0000 0000 0000
00000380: 0000 0000 0000 0000 0000 0000 0000 0000
00000390: 0000 0000 0000 0000 0000 0000 0000 0000
000003a0: 0000 0000 0000 0000 0000 0000 0000 0000
000003b0: 0000 0000 0000 0000 0000 0000 0000 0000
000003c0: 0000 0000 0000 0000 0000 0000 0000 0000
000003d0: 0000 0000 0000 0000 0000 0000 0000 0000
000003e0: 0000 0000 0000 0000 0000 0000 0000 0000
000003f0: 0000 0000 0000 0000 0000 0000 0000 0000

exp_avg_sq f4 [64, 64]
5.9303865e-08 0.0 4.2430237e-08 2.8795286e-08 3.9855472e-08 2.2541496e-10 4.189313e-08 0.0
0.0 1.4383741e-09 0.0 4.432116e-08 2.3157297e-08 5.7672245e-09 2.8133412e-08 0.0
1.2248384e-08 2.5910238e-08 2.8713549e-08 1.4614755e-08 1.4160168e-08 6.282313e-08 2.1004078e-08 0.0
0.0 4.02192e-08 0.0 2.1211545e-08 0.0 0.0 0.0 3.3281147e-09
0.0 2.669469e-08 5.393171e-08 3.4646867e-08 3.7913637e-08 3.609792e-08 6.856034e-08 1.2072949e-08
4.0483608e-14 4.185029e-08 1.684746e-08 4.6764406e-08 0.0 3.044412e-08 1.0462811e-07 1.0641369e-07
3.23512e-08 1.7934553e-07 2.8774076e-08 7.079599e-08 3.8694132e-08 0.0 6.7303006e-08 0.0
1.6959989e-08 1.1229638e-13 0.0 2.3364596e-12 0.0 6.0970136e-09 2.7239148e-08 2.403484e-08
2.7385946e-08 0.0 2.0941464e-08 1.1277393e-08 2.1058078e-08 1.0784615e-11 2.1688548e-08 0.0
0.0 2.5276023e-10 0.0 2.3149557e-08 1.1277365e-08 2.3074391e-09 1.3597397e-08 0.0
5.6891865e-09 1.2946055e-08 1.7009485e-08 6.00069e-09 5.4530402e-09 3.3004806e-08 1.1797855e-08 0.0
0.0 1.2666617e-08 0.0 6.343175e-09 0.0 0.0 0.0 1.8091331e-09
0.0 8.839932e-09 3.044463e-08 1.8377895e-08 2.39786e-08 2.0190924e-08 3.634282e-08 4.522056e-09
7.8711447e-16 2.2427832e-08 4.3693538e-09 2.242903e-08 0.0 1.1395917e-08 5.2025e-08 5.2885085e-08
1.7347823e-08 9.2655e-08 1.779947e-08 3.6243595e-08 2.1133973e-08 0.0 3.5420573e-08 0.0
8.213624e-09 2.2991015e-14 0.0 2.7170868e-13 0.0 2.2357955e-09 1.1765806e-08 1.4177477e-08
2.063252e-08 0.0 8.356382e-09 1.9699572e-08 7.005909e-10 0.0 1.8348288e-08 0.0
0.0 4.1773297e-14 0.0 5.552822e-10 8.5569174e-10 5.817801e-12 1.7694862e-09 0.0
8.56176e-09 1.6721016e-09 6.173087e-09 9.732593e-09 7.2069977e-09 1.171008e-08 1.5425585e-09 0.0
0.0 2.0476154e-08 0.0 1.4605929e-08 0.0 0.0 0.0 1.6377687e-09
0.0 1.8605268e-08 2.7017427e-08 1.2662477e-08 7.893414e-09 3.855621e-09 1.6895921e-08 2.8112341e-09
0.0 2.8951794e-09 9.042288e-09 1.0414489e-09 0.0 2.2224327e-08 1.911236e-08 2.228203e-08
8.064966e-09 3.8778833e-08 2.5965765e-09 7.904382e-09 2.5305595e-09 0.0 1.6079408e-08 0.0
6.6654335e-09 2.3219344e-15 0.0 0.0 0.0 7.568221e-11 1.9377044e-08 5.548216e-10
0.0 0.0 0.0 0.0 0.0 0.0 0.0 0.0
0.0 0.0 0.0 0.0 0.0 0.0 0.0 0.0
0.0 0.0 0.0 0.0 0.0 0.0 0.0 0.0
0.0 0.0 0.0 0.0 0.0 0.0 0.0 0.0
0.0 0.0 0.0 0.0 0.0 0.0 0.0 0.0
0.0 0.0 0.0 0.0 0.0 0.0 0.0 0.0
0.0 0.0 0.0 0.0 0.0 0.0 0.0 0.0
0.0 0.0 0.0 0.0 0.0 0.0 0.0 0.0
00000000: 4ab5 7e33 0000 0000 8a3c 3633 8159 f732
00000010: 8e2d 2b33 acd8 772f fced 3333 0000 0000
00000020: 0000 0000 4ab0 c530 0000 0000 a15b 3e33
00000030: 6feb c632 0b29 c631 07aa f132 0000 0000
00000040: f66c 5232 3791 de32 c3a5 f632 5f14 7b32
00000050: 1445 7332 62e9 8633 756c b432 0000 0000
00000060: 0000 0000 7abd 2c33 0000 0000 ae34 b632
00000070: 0000 0000 0000 0000 0000 0000 d0b4 6431
00000080: 0000 0000 3e4e e532 8ba2 6733 a2ce 1433
00000090: 7cd6 2233 150a 1b33 723b 9333 6469 4f32
000000a0: 6c52 3629 e1be 3333 f5b7 9032 02da 4833
000000b0: 0000 0000 aac1 0233 e9af e033 8b85 e433
000000c0: 85f2 0a33 2092 4034 dd2a f732 8208 9833
000000d0: a630 2633 0000 0000 3888 9033 0000 0000
000000e0: 69af 9132 75de fc29 0000 0000 ea69 242c
000000f0: 0000 0000 e67d d131 85fb e932 2c75 ce32
00000100: 553e eb32 0000 0000 c4e2 b332 80be 4132
00000110: 34e3 b432 97b9 3d2d 9f4d ba32 0000 0000
00000120: 0000 0000 d7f4 8a2f 0000 0000 6ada c632
00000130: 60be 4132 e690 1e31 fc99 6932 0000 0000
00000140: 9d7a c331 5a69 5e32 411c 9232 a12e ce31
00000150: 735d bb31 2bc1 0d33 84af 4a32 0000 0000
00000160: 0000 0000 5f9c 5932 0000 0000 28f3 d931
00000170: 0000 0000 0000 0000 0000 0000 36a5 f830
00000180: 0000 0000 6fde 1732 3ac2 0233 6bdd 9d32
00000190: 80f9 cd32 5070 ad32 5a17 1c33 6d60 9b31
000001a0: ccde 6226 53a7 c032 3e21 9631 f5a9 c032
000001b0: 0000 0000 c6c7 4332 1872 5f33 c423 6333
000001c0: 4404 9532 a0f9 c633 73e5 9832 41aa 1b33
000001d0: 198a b532 0000 0000 5521 1833 0000 0000
000001e0: e61b 0d32 ac15 cf28 0000 0000 59f5 982a
000001f0: 0000 0000 88a4 1931 9022 4a32 3491 7332
00000200: 643b b132 0000 0000 c28f 0f32 d137 a932
00000210: b493 4030 0000 0000 509c 9d32 0000 0000
00000220: 0000 0000 5521 3c29 0000 0000 83a2 1830
00000230: f435 6b30 18b2 cc2c 4332 f330 0000 0000
00000240: 0517 1332 d8cf e530 0c1b d431 6634 2732
00000250: 6ca1 f731 7a2d 4932 f401 d430 0000 0000
00000260: 0000 0000 8ae3 af32 0000 0000 8eed 7a32
00000270: 0000 0000 0000 0000 0000 0000 dd17 e130
00000280: 0000 0000 6bd1 9f32 f313 e832 2a8a 5932
00000290: 9a9b 0732 677a 8431 8622 9132 c12f 4131
000002a0: 0000 0000 89f4 4631 6758 1b32 ba22 8f30
000002b0: 0000 0000 d0e7 be32 862c a432 b466 bf32
000002c0: 188e 0a32 c78d 2633 756f 3231 d7cb 0732
000002d0: 13e6 2d31 0000 0000 fe1e 8a32 0000 0000
000002e0: c605 e531 2150 2727 0000 0000 0000 0000
000002f0: 0000 0000 4c6d a62e 9272 a632 1982 1830
00000300: 0000 0000 0000 0000 0000 0000 0000 0000
00000310: 0000 0000 0000 0000 0000 0000 0000 0000
00000320: 0000 0000 0000 0000 0000 0000 0000 0000
00000330: 0000 0000 0000 0000 0000 0000 0000 0000
00000340: 0000 0000 0000 0000 0000 0000 0000 0000
00000350: 0000 0000 0000 0000 0000 0000 0000 0000
00000360: 0000 0000 0000 0000 0000 0000 0000 0000
00000370: 0000 0000 0000 0000 0000 0000 0000 0000
00000380: 0000 0000 0000 0000 0000 0000 0000 0000
00000390: 0000 0000 0000 0000 0000 0000 0000 0000
000003a0: 0000 0000 0000 0000 0000 0000 0000 0000
000003b0: 0000 0000 0000 0000 0000 0000 0000 0000
000003c0: 0000 0000 0000 0000 0000 0000 0000 0000
000003d0: 0000 0000 0000 0000 0000 0000 0000 0000
000003e0: 0000 0000 0000 0000 0000 0000 0000 0000
000003f0: 0000 0000 0000 0000 0000 0000 0000 0000

exp_avg f4 [64]
2.6473592e-05 -7.113017e-05 2.412015e-05 0.0 -5.3288943e-05 7.140992e-05 -7.096615e-05 6e-45
-4.638844e-05 6e-45 3.7487298e-05 4.5158704e-05 -2.7305092e-05 5.863698e-05 6e-45 5.559801e-07
-6.9742764e-06 4.460976e-05 0.0 6e-45 0.0 -2.2515167e-05 -7.293262e-05 2.756704e-05
-7.545199e-05 6e-45 -6.0409897e-05 6e-45 -6.853112e-05 5.638182e-05 9.209088e-06 -1.0079561e-05
0.000117660835 5.528629e-05 -7.5683893e-06 -4.5862394e-05 0.0 0.0 1.9011319e-06 9.694896e-05
2.4361594e-05 0.0 -7.546771e-05 0.0 3.3062755e-05 0.0 0.0 2.16182e-05
6e-45 0.0 0.0 -6.3082944e-06 -4.468726e-05 7.1565955e-05 -8.3858875e-05 -9.694004e-08
-1.4350638e-05 1.2566052e-07 1.124586e-05 6e-45 -6.197841e-06 6e-45 4.1191222e-05 -7.4912816e-05
00000000: 9b13 de37 b82b 95b8 a155 ca37 0000 0000
00000010: 9182 5fb8 e9c1 9538 a9d3 94b8 0400 0000
00000020: 3591 42b8 0400 0000 ae3b 1d38 ca68 3d38
00000030: 3d0d e5b7 faf0 7538 0400 0000 a93e 1535
00000040: 9404 eab6 5d1b 3b38 0000 0000 0400 0000
00000050: 0000 0000 f4de bcb7 67f3 98b8 c53f e737
00000060: fb3b 9eb8 0400 0000 a260 7db8 0400 0000
00000070: 5db8 8fb8 857b 6c38 bb80 1a37 631b 29b7
00000080: aec0 f638 34e3 6738 f8f3 fdb6 5f5c 40b8
00000090: 0000 0000 0000 0000 652a ff35 1451 cb38
000000a0: 205c cc37 0000 0000 6b44 9eb8 0000 0000
000000b0: ddac 0a38 0000 0000 0000 0000 bb58 b537
000000c0: 0400 0000 0000 0000 0000 0000 d6ab d3b6
000000d0: 946e 3bb8 ae15 9638 64dd afb8 5a2d d0b3
000000e0: 85c3 70b7 4ded 0634 9aac 3c37 0400 0000
000000f0: 0cf7 cfb6 0400 0000 bdc4 2c38 831a 9db8

exp_avg_sq f4 [64]
3.8462758e-07 1.6930332e-07 8.049268e-08 0.0 2.0469328e-07 1.9412538e-07 2.5736398e-07 5.566741e-09
2.726949e-07 5.569424e-11 2.2940185e-07 5.453773e-07 5.8812375e-08 1.6097533e-07 7.403426e-10 3.1014267e-08
1.3780956e-08 1.3435451e-07 0.0 6.4406467e-09 0.0 1.0277034e-07 1.8240125e-07 2.7679922e-08
3.0811498e-07 1.9088096e-09 2.3425018e-07 8.16954e-10 3.760807e-07 1.2569633e-07 2.246188e-07 7.907171e-08
5.181488e-07 1.89504e-07 7.5549956e-08 2.523201e-07 0.0 0.0 1.0983789e-08 1.6724273e-07
4.2965584e-07 0.0 1.9232445e-07 0.0 6.584919e-08 0.0 0.0 1.3581021e-07
4.61546e-14 0.0 0.0 4.468154e-08 1.0070836e-07 1.18294736e-07 6.3848336e-07 5.8165224e-08
1.2133778e-07 9.394239e-13 1.7090353e-07 3.7988924e-19 2.5115176e-07 1.0485762e-09 3.4776002e-07 3.509285e-07
00000000: d07e ce34 bec9 3534 52db ac33 0000 0000
00000010: a9c9 5b34 c770 5034 d62b 8a34 9245 bf31
00000020: e766 9234 24f2 742e 8051 7634 0b66 1235
00000030: e498 7c33 90d8 2c34 fb80 4b30 8c34 0533
00000040: 49c1 6c32 1643 1034 0000 0000 874c dd31
00000050: 0000 0000 98b2 dc33 13da 4334 cbc4 ed32
00000060: 006b a534 222c 0331 3386 7b34 0790 6030
00000070: 23e8 c934 25f7 0634 bf2e 7134 22ce a933
00000080: ea16 0b35 767a 4b34 073e a233 9c76 8734
00000090: 0000 0000 0000 0000 37b3 3c32 5593 3334
000000a0: 73ab e634 0000 0000 be81 4e34 0000 0000
000000b0: fa68 8d33 0000 0000 0000 0000 3ad3 1134
000000c0: a2dc 4f29 0000 0000 0000 0000 dfe7 3f33
000000d0: 0245 d833 3809 fe33 3e64 2b35 57d1 7933
000000e0: 1349 0234 5036 842b 9b81 3734 3d3f e020
000000f0: 09d6 8634 7f1d 9030 c6b3 ba34 3f67 bc34

exp_avg f4 [2, 64]
-0.0001871036 -2.78676e-05 5.832379e-05 0.0 -0.00010759641 -9.021202e-05 -8.716325e-05 -6e-45
-0.00014469081 -6e-45 -0.00019195444 -0.000219535 -6.626275e-06 -0.0001591028 6e-45 2.3432088e-08
3.1886875e-06 -8.46022e-05 0.0 -6e-45 0.0 -0.0001932375 -1.2892565e-05 -7.012247e-05
-9.3030394e-05 -6e-45 6.2251875e-06 -6e-45 -0.0001060626 -0.00019651832 1.2242341e-05 1.5709693e-05
-7.475864e-05 -5.4504333e-05 7.794849e-06 -1.0156416e-05 0.0 0.0 -0.00011082187 -6.6719726e-06
-0.00015030423 0.0 -1.6576008e-05 0.0 7.713718e-05 0.0 0.0 -0.0002101629
-6e-45 0.0 0.0 -0.00010009147 5.0259914e-06 7.662023e-05 -2.4568746e-05 2.6843563e-05
-0.00015856301 1.109896e-07 -0.00018777426 6e-45 -0.00015772694 -6e-45 -0.00015502262 -3.987175e-05
0.00015946309 0.00015336645 6.497322e-05 0.0 0.00034141671 9.846227e-05 0.0001702658 -6e-45
0.00020216801 -6e-45 0.00010058903 0.00026113036 0.00032080573 9.2727656e-05 -6e-45 5.444553e-08
7.863767e-06 -4.979044e-05 0.0 -6e-45 0.0 0.00028405237 0.00026273105 1.4012353e-05
0.00016266482 -6e-45 0.00012356282 -6e-45 0.00011919478 0.00012766875 -3.022144e-05 2.2315133e-05
-2.2783677e-05 -5.356336e-05 8.66052e-06 9.302084e-05 0.0 0.0 0.00012352623 7.810852e-06
0.0001754836 0.0 0.00036780475 0.0 6.7704685e-05 0.0 0.0 0.0003079129
6e-45 0.0 0.0 8.065988e-05 0.00015883302 8.2855506e-05 0.00031035361 3.4318335e-05
0.00019787502 1.6958541e-08 0.00025162363 -6e-45 8.1410435e-05 -6e-45 0.00010622244 5.555735e-05
00000000: 3d31 44b9 37c5 e9b7 b1a0 7438 0000 0000
00000010: 62a5 e1b8 3630 bdb8 6acb b6b8 0400 0080
00000020: 25b8 17b9 0400 0080 6147 49b9 fa32 66b9
00000030: 4557 deb6 d5d4 26b9 0400 0000 b547 c932
00000040: 3cfd 5536 766c b1b8 0000 0000 0400 0080
00000050: 0000 0000 cc9f 4ab9 254d 58b7 b70e 93b8
00000060: 5019 c3b8 0400 0080 f4e1 d036 0400 0080
00000070: ed6d deb8 7c10 4eb9 7464 4d37 4fc8 8337
00000080: bdc7 9cb8 959b 64b8 9fc6 0237 7965 2ab7
00000090: 0000 0000 0000 0000 0a69 e8b8 cfdf dfb6
000000a0: fc9a 1db9 0000 0000 b50c 8bb7 0000 0000
000000b0: b5c4 a138 0000 0000 0000 0000 2d5f 5cb9
000000c0: 0400 0080 0000 0000 0000 0000 33e8 d1b8
000000d0: f0a4 a836 2caf a038 fb18 ceb7 1d2e e137
000000e0: ef43 26b9 2e59 ee33 45e5 44b9 0400 0000
000000f0: 8163 25b9 0400 0080 918d 22b9 f73b 27b8
00000100: 8c35 2739 fed0 2039 3b42 8838 0000 0000
00000110: 2d00 b339 877d ce38 6189 3239 0400 0080
00000120: 10fd 5339 0400 0080 53f3 d238 53e8 8839
00000130: d131 a839 c876 c238 0400 0080 7ed7 6933
00000140: 9fee 0337 14d6 50b8 0000 0000 0400 0080
00000150: 0000 0000 ddec 9439 2abf 8939 9916 6b37
00000160: 0191 2a39 0400 0080 a490 0139 0400 0080
00000170: 36f8 f938 d2de 0539 0c84 fdb7 6231 bb37
00000180: 931f bfb7 38a9 60b8 a64c 1137 2f14 c338
00000190: 0000 0000 0000 0000 d286 0139 5b0b 0337
000001a0: 0502 3839 0000 0000 ebd5 c039 0000 0000
000001b0: adfc 8d38 0000 0000 0000 0000 5f6f a139
000001c0: 0400 0000 0000 0000 0000 0000 f127 a938
000001d0: 6a8c 2639 b6c2 ad38 f5b6 a239 08f1 0f38
000001e0: ac7c 4f39 3aac 9132 5aec 8339 0400 0080
000001f0: e5ba aa38 0400 0080 bdc3 de38 4006 6938

exp_avg_sq f4 [2, 64]
2.2675063e-06 5.4177934e-07 4.252905e-07 0.0 3.2209657e-06 5.097301e-07 1.0614656e-06 9.767186e-10
2.2756167e-06 2.9560257e-11 1.4716306e-06 3.4452994e-06 1.0382466e-06 1.3614371e-06 9.6179695e-09 1.8211447e-09
3.9927126e-08 3.844629e-07 0.0 2.5485585e-09 0.0 4.1741987e-06 1.0037933e-06 2.1319828e-07
1.6238394e-06 5.428325e-09 2.31388e-07 3.4863223e-10 1.399064e-06 1.926853e-06 2.2173738e-08 5.8419722e-08
1.4080032e-07 1.8604783e-07 1.1245225e-07 1.1304392e-07 0.0 0.0 1.213508e-06 1.6793024e-08
2.206818e-06 0.0 2.3064356e-06 0.0 2.457154e-07 0.0 0.0 3.4040497e-06
4.1171718e-19 0.0 0.0 6.505614e-07 3.6875082e-07 3.921209e-07 1.1634846e-06 1.5476319e-07
1.8434188e-06 2.871726e-12 2.4435403e-06 4.056961e-23 1.3628749e-06 2.0077914e-13 9.959406e-07 4.269638e-07
2.846182e-06 3.8268809e-07 1.1145523e-07 0.0 2.760085e-06 6.1948145e-07 1.0069753e-06 5.653724e-11
2.4278957e-06 5.9382096e-12 2.1738695e-06 4.037158e-06 5.7087055e-07 1.8907833e-06 1.0358072e-09 1.4197892e-09
6.2869843e-09 5.6084417e-07 0.0 1.5647153e-10 0.0 4.4028407e-06 6.215513e-07 2.5060166e-07
1.5202302e-06 2.528049e-09 1.250851e-07 2.8657339e-11 1.4474324e-06 2.6724508e-06 4.514627e-08 1.4816062e-08
3.3598533e-07 3.4421686e-07 1.9001435e-08 6.203137e-08 0.0 0.0 1.3408948e-06 2.1852097e-08
2.3590553e-06 0.0 1.4051177e-06 0.0 7.73479e-08 0.0 0.0 3.963672e-06
8.353952e-20 0.0 0.0 8.33646e-07 1.8394925e-07 1.1795606e-07 7.1637584e-07 3.589973e-08
2.1384908e-06 8.6702493e-13 2.9291364e-06 1.2227437e-24 1.757457e-06 2.8261695e-14 1.5188959e-06 4.0257567e-07
00000000: 762b 1836 cb6e 1135 7b53 e434 0000 0000
00000010: c527 5836 63d4 0835 ae77 8e35 3b3d 8630
00000020: ccb6 1836 e401 022e d884 c535 cb35 6736
00000030: e259 8b35 9fba b635 473c 2532 d54b fa30
00000040: 577c 2b33 2e68 ce34 0000 0000 b722 2f31
00000050: 0000 0000 1810 8c36 13ba 8635 7feb 6434
00000060: b2f2 d935 0d84 ba31 7373 7834 a0a9 bf2f
00000070: 79c7 bb35 154f 0136 9178 be32 2ae9 7a33
00000080: e62e 1734 70c4 4734 477d f133 8dc2 f233
00000090: 0000 0000 0000 0000 d1df a235 4040 9032
000000a0: d818 1436 0000 0000 43c8 1a36 0000 0000
000000b0: deea 8334 0000 0000 0000 0000 2171 6436
000000c0: f108 f320 0000 0000 0000 0000 3da2 2e35
000000d0: baf8 c534 b084 d234 0729 9c35 fb2c 2634
000000e0: 636b f735 6b14 4a2c b4fb 2336 bf2e 441a
000000f0: 06ec b635 a60e 622a 42ac 8535 7539 e534
00000100: 0901 3f36 4074 cd34 2959 ef33 0000 0000
00000110: e639 3936 714a 2635 6827 8735 46a7 782e
00000120: eeee 2236 a3ee d02c cbe2 1136 ec76 8736
00000130: ed3d 1935 d2c6 fd35 3a5c 8e30 6422 c330
00000140: e604 d831 eb8c 1635 0000 0000 d20a 2c2f
00000150: 0000 0000 1dbc 9336 aed8 2635 6e8a 8634
00000160: b60a cc35 e9b9 2d31 214f 0634 9712 fc2d
00000170: 6645 c235 5b58 3336 d9e6 4133 bb89 7e32
00000180: 7961 b434 cecc b834 9938 a332 1b36 8533
00000190: 0000 0000 0000 0000 cbf8 b335 45b5 bb32
000001a0: 4350 1e36 0000 0000 7a97 bc35 0000 0000
000001b0: 751a a633 0000 0000 0000 0000 afff 8436
000001c0: 8b40 c51f 0000 0000 0000 0000 b8c7 5f35
000001d0: 9683 4534 084f fd33 f94c 4035 2c30 1a33
000001e0: fe82 0f36 bb0b 742b 2e92 4436 de35 bd17
000001f0: c3e1 eb35 088f fe28 dedc cb35 9421 d834

exp_avg f4 [2]
-0.0002119557 0.0005034375
00000000: 6d40 5eb9 1ef9 033a

exp_avg_sq f4 [2]
1.321673e-05 1.0267547e-05
00000000: 6cbd 5d37 c742 2c37
