001-machine_learning/data/00001-MLP-temperature/003_checkpoint.pth (torch_old, 110253 bytes, 21 tensors)

exp_avg f4 [64, 4]
0.0 0.004727449 0.003149647 0.0047709015 0.0 0.0 0.0 0.0
0.0 0.0051507535 0.0034182342 0.005263701 0.0 0.001112281 0.00070879277 0.0011702119
0.0 0.0 0.0 0.0 0.0 0.0 0.0 0.0
0.0 0.0 0.0 0.0 0.0 0.0 0.0 0.0
0.0 -1.846242e-07 -2.5327637e-07 -1.542729e-07 0.0 0.005738183 0.003795242 0.005834671
0.0 7.976018e-08 1.543063e-07 1.8494404e-07 0.0 -0.012391035 -0.008087434 -0.01282551
0.0 0.0021340698 0.0013916151 0.002196441 0.0 0.0017530877 0.0011406005 0.0018140583
0.0 0.0087173395 0.0057291766 0.008924836 0.0 0.004080213 0.0027964548 0.0039362395
0.0 0.00529892 0.0034263902 0.005498419 0.0 0.0 0.0 0.0
0.0 0.0007985294 0.0013156298 0.00028330673 0.0 -1.5385622e-06 -5.390149e-10 -2.4555304e-08
0.0 2.9562639e-06 1.1408291e-06 -2.6272764e-07 0.0 0.0 0.0 0.0
0.0 -0.0007812134 -0.00047587292 -0.0006087926 0.0 0.0 0.0 0.0
0.0 0.004225844 0.0027636904 0.004339679 0.0 0.0 0.0 0.0
0.0 -0.00017687761 -9.785788e-05 -0.00020244755 0.0 0.0038510351 0.002544422 0.0039421907
0.0 0.0 0.0 0.0 0.0 -7.43106e-08 -9.02432e-08 -3.2717363e-08
0.0 0.0 0.0 0.0 0.0 1.4047075e-07 2.043875e-07 1.1588975e-07
0.0 0.00012072155 1.6221535e-05 9.745719e-05 0.0 0.0 0.0 0.0
0.0 -0.0019138806 -0.0011459242 -0.0021695867 0.0 -0.0016053955 -0.0007673512 -0.0014051457
0.0 0.0 0.0 0.0 0.0 -1.0956801e-09 -8.279225e-10 -2.978992e-10
0.0 0.0020299521 0.0013740092 0.0020357214 0.0 -0.011952534 -0.007855879 -0.012241885
0.0 0.0 0.0 0.0 0.0 -1.2938095e-07 9.3243475e-09 6.5880956e-10
0.0 0.0040214 0.0026486206 0.0041049123 0.0 0.0016484709 0.0011413358 0.00157756
0.0 0.00623297 0.0040469216 0.006438778 0.0 -0.00096501305 -0.00063971087 -0.0009891758
0.0 0.0031739606 0.002081856 0.0032300097 0.0 -0.00024585568 -2.5688103e-05 -0.00020223232
0.0 0.0 0.0 0.0 0.0 0.0036659043 0.0024097722 0.0037645965
0.0 -0.0007914515 -0.0006921188 -0.00051483815 0.0 0.0 0.0 0.0
0.0 0.0 0.0 0.0 0.0 0.0063837017 0.004161363 0.0066241454
0.0 3.2702074e-10 1.3363789e-09 1.420053e-10 0.0 -0.0031154235 -0.0020459313 -0.0032213184
0.0 0.0018886833 0.0012776206 0.0018975096 0.0 -0.00024093756 -9.478828e-05 -0.00020890699
0.0 -0.00016709835 -1.2254158e-05 -0.00014898139 0.0 0.0 0.0 0.0
0.0 0.0032416556 0.0021612823 0.0032531684 0.0 0.008334488 0.0054905093 0.008513816
0.0 3.0317555e-09 9.770381e-09 5.347762e-09 0.0 1.4549816e-15 2.2091251e-14 6.2567e-17
00000000: 0000 0000 b7e8 9a3b 4f6a 4e3b 3955 9c3b
00000010: 0000 0000 0000 0000 0000 0000 0000 0000
00000020: 0000 0000 a7c7 a83b 7404 603b 207b ac3b
00000030: 0000 0000 f5c9 913a 47ce 393a cc61 993a
00000040: 0000 0000 0000 0000 0000 0000 0000 0000
00000050: 0000 0000 0000 0000 0000 0000 0000 0000
00000060: 0000 0000 0000 0000 0000 0000 0000 0000
00000070: 0000 0000 0000 0000 0000 0000 0000 0000
00000080: 0000 0000 1d3d 46b4 0afa 87b4 36a6 25b4
00000090: 0000 0000 5e07 bc3b 98b9 783b c530 bf3b
000000a0: 0000 0000 9f48 ab33 65af 2534 0895 4634
000000b0: 0000 0000 c503 4bbc 2881 04bc 1722 52bc
000000c0: 0000 0000 c0db 0b3b db66 b63a 2af2 0f3b
000000d0: 0000 0000 ddc7 e53a 3480 953a b2c5 ed3a
000000e0: 0000 0000 2cd3 0e3c d1bb bb3b 7a39 123c
000000f0: 0000 0000 4fb3 853b ba44 373b 92fb 803b
00000100: 0000 0000 90a2 ad3b 4a8d 603b 152c b43b
00000110: 0000 0000 0000 0000 0000 0000 0000 0000
00000120: 0000 0000 6754 513a 3671 ac3a c988 9439
00000130: 0000 0000 9880 ceb5 cd29 14b0 afed d2b2
00000140: 0000 0000 3a64 4636 971e 9935 030d 8db4
00000150: 0000 0000 0000 0000 0000 0000 0000 0000
00000160: 0000 0000 58ca 4cba 957e f9b9 6197 1fba
00000170: 0000 0000 0000 0000 0000 0000 0000 0000
00000180: 0000 0000 f378 8a3b 081f 353b de33 8e3b
00000190: 0000 0000 0000 0000 0000 0000 0000 0000
000001a0: 0000 0000 3978 39b9 0d39 cdb8 1a48 54b9
000001b0: 0000 0000 a661 7c3b 51c0 263b 7e2d 813b
000001c0: 0000 0000 0000 0000 0000 0000 0000 0000
000001d0: 0000 0000 af94 9fb3 b9cb c1b3 1f85 0cb3
000001e0: 0000 0000 0000 0000 0000 0000 0000 0000
000001f0: 0000 0000 4ed4 1634 9c75 5b34 10df f833
00000200: 0000 0000 e32b fd38 7b13 8837 ee61 cc38
00000210: 0000 0000 0000 0000 0000 0000 0000 0000
00000220: 0000 0000 2ddb faba d632 96ba a02f 0ebb
00000230: 0000 0000 226c d2ba 1128 49ba de2c b8ba
00000240: 0000 0000 0000 0000 0000 0000 0000 0000
00000250: 0000 0000 d196 96b0 de93 63b0 96c5 a3af
00000260: 0000 0000 f208 053b 1918 b43a bd69 053b
00000270: 0000 0000 90d4 43bc f2b5 00bc 3092 48bc
00000280: 0000 0000 0000 0000 0000 0000 0000 0000
00000290: 0000 0000 f7eb 0ab4 ea30 2032 9a17 3530
000002a0: 0000 0000 f3c5 833b 7b94 2d3b 8082 863b
000002b0: 0000 0000 8111 d83a e098 953a 21c6 ce3a
000002c0: 0000 0000 f13d cc3b 0a9c 843b 62fc d23b
000002d0: 0000 0000 eef8 7cba 45b2 27ba 3ba7 81ba
000002e0: 0000 0000 3902 503b bf6f 083b 92ae 533b
000002f0: 0000 0000 31e6 80b9 c87c d7b7 530e 54b9
00000300: 0000 0000 0000 0000 0000 0000 0000 0000
00000310: 0000 0000 ab3f 703b 45ed 1d3b 73b7 763b
00000320: 0000 0000 6979 4fba 4e6f 35ba 34f6 06ba
00000330: 0000 0000 0000 0000 0000 0000 0000 0000
00000340: 0000 0000 0000 0000 0000 0000 0000 0000
00000350: 0000 0000 5f2e d13b 0b5c 883b 5c0f d93b
00000360: 0000 0000 14c8 b32f a7ab b730 f022 1c2f
00000370: 0000 0000 222c 4cbb 0815 06bb c11c 53bb
00000380: 0000 0000 b28d f73a d575 a73a dbb5 f83a
00000390: 0000 0000 2fa4 7cb9 12c9 c6b8 0b0e 5bb9
000003a0: 0000 0000 1f37 2fb9 3597 4db7 e337 1cb9
000003b0: 0000 0000 0000 0000 0000 0000 0000 0000
000003c0: 0000 0000 f571 543b 4da4 0d3b 1c33 553b
000003d0: 0000 0000 608d 083c bbe9 b33b 887d 0b3c
000003e0: 0000 0000 3557 5031 97da 2732 69bf b731
000003f0: 0000 0000 59af d126 f5fa c628 0a45 9024

exp_avg_sq f4 [64, 4]
0.0 4.294186e-05 1.7891645e-05 4.0351242e-05 0.0 0.0 0.0 0.0
0.0 5.22625e-05 2.172109e-05 4.8793037e-05 0.0 3.9523566e-06 1.6743205e-06 3.6548824e-06
0.0 0.0 0.0 0.0 0.0 0.0 0.0 0.0
0.0 0.0 0.0 0.0 0.0 0.0 0.0 0.0
0.0 1.21476385e-08 4.2169447e-08 1.7549615e-08 0.0 6.874764e-05 2.8638935e-05 6.4375534e-05
0.0 9.737876e-09 2.6162159e-08 1.7564815e-08 0.0 0.00036648862 0.00015363307 0.000340436
0.0 1.0157948e-05 4.2447527e-06 9.44348e-06 0.0 7.641119e-06 3.1920522e-06 7.1031723e-06
0.0 0.00015228556 6.3461026e-05 0.00014207143 0.0 8.254784e-06 3.4024351e-06 7.779717e-06
0.0 6.424077e-05 2.6621226e-05 5.9406837e-05 0.0 0.0 0.0 0.0
0.0 1.9375586e-05 1.31316265e-05 1.3860657e-05 0.0 8.967478e-07 1.3522392e-06 1.0862955e-06
0.0 8.403471e-11 2.5802768e-11 7.4667383e-13 0.0 0.0 0.0 0.0
0.0 5.864689e-07 4.2712927e-07 4.349937e-07 0.0 0.0 0.0 0.0
0.0 3.7987575e-05 1.585463e-05 3.5399167e-05 0.0 0.0 0.0 0.0
0.0 3.259905e-07 1.5206355e-07 2.9961424e-07 0.0 2.9855988e-05 1.2408499e-05 2.7840808e-05
0.0 0.0 0.0 0.0 0.0 1.9518339e-08 7.170151e-08 3.6551096e-08
0.0 0.0 0.0 0.0 0.0 2.619114e-08 1.2895316e-07 4.5493167e-08
0.0 5.9586018e-08 1.640432e-08 7.673646e-08 0.0 0.0 0.0 0.0
0.0 2.3449304e-05 1.0229236e-05 2.098705e-05 0.0 7.4588614e-05 3.0697727e-05 7.025471e-05
0.0 0.0 0.0 0.0 0.0 1.2504241e-10 4.2093236e-09 9.078214e-10
0.0 6.176529e-06 2.5630645e-06 5.813655e-06 0.0 0.00030277294 0.00012604473 0.00028232628
0.0 0.0 0.0 0.0 0.0 2.4714454e-11 9.3070884e-11 7.703368e-12
0.0 3.2770633e-05 1.3617041e-05 3.0617903e-05 0.0 4.588649e-06 2.0059147e-06 4.3415002e-06
0.0 8.451098e-05 3.535321e-05 7.848366e-05 0.0 2.7264375e-06 1.1463259e-06 2.5586182e-06
0.0 1.909174e-05 7.943749e-06 1.7831373e-05 0.0 7.0442485e-07 6.9838967e-07 8.363273e-07
0.0 0.0 0.0 0.0 0.0 2.5661528e-05 1.070171e-05 2.3840712e-05
0.0 1.3904288e-06 3.4596727e-07 7.673294e-07 0.0 0.0 0.0 0.0
0.0 0.0 0.0 0.0 0.0 9.433945e-05 3.9471368e-05 8.7396635e-05
0.0 1.6391358e-10 3.810874e-09 8.8709345e-10 0.0 2.1584307e-05 9.05552e-06 2.0084773e-05
0.0 5.6364024e-06 2.3440448e-06 5.308193e-06 0.0 1.5964335e-06 6.5394033e-07 1.5026585e-06
0.0 1.2428161e-07 1.8658541e-09 1.04399746e-07 0.0 0.0 0.0 0.0
0.0 1.535737e-05 6.3679377e-06 1.4430512e-05 0.0 0.00014727992 6.1395214e-05 0.0001376233
0.0 1.0015392e-09 1.4425163e-08 4.7747557e-09 0.0 4.911461e-17 6.857641e-15 2.0725338e-17
00000000: 0000 0000 791c 3438 0416 9637 d13e 2938
00000010: 0000 0000 0000 0000 0000 0000 0000 0000
00000020: 0000 0000 6f34 5b38 b035 b637 20a7 4c38
00000030: 0000 0000 7c9e 8436 37b9 e035 6746 7536
00000040: 0000 0000 0000 0000 0000 0000 0000 0000
00000050: 0000 0000 0000 0000 0000 0000 0000 0000
00000060: 0000 0000 0000 0000 0000 0000 0000 0000
00000070: 0000 0000 0000 0000 0000 0000 0000 0000
00000080: 0000 0000 e1b1 5032 cc1d 3533 03c0 9632
00000090: 0000 0000 9c2c 9038 a53d f037 5a01 8738
000000a0: 0000 0000 a24b 2732 32bb e032 70e1 9632
000000b0: 0000 0000 4525 c039 9018 2139 8c7c b239
000000c0: 0000 0000 0e6c 2a37 266e 8e36 706f 1e37
000000d0: 0000 0000 5b32 0037 0a37 5636 c957 ee36
000000e0: 0000 0000 d8ae 1f39 6116 8538 02f9 1439
000000f0: 0000 0000 077e 0a37 6455 6436 a185 0237
00000100: 0000 0000 00b9 8638 a650 df37 9b2b 7938
00000110: 0000 0000 0000 0000 0000 0000 0000 0000
00000120: 0000 0000 c188 a237 e84f 5c37 128b 6837
00000130: 0000 0000 0ab8 7035 967e b535 d4cc 9135
00000140: 0000 0000 56cb b82e abf6 e22d 852b 522b
00000150: 0000 0000 0000 0000 0000 0000 0000 0000
00000160: 0000 0000 d66d 1d35 3350 e534 1489 e934
00000170: 0000 0000 0000 0000 0000 0000 0000 0000
00000180: 0000 0000 d954 1f38 8fff 8437 9179 1438
00000190: 0000 0000 0000 0000 0000 0000 0000 0000
000001a0: 0000 0000 cb03 af34 e946 2334 abda a034
000001b0: 0000 0000 3f73 fa37 192e 5037 ae8b e937
000001c0: 0000 0000 0000 0000 0000 0000 0000 0000
000001d0: 0000 0000 48a9 a732 52fa 9933 5bfc 1c33
000001e0: 0000 0000 0000 0000 0000 0000 0000 0000
000001f0: 0000 0000 edfa e032 6076 0a34 4464 4333
00000200: 0000 0000 85eb 7f33 7be9 8c32 51ca a433
00000210: 0000 0000 0000 0000 0000 0000 0000 0000
00000220: 0000 0000 ffb4 c437 3c9e 2b37 590d b037
00000230: 0000 0000 756c 9c38 6fc1 0038 b655 9338
00000240: 0000 0000 0000 0000 0000 0000 0000 0000
00000250: 0000 0000 4f7c 092f 9aa1 9031 408a 7930
00000260: 0000 0000 fb3f cf36 1d01 2c36 eb12 c336
00000270: 0000 0000 7fbd 9e39 e02a 0439 3105 9439
00000280: 0000 0000 0000 0000 0000 0000 0000 0000
00000290: 0000 0000 0164 d92d 40aa cc2e e384 072d
000002a0: 0000 0000 3373 0938 bf74 6437 b96b 0038
000002b0: 0000 0000 32f8 9936 5a9d 0636 34ad 9136
000002c0: 0000 0000 7d3b b138 3848 1438 9897 a438
000002d0: 0000 0000 d7f7 3636 75db 9935 bab4 2b36
000002e0: 0000 0000 3327 a037 2446 0537 9594 9537
000002f0: 0000 0000 b517 3d35 f978 3b35 f97f 6035
00000300: 0000 0000 0000 0000 0000 0000 0000 0000
00000310: 0000 0000 b643 d737 7f8b 3337 8afd c737
00000320: 0000 0000 c59e ba35 61bd b934 7afa 4d35
00000330: 0000 0000 0000 0000 0000 0000 0000 0000
00000340: 0000 0000 0000 0000 0000 0000 0000 0000
00000350: 0000 0000 1bd8 c538 0f8e 2538 b648 b738
00000360: 0000 0000 9239 342f cdf0 8231 a7d7 7330
00000370: 0000 0000 f20f b537 2aed 1737 b97b a837
00000380: 0000 0000 5420 bd36 624e 1d36 081d b236
00000390: 0000 0000 0a45 d635 708a 2f35 f4ae c935
000003a0: 0000 0000 4572 0534 7438 0031 5e32 e033
000003b0: 0000 0000 0000 0000 0000 0000 0000 0000
000003c0: 0000 0000 b3d3 8037 2bac d536 941a 7237
000003d0: 0000 0000 276f 1a39 4ec1 8038 f94e 1039
000003e0: 0000 0000 87a6 8930 8ad2 7732 320f a431
000003f0: 0000 0000 4c80 6224 9312 f727 5228 bf23

exp_avg f4 [64]
0.00468926 0.0 0.0051012007 0.0010966993 0.0 0.0 0.0 0.0
-3.325306e-07 0.005684818 1.4992294e-07 -0.012251388 0.002109796 0.0017326139 0.008630451 0.0040672133
0.005234555 0.0 0.00085265137 -2.2763297e-06 3.1726286e-06 0.0 -0.00079497346 0.0
0.0041821618 0.0 -0.00017343675 0.0038124155 0.0 -1.4546119e-07 0.0 2.641343e-07
0.00012140211 0.0 -0.0018689685 -0.0016489987 0.0 -1.1045047e-09 0.00201606 -0.011831982
0.0 -1.3234465e-07 0.0039822236 0.0016440933 0.0061643017 -0.00095572113 0.0031440035 -0.00024005982
0.0 0.0036281561 -0.00080168975 0.0 0.0 0.0063073607 1.4380018e-09 -0.0030807394
0.0018764775 -0.00024583915 -0.00016359639 0.0 0.0032181425 0.008253685 1.2942749e-08 2.255046e-14
00000000: 5da8 993b 0000 0000 f927 a73b 1fbf 8f3a
00000010: 0000 0000 0000 0000 0000 0000 0000 0000
00000020: a886 b2b4 b647 ba3b 81fa 2034 0cba 48bc
00000030: 8144 0a3b e018 e33a bc66 0d3c 4246 853b
00000040: a186 ab3b 0000 0000 7784 5f3a 0cc3 18b6
00000050: 58e9 5436 0000 0000 c465 50ba 0000 0000
00000060: 840a 893b 0000 0000 93dc 35b9 b8d9 793b
00000070: 0000 0000 1130 1cb4 0000 0000 57ce 8d34
00000080: 4399 fe38 0000 0000 2df8 f4ba 3723 d8ba
00000090: 0000 0000 4ecd 97b0 e01f 043b eeda 41bc
000000a0: 0000 0000 9f1a 0eb4 507d 823b 9e7e d73a
000000b0: e9fd c93b 5c89 7aba a00b 4e3b 91b8 7bb9
000000c0: 0000 0000 5cc6 6d3b 7d28 52ba 0000 0000
000000d0: 0000 0000 faad ce3b 31a3 c530 3be6 49bb
000000e0: 23f4 f53a f9e3 80b9 128b 2bb9 0000 0000
000000f0: 79e7 523b 773a 073c d05a 5e32 d21d cb28

exp_avg_sq f4 [64]
4.3416523e-05 0.0 5.2951145e-05 4.1016074e-06 0.0 0.0 0.0 0.0
7.207266e-08 6.968175e-05 4.9759436e-08 0.00037530644 1.0380762e-05 7.815226e-06 0.0001547327 8.611061e-06
6.551433e-05 0.0 3.7090296e-05 3.2725832e-06 1.4255837e-10 0.0 1.0643176e-06 0.0
3.8663693e-05 0.0 3.7102635e-07 3.0291987e-05 0.0 1.3637643e-07 0.0 2.0759825e-07
1.5399864e-07 0.0 2.5686079e-05 7.50946e-05 0.0 4.9337996e-09 6.224923e-06 0.00030778293
0.0 4.1175427e-10 3.3248758e-05 4.884108e-06 8.651038e-05 2.7761225e-06 1.93598e-05 2.2280105e-06
0.0 2.6154195e-05 1.4673664e-06 0.0 0.0 9.672332e-05 4.8957585e-09 2.212523e-05
5.6872755e-06 1.601106e-06 1.3855008e-07 0.0 1.549831e-05 0.0001495349 2.3308074e-08 7.957585e-15
00000000: 231a 3638 0000 0000 dc17 5e38 8aa0 8936
00000010: 0000 0000 0000 0000 0000 0000 0000 0000
00000020: 5dc6 9a33 1b22 9238 14b7 5533 c7c4 c439
00000030: 0929 2e37 241e 0337 be3f 2239 3a78 1037
00000040: bd64 8938 0000 0000 6791 1b38 8d9e 5b36
00000050: 9dbe 1c2f 0000 0000 add9 8e35 0000 0000
00000060: d32a 2238 0000 0000 7931 c734 8c1b fe37
00000070: 0000 0000 de6e 1234 0000 0000 2ce8 5e34
00000080: d35a 2534 0000 0000 6f78 d737 1b7c 9d38
00000090: 0000 0000 2986 a931 aedf d036 ed5d a139
000000a0: 0000 0000 435d e22f 9574 0b38 2be2 a336
000000b0: e86c b538 6c4d 3a36 db66 a237 ee84 1536
000000c0: 0000 0000 b565 db37 53f2 c435 0000 0000
000000d0: 0000 0000 f0d7 ca38 8c37 a831 9299 b937
000000e0: 53d5 be36 95e5 d635 5bc4 1434 0000 0000
000000f0: 5e02 8237 78cc 1c39 ff36 c832 e259 0f28

exp_avg f4 [64, 64]
0.0016858127 0.0 0.0010264053 0.0013714044 0.0 0.0 0.0 0.0
2.4203949e-08 0.00094252516 4.32571e-08 6.85204e-05 0.0008930044 0.0011734955 0.0002569216 -1.421139e-05
0.0005714977 0.0 -6.9958546e-06 1.0881894e-07 -6e-45 0.0 0.00025953862 0.0
0.0011729478 0.0 0.0009937075 0.0008796954 0.0 1.1306257e-08 0.0 5.799905e-09
4.881012e-06 0.0 -7.723388e-05 7.568346e-07 0.0 3.3883958e-11 0.0004984567 0.00017064826
0.0 6e-45 0.00046900124 0.00042366658 0.0001979586 0.00051810883 0.0006552614 4.1334292e-06
0.0 0.00038750167 -9.130108e-06 0.0 0.0 0.0009655712 -5.564798e-12 0.0016654778
0.00036906413 2.7782155e-06 6.105909e-06 0.0 3.810282e-05 0.00028529752 -3.973638e-10 6e-45
0.005371665 0.0 0.0032070684 0.0044404003 0.0 0.0 0.0 0.0
-6.6144406e-07 0.0029701868 3.0931233e-08 0.0003442131 0.0028104289 0.0037012086 0.00073134113 -4.2982723e-05
0.001687073 0.0 5.1567645e-06 6.8047164e-08 -2.349483e-06 0.0 0.00079151057 0.0
0.003750996 0.0 0.0033692382 0.0027184994 0.0 1.05082005e-08 0.0 1.0677064e-08
2.11149e-06 0.0 -8.433668e-05 -4.106815e-05 0.0 2.159737e-09 0.0016376183 0.00065802026
0.0 1.8802217e-08 0.0014580305 0.001446412 0.00061536336 0.001799892 0.0019693992 1.0397066e-06
0.0 0.0013110085 1.1816153e-06 0.0 0.0 0.0030156132 3.6432127e-10 0.0055142716
0.001198827 -5.976861e-06 2.9285404e-06 0.0 0.00011507488 0.0008198582 -6.568199e-10 3.309255e-16
9.355478e-05 0.0 5.4759043e-05 7.5882e-05 0.0 0.0 0.0 0.0
-3.5277473e-10 4.739741e-05 -2.109754e-10 1.1029034e-05 4.783474e-05 6.60499e-05 1.2134289e-05 1.5956301e-06
2.7855926e-05 0.0 1.1197941e-08 -2.0542252e-09 6e-45 0.0 1.0188393e-05 0.0
6.396092e-05 0.0 6.056797e-05 4.7866422e-05 0.0 -5.534481e-10 0.0 -6.6498745e-10
-1.4172265e-07 0.0 1.5241814e-06 1.7809141e-06 0.0 6e-45 2.8482282e-05 1.266071e-05
0.0 6e-45 2.3726461e-05 2.7265774e-05 9.670877e-06 3.2720374e-05 3.3934735e-05 4.1999574e-08
0.0 2.1892272e-05 -1.9916681e-12 0.0 0.0 4.8861275e-05 3.5650825e-12 9.901972e-05
2.1155285e-05 1.1414275e-07 -3.089489e-07 0.0 1.8689086e-06 1.3309229e-05 2.7690402e-11 6e-45
0.0 0.0 0.0 0.0 0.0 0.0 0.0 0.0
0.0 0.0 0.0 0.0 0.0 0.0 0.0 0.0
0.0 0.0 0.0 0.0 0.0 0.0 0.0 0.0
0.0 0.0 0.0 0.0 0.0 0.0 0.0 0.0
0.0 0.0 0.0 0.0 0.0 0.0 0.0 0.0
0.0 0.0 0.0 0.0 0.0 0.0 0.0 0.0
0.0 0.0 0.0 0.0 0.0 0.0 0.0 0.0
0.0 0.0 0.0 0.0 0.0 0.0 0.0 0.0
00000000: 7df6 dc3a 0000 0000 7288 863a b2c0 b33a
00000010: 0000 0000 0000 0000 0000 0000 0000 0000
00000020: 0ce9 cf32 cb13 773a afc9 3933 9cb2 8f38
00000030: 8318 6a3a facf 993a 6fb3 8639 756d 6eb7
00000040: 90d0 153a 0000 0000 efbd eab6 d8af e933
00000050: 0400 0080 0000 0000 af12 8839 0000 0000
00000060: 99bd 993a 0000 0000 4a3f 823a 5c9b 663a
00000070: 0000 0000 723d 4232 0000 0000 8148 c731
00000080: 93c7 a336 0000 0000 a0f8 a1b8 4729 4b35
00000090: 0000 0000 f205 152e ddaa 023a 0bf0 3239
000000a0: 0000 0000 0400 0000 48e4 f539 911f de39
000000b0: 1b93 4f39 b2d1 073a d9c5 2b3a e3b1 8a36
000000c0: 0000 0000 9829 cb39 842d 19b7 0000 0000
000000d0: 0000 0000 631e 7d3a 3fcb c3ac 294c da3a
000000e0: f37e c139 6171 3a36 5ce1 cc36 0000 0000
000000f0: 97d0 1f38 fc93 9539 fc73 daaf 0400 0000
00000100: cb04 b03b 0000 0000 ae2d 523b c780 913b
00000110: 0000 0000 0000 0000 0000 0000 0000 0000
00000120: 178e 31b5 77a7 423b 40d9 0433 8077 b439
00000130: 2c2f 383b fa8f 723b 79b7 3f3a 5948 34b8
00000140: c720 dd3a 0000 0000 4508 ad36 5321 9233
00000150: d0ab 1db6 0000 0000 607d 4f3a 0000 0000
00000160: 45d3 753b 0000 0000 70ce 5c3b da28 323b
00000170: 0000 0000 8e87 3432 0000 0000 396e 3732
00000180: 1fb3 0d36 0000 0000 e9dd b0b8 9740 2cb8
00000190: 0000 0000 7f6a 1431 5aa5 d63a fe7e 2c3a
000001a0: 0000 0000 8382 a132 631b bf3a 8895 bd3a
000001b0: 5650 213a 5bea eb3a 0911 013b 0c8c 8b35
000001c0: 0000 0000 25d6 ab3a fe97 9e35 0000 0000
000001d0: 0000 0000 98a1 453b a949 c82f 10b1 b43b
000001e0: f621 9d3a d88c c8b6 f187 4436 0000 0000
000001f0: 5b54 f138 c1eb 563a 978b 34b0 fcc3 be25
00000200: d732 c438 0000 0000 13ad 6538 d722 9f38
00000210: 0000 0000 0000 0000 0000 0000 0000 0000
00000220: a1f0 c1af 95cc 4638 4cf8 67af 5709 3937
00000230: 29a2 4838 4584 8a38 6094 4b37 6f29 d635
00000240: 25ac e937 0000 0000 1161 4032 502a 0db1
00000250: 0400 0000 0000 0000 d1ee 2a37 0000 0000
00000260: c222 8638 0000 0000 5d0a 7e38 2ec4 4838
00000270: 0000 0000 7321 18b0 0000 0000 55ca 36b0
00000280: 6d2c 18b4 0000 0000 7992 cc35 be07 ef35
00000290: 0000 0000 0400 0000 3ced ee37 5669 5437
000002a0: 0000 0000 0400 0000 3008 c737 ceb8 e437
000002b0: 1a40 2237 3c3d 0938 2555 0e38 0563 3433
000002c0: 0000 0000 4ca5 b737 b426 0cac 0000 0000
000002d0: 0000 0000 65f0 4c38 d1de 7a2c cfa8 cf38
000002e0: a176 b137 a41e f533 9ddd a5b4 0000 0000
000002f0: 36d7 fa35 b44a 5f37 3e91 f32d 0400 0000
00000300: 0000 0000 0000 0000 0000 0000 0000 0000
00000310: 0000 0000 0000 0000 0000 0000 0000 0000
00000320: 0000 0000 0000 0000 0000 0000 0000 0000
00000330: 0000 0000 0000 0000 0000 0000 0000 0000
00000340: 0000 0000 0000 0000 0000 0000 0000 0000
00000350: 0000 0000 0000 0000 0000 0000 0000 0000
00000360: 0000 0000 0000 0000 0000 0000 0000 0000
00000370: 0000 0000 0000 0000 0000 0000 0000 0000
00000380: 0000 0000 0000 0000 0000 0000 0000 0000
00000390: 0000 0000 0000 0000 0000 0000 0000 0000
000003a0: 0000 0000 0000 0000 0000 0000 0000 0000
000003b0: 0000 0000 0000 0000 0000 0000 0000 0000
000003c0: 0000 0000 0000 0000 0000 0000 0000 0000
000003d0: 0000 0000 0000 0000 0000 0000 0000 0000
000003e0: 0000 0000 0000 0000 0000 0000 0000 0000
000003f0: 0000 0000 0000 0000 0000 0000 0000 0000

exp_avg_sq f4 [64, 64]
7.3589035e-06 0.0 2.4949716e-06 5.0410445e-06 0.0 0.0 0.0 0.0
9.612415e-10 2.1078495e-06 2.243522e-09 7.96512e-08 1.9510433e-06 3.5034655e-06 1.18918116e-07 1.3234972e-09
6.282433e-07 0.0 3.071505e-09 4.920868e-09 3.3623578e-17 0.0 1.2724593e-07 0.0
3.5926232e-06 0.0 3.2233713e-06 1.8199818e-06 0.0 1.4773218e-09 0.0 9.349822e-10
2.8691263e-10 0.0 3.473715e-08 2.027879e-09 0.0 2.218922e-12 7.1899507e-07 1.4078194e-07
0.0 3.6975116e-16 5.413957e-07 6.532243e-07 1.0148416e-07 9.742699e-07 9.1110434e-07 1.4006698e-09
0.0 4.7349224e-07 9.1433985e-11 0.0 0.0 2.150491e-06 9.755346e-12 8.364566e-06
3.7692485e-07 1.3942125e-10 1.3025848e-10 0.0 5.277697e-09 1.4763677e-07 1.2308386e-10 2.918887e-18
4.0923565e-05 0.0 1.410074e-05 2.7901222e-05 0.0 0.0 0.0 0.0
2.4002285e-09 1.1640013e-05 5.604449e-09 3.8987378e-07 1.08896875e-05 1.9634248e-05 6.7291984e-07 5.7269025e-09
3.6257068e-06 0.0 8.2850775e-09 1.3084662e-08 9.316149e-12 0.0 6.707889e-07 0.0
1.9760399e-05 0.0 1.7387927e-05 1.02966305e-05 0.0 4.5419606e-09 0.0 2.2582778e-09
8.091466e-10 0.0 7.178505e-08 9.112511e-09 0.0 7.768461e-12 3.9123274e-06 7.5419524e-07
0.0 9.3803385e-12 2.8714503e-06 3.4054406e-06 5.084532e-07 5.132927e-06 5.195588e-06 5.3814717e-09
0.0 2.506339e-06 7.406418e-10 0.0 0.0 1.2011087e-05 9.7672e-12 4.5639477e-05
2.090977e-06 1.7450048e-10 1.1000829e-10 0.0 2.0919039e-08 8.3573184e-07 3.1530586e-10 1.9667468e-18
2.390858e-07 0.0 8.2835875e-08 1.6292493e-07 0.0 0.0 0.0 0.0
1.1272766e-11 6.871225e-08 3.7578704e-11 1.9613569e-09 6.3904096e-08 1.1467193e-07 4.0149004e-09 1.9973759e-11
2.1532157e-08 0.0 1.0223493e-11 4.9842734e-11 4.9377124e-18 0.0 4.043807e-09 0.0
1.15579304e-07 0.0 1.0014424e-07 6.04237e-08 0.0 2.0079325e-11 0.0 1.6997325e-11
5.5303422e-12 0.0 1.9400069e-10 4.968242e-11 0.0 4.735472e-14 2.2738869e-08 4.2482644e-09
0.0 2.7220764e-16 1.6957921e-08 1.9450976e-08 3.0148861e-09 2.9366799e-08 3.0672624e-08 1.9292326e-11
0.0 1.4541268e-08 2.9768015e-16 0.0 0.0 7.089913e-08 1.9447994e-13 2.639477e-07
1.2173187e-08 3.0294881e-12 5.3520225e-13 0.0 1.2478636e-10 4.9904654e-09 1.5032469e-12 1.2444283e-18
0.0 0.0 0.0 0.0 0.0 0.0 0.0 0.0
0.0 0.0 0.0 0.0 0.0 0.0 0.0 0.0
0.0 0.0 0.0 0.0 0.0 0.0 0.0 0.0
0.0 0.0 0.0 0.0 0.0 0.0 0.0 0.0
0.0 0.0 0.0 0.0 0.0 0.0 0.0 0.0
0.0 0.0 0.0 0.0 0.0 0.0 0.0 0.0
0.0 0.0 0.0 0.0 0.0 0.0 0.0 0.0
0.0 0.0 0.0 0.0 0.0 0.0 0.0 0.0
00000000: 80ec f636 0000 0000 496f 2736 3e26 a936
00000010: 0000 0000 0000 0000 0000 0000 0000 0000
00000020: ae1c 8430 9474 0d36 752c 1a31 b60c ab33
00000030: abee 0236 141d 6b36 ed5f ff33 6be6 b530
00000040: 8da4 2835 0000 0000 7d12 5331 6a14 a931
00000050: b70f 1b24 0000 0000 18a1 0834 0000 0000
00000060: cc18 7136 0000 0000 1951 5836 1946 f435
00000070: 0000 0000 a40a cb30 0000 0000 c380 8030
00000080: 5dbb 9d2f 0000 0000 e631 1533 d35a 0b31
00000090: 0000 0000 8c24 1c2c f700 4135 d829 1734
000000a0: 0000 0000 a425 d525 6e54 1135 3b59 2f35
000000b0: 82ef d933 a9c3 8235 9d92 7435 b081 c030
000000c0: 0000 0000 4734 fe34 c210 c92e 0000 0000
000000d0: 0000 0000 2751 1036 2c9e 2b2d 8a55 0c37
000000e0: 285c ca34 984b 192f 8138 0f2f 0000 0000
000000f0: 1d57 b531 1686 1e34 0755 072f 3760 5722
00000100: 58a5 2b38 0000 0000 3892 6c37 6b0d ea37
00000110: 0000 0000 0000 0000 0000 0000 0000 0000
00000120: 44f1 2431 7a49 4337 4191 c031 d84f d134
00000130: dab2 3637 3ab4 a437 b3a2 3435 5ec6 c431
00000140: 2b51 7336 0000 0000 2856 0e32 f4ca 6032
00000150: 35e4 232d 0000 0000 4310 3435 0000 0000
00000160: 22c3 a537 0000 0000 4adc 9137 b1bf 2c37
00000170: 0000 0000 820f 9c31 0000 0000 0b30 1b31
00000180: a16a 5e30 0000 0000 4028 9a33 3f8d 1c32
00000190: 0000 0000 0aaa 082d a346 8336 e773 4a35
000001a0: 0000 0000 4a05 252d 24b3 4036 0689 6436
000001b0: a37c 0835 823b ac36 c355 ae36 ede7 b831
000001c0: 0000 0000 9332 2836 0996 4b30 0000 0000
000001d0: 0000 0000 3a83 4937 8fd3 2b2d 046d 3f38
000001e0: b652 0c36 85dd 3f2f 29e9 f12e 0000 0000
000001f0: 74b1 b332 0e57 6035 5b57 ad2f cc1e 1122
00000200: b45b 8034 0000 0000 81e3 b133 77f0 2e34
00000210: 0000 0000 0000 0000 0000 0000 0000 0000
00000220: 0650 462d f58e 9333 dc45 252e 8ec8 0631
00000230: a63b 8933 8f41 f633 70f3 8931 e8b0 af2d
00000240: b7f5 b832 0000 0000 85da 332d ee35 5b2e
00000250: 602b b622 0000 0000 b4f1 8a31 0000 0000
00000260: 6534 f833 0000 0000 e10e d733 48c2 8133
00000270: 0000 0000 9f9e b02d 0000 0000 9382 952d
00000280: e594 c22c 0000 0000 574e 552f 6f81 5a2e
00000290: 0000 0000 4644 5529 4d53 c332 21f8 9131
000002a0: 0000 0000 c2ea 9c25 ddaa 9132 2615 a732
000002b0: 702e 4f31 4642 fc32 e8bc 0333 75b2 a92d
000002c0: 0000 0000 2cd1 7932 d699 ab25 0000 0000
000002d0: 0000 0000 3541 9833 07f7 5a2a b2b4 8d34
000002e0: 3e22 5132 682e 552c 63a5 162b 0000 0000
000002f0: 3d34 092f 9978 ab31 2d90 d32b 2ca5 b721
00000300: 0000 0000 0000 0000 0000 0000 0000 0000
00000310: 0000 0000 0000 0000 0000 0000 0000 0000
00000320: 0000 0000 0000 0000 0000 0000 0000 0000
00000330: 0000 0000 0000 0000 0000 0000 0000 0000
00000340: 0000 0000 0000 0000 0000 0000 0000 0000
00000350: 0000 0000 0000 0000 0000 0000 0000 0000
00000360: 0000 0000 0000 0000 0000 0000 0000 0000
00000370: 0000 0000 0000 0000 0000 0000 0000 0000
00000380: 0000 0000 0000 0000 0000 0000 0000 0000
00000390: 0000 0000 0000 0000 0000 0000 0000 0000
000003a0: 0000 0000 0000 0000 0000 0000 0000 0000
000003b0: 0000 0000 0000 0000 0000 0000 0000 0000
000003c0: 0000 0000 0000 0000 0000 0000 0000 0000
000003d0: 0000 0000 0000 0000 0000 0000 0000 0000
000003e0: 0000 0000 0000 0000 0000 0000 0000 0000
000003f0: 0000 0000 0000 0000 0000 0000 0000 0000

exp_avg f4 [64]
0.0016670816 0.005499593 0.00010042776 0.0 0.0 6e-45 -0.007214172 0.0031288704
0.006380936 -2.7398067e-10 0.006314153 6e-45 0.0 6e-45 6e-45 0.0020234538
6e-45 0.0 0.007262295 0.007812947 -4.6954884e-08 6e-45 6e-45 6e-45
0.0005043179 6e-45 0.007054166 6e-45 0.0 0.0007621142 0.0 0.0018950573
0.0 0.00519429 6e-45 0.0 6e-45 0.008833599 9.53808e-07 6e-45
0.005198607 0.0010755032 0.006767374 0.000254965 6e-45 -2.6524713e-05 6e-45 -2.5154093e-05
6e-45 6e-45 0.010697079 -6e-45 0.0 6e-45 0.00025004862 -0.0049521467
0.008980367 0.0 0.0 0.0019779615 0.0006761706 6e-45 6e-45 0.0
00000000: fa81 da3a ee35 b43b be9c d238 0000 0000
00000010: 0000 0000 0400 0000 dc64 ecbb bc0d 4d3b
00000020: 2c17 d13b 5a9f 96af f4e6 ce3b 0400 0000
00000030: 0000 0000 0400 0000 0400 0000 ec9b 043b
00000040: 0400 0000 0000 0000 8cf8 ed3b e001 003c
00000050: 71ab 49b3 0400 0000 0400 0000 0400 0000
00000060: 3434 043a 0400 0000 a226 e73b 0400 0000
00000070: 0000 0000 9ec8 473a 0000 0000 9263 f83a
00000080: 0000 0000 dd34 aa3b 0400 0000 0000 0000
00000090: 0400 0000 cdba 103c 9804 8035 0400 0000
000000a0: 1459 aa3b e6f7 8c3a d9c0 dd3b d3ac 8539
000000b0: 0400 0000 6381 deb7 0400 0000 0102 d3b7
000000c0: 0400 0000 0400 0000 cd42 2f3c 0400 0080
000000d0: 0000 0000 0400 0000 f518 8339 9e45 a2bb
000000e0: 6422 133c 0000 0000 0000 0000 b0a0 013b
000000f0: 0a41 313a 0400 0000 0400 0000 0000 0000

exp_avg_sq f4 [64]
8.551121e-06 4.6146997e-05 2.6627853e-07 0.0 0.0 7.231331e-13 9.206317e-05 1.8072842e-05
7.6785844e-05 1.1764188e-10 8.477229e-05 2.4400322e-11 0.0 5.7986564e-13 6.038598e-13 9.699087e-06
5.853388e-14 0.0 0.00010090084 0.00011430061 2.4877365e-09 1.4595031e-21 2.5430666e-10 2.775946e-13
2.7384542e-06 1.6856133e-11 9.6966505e-05 1.1990928e-13 0.0 4.4026206e-06 0.0 6.8844497e-06
0.0 5.650886e-05 1.0881698e-12 0.0 3.1561083e-16 0.00014945595 2.869826e-10 8.4400087e-13
5.5676366e-05 9.43013e-06 8.490062e-05 4.4854823e-07 8.631589e-12 3.4838887e-08 3.6361146e-13 2.4287488e-07
6.5121655e-13 3.0907398e-11 0.00021650668 1.4372621e-11 0.0 1.0376413e-11 7.96786e-07 3.192653e-05
0.00015973707 0.0 0.0 3.3011163e-06 2.3441783e-06 5.314719e-10 2.8038452e-09 0.0
00000000: c976 0f37 f68d 4138 0bf5 8e34 0000 0000
00000010: 0000 0000 3b8b 4b2b 0a12 c138 229b 9737
00000020: 1608 a138 3f59 012f c7c7 b138 a4a0 d62d
00000030: 0000 0000 b937 232b aff8 292b 43b9 2237
00000040: 7cce 8329 0000 0000 ba9a d338 acb4 ef38
00000050: b9f4 2a31 cb8d dc1c 7bce 8b2f 9945 9c2a
00000060: 49c6 3736 a344 942d 7f5a cb38 7f01 072a
00000070: 0000 0000 39ba 9336 0000 0000 f900 e736
00000080: 0000 0000 ed03 6d38 7325 992b 0000 0000
00000090: f0ef b525 47b7 1c39 36c5 9d2f ac90 6d2b
000000a0: 0b86 6938 1a36 1e37 ac0c b238 00d0 f034
000000b0: 39d9 172d c3a1 1533 efb1 cc2a 7864 8234
000000c0: 194d 372b a3ee 072e 1206 6339 88d8 7c2d
000000d0: 0000 0000 368b 362d b8e2 5535 dae8 0538
000000e0: 187f 2739 0000 0000 0000 0000 bf88 5d36
000000f0: ad50 1d36 0317 1230 c4ad 4031 0000 0000

exp_avg f4 [64, 64]
0.0014021039 -0.00015505015 0.00018114761 0.0 0.0 -6e-45 0.0010953008 0.0011887635
0.0035050537 -2.320656e-11 0.00217803 6e-45 0.0 -6e-45 6e-45 0.0026738662
6e-45 0.0 0.0032723467 0.0015887553 8.016675e-09 6e-45 6e-45 6e-45
-2.7808945e-05 -6e-45 0.0038897481 -6e-45 0.0 -2.5729138e-05 0.0 0.0019830673
0.0 0.0027462498 6e-45 0.0 6e-45 0.0024743895 -6e-45 -6e-45
0.0030893125 -2.8872908e-05 0.0021305715 7.1466343e-07 -6e-45 5.2107393e-06 6e-45 1.4840972e-06
-6e-45 6e-45 0.0031754714 -6e-45 0.0 -6e-45 -9.9659155e-06 0.00074852584
0.0023877514 0.0 0.0 0.0014431684 -3.8689588e-05 6e-45 6e-45 0.0
1.7579041e-05 5.622441e-06 -5.4569632e-08 0.0 0.0 6e-45 3.7056159e-06 1.2839462e-05
6.5262626e-05 1.4869116e-11 2.191667e-05 6e-45 0.0 6e-45 -6e-45 4.746113e-05
-6e-45 0.0 6.4382904e-05 1.084223e-05 4.4821312e-12 0.0 -6e-45 6e-45
-4.0221444e-06 6e-45 8.660684e-05 -6e-45 0.0 -4.0711652e-07 0.0 3.9615425e-05
0.0 4.2773903e-05 -6e-45 0.0 -6e-45 2.7194326e-05 3.1890728e-09 6e-45
6.300978e-05 -9.091879e-07 3.515917e-05 -1.1074853e-05 6e-45 -1.4299213e-06 6e-45 -8.466434e-07
6e-45 6e-45 4.2622476e-05 6e-45 0.0 6e-45 -2.7459166e-06 1.6948466e-06
2.6122245e-05 0.0 0.0 3.0552746e-05 1.6047942e-06 6e-45 6e-45 0.0
6e-45 6e-45 6e-45 0.0 0.0 6e-45 0.0 6e-45
6e-45 6e-45 6e-45 6e-45 0.0 6e-45 6e-45 6e-45
0.0 0.0 6e-45 6e-45 6e-45 0.0 0.0 6e-45
6e-45 6e-45 6e-45 6e-45 0.0 6e-45 0.0 6e-45
0.0 6e-45 0.0 0.0 0.0 6e-45 6e-45 6e-45
6e-45 6e-45 6e-45 0.0 0.0 6e-45 -6e-45 0.0
6e-45 6e-45 6e-45 6e-45 0.0 6e-45 6e-45 6e-45
6e-45 0.0 0.0 6e-45 6e-45 6e-45 6e-45 0.0
-6e-45 -6e-45 6e-45 0.0 0.0 6e-45 6e-45 6e-45
6e-45 -6e-45 -6e-45 6e-45 0.0 6e-45 6e-45 6e-45
-6e-45 0.0 6e-45 -6e-45 -6e-45 -6e-45 -6e-45 6e-45
0.0 6e-45 -6e-45 6e-45 0.0 -6e-45 0.0 6e-45
0.0 -6e-45 0.0 0.0 0.0 -6e-45 6e-45 6e-45
-6e-45 -6e-45 6e-45 6e-45 0.0 6e-45 -6e-45 -6e-45
6e-45 6e-45 6e-45 -6e-45 0.0 0.0 -6e-45 -6e-45
-6e-45 0.0 0.0 -6e-45 6e-45 -6e-45 -6e-45 0.0
00000000: cdc6 b73a f594 22b9 71f2 3d39 0000 0000
00000010: 0000 0000 0400 0080 3290 8f3a 49d0 9b3a
00000020: 0bb5 653b 8720 ccad 48bd 0e3b 0400 0000
00000030: 0000 0000 0400 0080 0400 0000 083c 2f3b
00000040: 0400 0000 0000 0000 de74 563b c83d d03a
00000050: b6b9 0932 0400 0000 0400 0000 0400 0000
00000060: 4147 e9b7 0400 0080 25eb 7e3b 0400 0080
00000070: 0000 0000 e7d4 d7b7 0000 0000 59f6 013b
00000080: 0000 0000 6dfa 333b 0400 0000 0000 0000
00000090: 0400 0000 5e29 223b 0400 0080 0400 0080
000000a0: 1076 4a3b 1934 f2b7 0fa1 0b3b 4cd7 3f35
000000b0: 0400 0080 e9d7 ae36 0400 0000 3131 c735
000000c0: 0400 0080 0400 0000 921b 503b 0400 0080
000000d0: 0000 0000 0400 0080 4833 27b7 b838 443a
000000e0: d27b 1c3b 0000 0000 0000 0000 b228 bd3a
000000f0: a146 22b8 0400 0000 0400 0000 0000 0000
00000100: b476 9337 67a8 bc36 f25f 6ab3 0000 0000
00000110: 0000 0000 0400 0000 ffad 7836 1269 5737
00000120: 9bdd 8838 46ca 822d b1d9 b737 0400 0000
00000130: 0000 0000 0400 0000 0400 0080 0011 4738
00000140: 0400 0080 0000 0000 4f05 8738 06e7 3537
00000150: 73b3 9d2c 0000 0000 0400 0080 0400 0000
00000160: f5f5 86b6 0400 0000 b1a0 b538 0400 0080
00000170: 0000 0000 ab91 dab4 0000 0000 bd28 2638
00000180: 0000 0000 2168 3338 0400 0080 0000 0000
00000190: 0400 0080 5f1f e437 c326 5b31 0400 0000
000001a0: 1e24 8438 eb0e 74b5 df77 1338 22ce 39b7
000001b0: 0400 0000 b9eb bfb5 0400 0000 e444 63b5
000001c0: 0400 0000 0400 0000 89c5 3238 0400 0000
000001d0: 0000 0000 0400 0000 7d46 38b6 7c7a e335
000001e0: 1821 db37 0000 0000 0000 0000 c325 0038
000001f0: 4f64 d735 0400 0000 0400 0000 0000 0000
00000200: 0400 0000 0400 0000 0400 0000 0000 0000
00000210: 0000 0000 0400 0000 0000 0000 0400 0000
00000220: 0400 0000 0400 0000 0400 0000 0400 0000
00000230: 0000 0000 0400 0000 0400 0000 0400 0000
00000240: 0000 0000 0000 0000 0400 0000 0400 0000
00000250: 0400 0000 0000 0000 0000 0000 0400 0000
00000260: 0400 0000 0400 0000 0400 0000 0400 0000
00000270: 0000 0000 0400 0000 0000 0000 0400 0000
00000280: 0000 0000 0400 0000 0000 0000 0000 0000
00000290: 0000 0000 0400 0000 0400 0000 0400 0000
000002a0: 0400 0000 0400 0000 0400 0000 0000 0000
000002b0: 0000 0000 0400 0000 0400 0080 0000 0000
000002c0: 0400 0000 0400 0000 0400 0000 0400 0000
000002d0: 0000 0000 0400 0000 0400 0000 0400 0000
000002e0: 0400 0000 0000 0000 0000 0000 0400 0000
000002f0: 0400 0000 0400 0000 0400 0000 0000 0000
00000300: 0400 0080 0400 0080 0400 0000 0000 0000
00000310: 0000 0000 0400 0000 0400 0000 0400 0000
00000320: 0400 0000 0400 0080 0400 0080 0400 0000
00000330: 0000 0000 0400 0000 0400 0000 0400 0000
00000340: 0400 0080 0000 0000 0400 0000 0400 0080
00000350: 0400 0080 0400 0080 0400 0080 0400 0000
00000360: 0000 0000 0400 0000 0400 0080 0400 0000
00000370: 0000 0000 0400 0080 0000 0000 0400 0000
00000380: 0000 0000 0400 0080 0000 0000 0000 0000
00000390: 0000 0000 0400 0080 0400 0000 0400 0000
000003a0: 0400 0080 0400 0080 0400 0000 0400 0000
000003b0: 0000 0000 0400 0000 0400 0080 0400 0080
000003c0: 0400 0000 0400 0000 0400 0000 0400 0080
000003d0: 0000 0000 0000 0000 0400 0080 0400 0080
000003e0: 0400 0080 0000 0000 0000 0000 0400 0080
000003f0: 0400 0000 0400 0080 0400 0080 0000 0000

exp_avg_sq f4 [64, 64]
2.7818664e-06 1.7882554e-08 2.0389653e-08 0.0 0.0 1.6622486e-15 1.3703515e-06 1.9789738e-06
2.0107844e-05 1.1952746e-10 7.1005234e-06 1.8049113e-11 0.0 1.1726549e-16 2.5378525e-13 1.20540935e-05
2.7400137e-16 0.0 1.8126495e-05 3.5709397e-06 9.036974e-11 1.7332229e-24 4.435768e-12 7.760845e-13
1.0639253e-08 3.7578962e-13 2.575146e-05 5.4883847e-15 0.0 7.623562e-09 0.0 6.536066e-06
0.0 1.2004003e-05 7.342242e-16 0.0 7.469475e-17 8.9587575e-06 2.2881237e-10 2.6080312e-13
1.6430213e-05 9.128824e-09 7.032418e-06 1.2760464e-09 1.5430077e-13 5.7967093e-11 7.740527e-16 2.7519934e-10
1.6913822e-14 2.2984628e-11 1.5598813e-05 1.041897e-11 0.0 3.902402e-13 2.7713967e-09 6.214392e-07
8.53603e-06 0.0 0.0 3.997912e-06 8.972292e-09 2.6126035e-11 4.316232e-11 0.0
8.4603513e-10 1.1598477e-09 1.9960473e-11 0.0 0.0 1.0426011e-17 9.52658e-12 4.2232165e-10
9.812323e-09 1.6606833e-13 1.6902891e-09 4.0376512e-14 0.0 8.236025e-19 9.264781e-16 6.799157e-09
1.4153815e-19 0.0 1.1644506e-08 7.4855816e-10 1.3205711e-13 0.0 5.9080016e-19 2.9634136e-15
1.3628606e-09 1.766784e-15 2.1988471e-08 9.71569e-19 0.0 1.0470743e-09 0.0 3.789876e-09
0.0 4.317935e-09 5.6414364e-19 0.0 7.685958e-20 2.549369e-09 1.5029792e-14 1.3015111e-15
1.2518196e-08 1.2009417e-09 2.6286955e-09 1.7460292e-10 1.6646936e-16 6.753651e-12 7.304686e-20 1.1099648e-11
8.988775e-17 6.6251997e-14 4.571746e-09 2.2407274e-14 0.0 1.6731511e-15 4.2777415e-10 1.5628698e-12
3.1034395e-09 0.0 0.0 6.5929684e-09 1.0435471e-09 2.0150909e-14 3.0363438e-14 0.0
5.6387617e-14 3.132832e-15 5.2411963e-14 0.0 0.0 2.2499652e-17 0.0 3.4314205e-15
1.1916654e-13 4.0408262e-14 3.5324103e-14 7.459361e-15 0.0 1.6093305e-19 1.3367422e-17 8.536403e-14
0.0 0.0 1.4515236e-13 1.4956979e-14 2.4800257e-14 0.0 0.0 4.790642e-16
9.6662275e-18 8.67943e-17 1.1888532e-13 2.3046496e-15 0.0 2.5841757e-14 0.0 3.1732443e-14
0.0 1.1558204e-13 0.0 0.0 0.0 2.8819021e-15 3.4931258e-15 7.8128683e-16
1.800595e-13 5.23449e-14 2.1297818e-14 0.0 0.0 3.4624742e-15 8.81896e-25 0.0
1.4178777e-17 4.1494247e-14 2.1630782e-14 1.28527365e-14 0.0 1.1155992e-16 5.242682e-14 2.959866e-14
4.883846e-15 0.0 0.0 8.47862e-14 5.2356187e-14 2.0044438e-14 3.2344142e-15 0.0
2.4984702e-12 8.3969995e-13 2.7842529e-12 0.0 0.0 6.569521e-16 1.9429333e-14 1.8318046e-13
1.017256e-12 1.1827995e-12 3.8097834e-13 1.1964065e-12 0.0 5.106822e-17 9.038165e-14 1.2967486e-12
1.7757033e-17 0.0 7.046056e-13 4.783958e-13 3.478311e-13 2.9530315e-25 8.912691e-16 2.7297083e-13
0.0 1.5206057e-13 3.5970079e-12 4.3661306e-17 0.0 1.5201824e-14 0.0 2.2647249e-12
0.0 1.0160728e-12 0.0 0.0 0.0 2.783762e-13 7.710271e-13 1.0624929e-13
2.8579064e-12 5.4766206e-14 4.189911e-13 6.5338e-17 0.0 8.955236e-22 2.8439013e-18 7.3048637e-20
7.0186298e-15 5.1571074e-13 6.3304693e-15 2.2068037e-14 0.0 0.0 2.871287e-12 1.0007549e-13
1.3470828e-13 0.0 0.0 1.718267e-12 2.6866286e-14 1.1210344e-13 5.6437202e-14 0.0
00000000: 1ab0 3a36 279c 9932 5225 af32 0000 0000
00000010: 0000 0000 268e ef26 ebec b735 83ce 0436
00000020: 44ad a837 fd6b 032f 0841 ee36 fdc2 9e2d
00000030: 0000 0000 aa32 0725 4fde 8e2a f03b 4a37
00000040: 77f3 9d25 0000 0000 5a0e 9837 47a4 6f36
00000050: a4b9 c62e 041a 0618 d911 9c2c c872 5a2b
00000060: eec7 3632 fe8c d32a d704 d837 6abd c527
00000070: 0000 0000 c8f8 0232 0000 0000 6150 db36
00000080: 0000 0000 cd64 4937 2fa0 5326 0000 0000
00000090: ff3b ac24 924d 1637 f594 7b2f b1d1 922a
000000a0: 9dd3 8937 fed4 1c32 03f8 eb36 e460 af30
000000b0: 2bba 2d2a 25f1 7e2e 021b 5f26 dd4a 972f
000000c0: 9e58 9828 c82c ca2d 32da 8237 df4a 372d
000000d0: 0000 0000 8aaf db2a ed72 3e31 fad0 2635
000000e0: f835 0f37 0000 0000 0000 0000 cd25 8636
000000f0: 8f24 1a32 9ace e52d 74d4 3d2e 0000 0000
00000100: 6e8e 6830 8368 9f30 fd92 af2d 0000 0000
00000110: 0000 0000 7253 4023 e797 272d 7d2c e82f
00000120: 0e93 2832 f0f9 3a2a c34f e830 f3d6 3529
00000130: 0000 0000 a515 7321 0285 8526 049e e931
00000140: 4819 2720 0000 0000 140d 4832 19c3 4d30
00000150: dfae 142a 0000 0000 995f 2e21 5589 5527
00000160: 654f bb30 d39e fe26 29e1 bc32 d760 8f21
00000170: 0000 0000 a7e8 8f30 0000 0000 1a38 8231
00000180: 0000 0000 f55c 9431 7d81 2621 0000 0000
00000190: c47a b51f f930 2f31 5760 8728 4991 bb26
000001a0: 9c0f 5732 610e a530 80a4 3431 5afa 3f2f
000001b0: 15ed 3f25 7b9f ed2c 1e7a ac1f 5f44 432d
000001c0: 5d44 cf24 ad2f 9529 8115 9d31 a8d3 c928
000001d0: 0000 0000 6120 f126 dc2b eb2f 52f4 db2b
000001e0: 4944 5531 0000 0000 0000 0000 5d88 e231
000001f0: 8d6c 8f30 d580 b528 a9be 0829 0000 0000
00000200: 7ff2 7d29 8dbe 6127 e10a 6c29 0000 0000
00000210: 0000 0000 cd85 cf23 0000 0000 8942 7727
00000220: 6b2b 062a 8efb 3529 eb15 1f29 3b60 0628
00000230: 0000 0000 08ff 3d20 de95 7623 0339 c029
00000240: 0000 0000 0000 0000 526d 232a 72b8 8628
00000250: 8061 df28 0000 0000 0000 0000 b314 0a26
00000260: 784f 3223 5022 c824 5cda 052a 4811 2627
00000270: 0000 0000 09c3 e828 0000 0000 04e9 0e29
00000280: 0000 0000 4122 022a 0000 0000 0000 0000
00000290: 0000 0000 b6a9 4f27 ccb4 7b27 cb30 6126
000002a0: 9eba 4a2a 90bd 6b29 6dd5 bf28 0000 0000
000002b0: 0000 0000 607f 7927 8077 8817 0000 0000
000002c0: b1c6 8223 9cdf 3a29 30d5 c228 c988 6728
000002d0: 0000 0000 ad9e 0025 021c 6c29 ee4c 0529
000002e0: 87f5 af27 0000 0000 0000 0000 ebeb be29
000002f0: 93ca 6b29 548b b428 6910 6927 0000 0000
00000300: 70d0 2f2c c25a 6c2b a4ec 432c 0000 0000
00000310: 0000 0000 825a 3d26 fe00 af28 2c3e 4e2a
00000320: 832a 8f2b d876 a62b c478 d62a 1661 a82b
00000330: 0000 0000 b682 6b24 7985 cb29 4b80 b62b
00000340: 9cc7 a323 0000 0000 2f54 462b 0da8 062b
00000350: bfcf c32a a7c8 b616 0772 8026 3eab 992a
00000360: 0000 0000 7a34 2b2a ef1d 7d2c 2c5a 4924
00000370: 0000 0000 05ed 8828 0000 0000 a85d 1f2c
00000380: 0000 0000 e1ff 8e2b 0000 0000 0000 0000
00000390: 0000 0000 3db6 9c2a 5c06 592b 8c40 ef29
000003a0: 771b 492c 23a5 7629 fbde eb2a bfa8 9624
000003b0: 0000 0000 e453 871c c7d7 5122 317b ac1f
000003c0: 6fdf fc27 e028 112b 4614 e427 6ec5 c628
000003d0: 0000 0000 0000 0000 820c 4a2c 9859 e129
000003e0: 05ab 172a 0000 0000 0000 0000 18d3 f12b
000003f0: 70fd f128 3c6f fc29 aa2b 7e29 0000 0000

exp_avg f4 [64]
0.008518348 0.00022148865 6e-45 -6e-45 0.009620259 -0.00055775244 6e-45 0.0041222842
6e-45 0.0 0.0 6e-45 6e-45 0.008206778 0.0071328483 0.0
0.006209913 0.0 -0.010192616 0.0 6e-45 0.0 0.0060365875 0.009932042
0.008356844 -0.0013891517 0.004667414 0.0011573787 0.0055528423 0.00027768256 0.001971447 -6e-45
0.00382139 0.00038957543 0.0049651414 6e-45 0.0 6e-45 -6e-45 0.00063526776
6e-45 -6e-45 0.0 0.0033807522 0.0014964589 0.0 0.0 0.0027116488
6e-45 0.007348505 0.0 0.0067417035 0.00037365762 0.0026254794 0.0 6e-45
6e-45 0.0005784112 0.0 0.0044263504 0.0056198398 0.0034524156 0.0 0.0041558975
00000000: 8b90 0b3c 683f 6839 0400 0000 0400 0080
00000010: 4a9e 1d3c 2236 12ba 0400 0000 3a14 873b
00000020: 0400 0000 0000 0000 0000 0000 0400 0000
00000030: 0400 0000 b975 063c abba e93b 0000 0000
00000040: 877c cb3b 0000 0000 eefe 26bc 0000 0000
00000050: 0400 0000 0000 0000 91ce c53b 01ba 223c
00000060: 25eb 083c 3214 b6ba 1bf1 983b 2fb3 973a
00000070: 9ef4 b53b ec95 9139 6433 013b 0400 0080
00000080: 4970 7a3b ee3f cc39 a0b2 a23b 0400 0000
00000090: 0000 0000 0400 0000 0400 0080 1988 263a
000000a0: 0400 0000 0400 0080 0000 0000 9c8f 5d3b
000000b0: d424 c43a 0000 0000 0000 0000 ebb5 313b
000000c0: 0400 0000 bacb f03b 0000 0000 82e9 dc3b
000000d0: 7ae7 c339 3c10 2c3b 0000 0000 0400 0000
000000e0: 0400 0000 85a0 173a 0000 0000 eb0a 913b
000000f0: a226 b83b ec41 623b 0000 0000 322e 883b

exp_avg_sq f4 [64]
0.00013546049 2.0348446e-07 1.6456835e-12 3.9374698e-11 0.00016163765 1.3740871e-06 3.62374e-17 2.9041832e-05
1.8675343e-16 0.0 0.0 1.6519484e-11 9.934051e-11 0.00012192007 9.21678e-05 0.0
6.980246e-05 0.0 0.00015027032 0.0 1.366037e-10 0.0 6.5912616e-05 0.000188606
0.00011909326 3.1010833e-05 3.7848484e-05 4.5098695e-06 5.5604094e-05 6.4928486e-07 6.8243257e-06 2.1354565e-10
2.6399028e-05 6.5090853e-07 4.2825322e-05 5.466014e-11 0.0 1.4837465e-08 3.8620558e-11 2.0001257e-06
6.906988e-11 3.3284336e-10 0.0 1.963048e-05 3.9185643e-06 0.0 0.0 1.3158924e-05
3.113953e-17 9.360802e-05 0.0 7.842737e-05 1.0714414e-06 1.16538795e-05 0.0 9.38505e-14
9.760029e-14 1.4543461e-06 0.0 3.5365116e-05 5.7761856e-05 2.1692284e-05 0.0 3.1371386e-05
00000000: 660a 0e39 627d 5a34 ff9b e72b f82b 2d2e
00000010: 477d 2939 466d b835 921d 2724 dc9e f337
00000020: e24f 5725 0000 0000 0000 0000 924e 912d
00000030: bc73 da2e 57af ff38 364a c138 0000 0000
00000040: e962 9238 0000 0000 e291 1d39 0000 0000
00000050: 8632 162f 0000 0000 913a 8a38 8ac4 4539
00000060: b5c1 f938 a111 0238 80bf 1e38 7c53 9736
00000070: 7138 6938 844a 2e35 83fc e436 c2cb 6a2f
00000080: 7b73 dd37 18ba 2e35 579f 3338 d965 702e
00000090: 0000 0000 dce7 7e32 e2da 292e e639 0636
000000a0: e3e2 972e 8afb b62f 0000 0000 23ac a437
000000b0: 367c 8336 0000 0000 0000 0000 26c5 5c37
000000c0: 119b 0f24 6c4f c438 0000 0000 6079 a438
000000d0: 72ce 8f35 0885 4337 0000 0000 2155 d329
000000e0: bdc6 db29 f432 c335 0000 0000 0155 1438
000000f0: 5245 7238 d3f7 b537 0000 0000 c594 0338

exp_avg f4 [1, 64]
0.030605098 -3.868873e-05 -6e-45 6e-45 0.014011447 0.00016246678 -6e-45 0.014950024
-6e-45 0.0 0.0 -6e-45 6e-45 0.03254668 0.021312673 0.0
0.018404106 0.0 0.0038809103 0.0 -6e-45 0.0 0.016237047 0.02618239
0.014597209 -0.00017368881 0.017599974 -0.00013849516 0.012739927 6.4529268e-06 0.010090784 -6e-45
0.013776297 -0.000103492755 0.009117457 -6e-45 0.0 6e-45 6e-45 -8.433166e-05
-6e-45 6e-45 0.0 0.0114056505 0.0022423475 0.0 0.0 0.008070883
-6e-45 0.009587649 0.0 0.0139437 -1.5082605e-05 0.00719395 0.0 6e-45
-6e-45 -6.8823633e-06 0.0 0.018906426 0.019364646 0.0091049895 0.0 0.01678869
00000000: 8bb7 fa3c b545 22b8 0400 0080 0400 0000
00000010: 4590 653c d85b 2a39 0400 0080 f2f0 743c
00000020: 0400 0080 0000 0000 0000 0000 0400 0080
00000030: 0400 0000 ab4f 053d ea97 ae3c 0000 0000
00000040: 35c4 963c 0000 0000 df56 7e3b 0000 0000
00000050: 0400 0080 0000 0000 8e03 853c 747c d63c
00000060: 2229 6f3c 3c20 36b9 d22d 903c 0339 11b9
00000070: 20bb 503c 3886 d836 d153 253c 0400 0080
00000080: fab5 613c 400a d9b8 6361 153c 0400 0080
00000090: 0000 0000 0400 0000 0400 0000 37db b0b8
000000a0: 0400 0080 0400 0000 0000 0000 c4de 3a3c
000000b0: 59f4 123b 0000 0000 0000 0000 bd3b 043c
000000c0: 0400 0080 8415 1d3c 0000 0000 1e74 643c
000000d0: 4c0b 7db7 3abb eb3b 0000 0000 0400 0000
000000e0: 0400 0080 0def e6b6 0000 0000 a6e1 9a3c
000000f0: 9ba2 9e3c 182d 153c 0000 0000 6f88 893c

exp_avg_sq f4 [1, 64]
0.0014965541 2.2172033e-07 1.5812425e-14 4.7902845e-11 0.00030229668 3.3469445e-07 4.0494498e-21 0.00032723288
2.0761834e-18 0.0 0.0 2.7939116e-14 5.3431955e-16 0.0017704667 0.00074745546 0.0
0.00056778 0.0 1.55418e-05 0.0 3.332863e-11 0.0 0.00045255403 0.0010959903
0.0003100347 2.2816733e-08 0.0004688733 1.1786976e-06 0.0002962135 7.055216e-07 0.00015494475 6.460074e-11
0.0003226582 6.5607804e-07 0.00013984849 4.5690747e-12 0.0 1.17238805e-08 6.4283626e-12 5.450607e-07
1.1740085e-10 2.2748507e-10 0.0 0.00020006635 1.2576202e-05 0.0 0.0 0.00012894245
3.545538e-17 0.00014690244 0.0 0.000293434 6.7927765e-08 9.128411e-05 0.0 6.120316e-14
2.5490197e-15 3.0138196e-07 0.0 0.00063881156 0.00062643655 0.00013411044 0.0 0.00045534357
00000000: 0628 c43a 0512 6e34 f86c 8e28 cfad 522e
00000010: 937d 9e39 0eb0 b334 e0fb 981d 7490 ab39
00000020: ff31 1922 0000 0000 0000 0000 37a7 fb28
00000030: d301 1a26 010f e83a e3f0 433a 0000 0000
00000040: 12d7 143a 0000 0000 c35f 8237 0000 0000
00000050: b494 122e 0000 0000 c644 ed39 55a7 8f3a
00000060: 278c a239 87fe c332 1cd3 f539 be33 9e35
00000070: 1a4d 9b39 1363 3d35 aa78 2239 fc0e 8e2e
00000080: 732a a939 571d 3035 4ba4 1239 91c2 a02c
00000090: 0000 0000 2c6a 4932 8b2d e22c 4950 1235
000000a0: 6715 012f 5b1f 7a2f 0000 0000 e7c8 5139
000000b0: 60fe 5237 0000 0000 0000 0000 ba34 0739
000000c0: 5382 2324 d309 1a39 0000 0000 0bd8 9939
000000d0: afdf 9133 c96f bf38 0000 0000 38d1 8929
000000e0: 1dad 3727 9fcd a134 0000 0000 eb75 273a
000000f0: 7237 243a ff9f 0c39 0000 0000 2ebb ee39
