001-machine_learning/data/00001-MLP-temperature/003_checkpoint.pth (torch_old, 110228 bytes, 21 tensors)

exp_avg f4 [64, 4]
0	0x00000000	0.0
1	0xb9b38094	-0.0003423734
2	0xb9ccbe24	-0.00039051578
3	0xb99f8530	-0.00030426076
4	0x00000000	0.0
5	0x32783a31	1.4448731e-08
6	0x32b6848d	2.1247866e-08
7	0x3328fe6c	3.9346943e-08
8	0x00000000	0.0
9	0x00000004	6e-45
10	0x00000004	6e-45
11	0x00000004	6e-45
12	0x00000000	0.0
13	0x39f5278b	0.00046759503
14	0x3a078b11	0.0005170564
15	0x39ecf53e	0.00045196147
16	0x00000000	0.0
17	0xbb052bdb	-0.002032033
18	0xbaf42676	-0.0018627185
19	0xbafd09a6	-0.0019305244
20	0x00000000	0.0
21	0x3a1488d5	0.00056661415
22	0x39f2da09	0.00046320286
23	0x39eaabd1	0.0004475997
24	0x00000000	0.0
25	0x3aab2f7f	0.001306042
26	0x3ab3b635	0.0013710918
27	0x3a9cec00	0.0011972189
28	0x00000000	0.0
29	0xbab31e83	-0.0013665709
30	0xbad1b0dd	-0.0015998144
31	0xbaa51f60	-0.0012597851
32	0x00000000	0.0
33	0x39d99f45	0.0004150813
34	0x396147ae	0.00021484375
35	0x3a02c339	0.0004988197
36	0x00000000	0.0
37	0x3af8b02c	0.0018973402
38	0x3b17949f	0.0023129357
39	0x3adedae5	0.0017002492
40	0x00000000	0.0
41	0x3833c24e	4.2857886e-05
42	0xb83364c7	-4.2770782e-05
43	0xb7d3a557	-2.5230152e-05
44	0x00000000	0.0
45	0x3a1f416f	0.0006075119
46	0x39aa4674	0.00032477418
47	0x3a274385	0.00063806056
48	0x00000000	0.0
49	0x39ab11f5	0.0003262904
50	0x39d6f582	0.00041000178
51	0x39c6d066	0.00037920772
52	0x00000000	0.0
53	0x00000000	0.0
54	0x00000000	0.0
55	0x00000000	0.0
56	0x00000000	0.0
57	0x39bc5bd0	0.0003592656
58	0x39bb6586	0.0003574306
59	0x39ad50ac	0.00033057237
60	0x00000000	0.0
61	0x00000000	0.0
62	0x00000000	0.0
63	0x00000000	0.0
64	0x00000000	0.0
65	0xb9aa6612	-0.00032500975
66	0xb9b9974b	-0.00035398672
67	0xb9aba82c	-0.0003274096
68	0x00000000	0.0
69	0x3811ebd8	3.479034e-05
70	0x38015179	3.0831874e-05
71	0x382c7a0d	4.1121664e-05
72	0x00000000	0.0
73	0x399da6aa	0.00030069548
74	0x39e4f2e6	0.00043668522
75	0x39970fd2	0.0002881275
76	0x00000000	0.0
77	0x3ad2bc8a	0.0016077918
78	0x3af0f7e4	0.0018384424
79	0x3abe1d66	0.0014504611
80	0x00000000	0.0
81	0x00000000	0.0
82	0x00000000	0.0
83	0x00000000	0.0
84	0x00000000	0.0
85	0x3a25b223	0.0006320795
86	0x3a063548	0.0005119634
87	0x3a183b30	0.00058071595
88	0x00000000	0.0
89	0x383d6f5d	4.5164827e-05
90	0x363859f6	2.74705e-06
91	0x3589f071	1.0277273e-06
92	0x00000000	0.0
93	0xbae540ba	-0.0017490603
94	0xbad03b60	-0.0015886836
95	0xbadcf8a3	-0.0016858767
96	0x00000000	0.0
97	0xb9532316	-0.00020135599
98	0xb713bdfb	-8.806116e-06
99	0x376d1d7c	1.4133166e-05
100	0x00000000	0.0
101	0x00000000	0.0
102	0x00000000	0.0
103	0x00000000	0.0
104	0x00000000	0.0
105	0x00000000	0.0
106	0x00000000	0.0
107	0x00000000	0.0
108	0x00000000	0.0
109	0xb0b47ad1	-1.313163e-09
110	0xb2b16d63	-2.0655255e-08
111	0xb298239c	-1.7711322e-08
112	0x00000000	0.0
113	0x3a0554b3	0.00050861685
114	0x3a3283d5	0.00068098056
115	0x3a0f4228	0.0005464875
116	0x00000000	0.0
117	0x3aa06158	0.0012236042
118	0x3aa8e013	0.0012884162
119	0x3a91e10f	0.0011129695
120	0x00000000	0.0
121	0x00000000	0.0
122	0x00000000	0.0
123	0x00000000	0.0
124	0x00000000	0.0
125	0x00000000	0.0
126	0x00000000	0.0
127	0x00000000	0.0
128	0x00000000	0.0
129	0x38aa83df	8.1307946e-05
130	0x35b5fe5f	1.3559583e-06
131	0x38788974	5.925582e-05
132	0x00000000	0.0
133	0x00000000	0.0
134	0x00000000	0.0
135	0x00000000	0.0
136	0x00000000	0.0
137	0x00000000	0.0
138	0x00000000	0.0
139	0x00000000	0.0
140	0x00000000	0.0
141	0x00000000	0.0
142	0x00000000	0.0
143	0x00000000	0.0
144	0x00000000	0.0
145	0xb80becc4	-3.3360688e-05
146	0xb8417058	-4.6119414e-05
147	0xb68e4376	-4.2397833e-06
148	0x00000000	0.0
149	0xba925aa4	-0.0011165929
150	0xbaa55738	-0.0012614494
151	0xba7b1dd2	-0.0009579334
152	0x00000000	0.0
153	0x00000000	0.0
154	0x00000000	0.0
155	0x00000000	0.0
156	0x00000000	0.0
157	0x374e9c68	1.2314973e-05
158	0x37719cfa	1.4401268e-05
159	0x375a7dfb	1.3023145e-05
160	0x00000000	0.0
161	0xb9493d38	-0.0001919166
162	0xb7177647	-9.02784e-06
163	0x3656caaf	3.2006462e-06
164	0x00000000	0.0
165	0xba9c2bfa	-0.0011914962
166	0xbab28d02	-0.0013622346
167	0xba90f16f	-0.0011058281
168	0x00000000	0.0
169	0xbad5de2d	-0.0016316824
170	0xbafa0f5b	-0.0019078063
171	0xbad864cd	-0.0016509533
172	0x00000000	0.0
173	0xb9a2a0a0	-0.00031018723
174	0xb8e8717f	-0.000110837624
175	0xb9f608b6	-0.00046927267
176	0x00000000	0.0
177	0xbace965f	-0.0015761367
178	0xbae1a03c	-0.0017213891
179	0xbac309bf	-0.0014880224
180	0x00000000	0.0
181	0x30ef1326	1.7394981e-09
182	0xb188318d	-3.963754e-09
183	0xb1a2d984	-4.739549e-09
184	0x00000000	0.0
185	0xba434787	-0.0007449318
186	0xba39cc67	-0.0007087648
187	0xba2fecfb	-0.0006711033
188	0x00000000	0.0
189	0x3999d21e	0.00029338984
190	0x39aaa262	0.0003254591
191	0x39ab1bd4	0.00032636395
192	0x00000000	0.0
193	0x3b2d79e2	0.0026470353
194	0x3b3a3f76	0.0028419173
195	0x3b1ca9c0	0.002390489
196	0x00000000	0.0
197	0xba8864f4	-0.0010406063
198	0xba949515	-0.0011335934
199	0xba554445	-0.0008135478
200	0x00000000	0.0
201	0x385fa04e	5.331664e-05
202	0x38a014a2	7.633238e-05
203	0x38aa7f57	8.1299506e-05
204	0x00000000	0.0
205	0xb9a8141a	-0.00032058434
206	0xb98d7711	-0.00026982327
207	0xb9af7f80	-0.00033473596
208	0x00000000	0.0
209	0xb9ae7cda	-0.00033280888
210	0xb98129d1	-0.00024635953
211	0xb92745d8	-0.0001595238
212	0x00000000	0.0
213	0x391e4c4a	0.00015096474
214	0x37f08382	2.8671468e-05
215	0x3919c823	0.00014665774
216	0x00000000	0.0
217	0x38a11d24	7.682506e-05
218	0x38294ef7	4.036628e-05
219	0x38b05e8d	8.4099454e-05
220	0x00000000	0.0
221	0xb8b815e2	-8.77788e-05
222	0xb78ed54b	-1.7027041e-05
223	0xb84eed26	-4.933509e-05
224	0x00000000	0.0
225	0x3a94e6d3	0.0011360295
226	0x3a0af4eb	0.0005300778
227	0x3a971996	0.0011528011
228	0x00000000	0.0
229	0x00000000	0.0
230	0x00000000	0.0
231	0x00000000	0.0
232	0x00000000	0.0
233	0xba837936	-0.001003063
234	0xba8c567b	-0.0010706926
235	0xba6bf4cc	-0.0009001016
236	0x00000000	0.0
237	0x00000000	0.0
238	0x00000000	0.0
239	0x00000000	0.0
240	0x00000000	0.0
241	0xb92ca610	-0.00016465061
242	0xb7317c5c	-1.0578977e-05
243	0xb703d7e5	-7.858475e-06
244	0x00000000	0.0
245	0x3a7325be	0.00092753384
246	0x3a589dca	0.00082632585
247	0x3a5c3fa2	0.0008401816
248	0x00000000	0.0
249	0x00000000	0.0
250	0x00000000	0.0
251	0x00000000	0.0
252	0x00000000	0.0
253	0x00000000	0.0
254	0x00000000	0.0
255	0x00000000	0.0

exp_avg_sq f4 [64, 4]
0	0x00000000	0.0
1	0x3612f52f	2.189841e-06
2	0x36170e9a	2.2509253e-06
3	0x3668fe03	3.4718548e-06
4	0x00000000	0.0
5	0x31b68572	5.312068e-09
6	0x335ab2fe	5.0919873e-08
7	0x32b127f3	2.0623679e-08
8	0x00000000	0.0
9	0x2739fadb	2.5809896e-15
10	0x261fbc41	5.541934e-16
11	0x274b682d	2.8228383e-15
12	0x00000000	0.0
13	0x36222967	2.416398e-06
14	0x35ea55e9	1.7459362e-06
15	0x36533934	3.1474747e-06
16	0x00000000	0.0
17	0x36e4aefa	6.8152995e-06
18	0x368a62a0	4.124202e-06
19	0x36ecc718	7.0565256e-06
20	0x00000000	0.0
21	0x358df7f7	1.0577486e-06
22	0x354221fd	7.232009e-07
23	0x35a53671	1.2309303e-06
24	0x00000000	0.0
25	0x37873904	1.6119804e-05
26	0x37408c12	1.14767045e-05
27	0x37b155a5	2.1139926e-05
28	0x00000000	0.0
29	0x37f8c0fa	2.9653766e-05
30	0x37be2176	2.2665346e-05
31	0x382a7576	4.0640552e-05
32	0x00000000	0.0
33	0x37768159	1.4692859e-05
34	0x372dd19f	1.036041e-05
35	0x37a96fdf	2.0198464e-05
36	0x00000000	0.0
37	0x388cc5d7	6.712571e-05
38	0x38675350	5.5152283e-05
39	0x38c8731d	9.558185e-05
40	0x00000000	0.0
41	0x346845fc	2.1632144e-07
42	0x3476ae13	2.2973863e-07
43	0x349b186f	2.8888778e-07
44	0x00000000	0.0
45	0x37041d01	7.874566e-06
46	0x36b2113c	5.3068197e-06
47	0x3733b0a4	1.0710359e-05
48	0x00000000	0.0
49	0x35c55df5	1.4704989e-06
50	0x358eaa49	1.0629384e-06
51	0x35f8771f	1.8512109e-06
52	0x00000000	0.0
53	0x00000000	0.0
54	0x00000000	0.0
55	0x00000000	0.0
56	0x00000000	0.0
57	0x35709bae	8.963351e-07
58	0x3567a006	8.628707e-07
59	0x35af9bf7	1.3083908e-06
60	0x00000000	0.0
61	0x00000000	0.0
62	0x00000000	0.0
63	0x00000000	0.0
64	0x00000000	0.0
65	0x3528418a	6.268025e-07
66	0x35084320	5.076163e-07
67	0x354fc59a	7.740106e-07
68	0x00000000	0.0
69	0x36613627	3.3559133e-06
70	0x372b299b	1.0202081e-05
71	0x3726088e	9.896363e-06
72	0x00000000	0.0
73	0x3647e8b2	2.9788757e-06
74	0x360cc946	2.0978782e-06
75	0x3685bc88	3.985657e-06
76	0x00000000	0.0
77	0x38255515	3.9418304e-05
78	0x38063d13	3.200497e-05
79	0x3867f768	5.5305107e-05
80	0x00000000	0.0
81	0x00000000	0.0
82	0x00000000	0.0
83	0x00000000	0.0
84	0x00000000	0.0
85	0x3692979d	4.368789e-06
86	0x366deebe	3.5454718e-06
87	0x36cd5175	6.118959e-06
88	0x00000000	0.0
89	0x3213ba67	8.598909e-09
90	0x2f298a80	1.5419666e-10
91	0x2bf00ca0	1.705653e-12
92	0x00000000	0.0
93	0x36d940bb	6.4746396e-06
94	0x366e20c3	3.5483833e-06
95	0x36e0f730	6.7044966e-06
96	0x00000000	0.0
97	0x3502a78c	4.8672587e-07
98	0x33a24e8b	7.558e-08
99	0x32d1ac98	2.4409289e-08
100	0x00000000	0.0
101	0x00000000	0.0
102	0x00000000	0.0
103	0x00000000	0.0
104	0x00000000	0.0
105	0x00000000	0.0
106	0x00000000	0.0
107	0x00000000	0.0
108	0x00000000	0.0
109	0x306f8876	8.7141616e-10
110	0x3409f5de	1.2848565e-07
111	0x331d6322	3.6644572e-08
112	0x00000000	0.0
113	0x36ac8aa5	5.14214e-06
114	0x36823f8f	3.881701e-06
115	0x36ea69e6	6.9860716e-06
116	0x00000000	0.0
117	0x37901595	1.7176188e-05
118	0x377676fe	1.4690448e-05
119	0x37ccf9c1	2.4434996e-05
120	0x00000000	0.0
121	0x00000000	0.0
122	0x00000000	0.0
123	0x00000000	0.0
124	0x00000000	0.0
125	0x00000000	0.0
126	0x00000000	0.0
127	0x00000000	0.0
128	0x00000000	0.0
129	0x33ecc6cf	1.10257695e-07
130	0x344796e3	1.8588212e-07
131	0x34563dcf	1.9952789e-07
132	0x00000000	0.0
133	0x00000000	0.0
134	0x00000000	0.0
135	0x00000000	0.0
136	0x00000000	0.0
137	0x00000000	0.0
138	0x00000000	0.0
139	0x00000000	0.0
140	0x00000000	0.0
141	0x00000000	0.0
142	0x00000000	0.0
143	0x00000000	0.0
144	0x00000000	0.0
145	0x33a85c28	7.839873e-08
146	0x33f6c017	1.14902086e-07
147	0x34092f2e	1.2776283e-07
148	0x00000000	0.0
149	0x37a4d484	1.9649284e-05
150	0x3763e9e6	1.3584713e-05
151	0x37daa918	2.6066366e-05
152	0x00000000	0.0
153	0x00000000	0.0
154	0x00000000	0.0
155	0x00000000	0.0
156	0x00000000	0.0
157	0x341ad2e9	1.4419096e-07
158	0x348d3664	2.630287e-07
159	0x3484b47e	2.471824e-07
160	0x00000000	0.0
161	0x34801ef4	2.386438e-07
162	0x31e6bae9	6.7151302e-09
163	0x30dd6ab8	1.6110198e-09
164	0x00000000	0.0
165	0x37cf9ccd	2.4749339e-05
166	0x37a5c30d	1.976036e-05
167	0x38136863	3.514475e-05
168	0x00000000	0.0
169	0x3778ed27	1.4837168e-05
170	0x36f41eb3	7.2753405e-06
171	0x3784b29f	1.5818803e-05
172	0x00000000	0.0
173	0x36df782a	6.659907e-06
174	0x361af3de	2.3089738e-06
175	0x37047add	7.896419e-06
176	0x00000000	0.0
177	0x37e3f5da	2.7174992e-05
178	0x37b11555	2.1109978e-05
179	0x381b23a3	3.698807e-05
180	0x00000000	0.0
181	0x30047e99	4.8201226e-10
182	0x329b2301	1.8060293e-08
183	0x303d4c92	6.886661e-10
184	0x00000000	0.0
185	0x36568397	3.196508e-06
186	0x362dde6d	2.5908478e-06
187	0x368f70d3	4.2748666e-06
188	0x00000000	0.0
189	0x35187a25	5.6802156e-07
190	0x34f38eee	4.5366272e-07
191	0x3542e5e6	7.260518e-07
192	0x00000000	0.0
193	0x38b18945	8.465586e-05
194	0x389107f3	6.9156195e-05
195	0x38f9be30	0.000119086704
196	0x00000000	0.0
197	0x3780c1f2	1.5349102e-05
198	0x373cf402	1.1262486e-05
199	0x37ac7159	2.055678e-05
200	0x00000000	0.0
201	0x3498636c	2.8384545e-07
202	0x354e270a	7.679779e-07
203	0x355ac73b	8.1501247e-07
204	0x00000000	0.0
205	0x33f9e8cc	1.16373116e-07
206	0x3401af4e	1.2077837e-07
207	0x34162d65	1.3986353e-07
208	0x00000000	0.0
209	0x35b5c9fe	1.3544338e-06
210	0x35982f52	1.1338655e-06
211	0x35ea6b1e	1.7465534e-06
212	0x00000000	0.0
213	0x34f9e4bb	4.6546288e-07
214	0x34d773bf	4.0131087e-07
215	0x353ebc42	7.1054467e-07
216	0x00000000	0.0
217	0x3552e360	7.856197e-07
218	0x36048550	1.974713e-06
219	0x361a4406	2.2987383e-06
220	0x00000000	0.0
221	0x33b0df1a	8.2362206e-08
222	0x33c84bec	9.327036e-08
223	0x33efa388	1.1159051e-07
224	0x00000000	0.0
225	0x37366887	1.08723825e-05
226	0x36f6fcc3	7.3607966e-06
227	0x377d8953	1.5111948e-05
228	0x00000000	0.0
229	0x00000000	0.0
230	0x00000000	0.0
231	0x00000000	0.0
232	0x00000000	0.0
233	0x37362ce2	1.0858495e-05
234	0x36ffacb4	7.6196975e-06
235	0x376fd82d	1.4295842e-05
236	0x00000000	0.0
237	0x00000000	0.0
238	0x00000000	0.0
239	0x00000000	0.0
240	0x00000000	0.0
241	0x3464f5e9	2.1323616e-07
242	0x33d42f9e	9.880681e-08
243	0x3294855b	1.729011e-08
244	0x00000000	0.0
245	0x36675140	3.4468976e-06
246	0x3630fbd7	2.6372634e-06
247	0x368e687d	4.244094e-06
248	0x00000000	0.0
249	0x00000000	0.0
250	0x00000000	0.0
251	0x00000000	0.0
252	0x00000000	0.0
253	0x00000000	0.0
254	0x00000000	0.0
255	0x00000000	0.0

exp_avg f4 [64]
0	0xb9b65bb5	-0.00034782072
1	0x3287cd35	1.5809386e-08
2	0x00000004	6e-45
3	0x39f3ccfa	0.0004650129
4	0xbb062510	-0.0020468868
5	0x3a161e5b	0.0005726569
6	0x3aab4364	0.0013066349
7	0xbab394f6	-0.001370101
8	0x39f1522f	0.00046028334
9	0x3af9d21c	0.001905981
10	0x3829c7a0	4.0478655e-05
11	0x3a2c6eeb	0.00065778074
12	0x39aa1ead	0.00032447782
13	0x00000000	0.0
14	0x39bf40af	0.00036478552
15	0x00000000	0.0
16	0xb9a481ce	-0.0003137723
17	0x38490425	4.7925994e-05
18	0x399c9bfe	0.00029870862
19	0x3ad209b4	0.001602462
20	0x00000000	0.0
21	0x3a2bdc47	0.0006555956
22	0x383ef3dc	4.552664e-05
23	0xbae6ff81	-0.0017623754
24	0xb9585724	-0.00020631828
25	0x00000000	0.0
26	0x00000000	0.0
27	0xb293f636	-1.7225016e-08
28	0x3a0569fc	0.000508934
29	0x3aa0da1f	0.0012272036
30	0x00000000	0.0
31	0x00000000	0.0
32	0x38adf2aa	8.2944825e-05
33	0x00000000	0.0
34	0x00000000	0.0
35	0x00000000	0.0
36	0xb7fa7b69	-2.985979e-05
37	0xba9289cf	-0.0011179986
38	0x00000000	0.0
39	0x377e14cc	1.5144422e-05
40	0xb94d1417	-0.00019557808
41	0xba9ddc6e	-0.0012043843
42	0xbad63230	-0.0016341861
43	0xb9a683d8	-0.0003176022
44	0xbacea773	-0.0015766456
45	0xb267a294	-1.3482936e-08
46	0xba44036b	-0.0007477316
47	0x3999d8b3	0.00029343888
48	0x3b2e0d6e	0.0026558298
49	0xba88dff1	-0.0010442716
50	0x388ac9dd	6.617953e-05
51	0xb9a93bd2	-0.00032278762
52	0xb9b21ccd	-0.00033972264
53	0x3919e673	0.00014677066
54	0x38c487db	9.371313e-05
55	0xb8baf766	-8.915253e-05
56	0x3a9af198	0.0011821268
57	0x00000000	0.0
58	0xba838274	-0.0010033385
59	0x00000000	0.0
60	0xb93137f1	-0.00016900875
61	0x3a7258af	0.0009244782
62	0x00000000	0.0
63	0x00000000	0.0

exp_avg_sq f4 [64]
0	0x369ef075	4.73676e-06
1	0x33f94174	1.1606872e-07
2	0x274937fa	2.7924698e-15
3	0x36794a3e	3.7147106e-06
4	0x36ff6c84	7.612225e-06
5	0x35ddb29c	1.6517765e-06
6	0x37cb23fe	2.4216246e-05
7	0x384ba1e4	4.8549744e-05
8	0x37c99139	2.4028692e-05
9	0x38fb6765	0.000119878714
10	0x353579c8	6.760497e-07
11	0x374e3d94	1.2292894e-05
12	0x3617d104	2.2622417e-06
13	0x00000000	0.0
14	0x35e83cf5	1.7303088e-06
15	0x00000000	0.0
16	0x3580cb7e	9.595967e-07
17	0x37a875f6	2.008209e-05
18	0x369c5aad	4.6597183e-06
19	0x388f34ab	6.8285815e-05
20	0x00000000	0.0
21	0x3701d7a9	7.7392115e-06
22	0x32677a64	1.3473798e-08
23	0x36f563ff	7.31321e-06
24	0x35935806	1.0977972e-06
25	0x00000000	0.0
26	0x00000000	0.0
27	0x349586d9	2.7851527e-07
28	0x370ae32d	8.2783345e-06
29	0x38008826	3.0644376e-05
30	0x00000000	0.0
31	0x00000000	0.0
32	0x34bfb604	3.5708956e-07
33	0x00000000	0.0
34	0x00000000	0.0
35	0x00000000	0.0
36	0x34910894	2.7014596e-07
37	0x37fc8a35	3.0105099e-05
38	0x00000000	0.0
39	0x34c35991	3.6386749e-07
40	0x34b2718e	3.3237706e-07
41	0x38349d8b	4.3062068e-05
42	0x37924668	1.7437342e-05
43	0x37126d58	8.727737e-06
44	0x3839d3b4	4.43046e-05
45	0x340a10f0	1.2858413e-07
46	0x36b1cfeb	5.299216e-06
47	0x357fed94	9.5340624e-07
48	0x391a1115	0.00014692948
49	0x37d3ec9f	2.5263345e-05
50	0x35d3d0f9	1.5781544e-06
51	0x3455a865	1.9898432e-07
52	0x364b7217	3.0315766e-06
53	0x357e9489	9.483852e-07
54	0x368f18be	4.2646125e-06
55	0x345d922f	2.063541e-07
56	0x379233a5	1.7428605e-05
57	0x00000000	0.0
58	0x378b3e5e	1.6599133e-05
59	0x00000000	0.0
60	0x3539d909	6.92337e-07
61	0x36ab8788	5.111975e-06
62	0x00000000	0.0
63	0x00000000	0.0

exp_avg f4 [64, 64]
0	0xb8e893bf	-0.00011090142
1	0xb2887279	-1.588454e-08
2	0x00000004	6e-45
3	0xb999a2e4	-0.00029303797
4	0xb807d0ed	-3.2381085e-05
5	0xb9a7f28f	-0.00032033442
6	0xb883fd0e	-6.293702e-05
7	0xb8eb9355	-0.00011233116
8	0xb674f3df	-3.6500785e-06
9	0xb8017795	-3.0867366e-05
10	0xb99ec6f0	-0.00030284328
11	0xb7478e54	-1.1894463e-05
12	0xb912259f	-0.0001393766
13	0x00000000	0.0
14	0xb99fe17d	-0.00030494845
15	0x00000000	0.0
16	0xb94b033a	-0.0001936079
17	0xb49e5f75	-2.9499247e-07
18	0xb98939e0	-0.00026173797
19	0xb7911b9c	-1.7298204e-05
20	0x00000000	0.0
21	0xb9009e0c	-0.00012265908
22	0xb68ae3b2	-4.1392277e-06
23	0xb7eaa145	-2.797007e-05
24	0xb78944ac	-1.636365e-05
25	0x00000000	0.0
26	0x00000000	0.0
27	0x2f17e4a8	1.3814605e-10
28	0xb90bc530	-0.00013329531
29	0xb89e543d	-7.549718e-05
30	0x00000000	0.0
31	0x00000000	0.0
32	0xb98d1c4d	-0.000269147
33	0x00000000	0.0
34	0x00000000	0.0
35	0x00000000	0.0
36	0xb970ea1f	-0.000229754
37	0xb8a2c187	-7.760809e-05
38	0x00000000	0.0
39	0x343a0152	1.732308e-07
40	0xb71810c5	-9.0638105e-06
41	0xb900ab50	-0.0001227085
42	0xb82df0d1	-4.1470692e-05
43	0x377f7dda	1.52284865e-05
44	0xb9083ed0	-0.0001299337
45	0xafe3aeb1	-4.1415185e-10
46	0xb9ebb135	-0.00044954722
47	0xb9d5340a	-0.00040665298
48	0xb89c30e1	-7.447764e-05
49	0xb9256ddb	-0.0001577655
50	0x35b366ef	1.3366497e-06
51	0xb9a041a4	-0.00030566484
52	0xb91f869a	-0.00015213565
53	0xb9e2bc81	-0.00043246525
54	0xb63d6874	-2.8223994e-06
55	0xb9464547	-0.0001890856
56	0xb7147cdc	-8.8505585e-06
57	0x00000000	0.0
58	0xb80bd4e2	-3.3338445e-05
59	0x00000000	0.0
60	0xb6a50443	-4.9178793e-06
61	0xb8fdec45	-0.00012107989
62	0x00000000	0.0
63	0x00000000	0.0
64	0xb8e8941e	-0.00011090211
65	0x2edaf20e	9.95649e-11
66	0x00000000	0.0
67	0xb98e9f96	-0.0002720325
68	0xb854c79f	-5.073065e-05
69	0xb99862b4	-0.0002906524
70	0xb820c7af	-3.8332942e-05
71	0xb90c3d8a	-0.00013374366
72	0xb6a9c8f7	-5.059988e-06
73	0xb7fe252e	-3.0296473e-05
74	0xb984ba2d	-0.00025315714
75	0xb7c5807e	-2.3544064e-05
76	0xb901601e	-0.00012338205
77	0x00000000	0.0
78	0xb98f557a	-0.0002733877
79	0x00000000	0.0
80	0xb9204f19	-0.00015288255
81	0xb3b53357	-8.437808e-08
82	0xb949ba57	-0.00019238271
83	0xb74eaa81	-1.2318255e-05
84	0x00000000	0.0
85	0xb8e1e478	-0.00010771392
86	0xb6fd6de6	-7.5527814e-06
87	0xb83a0502	-4.435052e-05
88	0xb7f973c8	-2.9737028e-05
89	0x00000000	0.0
90	0x00000000	0.0
91	0x2f937033	2.6818867e-10
92	0xb8b149b4	-8.453746e-05
93	0xb829ab12	-4.045206e-05
94	0x00000000	0.0
95	0x00000000	0.0
96	0xb9870838	-0.0002575533
97	0x00000000	0.0
98	0x00000000	0.0
99	0x00000000	0.0
100	0xb9294c6a	-0.00016145562
101	0xb8a126f1	-7.684332e-05
102	0x00000000	0.0
103	0xb407ea81	-1.2658167e-07
104	0xb78aefc9	-1.656254e-05
105	0xb906403e	-0.00012803168
106	0xb88ef1a0	-6.816094e-05
107	0x37e92fbf	2.7797998e-05
108	0xb91f990c	-0.00015220436
109	0x2eb559fe	8.246913e-11
110	0xb9d77ab7	-0.00041099425
111	0xb9b63f8e	-0.00034761097
112	0xb88219a9	-6.2036626e-05
113	0xb93b88ab	-0.00017884623
114	0x365ba962	3.2732137e-06
115	0xb987dd4c	-0.00025914086
116	0xb8ee2410	-0.000113554415
117	0xb9cb3487	-0.00038758313
118	0xb6720e0c	-3.6068986e-06
119	0xb9156417	-0.00014247034
120	0xb786560c	-1.6014113e-05
121	0x00000000	0.0
122	0xb7f01d4f	-2.8623877e-05
123	0x00000000	0.0
124	0xb71640ac	-8.955754e-06
125	0xb8dd3cac	-0.00010549402
126	0x00000000	0.0
127	0x00000000	0.0
128	0xb8cc0902	-9.729156e-05
129	0xb1c89b99	-5.8384555e-09
130	0x00000004	6e-45
131	0xb9504a9b	-0.00019864218
132	0xb84c13b1	-4.865573e-05
133	0xb9528b72	-0.00020079108
134	0xb7e68aeb	-2.7482825e-05
135	0xb8d9b655	-0.00010381328
136	0xb802b141	-3.1159496e-05
137	0xb78512bf	-1.5863565e-05
138	0xb96b8929	-0.00022462443
139	0xb840cf22	-4.5969275e-05
140	0xb8acd210	-8.240726e-05
141	0x00000000	0.0
142	0xb934a3d8	-0.00017227174
143	0x00000000	0.0
144	0xb8f74851	-0.00011791348
145	0xb43f0651	-1.7790559e-07
146	0xb94d22f5	-0.00019563346
147	0xb716d911	-8.991236e-06
148	0x00000000	0.0
149	0xb87215bc	-5.7717538e-05
150	0xb7659af2	-1.368554e-05
151	0xb845f256	-4.7194153e-05
152	0xb8605b40	-5.3490745e-05
153	0x00000000	0.0
154	0x00000000	0.0
155	0x308b3c43	1.0130708e-09
156	0xb896aec4	-7.18511e-05
157	0xb810929d	-3.446882e-05
158	0x00000000	0.0
159	0x00000000	0.0
160	0xb93bae93	-0.00017898744
161	0x00000000	0.0
162	0x00000000	0.0
163	0x00000000	0.0
164	0xb93b2266	-0.00017846524
165	0xb8e662b6	-0.00010985641
166	0x00000000	0.0
167	0xb3f8adf3	-1.1580041e-07
168	0xb7fbca12	-3.0015628e-05
169	0xb91b043b	-0.00014783528
170	0xb8b502d1	-8.631277e-05
171	0xb7977294	-1.8053957e-05
172	0xb91dbbd3	-0.00015042657
173	0xb0611d86	-8.189648e-10
174	0xb9b54503	-0.00034574428
175	0xb9859e6b	-0.00025485767
176	0xb81f8309	-3.803059e-05
177	0xb9069429	-0.0001283443
178	0xb67b59dd	-3.7454222e-06
179	0xb98694b5	-0.00025669267
180	0xb90142d0	-0.00012327288
181	0xb99c4f68	-0.000298138
182	0xb5ced2df	-1.5409568e-06
183	0xb90fbee9	-0.00013708662
184	0xb7b7e296	-2.1920812e-05
185	0x00000000	0.0
186	0xb8832ea8	-6.255257e-05
187	0x00000000	0.0
188	0xb788c01f	-1.6301927e-05
189	0xb876f564	-5.887951e-05
190	0x00000000	0.0
191	0x00000000	0.0
192	0x399653f1	0.0002867277
193	0x334f5298	4.8271062e-08
194	0x80000004	-6e-45
195	0x3a587cc1	0.0008258336
196	0x38826fc7	6.219703e-05
197	0x3a7112be	0.0009196213
198	0x39510a9c	0.00019935746
199	0x3994c021	0.00028371907
200	0xb7978445	-1.8062196e-05
201	0x38c0b836	9.1895854e-05
202	0x3a5bc04e	0.00083828426
203	0xb6b5fb1c	-5.4234533e-06
204	0x39d555ed	0.00040690546
205	0x00000000	0.0
206	0x3a6a863d	0.00089463947
207	0x00000000	0.0
208	0x3a132096	0.00056124607
209	0x354fce7e	7.7413995e-07
210	0x3a3f573f	0.00072990725
211	0x38569842	5.1163377e-05
212	0x00000000	0.0
213	0x39c41d49	0.00037405852
214	0x80000004	-6e-45
215	0x384b2a1d	4.8438193e-05
216	0x80000004	-6e-45
217	0x00000000	0.0
218	0x00000000	0.0
219	0x316b57c3	3.4246888e-09
220	0x39d3404b	0.00040292958
221	0x39752add	0.00023380989
222	0x00000000	0.0
223	0x00000000	0.0
224	0x3a462155	0.00075580674
225	0x00000000	0.0
226	0x00000000	0.0
227	0x00000000	0.0
228	0x3a267236	0.0006349416
229	0x392adc5e	0.00016294557
230	0x00000000	0.0
231	0xb594ee35	-1.1096187e-06
232	0x80000004	-6e-45
233	0x399334e4	0.00028077431
234	0x3867c974	5.526231e-05
235	0xb88aafa5	-6.613069e-05
236	0x399b48ac	0.0002961805
237	0x2e584169	4.917081e-11
238	0x3aa09e46	0.00122542
239	0x3a998930	0.0011713859
240	0x39685a96	0.0002215899
241	0x39d96051	0.00041461227
242	0xb73e3735	-1.1337736e-05
243	0x3a5618a6	0.0008167125
244	0x39d8ad48	0.00041327835
245	0x3a9f1039	0.0012135572
246	0x370910c1	8.169737e-06
247	0x3a0aae97	0.0005290298
248	0x370a5744	8.245759e-06
249	0x00000000	0.0
250	0x386bc525	5.621197e-05
251	0x00000000	0.0
252	0x2ea19947	7.34866e-11
253	0x39bfd1f9	0.000365868
254	0x00000000	0.0
255	0x00000000	0.0

exp_avg_sq f4 [64, 64]
0	0x344c703d	1.9039813e-07
1	0x316cdba0	3.4467362e-09
2	0x1f10e602	3.0683444e-20
3	0x353c3e83	7.0126424e-07
4	0x30a832cd	1.2238047e-09
5	0x35752a1b	9.1330884e-07
6	0x335d9542	5.159132e-08
7	0x33177655	3.526505e-08
8	0x32334811	1.0435557e-08
9	0x31fdf7e0	7.3914492e-09
10	0x35aa3e0a	1.2684043e-06
11	0x330ccc83	3.2782292e-08
12	0x34201d05	1.4911718e-07
13	0x00000000	0.0
14	0x355cdeff	8.228089e-07
15	0x00000000	0.0
16	0x35333ce2	6.677129e-07
17	0x325f81be	1.3009808e-08
18	0x35987e70	1.1361681e-06
19	0x31dbb84d	6.3946914e-09
20	0x00000000	0.0
21	0x340faa46	1.3379858e-07
22	0x2ebf04a8	8.6865015e-11
23	0x30c0d2bb	1.4029732e-09
24	0x3116e7e5	2.195969e-09
25	0x00000000	0.0
26	0x00000000	0.0
27	0x300d86e5	5.14872e-10
28	0x34a2626f	3.024647e-07
29	0x3424d528	1.5351236e-07
30	0x00000000	0.0
31	0x00000000	0.0
32	0x357122bb	8.9830036e-07
33	0x00000000	0.0
34	0x00000000	0.0
35	0x00000000	0.0
36	0x35885e70	1.0160275e-06
37	0x3388f769	6.377997e-08
38	0x00000000	0.0
39	0x3247ddf7	1.16337935e-08
40	0x2fa4f2b6	3.0003883e-10
41	0x33ee5eb4	1.1099965e-07
42	0x31dca112	6.4211543e-09
43	0x322906fa	9.838681e-09
44	0x343f4977	1.7814988e-07
45	0x2edf6b99	1.0159979e-10
46	0x36113b2a	2.1641122e-06
47	0x35f3c9f3	1.8163686e-06
48	0x333a0246	4.3308567e-08
49	0x344c7380	1.9040999e-07
50	0x339c0221	7.264703e-08
51	0x35abb44b	1.2792965e-06
52	0x34f37341	4.5346135e-07
53	0x360d28d0	2.1034393e-06
54	0x32953362	1.736925e-08
55	0x353c997e	7.025882e-07
56	0x32e61295	2.6783974e-08
57	0x00000000	0.0
58	0x32de6945	2.5892072e-08
59	0x00000000	0.0
60	0x3108ef55	1.992665e-09
61	0x33f10876	1.1223976e-07
62	0x00000000	0.0
63	0x00000000	0.0
64	0x33b85d9f	8.585197e-08
65	0x2a0687bd	1.1948685e-13
66	0x00000000	0.0
67	0x35218e23	6.018401e-07
68	0x31444944	2.85634e-09
69	0x3545f4f8	7.3744695e-07
70	0x339798ba	7.059266e-08
71	0x3331e952	4.1423228e-08
72	0x3206c38d	7.84429e-09
73	0x3179e7db	3.6366063e-09
74	0x357deb62	9.459237e-07
75	0x32596b73	1.26554935e-08
76	0x341ffeb5	1.4900691e-07
77	0x00000000	0.0
78	0x352fe2f7	6.552286e-07
79	0x00000000	0.0
80	0x34d3101e	3.931354e-07
81	0x2e11615d	3.305566e-11
82	0x358193ad	9.654228e-07
83	0x311b9b81	2.2643862e-09
84	0x00000000	0.0
85	0x33e564d3	1.0681983e-07
86	0x2f91e810	2.6540237e-10
87	0x3159fb8f	3.172065e-09
88	0x31ad972f	5.0521503e-09
89	0x00000000	0.0
90	0x00000000	0.0
91	0x2aa835fd	2.9880257e-13
92	0x349a4746	2.8736594e-07
93	0x33d4ec17	9.914964e-08
94	0x00000000	0.0
95	0x00000000	0.0
96	0x34ee132c	4.4344904e-07
97	0x00000000	0.0
98	0x00000000	0.0
99	0x00000000	0.0
100	0x355f1ebf	8.3118715e-07
101	0x33b680fe	8.498499e-08
102	0x00000000	0.0
103	0x2f408503	1.7509554e-10
104	0x3072e1ee	8.836015e-10
105	0x34153559	1.3896114e-07
106	0x326a4cee	1.3638084e-08
107	0x32967a30	1.7517863e-08
108	0x33d54a3b	9.932088e-08
109	0x298b8e29	6.197501e-14
110	0x35dc199f	1.6398734e-06
111	0x35bfc69e	1.4288414e-06
112	0x331cccaf	3.650774e-08
113	0x33c81083	9.316229e-08
114	0x3189db6a	4.0121693e-09
115	0x358be8f7	1.0424109e-06
116	0x34b26fc5	3.3236407e-07
117	0x35c6a078	1.4798852e-06
118	0x3021259a	5.8624894e-10
119	0x3501dd1e	4.837801e-07
120	0x318c5e70	4.0852726e-09
121	0x00000000	0.0
122	0x33160b22	3.4934722e-08
123	0x00000000	0.0
124	0x30a01c19	1.1649518e-09
125	0x33dfd8bc	1.04236705e-07
126	0x00000000	0.0
127	0x00000000	0.0
128	0x340191a9	1.2067052e-07
129	0x3077cabd	9.0146185e-10
130	0x20515e06	1.7734098e-19
131	0x346f345a	2.2277655e-07
132	0x3209ede7	8.028542e-09
133	0x348b15b4	2.590656e-07
134	0x326d4bb3	1.3812428e-08
135	0x332552cb	3.8492356e-08
136	0x32d329bd	2.4582613e-08
137	0x30d2ce88	1.5338211e-09
138	0x34f83b69	4.6236826e-07
139	0x3392f08e	6.8424114e-08
140	0x332ef475	4.0734864e-08
141	0x00000000	0.0
142	0x345feee9	2.0855408e-07
143	0x00000000	0.0
144	0x345bce82	2.0471091e-07
145	0x31bb5fb6	5.4532974e-09
146	0x34cd052e	3.8187994e-07
147	0x30a89bde	1.2267909e-09
148	0x00000000	0.0
149	0x3302c854	3.045018e-08
150	0x30828ad9	9.498208e-10
151	0x32272337	9.728686e-09
152	0x3296796d	1.7517516e-08
153	0x00000000	0.0
154	0x00000000	0.0
155	0x2ff2ca63	4.4163348e-10
156	0x33aaaf40	7.94812e-08
157	0x33107356	3.363251e-08
158	0x00000000	0.0
159	0x00000000	0.0
160	0x34ba2232	3.467008e-07
161	0x00000000	0.0
162	0x00000000	0.0
163	0x00000000	0.0
164	0x34c10778	3.5954486e-07
165	0x33b1113b	8.245339e-08
166	0x00000000	0.0
167	0x3201e481	7.560744e-09
168	0x31519c19	3.0502234e-09
169	0x340bb836	1.30124e-07
170	0x33362c37	4.241539e-08
171	0x320cc4fd	8.1938625e-09
172	0x3477a179	2.3062411e-07
173	0x2fd2cbcf	3.8343592e-10
174	0x356db8ba	8.855819e-07
175	0x3509f809	5.1397416e-07
176	0x322e8439	1.0158197e-08
177	0x3406f295	1.2567973e-07
178	0x3391d04d	6.7899784e-08
179	0x35167bf0	5.605971e-07
180	0x34422b2d	1.8083365e-07
181	0x35416260	7.204126e-07
182	0x32826159	1.517826e-08
183	0x348386a2	2.449861e-07
184	0x331e5bd4	3.687076e-08
185	0x00000000	0.0
186	0x331504cf	3.469614e-08
187	0x00000000	0.0
188	0x320b9711	8.125213e-09
189	0x32e7bdb7	2.6978212e-08
190	0x00000000	0.0
191	0x00000000	0.0
192	0x35bcc412	1.4064155e-06
193	0x32a75e54	1.9484254e-08
194	0x20a178b5	2.7354338e-19
195	0x36c1c164	5.774362e-06
196	0x30efb346	1.7440491e-09
197	0x36fe1b75	7.5729863e-06
198	0x34e46922	4.2544804e-07
199	0x34875b97	2.521235e-07
200	0x3345f5c2	4.6091152e-08
201	0x33868139	6.263367e-08
202	0x372bdeb0	1.0244243e-05
203	0x341f38e7	1.482873e-07
204	0x35a6a115	1.2414845e-06
205	0x00000000	0.0
206	0x36e6e0a0	6.880684e-06
207	0x00000000	0.0
208	0x36b69fd8	5.442631e-06
209	0x33ce40dc	9.6044204e-08
210	0x371aeeab	9.2346845e-06
211	0x336a175a	5.450361e-08
212	0x00000000	0.0
213	0x3597a108	1.1297243e-06
214	0x27758c69	3.4076697e-15
215	0x30ae0a72	1.2663135e-09
216	0x289c5352	1.7355614e-14
217	0x00000000	0.0
218	0x00000000	0.0
219	0x309aab6d	1.1253697e-09
220	0x3627b9ee	2.4993165e-06
221	0x35ae2a7d	1.2976376e-06
222	0x00000000	0.0
223	0x00000000	0.0
224	0x36ef6570	7.134564e-06
225	0x00000000	0.0
226	0x00000000	0.0
227	0x00000000	0.0
228	0x3709d312	8.21498e-06
229	0x34e22668	4.2123725e-07
230	0x00000000	0.0
231	0x33934938	6.858539e-08
232	0x27d0dfc5	5.797421e-15
233	0x354b68e0	7.5776006e-07
234	0x31b09986	5.1397278e-09
235	0x33934354	6.857468e-08
236	0x35940ebd	1.1031149e-06
237	0x2b11a050	5.1736827e-13
238	0x379167b4	1.7333638e-05
239	0x377c10ea	1.5024309e-05
240	0x34c60e47	3.6890762e-07
241	0x35bbebe4	1.4001239e-06
242	0x34e7983b	4.3137865e-07
243	0x372a5595	1.0152716e-05
244	0x367307fb	3.6214467e-06
245	0x378f64c1	1.7093846e-05
246	0x33fae39c	1.1682934e-07
247	0x36be1dbe	5.6659037e-06
248	0x3420443e	1.4925988e-07
249	0x00000000	0.0
250	0x3432d2c9	1.6654225e-07
251	0x00000000	0.0
252	0x2f940663	2.692558e-10
253	0x357edb81	9.4941794e-07
254	0x00000000	0.0
255	0x00000000	0.0

exp_avg f4 [64]
0	0xb9c60d2e	-0.00037775323
1	0xb9ad9092	-0.00033104845
2	0xb9a3f5c4	-0.00031272892
3	0x3a840b10	0.0010074098
4	0x00000000	0.0
5	0xb9570904	-0.00020507356
6	0x00000000	0.0
7	0x00000000	0.0
8	0x00000000	0.0
9	0x00000000	0.0
10	0x35f72de8	1.8416295e-06
11	0xb9e80d39	-0.0004426034
12	0x3adeea45	0.0017007074
13	0xb947048b	-0.00018979811
14	0x3a87a2a5	0.0010348154
15	0x3a7c5b7b	0.0009626669
16	0x39acf88c	0.00032991578
17	0x388a1723	6.584662e-05
18	0xb986574e	-0.0002562352
19	0xba2a9c14	-0.0006508243
20	0x00000004	6e-45
21	0xba8262d5	-0.0009947667
22	0xba130a51	-0.0005609142
23	0xb9d450b6	-0.00040495925
24	0x00000000	0.0
25	0x3ab82a8c	0.0014050766
26	0x00000000	0.0
27	0x394aba00	0.00019333512
28	0x387dd772	6.052055e-05
29	0xba3d0304	-0.0007210227
30	0x37b2d253	2.1317193e-05
31	0x00000000	0.0
32	0x39bb98fd	0.00035781405
33	0x38515bdb	4.991503e-05
34	0x39a2bad6	0.00031038251
35	0x39829ffb	0.00024914727
36	0x00000000	0.0
37	0x38cf0e2d	9.8731696e-05
38	0xb8d5ad91	-0.00010188961
39	0xb89534c2	-7.1147006e-05
40	0x39f36ded	0.00046430473
41	0x00000000	0.0
42	0xb9915d1f	-0.00027725936
43	0x3ab14c95	0.0013526852
44	0xba199f3a	-0.00058602134
45	0xb6b39b40	-5.352689e-06
46	0x00000000	0.0
47	0x35a290c8	1.2112077e-06
48	0xb8d8a61e	-0.00010330624
49	0xb8f69d28	-0.00011759467
50	0x3a99f48b	0.0011745853
51	0xba05c13c	-0.00051023415
52	0xb7b4f4e1	-2.1571703e-05
53	0x3adaf84a	0.0016706076
54	0x00000000	0.0
55	0xb707ddf3	-8.098304e-06
56	0xb9c96d75	-0.0003841926
57	0x376f655d	1.4269111e-05
58	0x00000000	0.0
59	0x00000000	0.0
60	0x00000000	0.0
61	0x00000000	0.0
62	0xb925404a	-0.00015759576
63	0x3831dc4f	4.2405267e-05

exp_avg_sq f4 [64]
0	0x361c3c74	2.3281e-06
1	0x35bc89cc	1.4047196e-06
2	0x3597195b	1.1257756e-06
3	0x37981433	1.8129218e-05
4	0x00000000	0.0
5	0x3587fedc	1.0132458e-06
6	0x00000000	0.0
7	0x00000000	0.0
8	0x00000000	0.0
9	0x00000000	0.0
10	0x34edfd45	4.4328968e-07
11	0x36aa1fa3	5.070078e-06
12	0x385d46f8	5.27566e-05
13	0x35d4ef0b	1.5864802e-06
14	0x37a07092	1.9125906e-05
15	0x37572354	1.2823224e-05
16	0x36f792a7	7.378246e-06
17	0x33b27222	8.3095316e-08
18	0x356b9aec	8.7769763e-07
19	0x36911c80	4.3246546e-06
20	0x2afbce8c	4.4729877e-13
21	0x3738aace	1.1007023e-05
22	0x370f997c	8.5592e-06
23	0x35fa64f3	1.8655832e-06
24	0x00000000	0.0
25	0x37e0183f	2.6714171e-05
26	0x00000000	0.0
27	0x3696de35	4.4962167e-06
28	0x3431e05b	1.656603e-07
29	0x36ca564e	6.0301163e-06
30	0x350b7a70	5.1959705e-07
31	0x00000000	0.0
32	0x35d45fa2	1.5823064e-06
33	0x3454fa7c	1.9835164e-07
34	0x370ccb68	8.3920095e-06
35	0x3697ba51	4.5218408e-06
36	0x00000000	0.0
37	0x359f2c9a	1.1859404e-06
38	0x34d66e12	3.9940693e-07
39	0x361fdb85	2.3820623e-06
40	0x3683ac33	3.924151e-06
41	0x00000000	0.0
42	0x35e24ed9	1.686126e-06
43	0x37d4dbc1	2.53747e-05
44	0x36a328f2	4.862545e-06
45	0x33864c58	6.253748e-08
46	0x00000000	0.0
47	0x34e563e4	4.2727254e-07
48	0x3424b8fb	1.5340986e-07
49	0x3501d1c5	4.83615e-07
50	0x37ca0c1d	2.4085917e-05
51	0x3811a56f	3.4724766e-05
52	0x3396385a	6.9951696e-08
53	0x382219d2	3.8647857e-05
54	0x00000000	0.0
55	0x336285f9	5.2741573e-08
56	0x36297b64	2.5254785e-06
57	0x33267c0d	3.876271e-08
58	0x00000000	0.0
59	0x00000000	0.0
60	0x00000000	0.0
61	0x00000000	0.0
62	0x349c5b4c	2.9123692e-07
63	0x33024c15	3.033718e-08

exp_avg f4 [64, 64]
0	0x389b0a03	7.392841e-05
1	0x37d6d6e4	2.5610854e-05
2	0x384e4739	4.918056e-05
3	0x32eb18ba	2.7368845e-08
4	0x00000000	0.0
5	0x36e0132a	6.677951e-06
6	0x00000000	0.0
7	0x00000000	0.0
8	0x00000000	0.0
9	0x00000000	0.0
10	0xb594f029	-1.1096755e-06
11	0x37c22cfb	2.3147548e-05
12	0x32831551	1.52601e-08
13	0x383b489e	4.4651904e-05
14	0xb303f958	-3.072759e-08
15	0xb3840dd5	-6.149245e-08
16	0x3863a62b	5.4275773e-05
17	0xb71633c5	-8.95275e-06
18	0x37e081e2	2.6763362e-05
19	0x38181658	3.6260433e-05
20	0x80000004	-6e-45
21	0x386f6272	5.7073725e-05
22	0x31e1fd76	6.577177e-09
23	0x38515afd	4.9914222e-05
24	0x00000000	0.0
25	0xb2092524	-7.982894e-09
26	0x00000000	0.0
27	0x38a9af40	8.091191e-05
28	0x3836428b	4.3454154e-05
29	0x3807dc26	3.2391537e-05
30	0x3296d506	1.755917e-08
31	0x00000000	0.0
32	0xb5deea25	-1.6608434e-06
33	0x35b8a170	1.3756053e-06
34	0x386dec13	5.6725064e-05
35	0x3889c1e0	6.568781e-05
36	0x00000000	0.0
37	0x371f9dbb	9.513863e-06
38	0x37aec04c	2.0831962e-05
39	0x341020a6	1.3422923e-07
40	0x3217b57e	8.830623e-09
41	0x00000000	0.0
42	0x37c2792c	2.3183027e-05
43	0x0f387309	9.094055e-30
44	0x3788a2f0	1.6288337e-05
45	0x37dbe0ab	2.6211454e-05
46	0x00000000	0.0
47	0x31e6ab5b	6.713362e-09
48	0x38cb1291	9.6832526e-05
49	0x37cf5845	2.4717427e-05
50	0x32408e94	1.1208289e-08
51	0xb1808552	-3.740447e-09
52	0xb6be8124	-5.677475e-06
53	0xb099d997	-1.1194058e-09
54	0x00000000	0.0
55	0x386cf6a1	5.6496476e-05
56	0x38370be9	4.3641692e-05
57	0xb4ce4020	-3.8417147e-07
58	0x00000000	0.0
59	0x00000000	0.0
60	0x00000000	0.0
61	0x00000000	0.0
62	0x3868c17a	5.54933e-05
63	0x379ad365	1.8456669e-05
64	0x38744d0d	5.8245892e-05
65	0x3640da5d	2.8737334e-06
66	0x38fda7d2	0.00012095239
67	0x37720661	1.4425809e-05
68	0x00000000	0.0
69	0x37b1986c	2.1171021e-05
70	0x00000000	0.0
71	0x00000000	0.0
72	0x00000000	0.0
73	0x00000000	0.0
74	0x38e79478	0.00011042593
75	0x358e34da	1.0595206e-06
76	0x374d2ce2	1.2229402e-05
77	0x391e4aa9	0.00015095867
78	0x379888b5	1.8183471e-05
79	0x37a7a986	1.9986892e-05
80	0x3693d950	4.40624e-06
81	0x38fb279f	0.00011975993
82	0x38bcc76a	9.001682e-05
83	0x3855f9fd	5.1015977e-05
84	0x80000004	-6e-45
85	0x37401e7b	1.1451189e-05
86	0xb6e52185	-6.828634e-06
87	0x35c0b69f	1.4358264e-06
88	0x00000000	0.0
89	0x378be73d	1.667777e-05
90	0x00000000	0.0
91	0x35ed2ba1	1.7670574e-06
92	0x3533062b	6.669167e-07
93	0x37ad2cbf	2.0644044e-05
94	0xb4120a82	-1.3601132e-07
95	0x00000000	0.0
96	0x38873ee4	6.449016e-05
97	0x37f9d335	2.9781464e-05
98	0x35f0ce56	1.7941445e-06
99	0x3685d6ba	3.9887063e-06
100	0x00000000	0.0
101	0x3592edd4	1.0947065e-06
102	0x358ba01e	1.0402907e-06
103	0xb6e32154	-6.769007e-06
104	0x372fb37a	1.04726005e-05
105	0x00000000	0.0
106	0x38b4b0be	8.61599e-05
107	0x3714de71	8.873279e-06
108	0x37590ba6	1.293692e-05
109	0x37b3cd85	2.1434165e-05
110	0x00000000	0.0
111	0xb32059b8	-3.73345e-08
112	0x394c25de	0.00019469063
113	0x388abf0e	6.6159395e-05
114	0x37e6ca1d	2.7512253e-05
115	0xb74787e6	-1.1892966e-05
116	0x38b9051c	8.822439e-05
117	0x3744910d	1.1716283e-05
118	0x00000000	0.0
119	0x38d228ad	0.00010021157
120	0x35c7c391	1.4883573e-06
121	0xb50dfae6	-5.28917e-07
122	0x00000000	0.0
123	0x00000000	0.0
124	0x00000000	0.0
125	0x00000000	0.0
126	0x388cf5cd	6.721504e-05
127	0x3986dc30	0.00025722524
128	0x393f0a00	0.00018218905
129	0x383a3924	4.4399072e-05
130	0x396230e8	0.00021571259
131	0x3764cf9b	1.3638196e-05
132	0x00000000	0.0
133	0x38245429	3.9179027e-05
134	0x00000000	0.0
135	0x00000000	0.0
136	0x00000000	0.0
137	0x00000000	0.0
138	0x38e472d3	0.00010893275
139	0x3815e176	3.5734345e-05
140	0x3741c77a	1.1550141e-05
141	0x397c51fb	0.00024063133
142	0x3790578e	1.7206909e-05
143	0x379f464f	1.8987017e-05
144	0x38b0fe70	8.439727e-05
145	0x38fbc97f	0.00012006144
146	0x39166680	0.00014343299
147	0x38f93fa6	0.00011885101
148	0x80000004	-6e-45
149	0x38dad815	0.000104352985
150	0xb6d970f8	-6.4802553e-06
151	0x38b525e6	8.637812e-05
152	0x00000000	0.0
153	0x37844707	1.57687e-05
154	0x00000000	0.0
155	0x39030f19	0.00012498758
156	0x388cddff	6.71707e-05
157	0x389e4874	7.5475225e-05
158	0xb416a5b3	-1.403012e-07
159	0x00000000	0.0
160	0x3884c1d8	6.330357e-05
161	0x3807495f	3.225484e-05
162	0x38b8037a	8.774451e-05
163	0x38d4c49e	0.000101455706
164	0x00000000	0.0
165	0x37897a04	1.638849e-05
166	0x3806e3b5	3.216016e-05
167	0xb6d7ec4e	-6.435009e-06
168	0x3725f7fa	9.892503e-06
169	0x00000000	0.0
170	0x390ff2ee	0.00013728041
171	0x370ca567	8.383161e-06
172	0x38365a30	4.3476175e-05
173	0x38847c2a	6.317378e-05
174	0x00000000	0.0
175	0x3214959a	8.648749e-09
176	0x39c28838	0.00037104054
177	0x38eb7a5e	0.00011228466
178	0x37da54b0	2.602706e-05
179	0xb73d5aea	-1.1286445e-05
180	0x38be851c	9.0846996e-05
181	0x3739a877	1.1066083e-05
182	0x00000000	0.0
183	0x39598827	0.00020745453
184	0x388d4ae3	6.737353e-05
185	0xb51f938c	-5.9446825e-07
186	0x00000000	0.0
187	0x00000000	0.0
188	0x00000000	0.0
189	0x00000000	0.0
190	0x392e7f1e	0.00016641288
191	0x39a596dc	0.0003158365
192	0x380c8d73	3.3510336e-05
193	0x37086f38	8.132127e-06
194	0x38271188	3.983223e-05
195	0x362a2f49	2.5359498e-06
196	0x00000000	0.0
197	0x36f3e793	7.268923e-06
198	0x00000000	0.0
199	0x00000000	0.0
200	0x00000000	0.0
201	0x00000000	0.0
202	0x37a97564	2.0201034e-05
203	0x36db626a	6.5381655e-06
204	0x3610f0ec	2.1597907e-06
205	0x383a8a82	4.447485e-05
206	0x36574c69	3.2081973e-06
207	0x366c2ecf	3.5193987e-06
208	0x3781974f	1.5448457e-05
209	0x37bb486e	2.2325865e-05
210	0x37de448f	2.6496387e-05
211	0x37b7d966	2.1916534e-05
212	0x80000004	-6e-45
213	0x37a09b69	1.9145855e-05
214	0xb59ecbd9	-1.1831245e-06
215	0x378518b4	1.5866339e-05
216	0x00000000	0.0
217	0x3644efaa	2.9345779e-06
218	0x00000000	0.0
219	0x37bff9c1	2.2885275e-05
220	0x374e4b9d	1.2296162e-05
221	0x3768c95a	1.3875158e-05
222	0xb2da686f	-2.5426031e-08
223	0x00000000	0.0
224	0x37456e2a	1.1767765e-05
225	0x36c7f5ef	5.9592926e-06
226	0x3786c488	1.6065562e-05
227	0x379bca7f	1.8571734e-05
228	0x00000000	0.0
229	0x364970af	3.0016924e-06
230	0x36c57b84	5.8854366e-06
231	0xb59d0280	-1.1698139e-06
232	0x35f7d2bf	1.8464269e-06
233	0x00000000	0.0
234	0x37d50186	2.5392288e-05
235	0x35d1fbae	1.5644962e-06
236	0x3706a150	8.024581e-06
237	0x3742b446	1.1605274e-05
238	0x00000000	0.0
239	0x30c46bad	1.429148e-09
240	0x388f923b	6.846009e-05
241	0x37ade37e	2.0729141e-05
242	0x36a22618	4.832411e-06
243	0xb60a39df	-2.0597288e-06
244	0x378d7c56	1.6866408e-05
245	0x360acf68	2.0684329e-06
246	0x00000000	0.0
247	0x3820a8cf	3.8304188e-05
248	0x374ee0ab	1.2330866e-05
249	0xb3ec3a09	-1.1000163e-07
250	0x00000000	0.0
251	0x00000000	0.0
252	0x00000000	0.0
253	0x00000000	0.0
254	0x3800a8ad	3.067467e-05
255	0x387566de	5.8508354e-05

exp_avg_sq f4 [64, 64]
0	0x33b0b633	8.2287805e-08
1	0x31d2de69	6.1370895e-09
2	0x33c8c1c5	9.348472e-08
3	0x2f652261	2.0839643e-10
4	0x00000000	0.0
5	0x328a35f8	1.6089857e-08
6	0x00000000	0.0
7	0x00000000	0.0
8	0x00000000	0.0
9	0x00000000	0.0
10	0x313d7aff	2.7573035e-09
11	0x31ccdfe3	5.9626344e-09
12	0x2fbd8f8e	3.4480901e-10
13	0x33b739fd	8.5321496e-08
14	0x2f976819	2.7540706e-10
15	0x292cb3f9	3.8347773e-14
16	0x338cff08	6.565648e-08
17	0x328c74ee	1.6351319e-08
18	0x3318ea15	3.5603154e-08
19	0x32945aed	1.7270816e-08
20	0x2815e93d	8.321737e-15
21	0x331aa5fb	3.6006877e-08
22	0x2f7365d6	2.21369e-10
23	0x33a20ca4	7.546012e-08
24	0x00000000	0.0
25	0x267ef32f	8.845353e-16
26	0x00000000	0.0
27	0x33a49ce2	7.665382e-08
28	0x3301cdef	3.022245e-08
29	0x324f7fd1	1.2078048e-08
30	0x32387e51	1.0738931e-08
31	0x00000000	0.0
32	0x31384ff9	2.6820983e-09
33	0x2fa9b745	3.0871142e-10
34	0x332944e6	3.941104e-08
35	0x3377dc00	5.7709258e-08
36	0x00000000	0.0
37	0x3209fb48	8.031584e-09
38	0x32681fc1	1.3511397e-08
39	0x3224548f	9.565283e-09
40	0x2fffbe1b	4.6519308e-10
41	0x00000000	0.0
42	0x32cbedf8	2.3740526e-08
43	0x23ddb4c8	2.4037432e-17
44	0x32a81610	1.9567807e-08
45	0x320925d7	7.983053e-09
46	0x00000000	0.0
47	0x3221421a	9.386463e-09
48	0x348ed163	2.660191e-07
49	0x32b0a85c	2.0565658e-08
50	0x3008f7b0	4.9828497e-10
51	0x2ec6fe0d	9.049126e-11
52	0x321ddf6f	9.189406e-09
53	0x255f4dc3	1.9368513e-16
54	0x00000000	0.0
55	0x33b124ba	8.248885e-08
56	0x3309bac3	3.2067657e-08
57	0x2d5e0332	1.26199485e-11
58	0x00000000	0.0
59	0x00000000	0.0
60	0x00000000	0.0
61	0x00000000	0.0
62	0x33757f3e	5.7159234e-08
63	0x33e43bec	1.0627977e-07
64	0x33c6a3d5	9.2498944e-08
65	0x317f581d	3.715747e-09
66	0x34a581a9	3.0827985e-07
67	0x318c508d	4.083694e-09
68	0x00000000	0.0
69	0x331f6ff6	3.71219e-08
70	0x00000000	0.0
71	0x00000000	0.0
72	0x00000000	0.0
73	0x00000000	0.0
74	0x33fe1dad	1.1833195e-07
75	0x2fdd85c2	4.0294706e-10
76	0x31d4431c	6.1776415e-09
77	0x34e60db1	4.28508e-07
78	0x31ebfdc0	6.868248e-09
79	0x310295ed	1.9002713e-09
80	0x32eb433d	2.7388177e-08
81	0x348ab20b	2.5834046e-07
82	0x3418851a	1.4204525e-07
83	0x33899f66	6.408554e-08
84	0x27925c2b	4.062307e-15
85	0x32bb5e53	2.1812559e-08
86	0x307c6e89	9.1834146e-10
87	0x335a9fe0	5.0902486e-08
88	0x00000000	0.0
89	0x3149065d	2.9252967e-09
90	0x00000000	0.0
91	0x3302fe5c	3.0499322e-08
92	0x32090410	7.975373e-09
93	0x327319f8	1.4150366e-08
94	0x31f89d4a	7.2356316e-09
95	0x00000000	0.0
96	0x33924e2a	6.812873e-08
97	0x3199b7af	4.4737685e-09
98	0x329ba881	1.8121002e-08
99	0x32b02ee9	2.0510429e-08
100	0x00000000	0.0
101	0x3174d07a	3.5625178e-09
102	0x303b656d	6.817434e-10
103	0x32463ede	1.1539411e-08
104	0x3195f37d	4.364152e-09
105	0x00000000	0.0
106	0x3427f335	1.5641565e-07
107	0x30d6815d	1.5607317e-09
108	0x32fb16ed	2.9230671e-08
109	0x31e36168	6.6176433e-09
110	0x00000000	0.0
111	0x310787a6	1.9722193e-09
112	0x35518752	7.8055484e-07
113	0x339956a1	7.1403754e-08
114	0x3227eb81	9.774227e-09
115	0x3100a8f7	1.8722497e-09
116	0x33eec722	1.1118961e-07
117	0x312e241a	2.5340854e-09
118	0x00000000	0.0
119	0x349b2940	2.8901013e-07
120	0x31ddd1f3	6.455815e-09
121	0x2d81b4bb	1.4745863e-11
122	0x00000000	0.0
123	0x00000000	0.0
124	0x00000000	0.0
125	0x00000000	0.0
126	0x340838b4	1.2686615e-07
127	0x3585076e	9.911435e-07
128	0x347c2434	2.34825e-07
129	0x327b35c0	1.4622344e-08
130	0x34e3a6d0	4.2403417e-07
131	0x31815266	3.7637617e-09
132	0x00000000	0.0
133	0x3380cee6	5.998099e-08
134	0x00000000	0.0
135	0x00000000	0.0
136	0x00000000	0.0
137	0x00000000	0.0
138	0x33e99e1b	1.0878667e-07
139	0x32722546	1.4094729e-08
140	0x31c3aa5b	5.694614e-09
141	0x35078821	5.048951e-07
142	0x31da3728	6.3509056e-09
143	0x30f22f34	1.7621233e-09
144	0x3426be04	1.5529082e-07
145	0x3480e9eb	2.4012056e-07
146	0x34414665	1.8000135e-07
147	0x33b6a537	8.505088e-08
148	0x29642f86	5.066739e-14
149	0x33c1001c	8.987283e-08
150	0x30897c58	1.0003403e-09
151	0x344c3b36	1.9020521e-07
152	0x00000000	0.0
153	0x313a763a	2.7133766e-09
154	0x00000000	0.0
155	0x3442a51f	1.8127729e-07
156	0x33990dc4	7.127122e-08
157	0x3314f8d0	3.468523e-08
158	0x32dc873d	2.567287e-08
159	0x00000000	0.0
160	0x338740cf	6.298216e-08
161	0x31957abf	4.3504254e-09
162	0x33c83c84	9.3242335e-08
163	0x34123ab7	1.361867e-07
164	0x00000000	0.0
165	0x32a3aace	1.905337e-08
166	0x3308ac45	3.1821646e-08
167	0x32da2e7e	2.5399682e-08
168	0x318d24c7	4.107821e-09
169	0x00000000	0.0
170	0x34368434	1.6998166e-07
171	0x30c96d4b	1.4655738e-09
172	0x337d416d	5.8965657e-08
173	0x32b5214b	2.1086313e-08
174	0x00000000	0.0
175	0x32be141f	2.2128061e-08
176	0x3596685e	1.1206246e-06
177	0x33d1098d	9.734058e-08
178	0x321b3cab	9.035982e-09
179	0x30f5bcc1	1.7879743e-09
180	0x33e537ec	1.06738156e-07
181	0x31220b58	2.358055e-09
182	0x00000000	0.0
183	0x34d1b19f	3.905852e-07
184	0x33a28d33	7.569397e-08
185	0x2e03bfe9	2.9956402e-11
186	0x00000000	0.0
187	0x00000000	0.0
188	0x00000000	0.0
189	0x00000000	0.0
190	0x3462cdeb	2.1122803e-07
191	0x358525e0	9.920295e-07
192	0x31e826ac	6.756485e-09
193	0x2fef854e	4.3568565e-10
194	0x324c4b85	1.1891534e-08
195	0x2eee771f	1.0844147e-10
196	0x00000000	0.0
197	0x30dfb4ea	1.6276804e-09
198	0x00000000	0.0
199	0x00000000	0.0
200	0x00000000	0.0
201	0x00000000	0.0
202	0x315592a1	3.1078928e-09
203	0x2fdd66e9	4.0272788e-10
204	0x2f344df2	1.6398596e-10
205	0x32744c3f	1.4220006e-08
206	0x2f47f0e9	1.8184533e-10
207	0x2e5b024c	4.9796875e-11
208	0x3193a89c	4.2974317e-09
209	0x31edecd8	6.924534e-09
210	0x31ad4e7c	5.0438853e-09
211	0x3125f820	2.4151703e-09
212	0x24e34508	9.85625e-17
213	0x3132d30c	2.6022375e-09
214	0x2dd61bbf	2.4341305e-11
215	0x31b29deb	5.198435e-09
216	0x00000000	0.0
217	0x2ea83e47	7.650818e-11
218	0x00000000	0.0
219	0x31b3c87c	5.232378e-09
220	0x3106dc77	1.9624886e-09
221	0x308984af	1.0005773e-09
222	0x3036fec6	6.657327e-10
223	0x00000000	0.0
224	0x30f55d43	1.7852603e-09
225	0x2efe98b9	1.1577712e-10
226	0x313a07b5	2.7070943e-09
227	0x31828e81	3.7996988e-09
228	0x00000000	0.0
229	0x300a7e5c	5.0383675e-10
230	0x306b5867	8.561813e-10
231	0x3030da10	6.433831e-10
232	0x2efc650e	1.1477584e-10
233	0x00000000	0.0
234	0x31a6266a	4.835603e-09
235	0x2e2f3849	3.9840384e-11
236	0x30ddf546	1.6149577e-09
237	0x30277e15	6.093342e-10
238	0x00000000	0.0
239	0x3024bb5b	5.99291e-10
240	0x33079df5	3.1575798e-08
241	0x313bd702	2.73343e-09
242	0x2f8e66c6	2.5902674e-10
243	0x2e4b2093	4.6185788e-11
244	0x3150cd6b	3.038475e-09
245	0x2e90a867	6.578276e-11
246	0x00000000	0.0
247	0x323ca2af	1.098003e-08
248	0x3111b2b8	2.1201867e-09
249	0x2b80b23a	9.144415e-13
250	0x00000000	0.0
251	0x00000000	0.0
252	0x00000000	0.0
253	0x00000000	0.0
254	0x31cf338b	6.0303527e-09
255	0x32f355da	2.8327964e-08

exp_avg f4 [64]
0	0x38de4e41	0.00010600361
1	0x3964a948	0.00021806837
2	0x39d7f941	0.00041193704
3	0x389f7966	7.604323e-05
4	0x381ae4d2	3.6929567e-05
5	0x39ac4519	0.00032857878
6	0x3530cbcb	6.5861667e-07
7	0x00000000	0.0
8	0x00000000	0.0
9	0x3963a0d8	0.00021708326
10	0x398d461a	0.00026945845
11	0x3a172d6a	0.000576696
12	0x00000000	0.0
13	0xb90e76f4	-0.00013586489
14	0x39aea889	0.00033313435
15	0x39baee0b	0.0003565404
16	0x396328af	0.00021663563
17	0xb9bd28d5	-0.0003607931
18	0xb9d04382	-0.0003972315
19	0x00000000	0.0
20	0x3950d677	0.0001991632
21	0xb9b637c3	-0.0003475529
22	0x00000000	0.0
23	0x39908cb4	0.00027570652
24	0x39b78936	0.0003500671
25	0x00000000	0.0
26	0x39824d52	0.0002485314
27	0xb9d34409	-0.00040295746
28	0xb9536782	-0.00020161088
29	0xb947a15d	-0.00019038231
30	0xb3822f68	-6.06222e-08
31	0x393f5cdc	0.00018249772
32	0xb9317e54	-0.00016927096
33	0x00000000	0.0
34	0x00000000	0.0
35	0xb9a57f4a	-0.0003156609
36	0xb98b8066	-0.0002660781
37	0xb9855973	-0.00025434382
38	0x398e4321	0.00027134366
39	0x39bfd721	0.00036590642
40	0xb9a7a127	-0.0003197279
41	0x39051717	0.0001269247
42	0xb92479af	-0.0001568559
43	0x00000000	0.0
44	0x00000000	0.0
45	0x00000000	0.0
46	0x38f0d4df	0.00011483742
47	0xb906ee67	-0.00012868048
48	0xb9369553	-0.000174125
49	0xb8f14227	-0.00011504097
50	0x391b119f	0.00014788516
51	0x39812f6a	0.00024640124
52	0x39bd29fe	0.00036080176
53	0x156d7f41	4.7962154e-26
54	0xb9955a13	-0.00028486605
55	0xb953c97f	-0.00020197591
56	0xb98b93a3	-0.00026622144
57	0x39b797e0	0.00035017636
58	0xb9cee531	-0.00039462143
59	0xb9bece33	-0.00036393254
60	0xb9031efe	-0.00012504679
61	0x3999d15e	0.00029338425
62	0xb8905fae	-6.884277e-05
63	0x00000000	0.0

exp_avg_sq f4 [64]
0	0x35499274	7.509145e-07
1	0x35c65300	1.4776306e-06
2	0x362cb22e	2.5733711e-06
3	0x33979c10	7.059873e-08
4	0x32891547	1.5958575e-08
5	0x35e1a8c1	1.681292e-06
6	0x31838ce7	3.8286205e-09
7	0x00000000	0.0
8	0x00000000	0.0
9	0x355e9735	8.292148e-07
10	0x35cb88da	1.5164508e-06
11	0x362d7578	2.5847385e-06
12	0x00000000	0.0
13	0x34946b15	2.764506e-07
14	0x35e5a6ab	1.7110336e-06
15	0x3624b13d	2.454107e-06
16	0x36286cae	2.509721e-06
17	0x360320b2	1.9539552e-06
18	0x36227369	2.4207059e-06
19	0x00000000	0.0
20	0x352165ac	6.0125126e-07
21	0x35fb6a74	1.8731939e-06
22	0x00000000	0.0
23	0x35a6ce65	1.2428033e-06
24	0x361d8332	2.3471189e-06
25	0x00000000	0.0
26	0x3578f2ea	9.2740686e-07
27	0x36275d96	2.4939413e-06
28	0x35213075	6.004769e-07
29	0x35a4d6a0	1.2281416e-06
30	0x33efdff3	1.1170041e-07
31	0x35015285	4.8176327e-07
32	0x34e26ff1	4.2177228e-07
33	0x00000000	0.0
34	0x00000000	0.0
35	0x35cb760d	1.5159036e-06
36	0x3593d7d0	1.1015163e-06
37	0x35870f91	1.0062814e-06
38	0x35a3c2e3	1.2201166e-06
39	0x36352655	2.6993414e-06
40	0x3658da0f	3.2313435e-06
41	0x356208ac	8.420418e-07
42	0x34c6b0a2	3.700889e-07
43	0x00000000	0.0
44	0x00000000	0.0
45	0x00000000	0.0
46	0x350fba78	5.3543e-07
47	0x347ea027	2.3713856e-07
48	0x34f7a064	4.6124035e-07
49	0x34723461	2.2557062e-07
50	0x359bdaee	1.1612117e-06
51	0x35987d0e	1.1361278e-06
52	0x36011110	1.923243e-06
53	0x307dd18d	9.2338653e-10
54	0x35a83185	1.2531387e-06
55	0x34882023	2.5355357e-07
56	0x359387de	1.0991896e-06
57	0x358f2b97	1.0667017e-06
58	0x36213ffa	2.4028109e-06
59	0x36039dcf	1.9612378e-06
60	0x347c870e	2.3518461e-07
61	0x35dcf540	1.6462654e-06
62	0x33216c5a	3.758428e-08
63	0x00000000	0.0
