001-machine_learning/data/00001-MLP-temperature/004_checkpoint.pth (torch_old, 210144 bytes, 24 tensors)

exp_avg f4 [64, 4]
0	0x00000000	0.0
1	0x00000000	0.0
2	0x00000000	0.0
3	0x00000000	0.0
4	0x00000000	0.0
5	0x39005cf6	0.00012241662
6	0x37abc1c0	2.047501e-05
7	0x391412ff	0.00014121456
8	0x00000000	0.0
9	0x37104d57	8.601076e-06
10	0x37bdadea	2.261154e-05
11	0xb701c69f	-7.735244e-06
12	0x00000000	0.0
13	0xb5cbfda0	-1.5198493e-06
14	0x369654c0	4.4802146e-06
15	0x36502c9c	3.1020381e-06
16	0x00000000	0.0
17	0xb7b71d6e	-2.1829004e-05
18	0x380a79a4	3.301505e-05
19	0xb7765f75	-1.4684968e-05
20	0x00000000	0.0
21	0xb314dfdc	-3.4662534e-08
22	0xb3a9c14d	-7.904837e-08
23	0xb38391b8	-6.126669e-08
24	0x00000000	0.0
25	0x380e6d2f	3.3957123e-05
26	0x36d3b976	6.3098805e-06
27	0x38185d66	3.6326608e-05
28	0x00000000	0.0
29	0xb015a39d	-5.443839e-10
30	0xb17b0d09	-3.6532717e-09
31	0xb13b55e6	-2.726091e-09
32	0x00000000	0.0
33	0x00000000	0.0
34	0x00000000	0.0
35	0x00000000	0.0
36	0x00000000	0.0
37	0xb830537a	-4.2039414e-05
38	0xb68f5810	-4.271984e-06
39	0xb7c3f2c1	-2.3358853e-05
40	0x00000000	0.0
41	0xb6913b03	-4.3282066e-06
42	0x379a33ce	1.8382354e-05
43	0xb7e4aeee	-2.7261176e-05
44	0x00000000	0.0
45	0x00000000	0.0
46	0x00000000	0.0
47	0x00000000	0.0
48	0x00000000	0.0
49	0x37ba1125	2.2180911e-05
50	0x37a93850	2.0172592e-05
51	0x36166db1	2.241559e-06
52	0x00000000	0.0
53	0x34187761	1.4199533e-07
54	0x34d75c3b	4.0113977e-07
55	0x3427fc26	1.5644818e-07
56	0x00000000	0.0
57	0x00000000	0.0
58	0x00000000	0.0
59	0x00000000	0.0
60	0x00000000	0.0
61	0x00000000	0.0
62	0x00000000	0.0
63	0x00000000	0.0
64	0x00000000	0.0
65	0x3825d267	3.9535018e-05
66	0xb7357d91	-1.0817676e-05
67	0x3810ee60	3.455428e-05
68	0x00000000	0.0
69	0x00000000	0.0
70	0x00000000	0.0
71	0x00000000	0.0
72	0x00000000	0.0
73	0x00000000	0.0
74	0x00000000	0.0
75	0x00000000	0.0
76	0x00000000	0.0
77	0x3110a3c5	2.104785e-09
78	0x3209e251	8.025908e-09
79	0xadaaef9b	-1.9433169e-11
80	0x00000000	0.0
81	0x378611d4	1.5982347e-05
82	0xb7cb3a56	-2.422665e-05
83	0xb80e4954	-3.392373e-05
84	0x00000000	0.0
85	0x00000000	0.0
86	0x00000000	0.0
87	0x00000000	0.0
88	0x00000000	0.0
89	0x00000000	0.0
90	0x00000000	0.0
91	0x00000000	0.0
92	0x00000000	0.0
93	0x3845e880	4.7184993e-05
94	0xb861ecca	-5.3864707e-05
95	0x38aba5df	8.184811e-05
96	0x00000000	0.0
97	0xb942f775	-0.00018593467
98	0xb852ef2f	-5.029066e-05
99	0xb929e476	-0.00016202204
100	0x00000000	0.0
101	0x00000000	0.0
102	0x00000000	0.0
103	0x00000000	0.0
104	0x00000000	0.0
105	0x372fbb95	1.0474488e-05
106	0x3772116f	1.4428383e-05
107	0xb79e4f46	-1.8871982e-05
108	0x00000000	0.0
109	0x36f9721b	7.434062e-06
110	0x388b874c	6.6532375e-05
111	0xb78234b8	-1.5521757e-05
112	0x00000000	0.0
113	0x37ec2630	2.8151175e-05
114	0x37ad9334	2.0691754e-05
115	0x37b01873	2.099222e-05
116	0x00000000	0.0
117	0xb7dce9f1	-2.6334981e-05
118	0xb77e3c37	-1.51536e-05
119	0xb7e09fd4	-2.6777307e-05
120	0x00000000	0.0
121	0x00000000	0.0
122	0x00000000	0.0
123	0x00000000	0.0
124	0x00000000	0.0
125	0x00000000	0.0
126	0x00000000	0.0
127	0x00000000	0.0
128	0x00000000	0.0
129	0xb79ab532	-1.8442606e-05
130	0xb71143c0	-8.658448e-06
131	0xb78d3d33	-1.6837008e-05
132	0x00000000	0.0
133	0xb499cff8	-2.8649788e-07
134	0xb497a58b	-2.824639e-07
135	0xb244f50c	-1.1464419e-08
136	0x00000000	0.0
137	0x3747d332	1.1910497e-05
138	0x3882aed7	6.2314495e-05
139	0x36def535	6.6446614e-06
140	0x00000000	0.0
141	0x00000000	0.0
142	0x00000000	0.0
143	0x00000000	0.0
144	0x00000000	0.0
145	0xb8f26e60	-0.00011560018
146	0xb7d48b9b	-2.5337378e-05
147	0xb9187ce0	-0.00014542369
148	0x00000000	0.0
149	0x3912f136	0.00014013503
150	0x38e1feae	0.00010776274
151	0x39126722	0.00013962065
152	0x00000000	0.0
153	0xb7f014b0	-2.8619863e-05
154	0xb796bf51	-1.7970482e-05
155	0xb85cb1ab	-5.2617554e-05
156	0x00000000	0.0
157	0x35b29a9f	1.3307034e-06
158	0x3799d99e	1.8340357e-05
159	0x37972c79	1.8021312e-05
160	0x00000000	0.0
161	0x00000000	0.0
162	0x00000000	0.0
163	0x00000000	0.0
164	0x00000000	0.0
165	0x00000000	0.0
166	0x00000000	0.0
167	0x00000000	0.0
168	0x00000000	0.0
169	0x397329ef	0.00023189907
170	0x3825cd65	3.9530354e-05
171	0x391e69df	0.00015107494
172	0x00000000	0.0
173	0x00000000	0.0
174	0x00000000	0.0
175	0x00000000	0.0
176	0x00000000	0.0
177	0x00000000	0.0
178	0x00000000	0.0
179	0x00000000	0.0
180	0x00000000	0.0
181	0x382a2ed9	4.057479e-05
182	0xb86d12a4	-5.6522564e-05
183	0x388d8892	6.748842e-05
184	0x00000000	0.0
185	0x3784162c	1.574595e-05
186	0xb75b4eba	-1.3071747e-05
187	0x380622e4	3.1980584e-05
188	0x00000000	0.0
189	0x3896e152	7.1945266e-05
190	0x379d6870	1.8764491e-05
191	0x38d9e9ed	0.000103909384
192	0x00000000	0.0
193	0x3873ae41	5.8098e-05
194	0xb7b35680	-2.1378743e-05
195	0x38dd7e0d	0.0001056158
196	0x00000000	0.0
197	0x38064a29	3.2017157e-05
198	0x37894334	1.6362967e-05
199	0x37ac904a	2.0571188e-05
200	0x00000000	0.0
201	0x36c0b68f	5.7432985e-06
202	0xb5c71ba6	-1.4834702e-06
203	0x35f24fd6	1.805364e-06
204	0x00000000	0.0
205	0x00000000	0.0
206	0x00000000	0.0
207	0x00000000	0.0
208	0x00000000	0.0
209	0x387595d0	5.8552076e-05
210	0x38932751	7.0168295e-05
211	0x38420140	4.625437e-05
212	0x00000000	0.0
213	0xb747c682	-1.1907543e-05
214	0x37950132	1.776274e-05
215	0xb7c0d6e3	-2.2988248e-05
216	0x00000000	0.0
217	0x00000004	6e-45
218	0x00000000	0.0
219	0x00000004	6e-45
220	0x00000000	0.0
221	0xb550bf60	-7.7764525e-07
222	0x37c1e8f8	2.3115877e-05
223	0xb700c45d	-7.675114e-06
224	0x00000000	0.0
225	0xb71ebb6c	-9.461171e-06
226	0x37556244	1.2718669e-05
227	0xb693a0e1	-4.39967e-06
228	0x00000000	0.0
229	0x00000000	0.0
230	0x00000000	0.0
231	0x00000000	0.0
232	0x00000000	0.0
233	0x374c7dfa	1.2188679e-05
234	0x38168b14	3.5892313e-05
235	0xb7c3a319	-2.332176e-05
236	0x00000000	0.0
237	0x00000000	0.0
238	0x00000000	0.0
239	0x00000000	0.0
240	0x00000000	0.0
241	0x00000000	0.0
242	0x00000000	0.0
243	0x00000000	0.0
244	0x00000000	0.0
245	0xb7322d7d	-1.0620218e-05
246	0xb54d49a8	-7.6475635e-07
247	0x35bc7fe9	1.4044318e-06
248	0x00000000	0.0
249	0xb7c6f862	-2.3719102e-05
250	0x379eacf7	1.891561e-05
251	0xb898fece	-7.295386e-05
252	0x00000000	0.0
253	0x00000000	0.0
254	0x00000000	0.0
255	0x00000000	0.0

exp_avg_sq f4 [64, 4]
0	0x00000000	0.0
1	0x00000000	0.0
2	0x00000000	0.0
3	0x00000000	0.0
4	0x00000000	0.0
5	0x35a4e1c3	1.2284657e-06
6	0x36639c01	3.3916442e-06
7	0x365acb18	3.2602748e-06
8	0x00000000	0.0
9	0x34b9eaa1	3.462965e-07
10	0x3510c2ea	5.392782e-07
11	0x352910ee	6.298204e-07
12	0x00000000	0.0
13	0x32189f02	8.883719e-09
14	0x3290c473	1.6853141e-08
15	0x32a44a9b	1.912604e-08
16	0x00000000	0.0
17	0x350006cf	4.7693624e-07
18	0x35466eae	7.392181e-07
19	0x3576bd92	9.1918e-07
20	0x00000000	0.0
21	0x32d83afc	2.5172533e-08
22	0x351ae522	5.77029e-07
23	0x3481143b	2.4042842e-07
24	0x00000000	0.0
25	0x342cf869	1.610912e-07
26	0x347d3a24	2.3583613e-07
27	0x34a22bb1	3.020664e-07
28	0x00000000	0.0
29	0x2baf5b5b	1.2459854e-12
30	0x30105218	5.2503557e-10
31	0x2eb470b5	8.205473e-11
32	0x00000000	0.0
33	0x00000000	0.0
34	0x00000000	0.0
35	0x00000000	0.0
36	0x00000000	0.0
37	0x330689b7	3.1324557e-08
38	0x343af8b6	1.741308e-07
39	0x343dd0bb	1.7677932e-07
40	0x00000000	0.0
41	0x3538b37c	6.8806526e-07
42	0x357c51f8	9.3996596e-07
43	0x359d9b8d	1.1742683e-06
44	0x00000000	0.0
45	0x00000000	0.0
46	0x00000000	0.0
47	0x00000000	0.0
48	0x00000000	0.0
49	0x344556bc	1.8378609e-07
50	0x34b09ac9	3.2895176e-07
51	0x34ad2db6	3.225702e-07
52	0x00000000	0.0
53	0x32d8f5f7	2.5257561e-08
54	0x350d5ff7	5.266624e-07
55	0x347decd5	2.364862e-07
56	0x00000000	0.0
57	0x00000000	0.0
58	0x00000000	0.0
59	0x00000000	0.0
60	0x00000000	0.0
61	0x00000000	0.0
62	0x00000000	0.0
63	0x00000000	0.0
64	0x00000000	0.0
65	0x3497193d	2.8144305e-07
66	0x338890c4	6.359326e-08
67	0x34ab7b17	3.1940792e-07
68	0x00000000	0.0
69	0x00000000	0.0
70	0x00000000	0.0
71	0x00000000	0.0
72	0x00000000	0.0
73	0x00000000	0.0
74	0x00000000	0.0
75	0x00000000	0.0
76	0x00000000	0.0
77	0x2f2aa9e6	1.552177e-10
78	0x3281ca4c	1.510957e-08
79	0x2a826241	2.3160816e-13
80	0x00000000	0.0
81	0x35873d3c	1.0076105e-06
82	0x34ee6b06	4.4408824e-07
83	0x35940a0c	1.1029783e-06
84	0x00000000	0.0
85	0x00000000	0.0
86	0x00000000	0.0
87	0x00000000	0.0
88	0x00000000	0.0
89	0x00000000	0.0
90	0x00000000	0.0
91	0x00000000	0.0
92	0x00000000	0.0
93	0x36a2f9b9	4.8570478e-06
94	0x36eed49a	7.117703e-06
95	0x3715fe92	8.940364e-06
96	0x00000000	0.0
97	0x35d42ea5	1.5808806e-06
98	0x369da65d	4.698332e-06
99	0x368803d7	4.053563e-06
100	0x00000000	0.0
101	0x00000000	0.0
102	0x00000000	0.0
103	0x00000000	0.0
104	0x00000000	0.0
105	0x34e4d45f	4.262283e-07
106	0x350a284e	5.146766e-07
107	0x353959fb	6.904881e-07
108	0x00000000	0.0
109	0x3608d5f5	2.0390119e-06
110	0x363d9afa	2.8253403e-06
111	0x3676a4da	3.6752813e-06
112	0x00000000	0.0
113	0x31d6cc7d	6.2514673e-09
114	0x320faffe	8.3637115e-09
115	0x32336582	1.04422515e-08
116	0x00000000	0.0
117	0x32be5545	2.2157687e-08
118	0x32a962e1	1.9719154e-08
119	0x332722c0	3.8914322e-08
120	0x00000000	0.0
121	0x00000000	0.0
122	0x00000000	0.0
123	0x00000000	0.0
124	0x00000000	0.0
125	0x00000000	0.0
126	0x00000000	0.0
127	0x00000000	0.0
128	0x00000000	0.0
129	0x329a180e	1.7938898e-08
130	0x33030239	3.0502836e-08
131	0x3323f5c6	3.8174925e-08
132	0x00000000	0.0
133	0x2e1e0abf	3.5934585e-11
134	0x3112dc15	2.1370898e-09
135	0x2f82d0a9	2.3795124e-10
136	0x00000000	0.0
137	0x3593a58c	1.1000534e-06
138	0x35e6e17c	1.720196e-06
139	0x36098b79	2.0495775e-06
140	0x00000000	0.0
141	0x00000000	0.0
142	0x00000000	0.0
143	0x00000000	0.0
144	0x00000000	0.0
145	0x348e36df	2.6489485e-07
146	0x338118da	6.011551e-08
147	0x34def5a5	4.1529452e-07
148	0x00000000	0.0
149	0x3642ae90	2.9009861e-06
150	0x36b7aad5	5.4737125e-06
151	0x36c9e59c	6.016997e-06
152	0x00000000	0.0
153	0x34ae7629	3.2495998e-07
154	0x347880b1	2.3143618e-07
155	0x350f9022	5.348139e-07
156	0x00000000	0.0
157	0x3293e6dd	1.7218037e-08
158	0x324d5eb2	1.1954102e-08
159	0x32a08e09	1.8691042e-08
160	0x00000000	0.0
161	0x00000000	0.0
162	0x00000000	0.0
163	0x00000000	0.0
164	0x00000000	0.0
165	0x00000000	0.0
166	0x00000000	0.0
167	0x00000000	0.0
168	0x00000000	0.0
169	0x353b073c	6.9673456e-07
170	0x35a5e48f	1.2359977e-06
171	0x3550b923	7.775545e-07
172	0x00000000	0.0
173	0x00000000	0.0
174	0x00000000	0.0
175	0x00000000	0.0
176	0x00000000	0.0
177	0x00000000	0.0
178	0x00000000	0.0
179	0x00000000	0.0
180	0x00000000	0.0
181	0x366cfa71	3.5312517e-06
182	0x36b0bdca	5.267303e-06
183	0x36dd1df3	6.5898e-06
184	0x00000000	0.0
185	0x35155f23	5.564527e-07
186	0x353e62da	7.0924364e-07
187	0x35803ace	9.553858e-07
188	0x00000000	0.0
189	0x35f26a6b	1.8061377e-06
190	0x36291da7	2.5200222e-06
191	0x365c7777	3.2852092e-06
192	0x00000000	0.0
193	0x368e9882	4.249684e-06
194	0x36cf92d2	6.186173e-06
195	0x3702afee	7.789566e-06
196	0x00000000	0.0
197	0x32ae143d	2.026547e-08
198	0x342ef19b	1.6292908e-07
199	0x339f203d	7.4098786e-08
200	0x00000000	0.0
201	0x30d1d760	1.5267965e-09
202	0x2e20ddd9	3.657683e-11
203	0x2d24e0e1	9.372254e-12
204	0x00000000	0.0
205	0x00000000	0.0
206	0x00000000	0.0
207	0x00000000	0.0
208	0x00000000	0.0
209	0x3486d3b2	2.5113474e-07
210	0x34d90a59	4.042693e-07
211	0x34ebb79f	4.3905763e-07
212	0x00000000	0.0
213	0x34ee7796	4.4417965e-07
214	0x33d1c524	9.7681806e-08
215	0x35073f48	5.0383505e-07
216	0x00000000	0.0
217	0x292bc6ad	3.814195e-14
218	0x00000000	0.0
219	0x292bc2ba	3.8138526e-14
220	0x00000000	0.0
221	0x34400f86	1.7887041e-07
222	0x346b5895	2.1918306e-07
223	0x34a73ffc	3.115273e-07
224	0x00000000	0.0
225	0x338ece7b	6.649949e-08
226	0x339e2be4	7.365432e-08
227	0x33f12cc2	1.12305784e-07
228	0x00000000	0.0
229	0x00000000	0.0
230	0x00000000	0.0
231	0x00000000	0.0
232	0x00000000	0.0
233	0x35ab69b9	1.2771262e-06
234	0x35ec1a01	1.7590938e-06
235	0x3612aeb3	2.1857384e-06
236	0x00000000	0.0
237	0x00000000	0.0
238	0x00000000	0.0
239	0x00000000	0.0
240	0x00000000	0.0
241	0x00000000	0.0
242	0x00000000	0.0
243	0x00000000	0.0
244	0x00000000	0.0
245	0x33c2ebcc	9.07672e-08
246	0x34889a01	2.5444027e-07
247	0x3117dccb	2.2098898e-09
248	0x00000000	0.0
249	0x3606cbad	2.008611e-06
250	0x3600abe4	1.917354e-06
251	0x36617d75	3.3600638e-06
252	0x00000000	0.0
253	0x00000000	0.0
254	0x00000000	0.0
255	0x00000000	0.0

exp_avg f4 [64]
0	0x00000000	0.0
1	0x39005403	0.00012238328
2	0x36ed4dbe	7.072201e-06
3	0xb5d3f352	-1.5791541e-06
4	0xb7cb1e00	-2.4213456e-05
5	0xb3bfb861	-8.927669e-08
6	0x380d53ca	3.3695054e-05
7	0xb18676fc	-3.9134402e-09
8	0x00000000	0.0
9	0xb833c7ff	-4.2863187e-05
10	0xb6fea503	-7.589e-06
11	0x00000000	0.0
12	0x37a9fba9	2.0263558e-05
13	0x34d400d1	3.948867e-07
14	0x00000000	0.0
15	0x00000000	0.0
16	0x38300558	4.1966647e-05
17	0x00000000	0.0
18	0x00000000	0.0
19	0x32a6c253	1.9413312e-08
20	0x36d76951	6.4197598e-06
21	0x00000000	0.0
22	0x00000000	0.0
23	0x385afcc8	5.221067e-05
24	0xb9402eef	-0.00018328031
25	0x00000000	0.0
26	0x371df40d	9.414752e-06
27	0x36688377	3.4647217e-06
28	0x37e7e001	2.7641656e-05
29	0xb7d8f92e	-2.586524e-05
30	0x00000000	0.0
31	0x00000000	0.0
32	0xb7950dc3	-1.7768592e-05
33	0xb4d61457	-3.9875405e-07
34	0x3700aeb2	7.670069e-06
35	0x00000000	0.0
36	0xb8ee84c2	-0.000113734524
37	0x390cce7c	0.00013428362
38	0xb7ebccd4	-2.8109564e-05
39	0x3520317f	5.967667e-07
40	0x00000000	0.0
41	0x00000000	0.0
42	0x3972d77d	0.00023159194
43	0x00000000	0.0
44	0x00000000	0.0
45	0x383fd8a1	4.57397e-05
46	0x37990d8c	1.824533e-05
47	0x3899a148	7.3256495e-05
48	0x387f96ed	6.09373e-05
49	0x380eecb3	3.407588e-05
50	0x36bb2ae4	5.5780274e-06
51	0x00000000	0.0
52	0x3867fe18	5.5311335e-05
53	0xb731c5b2	-1.0596052e-05
54	0x00000004	6e-45
55	0xb64da938	-3.0645879e-06
56	0xb7260a34	-9.896747e-06
57	0x00000000	0.0
58	0x3728f7fa	1.0071317e-05
59	0x00000000	0.0
60	0x00000000	0.0
61	0xb704481d	-7.884603e-06
62	0xb7da8e02	-2.6053753e-05
63	0x00000000	0.0

exp_avg_sq f4 [64]
0	0x00000000	0.0
1	0x37127b0f	8.73093e-06
2	0x35c0b5c4	1.4358016e-06
3	0x334872ca	4.667053e-08
4	0x35fcd7f8	1.8838318e-06
5	0x35865afa	1.0010256e-06
6	0x3527f723	6.257198e-07
7	0x302f5670	6.3787464e-10
8	0x00000000	0.0
9	0x354d4b57	7.6478085e-07
10	0x3636b54f	2.722565e-06
11	0x00000000	0.0
12	0x356e6394	8.8806814e-07
13	0x35970ad5	1.1253529e-06
14	0x00000000	0.0
15	0x00000000	0.0
16	0x34c21696	3.615175e-07
17	0x00000000	0.0
18	0x00000000	0.0
19	0x33b0df42	8.236249e-08
20	0x35c26bf9	1.448555e-06
21	0x00000000	0.0
22	0x00000000	0.0
23	0x379fad32	1.9034927e-05
24	0x373a53cc	1.1105974e-05
25	0x00000000	0.0
26	0x35c8a010	1.4947746e-06
27	0x36f9c909	7.444182e-06
28	0x32ca0a89	2.3520686e-08
29	0x3394d2d1	6.930134e-08
30	0x00000000	0.0
31	0x00000000	0.0
32	0x33b2f478	8.3332395e-08
33	0x315a153a	3.173524e-09
34	0x3696460d	4.4785033e-06
35	0x00000000	0.0
36	0x352dca5f	6.474201e-07
37	0x376266fa	1.3494626e-05
38	0x35836200	9.788782e-07
39	0x3378aa45	5.789686e-08
40	0x00000000	0.0
41	0x00000000	0.0
42	0x366df074	3.5455714e-06
43	0x00000000	0.0
44	0x00000000	0.0
45	0x376fa826	1.428466e-05
46	0x3605e3e8	1.9951203e-06
47	0x36ee8162	7.108015e-06
48	0x378eabf1	1.7007786e-05
49	0x347ad101	2.33591e-07
50	0x3108774b	1.9858415e-09
51	0x00000000	0.0
52	0x359250ae	1.0901329e-06
53	0x351abb02	5.76416e-07
54	0x292bc6ad	3.814195e-14
55	0x352d7003	6.461052e-07
56	0x346d3ac6	2.2093727e-07
57	0x00000000	0.0
58	0x36a2143b	4.8303314e-06
59	0x00000000	0.0
60	0x00000000	0.0
61	0x35cce056	1.5264475e-06
62	0x36dae8f8	6.5240274e-06
63	0x00000000	0.0

exp_avg f4 [128, 64]
0	0x00000000	0.0
1	0xb543840d	-7.283532e-07
2	0x36a50a3e	4.9185755e-06
3	0x3589b642	1.0260339e-06
4	0x36e3709d	6.778237e-06
5	0xb0bbc4c2	-1.3661963e-09
6	0x364f4b64	3.0889287e-06
7	0xaf9b37ee	-2.8234076e-10
8	0x00000000	0.0
9	0x326f1674	1.3916736e-08
10	0xb58d5564	-1.0530171e-06
11	0x00000000	0.0
12	0x369b7b03	4.6336804e-06
13	0x2fb0cc6b	3.215946e-10
14	0x00000000	0.0
15	0x00000000	0.0
16	0xb66360f0	-3.388206e-06
17	0x00000000	0.0
18	0x00000000	0.0
19	0x80000004	-6e-45
20	0x37052efd	7.938358e-06
21	0x00000000	0.0
22	0x00000000	0.0
23	0x369929e2	4.564631e-06
24	0xb5e199db	-1.6808584e-06
25	0x00000000	0.0
26	0xb6760709	-3.6660952e-06
27	0x3645b39f	2.945984e-06
28	0x33357d3e	4.2256254e-08
29	0xb71140dc	-8.657775e-06
30	0x00000000	0.0
31	0x00000000	0.0
32	0x36cec80b	6.1625665e-06
33	0x2d021a31	7.39546e-12
34	0x371809a5	9.062152e-06
35	0x00000000	0.0
36	0xb6a71fdf	-4.980698e-06
37	0x36d64339	6.3855227e-06
38	0xb731c879	-1.0596698e-05
39	0x3717bf5f	9.044858e-06
40	0x00000000	0.0
41	0x00000000	0.0
42	0x3679e1d2	3.7235336e-06
43	0x00000000	0.0
44	0x00000000	0.0
45	0xb695d31e	-4.4651233e-06
46	0x3673bd51	3.6320018e-06
47	0x36f7c64a	7.3842575e-06
48	0x36ddcf59	6.6104517e-06
49	0xb35bc6e2	-5.1170794e-08
50	0x00000004	6e-45
51	0x00000000	0.0
52	0x3716726f	8.96734e-06
53	0xb744a39b	-1.1720603e-05
54	0x80000004	-6e-45
55	0x369c1dac	4.6526166e-06
56	0x36edd0dc	7.087465e-06
57	0x00000000	0.0
58	0xb705ff57	-7.986869e-06
59	0x00000000	0.0
60	0x00000000	0.0
61	0x00000004	6e-45
62	0xb73ea512	-1.1363316e-05
63	0x00000000	0.0
64	0x00000000	0.0
65	0x00000000	0.0
66	0x00000000	0.0
67	0x00000000	0.0
68	0x00000000	0.0
69	0x00000000	0.0
70	0x00000000	0.0
71	0x00000000	0.0
72	0x00000000	0.0
73	0x00000000	0.0
74	0x00000000	0.0
75	0x00000000	0.0
76	0x00000000	0.0
77	0x00000000	0.0
78	0x00000000	0.0
79	0x00000000	0.0
80	0x00000000	0.0
81	0x00000000	0.0
82	0x00000000	0.0
83	0x00000000	0.0
84	0x00000000	0.0
85	0x00000000	0.0
86	0x00000000	0.0
87	0x00000000	0.0
88	0x00000000	0.0
89	0x00000000	0.0
90	0x00000000	0.0
91	0x00000000	0.0
92	0x00000000	0.0
93	0x00000000	0.0
94	0x00000000	0.0
95	0x00000000	0.0
96	0x00000000	0.0
97	0x00000000	0.0
98	0x00000000	0.0
99	0x00000000	0.0
100	0x00000000	0.0
101	0x00000000	0.0
102	0x00000000	0.0
103	0x00000000	0.0
104	0x00000000	0.0
105	0x00000000	0.0
106	0x00000000	0.0
107	0x00000000	0.0
108	0x00000000	0.0
109	0x00000000	0.0
110	0x00000000	0.0
111	0x00000000	0.0
112	0x00000000	0.0
113	0x00000000	0.0
114	0x00000000	0.0
115	0x00000000	0.0
116	0x00000000	0.0
117	0x00000000	0.0
118	0x00000000	0.0
119	0x00000000	0.0
120	0x00000000	0.0
121	0x00000000	0.0
122	0x00000000	0.0
123	0x00000000	0.0
124	0x00000000	0.0
125	0x00000000	0.0
126	0x00000000	0.0
127	0x00000000	0.0
128	0x00000000	0.0
129	0xb6ae4183	-5.1932307e-06
130	0x37568295	1.27857975e-05
131	0x37ea3c4b	2.792305e-05
132	0x379ddf13	1.8819735e-05
133	0x30d14dd9	1.5228877e-09
134	0x3748427e	1.193641e-05
135	0x2e99b156	6.989136e-11
136	0x00000000	0.0
137	0xb64ffe5b	-3.0993458e-06
138	0x3805a88f	3.1866653e-05
139	0x00000000	0.0
140	0x3840a19b	4.5926874e-05
141	0x31cc0bfb	5.9385434e-09
142	0x00000000	0.0
143	0x00000000	0.0
144	0xb5ec1754	-1.759016e-06
145	0x00000000	0.0
146	0x00000000	0.0
147	0xaed82069	-9.8283e-11
148	0x36d25be9	6.2691875e-06
149	0x00000000	0.0
150	0x00000000	0.0
151	0x359da72d	1.1746066e-06
152	0x3695b8cf	4.4620606e-06
153	0x00000000	0.0
154	0x38147911	3.53987e-05
155	0x379fb324	1.9037696e-05
156	0x37a9cc32	2.0241456e-05
157	0x37659c17	1.3685806e-05
158	0x00000000	0.0
159	0x00000000	0.0
160	0x37a2d298	1.940997e-05
161	0x3038667f	6.7084466e-10
162	0x3725a908	9.874122e-06
163	0x00000000	0.0
164	0x35a96ca2	1.2623098e-06
165	0x368d3edb	4.209445e-06
166	0x3632bbfe	2.6633493e-06
167	0x377db683	1.5122469e-05
168	0x00000000	0.0
169	0x00000000	0.0
170	0x3700f4db	7.686404e-06
171	0x00000000	0.0
172	0x00000000	0.0
173	0x33f790fd	1.1528207e-07
174	0x37b7dad8	2.1917207e-05
175	0x372adecf	1.0184666e-05
176	0x370e3500	8.4762e-06
177	0x35e51c6a	1.7070099e-06
178	0xb3459576	-4.600357e-08
179	0x00000000	0.0
180	0x374acf6c	1.2088432e-05
181	0x36d8c937	6.460726e-06
182	0x00000000	0.0
183	0x381ba47d	3.710807e-05
184	0x36f65116	7.340811e-06
185	0x00000000	0.0
186	0x37bfef48	2.2880398e-05
187	0x00000000	0.0
188	0x00000000	0.0
189	0xb4a284cc	-3.0271474e-07
190	0x36f1489c	7.1908125e-06
191	0x00000000	0.0
192	0x00000000	0.0
193	0x00000000	0.0
194	0x00000000	0.0
195	0x00000000	0.0
196	0x00000000	0.0
197	0x00000000	0.0
198	0x00000000	0.0
199	0x00000000	0.0
200	0x00000000	0.0
201	0x00000000	0.0
202	0x00000000	0.0
203	0x00000000	0.0
204	0x00000000	0.0
205	0x00000000	0.0
206	0x00000000	0.0
207	0x00000000	0.0
208	0x00000000	0.0
209	0x00000000	0.0
210	0x00000000	0.0
211	0x00000000	0.0
212	0x00000000	0.0
213	0x00000000	0.0
214	0x00000000	0.0
215	0x00000000	0.0
216	0x00000000	0.0
217	0x00000000	0.0
218	0x00000000	0.0
219	0x00000000	0.0
220	0x00000000	0.0
221	0x00000000	0.0
222	0x00000000	0.0
223	0x00000000	0.0
224	0x00000000	0.0
225	0x00000000	0.0
226	0x00000000	0.0
227	0x00000000	0.0
228	0x00000000	0.0
229	0x00000000	0.0
230	0x00000000	0.0
231	0x00000000	0.0
232	0x00000000	0.0
233	0x00000000	0.0
234	0x00000000	0.0
235	0x00000000	0.0
236	0x00000000	0.0
237	0x00000000	0.0
238	0x00000000	0.0
239	0x00000000	0.0
240	0x00000000	0.0
241	0x00000000	0.0
242	0x00000000	0.0
243	0x00000000	0.0
244	0x00000000	0.0
245	0x00000000	0.0
246	0x00000000	0.0
247	0x00000000	0.0
248	0x00000000	0.0
249	0x00000000	0.0
250	0x00000000	0.0
251	0x00000000	0.0
252	0x00000000	0.0
253	0x00000000	0.0
254	0x00000000	0.0
255	0x00000000	0.0

exp_avg_sq f4 [128, 64]
0	0x00000000	0.0
1	0x30cdef92	1.4983803e-09
2	0x3425f729	1.5456739e-07
3	0x34656dc9	2.1367227e-07
4	0x342f9b72	1.6354696e-07
5	0x2fc0f0e8	3.509577e-10
6	0x32d5feea	2.4912385e-08
7	0x2cea3dc3	6.657537e-12
8	0x00000000	0.0
9	0x2f170c15	1.3737662e-10
10	0x34552fdb	1.985458e-07
11	0x00000000	0.0
12	0x34f540cf	4.568196e-07
13	0x2f8f3180	2.604672e-10
14	0x00000000	0.0
15	0x00000000	0.0
16	0x30259c61	6.024888e-10
17	0x00000000	0.0
18	0x00000000	0.0
19	0x2b364afb	6.4763445e-13
20	0x30b9472a	1.3480748e-09
21	0x00000000	0.0
22	0x00000000	0.0
23	0x321f9735	9.289399e-09
24	0x32157081	8.698522e-09
25	0x00000000	0.0
26	0x34b02edc	3.281665e-07
27	0x32e05753	2.6116743e-08
28	0x33fd0458	1.1782021e-07
29	0x334dda73	4.792896e-08
30	0x00000000	0.0
31	0x00000000	0.0
32	0x34585978	2.0149116e-07
33	0x29c5da61	8.78644e-14
34	0x32a4c5a5	1.9181991e-08
35	0x00000000	0.0
36	0x2fa6e37a	3.0356856e-10
37	0x32312b8e	1.0312659e-08
38	0x31cf48c5	6.032766e-09
39	0x33df56cc	1.0400035e-07
40	0x00000000	0.0
41	0x00000000	0.0
42	0x30ed4a8a	1.7265205e-09
43	0x00000000	0.0
44	0x00000000	0.0
45	0x32480166	1.164185e-08
46	0x344df9f4	1.9183045e-07
47	0x328d592c	1.6455111e-08
48	0x328c6791	1.6345242e-08
49	0x2e9ab66c	7.035514e-11
50	0x2aa7978e	2.9770321e-13
51	0x00000000	0.0
52	0x32e9cc98	2.7217808e-08
53	0x311a145f	2.242153e-09
54	0x23364aaf	9.882055e-18
55	0x34b8cc2a	3.442122e-07
56	0x33aecd49	8.1398476e-08
57	0x00000000	0.0
58	0x33f88555	1.1572653e-07
59	0x00000000	0.0
60	0x00000000	0.0
61	0x2a80d347	2.288397e-13
62	0x327719df	1.4383175e-08
63	0x00000000	0.0
64	0x00000000	0.0
65	0x00000000	0.0
66	0x00000000	0.0
67	0x00000000	0.0
68	0x00000000	0.0
69	0x00000000	0.0
70	0x00000000	0.0
71	0x00000000	0.0
72	0x00000000	0.0
73	0x00000000	0.0
74	0x00000000	0.0
75	0x00000000	0.0
76	0x00000000	0.0
77	0x00000000	0.0
78	0x00000000	0.0
79	0x00000000	0.0
80	0x00000000	0.0
81	0x00000000	0.0
82	0x00000000	0.0
83	0x00000000	0.0
84	0x00000000	0.0
85	0x00000000	0.0
86	0x00000000	0.0
87	0x00000000	0.0
88	0x00000000	0.0
89	0x00000000	0.0
90	0x00000000	0.0
91	0x00000000	0.0
92	0x00000000	0.0
93	0x00000000	0.0
94	0x00000000	0.0
95	0x00000000	0.0
96	0x00000000	0.0
97	0x00000000	0.0
98	0x00000000	0.0
99	0x00000000	0.0
100	0x00000000	0.0
101	0x00000000	0.0
102	0x00000000	0.0
103	0x00000000	0.0
104	0x00000000	0.0
105	0x00000000	0.0
106	0x00000000	0.0
107	0x00000000	0.0
108	0x00000000	0.0
109	0x00000000	0.0
110	0x00000000	0.0
111	0x00000000	0.0
112	0x00000000	0.0
113	0x00000000	0.0
114	0x00000000	0.0
115	0x00000000	0.0
116	0x00000000	0.0
117	0x00000000	0.0
118	0x00000000	0.0
119	0x00000000	0.0
120	0x00000000	0.0
121	0x00000000	0.0
122	0x00000000	0.0
123	0x00000000	0.0
124	0x00000000	0.0
125	0x00000000	0.0
126	0x00000000	0.0
127	0x00000000	0.0
128	0x00000000	0.0
129	0x31866e7e	3.912475e-09
130	0x341bd86c	1.4514234e-07
131	0x345e622d	2.0711077e-07
132	0x341ee1e6	1.4797078e-07
133	0x300a14e2	5.0233784e-10
134	0x32d6012f	2.4913417e-08
135	0x2c175721	2.1506757e-12
136	0x00000000	0.0
137	0x30f5b162	1.7876511e-09
138	0x3448df09	1.8707591e-07
139	0x00000000	0.0
140	0x34e61e9c	4.286311e-07
141	0x30476fe9	7.255481e-10
142	0x00000000	0.0
143	0x00000000	0.0
144	0x30662d2b	8.37377e-10
145	0x00000000	0.0
146	0x00000000	0.0
147	0x2cb26168	5.0698785e-12
148	0x30cea2a2	1.5034696e-09
149	0x00000000	0.0
150	0x00000000	0.0
151	0x325c3ed8	1.2819974e-08
152	0x323134dc	1.0314775e-08
153	0x00000000	0.0
154	0x34a6e138	3.1083778e-07
155	0x32c99eb2	2.3471646e-08
156	0x33f4ef76	1.1405693e-07
157	0x334e42d1	4.802388e-08
158	0x00000000	0.0
159	0x00000000	0.0
160	0x3447b93b	1.8600706e-07
161	0x2c08401e	1.9362355e-12
162	0x3289f3e8	1.6059815e-08
163	0x00000000	0.0
164	0x3000969c	4.678016e-10
165	0x3209d96b	8.023885e-09
166	0x31d8f814	6.3146306e-09
167	0x33d409b8	9.873787e-08
168	0x00000000	0.0
169	0x00000000	0.0
170	0x31037b4f	1.9133102e-09
171	0x00000000	0.0
172	0x00000000	0.0
173	0x329189cb	1.6942883e-08
174	0x3450ef66	1.9458602e-07
175	0x3288ca8e	1.5924595e-08
176	0x32936a5d	1.716142e-08
177	0x2eb545bc	8.2433144e-11
178	0x2cfaf90b	7.1330767e-12
179	0x00000000	0.0
180	0x32cf1919	2.4109385e-08
181	0x3102e570	1.904791e-09
182	0x00000000	0.0
183	0x34ae4106	3.2457336e-07
184	0x33a78dfe	7.802372e-08
185	0x00000000	0.0
186	0x33ec1729	1.0993819e-07
187	0x00000000	0.0
188	0x00000000	0.0
189	0x2f08d455	1.2444563e-10
190	0x3275938a	1.4294423e-08
191	0x00000000	0.0
192	0x00000000	0.0
193	0x00000000	0.0
194	0x00000000	0.0
195	0x00000000	0.0
196	0x00000000	0.0
197	0x00000000	0.0
198	0x00000000	0.0
199	0x00000000	0.0
200	0x00000000	0.0
201	0x00000000	0.0
202	0x00000000	0.0
203	0x00000000	0.0
204	0x00000000	0.0
205	0x00000000	0.0
206	0x00000000	0.0
207	0x00000000	0.0
208	0x00000000	0.0
209	0x00000000	0.0
210	0x00000000	0.0
211	0x00000000	0.0
212	0x00000000	0.0
213	0x00000000	0.0
214	0x00000000	0.0
215	0x00000000	0.0
216	0x00000000	0.0
217	0x00000000	0.0
218	0x00000000	0.0
219	0x00000000	0.0
220	0x00000000	0.0
221	0x00000000	0.0
222	0x00000000	0.0
223	0x00000000	0.0
224	0x00000000	0.0
225	0x00000000	0.0
226	0x00000000	0.0
227	0x00000000	0.0
228	0x00000000	0.0
229	0x00000000	0.0
230	0x00000000	0.0
231	0x00000000	0.0
232	0x00000000	0.0
233	0x00000000	0.0
234	0x00000000	0.0
235	0x00000000	0.0
236	0x00000000	0.0
237	0x00000000	0.0
238	0x00000000	0.0
239	0x00000000	0.0
240	0x00000000	0.0
241	0x00000000	0.0
242	0x00000000	0.0
243	0x00000000	0.0
244	0x00000000	0.0
245	0x00000000	0.0
246	0x00000000	0.0
247	0x00000000	0.0
248	0x00000000	0.0
249	0x00000000	0.0
250	0x00000000	0.0
251	0x00000000	0.0
252	0x00000000	0.0
253	0x00000000	0.0
254	0x00000000	0.0
255	0x00000000	0.0

exp_avg f4 [128]
0	0xb699c640	-4.5828347e-06
1	0x00000000	0.0
2	0x37f49a5e	2.915895e-05
3	0x00000000	0.0
4	0xb5396199	-6.9059894e-07
5	0x00000000	0.0
6	0x00000000	0.0
7	0xb67b8fc1	-3.748559e-06
8	0x370a61fa	8.248253e-06
9	0xb4c9c9ed	-3.7586088e-07
10	0x3753dae9	1.2627549e-05
11	0x3840d1b9	4.5971687e-05
12	0x00000004	6e-45
13	0xb5fa983f	-1.8670761e-06
14	0xb73641ed	-1.0863395e-05
15	0x37c1a019	2.3081944e-05
16	0xb602fabe	-1.951746e-06
17	0xb7d51aa9	-2.5403993e-05
18	0x3598d17e	1.1385853e-06
19	0x37883eba	1.6241673e-05
20	0x360b4a24	2.075577e-06
21	0xb69c549f	-4.6590135e-06
22	0x00000004	6e-45
23	0x00000004	6e-45
24	0x00000000	0.0
25	0x37e81318	2.7665446e-05
26	0xb7a30c47	-1.9436831e-05
27	0x377250a7	1.4443102e-05
28	0x00000000	0.0
29	0x37c2aa0b	2.3205785e-05
30	0xb7c5fc0c	-2.3601599e-05
31	0x00000000	0.0
32	0x00000000	0.0
33	0x00000000	0.0
34	0x00000004	6e-45
35	0x382004f6	3.8151593e-05
36	0x38881229	6.488368e-05
37	0x00000000	0.0
38	0x36a226e4	4.8325037e-06
39	0x375117a6	1.2462877e-05
40	0x38c20d86	9.25316e-05
41	0xb85aee66	-5.2197276e-05
42	0x00000000	0.0
43	0x00000000	0.0
44	0xb801ccf0	-3.094686e-05
45	0xb7bd0a64	-2.2535394e-05
46	0x00000000	0.0
47	0x38647911	5.4472188e-05
48	0x00000000	0.0
49	0x3786fc7f	1.6091622e-05
50	0xb6eb90ed	-7.0204173e-06
51	0x00000000	0.0
52	0x354d35a5	7.6446514e-07
53	0x00000000	0.0
54	0xb61e4b0c	-2.3587518e-06
55	0xb7a2dcb3	-1.9414676e-05
56	0xb6873a64	-4.030111e-06
57	0x00000000	0.0
58	0x00000000	0.0
59	0x00000000	0.0
60	0x00000000	0.0
61	0x36b9a3fa	5.532519e-06
62	0x00000000	0.0
63	0x37ad95ff	2.0693054e-05
64	0x37a7d33b	2.0006313e-05
65	0x35ba4e73	1.3880912e-06
66	0xb83b07ef	-4.4591663e-05
67	0x37ccf88c	2.4434434e-05
68	0x00000000	0.0
69	0x388c38b5	6.686283e-05
70	0x00000000	0.0
71	0x37a3bd7a	1.9519346e-05
72	0x3820c8fa	3.8334147e-05
73	0x3729d9b6	1.0123875e-05
74	0x00000000	0.0
75	0xb7484ff2	-1.1939543e-05
76	0xb7702491	-1.43136285e-05
77	0x3523d61e	6.1033813e-07
78	0xb653f60a	-3.1584664e-06
79	0xb81f141a	-3.7927275e-05
80	0x00000000	0.0
81	0xb7666770	-1.3733152e-05
82	0x37bf41d6	2.2799632e-05
83	0x3753809b	1.2606523e-05
84	0xb673b8f4	-3.6317479e-06
85	0x00000000	0.0
86	0x37e83313	2.7680338e-05
87	0x00000000	0.0
88	0x00000004	6e-45
89	0x377866af	1.480586e-05
90	0x352851f0	6.270411e-07
91	0x00000004	6e-45
92	0xb704a84e	-7.907e-06
93	0x3713ec6b	8.816928e-06
94	0x00000000	0.0
95	0x383ce1c1	4.5032943e-05
96	0x3807317e	3.22326e-05
97	0x379adce9	1.84611e-05
98	0x00000004	6e-45
99	0x36392206	2.7586952e-06
100	0x379e7d0c	1.8893297e-05
101	0x00000000	0.0
102	0x374924ed	1.1989131e-05
103	0x375cee4e	1.31685065e-05
104	0xb7fa9ec8	-2.987626e-05
105	0xb79006d4	-1.7169317e-05
106	0x00000004	6e-45
107	0xb7aabc79	-2.0353344e-05
108	0x00000000	0.0
109	0xb81d25b4	-3.746683e-05
110	0xb8959559	-7.132692e-05
111	0x36dda7fb	6.6058687e-06
112	0xb801c2cb	-3.093741e-05
113	0x00000000	0.0
114	0x00000000	0.0
115	0x00000000	0.0
116	0x00000000	0.0
117	0x35397e7c	6.910193e-07
118	0x377ed4bd	1.5189112e-05
119	0xb687ad22	-4.043469e-06
120	0x37f41254	2.9095601e-05
121	0x38418c8a	4.6145673e-05
122	0x37864686	1.6006885e-05
123	0x00000004	6e-45
124	0x37ac3827	2.0530146e-05
125	0xb67d45c7	-3.7740554e-06
126	0x80000004	-6e-45
127	0xb5ba044e	-1.3859333e-06

exp_avg_sq f4 [128]
0	0x35077fda	5.047747e-07
1	0x00000000	0.0
2	0x3508d181	5.0968816e-07
3	0x00000000	0.0
4	0x33dd5aa8	1.0307605e-07
5	0x00000000	0.0
6	0x00000000	0.0
7	0x3592539c	1.0902181e-06
8	0x32400250	1.1176397e-08
9	0x3373ecb6	5.6793134e-08
10	0x353dd493	7.071732e-07
11	0x3574c965	9.119015e-07
12	0x2c57c408	3.0662157e-12
13	0x34308699	1.6440244e-07
14	0x33b20a95	8.290696e-08
15	0x3314ebd7	3.467343e-08
16	0x34769f76	2.2968547e-07
17	0x35aa2765	1.2677452e-06
18	0x31925b49	4.259537e-09
19	0x33c49c32	9.155373e-08
20	0x34239f65	1.5238545e-07
21	0x34ab753e	3.1936537e-07
22	0x223c203f	2.5495822e-18
23	0x2c73ce49	3.4646888e-12
24	0x00000000	0.0
25	0x34819958	2.4139695e-07
26	0x337a4653	5.827162e-08
27	0x32d8dfcd	2.5247482e-08
28	0x00000000	0.0
29	0x34b9fff1	3.4645157e-07
30	0x340b54a8	1.2976182e-07
31	0x00000000	0.0
32	0x00000000	0.0
33	0x00000000	0.0
34	0x29214f48	3.5817947e-14
35	0x3344a9ba	4.578917e-08
36	0x34451a59	1.835664e-07
37	0x00000000	0.0
38	0x348f36bb	2.6675647e-07
39	0x34b49c84	3.3641493e-07
40	0x356292f0	8.4405383e-07
41	0x342bbc23	1.599406e-07
42	0x00000000	0.0
43	0x00000000	0.0
44	0x33adac53	8.087286e-08
45	0x35f78a57	1.8443196e-06
46	0x00000000	0.0
47	0x340db5cb	1.3197784e-07
48	0x00000000	0.0
49	0x33b0d12c	8.233687e-08
50	0x348d3b9c	2.6306668e-07
51	0x00000000	0.0
52	0x3489313c	2.555406e-07
53	0x00000000	0.0
54	0x330ca0d8	3.2742577e-08
55	0x35e29eab	1.6884491e-06
56	0x34076049	1.2607883e-07
57	0x00000000	0.0
58	0x00000000	0.0
59	0x00000000	0.0
60	0x00000000	0.0
61	0x359d37c2	1.1713639e-06
62	0x00000000	0.0
63	0x34c146a5	3.6000452e-07
64	0x350e6686	5.3048313e-07
65	0x3624c697	2.4553499e-06
66	0x3327b538	3.9047535e-08
67	0x332cf9cc	4.027406e-08
68	0x00000000	0.0
69	0x34832f49	2.4435056e-07
70	0x00000000	0.0
71	0x348ab58a	2.583659e-07
72	0x339f11cc	7.407252e-08
73	0x3560c0b4	8.372692e-07
74	0x00000000	0.0
75	0x33df7469	1.04054216e-07
76	0x34ab0d0d	3.1860728e-07
77	0x32c7eb91	2.3273772e-08
78	0x32f147c9	2.8088737e-08
79	0x3681106e	3.8464123e-06
80	0x00000000	0.0
81	0x35d7578f	1.6044231e-06
82	0x345eba6e	2.0743184e-07
83	0x3498c750	2.8457225e-07
84	0x33f89672	1.1575766e-07
85	0x00000000	0.0
86	0x353015a5	6.5596606e-07
87	0x00000000	0.0
88	0x2dacacd1	1.9630882e-11
89	0x35d3abb3	1.5770696e-06
90	0x31fb0969	7.3061313e-09
91	0x2b77cc4d	8.803555e-13
92	0x35d18144	1.5609335e-06
93	0x34eba80a	4.3894426e-07
94	0x00000000	0.0
95	0x35373dab	6.826255e-07
96	0x34e104f8	4.191313e-07
97	0x32ab7c76	1.9963618e-08
98	0x27996ca0	4.2583802e-15
99	0x34bb60ce	3.49019e-07
100	0x349cc34e	2.9199367e-07
101	0x00000000	0.0
102	0x341b5011	1.4464628e-07
103	0x3532fca3	6.66778e-07
104	0x335eb43c	5.1852325e-08
105	0x34ad00dd	3.222439e-07
106	0x2b0f7914	5.0971835e-13
107	0x33a86f20	7.843323e-08
108	0x00000000	0.0
109	0x3594ba84	1.1081142e-06
110	0x35d04812	1.5518183e-06
111	0x350218e9	4.8465023e-07
112	0x35b6194f	1.3567422e-06
113	0x00000000	0.0
114	0x00000000	0.0
115	0x00000000	0.0
116	0x00000000	0.0
117	0x3455d82c	1.9915814e-07
118	0x3510b957	5.3913885e-07
119	0x34bb30ff	3.4867114e-07
120	0x333ad433	4.3499494e-08
121	0x34fe89ea	4.7411532e-07
122	0x35a63e4d	1.2386096e-06
123	0x2caeb546	4.965503e-12
124	0x34550f1e	1.984267e-07
125	0x332960c0	3.9436372e-08
126	0x2d1495b0	8.446063e-12
127	0x34e9eb6a	4.3570918e-07

exp_avg f4 [64, 128]
0	0x35e9bdfe	1.7415148e-06
1	0x00000000	0.0
2	0xb6c5c3b8	-5.893842e-06
3	0x00000000	0.0
4	0xb6adfada	-5.1850047e-06
5	0x00000000	0.0
6	0x00000000	0.0
7	0xb6db3444	-6.532793e-06
8	0x35ca0a0b	1.5053096e-06
9	0xb6d8f758	-6.4660962e-06
10	0x359f2c96	1.1859399e-06
11	0x35f7afdd	1.8454117e-06
12	0x80000004	-6e-45
13	0x33cebe56	9.6272444e-08
14	0xb7020d02	-7.751632e-06
15	0x3649ae32	3.005273e-06
16	0xb752a548	-1.2555458e-05
17	0x36995989	4.5701786e-06
18	0xb6e52fd1	-6.8302984e-06
19	0xb60057c8	-1.9124582e-06
20	0xb559039b	-8.0844046e-07
21	0xb2b21693	-2.0732193e-08
22	0x00000004	6e-45
23	0x80000004	-6e-45
24	0x00000000	0.0
25	0xb47da5a3	-2.362272e-07
26	0x3565efbc	8.565801e-07
27	0xb78e665f	-1.697539e-05
28	0x00000000	0.0
29	0xb6454657	-2.939623e-06
30	0x36364111	2.7157987e-06
31	0x00000000	0.0
32	0x00000000	0.0
33	0x00000000	0.0
34	0x00000000	0.0
35	0xb6830c5c	-3.905543e-06
36	0xb6d9ce2e	-6.4911064e-06
37	0x00000000	0.0
38	0xb7523f60	-1.2531731e-05
39	0x354467ee	7.316693e-07
40	0xb5e517ad	-1.706872e-06
41	0x36eb05b1	7.0042083e-06
42	0x00000000	0.0
43	0x00000000	0.0
44	0x353c7e5f	7.021935e-07
45	0xb74e1103	-1.2282518e-05
46	0x00000000	0.0
47	0xb4929c2a	-2.7308243e-07
48	0x00000000	0.0
49	0xb6929834	-4.368858e-06
50	0x35359aef	6.765321e-07
51	0x00000000	0.0
52	0x368918a4	4.0857867e-06
53	0x00000000	0.0
54	0xb7571ca5	-1.2821668e-05
55	0xb719b6b4	-9.1620495e-06
56	0xb6a6bcc2	-4.96916e-06
57	0x00000000	0.0
58	0x00000000	0.0
59	0x00000000	0.0
60	0x00000000	0.0
61	0xb723c14b	-9.760562e-06
62	0x00000000	0.0
63	0xb626b5de	-2.4841788e-06
64	0xb6d521d4	-6.351833e-06
65	0x35e95cc2	1.7386849e-06
66	0x3641c48b	2.8873644e-06
67	0xb705a463	-7.965692e-06
68	0x00000000	0.0
69	0xb6543268	-3.1619802e-06
70	0x00000000	0.0
71	0xb6f66773	-7.3434144e-06
72	0xb6cbee3f	-6.077607e-06
73	0xb70b4e60	-8.303294e-06
74	0x00000000	0.0
75	0xb602485d	-1.941363e-06
76	0x36e20709	6.736144e-06
77	0xb626e2aa	-2.4867863e-06
78	0xb746e5d1	-1.1855228e-05
79	0x36440c83	2.9213559e-06
80	0x00000000	0.0
81	0xb72c51ae	-1.0271016e-05
82	0x36504576	3.1034847e-06
83	0xb5fd7ee9	-1.8886905e-06
84	0xb6595d64	-3.238988e-06
85	0x00000000	0.0
86	0x357ebb57	9.489499e-07
87	0x00000000	0.0
88	0x00000004	6e-45
89	0x3579c64b	9.304828e-07
90	0xb4105498	-1.344182e-07
91	0x00000004	6e-45
92	0x3625cc44	2.4705814e-06
93	0xb70880d9	-8.136231e-06
94	0x00000000	0.0
95	0xb50d7b42	-5.2705957e-07
96	0xb6eceb77	-7.06076e-06
97	0xb73bd979	-1.1196703e-05
98	0x00000004	6e-45
99	0xb2881e04	-1.5846133e-08
100	0xb6e2d573	-6.7601736e-06
101	0x00000000	0.0
102	0xb5e946e2	-1.7380482e-06
103	0x3643b152	2.9160478e-06
104	0xb5a2f5e7	-1.2141508e-06
105	0x3682092a	3.8753687e-06
106	0x00000000	0.0
107	0x36c35dd0	5.822374e-06
108	0x00000000	0.0
109	0x36b9ff84	5.5431756e-06
110	0x3581c8db	9.669706e-07
111	0xb65cb36e	-3.2886996e-06
112	0xb7488206	-1.1951202e-05
113	0x00000000	0.0
114	0x00000000	0.0
115	0x00000000	0.0
116	0x00000000	0.0
117	0x332aa7d5	3.973385e-08
118	0xb32ee538	-4.0721005e-08
119	0x36015e17	1.9277265e-06
120	0xb716b3b2	-8.982535e-06
121	0x3631b0d7	2.647799e-06
122	0xb7592705	-1.2943293e-05
123	0x80000004	-6e-45
124	0x35d3564a	1.5745838e-06
125	0x3694bda2	4.43282e-06
126	0x00000004	6e-45
127	0xb5e36be8	-1.6944223e-06
128	0xb5809915	-9.581296e-07
129	0x00000000	0.0
130	0x3700a198	7.6670185e-06
131	0x00000000	0.0
132	0x36e9a9f0	6.9637244e-06
133	0x00000000	0.0
134	0x00000000	0.0
135	0x36eff4de	7.1512613e-06
136	0xb596041e	-1.1177069e-06
137	0x375c017c	1.31133675e-05
138	0x35d415aa	1.5801536e-06
139	0x3591e4fc	1.0869985e-06
140	0x00000004	6e-45
141	0xb394a0ca	-6.9210344e-08
142	0x3722e315	9.708824e-06
143	0x35c18db4	1.4420862e-06
144	0x3776f58f	1.4719916e-05
145	0xb6492a4d	-2.9975956e-06
146	0x36b1f6b9	5.3037334e-06
147	0x36014646	1.9263402e-06
148	0x3684c3da	3.9567067e-06
149	0xb2680ab6	-1.3506613e-08
150	0x80000004	-6e-45
151	0x00000004	6e-45
152	0x00000000	0.0
153	0x3608e33d	2.039785e-06
154	0x35d48457	1.5833747e-06
155	0x37881257	1.6221004e-05
156	0x00000000	0.0
157	0x36ed1d54	7.0665646e-06
158	0x353ee587	7.111452e-07
159	0x00000000	0.0
160	0x00000000	0.0
161	0x00000000	0.0
162	0x00000004	6e-45
163	0x37163bad	8.954591e-06
164	0x36f6769c	7.3451793e-06
165	0x00000000	0.0
166	0x37613cc4	1.3425193e-05
167	0xb52c3490	-6.415148e-07
168	0x36fa0b64	7.4519066e-06
169	0x34003c19	1.1942792e-07
170	0x00000000	0.0
171	0x00000000	0.0
172	0x35fd50fd	1.887354e-06
173	0x372fe503	1.0484134e-05
174	0x00000000	0.0
175	0x36b9fb40	5.542679e-06
176	0x00000000	0.0
177	0x36caaaae	6.039939e-06
178	0x36a86e4b	5.01963e-06
179	0x00000000	0.0
180	0xb613db22	-2.203226e-06
181	0x00000000	0.0
182	0x371bef37	9.2944165e-06
183	0x372067c6	9.560905e-06
184	0x36b1604f	5.286223e-06
185	0x00000000	0.0
186	0x00000000	0.0
187	0x00000000	0.0
188	0x00000000	0.0
189	0x36f4c5a2	7.294774e-06
190	0x00000000	0.0
191	0x37036157	7.830872e-06
192	0x36c65c6f	5.9116205e-06
193	0xb5e28cc4	-1.687928e-06
194	0x35e31265	1.6918171e-06
195	0x3725fb5d	9.8932915e-06
196	0x00000000	0.0
197	0x37056446	7.9507645e-06
198	0x00000000	0.0
199	0x36cadbed	6.045672e-06
200	0x3715f875	8.9389405e-06
201	0x37170239	9.000819e-06
202	0x00000000	0.0
203	0x368e4d86	4.2409547e-06
204	0x3584e56e	9.901539e-07
205	0x36906cc8	4.3041982e-06
206	0x3725f3d2	9.891535e-06
207	0xb5ec4d89	-1.7605936e-06
208	0x00000000	0.0
209	0x37146662	8.845325e-06
210	0x364395d6	2.914448e-06
211	0x36c3aad0	5.831338e-06
212	0x36b7f19c	5.481952e-06
213	0x00000000	0.0
214	0xb48236b0	-2.4254177e-07
215	0x00000000	0.0
216	0x80000004	-6e-45
217	0xb5294a8b	-6.306588e-07
218	0x33d5c9e5	9.95531e-08
219	0x80000004	-6e-45
220	0xb512d443	-5.469812e-07
221	0x369a280a	4.594219e-06
222	0x00000000	0.0
223	0x36456965	2.9416635e-06
224	0x36b29c09	5.3229783e-06
225	0x37666a6a	1.3733845e-05
226	0x80000004	-6e-45
227	0x3298c287	1.778359e-08
228	0x374cf1a8	1.22156125e-05
229	0x00000000	0.0
230	0x36c92a19	5.9951676e-06
231	0x3541664e	7.2046976e-07
232	0x3656d331	3.2011415e-06
233	0xb5293d4f	-6.304662e-07
234	0x80000004	-6e-45
235	0xb60b9547	-2.0799505e-06
236	0x00000000	0.0
237	0xb603a0cb	-1.9614115e-06
238	0xb54b2678	-7.567937e-07
239	0x36915e7d	4.3323366e-06
240	0x372c12b8	1.0256357e-05
241	0x00000000	0.0
242	0x00000000	0.0
243	0x00000000	0.0
244	0x00000000	0.0
245	0xb2c1f2c3	-2.2578552e-08
246	0xb5ab8b52	-1.278104e-06
247	0xb59dbc44	-1.1752204e-06
248	0x37473210	1.187298e-05
249	0x366d32d4	3.5345338e-06
250	0x374c0ee0	1.2162811e-05
251	0x00000004	6e-45
252	0x363846d6	2.7459369e-06
253	0x359bb7ae	1.1601858e-06
254	0x00000004	6e-45
255	0x36bc15c8	5.6053723e-06

exp_avg_sq f4 [64, 128]
0	0x30d9defd	1.5852205e-09
1	0x00000000	0.0
2	0x330c057b	3.2601275e-08
3	0x00000000	0.0
4	0x32bfd9e0	2.2334405e-08
5	0x00000000	0.0
6	0x00000000	0.0
7	0x32afa3c9	2.0447162e-08
8	0x2e9599df	6.8030685e-11
9	0x33eff4e5	1.1173851e-07
10	0x329ba4c3	1.81193e-08
11	0x319e5bc4	4.6088378e-09
12	0x28561e58	1.1885966e-14
13	0x319a0b81	4.4832977e-09
14	0x33067b4f	3.1311455e-08
15	0x3281ceda	1.5111642e-08
16	0x338f120e	6.6622405e-08
17	0x31e945f5	6.7891457e-09
18	0x32a1f8e2	1.8856046e-08
19	0x3218a670	8.885408e-09
20	0x32bbbbe2	2.1855104e-08
21	0x319e3509	4.6044346e-09
22	0x1d1300a8	1.9455627e-21
23	0x2a067c87	1.1944795e-13
24	0x00000000	0.0
25	0x329f21aa	1.8525345e-08
26	0x3240045d	1.1176863e-08
27	0x335448fa	4.942647e-08
28	0x00000000	0.0
29	0x3398264f	7.08502e-08
30	0x32afebdf	2.0479943e-08
31	0x00000000	0.0
32	0x00000000	0.0
33	0x00000000	0.0
34	0x00000000	0.0
35	0x33036e2c	3.0601015e-08
36	0x3305abb0	3.1122624e-08
37	0x00000000	0.0
38	0x339aad2d	7.202684e-08
39	0x2e7f1d42	5.8006273e-11
40	0x328d5f52	1.6457907e-08
41	0x32a3b6f3	1.9058893e-08
42	0x00000000	0.0
43	0x00000000	0.0
44	0x32d0dee0	2.4315739e-08
45	0x32976bd1	1.7627743e-08
46	0x00000000	0.0
47	0x325e6eb8	1.2947275e-08
48	0x00000000	0.0
49	0x32932916	1.7131736e-08
50	0x3327d83d	3.9079385e-08
51	0x00000000	0.0
52	0x32dbdf22	2.5596425e-08
53	0x00000000	0.0
54	0x329f4a4b	1.854382e-08
55	0x324e327e	1.2002259e-08
56	0x33508a17	4.8554366e-08
57	0x00000000	0.0
58	0x00000000	0.0
59	0x00000000	0.0
60	0x00000000	0.0
61	0x3259057b	1.26323085e-08
62	0x00000000	0.0
63	0x32f59c18	2.8592737e-08
64	0x32ae4488	2.028743e-08
65	0x31a09b17	4.6742445e-09
66	0x3275a1bd	1.4297652e-08
67	0x33233d13	3.800694e-08
68	0x00000000	0.0
69	0x3234cbf3	1.0523752e-08
70	0x00000000	0.0
71	0x32a6ae63	1.9404245e-08
72	0x331aeca9	3.607116e-08
73	0x32a11a3a	1.8754793e-08
74	0x00000000	0.0
75	0x33297748	3.9456864e-08
76	0x33781fc6	5.7770897e-08
77	0x33477a80	4.644471e-08
78	0x31fe3543	7.398428e-09
79	0x3173d148	3.5480117e-09
80	0x00000000	0.0
81	0x31e78f4c	6.739276e-09
82	0x3338f779	4.3065914e-08
83	0x33a88a4d	7.8482664e-08
84	0x32a8fae0	1.9671859e-08
85	0x00000000	0.0
86	0x32039128	7.658208e-09
87	0x00000000	0.0
88	0x28f00ccd	2.6650904e-14
89	0x30ff16c2	1.856016e-09
90	0x2af320e9	4.3188307e-13
91	0x23ffd114	2.7735703e-17
92	0x31cbf23d	5.935617e-09
93	0x31af4b1d	5.1017097e-09
94	0x00000000	0.0
95	0x323c9666	1.0977237e-08
96	0x3182f836	3.8117163e-09
97	0x33a1267d	7.504148e-08
98	0x23362631	9.874327e-18
99	0x300fb092	5.227402e-10
100	0x3414d95b	1.3862648e-07
101	0x00000000	0.0
102	0x333b15d8	4.3559197e-08
103	0x31a80732	4.8902615e-09
104	0x327aa5e9	1.4589639e-08
105	0x32dfce76	2.6054504e-08
106	0x00000000	0.0
107	0x32fb087e	2.9224108e-08
108	0x00000000	0.0
109	0x32640708	1.3272945e-08
110	0x30f2bb61	1.7661074e-09
111	0x32d5749f	2.4849497e-08
112	0x32278490	9.750821e-09
113	0x00000000	0.0
114	0x00000000	0.0
115	0x00000000	0.0
116	0x00000000	0.0
117	0x3171dbf1	3.5195138e-09
118	0x31240c1f	2.387203e-09
119	0x324c89d2	1.19056995e-08
120	0x33283168	3.9160483e-08
121	0x33395a8d	4.3156025e-08
122	0x328fc7cd	1.673825e-08
123	0x26d6ee85	1.4913884e-15
124	0x334dc24d	4.7906997e-08
125	0x3275d578	1.4309414e-08
126	0x238548aa	1.4450663e-17
127	0x33c2a0a3	9.0630486e-08
128	0x30800136	9.31357e-10
129	0x00000000	0.0
130	0x32a26fe4	1.8910164e-08
131	0x00000000	0.0
132	0x3249fbaf	1.1756966e-08
133	0x00000000	0.0
134	0x00000000	0.0
135	0x324c8af8	1.1905961e-08
136	0x2df64d63	2.8001329e-11
137	0x3381e8af	6.0493555e-08
138	0x322563ae	9.626929e-09
139	0x31292428	2.461329e-09
140	0x277f58d8	3.5436521e-15
141	0x313cf70b	2.7498028e-09
142	0x32940627	1.7232265e-08
143	0x3211d7b6	8.489158e-09
144	0x33220fb9	3.7732864e-08
145	0x31745950	3.5557441e-09
146	0x322eadf9	1.016769e-08
147	0x31b5079f	5.2686597e-09
148	0x324e3028	1.2001728e-08
149	0x31357125	2.6403282e-09
150	0x1c84a911	8.77873e-22
151	0x298a83d1	6.1512976e-14
152	0x00000000	0.0
153	0x323177c5	1.0329988e-08
154	0x31ddb244	6.452213e-09
155	0x32f002da	2.7940974e-08
156	0x00000000	0.0
157	0x33296afd	3.9445684e-08
158	0x32423555	1.13044125e-08
159	0x00000000	0.0
160	0x00000000	0.0
161	0x00000000	0.0
162	0x236c50a5	1.2810663e-17
163	0x328c5276	1.6335644e-08
164	0x32981fb2	1.7709542e-08
165	0x00000000	0.0
166	0x33302ebe	4.1020705e-08
167	0x2df677fa	2.8020242e-11
168	0x321a91da	8.997143e-09
169	0x322b65e3	9.976676e-09
170	0x00000000	0.0
171	0x00000000	0.0
172	0x32641874	1.3276907e-08
173	0x322dbe80	1.011324e-08
174	0x00000000	0.0
175	0x31f5d94f	7.1551436e-09
176	0x00000000	0.0
177	0x321ac812	9.0094705e-09
178	0x32b270a9	2.077316e-08
179	0x00000000	0.0
180	0x327c0269	1.4668879e-08
181	0x00000000	0.0
182	0x3230d8d0	1.0293846e-08
183	0x31e72f73	6.728379e-09
184	0x32e39b42	2.6496881e-08
185	0x00000000	0.0
186	0x00000000	0.0
187	0x00000000	0.0
188	0x00000000	0.0
189	0x31f88af5	7.2335475e-09
190	0x00000000	0.0
191	0x328222e1	1.5149853e-08
192	0x324bbeb0	1.18595125e-08
193	0x3130e84d	2.5743419e-09
194	0x32010c83	7.511633e-09
195	0x32b690ca	2.1253431e-08
196	0x00000000	0.0
197	0x31c3f850	5.703477e-09
198	0x00000000	0.0
199	0x32436d28	1.1375313e-08
200	0x32a97fdd	1.9732335e-08
201	0x32381536	1.0715032e-08
202	0x00000000	0.0
203	0x32bd1d14	2.2015719e-08
204	0x33067f37	3.1315007e-08
205	0x32de6972	2.5892152e-08
206	0x3182de63	3.8087804e-09
207	0x30fdc454	1.8463973e-09
208	0x00000000	0.0
209	0x317fcfed	3.7225576e-09
210	0x32cf6291	2.4142794e-08
211	0x333eb1fb	4.4399695e-08
212	0x32400301	1.1176554e-08
213	0x00000000	0.0
214	0x31868d33	3.9159658e-09
215	0x00000000	0.0
216	0x2bb2ad0f	1.2695694e-12
217	0x308aa540	1.0087788e-09
218	0x2a8266ae	2.3163887e-13
219	0x23ac3750	1.8671703e-17
220	0x3165b3e2	3.3426137e-09
221	0x3145955f	2.875218e-09
222	0x00000000	0.0
223	0x31c6c87d	5.7853513e-09
224	0x311402a0	2.1538327e-09
225	0x33336059	4.1764313e-08
226	0x229d1d3e	4.2585897e-18
227	0x2fa8d57e	3.0710717e-10
228	0x33a3e807	7.6324845e-08
229	0x00000000	0.0
230	0x32cab824	2.3599632e-08
231	0x31349c66	2.628235e-09
232	0x3203d98b	7.674667e-09
233	0x32734ef6	1.4162415e-08
234	0x24e6b24e	1.0004866e-16
235	0x32897313	1.6001229e-08
236	0x00000000	0.0
237	0x3201bdf1	7.551976e-09
238	0x30900c4e	1.0480876e-09
239	0x3262c367	1.3199361e-08
240	0x31b761fe	5.3371414e-09
241	0x00000000	0.0
242	0x00000000	0.0
243	0x00000000	0.0
244	0x00000000	0.0
245	0x311612e8	2.183862e-09
246	0x309f1eea	1.1577559e-09
247	0x31e2ec49	6.604328e-09
248	0x32beb670	2.2201874e-08
249	0x32cf662c	2.4144434e-08
250	0x3221c209	9.415552e-09
251	0x270dfd8e	1.9705133e-15
252	0x32e6db6b	2.6875304e-08
253	0x320c7bde	8.177237e-09
254	0x23ebd8c7	2.557056e-17
255	0x3359cc78	5.0710213e-08

exp_avg f4 [64]
0	0xb7d723e1	-2.5646705e-05
1	0x37dd3375	2.6369215e-05
2	0x38015520	3.0835276e-05
3	0xb7974743	-1.8033787e-05
4	0xb840addc	-4.5938286e-05
5	0x38518f8c	4.996317e-05
6	0x38492687	4.7958016e-05
7	0xb532eabd	-6.6651756e-07
8	0x00000004	6e-45
9	0x3126033d	2.415802e-09
10	0x00000004	6e-45
11	0x00000000	0.0
12	0xb6938f2e	-4.3976097e-06
13	0xb873d719	-5.813604e-05
14	0xb89cef61	-7.4832475e-05
15	0x00000000	0.0
16	0x00000004	6e-45
17	0x00000000	0.0
18	0x00000004	6e-45
19	0x381fd372	3.8105478e-05
20	0x38401e17	4.580439e-05
21	0x382456cd	3.9181486e-05
22	0xb8075fc4	-3.2275697e-05
23	0x00000000	0.0
24	0xb7cbaf6b	-2.4281171e-05
25	0x3857c8e0	5.1447074e-05
26	0x3771fac1	1.4423103e-05
27	0x37e1025f	2.6823194e-05
28	0x376500f7	1.3649688e-05
29	0xb8281c02	-4.0080406e-05
30	0x00000004	6e-45
31	0x00000004	6e-45
32	0x38842206	6.300588e-05
33	0xb6f85bdc	-7.40167e-06
34	0x00000000	0.0
35	0xb82e70b3	-4.1589792e-05
36	0x00000000	0.0
37	0x00000004	6e-45
38	0x00000000	0.0
39	0x00000000	0.0
40	0x00000000	0.0
41	0x00000000	0.0
42	0xb81d3693	-3.7482543e-05
43	0x00000004	6e-45
44	0xb89bb69c	-7.4249896e-05
45	0x37b20d96	2.122558e-05
46	0x378bc16d	1.6660162e-05
47	0x38480606	4.7689326e-05
48	0xb7fa43bc	-2.9833864e-05
49	0x00000000	0.0
50	0x385fe5bd	5.3381304e-05
51	0x37dc55bd	2.6265969e-05
52	0x00000000	0.0
53	0x38628774	5.400875e-05
54	0x3932a43b	0.00017036583
55	0x00000004	6e-45
56	0x3791e048	1.7389786e-05
57	0x00000000	0.0
58	0x38c10d05	9.205382e-05
59	0xb8972a76	-7.20815e-05
60	0xb912d2de	-0.00014002199
61	0x378d09fb	1.6813157e-05
62	0xb894fde2	-7.104479e-05
63	0x384eef97	4.9337363e-05

exp_avg_sq f4 [64]
0	0x3511b176	5.427495e-07
1	0x34a69431	3.1027733e-07
2	0x33122398	3.4025646e-08
3	0x34d8247b	4.0259678e-07
4	0x35df16dc	1.6621448e-06
5	0x35670273	8.605777e-07
6	0x33b32539	8.342108e-08
7	0x350c75de	5.2325584e-07
8	0x2f495933	1.8312533e-10
9	0x32280d9d	9.781982e-09
10	0x2e508a2f	4.7416456e-11
11	0x00000000	0.0
12	0x3487e2a1	2.5310604e-07
13	0x36032b27	1.954564e-06
14	0x35540e06	7.899656e-07
15	0x00000000	0.0
16	0x2f934c05	2.679316e-10
17	0x00000000	0.0
18	0x2e25c26d	3.768934e-11
19	0x337a6803	5.830226e-08
20	0x35bc414b	1.4026094e-06
21	0x3368ccab	5.4202854e-08
22	0x3475eb89	2.290309e-07
23	0x00000000	0.0
24	0x35491338	7.49063e-07
25	0x359e46b3	1.1792494e-06
26	0x3512af25	5.464411e-07
27	0x339b225a	7.2239985e-08
28	0x34b5ae15	3.3840539e-07
29	0x3509f8a6	5.139831e-07
30	0x308a1917	1.0047952e-09
31	0x317b25ef	3.654687e-09
32	0x356c7c69	8.809789e-07
33	0x33ef1c49	1.113445e-07
34	0x00000000	0.0
35	0x349a286a	2.871414e-07
36	0x00000000	0.0
37	0x2bcde18d	1.4628729e-12
38	0x00000000	0.0
39	0x00000000	0.0
40	0x00000000	0.0
41	0x00000000	0.0
42	0x35822d10	9.69887e-07
43	0x30ccf971	1.4913849e-09
44	0x34bdb628	3.533653e-07
45	0x32869ec6	1.5671855e-08
46	0x348a6e0f	2.578458e-07
47	0x34e7e485	4.3193373e-07
48	0x35455c18	7.3522233e-07
49	0x00000000	0.0
50	0x34e9d0b5	4.3551486e-07
51	0x34894b16	2.557287e-07
52	0x00000000	0.0
53	0x34ee9e51	4.4446145e-07
54	0x35fdcf8c	1.8910373e-06
55	0x2ef56b8c	1.1160414e-10
56	0x34ee36b2	4.437075e-07
57	0x00000000	0.0
58	0x35059504	4.976321e-07
59	0x35e0369f	1.6705197e-06
60	0x354f14a5	7.714355e-07
61	0x3491a2c0	2.712677e-07
62	0x35cc8d56	1.5240319e-06
63	0x341b134b	1.4442519e-07
