001-machine_learning/data/00001-MLP-temperature/004_checkpoint.pth (torch_old, 18200 bytes, 15 tensors)

exp_avg f4 [32, 5]
0.0 0.00021225831 -4.3759625e-05 -0.00017757526 -0.00078061805 0.0 5.2529096e-05 -3.770559e-05
-9.1251255e-05 -0.00013016805 0.0 -9.455474e-05 0.00013392177 -7.637638e-05 -0.00049433863 0.0
-0.0002484363 -5.3977463e-05 -6.659145e-05 -0.00021067882 0.0 -8.208786e-05 9.3423705e-06 -8.629877e-05
-0.00010218132 0.0 0.00010820165 4.987672e-05 5.334165e-05 0.00011130761 0.0 -0.00044557897
-3.1590454e-05 -8.578734e-06 -0.00019738292 0.0 -3.5080808e-05 8.06933e-06 3.2875014e-05 0.0001037796
0.0 -0.00031800297 -1.1742634e-05 -6.884241e-05 -3.3635388e-05 0.0 -3.436089e-05 -4.8546186e-05
4.609317e-05 7.3738294e-05 0.0 -0.00028005082 -6.0728875e-05 -6.130579e-05 -0.00020820253 0.0
-0.00015461315 -3.3147786e-05 -5.772678e-05 -9.174687e-05 0.0 7.387618e-05 8.599584e-05 0.00014918693
3.451279e-05 0.0 -0.00018578007 -3.0573447e-05 -6.6046414e-05 -1.8883333e-05 0.0 0.00013342178
4.4038647e-05 5.753234e-05 6.434536e-05 0.0 0.0002555498 6.692148e-05 0.00013734122 0.00024164614
0.0 0.0 0.0 0.0 0.0 0.0 -0.00042681047 -0.000116857926
-0.0001459012 -0.00017194712 0.0 0.00015378994 2.3912024e-05 0.00011545868 -0.00017653423 0.0
-0.00015748845 -1.9105117e-05 -4.920927e-05 -2.251271e-06 0.0 -3.9052946e-05 -2.8869872e-06 -2.6500202e-05
-8.530528e-05 0.0 -4.1103726e-06 -4.695646e-06 3.06142e-05 6.4642125e-05 0.0 4.0960917e-05
2.1236317e-05 -7.1081267e-06 -5.029891e-05 0.0 0.00013489951 5.6922945e-05 8.409765e-05 -5.3372674e-05
0.0 -3.4458986e-05 8.0948826e-07 -3.593429e-05 -3.542929e-05 0.0 0.00011587164 -3.8089267e-05
0.00015527803 -9.451229e-05 0.0 -3.0892512e-05 -5.6153145e-05 -1.3984347e-05 -3.5142624e-05 0.0
5.4733964e-06 2.7298286e-06 1.122042e-05 -1.07863925e-05 0.0 0.0001033402 -2.5069754e-05 3.0078369e-05
3.39396e-05 0.0 4.957139e-05 8.367918e-06 1.8382221e-05 -0.0001540621 0.0 0.00064392784
1.8988556e-05 -0.00018533836 -0.00032469322 0.0 -0.00012109599 3.0950562e-07 -3.4083558e-05 -0.0001228501
00000000: 0000 0000 a891 5e39 8a8a 37b8 7f33 3ab9
00000010: 64a2 4cba 0000 0000 b052 5c38 1226 1eb8
00000020: 255e bfb8 b87d 08b9 0000 0000 b14b c6b8
00000030: 5a6d 0c39 422c a0b8 8196 01ba 0000 0000
00000040: 8e40 82b9 dc65 62b8 03a7 8bb8 aae9 5cb9
00000050: 0000 0000 9626 acb8 2dbd 1c37 4dfb b4b8
00000060: 2e4a d6b8 0000 0000 52ea e238 b832 5138
00000070: 29bb 5f38 d16d e938 0000 0000 999c e9b9
00000080: fe7f 04b8 62ed 0fb7 93f8 4eb9 0000 0000
00000090: bb23 13b8 8261 0737 47e3 0938 40a4 d938
000000a0: 0000 0000 a3b9 a6b9 3b02 45b7 7d5f 90b8
000000b0: b913 0db8 0000 0000 ba1e 10b8 129e 4bb8
000000c0: 2a54 4138 f2a3 9a38 0000 0000 c9d3 92b9
000000d0: 22b7 7eb8 4c91 80b8 f150 5ab9 0000 0000
000000e0: a71f 22b9 2a08 0bb8 a81f 72b8 3a68 c0b8
000000f0: 0000 0000 f9ed 9a38 aa58 b438 106f 1c39
00000100: d3c1 1038 0000 0000 f5cd 42b9 fd3b 00b8
00000110: 6682 8ab8 a667 9eb7 0000 0000 23e7 0b39
00000120: 23b6 3838 e14e 7138 27f1 8638 0000 0000
00000130: 50fb 8539 3258 8c38 4103 1039 6462 7d39
00000140: 0000 0000 0000 0000 0000 0000 0000 0000
00000150: 0000 0000 0000 0000 88c5 dfb9 9f11 f5b8
00000160: 0efd 18b9 b44c 34b9 0000 0000 ac42 2139
00000170: ae96 c837 6822 f238 0c1c 39b9 0000 0000
00000180: 7c23 25b9 ed43 a0b7 0d66 4eb8 8b14 17b6
00000190: 0000 0000 c8cc 23b8 10be 41b6 c04c deb7
000001a0: ece5 b2b8 0000 0000 d5eb 89b6 4b8f 9db6
000001b0: bf67 0038 7a90 8738 0000 0000 73cd 2b38
000001c0: a524 b237 5882 eeb6 0bf8 52b8 0000 0000
000001d0: d073 0d39 8cc0 6e38 955d b038 79dc 5fb8
000001e0: 0000 0000 0e88 10b8 9c4b 5935 26b8 16b8
000001f0: e999 14b8 0000 0000 1d00 f338 0ac2 1fb8
00000200: 21d2 2239 e634 c6b8 0000 0000 9592 01b8
00000210: fb85 6bb8 509e 6ab7 1b66 13b8 0000 0000
00000220: 1ea8 b736 1932 3736 563f 3c37 34f7 34b7
00000230: 0000 0000 59b8 d838 e34c d2b7 ce50 fc37
00000240: 5e5a 0e38 0000 0000 e0ea 4f38 ef63 0c37
00000250: 8533 9a37 bb8b 21b9 0000 0000 44cd 283a
00000260: 9d49 9f37 6357 42b9 963b aab9 0000 0000
00000270: eaf4 fdb8 212a a634 f1f4 0eb8 53d1 00b9

exp_avg_sq f4 [32, 5]
0.0 1.1764663e-06 3.031825e-07 5.731987e-07 6.619015e-07 0.0 2.2929273e-08 9.130283e-09
1.0589954e-08 2.639792e-08 0.0 9.8318246e-08 2.1691152e-07 9.154279e-08 3.878593e-07 0.0
1.6503334e-07 1.0393469e-07 1.5129118e-07 9.6855196e-08 0.0 3.6694697e-08 1.4407263e-08 1.7803693e-08
3.010309e-08 0.0 3.4141593e-08 2.504297e-08 2.9568401e-08 2.2527091e-08 0.0 1.21342e-07
7.081402e-08 1.0841765e-07 9.550196e-08 0.0 3.3196223e-08 1.347689e-08 3.5800827e-08 2.4004802e-08
0.0 6.5620455e-08 4.064426e-08 5.4948703e-08 3.7016957e-08 0.0 9.248675e-09 1.7010509e-09
6.2928938e-09 2.6850504e-08 0.0 8.059355e-08 3.5810658e-08 7.205335e-08 8.320992e-08 0.0
3.9612512e-08 2.1506018e-08 3.444322e-08 2.6093275e-08 0.0 6.204126e-08 1.4543608e-07 1.2532283e-07
3.3242856e-08 0.0 3.7250203e-08 2.1511267e-08 2.996989e-08 1.9782728e-08 0.0 4.3635293e-08
2.3922185e-08 4.0772882e-08 2.5809694e-08 0.0 2.211442e-07 1.5169411e-07 2.3296907e-07 1.5253038e-07
0.0 0.0 0.0 0.0 0.0 0.0 2.3325686e-07 1.5214573e-07
2.0843628e-07 1.4538858e-07 0.0 4.543456e-08 1.8072038e-08 3.899804e-08 3.750557e-08 0.0
4.440802e-08 2.4798165e-08 3.0829014e-08 2.4847436e-08 0.0 1.4716396e-08 1.6970876e-08 1.3619688e-08
1.3163854e-08 0.0 8.370001e-09 8.803796e-09 1.2045013e-08 8.848415e-09 0.0 2.5322968e-09
5.12123e-09 2.3279743e-09 6.1501884e-09 0.0 2.0967381e-07 1.1358269e-07 1.8118014e-07 2.671439e-07
0.0 8.097013e-09 5.52868e-10 4.7914064e-09 3.800974e-09 0.0 9.744082e-08 3.3262808e-08
9.345905e-08 4.7143036e-08 0.0 5.0023874e-10 9.910996e-09 7.5547163e-10 3.6867251e-09 0.0
5.1114255e-09 1.1426353e-09 1.2622341e-09 3.7638284e-09 0.0 1.29604185e-08 5.953657e-09 9.6696855e-09
6.7116352e-09 0.0 6.641385e-08 2.4114387e-08 4.7607948e-08 5.4337075e-08 0.0 9.329683e-07
2.7716433e-07 2.8524786e-07 1.4018715e-07 0.0 6.2655054e-08 4.711579e-08 4.640254e-08 3.7983344e-08
00000000: 0000 0000 13e7 9d35 16c5 a234 eadd 1935
00000010: 86ad 3135 0000 0000 01f6 c432 69db 1c32
00000020: 1cef 3532 a4c1 e232 0000 0000 0723 d333
00000030: 2fe8 6834 2e96 c433 fa3a d034 0000 0000
00000040: 0534 3134 b332 df33 9a72 2234 b5fe cf33
00000050: 0000 0000 3f9a 1d33 d083 7732 bcee 9832
00000060: b34a 0133 0000 0000 14a3 1233 131e d732
00000070: 9afd fd32 9981 c132 0000 0000 3c4a 0234
00000080: 6b12 9833 3cd3 e833 c216 cd33 0000 0000
00000090: a293 0e33 fd87 6732 6dc3 1933 1e33 ce32
000000a0: 0000 0000 3aeb 8c33 d690 2e33 bd00 6c33
000000b0: 93fc 1e33 0000 0000 1ae4 1e32 68ca e930
000000c0: e138 d831 e2a4 e632 0000 0000 c612 ad33
000000d0: 3cce 1933 c0bb 9a33 23b1 b233 0000 0000
000000e0: 6b22 2a33 3cbc b832 b9ee 1333 b823 e032
000000f0: 0000 0000 8b3b 8533 2a29 1c34 7a90 0634
00000100: e8c6 0e33 0000 0000 08fd 1f33 c7c7 b832
00000110: 3eb8 0033 aeee a932 0000 0000 8369 3b33
00000120: 717d cd32 421e 2f33 1eb4 dd32 0000 0000
00000130: a873 6d34 5ce1 2234 0d26 7a34 3bc7 2334
00000140: 0000 0000 0000 0000 0000 0000 0000 0000
00000150: 0000 0000 0000 0000 2875 7a34 805d 2334
00000160: 87ce 5f34 1c1c 1c34 0000 0000 d423 4333
00000170: d53c 9b32 cc7e 2733 cf15 2133 0000 0000
00000180: 22bb 3e33 be03 d532 dc68 0433 1770 d532
00000190: 0000 0000 65d3 7c32 5ac7 9132 05fc 6932
000001a0: 3e27 6232 0000 0000 a7cb 0f32 813f 1732
000001b0: 87ee 4e32 be03 1832 0000 0000 a304 2e31
000001c0: d1f6 af31 28fa 1f31 a151 d331 0000 0000
000001d0: b322 6134 bfea f333 6b8a 4234 fa6b 8f34
000001e0: 0000 0000 0a1b 0b32 a0f8 1730 a8a1 a431
000001f0: b999 8231 0000 0000 a840 d133 d8dc 0e33
00000200: a8b3 c833 517a 4a33 0000 0000 2c81 0930
00000210: 0545 2a32 97a9 4f30 8e59 7d31 0000 0000
00000220: 93a0 af31 e80a 9d30 ea7a ad30 fc52 8131
00000230: 0000 0000 86a8 5e32 ec90 cc31 ba1f 2632
00000240: 2b9c e631 0000 0000 669f 8e33 1924 cf32
00000250: 7e79 4c33 3f60 6933 0000 0000 1871 7a35
00000260: 2dcd 9434 2b24 9934 5a86 1634 0000 0000
00000270: fb8c 8633 5c5c 4a33 224c 4733 2123 2333

exp_avg f4 [32]
0.00050576054 8.63123e-06 -9.542568e-05 -0.0002716779 -7.7179764e-05 8.0661914e-05 -0.00037865475 -0.00011351014
-0.00033712748 -7.0411437e-07 -0.0002923666 -0.00013995763 0.00013359838 -0.00021479804 0.00017623657 0.00025105278
0.0 -0.0004328887 0.00012400298 -0.00012610709 -3.8955808e-05 -8.946519e-05 5.2331914e-05 -2.2336895e-05
-6.107739e-05 0.00013765796 -0.00011295234 -1.4330467e-05 7.413625e-05 8.6668515e-05 0.00011102133 -0.00010166063
00000000: 0495 043a dace 1037 461f c8b8 fe6f 8eb9
00000010: 92db a1b8 0929 a938 2e86 c6b9 4b0c eeb8
00000020: 7cc0 b0b9 5f02 3db5 c848 99b9 97c1 12b9
00000030: 8b16 0c39 693b 61b9 25cc 3839 bc9f 8339
00000040: 0000 0000 56f5 e2b9 cc06 0239 9d3b 04b9
00000050: 7b64 23b8 429f bbb8 f77e 5b38 1e60 bbb7
00000060: ad16 80b8 4758 1039 d3e0 ecb8 e36c 70b7
00000070: 9979 9b38 cec1 b538 1fd4 e838 a332 d5b8

exp_avg_sq f4 [32]
3.4796399e-06 4.0842107e-08 3.4250365e-07 5.049526e-07 9.071764e-08 1.160036e-07 2.9252752e-07 1.07206674e-07
1.9791466e-07 8.255542e-08 2.4521324e-07 1.2534476e-07 1.4590442e-07 1.1089671e-07 1.4235928e-07 7.6996474e-07
0.0 7.3893557e-07 1.04231454e-07 1.11733954e-07 5.4733924e-08 4.5666358e-08 1.1472235e-08 9.057794e-07
1.8224672e-08 1.8065262e-07 3.1024356e-08 6.9739334e-09 3.3289925e-08 1.9153458e-07 1.3207176e-06 2.00236e-07
00000000: c283 6936 5f6a 2f33 58e1 b734 148c 0735
00000010: 8dd0 c233 a71d f933 ad0c 9d34 7e39 e633
00000020: 5e82 5434 5249 b133 daa5 8334 8196 0634
00000030: e7a9 1c34 1c26 ee33 6cdb 1834 93af 4e35
00000040: 0000 0000 445b 4635 d9d5 df33 64f2 ef33
00000050: 9614 6b33 b122 4433 6c17 4532 b024 7335
00000060: 7a8c 9c32 6af9 4134 a43f 0533 5e9f ef31
00000070: a9fa 0e33 a0a8 4d34 8343 b135 7400 5734

exp_avg f4 [32, 32]
0.00010727254 4.0737934e-05 3.4834375e-05 7.233951e-05 4.3532258e-05 7.170106e-05 2.4790308e-05 4.416921e-05
3.353154e-05 6.8136846e-06 2.3312943e-05 0.00012548042 7.0166548e-06 0.00015038393 0.00014052207 0.00010382286
0.0 5.5346554e-05 1.794818e-05 0.000103990526 2.023378e-05 3.2822016e-05 3.7478607e-05 0.000123181
8.1822545e-05 -8.866907e-06 6.876251e-07 4.6815043e-05 0.00024241238 2.6693024e-06 -2.2238091e-06 2.3282251e-05
-0.0001168353 -4.471737e-05 -3.7048914e-05 -8.4651445e-05 -4.8350415e-05 -7.762548e-05 -2.9789273e-05 -4.6179943e-05
-4.0136318e-05 -7.199538e-06 -2.8227354e-05 -0.00013838496 -7.333425e-06 -0.00016169375 -0.00015469224 -0.000109906134
0.0 -6.2577696e-05 -1.9902805e-05 -0.000111648646 -2.5208177e-05 -3.4967205e-05 -4.448432e-05 -0.00012916137
-9.021619e-05 7.914721e-06 -7.17844e-07 -5.0922667e-05 -0.0002638002 -7.855957e-06 2.3352322e-06 -2.8426788e-05
-6.565839e-05 -2.4071964e-05 -1.9909361e-05 -4.6020832e-05 -2.4638854e-05 -4.0796655e-05 -1.6011763e-05 -2.3503557e-05
-2.3164157e-05 -7.773639e-06 -1.4575613e-05 -6.9577334e-05 -3.9402125e-06 -8.02519e-05 -7.782095e-05 -5.3079035e-05
0.0 -3.2487536e-05 -1.0692962e-05 -5.7043446e-05 -1.48849995e-05 -2.00843e-05 -2.4990733e-05 -6.37481e-05
-4.4084543e-05 4.2545244e-06 -2.9915705e-06 -2.668466e-05 -0.0001309829 -5.8101427e-06 -1.9335635e-06 -1.7296145e-05
6e-45 0.0 0.0 6e-45 0.0 6e-45 6e-45 6e-45
6e-45 6e-45 6e-45 6e-45 0.0 6e-45 6e-45 -6e-45
0.0 6e-45 6e-45 0.0 6e-45 6e-45 6e-45 6e-45
6e-45 6e-45 0.0 0.0 6e-45 6e-45 6e-45 6e-45
9.144313e-05 3.5046432e-05 2.9009572e-05 6.6360786e-05 3.789193e-05 6.085246e-05 2.3366145e-05 3.6167094e-05
3.152496e-05 5.6502136e-06 2.2141443e-05 0.0001084267 5.7419707e-06 0.00012667377 0.00012121837 8.609493e-05
0.0 4.904882e-05 1.5586269e-05 8.7466375e-05 1.9807232e-05 2.7420025e-05 3.49061e-05 0.00010115561
7.06653e-05 -6.164251e-06 5.618471e-07 3.9890874e-05 0.00020667615 6.2101435e-06 -1.8155704e-06 2.2316966e-05
0.0 0.0 0.0 0.0 0.0 0.0 0.0 0.0
0.0 0.0 0.0 0.0 0.0 0.0 0.0 0.0
0.0 0.0 0.0 0.0 0.0 0.0 0.0 0.0
0.0 0.0 0.0 0.0 0.0 0.0 0.0 0.0
6.9051035e-05 2.4162744e-05 2.0510168e-05 5.0129696e-05 2.759535e-05 4.4929697e-05 1.7177004e-05 2.7751257e-05
2.1456226e-05 4.3346245e-06 1.6953321e-05 8.199986e-05 4.4059716e-06 9.4280775e-05 9.218733e-05 6.544634e-05
0.0 3.7023947e-05 1.1405727e-05 6.465988e-05 1.2745424e-05 2.1041973e-05 2.5221176e-05 7.635189e-05
5.421282e-05 -5.5307582e-06 4.315674e-07 2.9746032e-05 0.00015611717 4.547872e-06 -1.3932766e-06 1.5602918e-05
9.5387106e-05 3.7180023e-05 3.0471974e-05 6.5932654e-05 3.9681887e-05 6.240212e-05 2.1881953e-05 3.7117778e-05
3.006357e-05 5.9967306e-06 2.0766805e-05 0.000110692294 6.091366e-06 0.00013261983 0.00012401608 9.115224e-05
0.0 4.8881226e-05 1.5484404e-05 9.1625996e-05 1.8780629e-05 2.7520658e-05 3.4665667e-05 0.000106129235
7.351519e-05 -8.154041e-06 5.959223e-07 4.2011896e-05 0.0002138697 3.257102e-06 -1.9245385e-06 2.2650498e-05
00000000: 82f7 e038 06de 2a38 201b 1238 fbb4 9738
00000010: 6896 3638 375e 9638 c8f4 cf37 5442 3938
00000020: 38a4 0c38 1ba1 e436 2a90 c337 6593 0339
00000030: 9b70 eb36 61b0 1d39 1b59 1339 79bb d938
00000040: 0000 0000 e923 6838 6c8f 9637 7d15 da38
00000050: b6bb a937 5faa 0938 5932 1d38 262a 0139
00000060: 2598 ab38 13c3 14b7 3d95 3835 455b 4438
00000070: 1430 7e39 4422 3336 c03c 15b6 414e c337
00000080: 7905 f5b8 e98e 3bb8 f864 1bb8 e686 b1b8
00000090: ddcb 4ab8 ddca a2b8 fae3 f9b7 56b1 41b8
000000a0: 0b58 28b8 8f93 f1b6 c8c9 ecb7 6e1b 11b9
000000b0: a411 f6b6 568c 29b9 e234 22b9 687d e6b8
000000c0: 0000 0000 253c 83b8 f3f4 a6b7 e924 eab8
000000d0: 2676 d3b7 c0a9 12b8 ad94 3ab8 7e6f 07b9
000000e0: 7332 bdb8 78c9 0437 ddb1 40b5 cc95 55b8
000000f0: aa4e 8ab9 14cd 03b7 fcb6 1c36 1076 eeb7
00000100: 14b2 89b8 26ee c9b7 0703 a7b7 7e06 41b8
00000110: 89af ceb7 131d 2bb8 0051 86b7 8129 c5b7
00000120: a650 c2b7 866b 02b7 c889 74b7 0cea 91b8
00000130: 2b36 84b6 e94c a8b8 ce33 a3b8 2ea1 5eb8
00000140: 0000 0000 3a43 08b8 ec65 33b7 ef41 6fb8
00000150: 96ba 79b7 b57a a8b7 31a3 d1b7 80b0 85b8
00000160: 6be7 38b8 16c2 8e36 cac2 48b6 dfd8 dfb7
00000170: 7458 09b9 bff4 c2b6 5ec2 01b6 3017 91b7
00000180: 0400 0000 0000 0000 0000 0000 0400 0000
00000190: 0000 0000 0400 0000 0400 0000 0400 0000
000001a0: 0400 0000 0400 0000 0400 0000 0400 0000
000001b0: 0000 0000 0400 0000 0400 0000 0400 0080
000001c0: 0000 0000 0400 0000 0400 0000 0000 0000
000001d0: 0400 0000 0400 0000 0400 0000 0400 0000
000001e0: 0400 0000 0400 0000 0000 0000 0000 0000
000001f0: 0400 0000 0400 0000 0400 0000 0400 0000
00000200: 28c5 bf38 d2fe 1238 9559 f337 2d2b 8b38
00000210: 26ee 1e38 d53b 7f38 6a02 c437 1fb2 1738
00000220: ab39 0438 f796 bd36 63bc b937 2463 e338
00000230: 27ab c036 bbd3 0439 9e36 fe38 dd8d b438
00000240: 0000 0000 c5b9 4d38 42bf 8237 276e b738
00000250: b527 a637 0e04 e637 2468 1238 8123 d438
00000260: 2532 9438 83d6 ceb6 d7d1 1635 8050 2738
00000270: 35b7 5839 ba60 d036 86ae f3b5 5235 bb37
00000280: 0000 0000 0000 0000 0000 0000 0000 0000
00000290: 0000 0000 0000 0000 0000 0000 0000 0000
000002a0: 0000 0000 0000 0000 0000 0000 0000 0000
000002b0: 0000 0000 0000 0000 0000 0000 0000 0000
000002c0: 0000 0000 0000 0000 0000 0000 0000 0000
000002d0: 0000 0000 0000 0000 0000 0000 0000 0000
000002e0: 0000 0000 0000 0000 0000 0000 0000 0000
000002f0: 0000 0000 0000 0000 0000 0000 0000 0000
00000300: 7ecf 9038 19b1 ca37 400d ac37 5a42 5238
00000310: 907c e737 e572 3c38 5617 9037 5fcb e837
00000320: e5fc b337 2472 9136 fb36 8e37 57f7 ab38
00000330: 02d7 9336 9bb8 c538 b254 c138 3c40 8938
00000340: 0000 0000 294a 1b38 395b 3f37 029a 8738
00000350: 2ed5 5537 4b83 b037 1092 d337 1c1f a038
00000360: 9262 6338 da94 b9b6 2cb2 e734 1e87 f937
00000370: 62b3 2339 ec99 9836 9f00 bbb5 03e3 8237
00000380: 900a c838 bff1 1b38 119e ff37 5345 8a38
00000390: 1a70 2638 e2dd 8238 238f b737 e9ae 1b38
000003a0: 0631 fc37 8637 c936 6034 ae37 7923 e838
000003b0: 6f64 cc36 dd0f 0b39 500a 0239 fc28 bf38
000003c0: 0000 0000 d105 4d38 81e4 8137 5527 c038
000003d0: 188b 9d37 2adc e637 fa65 1138 b391 de38
000003e0: 2b2c 9a38 57cd 08b7 78f7 1f35 ee35 3038
000003f0: 3642 6039 9694 5a36 5227 01b6 9301 be37

exp_avg_sq f4 [32, 32]
3.6058957e-08 1.5114107e-08 9.22151e-09 6.3239696e-08 6.407043e-09 8.108753e-08 1.5239236e-08 1.1302529e-08
9.052963e-08 1.8482854e-09 1.3874829e-08 6.9684525e-08 2.7423208e-09 7.0328426e-08 1.0324598e-07 2.5863688e-08
0.0 2.821842e-08 7.688854e-09 3.555549e-08 4.4334154e-08 4.2478078e-08 3.7906542e-08 5.01045e-08
1.5207164e-08 1.1002887e-08 2.0714026e-10 3.2546126e-09 2.0123524e-07 2.699436e-08 1.2549797e-09 2.6197982e-08
4.340161e-08 1.6309864e-08 1.0120878e-08 6.883428e-08 6.7333326e-09 8.794039e-08 1.6293702e-08 1.2447951e-08
9.762081e-08 2.044047e-09 1.5010041e-08 7.5676034e-08 3.0610852e-09 7.615449e-08 1.1201875e-07 2.8320587e-08
0.0 3.0574903e-08 8.428862e-09 3.8118827e-08 4.77462e-08 4.633632e-08 4.0714205e-08 5.4992704e-08
1.660876e-08 1.1752238e-08 2.2749025e-10 3.4149858e-09 2.183359e-07 2.9192716e-08 1.3879304e-09 2.825608e-08
1.0617492e-08 4.025686e-09 2.4885265e-09 1.670586e-08 1.6558482e-09 2.1765063e-08 4.063426e-09 3.0869958e-09
2.4305093e-08 5.610248e-10 3.7650465e-09 1.8646658e-08 7.314657e-10 1.8679364e-08 2.7489747e-08 6.8052612e-09
0.0 7.648492e-09 2.0429893e-09 9.3735695e-09 1.1784815e-08 1.16284955e-08 9.958507e-09 1.3674362e-08
3.897581e-09 2.8656293e-09 6.821925e-11 7.65351e-10 5.313162e-08 7.1967676e-09 3.6185518e-10 6.710181e-09
3.2004538e-12 0.0 0.0 1.5617903e-11 0.0 6.984455e-12 1.962135e-12 2.6903013e-12
1.0163975e-11 4.0162083e-16 4.0217005e-12 8.389304e-12 0.0 2.0014897e-13 1.3836466e-11 2.6006646e-14
0.0 6.0393236e-12 1.9920378e-12 0.0 3.497055e-12 8.3549756e-12 4.869412e-12 3.4012227e-13
1.700246e-13 1.7377859e-12 0.0 0.0 1.1963504e-11 9.920806e-12 7.1551977e-14 2.050857e-12
2.1753495e-08 8.8999705e-09 5.4484066e-09 3.672733e-08 3.725485e-09 4.842135e-08 9.089333e-09 6.88874e-09
5.359919e-08 1.0973573e-09 8.268161e-09 4.133292e-08 1.6212023e-09 4.1859703e-08 6.149503e-08 1.5591697e-08
0.0 1.6808887e-08 4.441477e-09 2.1042231e-08 2.5969722e-08 2.5615604e-08 2.2132046e-08 3.0079264e-08
8.83249e-09 6.4733814e-09 1.3008009e-10 1.8939947e-09 1.1925009e-07 1.568627e-08 7.464878e-10 1.5093855e-08
0.0 0.0 0.0 0.0 0.0 0.0 0.0 0.0
0.0 0.0 0.0 0.0 0.0 0.0 0.0 0.0
0.0 0.0 0.0 0.0 0.0 0.0 0.0 0.0
0.0 0.0 0.0 0.0 0.0 0.0 0.0 0.0
1.38766465e-08 5.686626e-09 3.3220091e-09 2.424947e-08 2.4517945e-09 3.1323815e-08 5.8151306e-09 4.4285255e-09
3.4705547e-08 7.3142875e-10 5.3442197e-09 2.6772767e-08 1.1026556e-09 2.6793026e-08 3.981263e-08 1.00712e-08
0.0 1.0860033e-08 2.9365566e-09 1.3737871e-08 1.6833782e-08 1.6511063e-08 1.4395267e-08 1.9278318e-08
5.8968608e-09 4.2434025e-09 8.0590486e-11 1.282982e-09 7.722553e-08 1.0364424e-08 4.9656645e-10 9.848056e-09
2.5218679e-08 1.0118441e-08 6.2078054e-09 4.3625818e-08 4.2457637e-09 5.606042e-08 1.0813355e-08 7.833627e-09
6.268302e-08 1.2591695e-09 9.812082e-09 4.849185e-08 1.8387188e-09 4.8056204e-08 7.196942e-08 1.774778e-08
0.0 1.9841348e-08 5.2178186e-09 2.4165733e-08 3.034452e-08 2.9697684e-08 2.6033494e-08 3.4352663e-08
1.0268315e-08 7.689649e-09 1.4679313e-10 2.1327715e-09 1.3894586e-07 1.8797904e-08 8.518099e-10 1.7610551e-08
00000000: 3edf 1a33 46d4 8132 a16c 1e32 64ce 8733
00000010: f224 dc31 5722 ae33 6fe7 8232 0c2d 4232
00000020: 3169 c233 c306 fe30 255e 6e32 79a5 9533
00000030: 6b73 3c31 7607 9733 14b8 dd33 da2a de32
00000040: 0000 0000 f664 f232 f017 0432 adb5 1833
00000050: eb69 3e33 2471 3633 afce 2233 7b32 5733
00000060: e8a0 8232 3507 3d32 cdc0 632f c0a7 5f31
00000070: 1f13 5834 3ae1 e732 ac7b ac30 f909 e132
00000080: 9368 3a33 c519 8c32 18e0 2d32 0cd2 9333
00000090: 055b e731 bed9 bc33 3bf6 8b32 abda 5532
000000a0: 9ca3 d133 4177 0c31 6eef 8032 5783 a233
000000b0: 2e5b 5231 608a a333 f68e f033 a145 f332
000000c0: 0000 0000 7651 0333 87ce 1032 18b8 2333
000000d0: 8111 4d33 5303 4733 bedd 2e33 1e31 6c33
000000e0: 0dab 8e32 e4e6 4932 d020 7a2f 11ad 6a31
000000f0: b76f 6a34 76c3 fa32 76c1 be30 c7b7 f232
00000100: 3968 3632 4f52 8a31 9f02 2b31 9380 8f32
00000110: fb93 e330 e1f5 ba32 469e 8b31 0123 5431
00000120: 77c7 d032 9c36 1a30 b35d 8131 6f2c a032
00000130: 5310 4930 5b74 a032 9822 ec32 b6d3 e931
00000140: 0000 0000 6c66 0332 a664 0c31 6509 2132
00000150: 2a76 4a32 aac6 4732 fa15 2b32 7bec 6a32
00000160: 7ceb 8531 afec 4431 0604 962e ca60 5230
00000170: d632 6433 7047 f731 97ee c62f 608f e631
00000180: 4036 612c 0000 0000 0000 0000 6460 892d
00000190: 0000 0000 61be f52c af12 0a2c 2950 3d2c
000001a0: 79ce 322d c684 e725 4280 8d2c 1196 132d
000001b0: 0000 0000 0359 612a e769 732d 3e3f ea28
000001c0: 0000 0000 647d d42c 5d2d 0c2c 0000 0000
000001d0: 5815 762c 77fb 122d c453 ab2c c978 bf2a
000001e0: 416e 3f2a 5692 f42b 0000 0000 0000 0000
000001f0: d576 522d 5787 2e2d e81e a129 f550 102c
00000200: 71dc ba32 7ce6 1832 b134 bb31 20be 1d33
00000210: b601 8031 d6f7 4f33 4f27 1c32 ffb1 ec31
00000220: ef34 6633 d4d1 9630 c20b 0e32 0786 3133
00000230: fcd0 de30 3bc9 3333 400f 8433 81ee 8532
00000240: 0000 0000 2263 9032 a59b 9831 5bc0 b432
00000250: 0614 df32 4f09 dc32 e21c be32 8030 0133
00000260: b4bd 1732 776c de31 4a06 0f2f 8227 0231
00000270: 370b 0034 79be 8632 6931 4d30 bda7 8132
00000280: 0000 0000 0000 0000 0000 0000 0000 0000
00000290: 0000 0000 0000 0000 0000 0000 0000 0000
000002a0: 0000 0000 0000 0000 0000 0000 0000 0000
000002b0: 0000 0000 0000 0000 0000 0000 0000 0000
000002c0: 0000 0000 0000 0000 0000 0000 0000 0000
000002d0: 0000 0000 0000 0000 0000 0000 0000 0000
000002e0: 0000 0000 0000 0000 0000 0000 0000 0000
000002f0: 0000 0000 0000 0000 0000 0000 0000 0000
00000300: 2366 6e32 1764 c331 6749 6431 264d d032
00000310: 6d7c 2831 e688 0633 6ece c731 b929 9831
00000320: 270f 1533 b90d 4930 41a0 b731 f0f9 e532
00000330: 3f8c 9730 7d26 e632 73fe 2a33 9b05 2d32
00000340: 0000 0000 ee92 3a32 73cc 4931 cc03 6c32
00000350: e199 9032 36d4 8d32 0e4f 7732 7899 a532
00000360: 569d ca31 5dcd 9131 6938 b12e eb54 b030
00000370: 2fd7 a533 380f 3232 c27e 0830 3530 2932
00000380: 76a0 d832 60d5 2d32 6f4c d531 185f 3b33
00000390: 22e2 9131 15c7 7033 a3c5 3932 a894 0632
000003a0: 5b9c 8633 170f ad30 fe91 2832 5a45 5033
000003b0: 2bb6 fc30 5b66 4e33 9b8d 9a33 c873 9832
000003c0: 0000 0000 966f aa32 6b48 b331 0295 cf32
000003d0: 2754 0233 e619 ff32 42a0 df32 278b 1333
000003e0: 8768 3032 6f1b 0432 9866 212f 1d90 1231
000003f0: 2631 1534 0779 a132 cb24 6a30 0346 9732

exp_avg f4 [32]
0.00027121408 -0.0002971639 -0.00015012252 6e-45 0.00023287813 0.0 0.00017483169 0.00024080416
0.0 -5.4371914e-05 -0.0001373732 9.607743e-05 0.0002303141 -0.00028236763 -0.00042596014 -0.00031237424
0.0 -0.0001531917 0.00013989609 0.00013253302 0.00025099397 -2.9358137e-06 -0.00017366295 -0.00026305925
0.00014285845 0.00023070985 -8.36552e-05 -0.00018116867 -0.00045431714 -0.00029687496 0.0001935038 9.3954484e-05
00000000: bd31 8e39 aacc 9bb9 356a 1db9 0400 0000
00000010: bf30 7439 0000 0000 0653 3739 6080 7c39
00000020: 0000 0000 660d 64b8 d60b 10b9 2d7d c938
00000030: 7880 7139 be0a 94b9 6753 dfb9 29c6 a3b9
00000040: 0000 0000 15a2 20b9 12b1 1239 90f8 0a39
00000050: d797 8339 e504 45b6 4b19 36b9 37eb 89b9
00000060: 46cc 1539 b4ea 7139 0b70 afb8 18f8 3db9
00000070: 6a31 eeb9 e2a5 9bb9 48e7 4a39 6e09 c538

exp_avg_sq f4 [32]
3.7490693e-07 4.0494035e-07 9.846822e-08 2.5430089e-11 2.2190156e-07 0.0 1.4357012e-07 2.583114e-07
0.0 5.0580834e-08 7.927327e-08 4.0504545e-08 2.4513338e-07 3.9539378e-07 5.8834934e-07 4.259741e-07
0.0 1.0380325e-07 1.1488254e-07 4.8172353e-08 2.9998205e-07 1.824592e-08 3.5745765e-07 2.9634768e-07
4.1670617e-07 2.750209e-07 2.8171298e-08 1.4230876e-07 2.1961336e-07 3.683908e-07 1.2825907e-07 1.1538757e-08
00000000: d146 c934 9466 d934 7a75 d333 78af df2d
00000010: d643 6e34 0000 0000 4128 1a34 0cae 8a34
00000020: 0000 0000 373e 5933 f13c aa33 38f7 2d33
00000030: e09a 8334 8246 d434 0fef 1d35 6fb1 e434
00000040: 0000 0000 71ea de33 58b5 f633 10e6 4e33
00000050: 380d a134 34bb 9c32 9be8 bf34 b719 9f34
00000060: a9b7 df34 96a6 9334 57fd f132 89cd 1834
00000070: dcce 6b34 3fc7 c534 96b7 0934 fd3b 4632

exp_avg f4 [1, 32]
-0.00038579613 -0.00067683996 -0.0003741825 -6e-45 -0.00034811327 0.0 -0.00025131903 -0.00018599215
0.0 -0.00033891955 -0.0004846534 6.91761e-05 -0.00033734777 -0.00011434545 -0.00046848357 -0.0004015425
0.0 -0.00042751545 -0.00018079444 3.135196e-05 -0.000452998 4.8372344e-06 -0.0008602904 -0.00035792298
-0.0009827714 -8.1752914e-05 -0.0005669622 -0.0005014616 -0.0012896112 -0.0005008785 0.00011652218 -0.00018827447
00000000: ae44 cab9 f66d 31ba ed2d c4b9 0400 0080
00000010: f982 b6b9 0000 0000 78c3 83b9 e306 43b9
00000020: 0000 0000 03b1 b1b9 1419 feb9 a312 9138
00000030: 0dde b0b9 bfcc efb8 cd9e f5b9 1f86 d2b9
00000040: 0000 0000 2724 e0b9 a393 3db9 e97f 0338
00000050: 5d80 edb9 874f a236 1d85 61ba 9ca7 bbb9
00000060: 56d0 80ba c372 abb8 30a0 14ba 8574 03ba
00000070: 2c08 a9ba 634d 03ba 5e5d f438 8b6b 45b9

exp_avg_sq f4 [1, 32]
4.1855327e-07 2.0467703e-06 1.1035387e-06 8.509159e-12 5.156672e-07 0.0 2.9721176e-07 1.8087906e-07
0.0 1.4060879e-07 1.4671201e-06 6.824532e-08 7.946737e-07 3.92591e-07 1.0985455e-06 1.1500414e-06
0.0 1.0932207e-06 8.672718e-08 1.1748783e-08 7.309798e-07 1.2014144e-09 8.771915e-07 1.6847886e-06
7.081872e-07 4.5712724e-07 1.643953e-06 2.335454e-06 1.086462e-06 8.3270453e-07 1.8987664e-07 1.8461036e-07
00000000: 86b5 e034 3f5b 0936 4d1d 9435 d8b1 152d
00000010: 616c 0a35 0000 0000 7990 9f34 a837 4234
00000020: 0000 0000 40fa 1634 dde9 c435 438e 9233
00000030: 9051 5535 4cc5 d234 bc71 9335 1f5b 9a35
00000040: 0000 0000 c7ba 9235 c53e ba33 b2d7 4932
00000050: 8d38 4435 031f a530 2478 6b35 e520 e235
00000060: 411a 3e35 176b f534 cca5 dc35 cbba 1c36
00000070: 8dd2 9135 0587 5f35 e5e0 4b34 4f39 4634

hidden_layers.0.weight f4 [32, 5]
-0.037251174 -0.35908478 -0.11676056 -0.1366096 0.5367538 -0.13819578 0.025968624 0.4264542
-0.33023462 0.3222674 0.17655444 -0.036212765 0.4060096 0.027474241 0.32978916 0.14191777
-0.2811517 -0.41815385 0.15249896 0.4710392 -0.13326266 0.22986117 0.07856156 -0.24926472
0.27766314 -0.18393674 -0.23237574 0.37378475 0.30143443 -0.20476739 -0.0713875 0.17536572
0.04421969 0.41814575 0.38646328 -0.29056704 -0.10888847 -0.23676574 0.42610943 -0.3271183
-0.31448615 -0.29553106 0.4606385 0.37646785 0.24318609 0.13670957 -0.32999417 -0.4051771
-0.43834266 0.012151523 -0.14826131 -0.026194463 -0.15954222 0.34545004 0.2144166 -0.11850557
0.14473268 -0.09505349 0.37563697 0.2528015 -0.35105875 0.04163976 0.4927682 0.13036036
-0.3436244 -0.1970352 0.3361119 0.3922426 -0.09769273 0.03897982 0.178195 -0.0022233801
-0.2360948 0.351127 0.025278524 0.11128873 0.18648255 0.006637558 -0.181916 -0.3756428
-0.39106816 -0.10470864 0.07745439 -0.3104257 0.083679736 0.0305956 -0.062041752 -0.06884628
0.3563433 0.19590482 -0.179346 -0.19214657 0.12268678 0.1955008 0.19098875 -0.10567224
0.42044213 0.39721254 -0.051136635 0.16631676 0.43458217 -0.16605374 0.38173366 0.15100464
0.32533297 0.39485532 -0.41953683 0.08538131 0.4051801 -0.3728105 -0.08210504 -0.25936285
0.007177621 -0.004465498 0.2384607 -0.43799433 0.23764876 0.42149308 0.3182403 -0.33342
0.24404442 0.26698554 -0.46203735 -0.2166111 0.23683324 -0.39782578 -0.020620171 0.22480725
0.36146355 0.28938827 0.20289093 -0.2551727 0.18459192 -0.30068555 -0.26857436 -0.32841268
0.32102245 0.0038663063 -0.19133322 0.20886946 -0.06115985 0.3822711 -0.04607426 0.22683164
0.11356532 -0.14452359 -0.25709668 -0.19566773 0.374943 0.35701543 0.042270094 -0.31729823
0.006898025 -0.019289777 -0.42614397 -0.31803894 -0.2953084 -0.007873054 -0.27774507 0.18852212
00000000: b094 18bd f6d9 b7be 2920 efbd 63e3 0bbe
00000010: b268 093f 3283 0dbe 27bc d43c 3458 da3e
00000020: 8314 a9be 3c00 a53e b0ca 343e d653 14bd
00000030: 7ee0 cf3e a911 e13c 20da a83e e452 113e
00000040: 1ef3 8fbe 4318 d6be b028 1c3e 0d2c f13e
00000050: 0276 08be ba60 6b3e e2e4 a03d 403f 7fbe
00000060: dd29 8e3e ea59 3cbe e8f3 6dbe b760 bf3e
00000070: 9d55 9a3e 8bae 51be 9c33 92bd 1293 333e
00000080: b51f 353d 3317 d63e 84de c53e 34c5 94be
00000090: eb00 dfbd b872 72be 042b da3e 0d7c a7be
000000a0: 5404 a1be d94f 97be cfd8 eb3e 65c0 c03e
000000b0: c605 793e 98fd 0b3e fff4 a8be 5f73 cfbe
000000c0: 736e e0be 2e17 473c d0d1 17be c595 d6bc
000000d0: 095f 23be d4de b03e 0690 5b3e 0cb3 f2bd
000000e0: ce34 143e 67ab c2bd 7d53 c03e 336f 813e
000000f0: f9bd b3be 748e 2a3d 1d4c fc3e 307d 053e
00000100: 8aef afbe 98c3 49be dc16 ac3e 06d4 c83e
00000110: 2013 c8bd 4ea9 1f3d c078 363e 21b6 11bb
00000120: d6c2 71be ebc6 b33e e814 cf3c 58eb e33d
00000130: 48f5 3e3e df7f d93b 3048 3abe 4154 c0be
00000140: 163a c8be 7c71 d6bd 68a0 9e3d 1ef0 9ebe
00000150: 4860 ab3d a0a3 fa3c 7e1f 7ebd 47ff 8cbd
00000160: a172 b63e 469b 483e 7aa6 37be 12c2 44be
00000170: 3543 fb3d 5d31 483e 8e92 433e b06a d8bd
00000180: 3144 d73e 715f cb3e a674 51bd f14e 2a3e
00000190: 8e81 de3e fe09 2abe 9872 c33e f6a0 1a3e
000001a0: 0b92 a63e 7a2a ca3e 88cd d6be 65dc ae3d
000001b0: c473 cf3e 05e1 bebe b026 a8bd 35cb 84be
000001c0: 4032 eb3b 5053 92bb 0b2f 743e cb40 e0be
000001d0: 325a 733e f1cd d73e 65f0 a23e 07b6 aabe
000001e0: c8e6 793e 54b2 883e 2990 ecbe 4dcf 5dbe
000001f0: 6a84 723e d2af cbbe a2eb a8bc df33 663e
00000200: c011 b93e b32a 943e a4c2 4f3e ffa5 82be
00000210: aa05 3d3e 75f3 99be 9482 89be b525 a8be
00000220: 0e5d a43e db61 7d3b dbec 43be e0e1 553e
00000230: c082 7abd 0ab9 c33e 5db8 3cbd 8e46 683e
00000240: ef94 e83d fefd 13be 2da2 83be 1f5d 48be
00000250: 87f8 bf3e baca b63e 6823 2d3d ea74 a2be
00000260: d408 e23b 9805 9ebc 8b2f dabe 00d6 a2be
00000270: aa32 97be fbfd 00bc 9a34 8ebe f10b 413e

hidden_layers.0.bias f4 [32]
0.12536253 -0.0027386113 -0.2163285 0.35599372 -0.046080537 0.37499884 -0.27271652 0.16212182
0.18652344 0.31659177 -0.005549434 0.11097097 -0.27879304 0.16414928 0.4243339 0.3835021
-0.32354805 0.08655081 -0.049117852 -0.11329222 0.058573738 0.4220411 0.32309714 0.07277459
0.08922338 -0.25850907 0.115174316 -0.11813357 0.39362037 0.0691791 0.21454933 0.39096174
00000000: 095f 003e 467a 33bb 3885 5dbe cf44 b63e
00000010: f2be 3cbd d9ff bf3e 80a1 8bbe 4303 263e
00000020: 0000 3f3e 5118 a23e 07d8 b5bb bf44 e33d
00000030: f6bd 8ebe c016 283e 4b42 d93e 635a c43e
00000040: 17a8 a5be 8d41 b13d cd2f 49bd c005 e8bd
00000050: 04eb 6f3d c515 d83e fd6c a53e d80a 953d
00000060: bfba b63d 4d5b 84be 83e0 eb3d 03f0 f1bd
00000070: 9c88 c93e c6ad 8d3d d2b2 5b3e 232c c83e

hidden_layers.1.weight f4 [32, 32]
-0.16456518 -0.05089956 -0.067051314 0.082954824 0.067989916 0.010856913 -0.19567049 0.11521731
-0.039679404 0.2526126 0.017182708 0.061354887 0.0031494973 0.09058603 0.17164725 0.22973976
-0.04259482 -0.1440773 0.05915343 0.14181782 -0.16000986 0.017230434 0.0076151597 0.06280257
-0.10630942 0.09227867 0.18349116 -0.17079806 0.05594392 -0.14526881 0.033037607 -0.074028075
-0.03134322 0.0069079134 0.20738482 0.15884754 0.09183083 -0.052772645 0.17375152 0.13793999
-0.053641096 -0.04538793 0.08583754 0.08077243 -0.09224292 0.17317364 0.097118944 -0.13067108
0.11205162 -0.009250981 -0.111229606 0.10039676 -0.115276255 -0.016239963 0.1429895 -0.079713956
0.1144427 0.08172028 -0.042030606 -0.1369094 0.008982791 0.022608668 0.018904088 0.10707876
0.22259343 -0.06821391 0.2113767 -0.06861473 0.14271349 -0.1028491 -0.0053569796 0.01010278
0.052814722 -0.2414376 -0.027207242 0.22392458 -0.14661095 0.10728321 0.052972727 -0.17524962
0.023280606 0.21890973 0.06588296 -0.06438201 0.21214844 0.037556857 0.068146095 -0.004804101
-0.10127166 0.110366926 0.066506065 0.124521405 0.0036356533 0.09623196 -0.027875228 0.14590223
0.009538985 -0.17689775 -0.08545107 -0.030929398 0.057657238 -0.057722624 0.11591479 -0.1498486
0.026576627 -0.14744182 0.11430633 -0.13472025 0.074953236 -0.17264965 -0.06506659 -0.16657755
0.05191809 0.0039517353 -0.01947972 -0.13552827 0.038584363 0.14562249 -0.15778244 -0.05838308
-0.004573357 -0.048875634 -0.027906016 0.0441188 0.07184951 0.14779314 0.08200907 -0.017176894
-0.24421945 -0.19221388 0.10615687 -0.1813543 -0.1003631 0.15967622 -0.0393519 -0.05306802
-0.021089569 0.0765548 -0.11732927 0.10741092 0.15821859 0.07894308 0.13772278 -0.044173583
0.16392891 -0.08196619 -0.15312116 0.104451306 -0.18749996 0.09050671 0.06700932 -0.006484757
0.1310771 -0.117456585 -0.10534604 0.08355898 0.036640223 -0.060580336 0.25777972 -0.03458422
-0.15036766 -0.13527821 -0.11527521 0.031120732 0.08787577 0.11239393 0.06270981 0.04672022
0.05026631 -0.046224028 -0.12564133 -0.105958484 -0.12621748 0.08405034 0.13598911 -0.01664424
0.054981634 0.028060317 0.032005787 -0.033094406 -0.15749887 -0.14198282 0.11839013 0.038399607
-0.07928947 -0.13789387 0.07065892 0.16551222 -0.17187476 0.024315894 -0.030580401 -0.114349075
-0.13229051 -0.023508335 -0.09023168 -0.112777814 -0.08105742 -0.066052355 0.0053447573 0.113919444
0.030458272 0.0074653733 -0.20710234 -0.08368053 0.22078933 -0.00030293586 0.102347404 0.17712869
-0.048501417 0.13931985 0.0815408 0.060285382 -0.1819521 -0.0055803093 0.15398267 0.1760708
0.11185971 0.029387945 0.080634475 -0.08848092 0.054054037 0.07834533 0.11499511 0.14011143
-0.088642865 0.13202934 -0.21646601 0.002914346 0.13062921 0.16261947 -0.16585019 -0.08144354
-0.008924568 -0.018449282 0.048422344 -0.17069218 0.0369881 -0.025915906 0.12817422 0.12862237
0.1631635 0.10528253 -0.037463225 0.08310315 -0.106879726 0.0070442115 -0.052525572 -0.04694697
-0.079669476 0.1391206 0.05391376 -0.08279738 0.17314115 -0.11768321 0.18547772 -0.07445389
00000000: c683 28be 0f7c 50bd 3352 89bd 38e4 a93d
00000010: 4c3e 8b3d 32e1 313c d85d 48be 0ef7 eb3d
00000020: df86 22bd 7056 813e c0c2 8c3c 434f 7b3d
00000030: cc67 4e3b 2b85 b93d 4cc4 2f3e e640 6b3e
00000040: e877 2ebd 0089 13be de4a 723d b138 113e
00000050: a0d9 23be d726 8d3c 9788 f93b a29e 803d
00000060: c1b8 d9bd 99fc bc3d 1be5 3b3e b0e5 2ebe
00000070: 7425 653d 59c1 14be 7152 073d 089c 97bd
00000080: c061 00bd c75b e23b b05c 543e eea8 223e
00000090: cd11 bc3d 2128 58bd ebeb 313e 2440 0d3e
000000a0: c4b6 5bbd b2e8 39bd 98cb af3d 046c a53d
000000b0: dbe9 bcbd 6e54 313e 4ce6 c63d a4ce 05be
000000c0: 527b e53d 6d91 17bc 59cc e3bd d19c cd3d
000000d0: f515 ecbd ac09 85bc d76b 123e 1241 a3bd
000000e0: ef60 ea3d f65c a73d 4928 2cbd fa31 0cbe
000000f0: 8e2c 133c d035 b93c bfdc 9a3c 1c4c db3d
00000100: 88ef 633e bcb3 8bbd 2273 583e e185 8cbd
00000110: 7c23 123e 8da2 d2bd 9a89 afbb 2186 253c
00000120: 4054 583d 6b3b 77be b9e1 debc 7c4c 653e
00000130: 2e21 16be 4db7 db3d eef9 583d a374 33be
00000140: f8b6 be3c df29 603e a5ed 863d b7da 83bd
00000150: 713d 593e 38d5 193d 2e90 8b3d b86b 9dbb
00000160: 8467 cfbd 0e08 e23d 5534 883d 1405 ff3d
00000170: 2444 6e3b 4315 c53d 975a e4bc 6567 153e
00000180: 6749 1c3c af24 35be f800 afbd a65f fdbc
00000190: ff29 6c3d 8f6e 6cbd bc64 ed3d e971 19be
000001a0: 3ab7 d93c fdfa 16be 7019 ea3d 1bf4 09be
000001b0: 1581 993d 12cb 30be a241 85bd 4e93 2abe
000001c0: 10a8 543d 8f7d 813b ef93 9fbc ecc7 0abe
000001d0: a30a 1e3d 101e 153e b891 21be 1923 6fbd
000001e0: 19dc 95bb d131 48bd 289b e4bc eab5 343d
000001f0: d625 933d 1657 173e 5ff4 a73d 8fb6 8cbc
00000200: aa14 7abe b7d3 44be c668 d93d f1b4 39be
00000210: 2b8b cdbd 2a82 233e 752f 21bd da5d 59bd
00000220: 08c4 acbc c3c8 9c3d 544a f0bd 42fa db3d
00000230: 0e04 223e e9ac a13d 3307 0d3e 5cef 34bd
00000240: fbdc 273e e4dd a7bd cbcb 1cbe 91ea d53d
00000250: fdff 3fbe 955b b93d 2f3c 893d 167e d4bb
00000260: 1339 063e 148d f0bd aabf d7bd f820 ab3d
00000270: 0f14 163d 1623 78bd b4fb 833e 2fa8 0dbd
00000280: fbf9 19be 5f86 0abe 6915 ecbd e8f0 fe3c
00000290: 36f8 b33d ca2e e63d 006e 803d b45d 3f3d
000002a0: 0ce4 4d3d 6855 3dbd 1fa8 00be c300 d9bd
000002b0: 283f 01be 9622 ac3d bb40 0b3e 8059 88bc
000002c0: 6c34 613d c0de e53c 8018 033d 008e 07bd
000002d0: 6247 21be f263 11be 8676 f23d e848 1d3d
000002e0: 8562 a2bd 0d34 0dbe a0b5 903d 097c 293e
000002f0: f0ff 2fbe 2032 c73c c083 fabc d92f eabd
00000300: 2a77 07be 8d94 c0bc 63cb b8bd 0ef8 e6bd
00000310: 6f01 a6bd 7546 87bd 1323 af3b 994e e93d
00000320: a083 f93c 17a0 f43b a312 54be b360 abbd
00000330: 9916 623e 5dd3 9eb9 849b d13d 3961 353e
00000340: 6ca9 46bd dda9 0e3e ddfe a63d ceed 763d
00000350: a751 3abe 07db b6bb a2ad 1d3e e74b 343e
00000360: b416 e53d fdbe f03c b023 a53d 7c35 b5bd
00000370: c467 5d3d 8473 a03d 8e82 eb3d 5f79 0f3e
00000380: 648a b5bd b332 073e 44a9 5dbe 9dfe 3e3b
00000390: aac3 053e b885 263e a2d4 29be dfcb a6bd
000003a0: 5a38 12bc f322 97bc 8256 463d eec9 2ebe
000003b0: d580 173d 984d d4bc 1a40 033e 95b5 033e
000003c0: 5514 273e 5e9e d73d 0a73 19bd fc31 aa3d
000003d0: c2e3 dabd 21d3 e63b 0e25 57bd 774b 40bd
000003e0: c029 a3bd a175 0e3e add4 5c3d ac91 a9bd
000003f0: ea4b 313e e503 f1bd dfed 3d3e 487b 98bd

hidden_layers.1.bias f4 [32]
0.015876137 0.16922292 -0.028133463 -0.004427052 0.13417935 -0.1668513 -0.021501698 -0.015128239
-0.06991541 0.039636582 -0.08132932 0.05923893 0.18373498 -0.001075913 -0.122784026 0.110328645
-0.14989868 0.19569694 -0.10818975 0.014568892 0.0899907 0.06281323 -0.031433955 0.13808207
0.0130410995 -0.087912664 0.15860511 0.16441695 -0.06755918 0.08017302 -0.066629015 -0.17522934
00000000: ac0e 823c c648 2d3e 2678 e6bc ce10 91bb
00000010: 5066 093e 11db 2abe 5424 b0bc 6fdc 77bc
00000020: cf2f 8fbd f859 223d fd8f a6bd 85a4 723d
00000030: 0625 3c3e a605 8dba 3176 fbbd fcf3 e13d
00000040: 0a7f 19be c764 483e 9692 ddbd 5db2 6e3c
00000050: 0b4d b83d 39a4 803d e4c0 00bd 6365 0d3e
00000060: 56aa 553c 8e0b b4bd 6169 223e eb5c 283e
00000070: 785c 8abd c131 a43d cb74 88bd 526f 33be

output.weight f4 [1, 32]
-0.18090515 0.18918332 0.101716764 -0.041708626 -0.14808294 -0.13730347 -0.11359635 -0.15711544
-0.10235303 0.11270256 0.08749849 -0.097258784 -0.15036531 0.1797638 0.24126346 0.19884919
0.03680806 0.097566046 -0.08893742 -0.21741554 -0.15962265 -0.19103354 0.2116374 0.16746165
0.23310393 -0.1598116 0.053309362 0.11535909 0.22754982 0.18897608 -0.13157733 -0.03941414
00000000: 333f 39be 46b9 413e e150 d03d aad6 2abd
00000010: 0ea3 17be 4899 0cbe 34a5 e8bd dfe2 20be
00000020: 779e d1bd 9ad0 e63d 6932 b33d 9d2f c7bd
00000030: 5df9 19be 0014 383e c50d 773e 1f9f 4b3e
00000040: 0cc4 163d b5d0 c73d d224 b6bd 2ea2 5ebe
00000050: 1f74 23be 4c9e 43be 79b7 583e 117b 2b3e
00000060: ccb2 6e3e a7a5 23be eb5a 5a3d 6341 ec3d
00000070: d202 693e f282 413e 35bc 06be b970 21bd
