001-machine_learning/data/00001-MLP-temperature/005_checkpoint.pth (torch_old, 211027 bytes, 24 tensors)

exp_avg f4 [64, 4]
000000 00 00 00 00 00 00 00 00 00 00 00 00 00 00 00 00
       0.0 0.0 0.0 0.0
000010 00 00 00 00 12 be d1 b9 a0 55 69 b9 70 9f b2 b9
       0.0 -0.000400052 -0.0002225251 -0.00034069596
000020 00 00 00 00 43 34 74 b9 26 36 a2 b8 06 57 42 b9
       0.0 -0.00023289122 -7.734848e-05 -0.000185337
000030 00 00 00 00 29 d5 27 3a 49 43 f5 39 57 04 1c 3a
       0.0 0.0006402308 0.00046780173 0.00059515744
000040 00 00 00 00 00 00 00 00 00 00 00 00 00 00 00 00
       0.0 0.0 0.0 0.0
000050 00 00 00 00 19 b6 aa 39 1f c9 35 38 2a 3d 97 39
       0.0 0.000325606 4.334107e-05 0.00028846535
000060 00 00 00 00 00 00 00 00 00 00 00 00 00 00 00 00
       0.0 0.0 0.0 0.0
000070 00 00 00 00 71 c9 43 39 10 8d 11 39 64 eb 1b 39
       0.0 0.00018671692 0.00013880827 0.00014869642
000080 00 00 00 00 ad 3b 21 3a 4a e6 a9 39 b6 d5 09 3a
       0.0 0.0006150555 0.0003240577 0.00052579807
000090 00 00 00 00 63 03 8c b9 a2 6d c5 b7 6f d4 4d b9
       0.0 -0.00026705404 -2.3535282e-05 -0.00019629461
0000a0 00 00 00 00 00 00 00 00 00 00 00 00 00 00 00 00
       0.0 0.0 0.0 0.0
0000b0 00 00 00 00 57 75 05 3a 41 90 c2 39 03 cf f9 39
       0.0 0.00050910324 0.0003711004 0.00047647217
0000c0 00 00 00 00 e1 0d 39 ba 7d af b3 b9 60 f6 1c ba
       0.0 -0.0007059258 -0.0003427229 -0.00059876405
0000d0 00 00 00 00 86 aa 2a 39 0f 1c 07 38 4b 55 00 39
       0.0 0.00016275988 3.221264e-05 0.00012238805
0000e0 00 00 00 00 79 08 bf 39 a9 58 83 39 fd 57 af 39
       0.0 0.00036436672 0.00025052324 0.00033444157
0000f0 00 00 00 00 00 00 00 00 00 00 00 00 00 00 00 00
       0.0 0.0 0.0 0.0
000100 00 00 00 00 79 81 c6 3a dc 53 36 3a 50 bf a1 3a
       0.0 0.0015144787 0.0006955245 0.0012340341
000110 00 00 00 00 00 00 00 00 00 00 00 00 00 00 00 00
       0.0 0.0 0.0 0.0
000120 00 00 00 00 00 00 00 00 00 00 00 00 00 00 00 00
       0.0 0.0 0.0 0.0
000130 00 00 00 00 d2 f3 9d ba c7 d0 1b ba fa 1b 86 ba
       0.0 -0.0012050814 -0.0005943891 -0.0010231726
000140 00 00 00 00 67 36 4b b9 0b 55 2c b9 8b 57 62 b9
       0.0 -0.00019379855 -0.00016434879 -0.00021585652
000150 00 00 00 00 00 00 00 00 00 00 00 00 00 00 00 00
       0.0 0.0 0.0 0.0
000160 00 00 00 00 33 16 a9 38 66 ec 9f 38 f3 18 a6 38
       0.0 8.062683e-05 7.6257435e-05 7.920144e-05
000170 00 00 00 00 d6 8b e0 b9 f6 cf 58 b9 0e 53 ba b9
       0.0 -0.00042828795 -0.00020676837 -0.00035538565
000180 00 00 00 00 f8 e8 a6 b9 8b 82 b0 b8 ce ca 7e b9
       0.0 -0.00031835563 -8.4166495e-05 -0.00024298878
000190 00 00 00 00 00 00 00 00 00 00 00 00 00 00 00 00
       0.0 0.0 0.0 0.0
0001a0 00 00 00 00 41 05 75 ba 75 9f d0 b9 70 f0 49 ba
       0.0 -0.0009346791 -0.00039791656 -0.00077033695
0001b0 00 00 00 00 00 00 00 00 00 00 00 00 00 00 00 00
       0.0 0.0 0.0 0.0
0001c0 00 00 00 00 ed ff 36 3a 5d 05 e5 39 0f f1 24 3a
       0.0 0.0006980885 0.0004368228 0.0006292024
0001d0 00 00 00 00 6b c8 d9 b8 d0 90 b2 b8 de 20 fd b8
       0.0 -0.00010384697 -8.514675e-05 -0.00012070102
0001e0 00 00 00 00 20 4d 6d b6 56 91 15 b6 10 74 26 b5
       0.0 -3.5360645e-06 -2.2287327e-06 -6.200871e-07
0001f0 00 00 00 00 9a f4 bf 3a 83 eb 6c 3a 0c 32 ab 3a
       0.0 0.001464504 0.00090377795 0.001306118
000200 00 00 00 00 1c f8 0f 38 ef d8 6a 38 cf eb 21 38
       0.0 3.4324927e-05 5.5991983e-05 3.8605005e-05
000210 00 00 00 00 d6 b0 bb 39 ab c7 81 39 66 cf ad 39
       0.0 0.00035799172 0.00024753562 0.00033151655
000220 00 00 00 00 00 00 00 00 00 00 00 00 00 00 00 00
       0.0 0.0 0.0 0.0
000230 00 00 00 00 d9 b1 2d b3 51 d1 72 b3 b4 22 80 b3
       0.0 -4.0441453e-08 -5.6535388e-08 -5.966777e-08
000240 00 00 00 00 4c 78 66 ba ad 84 e3 b9 52 4c 43 ba
       0.0 -0.00087917293 -0.00043395665 -0.0007450032
000250 00 00 00 00 15 39 8b b9 6a 9d 13 b9 75 8a 67 b9
       0.0 -0.00026554675 -0.00014077654 -0.00022081456
000260 00 00 00 00 50 f2 31 ba 82 ac af b9 ba bf 16 ba
       0.0 -0.00067881215 -0.0003350713 -0.00057506154
000270 00 00 00 00 ac 8f 04 39 06 50 8a 38 17 58 d8 38
       0.0 0.00012642023 6.595258e-05 0.000103160906
000280 00 00 00 00 00 00 00 00 00 00 00 00 00 00 00 00
       0.0 0.0 0.0 0.0
000290 00 00 00 00 00 00 00 00 00 00 00 00 00 00 00 00
       0.0 0.0 0.0 0.0
0002a0 00 00 00 00 48 75 d0 b9 7e 11 53 b9 c4 a2 b0 b9
       0.0 -0.00039760233 -0.00020129044 -0.00033690606
0002b0 00 00 00 00 a8 3f ec 3a 69 e2 8d 3a 8d d7 d1 3a
       0.0 0.0018024342 0.0010824922 0.0016009674
0002c0 00 00 00 00 00 00 00 00 00 00 00 00 00 00 00 00
       0.0 0.0 0.0 0.0
0002d0 00 00 00 00 a6 66 8b b9 d0 e9 b9 b8 36 e1 5e b9
       0.0 -0.00026588625 -8.8650384e-05 -0.00021255467
0002e0 00 00 00 00 d0 19 18 38 c1 13 c5 37 8f bd c3 37
       0.0 3.6263664e-05 2.3493429e-05 2.3334082e-05
0002f0 00 00 00 00 fe be aa 3a 82 d7 31 3a b2 4c 92 3a
       0.0 0.0013026891 0.00067841273 0.0011161773
000300 00 00 00 00 3e 10 bd 38 12 7a 14 39 68 5b d8 38
       0.0 9.0152476e-05 0.00014159855 0.00010316708
000310 00 00 00 00 43 7b 50 ba d1 f3 06 ba d7 58 38 ba
       0.0 -0.0007952938 -0.0005148026 -0.0007032281
000320 00 00 00 00 0f a1 ca ba 12 f1 4e ba 9d 64 ae ba
       0.0 -0.0015459376 -0.00078941986 -0.0013305132
000330 00 00 00 00 a5 09 cb b8 dc a6 0d b8 7a 62 a1 b8
       0.0 -9.681591e-05 -3.377242e-05 -7.695421e-05
000340 00 00 00 00 1d 18 cf ba 4e 85 54 ba e6 12 b1 ba
       0.0 -0.0015800033 -0.0008107022 -0.001350966
000350 00 00 00 00 00 00 00 00 00 00 00 00 00 00 00 00
       0.0 0.0 0.0 0.0
000360 00 00 00 00 3d 31 9b ba 8f 52 19 ba 13 41 84 ba
       0.0 -0.0011840236 -0.0005848789 -0.0010090194
000370 00 00 00 00 a7 f8 4a 3a c5 8b de 39 27 b2 33 3a
       0.0 0.00077427406 0.00042447276 0.0006854855
000380 00 00 00 00 cc 99 87 38 1f 80 70 37 18 dc 6b 38
       0.0 6.4659485e-05 1.4334945e-05 5.6233344e-05
000390 00 00 00 00 d1 ff 9e 30 08 1b 4c 32 64 44 a4 31
       0.0 1.156872e-09 1.1880509e-08 4.7808033e-09
0003a0 00 00 00 00 b0 82 8e ba f8 12 10 ba 79 70 74 ba
       0.0 -0.0010872688 -0.00054959906 -0.0009324621
0003b0 00 00 00 00 85 9b 12 3a 3d f4 b2 39 b8 6e eb 39
       0.0 0.0005592632 0.00034132777 0.00044905185
0003c0 00 00 00 00 b1 f1 82 37 5e 7e 22 33 0d 78 85 36
       0.0 1.5609754e-05 3.7833495e-08 3.9776846e-06
0003d0 00 00 00 00 1d a9 ac 39 79 b0 45 39 7e 84 97 39
       0.0 0.00032932396 0.00018853125 0.0002889968
0003e0 00 00 00 00 eb e8 11 b9 06 41 52 b8 09 21 f4 b8
       0.0 -0.00013915046 -5.012846e-05 -0.0001164098
0003f0 00 00 00 00 00 00 00 00 00 00 00 00 00 00 00 00
       0.0 0.0 0.0 0.0

exp_avg_sq f4 [64, 4]
000000 00 00 00 00 00 00 00 00 00 00 00 00 00 00 00 00
       0.0 0.0 0.0 0.0
000010 00 00 00 00 cb 23 9b 34 c9 87 80 34 e0 17 90 34
       0.0 2.8897043e-07 2.3940655e-07 2.6839461e-07
000020 00 00 00 00 e5 a4 90 33 21 31 da 32 04 4f 55 33
       0.0 6.735517e-08 2.5400881e-08 4.966479e-08
000030 00 00 00 00 0e 87 82 35 5c 7c 4e 35 84 92 6a 35
       0.0 9.725061e-07 7.6921947e-07 8.7385e-07
000040 00 00 00 00 00 00 00 00 00 00 00 00 00 00 00 00
       0.0 0.0 0.0 0.0
000050 00 00 00 00 ce 2c 99 34 6b 15 1a 35 69 3a 0a 35
       0.0 2.853107e-07 5.740064e-07 5.1494004e-07
000060 00 00 00 00 00 00 00 00 00 00 00 00 00 00 00 00
       0.0 0.0 0.0 0.0
000070 00 00 00 00 b8 5d 1d 34 cb 47 46 33 eb eb a5 33
       0.0 1.4655859e-07 4.6165763e-08 7.7263245e-08
000080 00 00 00 00 dd 19 01 35 b8 1f 71 34 74 1a bd 34
       0.0 4.809388e-07 2.2456413e-07 3.522324e-07
000090 00 00 00 00 68 9a 8a 34 7f 47 9c 32 9f b6 58 34
       0.0 2.5816848e-07 1.8193303e-08 2.0183005e-07
0000a0 00 00 00 00 00 00 00 00 00 00 00 00 00 00 00 00
       0.0 0.0 0.0 0.0
0000b0 00 00 00 00 7e 95 a9 35 2f bf 56 35 87 a2 ab 35
       0.0 1.2634989e-06 7.999942e-07 1.2787795e-06
0000c0 00 00 00 00 f9 63 3b 35 f1 f5 c7 34 25 0d 06 35
       0.0 6.980841e-07 3.7245584e-07 4.993802e-07
0000d0 00 00 00 00 26 23 0e 33 fc ae 25 31 a0 50 80 32
       0.0 3.309392e-08 2.4110127e-09 1.4937825e-08
0000e0 00 00 00 00 e2 21 db 34 52 d2 aa 34 37 67 cd 34
       0.0 4.0816582e-07 3.1817996e-07 3.8259324e-07
0000f0 00 00 00 00 00 00 00 00 00 00 00 00 00 00 00 00
       0.0 0.0 0.0 0.0
000100 00 00 00 00 b7 41 71 36 8f b0 64 35 26 25 0b 36
       0.0 3.595005e-06 8.5193545e-07 2.0734237e-06
000110 00 00 00 00 00 00 00 00 00 00 00 00 00 00 00 00
       0.0 0.0 0.0 0.0
000120 00 00 00 00 00 00 00 00 00 00 00 00 00 00 00 00
       0.0 0.0 0.0 0.0
000130 00 00 00 00 40 3f 03 36 62 6c a3 35 d8 29 d3 35
       0.0 1.9557338e-06 1.217599e-06 1.5732903e-06
000140 00 00 00 00 06 14 06 35 10 a1 5d 34 56 d4 f8 34
       0.0 4.994803e-07 2.0640823e-07 4.6348094e-07
000150 00 00 00 00 00 00 00 00 00 00 00 00 00 00 00 00
       0.0 0.0 0.0 0.0
000160 00 00 00 00 34 ed 85 33 e3 7b 8c 33 f0 ec 7f 33
       0.0 6.236442e-08 6.541793e-08 5.9587308e-08
000170 00 00 00 00 4c 0e 61 34 58 bd 36 34 bd 16 50 34
       0.0 2.0959959e-07 1.7018954e-07 1.9379782e-07
000180 00 00 00 00 54 ea 41 34 24 63 93 33 3a 0b 23 34
       0.0 1.8059774e-07 6.8632545e-08 1.5184642e-07
000190 00 00 00 00 00 00 00 00 00 00 00 00 00 00 00 00
       0.0 0.0 0.0 0.0
0001a0 00 00 00 00 cf ac 87 35 7e da f0 34 fd df 42 35
       0.0 1.0108578e-06 4.4862458e-07 7.259658e-07
0001b0 00 00 00 00 00 00 00 00 00 00 00 00 00 00 00 00
       0.0 0.0 0.0 0.0
0001c0 00 00 00 00 d8 5b c0 35 dc 28 8c 35 59 94 bc 35
       0.0 1.4331845e-06 1.0442704e-06 1.4050266e-06
0001d0 00 00 00 00 74 a3 6a 34 41 ee 1d 34 bd 2e 76 34
       0.0 2.1852412e-07 1.470844e-07 2.2927539e-07
0001e0 00 00 00 00 73 79 14 31 8c 7b d1 32 84 f8 c9 31
       0.0 2.160587e-09 2.4386985e-08 5.878123e-09
0001f0 00 00 00 00 88 aa b6 36 4a c0 12 36 c4 a3 9b 36
       0.0 5.443875e-06 2.1867622e-06 4.638425e-06
000200 00 00 00 00 79 2f 21 33 3b ea 2a 33 76 81 3a 33
       0.0 3.752891e-08 3.979424e-08 4.3424244e-08
000210 00 00 00 00 3a 1a 16 35 2d 9d d5 34 71 51 16 35
       0.0 5.591752e-07 3.9788702e-07 5.599787e-07
000220 00 00 00 00 00 00 00 00 00 00 00 00 00 00 00 00
       0.0 0.0 0.0 0.0
000230 00 00 00 00 e8 a0 8a 31 58 26 3b 34 ad 56 36 33
       0.0 4.0346215e-09 1.7429682e-07 4.245401e-08
000240 00 00 00 00 be 6c 90 35 65 d5 25 35 7e 59 59 35
       0.0 1.0760484e-06 6.177782e-07 8.096903e-07
000250 00 00 00 00 31 4d c9 33 22 f8 af 33 42 39 ba 33
       0.0 9.373833e-08 8.1942076e-08 8.671715e-08
000260 00 00 00 00 fd 18 14 35 f0 94 bd 34 4a d7 f7 34
       0.0 5.517066e-07 3.531236e-07 4.616398e-07
000270 00 00 00 00 13 42 ef 32 f9 ef 7a 32 c7 37 c9 32
       0.0 2.7853309e-08 1.4606479e-08 2.3424844e-08
000280 00 00 00 00 00 00 00 00 00 00 00 00 00 00 00 00
       0.0 0.0 0.0 0.0
000290 00 00 00 00 00 00 00 00 00 00 00 00 00 00 00 00
       0.0 0.0 0.0 0.0
0002a0 00 00 00 00 c4 04 6b 34 a0 8b 0c 34 52 41 3b 34
       0.0 2.1887814e-07 1.3089311e-07 1.7439496e-07
0002b0 00 00 00 00 2e 71 04 37 5a 12 be 36 73 53 00 37
       0.0 7.894165e-06 5.6645777e-06 7.648824e-06
0002c0 00 00 00 00 00 00 00 00 00 00 00 00 00 00 00 00
       0.0 0.0 0.0 0.0
0002d0 00 00 00 00 13 6b 2e 34 76 b9 88 33 e6 31 00 34
       0.0 1.6243966e-07 6.366729e-08 1.1939082e-07
0002e0 00 00 00 00 14 4b d3 30 29 80 2b 30 6e b9 d1 2f
       0.0 1.5373609e-09 6.2391564e-10 3.8148634e-10
0002f0 00 00 00 00 67 17 24 36 25 46 dc 35 78 d0 0d 36
       0.0 2.4451526e-06 1.6411692e-06 2.1131982e-06
000300 00 00 00 00 e4 8a 1d 35 90 09 d4 34 74 0c 24 35
       0.0 5.868917e-07 3.9495035e-07 6.111288e-07
000310 00 00 00 00 73 4e ee 35 53 f7 c2 35 5d dd f2 35
       0.0 1.7755214e-06 1.4526107e-06 1.809483e-06
000320 00 00 00 00 a8 19 61 36 c3 10 0d 36 4f 71 36 36
       0.0 3.3542547e-06 2.1020394e-06 2.7186068e-06
000330 00 00 00 00 70 aa 05 33 31 fb 8d 32 5f 23 98 32
       0.0 3.1121488e-08 1.6528789e-08 1.7711214e-08
000340 00 00 00 00 6b 35 68 36 7a 7f b3 35 53 a1 30 36
       0.0 3.4601787e-06 1.337364e-06 2.6319947e-06
000350 00 00 00 00 00 00 00 00 00 00 00 00 00 00 00 00
       0.0 0.0 0.0 0.0
000360 00 00 00 00 b2 73 f6 35 2b 0f 8e 35 73 7b c0 35
       0.0 1.83621e-06 1.0584239e-06 1.4341043e-06
000370 00 00 00 00 15 44 9d 35 c6 74 5b 35 c7 d8 8c 35
       0.0 1.1717226e-06 8.1753785e-07 1.0493903e-06
000380 00 00 00 00 ec c0 aa 32 5a 7a 1f 32 7e fc 37 32
       0.0 1.9878335e-08 9.282838e-09 1.0709412e-08
000390 00 00 00 00 fc 9c 47 2f fe 9d fc 32 bc ed b7 31
       0.0 1.8154717e-10 2.9408508e-08 5.3530282e-09
0003a0 00 00 00 00 bf ee ed 35 27 83 93 35 ed 67 bc 35
       0.0 1.772736e-06 1.0990524e-06 1.4037338e-06
0003b0 00 00 00 00 d6 52 bf 34 7f f8 39 34 06 bb 59 34
       0.0 3.5636793e-07 1.731987e-07 2.0277739e-07
0003c0 00 00 00 00 02 0d 49 31 34 00 a6 2d bc 55 49 30
       0.0 2.9256744e-09 1.8872105e-11 7.324521e-10
0003d0 00 00 00 00 13 3f 6b 34 4d 29 1e 34 81 2f 4f 34
       0.0 2.1909027e-07 1.4729922e-07 1.9295659e-07
0003e0 00 00 00 00 30 97 40 33 fb 98 9e 32 b1 31 05 33
       0.0 4.4840988e-08 1.8463188e-08 3.101167e-08
0003f0 00 00 00 00 00 00 00 00 00 00 00 00 00 00 00 00
       0.0 0.0 0.0 0.0

exp_avg f4 [64]
000000 00 00 00 00 31 89 d0 b9 51 65 74 b9 36 38 26 3a
       0.0 -0.00039775067 -0.00023307397 0.00063407735
000010 00 00 00 00 e3 6d ac 39 00 00 00 00 8c 26 46 39
       0.0 0.00032888268 0.0 0.00018897111
000020 a8 18 20 3a 74 f9 8a b9 00 00 00 00 bf 52 02 3a
       0.00061071897 -0.00026507268 0.0 0.00049714366
000030 07 39 39 ba 3a cc 26 39 be 6d bc 39 00 00 00 00
       -0.00070656877 0.00015907074 0.0003593992 0.0
000040 19 46 c5 3a 00 00 00 00 00 00 00 00 98 26 9d ba
       0.0015050798 0.0 0.0 -0.0011989651
000050 67 4b 43 b9 00 00 00 00 2d 1d aa 38 1a b0 df b9
       -0.00018624739 0.0 8.111666e-05 -0.0004266508
000060 b5 11 a8 b9 00 00 00 00 ac e0 74 ba 00 00 00 00
       -0.0003205665 0.0 -0.000934134 0.0
000070 cb e5 33 3a 0a eb d1 b8 67 a8 69 b6 89 90 bc 3a
       0.000686255 -0.00010009676 -3.4817729e-06 0.0014386337
000080 3b b9 0b 38 86 27 b7 39 00 00 00 00 01 01 9a b3
       3.331269e-05 0.00034933927 0.0 -7.1713664e-08
000090 74 6a 65 ba 3a 41 89 b9 04 32 30 ba c5 82 01 39
       -0.00087515195 -0.00026179274 -0.000672132 0.00012351114
0000a0 00 00 00 00 00 00 00 00 9e a7 cf b9 d8 74 e8 3a
       0.0 0.0 -0.00039607 0.0017735017
0000b0 00 00 00 00 e7 fe 8c b9 2e e6 15 38 f3 04 a9 3a
       0.0 -0.00026892798 3.573874e-05 0.0012895152
0000c0 be ec a4 38 87 e5 4c ba 5a e7 c8 ba 79 08 d2 b8
       7.864226e-05 -0.00078161847 -0.0015327737 -0.000100151585
0000d0 f1 62 cd ba 00 00 00 00 f2 0c 9a ba 30 17 49 3a
       -0.0015669746 0.0 -0.0011753126 0.0007670997
0000e0 18 08 80 38 a2 ba 66 32 07 d2 8d ba cb d9 12 3a
       6.105023e-05 1.3430197e-08 -0.0010820039 0.00056019117
0000f0 44 44 7b 37 1e 0c aa 39 93 51 13 b9 00 00 00 00
       1.497666e-05 0.00032433955 -0.00014049401 0.0

exp_avg_sq f4 [64]
000000 00 00 00 00 d5 2a 2d 35 78 ba ec 33 c7 96 fb 35
       0.0 6.450985e-07 1.1023525e-07 1.8744839e-06
000010 00 00 00 00 c4 d3 c1 35 00 00 00 00 c1 d8 22 34
       0.0 1.4441252e-06 0.0 1.516628e-07
000020 44 74 2a 35 b1 34 db 34 00 00 00 00 4d c6 08 36
       6.3499124e-07 4.0830267e-07 0.0 2.0381005e-06
000030 17 1e ac 35 e1 1a 1d 33 a5 bd 4f 35 00 00 00 00
       1.2823756e-06 3.6578857e-08 7.738948e-07 0.0
000040 e9 dd 82 36 00 00 00 00 00 00 00 00 61 be 72 36
       3.9001357e-06 0.0 0.0 3.6171625e-06
000050 50 44 0a 35 00 00 00 00 05 cf 28 34 8c 66 f6 34
       5.1508414e-07 0.0 1.5721533e-07 4.5895683e-07
000060 00 15 91 34 00 00 00 00 ea fc ea 35 00 00 00 00
       2.7023634e-07 0.0 1.7507966e-06 0.0
000070 6c 2a 2a 36 3d 89 c6 34 b5 08 1d 33 69 54 dc 36
       2.5356667e-06 3.6980228e-07 3.656233e-08 6.5663376e-06
000080 7d cc b0 33 d4 f5 7b 35 00 00 00 00 2e 24 7f 34
       8.232835e-08 9.3862513e-07 0.0 2.3761888e-07
000090 60 f2 03 36 ca a2 4e 34 3f 91 86 35 5d b4 36 33
       1.9661602e-06 1.9244467e-07 1.002605e-06 4.2539217e-08
0000a0 00 00 00 00 00 00 00 00 cd d3 d8 34 40 eb 68 37
       0.0 0.0 4.038724e-07 1.3883051e-05
0000b0 00 00 00 00 ec 15 8f 34 71 54 dd 30 32 cd 94 36
       0.0 2.6651776e-07 1.6103866e-09 4.4346316e-06
0000c0 fc 4e 7d 35 a6 bb 64 36 44 69 bc 36 19 f3 89 33
       9.436478e-07 3.4083873e-06 5.615091e-06 6.423779e-08
0000d0 2f 74 a0 36 00 00 00 00 34 36 50 36 3e 0e 15 36
       4.781897e-06 0.0 3.1025966e-06 2.221102e-06
0000e0 81 77 10 33 bb 07 25 33 a4 29 5a 36 c1 f3 ec 34
       3.36363e-08 3.8424087e-08 3.250877e-06 4.413578e-07
0000f0 b6 fb 60 31 e3 b7 cf 34 98 52 a3 33 00 00 00 00
       3.2739371e-09 3.869055e-07 7.605303e-08 0.0

exp_avg f4 [128, 64]
000000 00 00 00 00 9b 1f 2a b7 dc fe c5 b7 e5 8d bc b5
       0.0 -1.0140148e-05 -2.3602908e-05 -1.4048388e-06
000010 00 00 00 00 67 61 7c b5 00 00 00 00 43 c3 b7 b3
       0.0 -9.4019055e-07 0.0 -8.5571195e-08
000020 d9 4b d2 b6 7a 52 fe b5 00 00 00 00 ad 6f 00 b8
       -6.2673175e-06 -1.8948479e-06 0.0 -3.0621584e-05
000030 ae a3 0a b8 03 5a 0c b4 a4 22 8c b6 00 00 00 00
       -3.3054203e-05 -1.3071262e-07 -4.176358e-06 0.0
000040 a8 0f 0c 35 00 00 00 00 00 00 00 00 2d 9e f8 b7
       5.2176847e-07 0.0 0.0 -2.963756e-05
000050 a8 42 2d b6 00 00 00 00 05 d4 15 b8 70 21 1f b8
       -2.5817808e-06 0.0 -3.5721827e-05 -3.7939695e-05
000060 cf 59 1f b8 00 00 00 00 5a a9 2d b8 00 00 00 00
       -3.7992195e-05 0.0 -4.1404135e-05 0.0
000070 56 b3 06 b8 dc 61 c8 b5 97 92 17 34 63 fe d7 b6
       -3.211511e-05 -1.4929642e-06 1.41163e-07 -6.437114e-06
000080 d4 3c 3c b7 a9 ee a0 b7 00 00 00 00 74 10 2b 2e
       -1.1219836e-05 -1.9184621e-05 0.0 3.8895512e-11
000090 2d 5c 14 b7 d1 7e b0 b7 58 a4 23 b8 d9 b0 8b b7
       -8.842949e-06 -2.1039888e-05 -3.9015285e-05 -1.6652442e-05
0000a0 00 00 00 00 00 00 00 00 b6 0a 6e b7 72 8b b3 b7
       0.0 0.0 -1.4188399e-05 -2.1403397e-05
0000b0 00 00 00 00 ca 13 09 b8 4e 1e f7 33 c3 79 1b b7
       0.0 -3.2681775e-05 1.1507346e-07 -9.26707e-06
0000c0 e9 f7 02 b8 76 08 85 b6 44 55 00 b7 e0 09 2e b8
       -3.12253e-05 -3.964694e-06 -7.649247e-06 -4.149403e-05
0000d0 c0 0e ba b6 00 00 00 00 da ff 41 b7 5d 3e bf b6
       -5.544949e-06 0.0 -1.15632665e-05 -5.6995036e-06
0000e0 f1 0f 0a b7 76 c0 11 ae 92 5d 14 b8 9b bf 34 b5
       -8.229153e-06 -3.3140123e-11 -3.5373094e-05 -6.733405e-07
0000f0 69 27 9f b3 21 47 10 b7 27 f0 0d b8 00 00 00 00
       -7.411183e-08 -8.59963e-06 -3.384068e-05 0.0
000100 00 00 00 00 00 00 00 00 00 00 00 00 00 00 00 00
       0.0 0.0 0.0 0.0
000110 00 00 00 00 00 00 00 00 00 00 00 00 00 00 00 00
       0.0 0.0 0.0 0.0
000120 00 00 00 00 00 00 00 00 00 00 00 00 00 00 00 00
       0.0 0.0 0.0 0.0
000130 00 00 00 00 00 00 00 00 00 00 00 00 00 00 00 00
       0.0 0.0 0.0 0.0
000140 00 00 00 00 00 00 00 00 00 00 00 00 00 00 00 00
       0.0 0.0 0.0 0.0
000150 00 00 00 00 00 00 00 00 00 00 00 00 00 00 00 00
       0.0 0.0 0.0 0.0
000160 00 00 00 00 00 00 00 00 00 00 00 00 00 00 00 00
       0.0 0.0 0.0 0.0
000170 00 00 00 00 00 00 00 00 00 00 00 00 00 00 00 00
       0.0 0.0 0.0 0.0
000180 00 00 00 00 00 00 00 00 00 00 00 00 00 00 00 00
       0.0 0.0 0.0 0.0
000190 00 00 00 00 00 00 00 00 00 00 00 00 00 00 00 00
       0.0 0.0 0.0 0.0
0001a0 00 00 00 00 00 00 00 00 00 00 00 00 00 00 00 00
       0.0 0.0 0.0 0.0
0001b0 00 00 00 00 00 00 00 00 00 00 00 00 00 00 00 00
       0.0 0.0 0.0 0.0
0001c0 00 00 00 00 00 00 00 00 00 00 00 00 00 00 00 00
       0.0 0.0 0.0 0.0
0001d0 00 00 00 00 00 00 00 00 00 00 00 00 00 00 00 00
       0.0 0.0 0.0 0.0
0001e0 00 00 00 00 00 00 00 00 00 00 00 00 00 00 00 00
       0.0 0.0 0.0 0.0
0001f0 00 00 00 00 00 00 00 00 00 00 00 00 00 00 00 00
       0.0 0.0 0.0 0.0
000200 00 00 00 00 04 00 00 80 04 00 00 80 04 00 00 80
       0.0 -6e-45 -6e-45 -6e-45
000210 00 00 00 00 04 00 00 00 00 00 00 00 00 00 00 00
       0.0 6e-45 0.0 0.0
000220 04 00 00 80 00 00 00 00 00 00 00 00 04 00 00 00
       -6e-45 0.0 0.0 6e-45
000230 04 00 00 80 00 00 00 00 04 00 00 80 00 00 00 00
       -6e-45 0.0 -6e-45 0.0
000240 00 00 00 00 00 00 00 00 00 00 00 00 04 00 00 00
       0.0 0.0 0.0 6e-45
000250 04 00 00 00 00 00 00 00 04 00 00 80 04 00 00 80
       6e-45 0.0 -6e-45 -6e-45
000260 04 00 00 80 00 00 00 00 04 00 00 00 00 00 00 00
       -6e-45 0.0 6e-45 0.0
000270 04 00 00 80 04 00 00 80 04 00 00 80 00 00 00 00
       -6e-45 -6e-45 -6e-45 0.0
000280 04 00 00 80 04 00 00 80 00 00 00 00 04 00 00 80
       -6e-45 -6e-45 0.0 -6e-45
000290 04 00 00 80 04 00 00 80 04 00 00 80 04 00 00 80
       -6e-45 -6e-45 -6e-45 -6e-45
0002a0 00 00 00 00 00 00 00 00 04 00 00 00 04 00 00 80
       0.0 0.0 6e-45 -6e-45
0002b0 00 00 00 00 04 00 00 80 00 00 00 00 04 00 00 80
       0.0 -6e-45 0.0 -6e-45
0002c0 04 00 00 80 04 00 00 80 04 00 00 80 04 00 00 80
       -6e-45 -6e-45 -6e-45 -6e-45
0002d0 00 00 00 00 00 00 00 00 04 00 00 80 04 00 00 80
       0.0 0.0 -6e-45 -6e-45
0002e0 04 00 00 80 04 00 00 80 04 00 00 00 04 00 00 80
       -6e-45 -6e-45 6e-45 -6e-45
0002f0 00 00 00 00 04 00 00 80 04 00 00 80 00 00 00 00
       0.0 -6e-45 -6e-45 0.0
000300 00 00 00 00 04 00 00 00 04 00 00 00 04 00 00 00
       0.0 6e-45 6e-45 6e-45
000310 00 00 00 00 04 00 00 00 00 00 00 00 00 00 00 00
       0.0 6e-45 0.0 0.0
000320 04 00 00 00 00 00 00 00 00 00 00 00 04 00 00 00
       6e-45 0.0 0.0 6e-45
000330 04 00 00 00 00 00 00 00 04 00 00 00 00 00 00 00
       6e-45 0.0 6e-45 0.0
000340 00 00 00 00 00 00 00 00 00 00 00 00 04 00 00 00
       0.0 0.0 0.0 6e-45
000350 00 00 00 00 00 00 00 00 04 00 00 00 04 00 00 00
       0.0 0.0 6e-45 6e-45
000360 04 00 00 00 00 00 00 00 04 00 00 00 00 00 00 00
       6e-45 0.0 6e-45 0.0
000370 04 00 00 00 04 00 00 00 04 00 00 00 00 00 00 00
       6e-45 6e-45 6e-45 0.0
000380 04 00 00 00 04 00 00 00 00 00 00 00 04 00 00 80
       6e-45 6e-45 0.0 -6e-45
000390 04 00 00 00 04 00 00 00 04 00 00 00 04 00 00 00
       6e-45 6e-45 6e-45 6e-45
0003a0 00 00 00 00 00 00 00 00 04 00 00 00 04 00 00 00
       0.0 0.0 6e-45 6e-45
0003b0 00 00 00 00 04 00 00 00 00 00 00 00 04 00 00 00
       0.0 6e-45 0.0 6e-45
0003c0 04 00 00 00 04 00 00 00 04 00 00 80 04 00 00 00
       6e-45 6e-45 -6e-45 6e-45
0003d0 00 00 00 00 00 00 00 00 04 00 00 80 04 00 00 00
       0.0 0.0 -6e-45 6e-45
0003e0 04 00 00 00 04 00 00 80 04 00 00 00 04 00 00 80
       6e-45 -6e-45 6e-45 -6e-45
0003f0 00 00 00 00 04 00 00 00 04 00 00 00 00 00 00 00
       0.0 6e-45 6e-45 0.0

exp_avg_sq f4 [128, 64]
000000 00 00 00 00 5e c3 65 2f d6 66 fe 2f 65 67 23 2f
       0.0 2.0896837e-10 4.62754e-10 1.4861497e-10
000010 00 00 00 00 a1 43 8f 2d 00 00 00 00 26 fb 3d 2b
       0.0 1.6287251e-11 0.0 6.7494827e-13
000020 1e bd 11 2e 2e 94 e6 2c 00 00 00 00 ac bb 24 30
       3.3137153e-11 6.5534444e-12 0.0 5.992955e-10
000030 b2 bb b2 30 4c 48 92 2a ff 0c f8 2e 00 00 00 00
       1.3004551e-09 2.5984976e-13 1.1280043e-10 0.0
000040 7e 1f 8b 2c 00 00 00 00 00 00 00 00 63 59 27 30
       3.954114e-12 0.0 0.0 6.088127e-10
000050 bf bf 05 2d 00 00 00 00 46 9c 85 30 09 a7 be 30
       7.602751e-12 0.0 9.721439e-10 1.3871794e-09
000060 f2 3a a2 30 00 00 00 00 ff 38 9d 30 00 00 00 00
       1.1803805e-09 0.0 1.1439453e-09 0.0
000070 5e 04 97 30 6c f5 89 2f 05 d3 1a 2d 4a 57 a3 2d
       1.0987937e-09 2.5094538e-10 8.800742e-12 1.8569719e-11
000080 df 45 98 2f 6e 39 b6 2f 00 00 00 00 f4 90 d9 2b
       2.7698285e-10 3.3146413e-10 0.0 1.545901e-12
000090 1d 2f d1 2e fd 1f 62 30 dc 38 c8 30 53 c3 85 2f
       9.5125886e-11 8.226378e-10 1.4568076e-09 2.4331345e-10
0000a0 00 00 00 00 00 00 00 00 25 b8 19 2f b7 75 a9 2f
       0.0 0.0 1.398069e-10 3.0824562e-10
0000b0 00 00 00 00 cb 49 64 30 dc 1c f0 27 d5 ec 6d 2f
       0.0 8.3050783e-10 6.664467e-15 2.1639164e-10
0000c0 35 1f 54 30 31 6c 00 2f f7 da 6c 2e c1 49 f2 30
       7.71695e-10 1.167997e-10 5.3854667e-11 1.762878e-09
0000d0 71 7c ab 2d 00 00 00 00 12 65 1f 2f 46 fc a7 2e
       1.9495712e-11 0.0 1.4496873e-10 7.6390935e-11
0000e0 9b 9d 1f 2f 52 0c 89 2b 90 a7 7a 30 e9 40 c0 2b
       1.4516958e-10 9.737855e-13 9.118759e-10 1.3660437e-12
0000f0 da 2a cd 29 86 91 6d 2f 2e 42 b6 30 00 00 00 00
       9.1112624e-14 2.1606725e-10 1.3261052e-09 0.0
000100 00 00 00 00 00 00 00 00 00 00 00 00 00 00 00 00
       0.0 0.0 0.0 0.0
000110 00 00 00 00 00 00 00 00 00 00 00 00 00 00 00 00
       0.0 0.0 0.0 0.0
000120 00 00 00 00 00 00 00 00 00 00 00 00 00 00 00 00
       0.0 0.0 0.0 0.0
000130 00 00 00 00 00 00 00 00 00 00 00 00 00 00 00 00
       0.0 0.0 0.0 0.0
000140 00 00 00 00 00 00 00 00 00 00 00 00 00 00 00 00
       0.0 0.0 0.0 0.0
000150 00 00 00 00 00 00 00 00 00 00 00 00 00 00 00 00
       0.0 0.0 0.0 0.0
000160 00 00 00 00 00 00 00 00 00 00 00 00 00 00 00 00
       0.0 0.0 0.0 0.0
000170 00 00 00 00 00 00 00 00 00 00 00 00 00 00 00 00
       0.0 0.0 0.0 0.0
000180 00 00 00 00 00 00 00 00 00 00 00 00 00 00 00 00
       0.0 0.0 0.0 0.0
000190 00 00 00 00 00 00 00 00 00 00 00 00 00 00 00 00
       0.0 0.0 0.0 0.0
0001a0 00 00 00 00 00 00 00 00 00 00 00 00 00 00 00 00
       0.0 0.0 0.0 0.0
0001b0 00 00 00 00 00 00 00 00 00 00 00 00 00 00 00 00
       0.0 0.0 0.0 0.0
0001c0 00 00 00 00 00 00 00 00 00 00 00 00 00 00 00 00
       0.0 0.0 0.0 0.0
0001d0 00 00 00 00 00 00 00 00 00 00 00 00 00 00 00 00
       0.0 0.0 0.0 0.0
0001e0 00 00 00 00 00 00 00 00 00 00 00 00 00 00 00 00
       0.0 0.0 0.0 0.0
0001f0 00 00 00 00 00 00 00 00 00 00 00 00 00 00 00 00
       0.0 0.0 0.0 0.0
000200 00 00 00 00 e6 a7 ad 2a a1 75 b0 2a fc c3 2d 2b
       0.0 3.0847476e-13 3.1345502e-13 6.173393e-13
000210 00 00 00 00 30 8d 8c 27 00 00 00 00 00 00 00 00
       0.0 3.901088e-15 0.0 0.0
000220 73 06 29 27 00 00 00 00 00 00 00 00 db bb 1a 28
       2.3456958e-15 0.0 0.0 8.589452e-15
000230 6f 7e 22 2c 00 00 00 00 47 24 0c 2b 00 00 00 00
       2.309177e-12 0.0 4.9788336e-13 0.0
000240 00 00 00 00 00 00 00 00 00 00 00 00 aa 2b 45 29
       0.0 0.0 0.0 4.378066e-14
000250 df 37 6e 14 00 00 00 00 47 14 34 2b 93 30 cc 2b
       1.2026948e-26 0.0 6.3976987e-13 1.4508554e-12
000260 56 58 5c 2b 00 00 00 00 31 53 89 28 00 00 00 00
       7.828229e-13 0.0 1.5246134e-14 0.0
000270 ae 6f ef 2b 29 e6 38 2c 0f a9 1f 2a 00 00 00 00
       1.7012969e-12 2.6275737e-12 1.4180691e-13 0.0
000280 12 9d c2 2b b6 7c dc 2a 00 00 00 00 c6 3a 0d 27
       1.3828125e-12 3.9166386e-13 0.0 1.9599542e-15
000290 b8 54 2c 2a 7b 68 3e 2c 2a f6 d4 2b 9b ab 41 2a
       1.5306062e-13 2.7058622e-12 1.513183e-12 1.7201381e-13
0002a0 00 00 00 00 00 00 00 00 0b f0 8d 28 46 54 eb 27
       0.0 0.0 1.5758247e-14 6.5316972e-15
0002b0 00 00 00 00 fa 5e 03 2b 00 00 00 00 38 04 77 2b
       0.0 4.6672356e-13 0.0 8.775788e-13
0002c0 33 e9 3b 2b 00 ef c0 2a ac 80 2d 27 74 18 52 2c
       6.6759375e-13 3.427189e-13 2.4078326e-15 2.985637e-12
0002d0 00 00 00 00 00 00 00 00 15 fa 14 2a e2 ed 67 2a
       0.0 0.0 1.3231805e-13 2.0599454e-13
0002e0 2c ca f9 2a 53 50 82 28 5c 0e 45 2a fe 1f 9f 25
       4.437157e-13 1.4467734e-14 1.7502097e-13 2.7603782e-16
0002f0 00 00 00 00 21 19 53 2b 42 1d 3e 2c 00 00 00 00
       0.0 7.499713e-13 2.7016865e-12 0.0
000300 00 00 00 00 d3 25 80 25 d7 0d 08 25 c9 af a1 25
       0.0 2.223009e-16 1.1800809e-16 2.8048165e-16
000310 00 00 00 00 67 23 89 23 00 00 00 00 00 00 00 00
       0.0 1.4868563e-17 0.0 0.0
000320 b1 76 93 1e 00 00 00 00 00 00 00 00 b5 cb 0d 25
       1.561332e-20 0.0 0.0 1.2298819e-16
000330 5b 85 f4 25 00 00 00 00 7f a0 5e 25 00 00 00 00
       4.2417618e-16 0.0 1.9309809e-16 0.0
000340 00 00 00 00 00 00 00 00 00 00 00 00 41 c0 7d 21
       0.0 0.0 0.0 8.597418e-19
000350 00 00 00 00 00 00 00 00 6a 6f 67 25 00 b9 e3 25
       0.0 0.0 2.0073805e-16 3.9503584e-16
000360 85 82 6f 25 00 00 00 00 c9 42 9b 22 00 00 00 00
       2.0774167e-16 0.0 4.2083546e-18 0.0
000370 17 d6 94 26 7a 70 50 26 64 dc 50 24 00 00 00 00
       1.0327592e-15 7.231693e-16 4.528949e-17 0.0
000380 1b 99 c8 25 69 35 cf 25 00 00 00 00 ff d0 80 1b
       3.4798218e-16 3.5944968e-16 0.0 2.1310884e-22
000390 0d 10 6f 24 14 cc 26 26 1b d6 2a 25 7c 63 8a 25
       5.183846e-17 5.7869397e-16 1.4817691e-16 2.4006597e-16
0003a0 00 00 00 00 00 00 00 00 de c7 9c 23 e6 a2 0e 25
       0.0 0.0 1.6998201e-17 1.2371729e-16
0003b0 00 00 00 00 ed e1 6e 25 00 00 00 00 03 56 52 26
       0.0 2.0719756e-16 0.0 7.2974954e-16
0003c0 cf 8c ec 25 7c 80 cf 24 56 1c 3b 1d e4 09 95 26
       4.103489e-16 8.99896e-17 2.4763893e-21 1.0341633e-15
0003d0 00 00 00 00 00 00 00 00 55 b5 0a 22 ce 4c 05 25
       0.0 0.0 1.8798484e-18 1.1561934e-16
0003e0 28 6a cd 25 b3 4d 4f 21 13 48 b0 21 9f 4d 15 19
       3.5633766e-16 7.023716e-19 1.1945302e-18 7.718795e-24
0003f0 00 00 00 00 ea 4e 87 25 a6 86 85 26 00 00 00 00
       0.0 2.347224e-16 9.265225e-16 0.0

exp_avg f4 [128]
000000 0a e2 73 b8 00 00 00 00 04 00 00 80 04 00 00 00
       -5.814623e-05 0.0 -6e-45 6e-45
000010 79 99 74 b9 f0 d9 4d b9 7e d6 78 b8 db b5 ee b8
       -0.00023326826 -0.00019631512 -5.932757e-05 -0.000113825976
000020 04 00 00 00 9f 32 58 b9 00 00 00 00 04 00 00 00
       6e-45 -0.00020618223 0.0 6e-45
000030 63 4c 68 37 11 e3 92 b9 b9 88 da b8 42 59 cc b8
       1.3846063e-05 -0.00028016468 -0.000104205166 -9.7441036e-05
000040 8f f5 b5 38 f3 e0 7b b6 00 00 00 00 0b 97 ea 39
       8.6764914e-05 -3.7532852e-06 0.0 0.00044744494
000050 58 77 55 b9 69 b6 83 b9 00 00 00 00 c1 ce b9 38
       -0.00020357722 -0.00025122173 0.0 8.859998e-05
000060 01 5d 25 39 b8 fd e9 35 ac 47 8c 38 00 00 00 00
       0.00015770273 1.7433695e-06 6.68907e-05 0.0
000070 04 00 00 00 00 00 00 00 91 c0 d0 b9 00 00 00 00
       6e-45 0.0 -0.00039816325 0.0
000080 04 00 00 00 00 00 00 00 00 00 00 00 00 00 00 00
       6e-45 0.0 0.0 0.0
000090 d1 69 83 39 db b3 0a 3a 00 00 00 00 25 3f d4 36
       0.00025065106 0.0005291083 0.0 6.3254433e-06
0000a0 7c d5 56 b9 04 00 00 00 00 00 00 00 d6 d0 28 b9
       -0.0002048816 6e-45 0.0 -0.00016099526
0000b0 00 00 00 00 73 60 4d b7 04 00 00 00 21 d9 b3 38
       0.0 -1.22414085e-05 6e-45 8.5758285e-05
0000c0 f6 38 31 b9 00 00 00 00 04 00 00 00 cd 46 48 39
       -0.00016901255 0.0 6e-45 0.00019099862
0000d0 76 f1 2d b9 00 00 00 00 7e dc 5a 05 84 33 a6 b9
       -0.00016588517 0.0 1.0290809e-35 -0.0003170037
0000e0 f8 55 09 39 04 00 00 00 7b 70 25 36 b2 81 15 b9
       0.00013097364 6e-45 2.4652388e-06 -0.00014258063
0000f0 52 78 ce b7 fb c3 c4 b9 3b 6f 2f b6 e0 e0 17 b8
       -2.4613142e-05 -0.0003753005 -2.6141777e-06 -3.6210637e-05
000100 04 00 00 00 9c 1a 83 b9 8d 60 87 38 42 4d c4 b9
       6e-45 -0.00025006093 6.4552856e-05 -0.00037441595
000110 00 00 00 00 00 00 00 00 4e 38 b9 b8 03 c7 65 b9
       0.0 0.0 -8.831975e-05 -0.0002191328
000120 75 a9 44 b9 04 00 00 00 00 00 00 00 04 00 00 00
       -0.00018755144 6e-45 0.0 6e-45
000130 00 00 00 00 44 59 5a b9 00 00 00 00 00 00 00 00
       0.0 -0.00020823354 0.0 0.0
000140 00 00 00 00 04 00 00 00 04 00 00 00 97 e1 72 38
       0.0 6e-45 6e-45 5.7907393e-05
000150 99 37 2f 3a 20 ed 99 b9 3a 03 0a b9 1e 6e aa b9
       0.0006684005 -0.00029359106 -0.00013161908 -0.0003250697
000160 5a 1f bd 38 00 00 00 00 00 00 00 00 00 00 00 00
       9.018062e-05 0.0 0.0 0.0
000170 04 00 00 00 00 00 00 00 00 00 00 00 04 2d d2 b9
       6e-45 0.0 0.0 -0.0004008786
000180 00 00 00 00 b2 2c 88 39 ed dd 6c b9 04 00 00 00
       0.0 0.00025973242 -0.00022589388 6e-45
000190 00 00 00 00 a0 1e 3d b9 10 3f 28 b9 aa a9 d2 38
       0.0 -0.00018035853 -0.00016045221 0.00010045183
0001a0 04 00 00 00 99 36 16 b9 ed 7b 58 b9 73 f0 4e b8
       6e-45 -0.00014325454 -0.00020645531 -4.9338163e-05
0001b0 04 00 00 00 73 08 36 b9 97 97 03 3a 00 00 00 00
       6e-45 -0.0001736002 0.0005019842 0.0
0001c0 fe 15 6f b9 57 b0 66 b9 04 00 00 00 00 00 00 00
       -0.00022801009 -0.00022000201 6e-45 0.0
0001d0 cc d4 92 b9 1d 38 00 b9 04 00 00 00 6d 88 fa b8
       -0.00028005836 -0.00012227935 6e-45 -0.0001194634
0001e0 5f 1c e3 b9 00 00 00 00 4b 00 48 b8 00 00 00 00
       -0.00043317952 0.0 -4.768399e-05 0.0
0001f0 77 62 62 b9 00 00 00 00 b9 12 4a b9 e2 0f 5f b9
       -0.0002158972 0.0 -0.00019271196 -0.00021272854

exp_avg_sq f4 [128]
000000 bc ef 81 31 00 00 00 00 8b 16 d2 2c 39 fb 67 27
       3.7816488e-09 0.0 5.9710618e-12 3.2193878e-15
000010 71 03 b6 33 55 1a 72 33 4a 1f 30 33 25 1c 39 32
       8.4756614e-08 5.6368965e-08 4.100665e-08 1.0774817e-08
000020 98 9c ec 23 1e 01 3b 34 00 00 00 00 d6 0e bd 2d
       2.5653491e-17 1.7416139e-07 0.0 2.14934e-11
000030 99 89 d3 33 68 31 b9 34 16 10 cb 33 10 b9 a0 32
       9.850482e-08 3.4494883e-07 9.45585e-08 1.8710608e-08
000040 ac 0d 85 34 2e da 32 33 00 00 00 00 a1 a8 6b 35
       2.4783128e-07 4.1642288e-08 0.0 8.778971e-07
000050 c0 75 4b 34 f1 f3 a0 33 00 00 00 00 b4 86 df 34
       1.8948685e-07 7.494953e-08 0.0 4.1634996e-07
000060 07 89 c5 35 3d 1a 78 33 45 78 fa 32 00 00 00 00
       1.4717524e-06 5.7765863e-08 2.9158523e-08 0.0
000070 d6 e4 52 26 00 00 00 00 db 43 97 34 00 00 00 00
       7.3168517e-16 0.0 2.8175313e-07 0.0
000080 00 58 cb 22 00 00 00 00 00 00 00 00 00 00 00 00
       5.5116434e-18 0.0 0.0 0.0
000090 f3 d1 b7 35 93 91 96 35 00 00 00 00 a9 22 40 34
       1.3695666e-06 1.1218239e-06 0.0 1.7894003e-07
0000a0 2c 94 c7 33 0f 00 8d 2b 00 00 00 00 fa 4f a5 33
       9.293612e-08 1.0018669e-12 0.0 7.697959e-08
0000b0 00 00 00 00 51 ba 2d 32 37 dc 92 2b 13 30 ed 33
       0.0 1.0112289e-08 1.0435046e-12 1.1044917e-07
0000c0 b4 2d 70 33 00 00 00 00 84 e0 14 2b 0c f3 93 35
       5.592092e-08 0.0 5.289174e-13 1.1023089e-06
0000d0 31 cf 97 33 00 00 00 00 ef cc 8e 26 5a 5c 23 34
       7.069173e-08 0.0 9.908777e-16 1.5214155e-07
0000e0 4b 9a 02 35 c9 5e 92 27 20 b3 8e 34 cc ea b3 33
       4.86533e-07 4.0625907e-15 2.6579892e-07 8.378046e-08
0000f0 d7 8e 0d 33 0b c5 ae 34 c5 9a 83 31 28 3f 16 33
       3.2959033e-08 3.2553393e-07 3.830197e-09 3.4982037e-08
000100 8e 46 e1 2c 1d 3b 24 34 e6 f9 3e 35 49 3c 8b 34
       6.4027178e-12 1.5295196e-07 7.1144166e-07 2.593463e-07
000110 00 00 00 00 00 00 00 00 bc 79 c9 34 a2 f5 66 34
       0.0 0.0 3.752774e-07 2.150978e-07
000120 51 7c c0 33 12 52 22 2d 00 00 00 00 8a 6d fa 22
       8.96331e-08 9.226857e-12 0.0 6.7878615e-18
000130 00 00 00 00 37 48 09 34 00 00 00 00 00 00 00 00
       0.0 1.2785391e-07 0.0 0.0
000140 00 00 00 00 b0 b8 34 2d dd 8c 06 2c 32 85 2e 35
       0.0 1.0272824e-11 1.912074e-12 6.5013876e-07
000150 c6 b4 06 36 a5 8e 80 34 dc 6f 1b 34 dd 89 b7 34
       2.007278e-06 2.3945645e-07 1.4476194e-07 3.4186715e-07
000160 43 24 96 34 00 00 00 00 00 00 00 00 00 00 00 00
       2.796606e-07 0.0 0.0 0.0
000170 5e 18 d1 22 00 00 00 00 00 00 00 00 c7 34 a8 34
       5.6675363e-18 0.0 0.0 3.133084e-07
000180 00 00 00 00 59 a0 34 35 f6 3e 86 34 d9 c3 1f 24
       0.0 6.728856e-07 2.5005255e-07 3.464352e-17
000190 00 00 00 00 05 4f 34 34 c7 88 82 33 93 72 a5 34
       0.0 1.6792553e-07 6.0784764e-08 3.081701e-07
0001a0 bd 30 6b 1f 1c 07 54 33 1b d7 1f 34 09 e1 02 34
       4.98035e-20 4.9366562e-08 1.4886284e-07 1.2189061e-07
0001b0 f6 e0 aa 2b 2a e4 a3 33 17 6e 43 35 00 00 00 00
       1.2141666e-12 7.631782e-08 7.280336e-07 0.0
0001c0 bb 74 d0 33 89 4f 9e 33 c2 53 7b 28 00 00 00 00
       9.706988e-08 7.371916e-08 1.3951461e-14 0.0
0001d0 54 22 ef 33 cf 88 28 34 91 18 83 2c ba 67 9d 33
       1.1135549e-07 1.569599e-07 3.7259714e-12 7.32975e-08
0001e0 d7 5f af 34 00 00 00 00 17 96 92 34 00 00 00 00
       3.2666023e-07 0.0 2.7303824e-07 0.0
0001f0 4b f0 4f 34 00 00 00 00 d8 5a c4 33 44 8f a2 33
       1.9365795e-07 0.0 9.1434856e-08 7.569773e-08

exp_avg f4 [64, 128]
000000 0b b9 c9 38 00 00 00 00 04 00 00 80 00 00 00 00
       9.618894e-05 0.0 -6e-45 0.0
000010 8e 08 aa 38 ed 48 92 38 a9 75 04 39 89 ed b6 38
       8.107825e-05 6.975406e-05 0.00012632333 8.722681e-05
000020 00 00 00 00 66 82 14 39 00 00 00 00 04 00 00 80
       0.0 0.00014162957 0.0 -6e-45
000030 74 8b 8d 38 ea 7e 0f 38 ed 8b c4 38 68 26 2b 38
       6.749379e-05 3.4212055e-05 9.3720715e-05 4.0805346e-05
000040 cc ce e6 37 64 48 b0 38 00 00 00 00 e0 54 66 b7
       2.7514434e-05 8.405818e-05 0.0 -1.372883e-05
000050 18 51 06 39 b1 0b ec 37 00 00 00 00 b0 54 4e 36
       0.00012809446 2.8138837e-05 0.0 3.0745687e-06
000060 f8 3e 6f 38 13 cd f4 b2 0f 5f f0 37 00 00 00 00
       5.7040685e-05 -2.8498595e-08 2.8654495e-05 0.0
000070 04 00 00 80 00 00 00 00 e4 3c 57 38 00 00 00 00
       -6e-45 0.0 5.1316703e-05 0.0
000080 00 00 00 00 00 00 00 00 00 00 00 00 00 00 00 00
       0.0 0.0 0.0 0.0
000090 71 b2 a7 38 64 bd 94 b7 00 00 00 00 6c 4b a9 34
       7.996418e-05 -1.7731167e-05 0.0 3.153358e-07
0000a0 09 47 22 38 04 00 00 00 00 00 00 00 6b 88 6a 38
       3.8689966e-05 6e-45 0.0 5.5916997e-05
0000b0 00 00 00 00 00 f7 96 38 00 00 00 00 2b 51 ae b6
       0.0 7.198565e-05 0.0 -5.1950533e-06
0000c0 1e 12 8e 38 00 00 00 00 00 00 00 00 d6 96 50 38
       6.774462e-05 0.0 0.0 4.973154e-05
0000d0 f9 1f ac 38 00 00 00 00 00 00 00 00 a2 2a 1d 38
       8.2075545e-05 0.0 0.0 3.7471422e-05
0000e0 6a 8c 7f 38 00 00 00 00 eb d5 2a 38 14 d5 0e 38
       6.092751e-05 0.0 4.0730385e-05 3.4053883e-05
0000f0 ce cc 7a 36 1e 6b 18 38 b0 b5 7c 37 ef 35 ef 38
       3.7372115e-06 3.6339385e-05 1.5062673e-05 0.00011406454
000100 00 00 00 00 f1 31 75 38 cd 2a 57 38 af ee 93 38
       0.0 5.8459063e-05 5.1299856e-05 7.0539645e-05
000110 00 00 00 00 00 00 00 00 f5 a5 ea b6 23 2e 59 39
       0.0 0.0 -6.9930634e-06 0.0002071192
000120 a2 05 22 39 00 00 00 00 00 00 00 00 00 00 00 00
       0.00015451622 0.0 0.0 0.0
000130 00 00 00 00 c8 37 9c 38 00 00 00 00 00 00 00 00
       0.0 7.44905e-05 0.0 0.0
000140 00 00 00 00 00 00 00 00 00 00 00 00 cc 6c 5f 38
       0.0 0.0 0.0 5.3268668e-05
000150 f5 c9 ad b7 49 33 c0 38 23 4f ad 38 6d c3 37 38
       -2.071725e-05 9.164826e-05 8.264023e-05 4.3812604e-05
000160 98 54 ba 38 00 00 00 00 00 00 00 00 00 00 00 00
       8.884928e-05 0.0 0.0 0.0
000170 00 00 00 00 00 00 00 00 00 00 00 00 66 b6 6f 38
       0.0 0.0 0.0 5.7151912e-05
000180 00 00 00 00 e7 f5 2c 38 02 12 02 38 04 00 00 00
       0.0 4.123701e-05 3.1011186e-05 6e-45
000190 00 00 00 00 7c cb 37 39 c0 a9 f6 38 50 c8 24 37
       0.0 0.00017528044 0.000117618125 9.821801e-06
0001a0 04 00 00 00 b7 40 8e 38 96 5f db 38 c9 69 33 39
       6e-45 6.783142e-05 0.00010460538 0.00017110178
0001b0 00 00 00 00 8c be f5 38 aa 25 8e b7 00 00 00 00
       0.0 0.000117180025 -1.6945258e-05 0.0
0001c0 94 58 96 38 b8 cc 9a 38 00 00 00 00 00 00 00 00
       7.169056e-05 7.381424e-05 0.0 0.0
0001d0 13 24 72 38 fd c9 ef 38 00 00 00 00 65 d5 67 38
       5.7730893e-05 0.00011434031 0.0 5.527343e-05
0001e0 a5 9e b0 38 00 00 00 00 41 25 12 38 00 00 00 00
       8.421884e-05 0.0 3.4843808e-05 0.0
0001f0 77 90 81 38 00 00 00 00 25 13 15 39 9c ed a3 38
       6.178108e-05 0.0 0.00014216879 7.816704e-05
000200 ed dd e1 b8 00 00 00 00 04 00 00 80 04 00 00 80
       -0.00010770173 0.0 -6e-45 -6e-45
000210 84 f5 af b8 8a cc 96 b8 11 68 0c b9 3f eb c0 b8
       -8.390381e-05 -7.190656e-05 -0.00013390208 -9.1990914e-05
000220 04 00 00 00 24 26 1c b9 00 00 00 00 04 00 00 00
       6e-45 -0.00014891528 0.0 6e-45
000230 df c6 af b8 37 0f da b7 c8 21 d1 b8 72 95 33 b8
       -8.381693e-05 -2.599471e-05 -9.972189e-05 -4.2816107e-05
000240 18 11 2c b8 6f 9e be b8 00 00 00 00 9a 26 7d 36
       -4.1023915e-05 -9.0894166e-05 0.0 3.7722407e-06
000250 aa 6f 0a b9 c6 ae f5 b7 00 00 00 00 b9 99 25 35
       -0.00013202304 -2.9287661e-05 0.0 6.1690986e-07
000260 70 da a1 b8 ef 73 bf 32 0d 8d fa b7 00 00 00 00
       -7.7177654e-05 2.2288047e-08 -2.9868004e-05 0.0
000270 04 00 00 80 00 00 00 00 85 d2 54 b8 00 00 00 00
       -6e-45 0.0 -5.07408e-05 0.0
000280 04 00 00 00 00 00 00 00 00 00 00 00 00 00 00 00
       6e-45 0.0 0.0 0.0
000290 31 4d d5 b8 51 6e d7 36 00 00 00 00 ea 88 33 36
       -0.000101710095 6.420342e-06 0.0 2.6752773e-06
0002a0 4d 12 23 b8 04 00 00 80 00 00 00 00 dd 40 6a b8
       -3.8879272e-05 -6e-45 0.0 -5.5850356e-05
0002b0 00 00 00 00 f4 3a a8 b8 04 00 00 80 2c d3 e8 34
       0.0 -8.021845e-05 -6e-45 4.3367015e-07
0002c0 c4 2e 8e b8 00 00 00 00 04 00 00 00 c5 2e 9c b8
       -6.7797984e-05 0.0 6e-45 -7.447371e-05
0002d0 a8 58 ab b8 00 00 00 00 37 16 ce 02 38 80 1f b8
       -8.170429e-05 0.0 3.028173e-37 -3.8027967e-05
0002e0 29 83 ab b8 04 00 00 00 05 36 5b b8 d7 70 10 b8
       -8.178346e-05 6e-45 -5.226398e-05 -3.4437366e-05
0002f0 13 be 2d b6 46 e3 05 b8 b8 cd 91 b7 8b e9 06 b9
       -2.5889647e-06 -3.1921336e-05 -1.7381142e-05 -0.00012866237
000300 04 00 00 80 2c 51 7c b8 fd 9f 9b b8 38 01 96 b8
       -6e-45 -6.015708e-05 -7.420776e-05 -7.1527844e-05
000310 00 00 00 00 00 00 00 00 83 45 ce 32 63 d0 69 b9
       0.0 0.0 2.4013167e-08 -0.00022298242
000320 6d 82 2b b9 04 00 00 80 00 00 00 00 04 00 00 80
       -0.00016356418 -6e-45 0.0 -6e-45
000330 00 00 00 00 58 83 9c b8 00 00 00 00 00 00 00 00
       0.0 -7.463124e-05 0.0 0.0
000340 00 00 00 00 04 00 00 80 04 00 00 80 30 19 96 b8
       0.0 -6e-45 -6e-45 -7.157249e-05
000350 e3 b0 0a 37 a9 64 c1 b8 87 4b ae b8 47 79 1e b8
       8.266626e-06 -9.2217066e-05 -8.3110346e-05 -3.7783084e-05
000360 08 22 e1 b8 00 00 00 00 00 00 00 00 00 00 00 00
       -0.00010735175 0.0 0.0 0.0
000370 04 00 00 80 00 00 00 00 00 00 00 00 7b ba 71 b8
       -6e-45 0.0 0.0 -5.763255e-05
000380 00 00 00 00 8b c2 80 b8 b3 76 b8 b7 00 00 00 00
       0.0 -6.139752e-05 -2.1989783e-05 0.0
000390 00 00 00 00 1c 15 41 b9 6f 57 fc b8 18 bd f3 b6
       0.0 -0.00018413778 -0.00012032582 -7.2639777e-06
0003a0 00 00 00 00 4b 7b 8c b8 ec f0 e2 b8 87 c5 4e b9
       0.0 -6.698685e-05 -0.00010821395 -0.00019719276
0003b0 04 00 00 80 7d d4 f8 b8 4f 8a cb 36 00 00 00 00
       -6e-45 -0.000118651406 6.0659727e-06 0.0
0003c0 bf b4 99 b8 a9 3d 9c b8 04 00 00 80 00 00 00 00
       -7.329275e-05 -7.450145e-05 -6e-45 0.0
0003d0 44 04 82 b8 7a a5 ed b8 04 00 00 80 b2 24 67 b8
       -6.1996776e-05 -0.00011331863 -6e-45 -5.5108867e-05
0003e0 5a 0d b1 b8 00 00 00 00 dd fc 27 b8 00 00 00 00
       -8.4425046e-05 0.0 -4.00514e-05 0.0
0003f0 77 bd 7c b8 00 00 00 00 5c 43 18 b9 52 8a a4 b8
       -6.0257935e-05 0.0 -0.00014520943 -7.8458936e-05

exp_avg_sq f4 [64, 128]
000000 ca bf 41 33 00 00 00 00 1a 2d 64 27 00 00 00 00
       4.5110745e-08 0.0 3.1665806e-15 0.0
000010 d6 f3 43 32 0a 6c c6 31 5d 4f 6d 33 6e 20 c3 32
       1.1405936e-08 5.774841e-09 5.5253043e-08 2.2715735e-08
000020 00 00 00 00 99 94 78 33 00 00 00 00 f0 b9 54 27
       0.0 5.787715e-08 0.0 2.9521707e-15
000030 56 a2 1b 33 fb cc 22 30 e0 e9 24 33 6f 39 45 32
       3.6236393e-08 5.922655e-10 3.8396934e-08 1.1479968e-08
000040 5b 33 c7 32 8d f5 01 33 00 00 00 00 92 9f 7d 32
       2.3190003e-08 3.025848e-08 0.0 1.476282e-08
000050 ac c0 3e 33 a3 ce 64 30 00 00 00 00 ef 21 9f 2e
       4.4413056e-08 8.3239565e-10 0.0 7.236511e-11
000060 a4 92 3b 33 9a da f1 30 ee 22 0b 32 00 00 00 00
       4.36727e-08 1.7597188e-09 8.098807e-09 0.0
000070 2c fe 1a 22 00 00 00 00 57 6a 14 31 00 00 00 00
       2.100545e-18 0.0 2.1597282e-09 0.0
000080 00 00 00 00 00 00 00 00 00 00 00 00 00 00 00 00
       0.0 0.0 0.0 0.0
000090 66 0c 8b 33 f6 d9 6a 32 00 00 00 00 a3 b3 82 30
       6.474947e-08 1.3670151e-08 0.0 9.509801e-10
0000a0 29 5b 51 31 fd e2 82 27 00 00 00 00 c1 ac bc 31
       3.0465321e-09 3.632835e-15 0.0 5.49116e-09
0000b0 00 00 00 00 42 ba 18 33 00 00 00 00 6a 14 a6 30
       0.0 3.555966e-08 0.0 1.2083892e-09
0000c0 61 11 f5 31 00 00 00 00 00 00 00 00 ec 65 7e 33
       7.132414e-09 0.0 0.0 5.923168e-08
0000d0 ea 1e 27 32 00 00 00 00 00 00 00 00 70 3a 73 30
       9.727708e-09 0.0 0.0 8.848593e-10
0000e0 e4 6f 37 33 00 00 00 00 bf 7a bf 32 b8 52 99 31
       4.270977e-08 0.0 2.2291145e-08 4.46229e-09
0000f0 4b 36 84 30 a7 0d 2d 30 93 27 f7 30 53 73 64 33
       9.619695e-10 6.2956435e-10 1.7982863e-09 5.3190274e-08
000100 00 00 00 00 a0 cf d3 31 f3 87 69 33 56 6a e8 31
       0.0 6.1645125e-09 5.4373185e-08 6.7641777e-09
000110 00 00 00 00 00 00 00 00 55 38 04 32 02 dc 32 34
       0.0 0.0 7.69622e-09 1.665758e-07
000120 5e 76 9b 33 00 00 00 00 00 00 00 00 00 00 00 00
       7.239281e-08 0.0 0.0 0.0
000130 00 00 00 00 04 df 0e 32 00 00 00 00 00 00 00 00
       0.0 8.316196e-09 0.0 0.0
000140 00 00 00 00 00 00 00 00 00 00 00 00 70 bc 21 33
       0.0 0.0 0.0 3.7657117e-08
000150 51 e8 95 32 c1 5e a9 32 a4 3c 5e 32 00 7d 27 31
       1.7451528e-08 1.9717278e-08 1.2935889e-08 2.4372753e-09
000160 d9 08 84 33 00 00 00 00 00 00 00 00 00 00 00 00
       6.1483384e-08 0.0 0.0 0.0
000170 00 00 00 00 00 00 00 00 00 00 00 00 65 70 4e 31
       0.0 0.0 0.0 3.0040834e-09
000180 00 00 00 00 6d 16 42 33 82 6a 8f 30 ae 9f c1 1f
       0.0 4.518954e-08 1.0434891e-09 8.200285e-20
000190 00 00 00 00 16 84 b5 33 43 49 3c 33 05 4d 93 31
       0.0 8.4524956e-08 4.3838792e-08 4.287019e-09
0001a0 a1 70 f5 18 65 10 1c 32 71 49 b3 32 06 b8 28 34
       6.344474e-24 9.084123e-09 2.087174e-08 1.5713167e-07
0001b0 00 00 00 00 c4 a9 f7 32 e0 58 6b 32 00 00 00 00
       0.0 2.8831785e-08 1.3699008e-08 0.0
0001c0 53 30 19 32 82 c3 54 32 00 00 00 00 00 00 00 00
       8.91676e-09 1.2384477e-08 0.0 0.0
0001d0 df 2e 00 32 aa c7 d4 32 00 00 00 00 5b aa ba 31
       7.461238e-09 2.4770845e-08 0.0 5.4326796e-09
0001e0 39 91 3e 32 00 00 00 00 f4 80 bc 31 00 00 00 00
       1.1092475e-08 0.0 5.4861804e-09 0.0
0001f0 71 b7 c2 31 00 00 00 00 32 3e 3d 33 08 f3 1d 32
       5.666998e-09 0.0 4.4061558e-08 9.193862e-09
000200 f7 de 60 32 00 00 00 00 69 07 b1 2a 56 40 f4 25
       1.3089212e-08 0.0 3.1446658e-13 4.2370849e-16
000210 19 6a fa 31 0a 07 73 31 04 5f a3 32 ae a3 16 32
       7.2880195e-09 3.5365155e-09 1.9018906e-08 8.768366e-09
000220 3a fe d4 19 1e 6a c3 32 00 00 00 00 7a 30 e5 2b
       2.2022968e-23 2.2749244e-08 0.0 1.6284884e-12
000230 e6 d3 dc 31 09 ea 79 30 5f 34 68 32 90 d1 94 31
       6.4269328e-09 9.0918256e-10 1.3516085e-08 4.3311914e-09
000240 14 25 1b 31 2b ce 11 32 00 00 00 00 a6 4c 9a 2f
       2.2576545e-09 8.486988e-09 0.0 2.80669e-10
000250 f7 5f a2 32 7c bf 15 30 00 00 00 00 77 79 f5 2f
       1.8902922e-08 5.4478e-10 0.0 4.4651546e-10
000260 99 b1 a7 31 0f 04 e8 2f 72 63 19 31 00 00 00 00
       4.88053e-09 4.2203438e-10 2.2320958e-09 0.0
000270 6f 56 c4 1f 00 00 00 00 eb 42 14 31 00 00 00 00
       8.315222e-20 0.0 2.1574873e-09 0.0
000280 2d ef 85 1f 00 00 00 00 00 00 00 00 00 00 00 00
       5.6723374e-20 0.0 0.0 0.0
000290 bf f8 1b 32 33 f6 56 2f 00 00 00 00 81 8a b3 30
       9.078746e-09 1.9550654e-10 0.0 1.3063329e-09
0002a0 a1 cc 47 31 3f 1f 67 29 00 00 00 00 d4 85 4a 31
       2.907463e-09 5.1319405e-14 0.0 2.9470941e-09
0002b0 00 00 00 00 f1 c0 09 32 40 96 e8 29 dd 97 c8 2b
       0.0 8.018319e-09 1.0328934e-13 1.4253005e-12
0002c0 65 70 b1 31 00 00 00 00 26 41 dc 27 a3 8d bb 31
       5.1641558e-09 0.0 6.11329e-15 5.4585185e-09
0002d0 06 23 cc 31 00 00 00 00 65 e5 62 21 c6 8a 61 30
       5.941163e-09 0.0 7.687538e-19 8.205173e-10
0002e0 77 1e bb 31 02 2e 8e 1c 32 f2 5b 31 1d 1d 5d 31
       5.4458797e-09 9.408664e-22 3.2006366e-09 3.2176282e-09
0002f0 ba 99 52 30 3f 3b 39 30 4f f3 9d 30 73 85 6f 32
       7.6616014e-10 6.73868e-10 1.1492406e-09 1.3941974e-08
000300 0a b6 a3 28 1b 08 a0 31 b2 f0 b5 31 ee f0 b5 31
       1.8175582e-14 4.6575344e-09 5.295157e-09 5.295184e-09
000310 00 00 00 00 00 00 00 00 3c 45 c7 2f f3 be 70 33
       0.0 0.0 3.6247083e-10 5.6053022e-08
000320 6f ea e0 32 b8 52 e5 2a 00 00 00 00 ff 98 ea 15
       2.618364e-08 4.073597e-13 0.0 9.475323e-26
000330 00 00 00 00 b6 5f c2 31 00 00 00 00 00 00 00 00
       0.0 5.657024e-09 0.0 0.0
000340 00 00 00 00 0b a8 2f 29 ae 8e f1 2a 7b 43 a0 31
       0.0 3.900356e-14 4.2909204e-13 4.6642845e-09
000350 d8 72 83 2f b6 b2 41 32 e4 af ce 31 90 83 35 31
       2.3910363e-10 1.1274713e-08 6.0153855e-09 2.6413751e-09
000360 ed 31 3f 32 00 00 00 00 00 00 00 00 00 00 00 00
       1.1129015e-08 0.0 0.0 0.0
000370 a5 66 82 1e 00 00 00 00 00 00 00 00 ad 3a 38 31
       1.3806738e-20 0.0 0.0 2.6808877e-09
000380 00 00 00 00 85 46 99 31 da db 0d 31 00 00 00 00
       0.0 4.460903e-09 2.0643172e-09 0.0
000390 00 00 00 00 4e b1 0f 33 6e e1 9b 32 94 7a 29 31
       0.0 3.345604e-08 1.8146888e-08 2.4662414e-09
0003a0 00 00 00 00 2c d0 c3 31 d8 a7 2f 32 db 11 20 33
       0.0 5.6989133e-09 1.0224504e-08 3.7269142e-08
0003b0 e6 60 0d 2c 54 34 6b 32 35 cb 61 2f 00 00 00 00
       2.0091095e-12 1.3690698e-08 2.0535824e-10 0.0
0003c0 2a de 9d 31 a7 f3 c3 31 04 cf 51 25 00 00 00 00
       4.5945585e-09 5.702947e-09 1.8198e-16 0.0
0003d0 c8 86 68 31 cb 83 63 32 cd d7 19 29 f9 a6 78 31
       3.3837058e-09 1.3243105e-08 3.4160002e-14 3.6183663e-09
0003e0 d4 49 e7 31 00 00 00 00 8a b2 b5 30 00 00 00 00
       6.731378e-09 0.0 1.3220227e-09 0.0
0003f0 b9 4f a0 31 00 00 00 00 e6 7d b7 32 49 4b 92 31
       4.6656763e-09 0.0 2.1361256e-08 4.257718e-09

exp_avg f4 [64]
000000 5a ab 8c 39 33 88 9b b9 d4 1d f5 b6 04 00 00 00
       0.00026830548 -0.0002966538 -7.3050414e-06 6e-45
000010 2c e1 5f b9 64 b7 b5 b9 cf c9 94 39 04 00 00 00
       -0.0002135082 -0.00034659647 0.0002837912 6e-45
000020 00 00 00 00 04 00 00 00 55 d9 94 b9 da 3b 17 b9
       0.0 6e-45 -0.00028390685 -0.00014422779
000030 11 a7 f1 38 04 00 00 00 52 20 16 39 5a 6c c9 b9
       0.00011522894 6e-45 0.00014317155 -0.00038418436
000040 04 00 00 00 57 75 15 b9 36 6d a7 b9 00 00 00 00
       6e-45 -0.0001425346 -0.0003193409 0.0
000050 4c 55 d2 38 b2 ee 6b 39 04 00 00 00 00 00 00 00
       0.00010029468 0.00022500267 6e-45 0.0
000060 04 00 00 00 aa 59 0f 37 28 b2 4f b9 00 00 00 00
       6e-45 8.544341e-06 -0.00019807427 0.0
000070 0d 64 e3 2a 04 00 00 00 ea 21 fd b7 22 06 eb b8
       4.0392724e-13 6e-45 -3.0175743e-05 -0.000112068155
000080 a9 5a 88 b8 00 00 00 00 e1 9d c2 b9 c6 f5 bf b8
       -6.501872e-05 0.0 -0.00037120192 -9.1533686e-05
000090 6a 39 35 b9 04 00 00 00 04 00 00 00 04 00 00 00
       -0.00017282894 6e-45 6e-45 6e-45
0000a0 3c 1c ac b9 4e b3 75 38 04 00 00 00 04 00 00 00
       -0.00032827433 5.8579542e-05 6e-45 6e-45
0000b0 a1 55 02 39 04 00 00 00 db 6e 96 b9 04 00 00 00
       0.00012429665 6e-45 -0.00028692823 6e-45
0000c0 0b d1 9a b9 ea 86 f2 b7 00 00 00 00 04 1c f0 b6
       -0.00029528918 -2.8911472e-05 0.0 -7.155819e-06
0000d0 04 00 00 00 04 00 00 00 00 00 00 00 04 00 00 00
       6e-45 6e-45 0.0 6e-45
0000e0 a8 c9 83 37 07 6d 1c b9 04 00 00 00 04 00 00 00
       1.571032e-05 -0.00014917935 6e-45 6e-45
0000f0 04 00 00 00 04 00 00 00 04 00 00 00 c4 21 82 b9
       6e-45 6e-45 6e-45 -0.0002482069
