001-machine_learning/data/00001-MLP-temperature/005_checkpoint.pth (torch_old, 211003 bytes, 24 tensors)

exp_avg f4 [64, 4]
00000000: 0000 0000 2366 9eb7 a793 da36 b93e c2b7
00000010: 0000 0000 3b5e 86b7 344a 3fb8 525a 18b7
00000020: 0000 0000 0000 0000 0000 0000 0000 0000
00000030: 0000 0000 0000 0000 0000 0000 0000 0000
00000040: 0000 0000 f5cb d6b8 4578 98b8 d50c a1b8
00000050: 0000 0000 e0e8 be36 228f 3139 6a66 1ab8
00000060: 0000 0000 0000 0000 0000 0000 0000 0000
00000070: 0000 0000 c545 3c39 e135 3738 9a93 5d39
00000080: 0000 0000 b2f9 83b8 af9a 27b8 a488 6eb8
00000090: 0000 0000 fe9c d3b0 fa73 80b1 fe44 a6b1
000000a0: 0000 0000 89ff e038 529c 1c39 c746 9638
000000b0: 0000 0000 0000 0000 0000 0000 0000 0000
000000c0: 0000 0000 9b1a 19b8 430a 78b8 2884 fcb7
000000d0: 0000 0000 b8b1 6838 852c 6d38 1dac 4338
000000e0: 0000 0000 6c1d 9338 9b4c 9038 5de3 8238
000000f0: 0000 0000 0000 0000 0000 0000 0000 0000
00000100: 0000 0000 bf39 2f38 d75d 4139 5a44 8d34
00000110: 0000 0000 9e38 b6b8 7322 e3b8 e4e3 80b8
00000120: 0000 0000 0b33 07b9 88d0 9ab8 3c3c 05b9
00000130: 0000 0000 6991 b1b7 9cea e8b6 a7da e136
00000140: 0000 0000 63ad c038 2ec7 df38 d588 0f38
00000150: 0000 0000 6b3c 8638 9f5d 4c38 41b0 2037
00000160: 0000 0000 fe4a a2b2 8cff f1b2 8b20 0531
00000170: 0000 0000 df97 3e39 c8c7 0439 9e13 6138
00000180: 0000 0000 9f5f d0b8 825c 61b8 1497 8eb8
00000190: 0000 0000 05dd 8038 5321 9f38 96bc 4138
000001a0: 0000 0000 0000 0000 0000 0000 0000 0000
000001b0: 0000 0000 0000 0000 0000 0000 0000 0000
000001c0: 0000 0000 3cc9 ac37 858b a836 8155 83b6
000001d0: 0000 0000 cc9d 1fb7 cd71 03b7 f6d3 2db7
000001e0: 0000 0000 5b07 9bb7 b285 14b8 5bed b4b7
000001f0: 0000 0000 9171 b2b7 ac04 cab6 6e9a 2fb7
00000200: 0000 0000 0000 0000 0000 0000 0000 0000
00000210: 0000 0000 d89e 1538 9a44 0439 96d7 8837
00000220: 0000 0000 0000 0000 0000 0000 0000 0000
00000230: 0000 0000 1878 2f35 521c 2935 49a2 7334
00000240: 0000 0000 772d 4137 6fde 8637 9b33 a335
00000250: 0000 0000 681a 75b8 3a7a 84b8 9f6a 32b8
00000260: 0000 0000 2ae2 e0b2 e5d1 99b3 7278 d3b3
00000270: 0000 0000 ff6a b2b7 46d9 9fb7 4c55 ffb5
00000280: 0000 0000 0000 0000 0000 0000 0000 0000
00000290: 0000 0000 8832 bbb8 e054 a0b8 ad64 69b8
000002a0: 0000 0000 4d77 2cb8 8391 2db8 8717 fcb7
000002b0: 0000 0000 4fe1 bbb7 7ce9 3bb8 576a 7cb7
000002c0: 0000 0000 ef20 6a38 feba 5938 96f0 b837
000002d0: 0000 0000 9ed9 8539 254b 0e39 f52a 8039
000002e0: 0000 0000 5a79 93b8 9e3c a8b8 4933 2db8
000002f0: 0000 0000 c15c 1438 69ae 3438 a985 9b37
00000300: 0000 0000 9b83 4f2f 2d4e 93b1 a9a0 60b0
00000310: 0000 0000 c41e 1338 6d04 1038 d687 9837
00000320: 0000 0000 c8be 0838 5344 8038 97e9 6737
00000330: 0000 0000 32f4 4bb8 5788 c1b7 bc6b 48b8
00000340: 0000 0000 3c8c f837 1b45 4a38 294d 2838
00000350: 0000 0000 2fcb 2337 818e 0937 2849 ee37
00000360: 0000 0000 6ba9 e42e 7e5d c5b0 c755 8f2f
00000370: 0000 0000 d7a1 2539 0e79 0139 5ca5 1339
00000380: 0000 0000 d577 2938 714e 3238 f44a 2a38
00000390: 0000 0000 0000 0000 0000 0000 0000 0000
000003a0: 0000 0000 0000 0000 0000 0000 0000 0000
000003b0: 0000 0000 942a a037 2c87 b438 f6b1 5836
000003c0: 0000 0000 3522 4ab9 63ba abb8 b882 4db9
000003d0: 0000 0000 9dbf 1638 0acc 6e38 6ce2 80b7
000003e0: 0000 0000 980d 0c38 7a64 2e37 359c 0138
000003f0: 0000 0000 a564 56b8 f8ca 20b8 68c4 22b8
0.0 -1.8882629e-05 6.5140953e-06 -2.315581e-05 0.0 -1.6017924e-05 -4.5607056e-05 -9.080935e-06
0.0 0.0 0.0 0.0 0.0 0.0 0.0 0.0
0.0 -0.00010242305 -7.270327e-05 -7.6794684e-05 0.0 5.6895515e-06 0.00016933357 -3.681184e-05
0.0 0.0 0.0 0.0 0.0 0.00017955068 4.368078e-05 0.00021131188
0.0 -6.293076e-05 -3.9959963e-05 -5.687088e-05 0.0 -1.539689e-09 -3.7384753e-09 -4.8390794e-09
0.0 0.000107287495 0.00014935553 7.165741e-05 0.0 0.0 0.0 0.0
0.0 -3.650282e-05 -5.9137365e-05 -3.0102281e-05 0.0 5.5478624e-05 5.6546665e-05 4.6651916e-05
0.0 7.0149865e-05 6.880724e-05 6.241233e-05 0.0 0.0 0.0 0.0
0.0 4.177703e-05 0.00018440872 2.631303e-07 0.0 -8.688982e-05 -0.0001083062 -6.1459636e-05
0.0 -0.00012893618 -7.382134e-05 -0.00012706307 0.0 -2.1167756e-05 -6.941451e-06 6.730977e-06
0.0 9.187569e-05 0.00010670569 3.422129e-05 0.0 6.400872e-05 4.872458e-05 9.5777805e-06
0.0 -1.8893385e-08 -2.8172302e-08 1.9372546e-09 0.0 0.00018176388 0.00012662925 5.366245e-05
0.0 -9.936024e-05 -5.3730335e-05 -6.799228e-05 0.0 6.144684e-05 7.587918e-05 4.619042e-05
0.0 0.0 0.0 0.0 0.0 0.0 0.0 0.0
0.0 2.0597705e-05 5.0230324e-06 -3.914058e-06 0.0 -9.5138785e-06 -7.834705e-06 -1.0360955e-05
0.0 -1.8480865e-05 -3.5410463e-05 -2.15682e-05 0.0 -2.1272137e-05 -6.020613e-06 -1.0466769e-05
0.0 0.0 0.0 0.0 0.0 3.5672303e-05 0.00012614057 1.6312853e-05
0.0 0.0 0.0 0.0 0.0 6.536734e-07 6.299862e-07 2.2690178e-07
0.0 1.1514282e-05 1.6077624e-05 1.2159466e-06 0.0 -5.8437145e-05 -6.317017e-05 -4.2537806e-05
0.0 -2.617988e-08 -7.162797e-08 -9.847362e-08 0.0 -2.1269077e-05 -1.9055453e-05 -1.9023805e-06
0.0 0.0 0.0 0.0 0.0 -8.926267e-05 -7.645204e-05 -5.564529e-05
0.0 -4.1119103e-05 -4.1381933e-05 -3.0051697e-05 0.0 -2.2397055e-05 -4.4801724e-05 -1.504513e-05
0.0 5.582062e-05 5.191098e-05 2.204654e-05 0.0 0.00025529874 0.00013570169 0.00024446068
0.0 -7.03211e-05 -8.022155e-05 -4.1294177e-05 0.0 3.5372334e-05 4.3077776e-05 1.853968e-05
0.0 1.8873296e-10 -4.2871506e-09 -8.1719037e-10 0.0 3.5076184e-05 3.4336397e-05 1.8183066e-05
0.0 3.2602606e-05 6.116242e-05 1.382306e-05 0.0 -4.8626396e-05 -2.3070881e-05 -4.778405e-05
0.0 2.9629206e-05 4.8224912e-05 4.0126182e-05 0.0 9.7628645e-06 8.199016e-06 2.8405877e-05
0.0 1.0398334e-10 -1.4360209e-09 2.6072497e-10 0.0 0.00015795916 0.00012347495 0.00014080614
0.0 4.0404342e-05 4.251156e-05 4.0600964e-05 0.0 0.0 0.0 0.0
0.0 0.0 0.0 0.0 0.0 1.9093313e-05 8.6082466e-05 3.2290095e-06
0.0 -0.00019276964 -8.188633e-05 -0.0001959902 0.0 3.594124e-05 5.6933648e-05 -1.5364225e-05
0.0 3.339126e-05 1.0394602e-05 3.0901476e-05 0.0 -5.111531e-05 -3.8336002e-05 -3.8806727e-05

exp_avg_sq f4 [64, 4]
00000000: 0000 0000 8da9 cb33 0fd7 bb33 ef64 1334
00000010: 0000 0000 7715 5534 b659 b134 2910 c734
00000020: 0000 0000 0000 0000 0000 0000 0000 0000
00000030: 0000 0000 0000 0000 0000 0000 0000 0000
00000040: 0000 0000 a2ae 0a34 9331 8e34 7749 8e34
00000050: 0000 0000 1418 3b36 ac4e 9336 ddee af36
00000060: 0000 0000 0000 0000 0000 0000 0000 0000
00000070: 0000 0000 e869 8434 f8b0 1e35 1c85 1d35
00000080: 0000 0000 dcd9 af33 aa6b b532 ca39 d933
00000090: 0000 0000 d663 6f2e 8214 a531 a267 6831
000000a0: 0000 0000 5f4c 0736 256b 6136 7e61 8336
000000b0: 0000 0000 0000 0000 0000 0000 0000 0000
000000c0: 0000 0000 d14c aa34 d909 0c35 9166 1335
000000d0: 0000 0000 e24f 0834 c07a 9f34 c40c 8734
000000e0: 0000 0000 2650 da33 1a74 6434 6238 3334
000000f0: 0000 0000 0000 0000 0000 0000 0000 0000
00000100: 0000 0000 bdff 2b36 5396 8b36 5cd7 a336
00000110: 0000 0000 25f7 1f35 dd40 b834 070f 5a35
00000120: 0000 0000 2c89 4134 501d 1135 3ed4 cd34
00000130: 0000 0000 0212 fb32 26b5 a934 3b4b 4334
00000140: 0000 0000 bc4d 2b35 6ed8 9f35 fafd a735
00000150: 0000 0000 529d 0234 45d5 9833 8df0 4234
00000160: 0000 0000 c417 b72f f6b1 f831 1f84 d12f
00000170: 0000 0000 4b50 5a35 7e2c b434 8029 9335
00000180: 0000 0000 96e2 9033 bc6e 9832 51fd 9333
00000190: 0000 0000 b67a 6434 d90d db34 3386 d534
000001a0: 0000 0000 0000 0000 0000 0000 0000 0000
000001b0: 0000 0000 0000 0000 0000 0000 0000 0000
000001c0: 0000 0000 d4b5 8b32 8726 1334 798c a033
000001d0: 0000 0000 e589 f832 dfe8 8234 0997 1c34
000001e0: 0000 0000 83ab 5834 68b8 c934 b912 d834
000001f0: 0000 0000 5a52 4a33 425e 5b32 09c4 7533
00000200: 0000 0000 0000 0000 0000 0000 0000 0000
00000210: 0000 0000 c456 e835 fb9c 4336 de56 6236
00000220: 0000 0000 0000 0000 0000 0000 0000 0000
00000230: 0000 0000 a224 3832 12b0 9133 d87a 0633
00000240: 0000 0000 4eff 0d33 4d5e 9a32 c154 2d33
00000250: 0000 0000 d050 8434 9ef2 e534 e80c fe34
00000260: 0000 0000 67a1 bb31 e7d7 0434 6983 6233
00000270: 0000 0000 56d8 ae33 4b2a 2e35 052f d534
00000280: 0000 0000 0000 0000 0000 0000 0000 0000
00000290: 0000 0000 0137 3e34 1d81 0334 4aa0 8634
000002a0: 0000 0000 59d1 4434 d9e2 8434 904e 8b34
000002b0: 0000 0000 077b 3b34 fe9d 2f34 9e51 9a34
000002c0: 0000 0000 b32b e433 9c7f 6734 4b07 6634
000002d0: 0000 0000 150b e634 2205 9435 8e57 7a35
000002e0: 0000 0000 1b93 a134 323e 0d35 729f 1c35
000002f0: 0000 0000 d242 0834 6f34 1c34 fc89 6034
00000300: 0000 0000 51a1 7a2f 99e3 b132 b1e8 c531
00000310: 0000 0000 8c38 1033 35d0 9732 f40f 3833
00000320: 0000 0000 a6e7 a434 0ecc 1c35 ff91 1f35
00000330: 0000 0000 140d 0332 3c0b 7332 419d f231
00000340: 0000 0000 2af7 8034 9948 b234 e27d c734
00000350: 0000 0000 47c1 5833 9ca4 e934 7525 8d34
00000360: 0000 0000 dedb 022b 53ca 8b30 3e68 242f
00000370: 0000 0000 9930 fe33 6317 ec32 438c 5033
00000380: 0000 0000 39b0 9033 7f33 fd33 f893 cf33
00000390: 0000 0000 0000 0000 0000 0000 0000 0000
000003a0: 0000 0000 0000 0000 0000 0000 0000 0000
000003b0: 0000 0000 eb74 5735 41a8 be35 51c0 d635
000003c0: 0000 0000 9bd2 d334 3c60 3935 853b 5c35
000003d0: 0000 0000 d0fe ce34 1a5d 5035 e1e0 4735
000003e0: 0000 0000 db00 ce31 97a6 e02f 55ed fc31
000003f0: 0000 0000 e3fa 5533 afe9 9533 37b8 bd33
0.0 9.483765e-08 8.746985e-08 1.3727161e-07 0.0 1.984498e-07 3.3034092e-07 3.7078397e-07
0.0 0.0 0.0 0.0 0.0 0.0 0.0 0.0
0.0 1.2915783e-07 2.648563e-07 2.6503014e-07 0.0 2.7879187e-06 4.3901e-06 5.2432138e-06
0.0 0.0 0.0 0.0 0.0 2.4663973e-07 5.911711e-07 5.868076e-07
0.0 8.188701e-08 2.1120133e-08 1.0115362e-07 0.0 5.443098e-11 4.8044635e-09 3.3819352e-09
0.0 2.0161021e-06 3.358998e-06 3.915454e-06 0.0 0.0 0.0 0.0
0.0 3.172086e-07 5.2168394e-07 5.491102e-07 0.0 1.2695048e-07 2.970537e-07 2.5154998e-07
0.0 1.0165995e-07 2.1276392e-07 1.6691186e-07 0.0 0.0 0.0 0.0
0.0 2.5629845e-06 4.160023e-06 4.8828497e-06 0.0 5.959176e-07 3.4319865e-07 8.1233196e-07
0.0 1.8024429e-07 5.4059365e-07 3.8338652e-07 0.0 2.9228435e-08 3.1610506e-07 1.8188159e-07
0.0 6.381558e-07 1.1909412e-06 1.2516387e-06 0.0 1.2164426e-07 7.116845e-08 1.815517e-07
0.0 3.3304393e-10 7.2379818e-09 3.8110756e-10 0.0 8.132817e-07 3.3559985e-07 1.0964432e-06
0.0 6.746738e-08 1.7745485e-08 6.891299e-08 0.0 2.1278797e-07 4.0802004e-07 3.9771984e-07
0.0 0.0 0.0 0.0 0.0 0.0 0.0 0.0
0.0 1.6264416e-08 1.3704458e-07 7.4761324e-08 0.0 2.8933707e-08 2.4383823e-07 1.4583578e-07
0.0 2.0178963e-07 3.757334e-07 4.0246758e-07 0.0 4.710669e-08 1.27689095e-08 5.72218e-08
0.0 0.0 0.0 0.0 0.0 1.7310599e-06 2.914864e-06 3.3727188e-06
0.0 0.0 0.0 0.0 0.0 1.0718539e-08 6.784116e-08 3.1311032e-08
0.0 3.306132e-08 1.7970843e-08 4.0356785e-08 0.0 2.4645715e-07 4.28311e-07 4.7320577e-07
0.0 5.4607656e-09 1.2372003e-07 5.2739242e-08 0.0 8.141858e-08 6.4881596e-07 3.9708553e-07
0.0 0.0 0.0 0.0 0.0 1.7715139e-07 1.2247297e-07 2.507607e-07
0.0 1.8330083e-07 2.475197e-07 2.594793e-07 0.0 1.7460489e-07 1.6355622e-07 2.874412e-07
0.0 1.0625026e-07 2.1559975e-07 2.1423072e-07 0.0 4.2848902e-07 1.1028353e-06 9.3259666e-07
0.0 3.009562e-07 5.26171e-07 5.834655e-07 0.0 1.2690296e-07 1.4547707e-07 2.0911824e-07
0.0 2.2794679e-10 2.0709011e-08 5.7599086e-09 0.0 3.357904e-08 1.7673395e-08 4.2855348e-08
0.0 3.0715927e-07 5.841147e-07 5.944457e-07 0.0 7.628177e-09 1.4147016e-08 7.0610047e-09
0.0 2.4021693e-07 3.3207905e-07 3.715823e-07 0.0 5.0467204e-08 4.35194e-07 2.629055e-07
0.0 4.6490405e-13 1.0171085e-09 1.4952747e-10 0.0 1.18366366e-07 2.7484651e-08 4.855634e-08
0.0 6.737577e-08 1.1790598e-07 9.666104e-08 0.0 0.0 0.0 0.0
0.0 0.0 0.0 0.0 0.0 8.026388e-07 1.4205071e-06 1.6000214e-06
0.0 3.9455048e-07 6.905791e-07 8.2043e-07 0.0 3.855589e-07 7.762152e-07 7.446052e-07
0.0 5.9954863e-09 4.0863732e-10 7.361147e-09 0.0 4.9821107e-08 6.98086e-08 8.834507e-08

exp_avg f4 [64]
00000000: 9e35 8fb7 1d3e 0bb7 0000 0000 0000 0000
00000010: 1ff7 ccb8 889d cdb7 0000 0000 18ed 3839
00000020: adaa 6fb8 458d 0cb2 2d0f b138 0000 0000
00000030: 09ed 04b8 c07d 5e38 1c4b 8d38 0000 0000
00000040: fdd8 6637 8f58 a3b8 751a 02b9 9191 bab7
00000050: 6112 b338 ef6b 8038 97f7 51b3 f9c1 3b39
00000060: 2182 ccb8 6a44 6b38 0000 0000 0000 0000
00000070: bf04 af37 f51d 3cb7 3570 3eb7 c971 97b7
00000080: 0000 0000 a075 7537 0000 0000 096e 0535
00000090: 0329 1e37 6ac1 4bb8 fa79 d8b3 3da8 c9b7
000000a0: 0000 0000 1351 adb8 86d1 26b8 052a 7cb7
000000b0: d012 6638 7b6b 8239 79f8 84b8 5919 f337
000000c0: 9b7c fcb1 61bf 0c38 7945 d437 51cd 4ab8
000000d0: 0795 e637 717c 0e37 ed38 04b1 2b2b 2a39
000000e0: ac4e 2138 0000 0000 0000 0000 eebf 9d36
000000f0: b9cb 50b9 09a7 0438 863d 0d38 934e 42b8
-1.7071896e-05 -8.2995075e-06 0.0 0.0 -9.773508e-05 -2.451126e-05 0.0 0.00017635932
-5.7140995e-05 -8.1811935e-09 8.4428444e-05 0.0 -3.169201e-05 5.304604e-05 6.737394e-05 0.0
1.375959e-05 -7.788941e-05 -0.00012407622 -2.2240712e-05 8.5388085e-05 6.12362e-05 -4.8886786e-08 0.0001790597
-9.7517164e-05 5.609208e-05 0.0 0.0 2.0863836e-05 -1.1212648e-05 -1.1351008e-05 -1.8053588e-05
0.0 1.4630525e-05 0.0 4.9706483e-07 9.427083e-06 -4.8579102e-05 -1.0080471e-07 -2.403941e-05
0.0 -8.264384e-05 -3.9772618e-05 -1.5030154e-05 5.4853794e-05 0.0002487561 -6.340532e-05 2.897966e-05
-7.3483313e-09 3.3556837e-05 2.530472e-05 -4.835177e-05 2.7487533e-05 8.492833e-06 -1.9240887e-09 0.00016228545
3.845866e-05 0.0 0.0 4.701308e-06 -0.00019912318 3.1626816e-05 3.3674318e-05 -4.6326382e-05

exp_avg_sq f4 [64]
00000000: 619b 9734 55dc 6735 0000 0000 0000 0000
00000010: e1e2 3035 3afa 3b37 0000 0000 a4c3 cd35
00000020: e3fe f533 ca4a 8b32 a045 1037 0000 0000
00000030: 602d c335 6ab6 5635 743b 2d35 0000 0000
00000040: 7618 3137 ef2e c335 c34a b635 41e7 3035
00000050: d16b 4736 09ad 9834 05d2 f932 e98d c535
00000060: c3dc ee33 fdf2 9435 0000 0000 0000 0000
00000070: 187e a834 5401 0235 2c12 7b35 b610 9b33
00000080: 0000 0000 d8a7 f936 0000 0000 7527 7634
00000090: 9edd 9e33 3d56 9135 3c82 8e34 61a9 c035
000000a0: 0000 0000 1772 d334 9a6e 5835 89dc 0d35
000000b0: 5a73 1435 bf4c 1c36 9c24 b635 665b d934
000000c0: 2553 2333 9bad 8f33 4b9f cd35 b396 4233
000000d0: a259 7835 85cc 8435 9f56 a830 3b61 4534
000000e0: be0e ce34 0000 0000 0000 0000 3d96 7036
000000f0: 028f f735 2430 0b36 0381 1332 cb39 4034
2.8238995e-07 8.637483e-07 0.0 0.0 6.589526e-07 1.1204329e-05 0.0 1.5330629e-06
1.1455065e-07 1.621574e-08 8.59928e-06 0.0 1.4541838e-06 7.998666e-07 6.453404e-07 0.0
1.0555717e-05 1.4542292e-06 1.3581815e-06 6.590163e-07 2.9716068e-06 2.8438106e-07 2.9082921e-08 1.4718945e-06
1.1122895e-07 1.1097578e-06 0.0 0.0 3.1384184e-07 4.8430707e-07 9.353123e-07 7.22079e-08
0.0 7.440318e-06 0.0 2.292489e-07 7.39776e-08 1.082844e-06 2.654432e-07 1.435441e-06
0.0 3.9384824e-07 8.0627217e-07 5.2847514e-07 5.5302155e-07 2.3290484e-06 1.3570711e-06 4.04859e-07
3.8027014e-08 6.690535e-08 1.5320051e-06 4.5306205e-08 9.251763e-07 9.894289e-07 1.2248228e-09 1.8382427e-07
3.8381216e-07 0.0 0.0 3.5850237e-06 1.8444555e-06 2.0740636e-06 8.58586e-09 1.7902418e-07

exp_avg f4 [128, 64]
00000000: 891e 5437 b6c3 9837 0000 0000 0000 0000
00000010: a449 f136 6c9d 1935 0000 0000 9f10 9036
00000020: a04d 85b5 4353 682e 7f8c 8bb6 0000 0000
00000030: 53ec 8337 dc86 f637 5984 6937 0000 0000
00000040: 2fe4 d835 4205 f836 3b94 a935 04c0 ba32
00000050: dc98 cf36 0cea 8bb5 3c3a 1a30 ee87 68b5
00000060: efcc 2c37 1719 fb36 0000 0000 0000 0000
00000070: d77d 4134 f83c 98b2 d987 8237 6d4b 1936
00000080: 0000 0000 f8b8 36b6 0000 0000 461f 1833
00000090: 0479 0537 eb49 9737 1997 d531 9462 bf34
000000a0: 0000 0000 35e1 0e37 3af9 1c37 8910 f936
000000b0: 8d9b 74b5 6ac5 6036 c81b d637 1717 bc33
000000c0: 20ec 8231 5962 d836 1258 7037 2510 1737
000000d0: 908b 8537 ba9f 1336 1519 11ae 373e eb36
000000e0: 1296 8737 0000 0000 0000 0000 f467 f4b3
000000f0: 9c67 a1b6 31a1 ceb5 287e 4fb6 756a ea37
00000100: 162d 9ab6 04fc dcb6 0000 0000 0000 0000
00000110: b62b f7b5 a543 09b5 0000 0000 b582 9ab5
00000120: 5690 d3b3 8934 9bae 0f5a bd35 0000 0000
00000130: 0e6e aeb6 b498 4bb7 5eaf beb6 0000 0000
00000140: 86a1 15b5 09fe 52b6 60c4 9a35 9394 3336
00000150: b2db aab5 f3e0 3536 c749 7130 1413 6436
00000160: 4c2a 7db6 e383 33b6 0000 0000 0000 0000
00000170: 838f c435 fbd1 6c30 6d11 abb6 d001 afb5
00000180: 0000 0000 7cd6 2036 0000 0000 8ef2 2032
00000190: c6fd 2cb6 ddad eab6 db28 13b1 7c00 3736
000001a0: 0000 0000 8df2 43b6 dda6 4eb6 c038 63b6
000001b0: b2c1 a635 444c 0d35 27df 21b7 ab4f 2bb4
000001c0: 106d e3b0 fc45 9ab5 82eb bab6 e1fe 7bb6
000001d0: 833c d8b6 4c3a dd35 ee6e 442e b553 36b6
000001e0: 5555 d5b6 0000 0000 0000 0000 bd33 c735
000001f0: b3ca 2536 6eab 3736 d6bd 0536 348c 35b7
00000200: 0000 0000 0000 0000 0000 0000 0000 0000
00000210: 0000 0000 0000 0000 0000 0000 0000 0000
00000220: 0000 0000 0000 0000 0000 0000 0000 0000
00000230: 0000 0000 0000 0000 0000 0000 0000 0000
00000240: 0000 0000 0000 0000 0000 0000 0000 0000
00000250: 0000 0000 0000 0000 0000 0000 0000 0000
00000260: 0000 0000 0000 0000 0000 0000 0000 0000
00000270: 0000 0000 0000 0000 0000 0000 0000 0000
00000280: 0000 0000 0000 0000 0000 0000 0000 0000
00000290: 0000 0000 0000 0000 0000 0000 0000 0000
000002a0: 0000 0000 0000 0000 0000 0000 0000 0000
000002b0: 0000 0000 0000 0000 0000 0000 0000 0000
000002c0: 0000 0000 0000 0000 0000 0000 0000 0000
000002d0: 0000 0000 0000 0000 0000 0000 0000 0000
000002e0: 0000 0000 0000 0000 0000 0000 0000 0000
000002f0: 0000 0000 0000 0000 0000 0000 0000 0000
00000300: 0000 0000 0000 0000 0000 0000 0000 0000
00000310: 0000 0000 0000 0000 0000 0000 0000 0000
00000320: 0000 0000 0000 0000 0000 0000 0000 0000
00000330: 0000 0000 0000 0000 0000 0000 0000 0000
00000340: 0000 0000 0000 0000 0000 0000 0000 0000
00000350: 0000 0000 0000 0000 0000 0000 0000 0000
00000360: 0000 0000 0000 0000 0000 0000 0000 0000
00000370: 0000 0000 0000 0000 0000 0000 0000 0000
00000380: 0000 0000 0000 0000 0000 0000 0000 0000
00000390: 0000 0000 0000 0000 0000 0000 0000 0000
000003a0: 0000 0000 0000 0000 0000 0000 0000 0000
000003b0: 0000 0000 0000 0000 0000 0000 0000 0000
000003c0: 0000 0000 0000 0000 0000 0000 0000 0000
000003d0: 0000 0000 0000 0000 0000 0000 0000 0000
000003e0: 0000 0000 0000 0000 0000 0000 0000 0000
000003f0: 0000 0000 0000 0000 0000 0000 0000 0000
1.2643294e-05 1.8210947e-05 0.0 0.0 7.1909326e-06 5.722602e-07 0.0 4.2934694e-06
-9.931864e-07 5.2824644e-11 -4.1588787e-06 0.0 1.5726464e-05 2.9388284e-05 1.3918697e-05 0.0
1.6159664e-06 7.391588e-06 1.2634622e-06 2.1740568e-08 6.186876e-06 -1.0424424e-06 5.610763e-10 -8.662454e-07
1.0299714e-05 7.4833038e-06 0.0 0.0 1.8020306e-07 -1.7722854e-08 1.5560467e-05 2.284268e-06
0.0 -2.722778e-06 0.0 3.54187e-08 7.955594e-06 1.8035023e-05 6.2162937e-09 3.5648247e-07
0.0 8.516295e-06 9.356352e-06 7.422703e-06 -9.112344e-07 3.3493511e-06 2.5523725e-05 8.758632e-08
3.8103423e-09 6.448751e-06 1.432562e-05 9.00406e-06 1.5919824e-05 2.199768e-06 -3.299146e-11 7.0107885e-06
1.6163136e-05 0.0 0.0 -1.13810444e-07 -4.8102356e-06 -1.5395109e-06 -3.0918836e-06 2.7944547e-05
-4.5948063e-06 -6.5858494e-06 0.0 0.0 -1.8415656e-06 -5.113491e-07 0.0 -1.1511935e-06
-9.851708e-08 -7.057916e-11 1.4107808e-06 0.0 -5.198416e-06 -1.2135297e-05 -5.6828567e-06 0.0
-5.5741873e-07 -3.1440306e-06 1.1531047e-06 2.675956e-06 -1.2729927e-06 2.710204e-06 8.7780133e-10 3.3985752e-06
-3.7724558e-06 -2.6749847e-06 0.0 0.0 1.4644905e-06 8.61547e-10 -5.0982258e-06 -1.3039044e-06
0.0 2.3966704e-06 0.0 9.368376e-09 -2.5777713e-06 -6.993984e-06 -2.141454e-09 2.7269407e-06
0.0 -2.9198447e-06 -3.079352e-06 -3.3858669e-06 1.2424337e-06 5.2637574e-07 -9.6483045e-06 -1.5954599e-07
-1.6547421e-09 -1.1494262e-06 -5.5706487e-06 -3.7550274e-06 -6.444346e-06 1.648275e-06 4.4663766e-11 -2.7168837e-06
-6.3578286e-06 0.0 0.0 1.4841713e-06 2.4704902e-06 2.736891e-06 1.9929043e-06 -1.0821084e-05
0.0 0.0 0.0 0.0 0.0 0.0 0.0 0.0
0.0 0.0 0.0 0.0 0.0 0.0 0.0 0.0
0.0 0.0 0.0 0.0 0.0 0.0 0.0 0.0
0.0 0.0 0.0 0.0 0.0 0.0 0.0 0.0
0.0 0.0 0.0 0.0 0.0 0.0 0.0 0.0
0.0 0.0 0.0 0.0 0.0 0.0 0.0 0.0
0.0 0.0 0.0 0.0 0.0 0.0 0.0 0.0
0.0 0.0 0.0 0.0 0.0 0.0 0.0 0.0
0.0 0.0 0.0 0.0 0.0 0.0 0.0 0.0
0.0 0.0 0.0 0.0 0.0 0.0 0.0 0.0
0.0 0.0 0.0 0.0 0.0 0.0 0.0 0.0
0.0 0.0 0.0 0.0 0.0 0.0 0.0 0.0
0.0 0.0 0.0 0.0 0.0 0.0 0.0 0.0
0.0 0.0 0.0 0.0 0.0 0.0 0.0 0.0
0.0 0.0 0.0 0.0 0.0 0.0 0.0 0.0
0.0 0.0 0.0 0.0 0.0 0.0 0.0 0.0

exp_avg_sq f4 [128, 64]
00000000: 0b8b 8732 5e2d 1632 0000 0000 0000 0000
00000010: 70b8 9631 1792 ed30 0000 0000 5bc7 0c31
00000020: 45d3 ce2f 7a37 982c 4a20 ca30 0000 0000
00000030: 6336 b332 c8d6 de33 1e12 0233 0000 0000
00000040: f562 1631 d58f 5630 9806 7c31 aeff ff30
00000050: 1d7b 1631 a220 1231 2c38 bc2d e9cf 8a30
00000060: d859 1131 0588 3432 0000 0000 0000 0000
00000070: 7c4a 0032 b8b7 ce30 5c57 8a31 86d4 fa30
00000080: 0000 0000 c0a7 bb30 0000 0000 a6c0 4331
00000090: 3cdc df32 bc0c 8232 cc62 e430 b2bb 5531
000000a0: 0000 0000 088e 8a30 0f6a ac32 f1b3 dc30
000000b0: ceb1 b831 39b7 a330 fcb6 0633 22a0 2531
000000c0: e23b c72f 6799 1433 f47f 1a33 b129 a031
000000d0: 41cf ab32 179d 9230 3ebd 0c2b efb7 242e
000000e0: 0683 9233 0000 0000 0000 0000 3264 4630
000000f0: bc7a f430 c3d2 ba31 fba0 1e2e eb2c 7f33
00000100: 6e09 7d31 a099 c831 0000 0000 0000 0000
00000110: cc95 0731 f978 b22f 0000 0000 1c5c 6231
00000120: c711 3e2f 8056 742b 066c 982f 0000 0000
00000130: 910d 5f32 3198 0333 bfe6 4432 0000 0000
00000140: 843f e42f 65b8 3d30 6ed9 0931 781d 1d31
00000150: efd5 f22f 61c4 0b30 626a cb2e b8ca 8b2f
00000160: 8af6 2e30 451f 4e31 0000 0000 0000 0000
00000170: 6e03 a131 ce89 c42f df8d ed30 a6bf 0730
00000180: 0000 0000 57d6 962f 0000 0000 d9f6 9d30
00000190: a0aa 3932 e2d6 bf31 dda0 7330 5528 7531
000001a0: 0000 0000 1084 9d2f c145 3232 8a08 b830
000001b0: cb5e c530 46f0 862f eee3 8a32 06e7 5e30
000001c0: 1cf6 222f 428d 8d32 590e 2232 4b4a aa30
000001d0: 5d00 9731 18b5 3231 299a bb2a 84aa 802f
000001e0: 18b2 bb32 0000 0000 0000 0000 733e 2d2f
000001f0: d123 0730 7c4d b230 6b4f bf2d 4415 c632
00000200: 0000 0000 0000 0000 0000 0000 0000 0000
00000210: 0000 0000 0000 0000 0000 0000 0000 0000
00000220: 0000 0000 0000 0000 0000 0000 0000 0000
00000230: 0000 0000 0000 0000 0000 0000 0000 0000
00000240: 0000 0000 0000 0000 0000 0000 0000 0000
00000250: 0000 0000 0000 0000 0000 0000 0000 0000
00000260: 0000 0000 0000 0000 0000 0000 0000 0000
00000270: 0000 0000 0000 0000 0000 0000 0000 0000
00000280: 0000 0000 0000 0000 0000 0000 0000 0000
00000290: 0000 0000 0000 0000 0000 0000 0000 0000
000002a0: 0000 0000 0000 0000 0000 0000 0000 0000
000002b0: 0000 0000 0000 0000 0000 0000 0000 0000
000002c0: 0000 0000 0000 0000 0000 0000 0000 0000
000002d0: 0000 0000 0000 0000 0000 0000 0000 0000
000002e0: 0000 0000 0000 0000 0000 0000 0000 0000
000002f0: 0000 0000 0000 0000 0000 0000 0000 0000
00000300: 0000 0000 0000 0000 0000 0000 0000 0000
00000310: 0000 0000 0000 0000 0000 0000 0000 0000
00000320: 0000 0000 0000 0000 0000 0000 0000 0000
00000330: 0000 0000 0000 0000 0000 0000 0000 0000
00000340: 0000 0000 0000 0000 0000 0000 0000 0000
00000350: 0000 0000 0000 0000 0000 0000 0000 0000
00000360: 0000 0000 0000 0000 0000 0000 0000 0000
00000370: 0000 0000 0000 0000 0000 0000 0000 0000
00000380: 0000 0000 0000 0000 0000 0000 0000 0000
00000390: 0000 0000 0000 0000 0000 0000 0000 0000
000003a0: 0000 0000 0000 0000 0000 0000 0000 0000
000003b0: 0000 0000 0000 0000 0000 0000 0000 0000
000003c0: 0000 0000 0000 0000 0000 0000 0000 0000
000003d0: 0000 0000 0000 0000 0000 0000 0000 0000
000003e0: 0000 0000 0000 0000 0000 0000 0000 0000
000003f0: 0000 0000 0000 0000 0000 0000 0000 0000
1.5779298e-08 8.741464e-09 0.0 0.0 4.3865427e-09 1.7285541e-09 0.0 2.0486002e-09
3.7621298e-10 4.326259e-12 1.4706611e-09 0.0 2.0863075e-08 1.0376749e-07 3.028446e-08 0.0
2.1884123e-09 7.8057144e-10 3.6674574e-09 1.862636e-09 2.1897855e-09 2.1264346e-09 2.139807e-11 1.0099913e-09
2.1151347e-09 1.0508306e-08 0.0 0.0 7.467516e-09 1.5040689e-09 4.02626e-09 1.8250297e-09
0.0 1.3653718e-09 0.0 2.8485743e-09 2.6060768e-08 1.5139783e-08 1.6617263e-09 3.1102272e-09
0.0 1.0081189e-09 2.0071665e-08 1.6058249e-09 5.375319e-09 1.1911886e-09 3.136573e-08 2.4101685e-09
3.6240438e-10 3.4598454e-08 3.5972292e-08 4.6613526e-09 2.0001268e-08 1.0667546e-09 5.000062e-13 3.745265e-11
6.822488e-08 0.0 0.0 7.2174366e-10 1.778822e-09 5.4372733e-09 3.606802e-11 5.9412667e-08
3.6821706e-09 5.8382312e-09 0.0 0.0 1.9730235e-09 3.2463968e-10 0.0 3.2939687e-09
1.7286715e-10 8.6806257e-13 2.7725394e-10 0.0 1.2983393e-08 3.063923e-08 1.1461167e-08 0.0
4.151809e-10 6.901984e-10 2.0059718e-09 2.2863258e-09 4.4171553e-10 5.0846977e-10 9.2502686e-11 2.5427993e-10
6.3651184e-10 2.999472e-09 0.0 0.0 4.6861066e-09 3.5750108e-10 1.7284342e-09 4.938506e-10
0.0 2.743714e-10 0.0 1.1493412e-09 1.0807213e-08 5.583261e-09 8.8631485e-10 3.5675118e-09
0.0 2.865197e-10 1.0376824e-08 1.3390189e-09 1.4360578e-09 2.4545183e-10 1.6168965e-08 8.1091434e-10
1.482125e-10 1.6478797e-08 9.432903e-09 1.2390243e-09 4.3947197e-09 2.600535e-09 3.3324843e-13 2.3404223e-10
2.1850653e-08 0.0 0.0 1.5756445e-10 4.916361e-10 1.2973227e-09 2.1749455e-11 2.3059904e-08
0.0 0.0 0.0 0.0 0.0 0.0 0.0 0.0
0.0 0.0 0.0 0.0 0.0 0.0 0.0 0.0
0.0 0.0 0.0 0.0 0.0 0.0 0.0 0.0
0.0 0.0 0.0 0.0 0.0 0.0 0.0 0.0
0.0 0.0 0.0 0.0 0.0 0.0 0.0 0.0
0.0 0.0 0.0 0.0 0.0 0.0 0.0 0.0
0.0 0.0 0.0 0.0 0.0 0.0 0.0 0.0
0.0 0.0 0.0 0.0 0.0 0.0 0.0 0.0
0.0 0.0 0.0 0.0 0.0 0.0 0.0 0.0
0.0 0.0 0.0 0.0 0.0 0.0 0.0 0.0
0.0 0.0 0.0 0.0 0.0 0.0 0.0 0.0
0.0 0.0 0.0 0.0 0.0 0.0 0.0 0.0
0.0 0.0 0.0 0.0 0.0 0.0 0.0 0.0
0.0 0.0 0.0 0.0 0.0 0.0 0.0 0.0
0.0 0.0 0.0 0.0 0.0 0.0 0.0 0.0
0.0 0.0 0.0 0.0 0.0 0.0 0.0 0.0

exp_avg f4 [128]
00000000: 532e d637 7564 34b7 0000 0000 0000 0000
00000010: c8b3 f4b7 b9c7 3937 a28b 9eb7 fed9 acb5
00000020: e880 e9b8 0000 0000 0000 0000 0400 0000
00000030: 5299 90b7 c771 3d38 12b4 d7b6 45af 5cb7
00000040: 94b1 3e37 49f0 5c37 0000 0000 fa2c 88b6
00000050: 0000 0000 0000 0000 0000 0000 43d4 4038
00000060: 0000 0000 7470 ceb7 010b 25b8 84f6 9fb8
00000070: 0000 0000 982b d437 d38f 62b8 0000 0000
00000080: 5190 37b8 8237 23b8 e090 8db8 a53b 5937
00000090: 0000 0000 e680 e337 b0c6 beb7 c722 d937
000000a0: b9af be37 0000 0000 34f6 63b8 36b1 27b5
000000b0: b250 fc36 b073 0136 0000 0000 8081 2a38
000000c0: 0000 0000 0000 0000 b27a 31b7 e487 78b8
000000d0: 93d6 5838 6b9b dd35 2a2f c6b8 27f4 35b8
000000e0: eba4 49b8 ace8 e737 0000 0000 0000 0000
000000f0: dc14 2638 510a 8eb6 0000 0000 0000 0000
00000100: a7c4 84b6 69da bdb7 65ad 2738 236d 7838
00000110: 0000 0000 6917 2fb8 c454 8f38 0400 0000
00000120: 0400 0000 0000 0000 258a 0e38 c82c edb6
00000130: aefc 79b7 0000 0000 0000 0000 a424 eab7
00000140: b7ca 2fb7 3e75 1ab7 53ee 0c38 f3bd db37
00000150: 2012 b6b5 93f9 f337 824e e5b7 d6a7 3937
00000160: 2694 b437 6d5c e037 0000 0000 2eaf 39b7
00000170: 0000 0000 0000 0000 2377 97b8 23a1 e1b7
00000180: c758 99b8 c033 f2b5 0000 0000 31c6 3538
00000190: 4bb3 29b7 6030 1d37 5635 c2b8 8da8 fc37
000001a0: f71c 15b4 0000 0000 e5da 2137 651f 3ab7
000001b0: 8a18 b737 0400 0000 a205 a037 a7e2 3437
000001c0: 75e9 1938 5c86 1837 3e9c 1338 a2dc 1738
000001d0: a327 31b8 0400 0000 94f5 8437 0000 0000
000001e0: 1967 2ab8 90c6 2c37 0adb 8c35 3cbe 0638
000001f0: 5f6a 37b7 dd68 16b8 0000 0000 618c 87b8
2.553236e-05 -1.07522255e-05 0.0 0.0 -2.9170784e-05 1.1073361e-05 -1.890009e-05 -1.2878443e-06
-0.000111343164 0.0 0.0 6e-45 -1.7237533e-05 4.5167075e-05 -6.4284623e-06 -1.315383e-05
1.1366228e-05 1.3168968e-05 0.0 -4.058352e-06 0.0 0.0 0.0 4.597405e-05
0.0 -2.4609479e-05 -3.9349314e-05 -7.627628e-05 0.0 2.529267e-05 -5.4016546e-05 0.0
-4.3765005e-05 -3.8913924e-05 -6.750389e-05 1.2948095e-05 0.0 2.7120532e-05 -2.2742286e-05 2.588461e-05
2.2731592e-05 0.0 -5.4350312e-05 -6.2470224e-07 7.5195794e-06 1.9289837e-06 0.0 4.0651765e-05
0.0 0.0 -1.0578589e-05 -5.9254366e-05 5.169825e-05 1.6511016e-06 -9.450161e-05 -4.3381147e-05
-4.8075726e-05 2.7645692e-05 0.0 0.0 3.959691e-05 -4.2331308e-06 0.0 0.0
-3.9568e-06 -2.263226e-05 3.997739e-05 5.922945e-05 0.0 -4.1745054e-05 6.83456e-05 6e-45
6e-45 0.0 3.3984095e-05 -7.0683636e-06 -1.4900388e-05 0.0 0.0 -2.7912036e-05
-1.0478011e-05 -9.206413e-06 3.3600558e-05 2.6195286e-05 -1.3565332e-06 2.9084074e-05 -2.7335485e-05 1.1065937e-05
2.152666e-05 2.674592e-05 0.0 -1.10676465e-05 0.0 0.0 -7.222432e-05 -2.6897125e-05
-7.3121446e-05 -1.8045466e-06 0.0 4.3338343e-05 -1.011493e-05 9.369192e-06 -9.2605755e-05 3.0119229e-05
-1.3887244e-07 0.0 9.647313e-06 -1.10937735e-05 2.1826727e-05 6e-45 1.907611e-05 1.0781608e-05
3.6695466e-05 9.091189e-06 3.5193043e-05 3.6206686e-05 -4.2237003e-05 6e-45 1.5849982e-05 0.0
-4.0627176e-05 1.029823e-05 1.0494562e-06 3.212526e-05 -1.0932416e-05 -3.586045e-05 0.0 -6.463449e-05

exp_avg_sq f4 [128]
00000000: 5119 dc33 32c5 3d33 0000 0000 0000 0000
00000010: 01ed 9034 5bf2 f032 9ba4 8c34 8cb8 5833
00000020: f2ed 9335 0000 0000 0000 0000 7f72 332c
00000030: 466e 1433 c864 cd34 84f6 0036 73cf c632
00000040: c9ab dd33 b98f 7f34 0000 0000 dbc4 1334
00000050: 0000 0000 0000 0000 0000 0000 207f b434
00000060: 0000 0000 2bfc 1e33 7896 9134 2395 2735
00000070: 0000 0000 10ed ea33 bf98 ca34 0000 0000
00000080: aec6 0d35 ba62 ed34 ecf8 8b33 1ca5 8b33
00000090: 0000 0000 debc 2d34 ff19 ff33 67bd a434
000000a0: 6cbd c834 0000 0000 6f98 0735 51f2 7532
000000b0: 2c2e f833 763d 4b33 0000 0000 fe0a 3734
000000c0: 0000 0000 0000 0000 7ee9 ae32 c596 f634
000000d0: 597c 9e34 935e 3233 7106 7433 30fa a034
000000e0: 06cd 9234 59e0 c233 0000 0000 0000 0000
000000f0: e058 a134 d7dd 2634 0000 0000 0000 0000
00000100: 51f5 cd33 a051 2d34 b5f0 0134 19de 7e34
00000110: 0000 0000 64e3 0835 8188 c034 15af 4f2b
00000120: 5dd6 c52b 0000 0000 043f d935 138a eb33
00000130: a53d b032 0000 0000 0000 0000 cb11 3535
00000140: 2202 ba32 4c8f 7f33 79ce 9734 6f5b 3b34
00000150: 294b d532 81c1 b533 ba33 4a34 b8ea 0333
00000160: d4af 5b33 3a34 0033 0000 0000 c07e ef34
00000170: 0000 0000 0000 0000 e58c d033 6aae 5934
00000180: dbea 8533 56c7 8933 0000 0000 9623 3035
00000190: 1e5e 3c34 d076 8f33 9369 c133 344a 8033
000001a0: 2776 8a33 0000 0000 f6eb c133 2d29 c533
000001b0: 43dc 1835 f305 ae2c 8258 2333 9c31 9f33
000001c0: 69b7 1e34 47ec 2c33 1cda 4134 5e30 0334
000001d0: af4b cc33 8a9a dd2a c30b e532 0000 0000
000001e0: 3c51 8734 c53c 9f33 73ee cb34 6e6e f334
000001f0: 4318 9533 ecb4 b133 0000 0000 27ff e234
1.0249153e-07 4.418434e-08 0.0 0.0 2.6994533e-07 2.8049888e-08 2.6196798e-07 5.0459263e-08
1.1021605e-06 0.0 0.0 2.5500988e-12 3.455923e-08 3.8257554e-07 1.9216977e-06 2.314457e-08
1.0322362e-07 2.3801012e-07 0.0 1.3762057e-07 0.0 0.0 0.0 3.3620108e-07
0.0 3.7016587e-08 2.7117835e-07 6.242937e-07 0.0 1.09395955e-07 3.773657e-07 0.0
5.281571e-07 4.4216523e-07 6.5179705e-08 6.502725e-08 0.0 1.618059e-07 1.18790915e-07 3.068519e-07
3.7390726e-07 0.0 5.051324e-07 1.4315973e-08 1.15567985e-07 4.732052e-08 0.0 1.7047202e-07
0.0 0.0 2.0362446e-08 4.593077e-07 2.9520268e-07 4.152987e-08 5.6816535e-08 2.9984358e-07
2.7343793e-07 9.0746376e-08 0.0 0.0 3.0053252e-07 1.554066e-07 0.0 0.0
9.590679e-08 1.6141576e-07 1.210163e-07 2.3736392e-07 0.0 5.0994845e-07 3.5862107e-07 7.378415e-13
1.405719e-12 0.0 1.61861e-06 1.0968156e-07 2.051713e-08 0.0 0.0 6.7453647e-07
2.165422e-08 5.9502142e-08 2.827617e-07 1.7448995e-07 2.4830642e-08 8.4636675e-08 1.8831534e-07 3.071429e-08
5.1149826e-08 2.9849822e-08 0.0 4.4609442e-07 0.0 0.0 9.711383e-08 2.0273151e-07
6.236015e-08 6.4158186e-08 0.0 6.5616894e-07 1.7543104e-07 6.680568e-08 9.006467e-08 5.973962e-08
6.4476176e-08 0.0 9.030184e-08 9.181017e-08 5.6944936e-07 4.946038e-12 3.8031892e-08 7.4130384e-08
1.4781621e-07 4.0261764e-08 1.8053873e-07 1.2217922e-07 9.513257e-08 3.936472e-13 2.6664457e-08 0.0
2.5204815e-07 7.4150684e-08 3.798519e-07 4.5342625e-07 6.9427664e-08 8.275114e-08 0.0 4.2281428e-07

exp_avg f4 [64, 128]
00000000: a887 3ab6 b35e 2c37 0000 0000 0000 0000
00000010: ca5d 0d37 e890 e936 c42a f136 ee98 a437
00000020: 422d f936 0000 0000 0000 0000 0400 0080
00000030: bdbe 7136 37db 8835 0681 dbb4 1e4b c336
00000040: a269 7637 1cfb e636 0000 0000 452c 54b6
00000050: 0000 0000 0000 0000 0000 0000 d518 92b6
00000060: 0000 0000 9aa1 8b37 70ee ff36 091f e236
00000070: 0000 0000 7c96 1b37 aaa7 af36 0000 0000
00000080: bd7e b436 85e1 0f37 eee7 66b5 c75e f235
00000090: 0000 0000 9527 d935 45b3 5636 f574 8ab6
000000a0: ce04 5fb6 0000 0000 2c22 4737 f297 3537
000000b0: a31d 0337 0541 ff36 0000 0000 151d 7936
000000c0: 0000 0000 0000 0000 4598 db36 898c df36
000000d0: a673 6837 74f5 6b36 34b0 9eb5 c8a3 3f36
000000e0: ac22 2137 a501 8ab6 0000 0000 0000 0000
000000f0: 2b67 fa36 211e 9436 0000 0000 0000 0000
00000100: e29e e336 acfc 3136 c26e 0037 9104 c135
00000110: 0000 0000 6262 9db4 6f3d b8b5 0400 0080
00000120: 0400 0000 0000 0000 de8c 1fb6 af80 3bb6
00000130: 9612 5837 0000 0000 0000 0000 ff66 8e36
00000140: 8770 2837 4cb2 09b5 eeb9 47b3 6914 ee36
00000150: a391 1037 4afe 0c37 d950 de36 8373 48b3
00000160: de9b 2f37 357f 2237 0000 0000 9fd1 9936
00000170: 0000 0000 0000 0000 068e 8cb6 1a12 d736
00000180: c4e6 63b6 ec0a 9437 0000 0000 e183 2ab6
00000190: c2b0 e336 9888 4937 96cc 7e36 e00a 4e36
000001a0: d18c b7b1 0000 0000 367e 6636 400f 2236
000001b0: acd0 35b5 0400 0080 0209 b636 aa55 c1b2
000001c0: fc55 0d37 90d3 6d37 a0f7 1a37 a6fd 5537
000001d0: d5cf 2a36 0400 0080 d248 84b6 0000 0000
000001e0: 2a51 ab36 aef4 d936 e132 4136 1455 0eb6
000001f0: 98fe 0bb5 cc4a a9b4 0000 0000 6ceb 3237
00000200: 0000 0000 0000 0000 0000 0000 0000 0000
00000210: 0000 0000 0000 0000 0000 0000 0000 0000
00000220: 0000 0000 0000 0000 0000 0000 0000 0000
00000230: 0000 0000 0000 0000 0000 0000 0000 0000
00000240: 0000 0000 0000 0000 0000 0000 0000 0000
00000250: 0000 0000 0000 0000 0000 0000 0000 0000
00000260: 0000 0000 0000 0000 0000 0000 0000 0000
00000270: 0000 0000 0000 0000 0000 0000 0000 0000
00000280: 0000 0000 0000 0000 0000 0000 0000 0000
00000290: 0000 0000 0000 0000 0000 0000 0000 0000
000002a0: 0000 0000 0000 0000 0000 0000 0000 0000
000002b0: 0000 0000 0000 0000 0000 0000 0000 0000
000002c0: 0000 0000 0000 0000 0000 0000 0000 0000
000002d0: 0000 0000 0000 0000 0000 0000 0000 0000
000002e0: 0000 0000 0000 0000 0000 0000 0000 0000
000002f0: 0000 0000 0000 0000 0000 0000 0000 0000
00000300: 0000 0000 0000 0000 0000 0000 0000 0000
00000310: 0000 0000 0000 0000 0000 0000 0000 0000
00000320: 0000 0000 0000 0000 0000 0000 0000 0000
00000330: 0000 0000 0000 0000 0000 0000 0000 0000
00000340: 0000 0000 0000 0000 0000 0000 0000 0000
00000350: 0000 0000 0000 0000 0000 0000 0000 0000
00000360: 0000 0000 0000 0000 0000 0000 0000 0000
00000370: 0000 0000 0000 0000 0000 0000 0000 0000
00000380: 0000 0000 0000 0000 0000 0000 0000 0000
00000390: 0000 0000 0000 0000 0000 0000 0000 0000
000003a0: 0000 0000 0000 0000 0000 0000 0000 0000
000003b0: 0000 0000 0000 0000 0000 0000 0000 0000
000003c0: 0000 0000 0000 0000 0000 0000 0000 0000
000003d0: 0000 0000 0000 0000 0000 0000 0000 0000
000003e0: 0000 0000 0000 0000 0000 0000 0000 0000
000003f0: 0000 0000 0000 0000 0000 0000 0000 0000
-2.7795122e-06 1.0274048e-05 0.0 0.0 8.426092e-06 6.9608104e-06 7.1873383e-06 1.9621537e-05
7.426047e-06 0.0 0.0 -6e-45 3.6022823e-06 1.019659e-06 -4.0885806e-07 5.8201977e-06
1.4687337e-05 6.883767e-06 0.0 -3.161623e-06 0.0 0.0 0.0 -4.35403e-06
0.0 1.6645343e-05 7.62735e-06 6.738938e-06 0.0 9.273757e-06 5.234925e-06 0.0
5.3791723e-06 8.575972e-06 -8.601918e-07 1.8057989e-06 0.0 1.617928e-06 3.1992834e-06 -4.126336e-06
-3.3232386e-06 0.0 1.1869281e-05 1.0823818e-05 7.815109e-06 7.6071615e-06 0.0 3.712082e-06
0.0 0.0 6.544435e-06 6.6622783e-06 1.3855204e-05 3.5160601e-06 -1.1823199e-06 2.855655e-06
9.6044205e-06 -4.112912e-06 0.0 0.0 7.462591e-06 4.414251e-06 0.0 0.0
6.7836236e-06 2.652213e-06 7.655182e-06 1.438095e-06 0.0 -2.9315112e-07 -1.3726948e-06 -6e-45
6e-45 0.0 -2.3774842e-06 -2.7940075e-06 1.2878931e-05 0.0 0.0 4.24392e-06
1.003978e-05 -5.1295933e-07 -4.65024e-08 7.095329e-06 8.6169775e-06 8.403857e-06 6.6255275e-06 -4.6671186e-08
1.04671035e-05 9.68557e-06 0.0 4.5841584e-06 0.0 0.0 -4.188859e-06 6.4096066e-06
-3.395996e-06 1.764806e-05 0.0 -2.5408738e-06 6.7857045e-06 1.2012337e-05 3.7968034e-06 3.0702722e-06
-5.34201e-09 0.0 3.4346135e-06 2.4148758e-06 -6.773141e-07 -6e-45 5.4250713e-06 -2.2507113e-08
8.424275e-06 1.4175559e-05 9.23677e-06 1.27548465e-05 2.5452948e-06 -6e-45 -3.942384e-06 0.0
5.105646e-06 6.4955884e-06 2.8788857e-06 -2.120917e-06 -5.215202e-07 -3.1533125e-07 0.0 1.066444e-05
0.0 0.0 0.0 0.0 0.0 0.0 0.0 0.0
0.0 0.0 0.0 0.0 0.0 0.0 0.0 0.0
0.0 0.0 0.0 0.0 0.0 0.0 0.0 0.0
0.0 0.0 0.0 0.0 0.0 0.0 0.0 0.0
0.0 0.0 0.0 0.0 0.0 0.0 0.0 0.0
0.0 0.0 0.0 0.0 0.0 0.0 0.0 0.0
0.0 0.0 0.0 0.0 0.0 0.0 0.0 0.0
0.0 0.0 0.0 0.0 0.0 0.0 0.0 0.0
0.0 0.0 0.0 0.0 0.0 0.0 0.0 0.0
0.0 0.0 0.0 0.0 0.0 0.0 0.0 0.0
0.0 0.0 0.0 0.0 0.0 0.0 0.0 0.0
0.0 0.0 0.0 0.0 0.0 0.0 0.0 0.0
0.0 0.0 0.0 0.0 0.0 0.0 0.0 0.0
0.0 0.0 0.0 0.0 0.0 0.0 0.0 0.0
0.0 0.0 0.0 0.0 0.0 0.0 0.0 0.0
0.0 0.0 0.0 0.0 0.0 0.0 0.0 0.0

exp_avg_sq f4 [64, 128]
00000000: 3f17 f630 aebd 7032 0000 0000 0000 0000
00000010: 1bd3 3332 e5fe 2432 8ed9 0132 88e6 c132
00000020: 3d9d bc31 0000 0000 0000 0000 a3c8 2529
00000030: fcff 0e32 b5ed c731 393b 7e30 a31b fc30
00000040: 9455 3233 4558 e431 0000 0000 021a 1b31
00000050: 0000 0000 0000 0000 0000 0000 cae5 2931
00000060: 0000 0000 a399 2333 b907 3c32 b1f9 ce31
00000070: 0000 0000 bcc7 3e32 2901 eb31 0000 0000
00000080: 42cf b231 772d a031 6d75 632f 037d 9730
00000090: 0000 0000 257f e731 36c0 6c31 3788 e030
000000a0: 32ba f930 0000 0000 0042 9731 3295 9132
000000b0: 3bb1 b431 bb02 b732 0000 0000 8443 6231
000000c0: 0000 0000 0000 0000 91d0 c131 5627 a031
000000d0: f056 0f33 1af0 dd31 69c5 ab2e 9da5 1231
000000e0: 5110 3b32 cb9c 2230 0000 0000 0000 0000
000000f0: afed 3f32 b564 0b32 0000 0000 0000 0000
00000100: 684a a231 cbed bf32 6397 2231 e2af 6831
00000110: 0000 0000 1e56 1a30 ffd9 fd30 71a3 d624
00000120: 91d3 1426 0000 0000 f264 4231 43c4 8d31
00000130: 1e94 c332 0000 0000 0000 0000 3726 7331
00000140: a105 1232 959c 0031 6830 ca30 ba6e c632
00000150: 2db2 c331 1668 3c32 630b 1631 8d2c d430
00000160: 9b79 2a32 f44d 9032 0000 0000 1528 e631
00000170: 0000 0000 0000 0000 ce8f 652f c24f 9231
00000180: 2c70 1b2f e3ca 0433 0000 0000 1b04 5c31
00000190: 135e 8131 3f5a 1b33 cb73 462f 2bbb 1a31
000001a0: 6efa a930 0000 0000 1e5f e931 b66e fc31
000001b0: 17f7 7030 e292 6d25 efcc 6631 8fb2 9b31
000001c0: fbd7 1532 40f4 7f32 cf53 a532 6986 9332
000001d0: 8a2f 0431 9d25 1724 891c d82f 0000 0000
000001e0: bc3f 4531 7f04 8d31 5f44 0432 0bf4 3530
000001f0: 5822 1030 715d 0a31 0000 0000 a2a7 6732
00000200: 0000 0000 0000 0000 0000 0000 0000 0000
00000210: 0000 0000 0000 0000 0000 0000 0000 0000
00000220: 0000 0000 0000 0000 0000 0000 0000 0000
00000230: 0000 0000 0000 0000 0000 0000 0000 0000
00000240: 0000 0000 0000 0000 0000 0000 0000 0000
00000250: 0000 0000 0000 0000 0000 0000 0000 0000
00000260: 0000 0000 0000 0000 0000 0000 0000 0000
00000270: 0000 0000 0000 0000 0000 0000 0000 0000
00000280: 0000 0000 0000 0000 0000 0000 0000 0000
00000290: 0000 0000 0000 0000 0000 0000 0000 0000
000002a0: 0000 0000 0000 0000 0000 0000 0000 0000
000002b0: 0000 0000 0000 0000 0000 0000 0000 0000
000002c0: 0000 0000 0000 0000 0000 0000 0000 0000
000002d0: 0000 0000 0000 0000 0000 0000 0000 0000
000002e0: 0000 0000 0000 0000 0000 0000 0000 0000
000002f0: 0000 0000 0000 0000 0000 0000 0000 0000
00000300: 0000 0000 0000 0000 0000 0000 0000 0000
00000310: 0000 0000 0000 0000 0000 0000 0000 0000
00000320: 0000 0000 0000 0000 0000 0000 0000 0000
00000330: 0000 0000 0000 0000 0000 0000 0000 0000
00000340: 0000 0000 0000 0000 0000 0000 0000 0000
00000350: 0000 0000 0000 0000 0000 0000 0000 0000
00000360: 0000 0000 0000 0000 0000 0000 0000 0000
00000370: 0000 0000 0000 0000 0000 0000 0000 0000
00000380: 0000 0000 0000 0000 0000 0000 0000 0000
00000390: 0000 0000 0000 0000 0000 0000 0000 0000
000003a0: 0000 0000 0000 0000 0000 0000 0000 0000
000003b0: 0000 0000 0000 0000 0000 0000 0000 0000
000003c0: 0000 0000 0000 0000 0000 0000 0000 0000
000003d0: 0000 0000 0000 0000 0000 0000 0000 0000
000003e0: 0000 0000 0000 0000 0000 0000 0000 0000
000003f0: 0000 0000 0000 0000 0000 0000 0000 0000
1.7905463e-09 1.4012967e-08 0.0 0.0 1.0467171e-08 9.604013e-09 7.5582545e-09 2.257299e-08
5.489396e-09 0.0 0.0 3.6811384e-14 8.323692e-09 5.8186864e-09 9.248882e-10 1.8343268e-09
4.1521687e-08 6.6457084e-09 0.0 2.2570252e-09 0.0 0.0 0.0 2.4723357e-09
0.0 3.8091127e-08 1.0944796e-08 6.0237757e-09 0.0 1.110487e-08 6.839532e-09 0.0
5.2040443e-09 4.6617816e-09 2.0687248e-10 1.1022226e-09 0.0 6.7374395e-09 3.445178e-09 1.633686e-09
1.8170054e-09 0.0 4.4021817e-09 1.6948068e-08 5.2588383e-09 2.1305246e-08 0.0 3.2925707e-09
0.0 0.0 5.6407505e-09 4.661085e-09 3.337385e-08 6.459243e-09 7.811247e-11 2.1339936e-09
1.08885425e-08 5.9158073e-10 0.0 0.0 1.1171706e-08 8.113763e-09 0.0 0.0
4.7232795e-09 2.2343462e-08 2.3660156e-09 3.3860421e-09 0.0 5.6147254e-10 1.8470131e-09 9.3084586e-17
5.163454e-16 0.0 2.8288096e-09 4.1259525e-09 2.2768344e-08 0.0 0.0 3.5382877e-09
8.499598e-09 1.8715458e-09 1.4711192e-09 2.3100586e-08 5.695503e-09 1.0966707e-08 2.1834345e-09 1.5437692e-09
9.922952e-09 1.6799255e-08 0.0 6.698438e-09 0.0 0.0 2.0878518e-10 4.2582267e-09
1.413702e-10 3.091817e-08 0.0 3.2016547e-09 3.765089e-09 3.6170828e-08 1.8049133e-10 2.2516342e-09
1.2367545e-09 0.0 6.792006e-09 7.3467517e-09 8.7662627e-10 2.0606239e-16 3.3585896e-09 4.5313935e-09
8.72205e-09 1.48984896e-08 1.924664e-08 1.7174175e-08 1.923555e-09 3.2774765e-17 3.9310447e-10 0.0
2.8703502e-09 4.1041512e-09 7.698957e-09 6.619422e-10 5.24357e-10 2.0134758e-09 0.0 1.3484085e-08
0.0 0.0 0.0 0.0 0.0 0.0 0.0 0.0
0.0 0.0 0.0 0.0 0.0 0.0 0.0 0.0
0.0 0.0 0.0 0.0 0.0 0.0 0.0 0.0
0.0 0.0 0.0 0.0 0.0 0.0 0.0 0.0
0.0 0.0 0.0 0.0 0.0 0.0 0.0 0.0
0.0 0.0 0.0 0.0 0.0 0.0 0.0 0.0
0.0 0.0 0.0 0.0 0.0 0.0 0.0 0.0
0.0 0.0 0.0 0.0 0.0 0.0 0.0 0.0
0.0 0.0 0.0 0.0 0.0 0.0 0.0 0.0
0.0 0.0 0.0 0.0 0.0 0.0 0.0 0.0
0.0 0.0 0.0 0.0 0.0 0.0 0.0 0.0
0.0 0.0 0.0 0.0 0.0 0.0 0.0 0.0
0.0 0.0 0.0 0.0 0.0 0.0 0.0 0.0
0.0 0.0 0.0 0.0 0.0 0.0 0.0 0.0
0.0 0.0 0.0 0.0 0.0 0.0 0.0 0.0
0.0 0.0 0.0 0.0 0.0 0.0 0.0 0.0

exp_avg f4 [64]
00000000: 69e9 bb37 0000 0000 389b b5b7 d253 9337
00000010: 0229 55b7 cd1b 02b9 ad18 fbb7 ec9c b737
00000020: 11c5 65b8 0400 0000 0000 0000 e584 4a38
00000030: 8651 13b7 0fd7 a938 df96 6238 4344 d637
00000040: 0000 0000 b07c 7ab8 543e b6b8 0a8c 0f38
00000050: 51c9 4738 0000 0000 0000 0000 0000 0000
00000060: 0000 0000 0400 0000 de34 29b8 4e39 5ab8
00000070: 6048 6238 cf41 69b8 81ed e337 2eee 99b6
00000080: 0000 0000 191e d837 95ad 27b8 2759 a236
00000090: 0000 0000 db90 f937 0000 0000 0400 0000
000000a0: 0000 0000 b7dd 1338 0400 0000 0400 0000
000000b0: a57e 6338 0000 0000 0000 0000 6e74 e2b8
000000c0: 0400 0000 0000 0000 4be9 bfb8 8f45 1c37
000000d0: adaa 7738 0400 0000 1a5e e135 85ac 37b8
000000e0: 7ae9 3638 9058 ce37 0000 0000 c80c ff37
000000f0: ab32 8bb8 0400 0000 7fe7 5138 c62b 0139
2.2400827e-05 0.0 -2.164916e-05 1.7562797e-05 -1.2705337e-05 -0.00012408123 -2.9933022e-05 2.1888372e-05
-5.4781387e-05 6e-45 0.0 4.828432e-05 -8.780864e-06 8.098606e-05 5.402311e-05 2.5542575e-05
0.0 -5.972077e-05 -8.690046e-05 3.422428e-05 4.7632788e-05 0.0 0.0 0.0
0.0 6e-45 -4.0341976e-05 -5.202862e-05 5.3950003e-05 -5.5612818e-05 2.7171105e-05 -4.587483e-06
0.0 2.5763222e-05 -3.9977564e-05 4.838355e-06 0.0 2.9750567e-05 0.0 6e-45
0.0 3.525402e-05 6e-45 6e-45 5.4238964e-05 0.0 0.0 -0.000107982065
6e-45 0.0 -9.151044e-05 9.31452e-06 5.9048343e-05 6e-45 1.6791194e-06 -4.379127e-05
4.3609623e-05 2.4598354e-05 0.0 3.040432e-05 -6.637474e-05 6e-45 5.004508e-05 0.00012318706

exp_avg_sq f4 [64]
00000000: 996e 0b34 0000 0000 664b 9134 5a46 1635
00000010: 65b1 8234 39cd 9835 e92e 8d34 8978 da34
00000020: 0574 f134 c939 472f 0000 0000 6824 fd34
00000030: 3c97 1334 44ae 4935 6bcd 7134 3b3b 8c34
00000040: 0000 0000 2fbc 0234 4cff 2535 49fc 0f34
00000050: fac8 3634 0000 0000 0000 0000 0000 0000
00000060: 0000 0000 130c 422a d789 3935 5329 9734
00000070: 8838 9634 0b49 4734 f499 0b34 128e 8a33
00000080: 0000 0000 6236 1435 a945 ec33 2e0e cd34
00000090: 0000 0000 d078 a034 0000 0000 b561 892f
000000a0: 0000 0000 6e87 3334 4ad6 9a27 885d ce2e
000000b0: df59 1d35 0000 0000 0000 0000 d633 6035
000000c0: 3d8c 472a 0000 0000 bd30 2f35 808c c934
000000d0: 8de0 a034 1a13 262b fbd0 1834 9a17 a534
000000e0: 0e22 1635 2a6e 1534 0000 0000 4481 0234
000000f0: 20ee e034 eb71 292c 9e41 6d34 ba3b 6135
1.2985619e-07 0.0 2.7063214e-07 5.598173e-07 2.4343458e-07 1.138461e-06 2.6297428e-07 4.0693365e-07
4.4974163e-07 1.8119474e-10 0.0 4.715141e-07 1.374546e-07 7.5131925e-07 2.2519605e-07 2.6120128e-07
0.0 1.2175654e-07 6.1838796e-07 1.3409694e-07 1.7023186e-07 0.0 0.0 0.0
0.0 1.723485e-13 6.9118454e-07 2.815601e-07 2.798081e-07 1.8559892e-07 1.3001392e-07 6.451968e-08
0.0 5.5213434e-07 1.10022775e-07 3.8194543e-07 0.0 2.9890225e-07 0.0 2.498958e-10
0.0 1.6719943e-07 4.297592e-15 9.38441e-11 5.861784e-07 0.0 0.0 8.3521934e-07
1.7723405e-13 0.0 6.5263504e-07 3.7541395e-07 2.9965705e-07 5.9001556e-13 1.423213e-07 3.0750817e-07
5.592891e-07 1.3916784e-07 0.0 1.215422e-07 4.189651e-07 2.4079582e-12 2.2096216e-07 8.3905945e-07

exp_avg f4 [3, 64]
00000000: bba5 9a38 0000 0000 7782 d038 2955 2e39
00000010: 37ab 2439 206c 6239 258e ee34 c6c3 3d39
00000020: a3ae 2a39 0400 0080 0000 0000 bc8e 5038
00000030: 400e 9d37 07b3 ae39 9435 cc37 1b06 8638
00000040: 0000 0000 cb73 2939 1d1d 8139 c37b 1e39
00000050: 5256 4138 0000 0000 0000 0000 0000 0000
00000060: 0000 0000 0400 0080 e681 4739 1c6b 6e39
00000070: 0307 6638 85f5 9c39 6cbb 1638 45fd fb36
00000080: 0000 0000 f963 d838 e0d8 3739 603d 2439
00000090: 0000 0000 9641 7a38 0000 0000 0400 0080
000000a0: 0000 0000 7dfe 7d38 0400 0080 0400 0080
000000b0: 7817 2639 0000 0000 0000 0000 02f2 a639
000000c0: 0400 0080 0000 0000 a15c 8139 1940 4739
000000d0: 266e 3338 0400 0080 3ab0 d938 ec19 3839
000000e0: dbea fe38 f37e 3a39 0000 0000 2c81 0e37
000000f0: 3083 6139 0400 0080 976b 9a38 0d15 b439
00000100: 32cb 15b9 0000 0000 6295 8bb6 12d1 43b9
00000110: 4352 34b7 0f04 afb8 d408 3ab9 c089 4fb9
00000120: c58e ac37 0400 0080 0000 0000 a050 4d37
00000130: 244b 0838 ebdc c738 9225 d1b7 9d17 ef36
00000140: 0000 0000 460e 33b7 719f 89b8 264c 2cb9
00000150: 0f2a 48b8 0000 0000 0000 0000 0000 0000
00000160: 0000 0000 0400 0080 5002 89b7 627e 5eb8
00000170: a62b bab8 f49b 0db9 1346 08b9 5598 d6b8
00000180: 0000 0000 4d7c 08b9 12e0 bdb8 854c 38b9
00000190: 0000 0000 d5ba 5537 0000 0000 0400 0000
000001a0: 0000 0000 5fa7 0ab9 0400 0080 0400 0080
000001b0: 00d8 41b9 0000 0000 0000 0000 cf8e 0ab9
000001c0: 0400 0080 0000 0000 d34a ecb8 1f3e 59b9
000001d0: 13f6 adb8 0400 0000 a7ad 06b9 b617 3a35
000001e0: f708 22b9 730f 27b9 0000 0000 3878 c5b8
000001f0: 3b4a 4bb8 0400 0080 35ea 12b9 2cf5 2038
00000200: 219a cc38 0000 0000 9378 bf37 224a 2739
00000210: c3ff 67b7 a53f 8438 9707 9a37 a903 0939
00000220: c348 2337 0400 0080 0000 0000 9b2b e436
00000230: 02e0 1838 ec88 1738 e6a7 c038 ebb3 8e36
00000240: 0000 0000 4675 7037 50ce 8638 88f9 eb38
00000250: 3890 8838 0000 0000 0000 0000 0000 0000
00000260: 0000 0000 0400 0080 dac9 d237 60b1 6c38
00000270: 9f7c de38 4bcf 7738 b593 9738 e1ff 2238
00000280: 0000 0000 cf39 d638 1a5b 2e38 9214 d738
00000290: 0000 0000 139e bfb6 0000 0000 0400 0080
000002a0: 0000 0000 adda e338 0400 0080 0400 0080
000002b0: 2fe0 1839 0000 0000 0000 0000 ab32 4c38
000002c0: 0400 0080 0000 0000 552c 9638 5fe7 3b39
000002d0: 2956 c538 0400 0080 f5f8 d638 c78f 91b7
000002e0: 40e3 2239 b8d8 1039 0000 0000 2b77 3038
000002f0: efb3 4938 0400 0080 c3b2 f238 ebbe d6b8
7.374162e-05 0.0 9.942514e-05 0.00016625658 0.00015704041 0.00021593319 4.4434378e-07 0.00018097376
0.0001627752 -6e-45 0.0 4.9723996e-05 1.8722494e-05 0.00033321252 2.4343644e-05 6.390755e-05
0.0 0.00016160232 0.00024626488 0.00015114159 4.6095178e-05 0.0 0.0 0.0
0.0 -6e-45 0.0001902651 0.0002273735 5.4842803e-05 0.00029937565 3.5937337e-05 7.5098674e-06
0.0 0.00010318304 0.00017533032 0.00015663123 0.0 5.9665726e-05 0.0 -6e-45
0.0 6.055691e-05 -6e-45 -6e-45 0.00015839736 0.0 0.0 0.00031842297
-6e-45 0.0 0.0002467381 0.00019001997 4.277951e-05 -6e-45 0.00010380191 0.00017557264
0.00012155409 0.00017785635 0.0 8.493935e-06 0.00021506543 -6e-45 7.3633324e-05 0.0003434796
-0.00014285443 0.0 -4.1599133e-06 -0.00018674534 -1.0747989e-05 -8.345406e-05 -0.00017741631 -0.00019792374
2.057048e-05 -6e-45 0.0 1.2237724e-05 3.2494907e-05 9.5302086e-05 -2.4932237e-05 7.125504e-06
0.0 -1.0672555e-05 -6.562367e-05 -0.00016431566 -4.7722886e-05 0.0 0.0 0.0
0.0 -6e-45 -1.633275e-05 -5.3046628e-05 -8.877301e-05 -0.00013504905 -0.00012996075 -0.00010232689
0.0 -0.00013016276 -9.053959e-05 -0.00017576113 0.0 1.273929e-05 0.0 6e-45
0.0 -0.00013223056 -6e-45 -6e-45 -0.0001848638 0.0 0.0 -0.00013213906
-6e-45 0.0 -0.00011267294 -0.00020717875 -8.295118e-05 6e-45 -0.00012843926 6.9324904e-07
-0.00015452864 -0.00015932116 0.0 -9.4160845e-05 -4.8468104e-05 -6e-45 -0.00014010894 3.8375307e-05
9.756187e-05 0.0 2.2825121e-05 0.00015953978 -1.3828222e-05 6.306105e-05 1.8361765e-05 0.00013066702
9.732498e-06 -6e-45 0.0 6.800006e-06 3.6448248e-05 3.6128724e-05 9.186547e-05 4.252875e-06
0.0 1.433242e-05 6.4280466e-05 0.00011252152 6.511848e-05 0.0 0.0 0.0
0.0 -6e-45 2.5127945e-05 5.6431978e-05 0.000106089974 5.9082446e-05 7.227754e-05 3.8862116e-05
0.0 0.00010215083 4.1569678e-05 0.000102558304 0.0 -5.710646e-06 0.0 -6e-45
0.0 0.00010864935 -6e-45 -6e-45 0.00014579365 0.0 0.0 4.868458e-05
-6e-45 0.0 7.160815e-05 0.00017919902 9.4097406e-05 -6e-45 0.00010250687 -1.7352299e-05
0.00015534181 0.00013813644 0.0 4.2072654e-05 4.808971e-05 -6e-45 0.00011572756 -0.000102398764
