001-machine_learning/data/00001-MLP-temperature/005_checkpoint.pth (torch_old, 211005 bytes, 24 tensors)

exp_avg f4 [64, 4]
0	0x00000000	0.0
1	0x00000000	0.0
2	0x00000000	0.0
3	0x00000000	0.0
4	0x00000000	0.0
5	0x388c8f09	6.7023626e-05
6	0x3905d711	0.00012763987
7	0x38689c97	5.5458946e-05
8	0x00000000	0.0
9	0x39525db6	0.0002006207
10	0x39bc1c24	0.0003587912
11	0x3929ef6d	0.00016206289
12	0x00000000	0.0
13	0x00000000	0.0
14	0x00000000	0.0
15	0x00000000	0.0
16	0x00000000	0.0
17	0xb6cb744f	-6.0634115e-06
18	0xb8224f7d	-3.869784e-05
19	0xb7a65c99	-1.9831861e-05
20	0x00000000	0.0
21	0xb7622ffd	-1.3481823e-05
22	0xb825c7f1	-3.9525275e-05
23	0xb805edd3	-3.1931162e-05
24	0x00000000	0.0
25	0x39809491	0.00024524753
26	0x399df935	0.00030131047
27	0x395f581d	0.00021299762
28	0x00000000	0.0
29	0x00000000	0.0
30	0x00000000	0.0
31	0x00000000	0.0
32	0x00000000	0.0
33	0x3903e2f9	0.00012577687
34	0x37d9ed81	2.5979012e-05
35	0xb6a539dd	-4.9241194e-06
36	0x00000000	0.0
37	0x39d9e9e5	0.0004156373
38	0x39b70b33	0.00034912824
39	0x39584b6b	0.0002062746
40	0x00000000	0.0
41	0x00000000	0.0
42	0x00000000	0.0
43	0x00000000	0.0
44	0x00000000	0.0
45	0x38012477	3.0789957e-05
46	0x35d3e638	1.5787728e-06
47	0xb75f3a3f	-1.3305397e-05
48	0x00000000	0.0
49	0xb86be2c0	-5.6239543e-05
50	0xb887b17c	-6.470361e-05
51	0xb888b8da	-6.519417e-05
52	0x00000000	0.0
53	0xb851f439	-5.0056933e-05
54	0xb8a04144	-7.641551e-05
55	0xb852269d	-5.0103863e-05
56	0x00000000	0.0
57	0x393a646f	0.00017775757
58	0x38bd6639	9.031263e-05
59	0x3955d513	0.00020392639
60	0x00000000	0.0
61	0x00000000	0.0
62	0x00000000	0.0
63	0x00000000	0.0
64	0x00000000	0.0
65	0xb885e3c5	-6.3843596e-05
66	0xb9177e24	-0.00014447473
67	0xb887ce42	-6.47572e-05
68	0x00000000	0.0
69	0x37c9f96e	2.4077217e-05
70	0x379a3003	1.8380588e-05
71	0xb788e4ac	-1.6318947e-05
72	0x00000000	0.0
73	0x39329cd7	0.0001703383
74	0x39420a9f	0.00018505238
75	0x38ad547c	8.265019e-05
76	0x00000000	0.0
77	0x00000000	0.0
78	0x00000000	0.0
79	0x00000000	0.0
80	0x00000000	0.0
81	0xb87a7c5f	-5.9720474e-05
82	0xb8f7f4e7	-0.000118234944
83	0xb855af39	-5.0946346e-05
84	0x00000000	0.0
85	0x38bbb3b3	8.9503264e-05
86	0x38943b99	7.068291e-05
87	0x3863b110	5.428592e-05
88	0x00000000	0.0
89	0x3840e482	4.598918e-05
90	0x377c787d	1.5048424e-05
91	0xb7d9c77c	-2.5961308e-05
92	0x00000000	0.0
93	0x379d7dc4	1.8774423e-05
94	0xb546c9b4	-7.4054265e-07
95	0xb739f973	-1.1084939e-05
96	0x00000000	0.0
97	0x399801d1	0.00028993053
98	0x3988f91d	0.00026125545
99	0x3906af27	0.00012844485
100	0x00000000	0.0
101	0xb84a7d98	-4.827752e-05
102	0xb8bb6081	-8.93483e-05
103	0xb8298b37	-4.0422394e-05
104	0x00000000	0.0
105	0x38ef9b2b	0.000114253104
106	0x38f3d764	0.000116272626
107	0x384c66e1	4.8733204e-05
108	0x00000000	0.0
109	0xb90d90c7	-0.00013500742
110	0xb94cb59d	-0.00019522612
111	0xb9144392	-0.00014139552
112	0x00000000	0.0
113	0x398c486d	0.00026756842
114	0x39a2e897	0.0003107234
115	0x394afdb8	0.00019358739
116	0x00000000	0.0
117	0xb990a323	-0.00027587367
118	0xb9b139cd	-0.00033803136
119	0xb95e2d67	-0.00021188484
120	0x00000000	0.0
121	0x00000000	0.0
122	0x00000000	0.0
123	0x00000000	0.0
124	0x00000000	0.0
125	0x00000000	0.0
126	0x00000000	0.0
127	0x00000000	0.0
128	0x00000000	0.0
129	0x38c1e078	9.244768e-05
130	0x38b26e6c	8.508269e-05
131	0x3886769d	6.4117114e-05
132	0x00000000	0.0
133	0xb85f5414	-5.3245647e-05
134	0xb8c65139	-9.4565046e-05
135	0xb853dbed	-5.0511142e-05
136	0x00000000	0.0
137	0x387b355e	5.9892765e-05
138	0x38adf440	8.294778e-05
139	0x3800a772	3.0673524e-05
140	0x00000000	0.0
141	0x00000000	0.0
142	0x00000000	0.0
143	0x00000000	0.0
144	0x00000000	0.0
145	0x324756c5	1.1603054e-08
146	0x31af89b7	5.1088267e-09
147	0xab638e5e	-8.0844175e-13
148	0x00000000	0.0
149	0xb7c66519	-2.3650517e-05
150	0xb847289c	-4.7483118e-05
151	0xb834221f	-4.2947122e-05
152	0x00000000	0.0
153	0x386294bf	5.402113e-05
154	0x3852616e	5.015864e-05
155	0x3849421f	4.7983714e-05
156	0x00000000	0.0
157	0xb750dc98	-1.2449127e-05
158	0xb828c2d7	-4.023578e-05
159	0xb80cb892	-3.3550496e-05
160	0x00000000	0.0
161	0xb93aab76	-0.00017802216
162	0xb9135896	-0.00014052013
163	0xb8d8982e	-0.00010328028
164	0x00000000	0.0
165	0x00000000	0.0
166	0x00000000	0.0
167	0x00000000	0.0
168	0x00000000	0.0
169	0x00000000	0.0
170	0x00000000	0.0
171	0x00000000	0.0
172	0x00000000	0.0
173	0x00000000	0.0
174	0x00000000	0.0
175	0x00000000	0.0
176	0x00000000	0.0
177	0x00000000	0.0
178	0x00000000	0.0
179	0x00000000	0.0
180	0x00000000	0.0
181	0xb9d3f383	-0.00040426487
182	0xb98569d3	-0.00025446582
183	0xb993186e	-0.00028056226
184	0x00000000	0.0
185	0xb9575b2e	-0.00020537965
186	0xb999045b	-0.0002918568
187	0xb94e025a	-0.00019646567
188	0x00000000	0.0
189	0x00000000	0.0
190	0x00000000	0.0
191	0x00000000	0.0
192	0x00000000	0.0
193	0xb9aa8a2e	-0.0003252788
194	0xb9c72c66	-0.00037989317
195	0xb96d94ce	-0.00022657515
196	0x00000000	0.0
197	0xb8addaf3	-8.290065e-05
198	0xb8d9c9f6	-0.000103849845
199	0xb895dd65	-7.1461116e-05
200	0x00000000	0.0
201	0xb7a4d8e2	-1.9651317e-05
202	0xb89d4bdf	-7.5004755e-05
203	0xb8303334	-4.2009357e-05
204	0x00000000	0.0
205	0xb9d55963	-0.00040693124
206	0xb9f4a16d	-0.00046659578
207	0xb98f87a4	-0.00027376146
208	0x00000000	0.0
209	0x38d2ac4a	0.00010045672
210	0x38efc14b	0.00011432412
211	0x38c2395f	9.261327e-05
212	0x00000000	0.0
213	0xb948bef7	-0.00019144626
214	0xb975e040	-0.0002344856
215	0xb9020a03	-0.00012401496
216	0x00000000	0.0
217	0x00000000	0.0
218	0x00000000	0.0
219	0x00000000	0.0
220	0x00000000	0.0
221	0x00000000	0.0
222	0x00000000	0.0
223	0x00000000	0.0
224	0x00000000	0.0
225	0x38d6abfc	0.0001023635
226	0x38cc3075	9.736504e-05
227	0x3802783a	3.1106385e-05
228	0x00000000	0.0
229	0x00000000	0.0
230	0x00000000	0.0
231	0x00000000	0.0
232	0x00000000	0.0
233	0x00000000	0.0
234	0x00000000	0.0
235	0x00000000	0.0
236	0x00000000	0.0
237	0xb9355e0b	-0.00017296539
238	0xb94bcb75	-0.00019435382
239	0xb913bd46	-0.00014089522
240	0x00000000	0.0
241	0x00000000	0.0
242	0x00000000	0.0
243	0x00000000	0.0
244	0x00000000	0.0
245	0x36c89467	5.977741e-06
246	0x36835eef	3.915156e-06
247	0x35a13da3	1.2013373e-06
248	0x00000000	0.0
249	0xb952ac5f	-0.00020091374
250	0xb8ccab15	-9.7593445e-05
251	0xb9786f32	-0.00023692547
252	0x00000000	0.0
253	0xb8cbebef	-9.7237404e-05
254	0xb910c2ff	-0.00013805552
255	0xb8ac231a	-8.208137e-05

exp_avg_sq f4 [64, 4]
0	0x00000000	0.0
1	0x00000000	0.0
2	0x00000000	0.0
3	0x00000000	0.0
4	0x00000000	0.0
5	0x346c8690	2.2028166e-07
6	0x35003235	4.7756777e-07
7	0x34ec0461	4.3961612e-07
8	0x00000000	0.0
9	0x362f4c53	2.6121459e-06
10	0x36d8c2b5	6.4599685e-06
11	0x36b6c0dd	5.446475e-06
12	0x00000000	0.0
13	0x00000000	0.0
14	0x00000000	0.0
15	0x00000000	0.0
16	0x00000000	0.0
17	0x32a8b194	1.9638527e-08
18	0x33ac8711	8.0339426e-08
19	0x336c4ac7	5.501604e-08
20	0x00000000	0.0
21	0x3297e667	1.7683488e-08
22	0x337bb4fd	5.86051e-08
23	0x3320a431	3.7402234e-08
24	0x00000000	0.0
25	0x358746e6	1.0078918e-06
26	0x36268cc1	2.4817857e-06
27	0x3610ebde	2.1594965e-06
28	0x00000000	0.0
29	0x00000000	0.0
30	0x00000000	0.0
31	0x00000000	0.0
32	0x00000000	0.0
33	0x32e40268	2.6543788e-08
34	0x325b4ca1	1.2764901e-08
35	0x32346a7e	1.05015925e-08
36	0x00000000	0.0
37	0x359bc9c7	1.1607125e-06
38	0x363e12ee	2.8323225e-06
39	0x3621c588	2.4105848e-06
40	0x00000000	0.0
41	0x00000000	0.0
42	0x00000000	0.0
43	0x00000000	0.0
44	0x00000000	0.0
45	0x328595d9	1.555138e-08
46	0x336c766d	5.505574e-08
47	0x3289d124	1.6044005e-08
48	0x00000000	0.0
49	0x32ce11d9	2.3989672e-08
50	0x32b03615	2.051369e-08
51	0x32eec066	2.779434e-08
52	0x00000000	0.0
53	0x335cd50e	5.1416514e-08
54	0x344e2d5c	1.9201747e-07
55	0x3406f97c	1.2570484e-07
56	0x00000000	0.0
57	0x341cfa4c	1.461969e-07
58	0x34f5e9c6	4.58049e-07
59	0x34de0870	4.135686e-07
60	0x00000000	0.0
61	0x00000000	0.0
62	0x00000000	0.0
63	0x00000000	0.0
64	0x00000000	0.0
65	0x34a71edd	3.112863e-07
66	0x34e0999d	4.183502e-07
67	0x35013a0b	4.814071e-07
68	0x00000000	0.0
69	0x32e49692	2.6611165e-08
70	0x337b81ed	5.855866e-08
71	0x333d7f92	4.4121016e-08
72	0x00000000	0.0
73	0x34d7bfb8	4.0186364e-07
74	0x35857efa	9.946227e-07
75	0x3570cc21	8.9704014e-07
76	0x00000000	0.0
77	0x00000000	0.0
78	0x00000000	0.0
79	0x00000000	0.0
80	0x00000000	0.0
81	0x34715407	2.2475443e-07
82	0x352f0d71	6.521214e-07
83	0x350a944c	5.1624806e-07
84	0x00000000	0.0
85	0x334637cc	4.6151214e-08
86	0x33ac1afe	8.014284e-08
87	0x33a3e88b	7.632578e-08
88	0x00000000	0.0
89	0x3383afe7	6.132159e-08
90	0x3325c940	3.8600092e-08
91	0x3394297f	6.899335e-08
92	0x00000000	0.0
93	0x3263495c	1.3229819e-08
94	0x331c3f6d	3.6379266e-08
95	0x3281d7a5	1.511564e-08
96	0x00000000	0.0
97	0x3592096d	1.0880591e-06
98	0x363f24c5	2.848262e-06
99	0x361a5e3b	2.3002638e-06
100	0x00000000	0.0
101	0x33d978cd	1.01268235e-07
102	0x34835eee	2.4469722e-07
103	0x34586fd1	2.0157246e-07
104	0x00000000	0.0
105	0x34336eed	1.6711029e-07
106	0x34d3a289	3.9420073e-07
107	0x34bc988e	3.5128727e-07
108	0x00000000	0.0
109	0x34c1c24e	3.6090427e-07
110	0x358e4f30	1.0602871e-06
111	0x35602746	8.3503653e-07
112	0x00000000	0.0
113	0x35946537	1.1056317e-06
114	0x3633723a	2.6739567e-06
115	0x3621208a	2.400981e-06
116	0x00000000	0.0
117	0x3585769c	9.943792e-07
118	0x361e68ec	2.3604907e-06
119	0x360d0a1e	2.1016526e-06
120	0x00000000	0.0
121	0x00000000	0.0
122	0x00000000	0.0
123	0x00000000	0.0
124	0x00000000	0.0
125	0x00000000	0.0
126	0x00000000	0.0
127	0x00000000	0.0
128	0x00000000	0.0
129	0x3379850f	5.8095846e-08
130	0x343fd027	1.7863987e-07
131	0x3417e913	1.4147763e-07
132	0x00000000	0.0
133	0x3411469c	1.3529865e-07
134	0x34f4f5a0	4.5627257e-07
135	0x34b1548c	3.3030335e-07
136	0x00000000	0.0
137	0x33e5ef98	1.0707225e-07
138	0x34b1c3b3	3.311121e-07
139	0x3492dba0	2.7354417e-07
140	0x00000000	0.0
141	0x00000000	0.0
142	0x00000000	0.0
143	0x00000000	0.0
144	0x00000000	0.0
145	0x3037e61e	6.690203e-10
146	0x32cfcb85	2.4190522e-08
147	0x2f4082c1	1.7508751e-10
148	0x00000000	0.0
149	0x32ec3ea7	2.7502507e-08
150	0x33cff5ae	9.6838775e-08
151	0x334f6b31	4.8293433e-08
152	0x00000000	0.0
153	0x3275dd72	1.4311228e-08
154	0x329adab3	1.8027412e-08
155	0x32a12fe8	1.8764652e-08
156	0x00000000	0.0
157	0x32b674c5	2.124069e-08
158	0x34141aee	1.3793371e-07
159	0x33826d6b	6.0735e-08
160	0x00000000	0.0
161	0x34334226	1.6694739e-07
162	0x34e403fe	4.2471214e-07
163	0x34c5f460	3.6871916e-07
164	0x00000000	0.0
165	0x00000000	0.0
166	0x00000000	0.0
167	0x00000000	0.0
168	0x00000000	0.0
169	0x00000000	0.0
170	0x00000000	0.0
171	0x00000000	0.0
172	0x00000000	0.0
173	0x00000000	0.0
174	0x00000000	0.0
175	0x00000000	0.0
176	0x00000000	0.0
177	0x00000000	0.0
178	0x00000000	0.0
179	0x00000000	0.0
180	0x00000000	0.0
181	0x340830f6	1.2683799e-07
182	0x336a89fd	5.460787e-08
183	0x335cb48c	5.1386948e-08
184	0x00000000	0.0
185	0x354ecb8b	7.7037174e-07
186	0x36045390	1.9718173e-06
187	0x35d97437	1.6201583e-06
188	0x00000000	0.0
189	0x00000000	0.0
190	0x00000000	0.0
191	0x00000000	0.0
192	0x00000000	0.0
193	0x35c1a223	1.4426809e-06
194	0x366f4e34	3.5659295e-06
195	0x3654f919	3.1735456e-06
196	0x00000000	0.0
197	0x33b96461	8.6329926e-08
198	0x34a53acc	3.0776425e-07
199	0x3473a39f	2.2690664e-07
200	0x00000000	0.0
201	0x33abff7c	8.00928e-08
202	0x349ed005	2.9581147e-07
203	0x3438964a	1.719101e-07
204	0x00000000	0.0
205	0x360e80e1	2.1234666e-06
206	0x36b9241c	5.5176333e-06
207	0x36a0a46c	4.787513e-06
208	0x00000000	0.0
209	0x339868be	7.097104e-08
210	0x34409e30	1.7938942e-07
211	0x34247b41	1.531853e-07
212	0x00000000	0.0
213	0x35286276	6.2728157e-07
214	0x35dcb355	1.644347e-06
215	0x35c37dfd	1.45653e-06
216	0x00000000	0.0
217	0x00000000	0.0
218	0x00000000	0.0
219	0x00000000	0.0
220	0x00000000	0.0
221	0x00000000	0.0
222	0x00000000	0.0
223	0x00000000	0.0
224	0x00000000	0.0
225	0x340ef825	1.3315055e-07
226	0x34318322	1.6532115e-07
227	0x343e8798	1.7744458e-07
228	0x00000000	0.0
229	0x00000000	0.0
230	0x00000000	0.0
231	0x00000000	0.0
232	0x00000000	0.0
233	0x00000000	0.0
234	0x00000000	0.0
235	0x00000000	0.0
236	0x00000000	0.0
237	0x3490b6e4	2.695516e-07
238	0x35209a66	5.9829324e-07
239	0x350ee076	5.3225756e-07
240	0x00000000	0.0
241	0x00000000	0.0
242	0x00000000	0.0
243	0x00000000	0.0
244	0x00000000	0.0
245	0x325ee589	1.2974291e-08
246	0x340e20e4	1.3236746e-07
247	0x33b6c41e	8.510709e-08
248	0x00000000	0.0
249	0x33db20c8	1.0203945e-07
250	0x32b5a9d6	2.1148406e-08
251	0x33bd48f7	8.8142706e-08
252	0x00000000	0.0
253	0x343e5bba	1.7728499e-07
254	0x350c7b32	5.2333337e-07
255	0x34df6ccd	4.161615e-07

exp_avg f4 [64]
0	0x00000000	0.0
1	0x3882a977	6.230448e-05
2	0x393dba86	0.0001809393
3	0x00000000	0.0
4	0xb6c0fb4f	-5.751302e-06
5	0xb756cf91	-1.2803722e-05
6	0x3972f9d0	0.00023171981
7	0x00000000	0.0
8	0x39042da2	0.000126055
9	0x39d25358	0.00040116417
10	0x00000000	0.0
11	0x37fe3b81	3.0306868e-05
12	0xb8658a6b	-5.4726766e-05
13	0xb846aa8e	-4.736572e-05
14	0x39393797	0.00017663684
15	0x00000000	0.0
16	0xb876a993	-5.88089e-05
17	0x37c65818	2.3644461e-05
18	0x392cea91	0.00016490581
19	0x00000000	0.0
20	0xb868028a	-5.5315475e-05
21	0x38b5d296	8.669977e-05
22	0x38385a97	4.3953387e-05
23	0x379b9626	1.8547358e-05
24	0x3993a38a	0.0002815987
25	0xb83cd4d3	-4.50209e-05
26	0x38e81b4c	0.000110677065
27	0xb9073fa7	-0.00012898316
28	0x39845906	0.0002524333
29	0xb98b52b4	-0.00026573765
30	0x00000000	0.0
31	0x00000000	0.0
32	0x38bb9f43	8.94652e-05
33	0xb84c8c2a	-4.8767928e-05
34	0x387050a4	5.729556e-05
35	0x00000000	0.0
36	0x32e2cf3f	2.6404107e-08
37	0xb7b65b66	-2.1738651e-05
38	0x385aa0e2	5.2125084e-05
39	0xb73ae4ea	-1.1139762e-05
40	0xb9366345	-0.00017393853
41	0x00000000	0.0
42	0x00000000	0.0
43	0x00000000	0.0
44	0x00000000	0.0
45	0xb9d0b341	-0.00039806406
46	0xb94db51d	-0.00019617793
47	0x00000000	0.0
48	0xb9a32f47	-0.00031125007
49	0xb8a67a78	-7.9383084e-05
50	0xb7920dfc	-1.7411068e-05
51	0xb9ccdc61	-0.00039074107
52	0x38cb1ef0	9.685557e-05
53	0xb9402331	-0.00018323657
54	0x00000000	0.0
55	0x00000000	0.0
56	0x38ce0a0c	9.824717e-05
57	0x00000000	0.0
58	0x00000000	0.0
59	0xb9302a42	-0.0001680041
60	0x00000000	0.0
61	0x36e6ad77	6.874728e-06
62	0xb95107c6	-0.00019934689
63	0xb8c2d346	-9.2899936e-05

exp_avg_sq f4 [64]
0	0x00000000	0.0
1	0x3567c622	8.6342527e-07
2	0x374848ca	1.19378765e-05
3	0x00000000	0.0
4	0x3423dbdd	1.5260544e-07
5	0x340d7a3f	1.3176121e-07
6	0x3690cc94	4.3153505e-06
7	0x00000000	0.0
8	0x3319e6c9	3.5832986e-08
9	0x36ac1189	5.128041e-06
10	0x00000000	0.0
11	0x343b1534	1.7423446e-07
12	0x33250043	3.8417294e-08
13	0x34d0e3e8	3.8908843e-07
14	0x355ebd3b	8.297681e-07
15	0x00000000	0.0
16	0x358f7709	1.0688974e-06
17	0x344144c8	1.7999548e-07
18	0x35efc414	1.7863954e-06
19	0x00000000	0.0
20	0x35ac4bcc	1.2837058e-06
21	0x341f5196	1.483771e-07
22	0x33af5f50	8.16641e-08
23	0x33fd06a9	1.1782442e-07
24	0x36b5aba7	5.4142033e-06
25	0x34f97214	4.6462867e-07
26	0x35462157	7.3809264e-07
27	0x35f53fc6	1.8272483e-06
28	0x369c6844	4.6613004e-06
29	0x368b19d6	4.1455305e-06
30	0x00000000	0.0
31	0x00000000	0.0
32	0x34a70321	3.110845e-07
33	0x35781288	9.2414166e-07
34	0x3521807c	6.0164143e-07
35	0x00000000	0.0
36	0x345eee6f	2.0762103e-07
37	0x3487c2d6	2.528747e-07
38	0x3315fea0	3.4923346e-08
39	0x34b97b19	3.45485e-07
40	0x3555b354	7.960964e-07
41	0x00000000	0.0
42	0x00000000	0.0
43	0x00000000	0.0
44	0x00000000	0.0
45	0x342b6fb0	1.5966248e-07
46	0x36764fbb	3.6703266e-06
47	0x00000000	0.0
48	0x36d37962	6.302421e-06
49	0x350d4623	5.2628656e-07
50	0x354dac98	7.661961e-07
51	0x372288be	9.68779e-06
52	0x34a77ed8	3.1198465e-07
53	0x36412103	2.8778456e-06
54	0x00000000	0.0
55	0x00000000	0.0
56	0x34a4dae2	3.070664e-07
57	0x00000000	0.0
58	0x00000000	0.0
59	0x3582d05d	9.746396e-07
60	0x00000000	0.0
61	0x348f437c	2.6684927e-07
62	0x340ee3c0	1.3307636e-07
63	0x3580f186	9.607036e-07

exp_avg f4 [128, 64]
0	0x00000000	0.0
1	0xb2f493ea	-2.8472602e-08
2	0x32c55617	2.2972968e-08
3	0x00000000	0.0
4	0xb3171582	-3.517699e-08
5	0xb41489a7	-1.3833652e-07
6	0x3223d426	9.536086e-09
7	0x00000000	0.0
8	0x307d9c77	9.2263214e-10
9	0x325c4649	1.2821666e-08
10	0x00000000	0.0
11	0xb3cb4142	-9.4647945e-08
12	0x2e1838ea	3.461135e-11
13	0xb38255c5	-6.069198e-08
14	0xb2b3c259	-2.0926722e-08
15	0x00000000	0.0
16	0xb2252b35	-9.614088e-09
17	0xb40f3eb3	-1.3340723e-07
18	0xb38304cf	-6.1010375e-08
19	0x00000000	0.0
20	0xb3e66b3e	-1.0729717e-07
21	0xb3ebfea6	-1.09893605e-07
22	0x00000000	0.0
23	0xb36842ff	-5.4077642e-08
24	0x32cba9dc	2.3709553e-08
25	0xb2e0ffe6	-2.6193401e-08
26	0xb37805a1	-5.774712e-08
27	0xb35b9e83	-5.1134077e-08
28	0x31795506	3.62826e-09
29	0xb36c4025	-5.500637e-08
30	0x00000000	0.0
31	0x00000000	0.0
32	0xb33f5d90	-4.4555748e-08
33	0xb3086c8b	-3.1763687e-08
34	0xb3b7a8bd	-8.552295e-08
35	0x00000000	0.0
36	0xaf5956d9	-1.976689e-10
37	0xb39dfde4	-7.357065e-08
38	0xb2b80d04	-2.1426338e-08
39	0xb362c911	-5.2802594e-08
40	0xb3a9c2a8	-7.9050835e-08
41	0x00000000	0.0
42	0x00000000	0.0
43	0x00000000	0.0
44	0x00000000	0.0
45	0x32404f31	1.1193877e-08
46	0xb3805576	-5.97601e-08
47	0x00000000	0.0
48	0xb30af42e	-3.235271e-08
49	0xb4061f43	-1.2491095e-07
50	0xb3439031	-4.5533117e-08
51	0xb3275533	-3.8960206e-08
52	0xb3be6e35	-8.867611e-08
53	0xb385b7c1	-6.22672e-08
54	0x00000000	0.0
55	0x00000000	0.0
56	0x31f96798	7.258631e-09
57	0x00000000	0.0
58	0x00000000	0.0
59	0xb333901a	-4.1807745e-08
60	0x00000000	0.0
61	0xb1dc3fd0	-6.4100973e-09
62	0x00000004	6e-45
63	0xb415ad44	-1.393974e-07
64	0x00000000	0.0
65	0xb7e80644	-2.7659473e-05
66	0xb7d7bb95	-2.5717347e-05
67	0x00000000	0.0
68	0xb80ad7d2	-3.3102762e-05
69	0xb898007e	-7.2480165e-05
70	0xb669d310	-3.484256e-06
71	0x00000000	0.0
72	0xb7f55f4d	-2.9250654e-05
73	0xb786b3a7	-1.6057702e-05
74	0x00000000	0.0
75	0xb8766a4d	-5.874997e-05
76	0xb7c25feb	-2.3171267e-05
77	0xb72d3a03	-1.032511e-05
78	0x3636c450	2.7234382e-06
79	0x00000000	0.0
80	0x36cb182a	6.0526845e-06
81	0xb88c8bdb	-6.70177e-05
82	0xb83a2dab	-4.4388387e-05
83	0x00000000	0.0
84	0xb83f223a	-4.5569825e-05
85	0xb863df96	-5.4329248e-05
86	0xb67d09bc	-3.7705604e-06
87	0xb7a0d57a	-1.9172894e-05
88	0xb80fdaf0	-3.429776e-05
89	0xb673f790	-3.6353922e-06
90	0xb83fae0a	-4.5700035e-05
91	0xb831888c	-4.2327258e-05
92	0xb6251728	-2.4600395e-06
93	0xb8418df3	-4.6146986e-05
94	0x00000000	0.0
95	0x00000000	0.0
96	0xb78e2724	-1.6945945e-05
97	0x37308fc8	1.0523894e-05
98	0xb86c1331	-5.6284658e-05
99	0x00000000	0.0
100	0xaed9a8fc	-9.898035e-11
101	0xb80e49e6	-3.392426e-05
102	0xb745de63	-1.17938935e-05
103	0xb6d2f6cf	-6.28722e-06
104	0xb7e7d0a8	-2.7634509e-05
105	0x00000000	0.0
106	0x00000000	0.0
107	0x00000000	0.0
108	0x00000000	0.0
109	0xb65c79f5	-3.2853543e-06
110	0xb65fd500	-3.3353572e-06
111	0x00000000	0.0
112	0x36a30cb0	4.8592556e-06
113	0xb87d1dbf	-6.0347604e-05
114	0xb698e843	-4.556992e-06
115	0xb74c73be	-1.2186296e-05
116	0xb839d514	-4.430588e-05
117	0xb72e637b	-1.039437e-05
118	0x00000000	0.0
119	0x00000000	0.0
120	0xb7c562a3	-2.3530161e-05
121	0x00000000	0.0
122	0x00000000	0.0
123	0xb82e1f4e	-4.1513988e-05
124	0x00000000	0.0
125	0x3208056a	7.917473e-09
126	0x36ebaf6a	7.0239666e-06
127	0xb89872e9	-7.2693285e-05
128	0x00000000	0.0
129	0x00000000	0.0
130	0x00000000	0.0
131	0x00000000	0.0
132	0x00000000	0.0
133	0x00000000	0.0
134	0x00000000	0.0
135	0x00000000	0.0
136	0x00000000	0.0
137	0x00000000	0.0
138	0x00000000	0.0
139	0x00000000	0.0
140	0x00000000	0.0
141	0x00000000	0.0
142	0x00000000	0.0
143	0x00000000	0.0
144	0x00000000	0.0
145	0x00000000	0.0
146	0x00000000	0.0
147	0x00000000	0.0
148	0x00000000	0.0
149	0x00000000	0.0
150	0x00000000	0.0
151	0x00000000	0.0
152	0x00000000	0.0
153	0x00000000	0.0
154	0x00000000	0.0
155	0x00000000	0.0
156	0x00000000	0.0
157	0x00000000	0.0
158	0x00000000	0.0
159	0x00000000	0.0
160	0x00000000	0.0
161	0x00000000	0.0
162	0x00000000	0.0
163	0x00000000	0.0
164	0x00000000	0.0
165	0x00000000	0.0
166	0x00000000	0.0
167	0x00000000	0.0
168	0x00000000	0.0
169	0x00000000	0.0
170	0x00000000	0.0
171	0x00000000	0.0
172	0x00000000	0.0
173	0x00000000	0.0
174	0x00000000	0.0
175	0x00000000	0.0
176	0x00000000	0.0
177	0x00000000	0.0
178	0x00000000	0.0
179	0x00000000	0.0
180	0x00000000	0.0
181	0x00000000	0.0
182	0x00000000	0.0
183	0x00000000	0.0
184	0x00000000	0.0
185	0x00000000	0.0
186	0x00000000	0.0
187	0x00000000	0.0
188	0x00000000	0.0
189	0x00000000	0.0
190	0x00000000	0.0
191	0x00000000	0.0
192	0x00000000	0.0
193	0x00000000	0.0
194	0x00000000	0.0
195	0x00000000	0.0
196	0x00000000	0.0
197	0x00000000	0.0
198	0x00000000	0.0
199	0x00000000	0.0
200	0x00000000	0.0
201	0x00000000	0.0
202	0x00000000	0.0
203	0x00000000	0.0
204	0x00000000	0.0
205	0x00000000	0.0
206	0x00000000	0.0
207	0x00000000	0.0
208	0x00000000	0.0
209	0x00000000	0.0
210	0x00000000	0.0
211	0x00000000	0.0
212	0x00000000	0.0
213	0x00000000	0.0
214	0x00000000	0.0
215	0x00000000	0.0
216	0x00000000	0.0
217	0x00000000	0.0
218	0x00000000	0.0
219	0x00000000	0.0
220	0x00000000	0.0
221	0x00000000	0.0
222	0x00000000	0.0
223	0x00000000	0.0
224	0x00000000	0.0
225	0x00000000	0.0
226	0x00000000	0.0
227	0x00000000	0.0
228	0x00000000	0.0
229	0x00000000	0.0
230	0x00000000	0.0
231	0x00000000	0.0
232	0x00000000	0.0
233	0x00000000	0.0
234	0x00000000	0.0
235	0x00000000	0.0
236	0x00000000	0.0
237	0x00000000	0.0
238	0x00000000	0.0
239	0x00000000	0.0
240	0x00000000	0.0
241	0x00000000	0.0
242	0x00000000	0.0
243	0x00000000	0.0
244	0x00000000	0.0
245	0x00000000	0.0
246	0x00000000	0.0
247	0x00000000	0.0
248	0x00000000	0.0
249	0x00000000	0.0
250	0x00000000	0.0
251	0x00000000	0.0
252	0x00000000	0.0
253	0x00000000	0.0
254	0x00000000	0.0
255	0x00000000	0.0

exp_avg_sq f4 [128, 64]
0	0x00000000	0.0
1	0x312f2fc1	2.5492997e-09
2	0x3105f692	1.9494206e-09
3	0x00000000	0.0
4	0x2f9fa459	2.9038708e-10
5	0x32f51a12	2.853361e-08
6	0x3094649e	1.0797014e-09
7	0x00000000	0.0
8	0x2ab25f03	3.168508e-13
9	0x309d075a	1.1425343e-09
10	0x00000000	0.0
11	0x31efabb6	6.9753368e-09
12	0x2a089e0d	1.2134061e-13
13	0x31dc91ff	6.4194405e-09
14	0x322df401	1.0125405e-08
15	0x00000000	0.0
16	0x3005304e	4.8453763e-10
17	0x32ba23e6	2.1669575e-08
18	0x323a70c5	1.0852266e-08
19	0x00000000	0.0
20	0x3310bbf1	3.3698544e-08
21	0x33079a9c	3.1572753e-08
22	0x00000000	0.0
23	0x311dba21	2.295231e-09
24	0x30b75cfc	1.334143e-09
25	0x311c2efc	2.2727695e-09
26	0x3166b3fe	3.3571719e-09
27	0x30179a73	5.5152966e-10
28	0x30a6e7eb	1.2144005e-09
29	0x30909c2e	1.0521768e-09
30	0x00000000	0.0
31	0x00000000	0.0
32	0x300f826b	5.220843e-10
33	0x321c456d	9.096181e-09
34	0x31d86ad4	6.2985723e-09
35	0x00000000	0.0
36	0x2edc15a6	1.0008287e-10
37	0x32118d20	8.472199e-09
38	0x30c8d5b0	1.4612649e-09
39	0x3152ec3b	3.0693303e-09
40	0x331b57b8	3.616853e-08
41	0x00000000	0.0
42	0x00000000	0.0
43	0x00000000	0.0
44	0x00000000	0.0
45	0x2c24c9a4	2.3417735e-12
46	0x323d12dd	1.1005537e-08
47	0x00000000	0.0
48	0x31f11e53	7.0174706e-09
49	0x33066434	3.129044e-08
50	0x30cce18a	1.4907056e-09
51	0x31c5a6d8	5.7524225e-09
52	0x32f0e2ba	2.804278e-08
53	0x328fb292	1.6728595e-08
54	0x00000000	0.0
55	0x00000000	0.0
56	0x2e045bbc	3.00948e-11
57	0x00000000	0.0
58	0x00000000	0.0
59	0x2fc12066	3.5129516e-10
60	0x00000000	0.0
61	0x30b04abb	1.2826925e-09
62	0x2169c775	7.920745e-19
63	0x32de7248	2.589617e-08
64	0x00000000	0.0
65	0x32e7bd7c	2.6978107e-08
66	0x32c88df6	2.334762e-08
67	0x00000000	0.0
68	0x329584ca	1.7406268e-08
69	0x3474fb5b	2.2815713e-07
70	0x3280ffc8	1.5017477e-08
71	0x00000000	0.0
72	0x31968064	4.380171e-09
73	0x32bb9c9c	2.1840883e-08
74	0x00000000	0.0
75	0x34065a6f	1.2512622e-07
76	0x31a825d8	4.893746e-09
77	0x3346a459	4.624994e-08
78	0x321144b5	8.455733e-09
79	0x00000000	0.0
80	0x31427a4b	2.830023e-09
81	0x348e36bf	2.6489394e-07
82	0x33ff9e33	1.1903139e-07
83	0x00000000	0.0
84	0x33c98eea	9.385788e-08
85	0x34600c8c	2.086619e-07
86	0x31375cb6	2.6682705e-09
87	0x3338a68f	4.2992323e-08
88	0x32dfb03e	2.6040762e-08
89	0x31faa566	7.2947612e-09
90	0x339dcbc5	7.347948e-08
91	0x32ab619f	1.9951413e-08
92	0x32a1c2aa	1.883139e-08
93	0x3291baf5	1.696524e-08
94	0x00000000	0.0
95	0x00000000	0.0
96	0x334443b6	4.569639e-08
97	0x32695c67	1.3583395e-08
98	0x33f6fc08	1.1501112e-07
99	0x00000000	0.0
100	0x29dcfcb5	9.8138e-14
101	0x33909e2d	6.7342945e-08
102	0x31fe36f6	7.3986213e-09
103	0x33370cde	4.261971e-08
104	0x336a6645	5.4575384e-08
105	0x00000000	0.0
106	0x00000000	0.0
107	0x00000000	0.0
108	0x00000000	0.0
109	0x2db2877c	2.0296424e-11
110	0x32c3b454	2.2782991e-08
111	0x00000000	0.0
112	0x312dde02	2.530101e-09
113	0x3411d254	1.3580694e-07
114	0x32fd585e	2.9493261e-08
115	0x30d17c98	1.5242163e-09
116	0x341f5a3a	1.4840853e-07
117	0x32af0a4d	2.0377366e-08
118	0x00000000	0.0
119	0x00000000	0.0
120	0x32a9076c	1.9677564e-08
121	0x00000000	0.0
122	0x00000000	0.0
123	0x32643d27	1.3285251e-08
124	0x00000000	0.0
125	0x30ea29d6	1.7037631e-09
126	0x2e992072	6.963398e-11
127	0x34499324	1.8773113e-07
128	0x00000000	0.0
129	0x00000000	0.0
130	0x00000000	0.0
131	0x00000000	0.0
132	0x00000000	0.0
133	0x00000000	0.0
134	0x00000000	0.0
135	0x00000000	0.0
136	0x00000000	0.0
137	0x00000000	0.0
138	0x00000000	0.0
139	0x00000000	0.0
140	0x00000000	0.0
141	0x00000000	0.0
142	0x00000000	0.0
143	0x00000000	0.0
144	0x00000000	0.0
145	0x00000000	0.0
146	0x00000000	0.0
147	0x00000000	0.0
148	0x00000000	0.0
149	0x00000000	0.0
150	0x00000000	0.0
151	0x00000000	0.0
152	0x00000000	0.0
153	0x00000000	0.0
154	0x00000000	0.0
155	0x00000000	0.0
156	0x00000000	0.0
157	0x00000000	0.0
158	0x00000000	0.0
159	0x00000000	0.0
160	0x00000000	0.0
161	0x00000000	0.0
162	0x00000000	0.0
163	0x00000000	0.0
164	0x00000000	0.0
165	0x00000000	0.0
166	0x00000000	0.0
167	0x00000000	0.0
168	0x00000000	0.0
169	0x00000000	0.0
170	0x00000000	0.0
171	0x00000000	0.0
172	0x00000000	0.0
173	0x00000000	0.0
174	0x00000000	0.0
175	0x00000000	0.0
176	0x00000000	0.0
177	0x00000000	0.0
178	0x00000000	0.0
179	0x00000000	0.0
180	0x00000000	0.0
181	0x00000000	0.0
182	0x00000000	0.0
183	0x00000000	0.0
184	0x00000000	0.0
185	0x00000000	0.0
186	0x00000000	0.0
187	0x00000000	0.0
188	0x00000000	0.0
189	0x00000000	0.0
190	0x00000000	0.0
191	0x00000000	0.0
192	0x00000000	0.0
193	0x00000000	0.0
194	0x00000000	0.0
195	0x00000000	0.0
196	0x00000000	0.0
197	0x00000000	0.0
198	0x00000000	0.0
199	0x00000000	0.0
200	0x00000000	0.0
201	0x00000000	0.0
202	0x00000000	0.0
203	0x00000000	0.0
204	0x00000000	0.0
205	0x00000000	0.0
206	0x00000000	0.0
207	0x00000000	0.0
208	0x00000000	0.0
209	0x00000000	0.0
210	0x00000000	0.0
211	0x00000000	0.0
212	0x00000000	0.0
213	0x00000000	0.0
214	0x00000000	0.0
215	0x00000000	0.0
216	0x00000000	0.0
217	0x00000000	0.0
218	0x00000000	0.0
219	0x00000000	0.0
220	0x00000000	0.0
221	0x00000000	0.0
222	0x00000000	0.0
223	0x00000000	0.0
224	0x00000000	0.0
225	0x00000000	0.0
226	0x00000000	0.0
227	0x00000000	0.0
228	0x00000000	0.0
229	0x00000000	0.0
230	0x00000000	0.0
231	0x00000000	0.0
232	0x00000000	0.0
233	0x00000000	0.0
234	0x00000000	0.0
235	0x00000000	0.0
236	0x00000000	0.0
237	0x00000000	0.0
238	0x00000000	0.0
239	0x00000000	0.0
240	0x00000000	0.0
241	0x00000000	0.0
242	0x00000000	0.0
243	0x00000000	0.0
244	0x00000000	0.0
245	0x00000000	0.0
246	0x00000000	0.0
247	0x00000000	0.0
248	0x00000000	0.0
249	0x00000000	0.0
250	0x00000000	0.0
251	0x00000000	0.0
252	0x00000000	0.0
253	0x00000000	0.0
254	0x00000000	0.0
255	0x00000000	0.0

exp_avg f4 [128]
0	0xb42bc7da	-1.5998322e-07
1	0xb83bbb23	-4.475856e-05
2	0x00000000	0.0
3	0x00000000	0.0
4	0x377f4986	1.5216303e-05
5	0x00000000	0.0
6	0x00000000	0.0
7	0xb88f634c	-6.837267e-05
8	0x00000004	6e-45
9	0xb7071348	-8.051116e-06
10	0x00000000	0.0
11	0x00000000	0.0
12	0xb775a575	-1.4641661e-05
13	0x3869d088	5.574574e-05
14	0xb8b73f51	-8.7379136e-05
15	0xb7a8ab76	-2.0107003e-05
16	0xb76653de	-1.3728595e-05
17	0xb362d88c	-5.2816674e-08
18	0x38e64f3e	0.00010982015
19	0x00000000	0.0
20	0x00000000	0.0
21	0xb8aa92bd	-8.133564e-05
22	0x371da2db	9.395847e-06
23	0x00000004	6e-45
24	0xb84525d5	-4.7003694e-05
25	0x00000000	0.0
26	0xb8aabb33	-8.1411e-05
27	0x00000000	0.0
28	0xb8ad7711	-8.271461e-05
29	0x36bfc921	5.715658e-06
30	0xb80f73a7	-3.4201566e-05
31	0x00000000	0.0
32	0x38aed088	8.3358085e-05
33	0x36cfc337	6.1918067e-06
34	0x00000004	6e-45
35	0x3905307f	0.00012701935
36	0xb59f8b4d	-1.1886965e-06
37	0x00000000	0.0
38	0x00000000	0.0
39	0x00000000	0.0
40	0xb8a8621d	-8.029139e-05
41	0x00000000	0.0
42	0x387eda0c	6.076139e-05
43	0x00000000	0.0
44	0xb67acffd	-3.7373968e-06
45	0x00000000	0.0
46	0x00000000	0.0
47	0x00000000	0.0
48	0x00000000	0.0
49	0x37bc1803	2.2422528e-05
50	0xb7cac661	-2.4172654e-05
51	0x00000000	0.0
52	0x373e43fd	1.1340712e-05
53	0x00000004	6e-45
54	0xb8aeea22	-8.340577e-05
55	0x00000000	0.0
56	0xb7a7ea90	-2.0017178e-05
57	0x00000000	0.0
58	0x38aae6ce	8.1492224e-05
59	0xb8d3128e	-0.0001006472
60	0x37e06235	2.6748612e-05
61	0x00000000	0.0
62	0xb8b61420	-8.682185e-05
63	0xb4e20c32	-4.2104654e-07
64	0x38a97b9f	8.081574e-05
65	0x00000000	0.0
66	0x00000000	0.0
67	0x37d988e8	2.5932168e-05
68	0xb838a359	-4.4021148e-05
69	0x00000000	0.0
70	0x3828ecb3	4.0274765e-05
71	0xb6cc2c40	-6.084825e-06
72	0x38edf98c	0.000113475224
73	0xb6f5f470	-7.3300253e-06
74	0x00000004	6e-45
75	0x38e26e02	0.0001079701
76	0x00000000	0.0
77	0x36c6f36f	5.9291992e-06
78	0x00000000	0.0
79	0x00000000	0.0
80	0x3789cba3	1.6426498e-05
81	0xb8ee2a61	-0.00011356618
82	0x00000004	6e-45
83	0xb8c5ed93	-9.437944e-05
84	0x388e4704	6.784315e-05
85	0xb817034f	-3.6004287e-05
86	0xb7b3178d	-2.134943e-05
87	0x38472a16	4.7484493e-05
88	0xb88edc1a	-6.812085e-05
89	0xb87ed158	-6.0753286e-05
90	0x37904966	1.7200317e-05
91	0xb649d801	-3.0077065e-06
92	0x00000000	0.0
93	0x00000004	6e-45
94	0x37748bb6	1.4576062e-05
95	0x00000000	0.0
96	0x00000000	0.0
97	0x37eea737	2.8449676e-05
98	0x00000000	0.0
99	0xb8f5d0d3	-0.00011721407
100	0x00000000	0.0
101	0xb883ff4c	-6.2941195e-05
102	0xb79ff4d2	-1.906828e-05
103	0x37d0dd9b	2.4898725e-05
104	0x36af119c	5.2174564e-06
105	0x37cf8754	2.473934e-05
106	0x382f2863	4.1760864e-05
107	0xb91de1f4	-0.00015056861
108	0x00000000	0.0
109	0x00000000	0.0
110	0xb901d061	-0.00012380026
111	0x35d0dca9	1.5561428e-06
112	0x388f5d8f	6.836198e-05
113	0xb8b6ffde	-8.726095e-05
114	0x37e5a758	2.7376853e-05
115	0x38624163	5.3943495e-05
116	0x3829d856	4.049422e-05
117	0x3808412c	3.2485623e-05
118	0x37c5c620	2.357649e-05
119	0x00000000	0.0
120	0x00000004	6e-45
121	0x00000000	0.0
122	0xb8e7b7a7	-0.00011049146
123	0x38494dfd	4.7994767e-05
124	0x00000000	0.0
125	0xb749315f	-1.1992029e-05
126	0x00000000	0.0
127	0x00000004	6e-45

exp_avg_sq f4 [128]
0	0x33b50c00	8.430652e-08
1	0x3499410b	2.8545796e-07
2	0x00000000	0.0
3	0x00000000	0.0
4	0x3200d099	7.49801e-09
5	0x00000000	0.0
6	0x00000000	0.0
7	0x35295745	6.30844e-07
8	0x2ee35d27	1.0339312e-10
9	0x3424c96c	1.5346967e-07
10	0x00000000	0.0
11	0x00000000	0.0
12	0x326557e5	1.3349539e-08
13	0x33c4700a	9.147341e-08
14	0x357350c6	9.0642095e-07
15	0x31eb9b85	6.8570807e-09
16	0x32b59f07	2.114349e-08
17	0x310b6118	2.0282354e-09
18	0x34a4d017	3.0698786e-07
19	0x00000000	0.0
20	0x00000000	0.0
21	0x34a3d339	3.05148e-07
22	0x337bf119	5.865977e-08
23	0x2b579509	7.659017e-13
24	0x3309d8bb	3.2094913e-08
25	0x00000000	0.0
26	0x3507d9fb	5.060862e-07
27	0x00000000	0.0
28	0x34957848	2.784093e-07
29	0x33d37043	9.8458734e-08
30	0x33df871b	1.0408822e-07
31	0x00000000	0.0
32	0x34c576e7	3.6780622e-07
33	0x329beae1	1.8151185e-08
34	0x1fc956b0	8.5270224e-20
35	0x33ecd8c9	1.10290394e-07
36	0x32f0fb06	2.805383e-08
37	0x00000000	0.0
38	0x00000000	0.0
39	0x00000000	0.0
40	0x35243918	6.1177843e-07
41	0x00000000	0.0
42	0x3504825c	4.936353e-07
43	0x00000000	0.0
44	0x34af8439	3.2692495e-07
45	0x00000000	0.0
46	0x00000000	0.0
47	0x00000000	0.0
48	0x00000000	0.0
49	0x33e2351d	1.0533606e-07
50	0x34b1402f	3.301552e-07
51	0x00000000	0.0
52	0x344e37b3	1.9205508e-07
53	0x25ac58eb	2.9897497e-16
54	0x34e44c88	4.2523993e-07
55	0x00000000	0.0
56	0x32b632b8	2.1210653e-08
57	0x00000000	0.0
58	0x346434a5	2.1253307e-07
59	0x3518930e	5.6838405e-07
60	0x33e4182a	1.0621473e-07
61	0x00000000	0.0
62	0x35442c73	7.308037e-07
63	0x33f90233	1.1595366e-07
64	0x34aa277e	3.1693702e-07
65	0x00000000	0.0
66	0x00000000	0.0
67	0x336e1191	5.542967e-08
68	0x34180690	1.415849e-07
69	0x00000000	0.0
70	0x32cec432	2.4070776e-08
71	0x34a35c23	3.0428154e-07
72	0x359ee52b	1.1838614e-06
73	0x337e2381	5.9171274e-08
74	0x2ec05ce2	8.7476484e-11
75	0x352204a5	6.035646e-07
76	0x00000000	0.0
77	0x32e48e21	2.6607326e-08
78	0x00000000	0.0
79	0x00000000	0.0
80	0x31d975d0	6.328925e-09
81	0x349b19e8	2.888985e-07
82	0x280424d6	7.3354595e-15
83	0x350aa773	5.1652677e-07
84	0x3375f572	5.726674e-08
85	0x344caef4	1.9062628e-07
86	0x331c1984	3.6344787e-08
87	0x347f27a5	2.3763148e-07
88	0x32ecaef6	2.7553579e-08
89	0x348769a4	2.5222573e-07
90	0x31cf038d	6.0248966e-09
91	0x338208e7	6.055216e-08
92	0x00000000	0.0
93	0x2d540ce0	1.2053664e-11
94	0x3359b7b1	5.0691316e-08
95	0x00000000	0.0
96	0x00000000	0.0
97	0x3354433a	4.942124e-08
98	0x00000000	0.0
99	0x3516b22c	5.613863e-07
100	0x00000000	0.0
101	0x3480c8c4	2.3987934e-07
102	0x344d86e4	1.9141186e-07
103	0x3365e032	5.3522122e-08
104	0x33be415a	8.859452e-08
105	0x3307b031	3.1592382e-08
106	0x346bd51e	2.1963612e-07
107	0x34642108	2.1246171e-07
108	0x00000000	0.0
109	0x00000000	0.0
110	0x352b96f5	6.3922135e-07
111	0x3552bd61	7.850668e-07
112	0x33ccf74e	9.544475e-08
113	0x34af1347	3.2610316e-07
114	0x3459eafa	2.0295184e-07
115	0x32d9c397	2.5351069e-08
116	0x33e27f7d	1.0547135e-07
117	0x33140bf2	3.44698e-08
118	0x32ef08e5	2.7827307e-08
119	0x00000000	0.0
120	0x2e3b0590	4.2523818e-11
121	0x00000000	0.0
122	0x350ee5cb	5.3233515e-07
123	0x328e665c	1.6577523e-08
124	0x00000000	0.0
125	0x32b9567b	2.1576161e-08
126	0x00000000	0.0
127	0x24080820	2.949718e-17

exp_avg f4 [64, 128]
0	0xb253e6f0	-1.2334326e-08
1	0xb7df359a	-2.6608632e-05
2	0x00000000	0.0
3	0x00000000	0.0
4	0x365e5110	3.3127762e-06
5	0x00000000	0.0
6	0x00000000	0.0
7	0xb7c982bb	-2.4021943e-05
8	0x00000000	0.0
9	0xb7926907	-1.7453463e-05
10	0x00000000	0.0
11	0x00000000	0.0
12	0xb69b3a33	-4.6261353e-06
13	0x373a5dd0	1.1108306e-05
14	0xb7f013c6	-2.8619437e-05
15	0xb7b1d1d3	-2.1197751e-05
16	0xb705bec9	-7.971838e-06
17	0xb25dbc54	-1.2906714e-08
18	0x36f8d372	7.4155914e-06
19	0x00000000	0.0
20	0x00000000	0.0
21	0xb814faf6	-3.5519675e-05
22	0xb58a65e6	-1.0311458e-06
23	0x00000000	0.0
24	0x35e8f23f	1.735585e-06
25	0x00000000	0.0
26	0xb80ae90f	-3.3118817e-05
27	0x00000000	0.0
28	0xb8022f60	-3.1038537e-05
29	0xb790c7e3	-1.7259217e-05
30	0xb7ec9739	-2.820381e-05
31	0x00000000	0.0
32	0xb7f30f15	-2.897488e-05
33	0xb659bdae	-3.2445928e-06
34	0x00000000	0.0
35	0x37818fd4	1.5444974e-05
36	0xb6bfe287	-5.718615e-06
37	0x00000000	0.0
38	0x00000000	0.0
39	0x00000000	0.0
40	0xb7cfc358	-2.4767287e-05
41	0x00000000	0.0
42	0xb81d52a7	-3.7508693e-05
43	0x00000000	0.0
44	0x36808a4a	3.8307962e-06
45	0x00000000	0.0
46	0x00000000	0.0
47	0x00000000	0.0
48	0x00000000	0.0
49	0xb76fe817	-1.4299548e-05
50	0xb7e2e9b4	-2.7050126e-05
51	0x00000000	0.0
52	0xb76829ff	-1.3838056e-05
53	0x80000004	-6e-45
54	0xb7e29fdf	-2.7015745e-05
55	0x00000000	0.0
56	0xb6dcdc4d	-6.5821573e-06
57	0x00000000	0.0
58	0xb4a50074	-3.0733975e-07
59	0xb81bb6a1	-3.7124966e-05
60	0x3639867b	2.7645426e-06
61	0x00000000	0.0
62	0xb8006cab	-3.0618783e-05
63	0xb79f8a2c	-1.9018618e-05
64	0xb7dc6e33	-2.627736e-05
65	0x00000000	0.0
66	0x00000000	0.0
67	0x359a8e33	1.151528e-06
68	0xb7ae2434	-2.0759275e-05
69	0x00000000	0.0
70	0x36b7c3dc	5.476626e-06
71	0xb7e23f43	-2.6970758e-05
72	0xb330395c	-4.103036e-08
73	0x36a711f2	4.979077e-06
74	0x00000000	0.0
75	0xaf6cf844	-2.1552277e-10
76	0x00000000	0.0
77	0xb6b328b7	-5.3393555e-06
78	0x00000000	0.0
79	0x00000000	0.0
80	0xb76c43b6	-1.4082461e-05
81	0xb79b0bb7	-1.8482895e-05
82	0x00000000	0.0
83	0xb7c5c4ed	-2.357593e-05
84	0x377932d0	1.4853387e-05
85	0xb7d95c80	-2.591149e-05
86	0xb74aaaff	-1.2079951e-05
87	0xb522349d	-6.0426265e-07
88	0x3695231c	4.4446333e-06
89	0xb80b71d7	-3.3246204e-05
90	0x354170ab	7.2062056e-07
91	0xb7aad500	-2.0364765e-05
92	0x00000000	0.0
93	0x80000004	-6e-45
94	0xb7650159	-1.3649777e-05
95	0x00000000	0.0
96	0x00000000	0.0
97	0x367728d5	3.6829636e-06
98	0x00000000	0.0
99	0xb7e8aa29	-2.7735792e-05
100	0x00000000	0.0
101	0xb7b34fb3	-2.1375576e-05
102	0xb77fac5c	-1.5239315e-05
103	0x36afa88c	5.235028e-06
104	0xb808af3b	-3.2588123e-05
105	0x3697cb2d	4.5238035e-06
106	0xb61078ac	-2.1527912e-06
107	0xb8162910	-3.580103e-05
108	0x00000000	0.0
109	0x00000000	0.0
110	0xb8094e3b	-3.2736203e-05
111	0x2bbb9abf	1.33301e-12
112	0x370dc3a0	8.449802e-06
113	0xb7a0528e	-1.9111929e-05
114	0xb6e7b54e	-6.905443e-06
115	0x36bf928f	5.7093052e-06
116	0xb6ad4865	-5.1642296e-06
117	0xb5b3569f	-1.3361749e-06
118	0xb6873731	-4.0297386e-06
119	0x00000000	0.0
120	0x80000004	-6e-45
121	0x00000000	0.0
122	0xb8152f6f	-3.5568544e-05
123	0x372c653b	1.02755685e-05
124	0x00000000	0.0
125	0xb7aa1ef0	-2.0279986e-05
126	0x00000000	0.0
127	0x00000000	0.0
128	0xb1a441a7	-4.780492e-09
129	0xb6e8679e	-6.9262014e-06
130	0x00000000	0.0
131	0x00000000	0.0
132	0x3723478f	9.732218e-06
133	0x00000000	0.0
134	0x00000000	0.0
135	0xb5c6e937	-1.4820024e-06
136	0x80000004	-6e-45
137	0x36c001b4	5.722244e-06
138	0x00000000	0.0
139	0x00000000	0.0
140	0x371c2430	9.30675e-06
141	0x377f5351	1.5218583e-05
142	0xb5f7c284	-1.8459546e-06
143	0x3736cbef	1.0895527e-05
144	0xb618cd8d	-2.2769411e-06
145	0xb173fdc0	-3.5505394e-09
146	0x37000497	7.630463e-06
147	0x00000000	0.0
148	0x00000000	0.0
149	0xb6d5239f	-6.3520415e-06
150	0x3708c943	8.153092e-06
151	0x80000004	-6e-45
152	0xb515af97	-5.576234e-07
153	0x00000000	0.0
154	0xb6ad9cf4	-5.1740735e-06
155	0x00000000	0.0
156	0xb69a231e	-4.593646e-06
157	0x3785abd3	1.5934847e-05
158	0x37583797	1.2887546e-05
159	0x00000000	0.0
160	0xb6bdef0f	-5.660469e-06
161	0x37994a0e	1.8273506e-05
162	0x00000004	6e-45
163	0x37ff2480	3.0415365e-05
164	0x36e89fd5	6.9327457e-06
165	0x00000000	0.0
166	0x00000000	0.0
167	0x00000000	0.0
168	0xb51e4a8f	-5.8968084e-07
169	0x00000000	0.0
170	0xb71b2d2d	-9.249238e-06
171	0x00000000	0.0
172	0x371e7a3b	9.445993e-06
173	0x00000000	0.0
174	0x00000000	0.0
175	0x00000000	0.0
176	0x00000000	0.0
177	0x37980c1c	1.812545e-05
178	0x3666a2b1	3.436737e-06
179	0x00000000	0.0
180	0x3735109c	1.0792308e-05
181	0x00000004	6e-45
182	0xb5ad20d1	-1.2899055e-06
183	0x00000000	0.0
184	0x3738cc8d	1.101488e-05
185	0x00000000	0.0
186	0x35f70ee2	1.8407266e-06
187	0xb5724a2c	-9.025996e-07
188	0x371ce520	9.351672e-06
189	0x00000000	0.0
190	0xb63bbd03	-2.797519e-06
191	0x370c29d5	8.35439e-06
192	0xb6f22716	-7.216712e-06
193	0x00000000	0.0
194	0x00000000	0.0
195	0x376ed076	1.4234442e-05
196	0xb6b0887a	-5.2610967e-06
197	0x00000000	0.0
198	0x374c8099	1.2189289e-05
199	0x35ddc003	1.6521666e-06
200	0x36569797	3.1976722e-06
201	0x37317187	1.0576455e-05
202	0x80000004	-6e-45
203	0x35f141b0	1.7975017e-06
204	0x00000000	0.0
205	0x36e0a12b	6.6944826e-06
206	0x00000000	0.0
207	0x00000000	0.0
208	0x375a45e1	1.30100825e-05
209	0xb6b924fa	-5.5177343e-06
210	0x80000004	-6e-45
211	0xb700679f	-7.653521e-06
212	0x37c9ae26	2.4042161e-05
213	0x36933e47	4.3881914e-06
214	0x36af3e1d	5.2226374e-06
215	0x37a3143f	1.9440542e-05
216	0x3657a66e	3.2134371e-06
217	0x36178483	2.2577885e-06
218	0x372c4971	1.0269098e-05
219	0x37a48a80	1.9614818e-05
220	0x00000000	0.0
221	0x00000004	6e-45
222	0x37a5d4c4	1.976861e-05
223	0x00000000	0.0
224	0x00000000	0.0
225	0x37a01804	1.908467e-05
226	0x00000000	0.0
227	0xb69c934b	-4.6663095e-06
228	0x00000000	0.0
229	0xb583989a	-9.804673e-07
230	0x378ac86a	1.6544207e-05
231	0x374d4f57	1.2237425e-05
232	0x375e0eea	1.3235704e-05
233	0x36c84a6f	5.9691297e-06
234	0x3767c040	1.3813435e-05
235	0xb6f9e6cb	-7.447646e-06
236	0x00000000	0.0
237	0x00000000	0.0
238	0xb62e9e38	-2.6020116e-06
239	0xb1100c59	-2.0961777e-09
240	0x375bd10a	1.3102088e-05
241	0xb6938ffb	-4.397703e-06
242	0xb613436a	-2.1943947e-06
243	0x37270023	9.9540075e-06
244	0x37e0a9ac	2.678189e-05
245	0x37923ea1	1.743372e-05
246	0x3736160e	1.085318e-05
247	0x00000000	0.0
248	0x80000004	-6e-45
249	0x00000000	0.0
250	0xb657bf5d	-3.2148885e-06
251	0x3798098e	1.8124261e-05
252	0x00000000	0.0
253	0x37097128	8.192183e-06
254	0x00000000	0.0
255	0x00000004	6e-45

exp_avg_sq f4 [64, 128]
0	0x30aade06	1.2432231e-09
1	0x33a549be	7.696825e-08
2	0x00000000	0.0
3	0x00000000	0.0
4	0x2f22b68e	1.479867e-10
5	0x00000000	0.0
6	0x00000000	0.0
7	0x33814520	6.0196044e-08
8	0x00000000	0.0
9	0x3391143c	6.755769e-08
10	0x00000000	0.0
11	0x00000000	0.0
12	0x32084047	7.930857e-09
13	0x31fae76f	7.3022686e-09
14	0x3325f38c	3.863856e-08
15	0x33ed7580	1.10575456e-07
16	0x32066c8c	7.824507e-09
17	0x30182286	5.534634e-10
18	0x309fdfe3	1.1632405e-09
19	0x00000000	0.0
20	0x00000000	0.0
21	0x33b6e999	8.5175266e-08
22	0x3241a2df	1.1271111e-08
23	0x00000000	0.0
24	0x2e3c1d33	4.2772185e-11
25	0x00000000	0.0
26	0x33c09c02	8.9690744e-08
27	0x00000000	0.0
28	0x338db176	6.598104e-08
29	0x331a93da	3.599039e-08
30	0x33d50d69	9.921025e-08
31	0x00000000	0.0
32	0x33952b6e	6.946253e-08
33	0x31db7180	6.3866423e-09
34	0x00000000	0.0
35	0x3129b67d	2.469647e-09
36	0x30c0cc6b	1.4027938e-09
37	0x00000000	0.0
38	0x00000000	0.0
39	0x00000000	0.0
40	0x3372a982	5.6499182e-08
41	0x00000000	0.0
42	0x33f0b1fc	1.1208246e-07
43	0x00000000	0.0
44	0x32b6608b	2.1231491e-08
45	0x00000000	0.0
46	0x00000000	0.0
47	0x00000000	0.0
48	0x00000000	0.0
49	0x33454552	4.5930683e-08
50	0x3390aead	6.737296e-08
51	0x00000000	0.0
52	0x32ba40ae	2.1682663e-08
53	0x1be0a648	3.7165148e-22
54	0x3389bee0	6.4142796e-08
55	0x00000000	0.0
56	0x32209b34	9.348515e-09
57	0x00000000	0.0
58	0x31229add	2.3662132e-09
59	0x33f11fa3	1.1228192e-07
60	0x313ef263	2.778642e-09
61	0x00000000	0.0
62	0x33c6b59f	9.25313e-08
63	0x33306c23	4.1076543e-08
64	0x3392ff69	6.8451136e-08
65	0x00000000	0.0
66	0x00000000	0.0
67	0x31bf0c38	5.5602207e-09
68	0x3314eb68	3.4673036e-08
69	0x00000000	0.0
70	0x31a3ce89	4.7674047e-09
71	0x338ee885	6.654685e-08
72	0x30b30503	1.3025389e-09
73	0x3080590e	9.338537e-10
74	0x00000000	0.0
75	0x2b8dac06	1.0066399e-12
76	0x00000000	0.0
77	0x33241530	3.8203495e-08
78	0x00000000	0.0
79	0x00000000	0.0
80	0x32e434e8	2.6566752e-08
81	0x327bb04f	1.4650211e-08
82	0x00000000	0.0
83	0x33bb561a	8.723528e-08
84	0x30ebd31b	1.71585e-09
85	0x33577f71	5.0174496e-08
86	0x32be6bb5	2.216789e-08
87	0x3258d14c	1.2620443e-08
88	0x2f6ac16b	2.1350892e-10
89	0x33b2ffb8	8.335286e-08
90	0x306465d8	8.3090645e-10
91	0x3386ffd7	6.286398e-08
92	0x00000000	0.0
93	0x1faaa34d	7.226796e-20
94	0x339a99fb	7.199193e-08
95	0x00000000	0.0
96	0x00000000	0.0
97	0x3216aab8	8.769966e-09
98	0x00000000	0.0
99	0x338cb827	6.552755e-08
100	0x00000000	0.0
101	0x32e4e43c	2.6646482e-08
102	0x32cc985f	2.3818016e-08
103	0x30c268e9	1.4145175e-09
104	0x341bd1bd	1.4511802e-07
105	0x309dd5c7	1.1484013e-09
106	0x32389950	1.0745069e-08
107	0x33b5f77a	8.473485e-08
108	0x00000000	0.0
109	0x00000000	0.0
110	0x337da79b	5.905859e-08
111	0x2a07edb7	1.2072883e-13
112	0x31e43bc4	6.642468e-09
113	0x32f3c4ce	2.837842e-08
114	0x3318da79	3.5588958e-08
115	0x2f1a55be	1.403668e-10
116	0x3337a797	4.276043e-08
117	0x316bfcf9	3.43408e-09
118	0x2f671ac1	2.1018833e-10
119	0x00000000	0.0
120	0x1b866e1b	2.2239594e-22
121	0x00000000	0.0
122	0x33782d84	5.7783396e-08
123	0x32b4248a	2.0971374e-08
124	0x00000000	0.0
125	0x32eb439e	2.738835e-08
126	0x00000000	0.0
127	0x00000000	0.0
128	0x3098db7b	1.1121836e-09
129	0x334b194b	4.7287624e-08
130	0x00000000	0.0
131	0x00000000	0.0
132	0x306431d6	8.301674e-10
133	0x00000000	0.0
134	0x00000000	0.0
135	0x330cd582	3.2790474e-08
136	0x2b19b03a	5.4601083e-13
137	0x334b1c01	4.729009e-08
138	0x00000000	0.0
139	0x00000000	0.0
140	0x31f7f926	7.216971e-09
141	0x32783554	1.4447625e-08
142	0x32a7249a	1.9458003e-08
143	0x33aca3e2	8.039184e-08
144	0x31d46102	6.1810406e-09
145	0x3011af57	5.2999866e-10
146	0x318dbba6	4.1249733e-09
147	0x00000000	0.0
148	0x00000000	0.0
149	0x335bc348	5.1167518e-08
150	0x3239aad9	1.08072635e-08
151	0x2530006e	1.5265712e-16
152	0x2dae0351	1.9782983e-11
153	0x00000000	0.0
154	0x335ba763	5.114215e-08
155	0x00000000	0.0
156	0x33294008	3.9406615e-08
157	0x32de8462	2.5904402e-08
158	0x33814fae	6.021524e-08
159	0x00000000	0.0
160	0x3330df3a	4.1181217e-08
161	0x3219ca07	8.951708e-09
162	0x17894159	8.869914e-25
163	0x326ed105	1.3900949e-08
164	0x310d51ab	2.0564623e-09
165	0x00000000	0.0
166	0x00000000	0.0
167	0x00000000	0.0
168	0x33014cba	3.0104935e-08
169	0x00000000	0.0
170	0x3385cbf6	6.2303954e-08
171	0x00000000	0.0
172	0x328a31b6	1.608792e-08
173	0x00000000	0.0
174	0x00000000	0.0
175	0x00000000	0.0
176	0x00000000	0.0
177	0x331afe0b	3.608697e-08
178	0x3328e751	3.932593e-08
179	0x00000000	0.0
180	0x32349d19	1.0513099e-08
181	0x16e0b13c	3.6301002e-25
182	0x330d5602	3.2907344e-08
183	0x00000000	0.0
184	0x31e33cc3	6.6134773e-09
185	0x00000000	0.0
186	0x3173d5ee	3.548276e-09
187	0x337b3bd2	5.8494898e-08
188	0x318392a7	3.8292742e-09
189	0x00000000	0.0
190	0x3354bd8d	4.9532492e-08
191	0x3300c9c0	2.9985813e-08
192	0x3324612e	3.827261e-08
193	0x00000000	0.0
194	0x00000000	0.0
195	0x31f19718	7.0312005e-09
196	0x32c1838e	2.2527981e-08
197	0x00000000	0.0
198	0x32342720	1.0486275e-08
199	0x332aa97d	3.9735358e-08
200	0x319e4788	4.6065374e-09
201	0x31a2bc81	4.736251e-09
202	0x2ad8358b	3.840646e-13
203	0x2fe9e1e8	4.254297e-10
204	0x00000000	0.0
205	0x3312eeb3	3.421037e-08
206	0x00000000	0.0
207	0x00000000	0.0
208	0x32948ae2	1.7292624e-08
209	0x31fa748b	7.289207e-09
210	0x1f81dc8f	5.499851e-20
211	0x335a02c8	5.075961e-08
212	0x3227453e	9.736423e-09
213	0x32c76a87	2.3215092e-08
214	0x3293764c	1.7166847e-08
215	0x329fd303	1.8605993e-08
216	0x2f64904e	2.0787747e-10
217	0x33408092	4.4820418e-08
218	0x30988bfd	1.1099243e-09
219	0x334f55a7	4.8273844e-08
220	0x00000000	0.0
221	0x2a984b24	2.7052763e-13
222	0x3376930d	5.741008e-08
223	0x00000000	0.0
224	0x00000000	0.0
225	0x3277b7a1	1.4419045e-08
226	0x00000000	0.0
227	0x331e16cb	3.6807972e-08
228	0x00000000	0.0
229	0x328250d5	1.517075e-08
230	0x32961186	1.7470267e-08
231	0x313a64a3	2.7123768e-09
232	0x33c7d076	9.3045784e-08
233	0x3116c2b1	2.1938542e-09
234	0x3204011b	7.683663e-09
235	0x33593c29	5.0578965e-08
236	0x00000000	0.0
237	0x00000000	0.0
238	0x330b979e	3.2501354e-08
239	0x2f06ff5e	1.2277954e-10
240	0x323eab16	1.1098356e-08
241	0x3297128f	1.7587153e-08
242	0x32db6b4b	2.5543747e-08
243	0x30e02da3	1.6311116e-09
244	0x3357b848	5.022619e-08
245	0x31e362dc	6.6178085e-09
246	0x2fdd233d	4.0224704e-10
247	0x00000000	0.0
248	0x27d9f089	6.0490388e-15
249	0x00000000	0.0
250	0x3300713d	2.9905312e-08
251	0x32f1edca	2.8164227e-08
252	0x00000000	0.0
253	0x32af2c4e	2.0392829e-08
254	0x00000000	0.0
255	0x1d1157d6	1.9236e-21

exp_avg f4 [64]
0	0xb80e66ac	-3.395106e-05
1	0x378046ed	1.5291816e-05
2	0x00000000	0.0
3	0x38a43b2f	7.831153e-05
4	0x00000000	0.0
5	0x00000000	0.0
6	0x37d7afcb	2.5711857e-05
7	0xb791a3af	-1.7361568e-05
8	0x3714f2cd	8.878019e-06
9	0x00000000	0.0
10	0xb8e8d1b6	-0.00011101684
11	0xb6d63576	-6.3839207e-06
12	0x380a2d6a	3.294406e-05
13	0x00000000	0.0
14	0x00000000	0.0
15	0x00000004	6e-45
16	0xb8c05337	-9.1707734e-05
17	0x00000000	0.0
18	0xb7bd0b6d	-2.2535876e-05
19	0xb8dd1291	-0.000105415595
20	0xb7c1efec	-2.3119115e-05
21	0x37e74a4f	2.7571949e-05
22	0x37ec9843	2.8204295e-05
23	0xb6d474f0	-6.3317057e-06
24	0x00000000	0.0
25	0xb8f16384	-0.00011510312
26	0xb78d5231	-1.6846783e-05
27	0x00000000	0.0
28	0xb8ab18ed	-8.158558e-05
29	0x00000004	6e-45
30	0x386e5795	5.682519e-05
31	0x35f9d290	1.8613227e-06
32	0x3722b3bb	9.697799e-06
33	0x00000000	0.0
34	0x00000000	0.0
35	0x00000000	0.0
36	0xb7a99480	-2.021552e-05
37	0x00000000	0.0
38	0x00000000	0.0
39	0x36c65df0	5.9117956e-06
40	0xb7ff1f1d	-3.0412857e-05
41	0x38e1f6c9	0.000107748034
42	0xb83c8d64	-4.4954373e-05
43	0xb6a1f996	-4.8272295e-06
44	0xb7d58547	-2.545364e-05
45	0xb5e5a253	-1.7109072e-06
46	0xb7310417	-1.0550974e-05
47	0xb70210b0	-7.752489e-06
48	0xb6ae8b06	-5.2017886e-06
49	0xb74bc7b8	-1.21462435e-05
50	0x00000004	6e-45
51	0xb776cfbb	-1.4711109e-05
52	0x00000000	0.0
53	0xb89944ac	-7.3084e-05
54	0x385730b9	5.130537e-05
55	0x38d1a656	9.996879e-05
56	0x00000000	0.0
57	0x3665f48b	3.4266002e-06
58	0x00000004	6e-45
59	0x00000000	0.0
60	0x384941d6	4.798345e-05
61	0xb7649db4	-1.3626577e-05
62	0xb77bdef3	-1.5012675e-05
63	0xb79781eb	-1.80611e-05

exp_avg_sq f4 [64]
0	0x34dfaeab	4.1664075e-07
1	0x34a91736	3.149559e-07
2	0x00000000	0.0
3	0x34d90fb9	4.043084e-07
4	0x00000000	0.0
5	0x00000000	0.0
6	0x33598b7b	5.0651106e-08
7	0x3514bb09	5.540647e-07
8	0x346fe698	2.2342499e-07
9	0x00000000	0.0
10	0x345b9beb	2.0452687e-07
11	0x35496bf9	7.5035456e-07
12	0x343513c1	1.6864125e-07
13	0x00000000	0.0
14	0x00000000	0.0
15	0x2a874d21	2.4034336e-13
16	0x3519153b	5.7027836e-07
17	0x00000000	0.0
18	0x34beaf2d	3.5517715e-07
19	0x35059d7c	4.977553e-07
20	0x34d8b917	4.0367806e-07
21	0x34c820a9	3.7276666e-07
22	0x3493f7a1	2.7561057e-07
23	0x33a7f447	7.820977e-08
24	0x00000000	0.0
25	0x354a5652	7.5376477e-07
26	0x34f1238e	4.4915618e-07
27	0x00000000	0.0
28	0x33e2e7e3	1.0566125e-07
29	0x306c926c	8.606438e-10
30	0x3512340f	5.4464994e-07
31	0x343ff55c	1.7877522e-07
32	0x348a32fe	2.5741605e-07
33	0x00000000	0.0
34	0x00000000	0.0
35	0x00000000	0.0
36	0x34038b4a	1.2250999e-07
37	0x00000000	0.0
38	0x00000000	0.0
39	0x32e12edc	2.6214757e-08
40	0x34c071df	3.584564e-07
41	0x34ce6701	3.8445435e-07
42	0x3374ef90	5.7028558e-08
43	0x3539fd1d	6.92862e-07
44	0x350b0fdc	5.1804614e-07
45	0x3481960f	2.4137304e-07
46	0x344382c5	1.8208364e-07
47	0x3558e25d	8.079567e-07
48	0x35027683	4.860123e-07
49	0x33e7c44b	1.0792481e-07
50	0x2cce592b	5.8647718e-12
51	0x349a5d8b	2.8752797e-07
52	0x00000000	0.0
53	0x3497608d	2.8196192e-07
54	0x34d8ddda	4.0394553e-07
55	0x343cb720	1.7575485e-07
56	0x00000000	0.0
57	0x341e12f1	1.4721788e-07
58	0x2f9127c7	2.640361e-10
59	0x00000000	0.0
60	0x352d7573	6.4618433e-07
61	0x34a001af	2.9803547e-07
62	0x34866537	2.5033088e-07
63	0x34715836	2.2476965e-07
