001-machine_learning/data/00001-MLP-temperature/006_checkpoint.pth (torch_old, 210147 bytes, 24 tensors)

exp_avg f4 [64, 4]
000000 00 00 00 00 ac 67 2a b7 50 56 21 b7 86 05 94 b7
       0.0 -1.0156928e-05 -9.616444e-06 -1.7645547e-05
000010 00 00 00 00 76 0e e2 35 dc ed a3 35 8f 2b 9e b4
       0.0 1.6842521e-06 1.2213673e-06 -2.9461486e-07
000020 00 00 00 00 47 77 9d b7 98 a8 58 38 4e ed 26 38
       0.0 -1.8771401e-05 5.165543e-05 3.979849e-05
000030 00 00 00 00 b9 c8 cb b6 09 aa 93 37 26 c7 80 37
       0.0 -6.0732386e-06 1.7602944e-05 1.5351525e-05
000040 00 00 00 00 cb 36 62 36 53 47 6f b6 8c 16 11 b6
       0.0 3.3708518e-06 -3.5655291e-06 -2.1619808e-06
000050 00 00 00 00 fc 52 81 37 8c c3 86 37 b8 67 72 37
       0.0 1.5416641e-05 1.6065103e-05 1.4448473e-05
000060 00 00 00 00 29 c4 9a 37 f9 0d 1c b7 6e 94 a1 b5
       0.0 1.8449575e-05 -9.301578e-06 -1.2038633e-06
000070 00 00 00 00 b4 b7 e3 37 4c 82 5d b7 3a 94 3e b7
       0.0 2.7146052e-05 -1.3202964e-05 -1.1359394e-05
000080 00 00 00 00 00 00 00 00 00 00 00 00 00 00 00 00
       0.0 0.0 0.0 0.0
000090 00 00 00 00 70 2b 0a b8 91 bc a1 b6 7a 43 74 b5
       0.0 -3.294222e-05 -4.820126e-06 -9.0995275e-07
0000a0 00 00 00 00 54 42 9c 38 3a c4 a6 36 8c c7 97 37
       0.0 7.451014e-05 4.9700293e-06 1.8093524e-05
0000b0 00 00 00 00 a5 9a 9d 37 93 99 0f b5 a7 91 51 36
       0.0 1.878787e-05 -5.349513e-07 3.1228208e-06
0000c0 00 00 00 00 d7 fe 3c b7 53 6f f3 b6 a9 a2 43 b7
       0.0 -1.1265008e-05 -7.254924e-06 -1.1660778e-05
0000d0 00 00 00 00 00 00 00 00 00 00 00 00 00 00 00 00
       0.0 0.0 0.0 0.0
0000e0 00 00 00 00 00 00 00 00 00 00 00 00 00 00 00 00
       0.0 0.0 0.0 0.0
0000f0 00 00 00 00 c4 61 5c 36 9f 32 6a 37 34 e0 da 36
       0.0 3.2839462e-06 1.3959273e-05 6.523007e-06
000100 00 00 00 00 b0 30 4f 37 d6 f6 8d b7 88 a8 a0 b6
       0.0 1.2349497e-05 -1.6923452e-05 -4.787991e-06
000110 00 00 00 00 0c 2e 46 b8 1d f3 33 b6 dd 19 c4 b7
       0.0 -4.7249763e-05 -2.681459e-06 -2.3377064e-05
000120 00 00 00 00 5a d0 54 36 83 3c 3a 37 20 cb 09 37
       0.0 3.1711738e-06 1.1100553e-05 8.21313e-06
000130 00 00 00 00 00 00 00 00 00 00 00 00 00 00 00 00
       0.0 0.0 0.0 0.0
000140 00 00 00 00 b6 e6 19 b7 88 5a 02 36 f6 8c 11 b7
       0.0 -9.173227e-06 1.9424206e-06 -8.6754935e-06
000150 00 00 00 00 e3 2d d8 37 fd 5c a1 35 84 d3 65 37
       0.0 2.5770574e-05 1.2022498e-06 1.3698711e-05
000160 00 00 00 00 00 00 00 00 00 00 00 00 00 00 00 00
       0.0 0.0 0.0 0.0
000170 00 00 00 00 c3 61 8c 37 a0 09 26 37 83 18 ad 35
       0.0 1.6734824e-05 9.896612e-06 1.2896638e-06
000180 00 00 00 00 b8 08 66 b7 76 2a 57 b6 6e 98 89 b5
       0.0 -1.3711098e-05 -3.2062212e-06 -1.0251658e-06
000190 00 00 00 00 e6 a7 91 b7 d3 9e 2f 38 73 65 4a b7
       0.0 -1.736353e-05 4.1871168e-05 -1.2063759e-05
0001a0 00 00 00 00 aa 4c 55 35 6a aa 83 34 fc d3 2d 35
       0.0 7.9460244e-07 2.4524644e-07 6.4756e-07
0001b0 00 00 00 00 d8 3a 64 36 72 15 a1 34 9e a6 d1 35
       0.0 3.40089e-06 3.000419e-07 1.5620205e-06
0001c0 00 00 00 00 00 00 00 00 00 00 00 00 00 00 00 00
       0.0 0.0 0.0 0.0
0001d0 00 00 00 00 de 93 91 37 1f fc 0b b6 af 68 32 b6
       0.0 1.7354203e-05 -2.0859368e-06 -2.6585e-06
0001e0 00 00 00 00 00 00 00 00 00 00 00 00 00 00 00 00
       0.0 0.0 0.0 0.0
0001f0 00 00 00 00 05 9f f7 b7 17 71 4d 38 fb 6f fd 37
       0.0 -2.9518744e-05 4.8981132e-05 3.0212095e-05
000200 00 00 00 00 c9 85 70 37 8a f2 0a 36 4e 5a 08 36
       0.0 1.4336264e-05 2.0704779e-06 2.0318143e-06
000210 00 00 00 00 67 86 6e 37 79 30 84 35 e6 df 73 36
       0.0 1.4217198e-05 9.848874e-07 3.6340148e-06
000220 00 00 00 00 a8 ba 4c b8 e6 78 75 37 85 4e d4 b6
       0.0 -4.8811227e-05 1.4631287e-05 -6.327233e-06
000230 00 00 00 00 00 00 00 00 00 00 00 00 00 00 00 00
       0.0 0.0 0.0 0.0
000240 00 00 00 00 b0 73 df b5 1e a6 87 b5 6e 1a 39 36
       0.0 -1.6648464e-06 -1.010663e-06 2.7582532e-06
000250 00 00 00 00 e4 07 1d b6 da 96 21 b5 27 df 80 b6
       0.0 -2.3399416e-06 -6.019669e-07 -3.8406756e-06
000260 00 00 00 00 9d 38 00 b6 01 65 4b b5 5f c0 8b b5
       0.0 -1.910644e-06 -7.5770373e-07 -1.0412294e-06
000270 00 00 00 00 1b e9 f8 b6 91 ef e0 b5 e1 e4 92 b7
       0.0 -7.418113e-06 -1.6759024e-06 -1.7511136e-05
000280 00 00 00 00 2f 08 be b8 26 83 a1 b7 67 f1 16 b7
       0.0 -9.06143e-05 -1.9253766e-05 -8.996903e-06
000290 00 00 00 00 7f a9 11 35 ec 0f f5 b4 71 b4 1d b6
       0.0 5.426336e-07 -4.564639e-07 -2.3499854e-06
0002a0 00 00 00 00 00 00 00 00 00 00 00 00 00 00 00 00
       0.0 0.0 0.0 0.0
0002b0 00 00 00 00 c8 f4 2f b8 73 e4 b4 37 a0 7e 31 b7
       0.0 -4.195122e-05 2.1564052e-05 -1.0579504e-05
0002c0 00 00 00 00 89 60 07 37 d1 be 35 37 c7 d4 1d 36
       0.0 8.069103e-06 1.0832869e-05 2.3518676e-06
0002d0 00 00 00 00 20 68 5c b7 d7 23 d2 b6 66 e1 62 b7
       0.0 -1.3137265e-05 -6.26266e-06 -1.3523129e-05
0002e0 00 00 00 00 7c 93 30 38 1e fc 3c 38 94 c9 3c 38
       0.0 4.2099025e-05 4.5057495e-05 4.5010427e-05
0002f0 00 00 00 00 7c 45 4a b8 ab dc d0 36 cd ee 2b b7
       0.0 -4.8225265e-05 6.224572e-06 -1.0247994e-05
000300 00 00 00 00 04 fb 6c 38 5c 7c 18 38 cc b6 d8 37
       0.0 5.650056e-05 3.6355443e-05 2.5834328e-05
000310 00 00 00 00 00 00 00 00 00 00 00 00 00 00 00 00
       0.0 0.0 0.0 0.0
000320 00 00 00 00 00 81 b4 37 19 a8 39 36 f3 41 f0 36
       0.0 2.1517742e-05 2.7664994e-06 7.160235e-06
000330 00 00 00 00 1e f8 de b7 83 3e 63 b7 20 0e c2 b7
       0.0 -2.658e-05 -1.3544809e-05 -2.313318e-05
000340 00 00 00 00 84 e8 3b b8 b0 aa b9 36 b0 f0 84 b7
       0.0 -4.480082e-05 5.5333003e-06 -1.5847705e-05
000350 00 00 00 00 00 00 00 00 00 00 00 00 00 00 00 00
       0.0 0.0 0.0 0.0
000360 00 00 00 00 1d 83 00 b7 f5 2d 7f b6 50 4d 89 b7
       0.0 -7.659922e-06 -3.8024712e-06 -1.6367674e-05
000370 00 00 00 00 b1 4c ce 35 83 1f c5 b7 0e a8 7e b6
       0.0 1.5370516e-06 -2.3498904e-05 -3.794677e-06
000380 00 00 00 00 00 00 00 00 00 00 00 00 00 00 00 00
       0.0 0.0 0.0 0.0
000390 00 00 00 00 c6 f6 6e b8 6f a3 11 36 b3 de 18 b7
       0.0 -5.6973447e-05 2.1701815e-06 -9.111757e-06
0003a0 00 00 00 00 00 00 00 00 00 00 00 00 00 00 00 00
       0.0 0.0 0.0 0.0
0003b0 00 00 00 00 00 00 00 00 00 00 00 00 00 00 00 00
       0.0 0.0 0.0 0.0
0003c0 00 00 00 00 d8 8f 53 b8 03 15 58 38 53 76 ff 37
       0.0 -5.0440285e-05 5.151798e-05 3.0453468e-05
0003d0 00 00 00 00 9b f8 c1 36 c0 31 31 b7 04 cf 5d b7
       0.0 5.7807897e-06 -1.0561605e-05 -1.3220826e-05
0003e0 00 00 00 00 ae d7 12 b8 69 e8 77 b7 89 eb 4e b7
       0.0 -3.500998e-05 -1.47764595e-05 -1.2333397e-05
0003f0 00 00 00 00 b0 b5 d5 33 68 a8 d2 33 95 5f 8e b1
       0.0 9.951634e-08 9.80952e-08 -4.1436103e-09

exp_avg_sq f4 [64, 4]
000000 00 00 00 00 12 c0 ee 31 19 23 f7 32 74 5a 32 32
       0.0 6.9485475e-09 2.8770545e-08 1.038153e-08
000010 00 00 00 00 1d ce 56 31 2f c1 84 32 78 03 2a 31
       0.0 3.125826e-09 1.5454672e-08 2.4740228e-09
000020 00 00 00 00 63 79 91 34 3f c3 e2 33 17 6c d6 32
       0.0 2.7096675e-07 1.055946e-07 2.4962032e-08
000030 00 00 00 00 62 97 3b 33 87 3a 29 32 63 e9 96 31
       0.0 4.3677012e-08 9.850402e-09 4.3921076e-09
000040 00 00 00 00 54 63 9e 31 ae c2 8c 31 a9 3d ea 2f
       0.0 4.6096975e-09 4.096669e-09 4.2608164e-10
000050 00 00 00 00 96 7f 0e 32 48 ae 4b 32 2a c3 45 31
       0.0 8.2944975e-09 1.1855782e-08 2.877821e-09
000060 00 00 00 00 cd 49 84 33 7c 1e a0 33 a6 34 20 33
       0.0 6.160153e-08 7.456126e-08 3.7300786e-08
000070 00 00 00 00 7d ea ba 33 31 3c df 33 f2 f1 fb 32
       0.0 8.703953e-08 1.03951955e-07 2.933027e-08
000080 00 00 00 00 00 00 00 00 00 00 00 00 00 00 00 00
       0.0 0.0 0.0 0.0
000090 00 00 00 00 5e bd d4 32 c5 4a e6 32 4b 06 da 30
       0.0 2.4766162e-08 2.6809525e-08 1.5863376e-09
0000a0 00 00 00 00 8c d0 38 34 69 61 5f 34 25 6a bd 33
       0.0 1.7212204e-07 2.0803931e-07 8.820306e-08
0000b0 00 00 00 00 95 58 b9 32 ba b4 66 33 18 ba 92 32
       0.0 2.1577117e-08 5.3715418e-08 1.7081263e-08
0000c0 00 00 00 00 f3 05 5e 2e f7 c9 a7 2d 85 78 75 2e
       0.0 5.048224e-11 1.9075392e-11 5.5813593e-11
0000d0 00 00 00 00 00 00 00 00 00 00 00 00 00 00 00 00
       0.0 0.0 0.0 0.0
0000e0 00 00 00 00 00 00 00 00 00 00 00 00 00 00 00 00
       0.0 0.0 0.0 0.0
0000f0 00 00 00 00 dc de 59 32 e0 11 a7 32 94 d3 d5 31
       0.0 1.2681735e-08 1.9449487e-08 6.2231695e-09
000100 00 00 00 00 92 a6 8c 33 e3 c3 e8 33 e4 ee 0c 33
       0.0 6.549557e-08 1.08389735e-07 3.281356e-08
000110 00 00 00 00 d0 19 bc 33 8b 71 7f 34 86 4b ac 33
       0.0 8.7591275e-08 2.3790032e-07 8.023112e-08
000120 00 00 00 00 c4 21 d9 31 f1 e3 43 32 90 aa a8 31
       0.0 6.31937e-09 1.1402322e-08 4.9088342e-09
000130 00 00 00 00 00 00 00 00 00 00 00 00 00 00 00 00
       0.0 0.0 0.0 0.0
000140 00 00 00 00 dc f2 45 32 63 62 25 33 16 b2 6c 32
       0.0 1.1522129e-08 3.850654e-08 1.37775e-08
000150 00 00 00 00 a5 55 b6 32 17 76 39 33 58 12 aa 32
       0.0 2.1226535e-08 4.318107e-08 1.9798946e-08
000160 00 00 00 00 00 00 00 00 00 00 00 00 00 00 00 00
       0.0 0.0 0.0 0.0
000170 00 00 00 00 4b dd 3a 32 a9 c1 80 33 8a 21 97 32
       0.0 1.0876941e-08 5.995691e-08 1.7593965e-08
000180 00 00 00 00 b1 5f fd 31 70 5a 99 32 5f 6f 19 30
       0.0 7.374148e-09 1.785267e-08 5.5819344e-10
000190 00 00 00 00 ec a7 02 34 e7 aa 3c 35 f4 4f ce 34
       0.0 1.2168283e-07 7.0284153e-07 3.8428664e-07
0001a0 00 00 00 00 e1 4a e5 31 bc 0d 2a 34 7a 80 36 33
       0.0 6.67329e-09 1.583748e-07 4.2492026e-08
0001b0 00 00 00 00 89 c1 0f 30 1c 0f 14 2c b4 80 01 2c
       0.0 5.2298127e-10 2.1040452e-12 1.8403447e-12
0001c0 00 00 00 00 00 00 00 00 00 00 00 00 00 00 00 00
       0.0 0.0 0.0 0.0
0001d0 00 00 00 00 41 a9 9b 32 03 a8 bd 32 6f 5a 05 32
       0.0 1.8121343e-08 2.2078899e-08 7.762181e-09
0001e0 00 00 00 00 00 00 00 00 00 00 00 00 00 00 00 00
       0.0 0.0 0.0 0.0
0001f0 00 00 00 00 92 5b 7c 34 22 fd 30 34 c9 5d c8 32
       0.0 2.3502642e-07 1.6483366e-07 2.3325713e-08
000200 00 00 00 00 53 4a 0d 31 22 80 a2 2d 04 2d bb 2c
       0.0 2.056045e-09 1.847417e-11 5.3198574e-12
000210 00 00 00 00 82 6a 03 32 f8 16 7c 31 d9 04 74 31
       0.0 7.649421e-09 3.6683883e-09 3.5509429e-09
000220 00 00 00 00 7f 89 59 34 81 3d b4 34 e2 70 bc 33
       0.0 2.025972e-07 3.3572363e-07 8.7749655e-08
000230 00 00 00 00 00 00 00 00 00 00 00 00 00 00 00 00
       0.0 0.0 0.0 0.0
000240 00 00 00 00 72 7d 4b 33 ff df e7 33 9a 50 3e 31
       0.0 4.7378713e-08 1.07975204e-07 2.7694456e-09
000250 00 00 00 00 53 d5 0e 31 a6 a0 b2 31 20 1e 20 31
       0.0 2.078498e-09 5.1987454e-09 2.3300188e-09
000260 00 00 00 00 7b f0 a8 30 95 23 19 32 e1 d0 5b 30
       0.0 1.2291957e-09 8.9138625e-09 7.996857e-10
000270 00 00 00 00 f3 e2 13 32 26 f7 fd 32 53 c5 27 32
       0.0 8.608128e-09 2.9565467e-08 9.765546e-09
000280 00 00 00 00 53 3b 1a 34 61 57 ae 33 9e e5 b1 31
       0.0 1.436395e-07 8.1184005e-08 5.1774824e-09
000290 00 00 00 00 5c 61 bb 30 aa 45 cf 30 dc 8d 2e 30
       0.0 1.3633712e-09 1.5081032e-09 6.3502426e-10
0002a0 00 00 00 00 00 00 00 00 00 00 00 00 00 00 00 00
       0.0 0.0 0.0 0.0
0002b0 00 00 00 00 ad d9 d6 33 f1 8d 91 34 4e 04 95 33
       0.0 1.00047465e-07 2.711163e-07 6.939136e-08
0002c0 00 00 00 00 ad 4e 8f 31 26 15 3a 32 67 30 9f 31
       0.0 4.170792e-09 1.08314335e-08 4.6330118e-09
0002d0 00 00 00 00 6e 8b ab 31 a9 db 17 33 14 d1 5f 32
       0.0 4.9926063e-09 3.5357207e-08 1.3027847e-08
0002e0 00 00 00 00 c9 e4 8b 32 27 c6 33 34 e3 1f ab 33
       0.0 1.628577e-08 1.6742761e-07 7.968608e-08
0002f0 00 00 00 00 89 7f 15 34 4a 9e 9b 34 3d 50 be 33
       0.0 1.3923103e-07 2.898617e-07 8.86216e-08
000300 00 00 00 00 e0 8a 8f 32 b9 9a 27 32 01 48 e4 31
       0.0 1.6710544e-08 9.755859e-09 6.6438592e-09
000310 00 00 00 00 00 00 00 00 00 00 00 00 00 00 00 00
       0.0 0.0 0.0 0.0
000320 00 00 00 00 60 46 6e 32 0b bc 2b 32 3c be f9 31
       0.0 1.3869425e-08 9.996266e-09 7.268481e-09
000330 00 00 00 00 05 43 02 32 a0 37 78 32 6d db c7 31
       0.0 7.582234e-09 1.4448148e-08 5.816608e-09
000340 00 00 00 00 6f 6a 0a 34 54 98 96 34 5d 4e ba 33
       0.0 1.2890972e-07 2.805051e-07 8.675554e-08
000350 00 00 00 00 00 00 00 00 00 00 00 00 00 00 00 00
       0.0 0.0 0.0 0.0
000360 00 00 00 00 97 c4 13 32 64 f4 21 33 01 fe 6c 32
       0.0 8.6012255e-09 3.7708006e-08 1.3794762e-08
000370 00 00 00 00 69 08 c4 32 cf a9 3a 32 17 8d 35 32
       0.0 2.2821228e-08 1.0865235e-08 1.0567667e-08
000380 00 00 00 00 00 00 00 00 00 00 00 00 00 00 00 00
       0.0 0.0 0.0 0.0
000390 00 00 00 00 75 00 3e 34 67 90 ac 34 01 8a d0 33
       0.0 1.7695295e-07 3.2142563e-07 9.7108575e-08
0003a0 00 00 00 00 00 00 00 00 00 00 00 00 00 00 00 00
       0.0 0.0 0.0 0.0
0003b0 00 00 00 00 00 00 00 00 00 00 00 00 00 00 00 00
       0.0 0.0 0.0 0.0
0003c0 00 00 00 00 11 74 d0 34 09 32 80 34 4c 2d 12 33
       0.0 3.8827469e-07 2.3878263e-07 3.403447e-08
0003d0 00 00 00 00 34 03 b0 32 58 9c 9e 32 2a 43 2c 31
       0.0 2.0490553e-08 1.8464718e-08 2.5067473e-09
0003e0 00 00 00 00 18 e7 ef 32 23 a0 f3 33 93 90 5d 33
       0.0 2.7928351e-08 1.1344698e-07 5.158706e-08
0003f0 00 00 00 00 4a c6 75 32 bc 5d f2 33 c7 8e 8e 31
       0.0 1.4305963e-08 1.1286053e-07 4.148976e-09

exp_avg f4 [64]
000000 d9 94 22 b7 99 47 0e 36 d3 48 8c b7 3f 75 cf b6
       -9.690609e-06 2.1201324e-06 -1.6723212e-05 -6.18273e-06
000010 b0 01 82 36 6c 01 86 37 77 17 97 37 7c c1 e9 37
       3.8744984e-06 1.5974707e-05 1.801153e-05 2.7865863e-05
000020 00 00 00 00 b9 e8 12 b8 20 f8 a0 38 26 23 9d 37
       0.0 -3.5025852e-05 7.6756114e-05 1.8732226e-05
000030 2f 17 46 b7 00 00 00 00 00 00 00 00 1d 12 51 36
       -1.18071175e-05 0.0 0.0 3.115397e-06
000040 68 3c 4f 37 89 4a 49 b8 75 58 89 36 00 00 00 00
       1.2352226e-05 -4.799155e-05 4.093216e-06 0.0
000050 84 4b 18 b7 b3 a5 db 37 00 00 00 00 71 d8 96 37
       -9.077488e-06 2.6183994e-05 0.0 1.7982182e-05
000060 3a 47 83 b7 40 61 a5 b7 15 71 94 35 61 95 43 36
       -1.5649584e-05 -1.9714818e-05 1.105977e-06 2.9144214e-06
000070 00 00 00 00 ba fa 91 37 00 00 00 00 b3 45 f5 b7
       0.0 1.74021e-05 0.0 -2.9238732e-05
000080 b2 c1 73 37 6e 8a 69 37 84 34 4e b8 00 00 00 00
       1.4529027e-05 1.3920113e-05 -4.9163136e-05 0.0
000090 cc 0f 08 b6 8d b5 fc b5 25 1f 26 b6 1f 31 f6 b6
       -2.0274774e-06 -1.8828301e-06 -2.4754056e-06 -7.3370898e-06
0000a0 dd 08 cf b8 cc 5c 7d 35 00 00 00 00 ed 93 32 b8
       -9.87218e-05 9.438488e-07 0.0 -4.2576274e-05
0000b0 55 78 0b 37 a9 b8 5a b7 60 9b 38 38 28 4e 4d b8
       8.313063e-06 -1.3036807e-05 4.4013723e-05 -4.8948597e-05
0000c0 1c 06 7e 38 00 00 00 00 1b 43 b8 37 4d 33 e6 b7
       6.056401e-05 0.0 2.1965758e-05 -2.7442025e-05
0000d0 2e de 3f b8 00 00 00 00 8f 90 f0 b6 ae 65 14 35
       -4.574487e-05 0.0 -7.169386e-06 5.528226e-07
0000e0 00 00 00 00 89 ed 72 b8 00 00 00 00 00 00 00 00
       0.0 -5.7918518e-05 0.0 0.0
0000f0 2a 56 56 b8 c5 2a d9 36 83 a0 22 b8 5f 56 4b 34
       -5.1101822e-05 6.472083e-06 -3.8773298e-05 1.893727e-07

exp_avg_sq f4 [64]
000000 39 69 cd 33 e9 20 bf 33 63 fe 4f 35 b3 3a ab 33
       9.565196e-08 8.900117e-08 7.748369e-07 7.973485e-08
000010 83 45 fd 32 df 74 9e 33 6c 77 4d 34 2f a3 03 35
       2.9484687e-08 7.378707e-08 1.9135558e-07 4.9038766e-07
000020 00 00 00 00 c5 8b 6d 34 05 f4 59 35 91 13 50 34
       0.0 2.2123193e-07 8.1193895e-07 1.9378628e-07
000030 aa e7 7d 2e 00 00 00 00 00 00 00 00 5c b1 ce 33
       5.77313e-11 0.0 0.0 9.624884e-08
000040 17 6c fa 34 80 45 6e 35 86 92 1b 33 00 00 00 00
       4.6644774e-07 8.8763045e-07 3.6222012e-08 0.0
000050 44 81 1a 34 ce 22 fa 33 00 00 00 00 9e 48 4e 34
       1.4389394e-07 1.1647863e-07 0.0 1.9211663e-07
000060 6d 42 27 34 b9 10 8e 35 db 6e 0a 35 48 74 31 30
       1.5577253e-07 1.0584691e-06 5.157032e-07 6.455747e-10
000070 00 00 00 00 2f fb c2 33 00 00 00 00 64 da a3 35
       0.0 9.079519e-08 0.0 1.2208006e-06
000080 4d af 37 31 d9 56 4e 32 ea f9 e8 35 00 00 00 00
       2.6729652e-09 1.2010525e-08 1.7358082e-06 0.0
000090 de 13 81 35 18 57 b7 32 b4 0e 73 33 6f 4c 0a 34
       9.617031e-07 2.134361e-08 5.659122e-08 1.2880058e-07
0000a0 a4 ed 50 35 c4 99 27 32 00 00 00 00 4d cd 94 35
       7.783185e-07 9.755642e-09 0.0 1.108661e-06
0000b0 9d 68 06 33 15 63 c4 33 a4 54 99 34 68 6d 9f 35
       3.129445e-08 9.144984e-08 2.8560055e-07 1.1878265e-06
0000c0 00 40 44 33 00 00 00 00 58 50 15 33 b3 8b 84 33
       4.5693014e-08 0.0 3.4764838e-08 6.17214e-08
0000d0 8f 1c 9c 35 00 00 00 00 b7 d3 0c 34 4d c1 0b 33
       1.1631217e-06 0.0 1.3115537e-07 3.2539266e-08
0000e0 00 00 00 00 b7 08 b1 35 00 00 00 00 00 00 00 00
       0.0 1.3190064e-06 0.0 0.0
0000f0 7c 52 00 36 eb 2d 09 34 60 67 85 34 9f 81 53 35
       1.9121499e-06 1.2775824e-07 2.4848396e-07 7.879225e-07

exp_avg f4 [128, 64]
000000 95 dc 6b b6 b5 4c 99 b1 4d 33 25 b6 df c5 10 b6
       -3.5146124e-06 -4.4616066e-09 -2.4616777e-06 -2.1572848e-06
000010 12 e3 0f 35 77 bb b3 b6 bc 68 12 36 d4 6d 1f b5
       5.360208e-07 -5.3564395e-06 2.1816659e-06 -5.9391937e-07
000020 00 00 00 00 c6 c4 b0 b5 2d b8 0f b5 cd 86 0a b6
       0.0 -1.317029e-06 -5.353966e-07 -2.0642067e-06
000030 f8 be c6 33 00 00 00 00 00 00 00 00 a2 58 98 b6
       9.2548305e-08 0.0 0.0 -4.540271e-06
000040 91 91 30 b5 c0 11 87 b6 34 18 7b b6 00 00 00 00
       -6.5776936e-07 -4.02538e-06 -3.7416003e-06 0.0
000050 65 5a cb b5 51 d4 6a b5 00 00 00 00 5f d9 94 b5
       -1.5150987e-06 -8.7480754e-07 0.0 -1.1090123e-06
000060 e8 6d b0 34 dc 04 a7 b4 1b 57 48 30 6b d8 37 33
       3.2862522e-07 -3.110971e-07 7.288336e-10 4.280484e-08
000070 00 00 00 00 f3 c7 22 b4 00 00 00 00 94 cb a9 b5
       0.0 -1.5160167e-07 0.0 -1.265073e-06
000080 ea 32 6f b4 72 47 c2 b4 16 c2 a3 b6 00 00 00 00
       -2.2277132e-07 -3.61873e-07 -4.880373e-06 0.0
000090 7a 9b 15 b4 2a 0e 85 b6 b5 47 a7 b4 fd 2f 4f b5
       -1.3933268e-07 -3.965358e-06 -3.1158348e-07 -7.718334e-07
0000a0 ed 56 5b b6 01 de 7d b6 00 00 00 00 36 26 8a b6
       -3.268414e-06 -3.782916e-06 0.0 -4.117169e-06
0000b0 ce 0d 10 b6 01 46 46 b6 22 0f 36 b5 a9 f8 a5 b6
       -2.1465708e-06 -2.9545047e-06 -6.7822305e-07 -4.946331e-06
0000c0 e4 e9 08 b5 00 00 00 00 a6 27 c3 b5 1a 8a 17 b5
       -5.1004304e-07 0.0 -1.4540171e-06 -5.645285e-07
0000d0 10 4f 62 b6 00 00 00 00 0a e3 c1 b5 ad a1 ec 33
       -3.3722645e-06 0.0 -1.4445698e-06 1.1019015e-07
0000e0 00 00 00 00 aa 68 92 b6 00 00 00 00 00 00 00 00
       0.0 -4.3633236e-06 0.0 0.0
0000f0 15 b2 25 b6 ed 66 db b5 a3 ed 19 35 23 94 3c 2e
       -2.4690573e-06 -1.6346727e-06 5.734275e-07 4.2877823e-11
000100 0a c4 3f b6 98 d4 34 33 a3 90 8a b3 57 c1 6e b6
       -2.8575328e-06 4.210287e-08 -6.452435e-08 -3.5577302e-06
000110 3f 7b 66 36 2e 74 03 b7 62 0a 9e 36 da 42 17 b5
       3.434441e-06 -7.835259e-06 4.7099757e-06 -5.6349165e-07
000120 00 00 00 00 9a 35 ee b4 32 9d 31 b6 ed fb 2e b6
       0.0 -4.4369955e-07 -2.6466555e-06 -2.607466e-06
000130 3c 78 2b 34 00 00 00 00 00 00 00 00 95 20 e3 b6
       1.5969357e-07 0.0 0.0 -6.7689202e-06
000140 e4 30 6e 35 05 b0 dc b4 06 95 ce b6 00 00 00 00
       8.8733054e-07 -4.1106264e-07 -6.156627e-06 0.0
000150 c1 39 38 35 98 2d d8 b4 00 00 00 00 05 a7 13 b5
       6.8629384e-07 -4.026631e-07 0.0 -5.500481e-07
000160 9b 4e b9 34 c9 bc 03 b5 6f b3 1b 31 92 a6 f7 33
       3.4516128e-07 -4.907602e-07 2.2657465e-09 1.1532133e-07
000170 00 00 00 00 6d 3e db 35 00 00 00 00 d8 48 e4 35
       0.0 1.633494e-06 0.0 1.7008524e-06
000180 a4 cd 1f b4 db ff 7d b5 e0 4e af b6 00 00 00 00
       -1.488284e-07 -9.4622163e-07 -5.2245887e-06 0.0
000190 98 c6 87 b4 d1 b7 39 b6 4b 39 05 b5 76 58 b3 b4
       -2.5290205e-07 -2.7674143e-06 -4.9629733e-07 -3.3405712e-07
0001a0 73 79 80 b6 58 11 93 b6 00 00 00 00 40 46 c3 b6
       -3.828836e-06 -4.3829605e-06 0.0 -5.819631e-06
0001b0 8a b6 56 b5 23 a9 3a b6 58 61 95 b5 0a b2 62 b6
       -7.998684e-07 -2.781461e-06 -1.1129696e-06 -3.3780257e-06
0001c0 e7 1c d1 b5 00 00 00 00 39 fc 4c b6 22 cd 0b 36
       -1.5580125e-06 0.0 -3.0545182e-06 2.0832017e-06
0001d0 27 43 27 b5 00 00 00 00 96 b1 4a b6 d3 4a 94 b3
       -6.231007e-07 0.0 -3.0203714e-06 -6.9053975e-08
0001e0 00 00 00 00 4d 28 15 b6 00 00 00 00 00 00 00 00
       0.0 -2.2226188e-06 0.0 0.0
0001f0 44 7e f2 b5 94 ac 69 b6 d9 67 db 35 78 3e 4f b0
       -1.8067153e-06 -3.482016e-06 1.6346995e-06 -7.5394935e-10
000200 fc 80 80 b6 00 ae 9b 33 01 a9 3f b4 26 82 80 b6
       -3.829713e-06 7.2494004e-08 -1.7849744e-07 -3.8298485e-06
000210 b7 35 1a 36 bd 88 10 b7 ca 8c 57 36 bd 91 de b5
       2.2979054e-06 -8.614906e-06 3.2119447e-06 -1.6582704e-06
000220 00 00 00 00 88 12 28 b4 21 44 5c b6 c1 9a 82 b6
       0.0 -1.5652961e-07 -3.282221e-06 -3.8923176e-06
000230 27 e0 7b 34 00 00 00 00 00 00 00 00 68 3a 02 b7
       2.3457743e-07 0.0 0.0 -7.762203e-06
000240 c1 09 ee b4 f0 91 f7 b5 a8 81 de b6 00 00 00 00
       -4.4338051e-07 -1.8445407e-06 -6.6312095e-06 0.0
000250 2d 88 cb b4 bd 56 db b5 00 00 00 00 9f a8 9e b4
       -3.7910777e-07 -1.6342016e-06 0.0 -2.955248e-07
000260 6f b0 be 34 70 02 64 b5 d2 1d c3 30 b9 fd 11 34
       3.551863e-07 -8.4940166e-07 1.4196593e-09 1.3596481e-07
000270 00 00 00 00 25 c1 ae 34 00 00 00 00 41 72 de 35
       0.0 3.2550557e-07 0.0 1.6573541e-06
000280 fb b7 05 b4 3c 88 a9 b5 49 c5 b2 b6 00 00 00 00
       -1.2453522e-07 -1.2631131e-06 -5.3277804e-06 0.0
000290 4b fc 88 b4 c5 19 9a b6 db 93 58 b5 0e 39 20 b5
       -2.551554e-07 -4.5925576e-06 -8.068143e-07 -5.968767e-07
0002a0 83 7f 6e b6 35 40 b8 b6 00 00 00 00 d7 72 cf b6
       -3.5538985e-06 -5.491102e-06 0.0 -6.18245e-06
0002b0 59 62 e7 b5 b6 e6 54 b6 c4 cc f0 b5 72 b5 82 b6
       -1.7239464e-06 -3.1724753e-06 -1.7940988e-06 -3.895425e-06
0002c0 90 97 d3 b5 00 00 00 00 76 ee 82 b6 d5 25 ab 35
       -1.5764836e-06 0.0 -3.9020624e-06 1.2751503e-06
0002d0 6c 7f 9d b5 00 00 00 00 34 f7 47 b6 50 53 88 b4
       -1.1734496e-06 0.0 -2.9797202e-06 -2.5392592e-07
0002e0 00 00 00 00 61 6c 45 b6 00 00 00 00 00 00 00 00
       0.0 -2.9418372e-06 0.0 0.0
0002f0 d0 f2 05 b6 d9 0d 84 b6 16 f7 b9 35 59 c6 25 b0
       -1.995988e-06 -3.9355186e-06 1.3855486e-06 -6.030852e-10
000300 e9 e4 89 b7 6f 69 34 31 d4 72 2b b7 d0 61 cc b6
       -1.6438267e-05 2.625338e-09 -1.021913e-05 -6.0910606e-06
000310 bf 40 e2 b6 58 4d 92 b7 29 3a 2c b6 4b 6b e8 b6
       -6.7428623e-06 -1.7440572e-05 -2.566385e-06 -6.9266293e-06
000320 00 00 00 00 46 45 9e b6 ea 80 0b b6 ff 1d 41 b7
       0.0 -4.7168314e-06 -2.0787652e-06 -1.151068e-05
000330 04 00 00 80 00 00 00 00 00 00 00 00 c0 c1 87 b7
       -6e-45 0.0 0.0 -1.6183476e-05
000340 4b fb 23 b7 b9 6b c4 b7 cf fe 3c b7 00 00 00 00
       -9.774066e-06 -2.3415183e-05 -1.12650005e-05 0.0
000350 eb 3e 51 b7 7c 04 11 b7 00 00 00 00 01 4e 82 b6
       -1.247202e-05 -8.643718e-06 0.0 -3.8833828e-06
000360 a1 e9 04 b6 04 00 00 80 4b 2b 4e b1 0d a4 8a b5
       -1.9805523e-06 -6e-45 -3.0001555e-09 -1.0329546e-06
000370 00 00 00 00 18 c0 0d b7 00 00 00 00 ec dc eb b6
       0.0 -8.44898e-06 0.0 -7.0292645e-06
000380 fd 70 e0 b5 1b 80 ce b5 90 c4 81 b7 00 00 00 00
       -1.6722184e-06 -1.538548e-06 -1.546953e-05 0.0
000390 e5 50 44 b5 d3 9e ba b7 26 c0 63 31 c9 e6 91 b6
       -7.3133407e-07 -2.2246886e-05 3.3142071e-09 -4.3482037e-06
0003a0 eb e5 0a b7 16 74 89 b7 00 00 00 00 fa 45 19 b7
       -8.278973e-06 -1.638573e-05 0.0 -9.135803e-06
0003b0 f4 3f 52 b7 b3 ce 41 b7 a6 80 a7 2a 67 9d a5 b7
       -1.2531866e-05 -1.1551822e-05 2.9754427e-13 -1.9742829e-05
0003c0 9b d0 b0 b4 00 00 00 00 99 89 d3 b6 72 6d 0f b7
       -3.2934335e-07 0.0 -6.3043085e-06 -8.548946e-06
0003d0 71 fa 8a b7 00 00 00 00 9d 49 40 b6 04 00 00 00
       -1.6567503e-05 0.0 -2.8653078e-06 6e-45
0003e0 00 00 00 00 60 4e a2 b7 00 00 00 00 00 00 00 00
       0.0 -1.9348401e-05 0.0 0.0
0003f0 94 36 f5 b6 61 12 b1 b6 3f b5 26 b0 48 ec 3b 30
       -7.3079227e-06 -5.2771506e-06 -6.0648014e-10 6.836598e-10

exp_avg_sq f4 [128, 64]
000000 c1 8f 14 32 77 1e 19 31 30 99 85 2f aa ab a5 2e
       8.64742e-09 2.2281748e-09 2.4301405e-10 7.533825e-11
000010 88 02 11 31 23 28 3a 31 c3 bd 89 30 c8 b7 5a 31
       2.1101716e-09 2.7089377e-09 1.0021995e-09 3.1827643e-09
000020 00 00 00 00 e9 a9 52 30 a9 6f c7 2f 7e 5e 03 31
       0.0 7.663901e-10 3.6277228e-10 1.9116722e-09
000030 15 f0 11 27 00 00 00 00 00 00 00 00 1e 69 74 31
       2.025294e-15 0.0 0.0 3.5566425e-09
000040 64 41 31 31 88 d7 4b 32 cd 35 41 31 00 00 00 00
       2.579406e-09 1.1865161e-08 2.8115779e-09 0.0
000050 e3 03 45 32 f2 39 a0 30 00 00 00 00 d2 49 70 31
       1.1467793e-08 1.1658001e-09 0.0 3.4966559e-09
000060 cd 5e cc 2f fa be 0f 2e 89 66 89 2f 06 8d f3 2a
       3.7174744e-10 3.2684057e-11 2.499301e-10 4.3263326e-13
000070 00 00 00 00 f2 eb 6f 31 00 00 00 00 49 eb 64 2f
       0.0 3.4913197e-09 0.0 2.0820069e-10
000080 d7 94 2d 2b 03 88 92 2d 8a 0d 27 31 00 00 00 00
       6.1668503e-13 1.665868e-11 2.4309394e-09 0.0
000090 7a 16 0f 2f 0b 6f 6f 32 13 1d 99 2f 58 ed 23 31
       1.301376e-10 1.3936879e-08 2.7851196e-10 2.3854536e-09
0000a0 13 5c b8 2f 23 1a 01 32 00 00 00 00 03 dc 71 31
       3.3534828e-10 7.514731e-09 0.0 3.5195178e-09
0000b0 a4 52 7f 31 fa 1b c6 31 3f 9f d8 2e a5 b2 9b 31
       3.715436e-09 5.765739e-09 9.8508306e-11 4.5314033e-09
0000c0 1d 69 72 2d 00 00 00 00 93 89 c1 2f 77 a0 48 31
       1.3779447e-11 0.0 3.5204248e-10 2.9195044e-09
0000d0 fd 14 22 32 00 00 00 00 c7 f7 22 31 cb dc 88 2c
       9.434413e-09 0.0 2.3714948e-09 3.8898654e-12
0000e0 00 00 00 00 c9 40 55 31 00 00 00 00 00 00 00 00
       0.0 3.1032406e-09 0.0 0.0
0000f0 fd 22 5c 2f 92 70 2e 31 10 fa 5f 30 bf 6c 2f 2f
       2.0021314e-10 2.5384321e-09 8.148229e-10 1.5954792e-10
000100 22 65 11 33 2b 44 1a 32 aa 53 1e 30 74 0f 7b 2f
       3.3852423e-08 8.979479e-09 5.759896e-10 2.2833807e-10
000110 5f 2a 04 32 3b 41 23 32 8a 3c 81 31 85 f1 54 32
       7.693045e-09 9.50268e-09 3.7612766e-09 1.2394939e-08
000120 00 00 00 00 58 f4 55 31 1b 95 c1 30 9a 87 ec 31
       0.0 3.1134473e-09 1.4084977e-09 6.88392e-09
000130 25 4c 65 28 00 00 00 00 00 00 00 00 b4 94 62 32
       1.2728565e-14 0.0 0.0 1.31887425e-08
000140 69 74 22 32 9c 5e 3f 33 2c 76 3e 32 00 00 00 00
       9.45611e-09 4.45567e-08 1.1086325e-08 0.0
000150 e3 7c 43 33 54 02 90 31 00 00 00 00 ad de 7f 32
       4.551556e-08 4.1912163e-09 0.0 1.4893584e-08
000160 1b 14 cf 30 0c 91 05 2f 8d e1 99 30 17 15 8e 2b
       1.5066947e-09 1.214781e-10 1.119632e-09 1.009556e-12
000170 00 00 00 00 36 f6 61 32 00 00 00 00 7c b7 21 30
       0.0 1.3152706e-08 0.0 5.8832206e-10
000180 5a 8a c1 2b 7c ba 86 2e 90 d2 17 32 00 00 00 00
       1.3751875e-12 6.126741e-11 8.837233e-09 0.0
000190 a8 fe 13 30 7b 21 65 33 fd a6 8b 30 e1 57 27 32
       5.3840177e-10 5.3348668e-08 1.0161042e-09 9.740661e-09
0001a0 4d ca 8a 30 6e 75 fb 32 00 00 00 00 e0 3b 7a 32
       1.0098319e-09 2.9273647e-08 0.0 1.4565529e-08
0001b0 a0 e3 70 32 1d 5a c7 32 88 bc c1 2f 13 bd 8d 32
       1.40215946e-08 2.3207628e-08 3.5240455e-10 1.6500541e-08
0001c0 e2 08 73 2e 00 00 00 00 17 91 af 30 70 8d 3d 32
       5.5259693e-11 0.0 1.2774163e-09 1.1033407e-08
0001d0 5e 3a 1f 33 00 00 00 00 2d 85 2e 32 6c 4a 80 2d
       3.7073157e-08 0.0 1.0158414e-08 1.4584965e-11
0001e0 00 00 00 00 d3 05 36 32 00 00 00 00 00 00 00 00
       0.0 1.0595119e-08 0.0 0.0
0001f0 38 5a 16 30 30 88 34 32 83 24 4b 31 44 92 3e 30
       5.469789e-10 1.0508344e-08 2.9561142e-09 6.9329453e-10
000200 89 f5 2c 33 78 70 42 32 7c a8 28 30 b2 1e 8b 2f
       4.0270184e-08 1.1317859e-08 6.1357475e-10 2.5305763e-10
000210 24 8d 37 32 b4 3c 35 32 82 33 c4 31 65 dd 8d 32
       1.0684094e-08 1.0549389e-08 5.7102065e-09 1.6515239e-08
000220 00 00 00 00 d7 26 56 31 d7 c6 09 31 1e 80 19 32
       0.0 3.1163176e-09 2.0049151e-09 8.934903e-09
000230 4f 4c de 28 00 00 00 00 00 00 00 00 5b 6e 84 32
       2.4680045e-14 0.0 0.0 1.5417006e-08
000240 75 6b 5b 32 55 2d 64 33 97 29 59 32 00 00 00 00
       1.2771911e-08 5.3126616e-08 1.2640519e-08 0.0
000250 4c de 71 33 88 60 c1 31 00 00 00 00 32 2f 8b 32
       5.6314363e-08 5.6280136e-09 0.0 1.6203192e-08
000260 e5 82 cb 30 bd 43 60 2f a2 99 c3 30 7e 8c 91 2b
       1.4807396e-09 2.0396747e-10 1.4231782e-09 1.0341864e-12
000270 00 00 00 00 cd f1 98 32 00 00 00 00 e6 b9 28 30
       0.0 1.7805087e-08 0.0 6.138222e-10
000280 46 b1 c8 2b 42 a9 c2 2e 0b 71 1c 32 00 00 00 00
       1.4260058e-12 8.852165e-11 9.106098e-09 0.0
000290 18 ac 0d 30 f8 73 8d 33 c6 33 cb 30 a1 c8 49 32
       5.154006e-10 6.586919e-08 1.4784909e-09 1.1745358e-08
0002a0 c1 e9 8b 30 6b 12 17 33 00 00 00 00 09 23 87 32
       1.0180018e-09 3.517418e-08 0.0 1.5732e-08
0002b0 4f c2 92 32 8a 46 e6 32 c8 65 22 30 a7 c8 98 32
       1.7084998e-08 2.6807601e-08 5.9079897e-10 1.7786375e-08
0002c0 64 b4 a4 2e 00 00 00 00 8b 04 e3 30 93 e0 6f 32
       7.4899004e-11 0.0 1.6517715e-09 1.3962693e-08
0002d0 28 4f 37 33 00 00 00 00 b1 67 4a 32 e1 dd eb 2d
       4.268e-08 0.0 1.1781524e-08 2.6814941e-11
0002e0 00 00 00 00 06 8b 45 32 00 00 00 00 00 00 00 00
       0.0 1.14985195e-08 0.0 0.0
0002f0 e3 6d 19 30 f3 a1 5c 32 f8 32 a2 31 d5 da 3c 30
       5.5817234e-10 1.2842508e-08 4.720615e-09 6.870498e-10
000300 58 ab 0e 33 19 e6 e6 31 71 56 a6 30 a3 62 94 2f
       3.3217788e-08 6.72004e-09 1.2102658e-09 2.699113e-10
000310 a7 48 34 31 f0 e8 52 32 42 71 b0 2f 2f 16 d2 31
       2.6234745e-09 1.2276573e-08 3.2094688e-10 6.1143264e-09
000320 00 00 00 00 8c 2d c4 31 1a 3d 81 2f 9e 19 70 31
       0.0 5.709529e-09 2.3508379e-10 3.4939158e-09
000330 b4 bd 6b 28 00 00 00 00 00 00 00 00 c0 00 6a 32
       1.3086256e-14 0.0 0.0 1.3620763e-08
000340 f5 07 84 31 14 13 3c 33 a2 a1 5c 32 00 00 00 00
       3.8426102e-09 4.3789512e-08 1.28424364e-08 0.0
000350 80 c6 20 33 ec 2f af 30 00 00 00 00 52 eb a8 32
       3.7433438e-08 1.2746546e-09 0.0 1.9664785e-08
000360 a2 72 57 31 27 84 7f 2a 0e 68 24 30 99 ad 57 2c
       3.135178e-09 2.2694399e-13 5.9810723e-10 3.0649704e-12
000370 00 00 00 00 49 78 c3 31 00 00 00 00 f3 2e b3 30
       0.0 5.688922e-09 0.0 1.3037308e-09
000380 2d 2b c3 2c cb d6 16 2e 16 1f 83 32 00 00 00 00
       5.547027e-12 3.4296826e-11 1.5264543e-08 0.0
000390 60 64 9f 30 6e d7 3a 33 01 af 91 2f b9 16 19 32
       1.1597301e-09 4.3502432e-08 2.6499694e-10 8.910939e-09
0003a0 b3 16 3f 31 58 af e9 32 00 00 00 00 41 e3 ad 32
       2.780706e-09 2.7204507e-08 0.0 2.0243194e-08
0003b0 47 df 52 32 37 ae dc 32 dd 2d 05 29 37 24 cf 32
       1.2274376e-08 2.5690595e-08 2.9571713e-14 2.411444e-08
0003c0 43 a6 e6 2d 00 00 00 00 34 d9 07 30 fc e2 0b 32
       2.6221808e-11 0.0 4.942138e-10 8.142475e-09
0003d0 ee 1a 36 33 00 00 00 00 fb 52 35 32 d6 d6 f1 2c
       4.239967e-08 0.0 1.0554454e-08 6.8734836e-12
0003e0 00 00 00 00 ed 9a 80 32 00 00 00 00 00 00 00 00
       0.0 1.4971613e-08 0.0 0.0
0003f0 fb 83 bc 30 df 60 17 32 d5 f7 3e 2f ff 41 9f 30
       1.3716311e-09 8.811383e-09 1.7368447e-10 1.158753e-09

exp_avg f4 [128]
000000 ab 3b dd b6 e8 77 c8 b6 33 e3 fb b6 a6 69 f2 b7
       -6.5932595e-06 -5.9744234e-06 -7.5068324e-06 -2.8897844e-05
000010 00 00 00 00 01 43 7e 36 04 00 00 00 00 00 00 00
       0.0 3.788795e-06 6e-45 0.0
000020 08 2c 9a b7 00 00 00 00 00 00 00 00 f6 49 99 36
       -1.8378734e-05 0.0 0.0 4.5683655e-06
000030 00 00 00 00 00 00 00 00 5b 15 17 36 39 dc 98 b7
       0.0 0.0 2.2513184e-06 -1.8222361e-05
000040 2d e9 19 36 e9 fa b9 b6 33 a7 d8 b5 b4 3d 0b b7
       2.2934503e-06 -5.5426394e-06 -1.6141915e-06 -8.299412e-06
000050 04 23 da b7 e8 43 37 b7 00 00 00 00 ac 58 71 b7
       -2.600393e-05 -1.0923461e-05 0.0 -1.4385365e-05
000060 00 00 00 00 c5 47 f1 b6 00 00 00 00 15 6a 2b b7
       0.0 -7.1907148e-06 0.0 -1.0217093e-05
000070 cd 01 0d 37 48 e4 9b b7 60 1b a5 31 00 00 00 00
       8.404674e-06 -1.8583742e-05 4.805244e-09 0.0
000080 b1 93 7f 36 24 b4 a2 36 04 00 00 00 00 00 00 00
       3.8083929e-06 4.8489474e-06 6e-45 0.0
000090 9a d4 a9 b7 f7 af be b6 00 00 00 00 c2 e1 88 37
       -2.024537e-05 -5.6829263e-06 0.0 1.631759e-05
0000a0 00 00 00 00 fb ba 86 b7 ec c7 9e b7 fd 22 21 b7
       0.0 -1.6061114e-05 -1.8928164e-05 -9.604494e-06
0000b0 40 bd b4 37 b1 ef 2d b7 cc e5 16 38 4a 4b aa b7
       2.1545799e-05 -1.0367411e-05 3.5976802e-05 -2.0300638e-05
0000c0 7f ab 77 37 4e 64 8d b7 3d 87 7b b7 7b 0a 2e b7
       1.4762277e-05 -1.6855218e-05 -1.4992253e-05 -1.0373648e-05
0000d0 9e d8 1f b7 e5 18 55 36 29 5e 84 b7 00 00 00 00
       -9.527574e-06 3.1753964e-06 -1.5779473e-05 0.0
0000e0 e4 6d 8f b7 8a b5 65 37 cd 14 d7 b7 b6 bf da 36
       -1.70981e-05 1.36917315e-05 -2.5639683e-05 6.5192244e-06
0000f0 7a ff 42 b6 00 00 00 00 77 2f 6a b7 75 50 0e b7
       -2.905696e-06 0.0 -1.3958538e-05 -8.482592e-06
000100 00 00 00 00 d4 05 b8 b7 00 00 00 00 96 81 9c b7
       0.0 -2.1937223e-05 0.0 -1.8656992e-05
000110 53 2d 8e b7 d3 a7 f3 36 00 00 00 00 56 48 13 b7
       -1.6948825e-05 7.2615017e-06 0.0 -8.778725e-06
000120 dd 21 30 b7 fa 56 a1 36 fc 09 ec b6 88 a1 98 38
       -1.0498302e-05 4.8082993e-06 -7.0345104e-06 7.278012e-05
000130 f2 91 3d b7 23 1e c2 b6 00 00 00 00 c2 7b 90 b6
       -1.1299258e-05 -5.785159e-06 0.0 -4.3059417e-06
000140 b3 65 3d 36 00 00 00 00 55 c1 05 b6 b6 ec 14 37
       2.8222391e-06 0.0 -1.9931078e-06 8.876601e-06
000150 00 00 00 00 00 00 00 00 00 00 00 00 23 a2 53 b6
       0.0 0.0 0.0 -3.1535826e-06
000160 04 00 00 00 b3 f7 3d 37 1d d1 53 b7 cd 22 97 37
       6e-45 1.132295e-05 -1.2625268e-05 1.8016808e-05
000170 6e e9 6b b7 c8 a5 ea 37 1b 34 a3 38 04 00 00 00
       -1.4061441e-05 2.7972172e-05 7.782151e-05 6e-45
000180 f2 b2 53 b5 b5 14 42 37 9c f1 1f 37 04 00 00 00
       -7.8864025e-07 1.1568122e-05 9.533393e-06 6e-45
000190 72 83 ee 0b 31 3e 21 36 00 00 00 00 1b d2 51 b7
       9.187204e-32 2.402707e-06 0.0 -1.250629e-05
0001a0 00 00 00 00 00 00 00 00 16 47 53 36 a1 36 c2 b7
       0.0 0.0 3.1482828e-06 -2.315204e-05
0001b0 27 f3 90 b6 54 34 84 37 5f 89 7f 36 00 00 00 00
       -4.319841e-06 1.5759993e-05 3.8077922e-06 0.0
0001c0 b6 d1 03 b6 eb 58 5d b7 53 f0 9d b7 df dd 82 37
       -1.964259e-06 -1.3193329e-05 -1.8827768e-05 1.5600524e-05
0001d0 ed 34 a2 b5 00 00 00 00 92 19 30 b7 5d 79 67 37
       -1.2085344e-06 0.0 -1.0496371e-05 1.379693e-05
0001e0 aa 6d b5 b7 c1 2e 06 34 04 00 00 00 ab a9 03 b8
       -2.1627948e-05 1.2496731e-07 6e-45 -3.139085e-05
0001f0 00 00 00 00 85 78 54 b7 00 00 00 00 8b 7c 30 b7
       0.0 -1.2664245e-05 0.0 -1.0519415e-05

exp_avg_sq f4 [128]
000000 63 4e 05 33 dd 27 04 34 bc 14 1c 34 be c4 05 34
       3.1037768e-08 1.230796e-07 1.4536175e-07 1.2458165e-07
000010 00 00 00 00 a9 03 38 32 70 af b2 26 00 00 00 00
       0.0 1.0711042e-08 1.2398784e-15 0.0
000020 90 ab 80 34 00 00 00 00 00 00 00 00 74 67 01 33
       2.3966686e-07 0.0 0.0 3.0129243e-08
000030 00 00 00 00 00 00 00 00 ff 2c 22 32 a6 7f 84 34
       0.0 0.0 9.439872e-09 2.4679792e-07
000040 e0 fc 68 30 76 46 6f 34 9b 65 d3 32 b8 c1 53 34
       8.4760465e-10 2.2284243e-07 2.4609838e-08 1.9721381e-07
000050 f0 73 b4 34 45 48 8c 33 00 00 00 00 76 fb 0b 33
       3.3611968e-07 6.532404e-08 0.0 3.2592162e-08
000060 00 00 00 00 01 95 8f 33 00 00 00 00 32 d0 53 34
       0.0 6.68606e-08 0.0 1.9726647e-07
000070 b9 46 60 32 e1 59 3d 34 c3 1f c3 31 00 00 00 00
       1.30545965e-08 1.7634694e-07 5.678858e-09 0.0
000080 7a 04 d8 32 ca 3a 13 32 d6 28 2e 25 00 00 00 00
       2.5147745e-08 8.569893e-09 1.510593e-16 0.0
000090 24 5c 1a 34 27 f5 d0 32 00 00 00 00 0d 96 9a 34
       1.4375888e-07 2.432587e-08 0.0 2.8793912e-07
0000a0 00 00 00 00 21 60 3a 34 67 5f 81 34 45 98 32 33
       0.0 1.7357571e-07 2.4097537e-07 4.1582343e-08
0000b0 1b 5c ec 34 09 0c ab 33 fc 6b f9 33 cd 87 8d 34
       4.402544e-07 7.964997e-08 1.1614608e-07 2.6362105e-07
0000c0 19 71 71 34 a7 60 d5 33 d3 f3 20 34 81 05 09 35
       2.2486019e-07 9.9361664e-08 1.4989864e-07 5.1044486e-07
0000d0 ce 87 00 33 65 e4 7a 34 8e d3 54 34 00 00 00 00
       2.9925836e-08 2.3366154e-07 1.9821002e-07 0.0
0000e0 2c 79 84 33 64 1a 92 32 29 5f 84 34 05 ff f5 33
       6.16877e-08 1.7008638e-08 2.4656154e-07 1.1455089e-07
0000f0 4b da 13 33 00 00 00 00 af f5 0d 33 b7 ea 7d 32
       3.442464e-08 0.0 3.305257e-08 1.4779906e-08
000100 00 00 00 00 90 60 90 34 00 00 00 00 18 5a 05 34
       0.0 2.689235e-07 0.0 1.2419366e-07
000110 13 91 86 34 35 6b 19 31 00 00 00 00 7d 44 41 32
       2.5065e-07 2.232537e-09 0.0 1.1249651e-08
000120 cb ba b3 33 ac 5b 8d 33 8a 16 ce 32 ee c4 9d 33
       8.3693145e-08 6.582499e-08 2.3991806e-08 7.3467035e-08
000130 58 d1 4f 34 e8 f5 00 34 00 00 00 00 c7 40 84 33
       1.9354536e-07 1.2010389e-07 0.0 6.158512e-08
000140 72 d2 da 33 00 00 00 00 64 d0 0a 33 de 64 ba 34
       1.0189696e-07 0.0 3.232016e-08 3.471859e-07
000150 00 00 00 00 00 00 00 00 00 00 00 00 20 a8 18 33
       0.0 0.0 0.0 3.5543167e-08
000160 76 cd 92 1f 68 d5 f1 34 c3 e1 2e 34 4e 32 3a 33
       6.217331e-20 4.5045022e-07 1.6287144e-07 4.335225e-08
000170 88 05 d8 33 c8 b6 a3 33 26 e5 77 34 9b d2 77 26
       1.005929e-07 7.623527e-08 2.3087031e-07 8.5980763e-16
000180 74 d8 e4 33 a5 0b ae 34 fa 8a 99 34 5e 36 bc 2b
       1.065645e-07 3.2418498e-07 2.859959e-07 1.3373293e-12
000190 81 8f b5 23 99 f2 a9 31 00 00 00 00 06 05 8e 34
       1.9684836e-17 4.9461275e-09 0.0 2.6453216e-07
0001a0 00 00 00 00 00 00 00 00 ca 75 3a 33 b5 2f c9 33
       0.0 0.0 4.341363e-08 9.36847e-08
0001b0 74 91 84 33 a6 45 c0 34 4f 82 de 33 00 00 00 00
       6.173187e-08 3.5813463e-07 1.03613836e-07 0.0
0001c0 5d f2 2c 2f dd 2a 66 34 db 91 3d 34 ac 62 03 35
       1.5729414e-10 2.1436013e-07 1.7655059e-07 4.894489e-07
0001d0 5e 43 03 33 00 00 00 00 64 77 d1 32 34 9e 19 33
       3.0562084e-08 0.0 2.4385095e-08 3.5766973e-08
0001e0 f3 00 72 34 4b ac f1 33 af 3d 63 2f cb 87 29 34
       2.2538352e-07 1.1253777e-07 2.0667444e-10 1.5788753e-07
0001f0 00 00 00 00 20 c8 0e 34 00 00 00 00 3e 59 e0 33
       0.0 1.3297586e-07 0.0 1.0447046e-07

exp_avg f4 [64, 128]
000000 00 00 00 00 00 00 00 00 00 00 00 00 00 00 00 00
       0.0 0.0 0.0 0.0
000010 00 00 00 00 00 00 00 00 00 00 00 00 00 00 00 00
       0.0 0.0 0.0 0.0
000020 00 00 00 00 00 00 00 00 00 00 00 00 00 00 00 00
       0.0 0.0 0.0 0.0
000030 00 00 00 00 00 00 00 00 00 00 00 00 00 00 00 00
       0.0 0.0 0.0 0.0
000040 00 00 00 00 00 00 00 00 00 00 00 00 00 00 00 00
       0.0 0.0 0.0 0.0
000050 00 00 00 00 00 00 00 00 00 00 00 00 00 00 00 00
       0.0 0.0 0.0 0.0
000060 00 00 00 00 00 00 00 00 00 00 00 00 00 00 00 00
       0.0 0.0 0.0 0.0
000070 00 00 00 00 00 00 00 00 00 00 00 00 00 00 00 00
       0.0 0.0 0.0 0.0
000080 00 00 00 00 00 00 00 00 00 00 00 00 00 00 00 00
       0.0 0.0 0.0 0.0
000090 00 00 00 00 00 00 00 00 00 00 00 00 00 00 00 00
       0.0 0.0 0.0 0.0
0000a0 00 00 00 00 00 00 00 00 00 00 00 00 00 00 00 00
       0.0 0.0 0.0 0.0
0000b0 00 00 00 00 00 00 00 00 00 00 00 00 00 00 00 00
       0.0 0.0 0.0 0.0
0000c0 00 00 00 00 00 00 00 00 00 00 00 00 00 00 00 00
       0.0 0.0 0.0 0.0
0000d0 00 00 00 00 00 00 00 00 00 00 00 00 00 00 00 00
       0.0 0.0 0.0 0.0
0000e0 00 00 00 00 00 00 00 00 00 00 00 00 00 00 00 00
       0.0 0.0 0.0 0.0
0000f0 00 00 00 00 00 00 00 00 00 00 00 00 00 00 00 00
       0.0 0.0 0.0 0.0
000100 00 00 00 00 00 00 00 00 00 00 00 00 00 00 00 00
       0.0 0.0 0.0 0.0
000110 00 00 00 00 00 00 00 00 00 00 00 00 00 00 00 00
       0.0 0.0 0.0 0.0
000120 00 00 00 00 00 00 00 00 00 00 00 00 00 00 00 00
       0.0 0.0 0.0 0.0
000130 00 00 00 00 00 00 00 00 00 00 00 00 00 00 00 00
       0.0 0.0 0.0 0.0
000140 00 00 00 00 00 00 00 00 00 00 00 00 00 00 00 00
       0.0 0.0 0.0 0.0
000150 00 00 00 00 00 00 00 00 00 00 00 00 00 00 00 00
       0.0 0.0 0.0 0.0
000160 00 00 00 00 00 00 00 00 00 00 00 00 00 00 00 00
       0.0 0.0 0.0 0.0
000170 00 00 00 00 00 00 00 00 00 00 00 00 00 00 00 00
       0.0 0.0 0.0 0.0
000180 00 00 00 00 00 00 00 00 00 00 00 00 00 00 00 00
       0.0 0.0 0.0 0.0
000190 00 00 00 00 00 00 00 00 00 00 00 00 00 00 00 00
       0.0 0.0 0.0 0.0
0001a0 00 00 00 00 00 00 00 00 00 00 00 00 00 00 00 00
       0.0 0.0 0.0 0.0
0001b0 00 00 00 00 00 00 00 00 00 00 00 00 00 00 00 00
       0.0 0.0 0.0 0.0
0001c0 00 00 00 00 00 00 00 00 00 00 00 00 00 00 00 00
       0.0 0.0 0.0 0.0
0001d0 00 00 00 00 00 00 00 00 00 00 00 00 00 00 00 00
       0.0 0.0 0.0 0.0
0001e0 00 00 00 00 00 00 00 00 00 00 00 00 00 00 00 00
       0.0 0.0 0.0 0.0
0001f0 00 00 00 00 00 00 00 00 00 00 00 00 00 00 00 00
       0.0 0.0 0.0 0.0
000200 04 00 00 00 04 00 00 00 04 00 00 00 04 00 00 00
       6e-45 6e-45 6e-45 6e-45
000210 00 00 00 00 04 00 00 00 00 00 00 00 00 00 00 00
       0.0 6e-45 0.0 0.0
000220 04 00 00 00 00 00 00 00 00 00 00 00 04 00 00 00
       6e-45 0.0 0.0 6e-45
000230 00 00 00 00 00 00 00 00 04 00 00 00 04 00 00 00
       0.0 0.0 6e-45 6e-45
000240 04 00 00 00 04 00 00 00 04 00 00 00 04 00 00 00
       6e-45 6e-45 6e-45 6e-45
000250 04 00 00 00 04 00 00 00 00 00 00 00 04 00 00 00
       6e-45 6e-45 0.0 6e-45
000260 00 00 00 00 04 00 00 00 00 00 00 00 04 00 00 00
       0.0 6e-45 0.0 6e-45
000270 04 00 00 00 04 00 00 00 04 00 00 00 00 00 00 00
       6e-45 6e-45 6e-45 0.0
000280 04 00 00 00 04 00 00 00 00 00 00 00 00 00 00 00
       6e-45 6e-45 0.0 0.0
000290 04 00 00 00 04 00 00 00 00 00 00 00 00 00 00 00
       6e-45 6e-45 0.0 0.0
0002a0 00 00 00 00 04 00 00 00 04 00 00 00 04 00 00 00
       0.0 6e-45 6e-45 6e-45
0002b0 04 00 00 00 04 00 00 00 04 00 00 00 04 00 00 00
       6e-45 6e-45 6e-45 6e-45
0002c0 00 00 00 00 04 00 00 00 04 00 00 00 00 00 00 00
       0.0 6e-45 6e-45 0.0
0002d0 04 00 00 00 04 00 00 00 04 00 00 00 00 00 00 00
       6e-45 6e-45 6e-45 0.0
0002e0 04 00 00 00 04 00 00 00 04 00 00 00 04 00 00 00
       6e-45 6e-45 6e-45 6e-45
0002f0 04 00 00 00 00 00 00 00 04 00 00 00 04 00 00 00
       6e-45 0.0 6e-45 6e-45
000300 00 00 00 00 04 00 00 00 00 00 00 00 04 00 00 00
       0.0 6e-45 0.0 6e-45
000310 04 00 00 00 04 00 00 00 00 00 00 00 04 00 00 00
       6e-45 6e-45 0.0 6e-45
000320 04 00 00 00 04 00 00 00 04 00 00 00 04 00 00 00
       6e-45 6e-45 6e-45 6e-45
000330 04 00 00 00 04 00 00 00 00 00 00 00 04 00 00 00
       6e-45 6e-45 0.0 6e-45
000340 04 00 00 00 00 00 00 00 04 00 00 00 04 00 00 00
       6e-45 0.0 6e-45 6e-45
000350 00 00 00 00 00 00 00 00 00 00 00 00 04 00 00 00
       0.0 0.0 0.0 6e-45
000360 00 00 00 00 04 00 00 00 04 00 00 00 04 00 00 00
       0.0 6e-45 6e-45 6e-45
000370 04 00 00 00 04 00 00 00 04 00 00 00 00 00 00 00
       6e-45 6e-45 6e-45 0.0
000380 04 00 00 00 00 00 00 00 04 00 00 80 04 00 00 00
       6e-45 0.0 -6e-45 6e-45
000390 00 00 00 00 04 00 00 00 00 00 00 00 04 00 00 00
       0.0 6e-45 0.0 6e-45
0003a0 00 00 00 00 00 00 00 00 04 00 00 00 04 00 00 00
       0.0 0.0 6e-45 6e-45
0003b0 04 00 00 00 04 00 00 00 00 00 00 00 00 00 00 00
       6e-45 6e-45 0.0 0.0
0003c0 00 00 00 00 04 00 00 00 04 00 00 00 04 00 00 00
       0.0 6e-45 6e-45 6e-45
0003d0 04 00 00 00 00 00 00 00 04 00 00 00 04 00 00 00
       6e-45 0.0 6e-45 6e-45
0003e0 04 00 00 00 04 00 00 00 04 00 00 00 04 00 00 00
       6e-45 6e-45 6e-45 6e-45
0003f0 00 00 00 00 04 00 00 00 00 00 00 00 04 00 00 00
       0.0 6e-45 0.0 6e-45

exp_avg_sq f4 [64, 128]
000000 00 00 00 00 00 00 00 00 00 00 00 00 00 00 00 00
       0.0 0.0 0.0 0.0
000010 00 00 00 00 00 00 00 00 00 00 00 00 00 00 00 00
       0.0 0.0 0.0 0.0
000020 00 00 00 00 00 00 00 00 00 00 00 00 00 00 00 00
       0.0 0.0 0.0 0.0
000030 00 00 00 00 00 00 00 00 00 00 00 00 00 00 00 00
       0.0 0.0 0.0 0.0
000040 00 00 00 00 00 00 00 00 00 00 00 00 00 00 00 00
       0.0 0.0 0.0 0.0
000050 00 00 00 00 00 00 00 00 00 00 00 00 00 00 00 00
       0.0 0.0 0.0 0.0
000060 00 00 00 00 00 00 00 00 00 00 00 00 00 00 00 00
       0.0 0.0 0.0 0.0
000070 00 00 00 00 00 00 00 00 00 00 00 00 00 00 00 00
       0.0 0.0 0.0 0.0
000080 00 00 00 00 00 00 00 00 00 00 00 00 00 00 00 00
       0.0 0.0 0.0 0.0
000090 00 00 00 00 00 00 00 00 00 00 00 00 00 00 00 00
       0.0 0.0 0.0 0.0
0000a0 00 00 00 00 00 00 00 00 00 00 00 00 00 00 00 00
       0.0 0.0 0.0 0.0
0000b0 00 00 00 00 00 00 00 00 00 00 00 00 00 00 00 00
       0.0 0.0 0.0 0.0
0000c0 00 00 00 00 00 00 00 00 00 00 00 00 00 00 00 00
       0.0 0.0 0.0 0.0
0000d0 00 00 00 00 00 00 00 00 00 00 00 00 00 00 00 00
       0.0 0.0 0.0 0.0
0000e0 00 00 00 00 00 00 00 00 00 00 00 00 00 00 00 00
       0.0 0.0 0.0 0.0
0000f0 00 00 00 00 00 00 00 00 00 00 00 00 00 00 00 00
       0.0 0.0 0.0 0.0
000100 00 00 00 00 00 00 00 00 00 00 00 00 00 00 00 00
       0.0 0.0 0.0 0.0
000110 00 00 00 00 00 00 00 00 00 00 00 00 00 00 00 00
       0.0 0.0 0.0 0.0
000120 00 00 00 00 00 00 00 00 00 00 00 00 00 00 00 00
       0.0 0.0 0.0 0.0
000130 00 00 00 00 00 00 00 00 00 00 00 00 00 00 00 00
       0.0 0.0 0.0 0.0
000140 00 00 00 00 00 00 00 00 00 00 00 00 00 00 00 00
       0.0 0.0 0.0 0.0
000150 00 00 00 00 00 00 00 00 00 00 00 00 00 00 00 00
       0.0 0.0 0.0 0.0
000160 00 00 00 00 00 00 00 00 00 00 00 00 00 00 00 00
       0.0 0.0 0.0 0.0
000170 00 00 00 00 00 00 00 00 00 00 00 00 00 00 00 00
       0.0 0.0 0.0 0.0
000180 00 00 00 00 00 00 00 00 00 00 00 00 00 00 00 00
       0.0 0.0 0.0 0.0
000190 00 00 00 00 00 00 00 00 00 00 00 00 00 00 00 00
       0.0 0.0 0.0 0.0
0001a0 00 00 00 00 00 00 00 00 00 00 00 00 00 00 00 00
       0.0 0.0 0.0 0.0
0001b0 00 00 00 00 00 00 00 00 00 00 00 00 00 00 00 00
       0.0 0.0 0.0 0.0
0001c0 00 00 00 00 00 00 00 00 00 00 00 00 00 00 00 00
       0.0 0.0 0.0 0.0
0001d0 00 00 00 00 00 00 00 00 00 00 00 00 00 00 00 00
       0.0 0.0 0.0 0.0
0001e0 00 00 00 00 00 00 00 00 00 00 00 00 00 00 00 00
       0.0 0.0 0.0 0.0
0001f0 00 00 00 00 00 00 00 00 00 00 00 00 00 00 00 00
       0.0 0.0 0.0 0.0
000200 94 58 ab 2a f5 22 9d 2b 07 af c3 2a fb e0 58 27
       3.0437165e-13 1.1165223e-12 3.4760408e-13 3.0097984e-15
000210 00 00 00 00 28 85 ab 2c 00 00 00 00 00 00 00 00
       0.0 4.8748956e-12 0.0 0.0
000220 8b 7c fb 2a 00 00 00 00 00 00 00 00 03 f1 bc 27
       4.4672976e-13 0.0 0.0 5.2441788e-15
000230 00 00 00 00 00 00 00 00 bf d0 9b 2a c3 ae a4 22
       0.0 0.0 2.7678378e-13 4.4637325e-18
000240 99 37 73 2a ee af 9d 29 b2 63 d7 2a e5 b9 20 26
       2.1602025e-13 7.0027195e-14 3.826085e-13 5.5763085e-16
000250 a7 22 14 2a f9 5a 3f 2c 00 00 00 00 85 da 71 2b
       1.3157063e-13 2.7193232e-12 0.0 8.5923656e-13
000260 00 00 00 00 51 70 71 2c 00 00 00 00 56 58 aa 2b
       0.0 3.4310508e-12 0.0 1.2103745e-12
000270 19 3b 5a 2b a8 f7 a4 2d 5d 80 02 2b 00 00 00 00
       7.753117e-13 1.8754623e-11 4.636342e-13 0.0
000280 03 9c 0f 2a e3 ca 65 2a 00 00 00 00 00 00 00 00
       1.2755079e-13 2.0409676e-13 0.0 0.0
000290 f3 69 2e 2c 91 4b 56 2b 00 00 00 00 00 00 00 00
       2.47857e-12 7.613294e-13 0.0 0.0
0002a0 00 00 00 00 b9 0f 02 28 4a 50 88 29 1a 8f 5d 29
       0.0 7.219859e-15 6.053541e-14 4.919598e-14
0002b0 60 ed db 27 cf 5c 4b 2b 39 d7 48 22 e3 3b 47 29
       6.1042073e-15 7.2248885e-13 2.7218992e-18 4.423882e-14
0002c0 00 00 00 00 43 5f cb 2b 81 3e 63 2a 00 00 00 00
       0.0 1.4450458e-12 2.0183336e-13 0.0
0002d0 3d ed dc 2b 5b 5a cb 2b 83 76 b6 2a 00 00 00 00
       1.5697787e-12 1.4449096e-12 3.2411929e-13 0.0
0002e0 20 67 3b 2c 9a b4 10 2c 5c c3 85 29 b2 e7 50 29
       2.6631544e-12 2.0563885e-12 5.940276e-14 4.638624e-14
0002f0 13 9b f4 2b 00 00 00 00 c5 c0 8b 2c 17 95 72 2c
       1.7380284e-12 0.0 3.9720193e-12 3.447303e-12
000300 00 00 00 00 ae 5c 28 2d 00 00 00 00 af 11 ff 29
       0.0 9.570273e-12 0.0 1.13273425e-13
000310 b7 ba 12 29 d8 f8 0a 2d 00 00 00 00 d8 fc 7a 2d
       3.258046e-14 7.899646e-12 0.0 1.4266997e-11
000320 8e 74 9c 2d 80 2a ae 28 54 ff 87 2c 76 e5 9b 28
       1.7786907e-11 1.9336312e-14 3.865278e-12 1.730797e-14
000330 66 c7 04 2d 15 3e 1c 29 00 00 00 00 b4 47 ab 26
       7.547607e-12 3.4692806e-14 0.0 1.1884944e-15
000340 ee f1 82 29 00 00 00 00 d3 4b 4d 2d bb 50 66 27
       5.815128e-14 0.0 1.1669737e-11 3.1962676e-15
000350 00 00 00 00 00 00 00 00 00 00 00 00 f9 30 0c 29
       0.0 0.0 0.0 3.1128722e-14
000360 00 00 00 00 27 19 3c 21 08 1f b8 2a 48 7a 22 20
       0.0 6.3730166e-19 3.2706498e-13 1.3762393e-19
000370 cd e6 b2 2a 98 f0 91 2b db 75 d2 27 00 00 00 00
       3.1779302e-13 1.0369648e-12 5.841449e-15 0.0
000380 af 66 cf 29 00 00 00 00 d2 0e 33 20 31 9d 8c 27
       9.2104594e-14 0.0 1.5166793e-19 3.9028233e-15
000390 00 00 00 00 39 88 bc 2c 00 00 00 00 4d 0f b6 29
       0.0 5.358405e-12 0.0 8.085078e-14
0003a0 00 00 00 00 00 00 00 00 e2 a2 9d 2c 59 e8 ab 2b
       0.0 0.0 4.480292e-12 1.221477e-12
0003b0 18 fa 99 2d a6 22 11 24 00 00 00 00 00 00 00 00
       1.750515e-11 3.147121e-17 0.0 0.0
0003c0 00 00 00 00 0d 88 46 2a 93 c3 41 28 f8 61 1b 27
       0.0 1.7633135e-13 1.0756061e-14 2.156368e-15
0003d0 03 4e d0 2c 00 00 00 00 26 15 00 2d b3 ad b1 29
       5.9203766e-12 0.0 7.2806535e-12 7.890511e-14
0003e0 3f 76 f2 29 c2 9d 6a 29 81 00 2f 2b e9 6d ab 2c
       1.0767471e-13 5.209527e-14 6.217319e-13 4.872315e-12
0003f0 00 00 00 00 80 08 52 28 00 00 00 00 14 92 e8 2b
       0.0 1.1659185e-14 0.0 1.6525136e-12
