001-machine_learning/data/00001-MLP-temperature/007_checkpoint.pth (torch_old, 209315 bytes, 21 tensors)

exp_avg f4 [64, 4]
000000 00 00 00 00 00 00 00 00 00 00 00 00 00 00 00 00
       0.0 0.0 0.0 0.0
000010 95 00 e0 33 f8 7c ab 35 5e 3d ca 34 41 7a 96 35
       1.0430919e-07 1.2776864e-06 3.7670083e-07 1.1211451e-06
000020 e3 96 05 bb 4a 99 0b bb b7 b0 bd ba 6d d8 da ba
       -0.0020384125 -0.0021301084 -0.0014472221 -0.001669658
000030 7d bc ae b9 be 88 b7 b9 c7 3a 67 b9 e8 4d 9e b9
       -0.000333283 -0.0003500636 -0.00022051773 -0.00030194153
000040 08 02 60 b8 71 57 3d b8 47 0d f0 b7 33 97 92 b7
       -5.3407653e-05 -4.5142548e-05 -2.8616412e-05 -1.7474964e-05
000050 00 00 00 00 00 00 00 00 00 00 00 00 00 00 00 00
       0.0 0.0 0.0 0.0
000060 14 b4 c2 b9 04 69 dd b9 92 d8 e3 b9 84 13 0d ba
       -0.00037136732 -0.00042230648 -0.0004345817 -0.0005381631
000070 c0 00 63 3a 35 58 6c 3a c1 ac 21 3a 60 45 38 3a
       0.00086594746 0.00090158294 0.0006167405 0.00070293806
000080 e7 8d 61 ba 6e 6b 6a ba 45 2b 1e ba e6 47 4b ba
       -0.0008604214 -0.00089424 -0.00060336693 -0.0007754549
000090 00 00 00 00 00 00 00 00 00 00 00 00 00 00 00 00
       0.0 0.0 0.0 0.0
0000a0 36 e5 a5 3b e9 9e a9 3b f9 5d 4e 3b 05 e0 80 3b
       0.0050627245 0.0051764143 0.0031489118 0.003932955
0000b0 f5 ae bf ba 93 ab c7 ba b1 ca 8b ba 53 96 ab ba
       -0.0014624285 -0.0015233628 -0.0010665265 -0.0013091065
0000c0 73 1d 88 ba a6 da 83 ba ff c9 02 ba 9b cc 40 ba
       -0.0010384753 -0.0010059669 -0.0004989206 -0.00073547073
0000d0 2f e4 b9 39 2e 03 bd 39 97 81 63 39 8d 9f 52 39
       0.0003545596 0.00036051258 0.00021696683 0.00020086598
0000e0 cf 06 98 bb 91 dd 9e bb da 36 61 bb 53 b6 83 bb
       -0.0046394835 -0.00484819 -0.003436497 -0.0040195375
0000f0 44 3a 16 3c 7a 7d 1d 3c 04 95 d8 3b ed dc ff 3b
       0.009169165 0.0096124355 0.006609561 0.007808319
000100 00 00 00 00 c9 88 b8 34 d5 41 1f b4 e2 c7 96 34
       0.0 3.4372195e-07 -1.4831978e-07 2.808511e-07
000110 00 00 00 00 00 00 00 00 00 00 00 00 00 00 00 00
       0.0 0.0 0.0 0.0
000120 d2 e9 17 b9 53 d8 eb b8 dd 17 bf b8 21 a7 c4 b8
       -0.00014487587 -0.00011245967 -9.1120346e-05 -9.3771385e-05
000130 a6 f2 55 b9 6b 20 86 b9 af 6f e2 b9 07 04 da b9
       -0.00020403657 -0.00025582625 -0.0004318929 -0.000415832
000140 29 83 e6 39 15 cf f0 39 b4 7f 8b 39 e0 b5 99 39
       0.0004396674 0.00045930655 0.00026607292 0.00029317942
000150 01 aa 04 bb 98 54 0c bb b5 15 cb ba 7e b4 fa ba
       -0.0020242932 -0.0021412726 -0.001549414 -0.0019127277
000160 46 80 60 3a b2 8a 6d 3a 01 61 26 3a 04 e6 31 3a
       0.0008564036 0.00090615 0.0006346852 0.0006786289
000170 94 d6 e9 37 0a 7d 36 38 56 8d d8 37 35 d7 19 38
       2.7875685e-05 4.3508633e-05 2.5815021e-05 3.667847e-05
000180 fd 47 fa 3a 4b 95 02 3b 7a 96 a0 3a e5 be c9 3a
       0.001909494 0.0019925411 0.0012251877 0.0015391974
000190 b2 8b fa 3b 8d 8c 00 3c 9f 7c 9e 3b fc 86 c8 3b
       0.0076460475 0.00784601 0.0048366333 0.006119607
0001a0 96 58 0f bb d7 da 14 bb a8 d5 c9 ba a3 5a 00 bb
       -0.002187287 -0.0022713447 -0.0015398758 -0.0019585274
0001b0 43 fd 47 3a bd 45 50 3a 5d d2 1c 3a dd 25 56 3a
       0.00076289865 0.0007944962 0.00059822743 0.0008169094
0001c0 72 7e 28 b9 cc 37 34 b9 8d 3f cb b7 c4 fd a0 b8
       -0.00016068833 -0.00017186924 -2.4229079e-05 -7.676662e-05
0001d0 00 00 00 00 32 b6 e1 b3 15 b9 b2 b2 70 3a 02 b4
       0.0 -1.051052e-07 -2.0806093e-08 -1.2128453e-07
0001e0 00 00 00 00 00 00 00 00 00 00 00 00 00 00 00 00
       0.0 0.0 0.0 0.0
0001f0 00 00 00 00 00 00 00 00 00 00 00 00 00 00 00 00
       0.0 0.0 0.0 0.0
000200 73 4e e2 b8 1c ed de b8 93 c6 9a b8 f7 7a ba b8
       -0.00010791132 -0.0001062995 -7.3802796e-05 -8.892075e-05
000210 00 00 00 00 00 00 00 00 00 00 00 00 00 00 00 00
       0.0 0.0 0.0 0.0
000220 88 17 05 3b ea e0 0c 3b fc c2 c6 3a 59 21 e7 3a
       0.0020308215 0.0021496364 0.0015164311 0.001763384
000230 4a b1 8b 3b c3 16 92 3b a2 6c 47 3b 81 95 79 3b
       0.004263078 0.00445828 0.003042974 0.0038083496
000240 04 1d 3b 39 9c 2c 2a 39 4f 66 c7 b6 9d 0f 4b 37
       0.00017844519 0.00016229082 -5.9425724e-06 1.2103378e-05
000250 75 26 af 3a f9 fa b8 3a 5f a6 85 3a f0 ed a7 3a
       0.0013362902 0.0014112882 0.0010196677 0.0012812
000260 96 55 97 3b 08 46 9c 3b 6d fa 5e 3b 41 fd 77 3b
       0.004618357 0.0047690906 0.0034023777 0.003784016
000270 28 04 f2 3b 62 b8 f9 3b 8f 57 ae 3b ad c8 c4 3b
       0.0073857494 0.007620857 0.0053204964 0.0060053677
000280 7c 53 5a bb d4 3c 65 bb c5 b5 21 bb 27 9a 42 bb
       -0.003331392 -0.0034978883 -0.0024674993 -0.0029693933
000290 da 8a 62 3a fc f1 70 3a 1f 56 27 3a c8 b7 44 3a
       0.00086419063 0.0009191332 0.00063833775 0.0007504192
0002a0 00 00 00 00 00 00 00 00 00 00 00 00 00 00 00 00
       0.0 0.0 0.0 0.0
0002b0 dd 07 de 3a d3 d0 ea 3a 34 9d af 3a c3 02 d4 3a
       0.0016939599 0.0017915018 0.0013398291 0.001617514
0002c0 00 00 00 00 00 00 00 00 00 00 00 00 00 00 00 00
       0.0 0.0 0.0 0.0
0002d0 0c c8 83 39 7e 18 82 39 50 ca 16 39 55 e6 03 39
       0.00025135314 0.0002481378 0.00014380482 0.00012578939
0002e0 e5 13 bc b9 97 ed 9a b9 58 f3 76 b9 c6 8c 77 b9
       -0.00035872977 -0.00029550187 -0.00023551041 -0.00023608198
0002f0 d6 50 4e b8 36 56 1d b8 07 1e 3d 38 f0 f6 ae 38
       -4.918951e-05 -3.7512007e-05 4.5089077e-05 8.342962e-05
000300 00 00 00 00 00 00 00 00 00 00 00 00 00 00 00 00
       0.0 0.0 0.0 0.0
000310 f1 f0 ca ba 97 a9 d5 ba cf 79 95 ba 83 34 b0 ba
       -0.0015483183 -0.0016301152 -0.00114041 -0.0013443384
000320 00 00 00 00 00 00 00 00 00 00 00 00 00 00 00 00
       0.0 0.0 0.0 0.0
000330 86 de 54 3b f4 80 5f 3b 70 40 21 3b 68 ef 46 3b
       0.0032481267 0.0034103962 0.0024605058 0.00303551
000340 ae f8 f8 b9 5a e5 fe b9 d5 c1 98 b9 4f b2 19 b9
       -0.00047487527 -0.00048617536 -0.00029136115 -0.00014657642
000350 3a 45 44 3b f1 21 4d 3b 61 68 12 3b f7 ed 35 3b
       0.0029948489 0.0031300748 0.0022340047 0.0027760246
000360 0b 1c 76 3a 35 64 81 3a 60 a8 3b 3a 4e 5f 84 3a
       0.0009388334 0.0009871783 0.0007158574 0.0010099204
000370 da ae 79 39 b9 82 87 39 4f 4d 11 39 c4 9f 3a 39
       0.00023811628 0.00025846603 0.00013857077 0.0001779786
000380 00 00 00 00 00 00 00 00 00 00 00 00 00 00 00 00
       0.0 0.0 0.0 0.0
000390 13 83 af 3b 32 97 b2 3b 57 22 59 3b ce 38 88 3b
       0.0053562014 0.005450153 0.003313204 0.0041571623
0003a0 06 07 a4 3a 0b 6e a7 3a 20 fd 49 3a 43 2f 6c 3a
       0.00125143 0.0012773884 0.000770526 0.0009009728
0003b0 00 00 00 00 00 00 00 00 00 00 00 00 00 00 00 00
       0.0 0.0 0.0 0.0
0003c0 6f 3f 80 b9 7f 96 7e b9 e2 51 79 38 45 fe 37 b9
       -0.00024461324 -0.00024279392 5.9442486e-05 -0.00017546963
0003d0 d8 d3 18 3b b5 8d 1f 3b 71 dd c5 3a 8f ea e5 3a
       0.0023319628 0.0024345939 0.0015095902 0.0017541217
0003e0 1c 74 35 32 4b a2 9a 32 a8 bc 01 32 37 7e 02 31
       1.0561987e-08 1.8001762e-08 7.551684e-09 1.8989235e-09
0003f0 00 00 00 00 00 00 00 00 00 00 00 00 00 00 00 00
       0.0 0.0 0.0 0.0

exp_avg_sq f4 [64, 4]
000000 00 00 00 00 00 00 00 00 00 00 00 00 00 00 00 00
       0.0 0.0 0.0 0.0
000010 9b dd cd 2d 78 ce aa 34 a4 c2 25 34 2d a4 99 34
       2.3404214e-11 3.1815193e-07 1.5437632e-07 2.8617924e-07
000020 29 00 73 37 6a ea 6f 37 33 1e b7 36 27 2b 0b 37
       1.4483966e-05 1.4300089e-05 5.4573406e-06 8.295093e-06
000030 95 dd 16 35 bf 01 14 35 78 f3 57 34 a8 54 ad 34
       5.62018e-07 5.513684e-07 2.0112009e-07 3.2285357e-07
000040 81 ed 2d 34 34 a0 6e 33 ec 7b 5b 33 85 e3 4f 33
       1.6198284e-07 5.5559397e-08 5.1102617e-08 4.840287e-08
000050 00 00 00 00 00 00 00 00 00 00 00 00 00 00 00 00
       0.0 0.0 0.0 0.0
000060 55 3a 27 37 7a 45 23 37 73 97 70 36 d0 b5 b7 36
       9.967557e-06 9.731733e-06 3.5850942e-06 5.4749908e-06
000070 13 c0 05 36 2e 21 05 36 4d e5 4a 35 ea 90 9b 35
       1.9930346e-06 1.9837858e-06 7.558454e-07 1.1590575e-06
000080 cb 39 48 36 c3 5e 46 36 65 b8 97 35 1e 3b e4 35
       2.9835962e-06 2.9559458e-06 1.1304043e-06 1.7004529e-06
000090 00 00 00 00 00 00 00 00 00 00 00 00 00 00 00 00
       0.0 0.0 0.0 0.0
0000a0 7f 57 b8 37 ae 91 b5 37 a8 a7 0c 37 41 f0 53 37
       2.1975253e-05 2.1644719e-05 8.383686e-06 1.26325185e-05
0000b0 8f 47 2e 37 34 d5 2c 37 f9 77 81 36 cc 46 c5 36
       1.0387869e-05 1.0301639e-05 3.8584662e-06 5.8792994e-06
0000c0 66 0b 90 37 d3 6b 90 37 ab 5f d4 36 2b 3e 29 37
       1.7171446e-05 1.7216347e-05 6.3292296e-06 1.008766e-05
0000d0 b8 3d 69 34 3f b0 26 34 b7 fc b7 33 3b 19 72 33
       2.1722269e-07 1.5524073e-07 8.56757e-08 5.6367963e-08
0000e0 fb 89 bb 38 59 30 ba 38 66 8d 0c 38 07 dd 55 38
       8.942556e-05 8.8781766e-05 3.351029e-05 5.0989005e-05
0000f0 98 f3 bf 39 63 69 be 39 04 5a 10 39 4a 89 5b 39
       0.0003661185 0.00036318143 0.00013766444 0.00020936612
000100 00 00 00 00 61 25 9e 33 e7 45 68 33 f6 9d b4 33
       0.0 7.3642475e-08 5.4080285e-08 8.410636e-08
000110 00 00 00 00 00 00 00 00 00 00 00 00 00 00 00 00
       0.0 0.0 0.0 0.0
000120 68 73 18 36 66 02 14 36 02 94 70 35 13 77 b4 35
       2.271694e-06 2.2055115e-06 8.9622347e-07 1.34457e-06
000130 a3 99 24 37 36 83 21 37 55 60 6b 36 72 02 b5 36
       9.810933e-06 9.626898e-06 3.5073801e-06 5.394505e-06
000140 7b 01 b0 34 5d b9 a4 34 4b 8d ff 33 fc 7e 44 34
       3.2783632e-07 3.068225e-07 1.1900064e-07 1.8300119e-07
000150 e7 4c 0a 38 54 51 09 38 6e 73 4e 37 e6 98 9c 37
       3.2973385e-05 3.2739088e-05 1.2305432e-05 1.8667848e-05
000160 30 a9 4f 36 98 b9 4a 36 a9 f9 9b 35 2f 51 ee 35
       3.0943884e-06 3.0208375e-06 1.1621061e-06 1.7756009e-06
000170 7c e2 f3 34 ce 5f 5a 34 9b 85 f1 33 a8 17 23 34
       4.5427066e-07 2.0337686e-07 1.124674e-07 1.5189164e-07
000180 65 9a f6 36 a9 95 f0 36 15 f9 39 36 12 30 8c 36
       7.349345e-06 7.16998e-06 2.7712133e-06 4.1779213e-06
000190 34 ae 92 38 ed ff 90 38 25 0e df 37 07 d0 27 38
       6.9942704e-05 6.914125e-05 2.6590258e-05 4.0009643e-05
0001a0 0f b7 98 37 da 73 97 37 3b aa e3 36 2f 4e 2c 37
       1.8205055e-05 1.805455e-05 6.7849446e-06 1.0270202e-05
0001b0 dd 12 c8 36 50 0d c2 36 87 3f 11 36 be c1 5b 36
       5.9626605e-06 5.7832003e-06 2.1643662e-06 3.2746316e-06
0001c0 b4 e1 e5 34 04 12 33 34 ce 31 cf 33 4d 11 81 33
       4.2818795e-07 1.6677228e-07 9.648248e-08 6.0101776e-08
0001d0 00 00 00 00 2b 13 86 31 88 22 05 32 8b 52 33 32
       0.0 3.9020924e-09 7.74947e-09 1.0437939e-08
0001e0 00 00 00 00 00 00 00 00 00 00 00 00 00 00 00 00
       0.0 0.0 0.0 0.0
0001f0 00 00 00 00 00 00 00 00 00 00 00 00 00 00 00 00
       0.0 0.0 0.0 0.0
000200 64 85 15 33 76 b5 e6 32 4e fd 3f 32 65 37 94 32
       3.4813084e-08 2.6858043e-08 1.1175258e-08 1.7254658e-08
000210 00 00 00 00 00 00 00 00 00 00 00 00 00 00 00 00
       0.0 0.0 0.0 0.0
000220 09 40 d5 37 34 70 d3 37 4d 17 20 37 cd f3 73 37
       2.5421397e-05 2.5205409e-05 9.542168e-06 1.4540693e-05
000230 e5 21 af 38 06 c5 ad 38 83 28 03 38 8a 9d 46 38
       8.3509636e-05 8.285981e-05 3.1270563e-05 4.73536e-05
000240 99 1c fa 35 33 f3 f7 35 61 b7 2e 35 f6 c3 8a 35
       1.8634775e-06 1.8473714e-06 6.50869e-07 1.0338833e-06
000250 ea 89 72 37 00 22 70 37 79 8c b4 36 c9 0f 09 37
       1.4456435e-05 1.4313031e-05 5.380771e-06 8.169512e-06
000260 65 f5 71 38 99 f6 6f 38 96 7c b3 37 52 a1 0a 38
       5.768742e-05 5.7211702e-05 2.1396478e-05 3.3052005e-05
000270 53 18 0e 39 4e 46 0c 39 73 37 4f 38 a9 59 a2 38
       0.00013551237 0.00013377631 4.9404287e-05 7.7414625e-05
000280 4f d4 84 38 3b 16 84 38 00 7d c7 37 73 64 17 38
       6.333796e-05 6.298391e-05 2.3780856e-05 3.6094756e-05
000290 e0 b6 91 36 8e e2 90 36 37 14 db 35 75 35 28 36
       4.342626e-06 4.317909e-06 1.6322655e-06 2.5065067e-06
0002a0 00 00 00 00 00 00 00 00 00 00 00 00 00 00 00 00
       0.0 0.0 0.0 0.0
0002b0 86 70 d1 37 aa 24 d0 37 11 d2 1b 37 48 4a 6d 37
       2.496714e-05 2.4812605e-05 9.28763e-06 1.4143596e-05
0002c0 00 00 00 00 00 00 00 00 00 00 00 00 00 00 00 00
       0.0 0.0 0.0 0.0
0002d0 40 10 60 33 c9 25 b1 34 17 af 5b 34 16 70 bf 34
       5.2168843e-08 3.2996311e-07 2.0459662e-07 3.5658076e-07
0002e0 8e 1f 7f 37 f5 b1 7e 37 97 29 ca 36 c6 ab 17 37
       1.5206531e-05 1.5181014e-05 6.024911e-06 9.0402955e-06
0002f0 2c f0 e5 35 6a de d8 35 ee 84 1b 35 0e 3b 71 35
       1.7131729e-06 1.6157985e-06 5.793544e-07 8.986543e-07
000300 00 00 00 00 00 00 00 00 00 00 00 00 00 00 00 00
       0.0 0.0 0.0 0.0
000310 23 b8 44 37 e5 ed 42 37 0c 86 93 36 05 5e e0 36
       1.1725383e-05 1.161869e-05 4.3965465e-06 6.6866655e-06
000320 00 00 00 00 00 00 00 00 00 00 00 00 00 00 00 00
       0.0 0.0 0.0 0.0
000330 4e aa 8f 38 a6 93 8e 38 a9 0e d6 37 cf 1a 22 38
       6.850493e-05 6.798589e-05 2.5517615e-05 3.8648777e-05
000340 57 b4 d2 35 d0 dc d0 35 33 12 10 35 a8 f7 6f 35
       1.5698705e-06 1.5561473e-06 5.3670664e-07 8.9394825e-07
000350 a4 c8 61 38 df 16 5f 38 bd cd a6 37 dc fc fc 37
       5.383104e-05 5.3188644e-05 1.9884546e-05 3.0158488e-05
000360 dc 7c 24 37 a3 7e 21 37 f3 6b 70 36 db 3e b5 36
       9.804233e-06 9.625833e-06 3.5825622e-06 5.4015377e-06
000370 9f 8a bb 34 62 0c af 34 97 1e 0c 34 61 2e 4f 34
       3.4932324e-07 3.26053e-07 1.3049645e-07 1.929525e-07
000380 00 00 00 00 00 00 00 00 00 00 00 00 00 00 00 00
       0.0 0.0 0.0 0.0
000390 99 8d b4 37 e9 bd b2 37 d1 9a 0a 37 43 53 50 37
       2.1523609e-05 2.1307687e-05 8.261487e-06 1.2417152e-05
0003a0 97 9c 5c 35 fc 91 49 35 90 57 8a 34 2b df ec 34
       8.2184255e-07 7.509077e-07 2.5768213e-07 4.4120802e-07
0003b0 00 00 00 00 00 00 00 00 00 00 00 00 00 00 00 00
       0.0 0.0 0.0 0.0
0003c0 a2 28 85 35 86 02 24 35 23 c7 93 34 7b 8c 20 35
       9.921098e-07 6.1098433e-07 2.7525775e-07 5.980907e-07
0003d0 03 25 28 37 fb 3c 21 37 55 0b 76 36 64 54 ba 36
       1.0022198e-05 9.610546e-06 3.6663453e-06 5.5530563e-06
0003e0 ec f8 b2 2d b6 4b 55 2d 49 36 0a 2f 39 33 2d 2e
       2.03468e-11 1.2124459e-11 1.2570313e-10 3.938114e-11
0003f0 00 00 00 00 00 00 00 00 00 00 00 00 00 00 00 00
       0.0 0.0 0.0 0.0

exp_avg f4 [64]
000000 00 00 00 00 9b 9c a8 35 3e 7e 05 bb 7f 19 af b9
       0.0 1.2562554e-06 -0.0020369436 -0.00033397597
000010 4e 01 60 b8 00 00 00 00 cb 13 c3 b9 d0 d8 62 3a
       -5.3406977e-05 0.0 -0.00037208045 0.00086535234
000020 07 8d 61 ba 00 00 00 00 34 e5 a5 3b e8 9b bf ba
       -0.00086040836 0.0 0.0050627235 -0.0014618607
000030 31 26 88 ba ef e4 b9 39 17 08 98 bb 60 3a 16 3c
       -0.0010387358 0.00035456519 -0.0046396363 0.009169191
000040 d1 3b c3 34 00 00 00 00 d8 0d 17 b9 c2 02 57 b9
       3.6365103e-07 0.0 -0.0001440564 -0.00020505025
000050 e8 4b e6 39 fe b0 04 bb 2f 66 60 3a b6 b2 e9 37
       0.00043925573 -0.0020247097 0.00085601484 2.7858983e-05
000060 d6 1f fa 3a 1e 86 fa 3b 55 5e 0f bb 2b 43 48 3a
       0.0019082974 0.0076453825 -0.0021876295 0.00076394033
000070 72 7e 28 b9 04 3a ef b3 00 00 00 00 00 00 00 00
       -0.00016068833 -1.1139858e-07 0.0 0.0
000080 5e 01 e2 b8 00 00 00 00 8a 01 05 3b f9 b6 8b 3b
       -0.000107767744 0.0 0.0020295107 0.0042637554
000090 2b 48 3b 39 22 28 af 3a 94 55 97 3b 23 04 f2 3b
       0.00017860594 0.0013363401 0.004618356 0.007385747
0000a0 7e 48 5a bb 21 67 62 3a 00 00 00 00 29 ef dd 3a
       -0.003330737 0.0008636583 0.0 0.0016932237
0000b0 00 00 00 00 86 95 82 39 0b 0f bc b9 e0 53 4d b8
       0.0 0.00024906936 -0.00035869362 -4.8953923e-05
0000c0 00 00 00 00 cf f4 ca ba 00 00 00 00 0c ea 54 3b
       0.0 -0.0015484336 0.0 0.0032488136
0000d0 2d 90 f7 b9 32 45 44 3b 96 47 76 3a 02 ac 79 39
       -0.0004721893 0.002994847 0.00093948224 0.00023810568
0000e0 00 00 00 00 83 85 af 3b b4 e3 a3 3a 00 00 00 00
       0.0 0.005356492 0.0012503774 0.0
0000f0 1c 36 81 b9 e9 d3 18 3b be e7 1f 32 00 00 00 00
       -0.00024645112 0.0023319668 9.30771e-09 0.0

exp_avg_sq f4 [64]
000000 00 00 00 00 e4 92 1a 35 b0 a0 73 37 27 ec 1c 35
       0.0 5.7583225e-07 1.4521342e-05 5.8458176e-07
000010 45 82 2e 34 00 00 00 00 96 f3 28 37 5c 12 07 36
       1.6252405e-07 0.0 1.0070295e-05 2.0127254e-06
000020 d3 9a 4d 36 00 00 00 00 fc 57 b8 37 b6 5e 2e 37
       3.06375e-06 0.0 2.197548e-05 1.039326e-05
000030 68 bb 92 37 e2 3d 69 34 91 c9 bb 38 3b f5 bf 39
       1.7491824e-05 2.1722329e-07 8.9543995e-05 0.0003661307
000040 93 f0 25 34 00 00 00 00 9a 29 1f 36 42 52 26 37
       1.5454343e-07 0.0 2.3717062e-06 9.913523e-06
000050 41 a9 be 34 93 f5 0a 38 a0 79 53 36 7e cc 03 35
       3.5513406e-07 3.3130473e-05 3.1512245e-06 4.909888e-07
000060 f5 83 f7 36 52 ba 92 38 02 e8 98 37 a2 d4 cf 36
       7.3765355e-06 6.9965274e-05 1.8227849e-05 6.1938345e-06
000070 b4 e1 e5 34 0c 4f 9a 32 00 00 00 00 00 00 00 00
       4.2818795e-07 1.7963906e-08 0.0 0.0
000080 50 88 21 33 00 00 00 00 7c 7a d5 37 4d 88 af 38
       3.760971e-08 0.0 2.5448615e-05 8.370038e-05
000090 96 c5 fe 35 07 ea 74 37 63 f5 71 38 52 18 0e 39
       1.898198e-06 1.4598022e-05 5.768741e-05 0.00013551235
0000a0 e5 2c 85 38 b3 9d 92 36 00 00 00 00 50 5f d2 37
       6.3502965e-05 4.3694977e-06 0.0 2.5078334e-05
0000b0 00 00 00 00 a8 6a 2e 35 38 fc 83 37 a8 7e eb 35
       0.0 6.4975256e-07 1.5733865e-05 1.7545726e-06
0000c0 00 00 00 00 7f bb 44 37 00 00 00 00 a3 35 90 38
       0.0 1.1726165e-05 0.0 6.876446e-05
0000d0 2e bf 0d 36 a3 c8 61 38 3d 35 28 37 66 5b c6 34
       2.1121919e-06 5.3831038e-05 1.0025976e-05 3.6946875e-07
0000e0 00 00 00 00 a9 e5 b4 37 e3 a8 6d 35 00 00 00 00
       0.0 2.1564616e-05 8.853514e-07 0.0
0000f0 5c 44 b3 35 03 25 28 37 a3 97 34 2f 00 00 00 00
       1.3356434e-06 1.0022198e-05 1.6424777e-10 0.0

exp_avg f4 [128, 64]
000000 00 00 00 00 03 55 3d b2 f5 b9 28 39 25 89 a0 38
       0.0 -1.1020577e-08 0.00016091003 7.65494e-05
000010 52 53 f4 b5 00 00 00 00 4b 0f 27 39 7d 51 0b 39
       -1.8203666e-06 0.0 0.00015932058 0.0001328643
000020 10 ee 1d 39 00 00 00 00 3e 7a a5 35 b2 8a 99 38
       0.00015061372 0.0 1.2329035e-06 7.3214425e-05
000030 13 d2 5e b7 b3 66 ac 35 fe a5 36 38 f1 90 ad 36
       -1.3281143e-05 1.2844888e-06 4.3546774e-05 5.172675e-06
000040 d4 34 19 b3 00 00 00 00 0f 30 a5 35 ff c5 e1 38
       -3.5671135e-08 0.0 1.2307445e-06 0.00010765716
000050 45 85 1d 39 86 c4 ae 39 b9 a8 f7 38 9a 9c d6 b6
       0.00015022334 0.00033334288 0.00011809305 -6.395928e-06
000060 c2 9a 86 b5 a2 35 9f 36 c7 ea 1a 39 da 79 51 39
       -1.0028818e-06 4.744813e-06 0.00014774046 0.00019977186
000070 48 1e b4 34 f6 38 5e ae 00 00 00 00 00 00 00 00
       3.3549645e-07 -5.0527547e-11 0.0 0.0
000080 bd 4c b5 38 00 00 00 00 3c f5 0a 39 8c 30 aa 38
       8.645046e-05 0.0 0.00013252062 8.115274e-05
000090 93 97 08 39 01 ef 9d 39 ce d4 9f b7 69 24 be b7
       0.00013026436 0.00030123445 -1.9053372e-05 -2.266672e-05
0000a0 38 07 30 39 d8 33 ff 38 00 00 00 00 32 62 98 39
       0.00016787357 0.00012169004 0.0 0.0002906486
0000b0 00 00 00 00 70 d8 e7 b2 54 97 60 35 87 f2 6b 38
       0.0 -2.6990364e-08 8.3666714e-07 5.6254237e-05
0000c0 00 00 00 00 89 de 1a 38 00 00 00 00 2e b6 c7 38
       0.0 3.6923713e-05 0.0 9.522993e-05
0000d0 91 54 41 38 11 06 aa 36 e6 01 1e 39 51 db 23 39
       4.6093544e-05 5.067101e-06 0.00015068761 0.00015626593
0000e0 00 00 00 00 ac 4d 09 35 f6 d2 4d 38 00 00 00 00
       0.0 5.1149505e-07 4.907228e-05 0.0
0000f0 14 66 36 b7 a7 5a 29 37 96 e5 8f 30 00 00 00 00
       -1.0871812e-05 1.0094292e-05 1.0469872e-09 0.0
000100 00 00 00 00 07 28 18 32 a4 2c f7 38 64 0c 36 38
       0.0 8.856666e-09 0.00011786193 4.340372e-05
000110 f2 d9 e5 b2 00 00 00 00 51 58 30 38 f7 bc d8 38
       -2.6758219e-08 0.0 4.204392e-05 0.0001033488
000120 bb 5b 82 38 00 00 00 00 b6 60 6d b5 92 1d 84 38
       6.215969e-05 0.0 -8.8430113e-07 6.2997584e-05
000130 86 0b 28 36 fe bf b9 34 4a 38 c2 37 2a 02 ea b6
       2.5040658e-06 3.4598628e-07 2.3152814e-05 -6.9739954e-06
000140 19 1a db 33 00 00 00 00 ef 9d 94 b3 aa bd b8 37
       1.0202729e-07 0.0 -6.920515e-08 2.2022828e-05
000150 f0 93 cb 38 df 5a 1b 39 ff 20 a8 38 67 96 b7 b4
       9.70735e-05 0.00014815804 8.01701e-05 -3.4195838e-07
000160 27 64 d6 b5 47 1c d0 b6 8d a7 b9 38 e8 ef 09 39
       -1.5973391e-06 -6.202175e-06 8.852696e-05 0.0001315471
000170 0a e2 e3 b4 fa 52 d1 b0 00 00 00 00 00 00 00 00
       -4.244651e-07 -1.5230335e-09 0.0 0.0
000180 f5 c0 6c 38 00 00 00 00 c6 b2 de 38 f8 d4 79 38
       5.644649e-05 0.0 0.00010619084 5.956457e-05
000190 46 49 aa 38 2c dd 2c 39 59 1f 83 36 67 06 96 36
       8.11988e-05 0.00016485591 3.9077536e-06 4.4710937e-06
0001a0 ad 27 ac 38 3e b3 59 38 00 00 00 00 e3 02 3d 39
       8.208989e-05 5.1903764e-05 0.0 0.0001802552
0001b0 00 00 00 00 ee fe a9 35 cb d1 c3 b3 d7 39 4e 38
       0.0 1.2665676e-06 -9.118556e-08 4.9168095e-05
0001c0 00 00 00 00 36 fd 37 38 00 00 00 00 95 32 af 38
       0.0 4.386642e-05 0.0 8.354072e-05
0001d0 05 7c 51 38 e4 55 1c 38 b4 75 c0 38 b2 fd d1 38
       4.9944985e-05 3.727329e-05 9.177197e-05 0.00010013151
0001e0 00 00 00 00 ef dc 18 b5 db 56 02 38 00 00 00 00
       0.0 -5.6945913e-07 3.1075306e-05 0.0
0001f0 26 dd 60 36 e6 e6 fd 35 7c 1e 8e b0 00 00 00 00
       3.3507326e-06 1.8917169e-06 -1.0340524e-09 0.0
000200 00 00 00 00 93 e7 ed 32 9e 83 04 bb 1c 19 36 ba
       0.0 2.7695739e-08 -0.0020220052 -0.00069464906
000210 fd f7 4c b6 00 00 00 00 49 90 83 ba cc 72 e1 ba
       -3.0542717e-06 0.0 -0.0010037507 -0.001720035
000220 9c a5 a8 ba 00 00 00 00 af 8b 8b 37 65 af 82 ba
       -0.0012866738 0.0 1.6635136e-05 -0.0009970485
000230 a9 58 4c 35 98 8f de 36 31 3a 00 ba 01 fc fe 38
       7.612494e-07 6.632832e-06 -0.00048914837 0.00012158603
000240 e6 fb 40 34 00 00 00 00 7e 3f 35 36 c8 d6 2a ba
       1.7973034e-07 0.0 2.700806e-06 -0.000651699
000250 6a ea ee ba 4e 70 3e bb 5c cc b6 ba e0 b9 e0 b6
       -0.001822782 -0.0029058638 -0.0013946402 -6.697359e-06
000260 67 52 d2 37 6a 64 85 38 50 35 c6 ba 48 0a 25 bb
       2.5072322e-05 6.360638e-05 -0.001512209 -0.002518313
000270 ec 7b 1d b5 a5 d1 30 31 00 00 00 00 00 00 00 00
       -5.866739e-07 2.573054e-09 0.0 0.0
000280 8a 0c 71 ba 00 00 00 00 c2 a0 ea ba c2 08 a4 ba
       -0.0009195289 0.0 -0.0017900693 -0.0012514817
000290 63 37 c3 ba c7 42 53 bb 3f e5 f7 38 bf 1d 1b 38
       -0.0014893826 -0.0032235847 0.00011820578 3.6982583e-05
0002a0 3e 07 d0 ba f7 23 97 ba 00 00 00 00 8d 61 5a bb
       -0.0015871299 -0.0011531104 0.0 -0.0033322305
0002b0 00 00 00 00 21 a6 e7 36 98 0d e7 35 e9 fd 63 ba
       0.0 6.9036764e-06 1.7214797e-06 -0.00086971984
0002c0 00 00 00 00 88 dd 27 ba 00 00 00 00 a3 26 c2 ba
       0.0 -0.0006403555 0.0 -0.001481254
0002d0 5e de 83 ba 4d 5a 1e ba de 2e ec ba fd 5b f2 ba
       -0.0010060777 -0.00060406775 -0.0018019339 -0.0018490549
0002e0 00 00 00 00 1e 04 3b 37 e9 8d 01 ba 00 00 00 00
       0.0 1.1147027e-05 -0.0004942106 0.0
0002f0 b5 be 45 b7 cd 60 78 38 27 05 c0 ad 00 00 00 00
       -1.17865175e-05 5.921796e-05 -2.1830161e-11 0.0
000300 00 00 00 00 43 df 29 b3 24 38 d1 3a 05 f5 0f 3a
       0.0 -3.9551434e-08 0.0015962166 0.0005491528
000310 88 1c 13 36 00 00 00 00 55 fa 4e 3a 6e d6 b1 3a
       2.1921314e-06 0.0 0.0007895579 0.0013567933
000320 da a0 84 3a 00 00 00 00 72 a7 80 b7 c1 c4 4e 3a
       0.0010118738 0.0 -1.5336762e-05 0.0007887595
000330 ef 30 00 b5 13 53 b1 b6 ef 55 ca 39 ed 38 cc b8
       -4.7754924e-07 -5.284682e-06 0.00038592468 -9.738081e-05
000340 49 3e 66 b4 00 00 00 00 d9 25 39 b6 99 0c 06 3a
       -2.1443078e-07 0.0 -2.7589178e-06 0.00051135715
000350 e1 29 bc 3a cc 2d 16 3b d0 22 90 3a 0c a4 02 37
       0.0014355743 0.002291548 0.0010996703 7.786799e-06
000360 85 5c bb b7 9d 32 5f b8 ad b7 9c 3a 35 fd 01 3b
       -2.233522e-05 -5.321448e-05 0.0011956595 0.001983476
000370 15 80 15 36 97 57 ac ad 00 00 00 00 00 00 00 00
       2.2277284e-06 -1.9593034e-11 0.0 0.0
000380 2f a9 3e 3a 00 00 00 00 43 ea b8 3a 73 e2 80 3a
       0.0007273135 0.0 0.0014107901 0.0009833112
000390 b1 bd 99 3a 07 6b 26 3b b9 f3 bd b8 b1 37 fe b7
       0.0011729506 0.0025393383 -9.057619e-05 -3.0305093e-05
0003a0 41 2a a4 3a c9 42 6d 3a 00 00 00 00 9a 15 2c 3b
       0.00125248 0.0009050784 0.0 0.0026257993
0003b0 00 00 00 00 3d fe 99 b6 11 8a d9 b5 5f ca 33 3a
       0.0 -4.5893526e-06 -1.6207943e-06 0.0006858464
0003c0 00 00 00 00 3b 3b 05 3a 00 00 00 00 9f c5 98 3a
       0.0 0.00050823734 0.0 0.0011655575
0003d0 ac a4 4f 3a 3b 67 f9 39 f6 05 ba 3a e0 f2 be 3a
       0.00079209614 0.00047569894 0.001419245 0.0014568232
0003e0 00 00 00 00 b9 0e 21 b7 b3 7a cc 39 00 00 00 00
       0.0 -9.599776e-06 0.0003900133 0.0
0003f0 cc 61 1b 37 61 ec 3c b8 93 be 04 2e 00 00 00 00
       9.26149e-06 -4.5042838e-05 3.018259e-11 0.0

exp_avg_sq f4 [128, 64]
000000 00 00 00 00 ba 01 cf 2e 3d 17 a3 33 a0 ab ef 32
       0.0 9.413577e-11 7.594506e-08 2.7901308e-08
000010 a3 a5 22 30 00 00 00 00 4e 76 5c 33 96 80 ac 33
       5.917064e-10 0.0 5.133034e-08 8.032764e-08
000020 b5 e0 7c 33 00 00 00 00 62 be 00 31 87 17 c8 32
       5.8877692e-08 0.0 1.8734672e-09 2.3293763e-08
000030 8f 46 76 2f a8 4f f8 2d 44 53 1b 31 8f a3 9c 31
       2.2398637e-10 2.822971e-11 2.26028e-09 4.558792e-09
000040 8c 46 0f 31 00 00 00 00 8a 67 b3 31 a7 b4 d8 32
       2.084934e-09 0.0 5.2213567e-09 2.522786e-08
000050 50 b3 89 33 03 45 66 34 ad 0d 51 33 7f 58 c1 30
       6.4121764e-08 2.1445526e-07 4.8674043e-08 1.406775e-09
000060 b5 b2 0b 32 6c 05 b1 31 67 34 79 33 27 88 92 33
       8.131498e-09 5.1519944e-09 5.802249e-08 6.823421e-08
000070 a9 60 8b 2c 20 9d e1 2c 00 00 00 00 00 00 00 00
       3.961349e-12 6.412329e-12 0.0 0.0
000080 5d 7d ec 32 00 00 00 00 3d 5a b5 33 3d bb f0 32
       2.7531025e-08 0.0 8.4448835e-08 2.8024823e-08
000090 e1 0f 71 33 56 fe 30 34 18 1b 64 31 db 01 94 30
       5.6126627e-08 1.6483804e-07 3.3193768e-09 1.0768945e-09
0000a0 ee 29 3e 33 14 65 2e 33 00 00 00 00 81 81 5e 34
       4.4275957e-08 4.0604462e-08 0.0 2.0722474e-07
0000b0 00 00 00 00 d9 9b f4 2f a1 7b 4b 30 19 27 00 32
       0.0 4.4494078e-10 7.4026657e-10 7.45947e-09
0000c0 00 00 00 00 4e 37 24 32 00 00 00 00 2c c9 1f 33
       0.0 9.558631e-09 0.0 3.7203037e-08
0000d0 5c 7b ec 31 3e f2 57 31 c6 87 0e 33 7b 1e 85 33
       6.8825283e-09 3.1424316e-09 3.3185437e-08 6.1988395e-08
0000e0 00 00 00 00 85 4e af 31 0a de 84 32 00 00 00 00
       0.0 5.102097e-09 1.5467794e-08 0.0
0000f0 3a 17 f6 2f e6 f2 80 31 ce 14 2e 2c 00 00 00 00
       4.4763643e-10 3.7529047e-09 2.4738436e-12 0.0
000100 00 00 00 00 5f 5d db 2c ef 5d 85 33 84 29 4d 32
       0.0 6.2347206e-12 6.2103815e-08 1.194201e-08
000110 50 c8 5d 2e 00 00 00 00 9c 91 b9 32 1b 72 5a 33
       5.0427496e-11 0.0 2.160305e-08 5.086086e-08
000120 c0 08 00 33 00 00 00 00 09 94 5f 2e 79 64 8c 32
       2.981028e-08 0.0 5.083581e-11 1.6343835e-08
000130 cb ca 98 2e 59 ff 88 2c 5f 27 20 31 fb 73 44 2f
       6.948183e-11 3.8937018e-12 2.3305444e-09 1.7867301e-10
000140 94 f7 89 2f 00 00 00 00 31 b9 13 30 8a ff 11 32
       2.509607e-10 0.0 5.374146e-10 8.498214e-09
000150 17 20 4e 33 00 11 1b 34 92 9d 0a 33 40 b3 9a 2e
       4.7992298e-08 1.4441684e-07 3.2273938e-08 7.0349504e-11
000160 b7 57 51 30 43 09 6e 2f 1c 93 2d 33 e3 b9 a8 33
       7.615841e-10 2.1649264e-10 4.0413497e-08 7.856922e-08
000170 8f aa ad 2c 2b 0d ec 2b 00 00 00 00 00 00 00 00
       4.9358915e-12 1.6772463e-12 0.0 0.0
000180 dd 7e 8b 32 00 00 00 00 2a 54 64 33 b6 d0 94 32
       1.623942e-08 0.0 5.3161934e-08 1.7324378e-08
000190 75 dc 19 33 95 57 1c 34 35 fd 96 2f 4e ef b1 2e
       3.5823593e-08 1.4560494e-07 2.7464755e-10 8.091537e-11
0001a0 a2 23 25 33 e4 88 ac 32 00 00 00 00 f9 21 31 34
       3.8449464e-08 2.0085686e-08 0.0 1.6496769e-07
0001b0 00 00 00 00 93 a4 87 2e fc 47 d8 2d 83 cc 1e 32
       0.0 6.1683235e-11 2.4588324e-11 9.243311e-09
0001c0 00 00 00 00 7b b2 dc 31 00 00 00 00 13 31 ff 32
       0.0 6.4231336e-09 0.0 2.9708223e-08
0001d0 7c 9e 18 32 38 cb 66 31 99 6e 2a 33 cc 76 56 33
       8.8836e-09 3.3584922e-09 3.9681797e-08 4.9933803e-08
0001e0 00 00 00 00 a4 9e cf 2f 1c 73 d5 31 00 00 00 00
       0.0 3.7765802e-10 6.2122023e-09 0.0
0001f0 e1 e5 89 2e 54 35 ca 2f 4c f5 3d 29 00 00 00 00
       6.2708734e-11 3.6781478e-10 4.217919e-14 0.0
000200 00 00 00 00 fe d1 44 2f 32 41 8e 37 2b 76 50 36
       0.0 1.79007e-10 1.6958078e-05 3.1063198e-06
000210 0c ed 00 2f 00 00 00 00 be 1b be 36 7e 52 60 37
       1.1725748e-10 0.0 5.665671e-06 1.3370647e-05
000220 d3 d8 05 37 00 00 00 00 52 5e 8c 30 9c fa 93 36
       7.977901e-06 0.0 1.0213148e-09 4.410116e-06
000230 c7 60 84 30 a9 dd bf 2e 00 4d 24 35 fc b8 06 32
       9.63177e-10 8.725049e-11 6.120681e-07 7.841887e-09
000240 ed 4d a2 31 00 00 00 00 cd 8b f3 31 31 41 10 36
       4.7236797e-09 0.0 7.0881243e-09 2.1495619e-06
000250 e7 f5 4f 37 bb f5 23 38 3c 10 12 37 07 73 29 30
       1.2395415e-05 3.9091083e-05 8.706058e-06 6.1645306e-10
000260 33 02 38 32 f1 8a bc 31 79 86 36 37 10 69 b7 37
       1.071071e-08 5.487316e-09 1.0879355e-05 2.1864224e-05
000270 00 55 c3 2d 6f 76 73 2c 00 00 00 00 00 00 00 00
       2.2206681e-11 3.459812e-12 0.0 0.0
000280 56 d8 91 36 00 00 00 00 a4 94 6c 37 03 73 9d 36
       4.3465216e-06 0.0 1.4101304e-05 4.6923537e-06
000290 a0 88 1d 37 23 be 27 38 22 40 84 32 3f d2 73 31
       9.38974e-06 3.999298e-05 1.5395987e-08 3.5480665e-09
0002a0 49 c3 30 37 fe 8b b0 36 00 00 00 00 1b a5 3c 38
       1.0535886e-05 5.261506e-06 0.0 4.497646e-05
0002b0 00 00 00 00 b0 7c 45 31 e9 5b 00 30 66 9f 28 36
       0.0 2.873815e-09 4.669674e-10 2.5126733e-06
0002c0 00 00 00 00 cd 04 e6 35 00 00 00 00 f8 cf 08 37
       0.0 1.7137733e-06 0.0 8.154653e-06
0002d0 6e d8 28 36 9e c8 7e 35 50 43 39 37 2b d4 62 37
       2.515993e-06 9.491431e-07 1.1042532e-05 1.3520049e-05
0002e0 00 00 00 00 db 89 cf 31 6c 2b cc 35 00 00 00 00
       0.0 6.0401653e-09 1.5211822e-06 0.0
0002f0 5e a9 ef 2f d4 49 6a 33 60 a4 a8 29 00 00 00 00
       4.359419e-10 5.4549517e-08 7.489213e-14 0.0
000300 00 00 00 00 a1 44 5f 2f 9f 69 35 37 25 3a 05 36
       0.0 2.0306114e-10 1.08130325e-05 1.985239e-06
000310 61 4b a8 30 00 00 00 00 c7 6f 73 36 42 45 0f 37
       1.2245033e-09 0.0 3.6274885e-06 8.5395895e-06
000320 d8 33 ab 36 00 00 00 00 aa 22 3b 31 bf b3 3c 36
       5.1022325e-06 0.0 2.7231786e-09 2.811881e-06
000330 73 05 71 30 d6 a8 89 2e 0c 00 d3 34 d1 84 1b 32
       8.7683033e-10 6.26003e-11 3.9301847e-07 9.052386e-09
000340 72 5f e0 31 00 00 00 00 fb ba 31 32 64 52 b9 35
       6.530109e-09 0.0 1.034527e-08 1.3807553e-06
000350 84 20 05 37 10 59 d1 37 f5 6e ba 36 aa 24 2a 31
       7.934988e-06 2.4956214e-05 5.556149e-06 2.4759097e-09
000360 a7 76 85 32 dc 55 03 32 fe e3 e8 36 2f ea 69 37
       1.5537195e-08 7.644726e-09 6.9406806e-06 1.3942407e-05
000370 3b 47 3f 2e 92 0a 26 2d 00 00 00 00 00 00 00 00
       4.3491637e-11 9.438355e-12 0.0 0.0
000380 c9 17 3a 36 00 00 00 00 5b 15 17 37 ee a0 49 36
       2.7730005e-06 0.0 9.005274e-06 3.0045007e-06
000390 48 7d c9 36 df 11 d6 37 4c 97 32 32 ed 6b 31 31
       6.0048515e-06 2.551911e-05 1.0395365e-08 2.5818239e-09
0003a0 27 88 e1 36 07 52 62 36 00 00 00 00 f4 c1 f0 37
       6.7213728e-06 3.372437e-06 0.0 2.8700546e-05
0003b0 00 00 00 00 45 10 44 31 cc 3c 7b 30 d0 33 d7 35
       0.0 2.8531002e-09 9.1399666e-10 1.6033828e-06
0003c0 00 00 00 00 0d a7 92 35 00 00 00 00 4d 96 ae 36
       0.0 1.0926466e-06 0.0 5.2031014e-06
0003d0 bd 87 d7 35 e6 87 22 35 32 4f ec 36 10 cd 10 37
       1.6058253e-06 6.054746e-07 7.0425676e-06 8.630814e-06
0003e0 00 00 00 00 36 72 17 32 2f e4 82 35 00 00 00 00
       0.0 8.815325e-09 9.752165e-07 0.0
0003f0 c6 2a 66 30 96 15 1b 33 8d 1a 5e 2b 00 00 00 00
       8.37343e-10 3.6108382e-08 7.890709e-13 0.0

exp_avg f4 [128]
000000 ac 81 a5 39 49 01 2b 39 69 0c 4a bb 5f 32 1f 3b
       0.00031567866 0.0001630831 -0.003083015 0.0024291498
000010 e0 7a b1 38 8f 48 28 3a 04 00 00 00 5c c6 d3 3a
       8.462905e-05 0.00064195035 6e-45 0.0016157138
000020 0c 7b f6 35 01 cf 66 39 00 00 00 00 80 76 3c ba
       1.836424e-06 0.00022011624 0.0 -0.0007189289
000030 e4 b9 87 3a 04 00 00 00 dc cd 96 b9 00 00 00 00
       0.0010355082 6e-45 -0.00028763607 0.0
000040 84 77 b6 3a 00 00 00 00 fb bc 6e 35 ee fe 63 ba
       0.0013921116 0.0 8.893691e-07 -0.000869735
000050 e7 55 b7 ba c8 8b a2 ba 00 00 00 00 dc bd dd 3a
       -0.0013987393 -0.0012401277 0.0 0.0016917544
000060 24 20 f6 3a ee d1 94 39 99 af 9a 39 fc 7a 10 39
       0.0018777889 0.0002838517 0.00029504 0.00013778725
000070 74 a4 a7 3a dd ef 31 bb 28 18 78 38 07 b3 d1 39
       0.00127901 -0.0027151026 5.9150305e-05 0.00039996972
000080 91 61 89 3a 00 00 00 00 ac b6 a2 ba bd 14 a1 ba
       0.0010481348 0.0 -0.001241406 -0.0012289506
000090 7d 68 09 3a 71 58 ab 39 df 40 c7 b2 f7 ef 43 3a
       0.0005241705 0.00032681556 -2.3196149e-08 0.0007474417
0000a0 ca 31 83 b4 cd 70 8d b5 8c 38 a0 a9 b2 81 40 bb
       -2.4436878e-07 -1.0538148e-06 -7.115237e-14 -0.002937418
0000b0 56 5a 97 3a 24 26 bb b8 67 25 4d bb f6 54 fc 3a
       0.0011547308 -8.923959e-05 -0.003130281 0.0019251395
0000c0 a7 c0 70 3a ff 11 80 3a 41 c3 08 39 14 f4 1f b8
       0.0009183981 0.0009770988 0.00013042708 -3.813587e-05
0000d0 72 26 3f 38 ef ca cc 3a 80 ea 9f b7 fa b9 c1 3a
       4.5573754e-05 0.0015624444 -1.9063475e-05 0.0014780157
0000e0 8f 57 dd ba 04 00 00 00 00 00 00 00 a2 2e c6 3a
       -0.0016887056 6e-45 0.0 0.0015120099
0000f0 b1 7e 38 b5 8b 7f ee 35 4a b4 1b bb 00 00 00 00
       -6.87297e-07 1.7769502e-06 -0.0023758584 0.0
000100 00 00 00 00 83 98 02 bb 00 00 00 00 2e 5a af 3a
       0.0 -0.001992733 0.0 0.0013378316
000110 63 45 fd b8 04 00 00 00 d5 cd ac 3a 37 91 22 3a
       -0.000120769044 6e-45 0.0013183901 0.0006201448
000120 48 f2 9b 3a 04 00 00 00 88 01 1b 3b 00 00 00 00
       0.0011897767 6e-45 0.0023652036 0.0
000130 63 a4 1b 39 a9 63 f6 38 6d 2b e8 b9 00 00 00 00
       0.00014843191 0.00011748757 -0.00044282843 0.0
000140 b1 33 eb 36 f9 a4 6f 3a f5 14 6a 3a 5d b1 44 ba
       7.0095634e-06 0.00091417093 0.00089295144 -0.0007503236
000150 00 00 00 00 00 00 00 00 5e 2a a4 b8 b7 58 68 3a
       0.0 0.0 -7.828021e-05 0.0008863317
000160 00 00 00 00 d6 86 9f ba 00 00 00 00 c9 71 77 b9
       0.0 -0.0012170922 0.0 -0.00023598144
000170 04 00 00 00 1a 1f 35 3b 7d ed 11 3b 07 17 e8 39
       6e-45 0.0027636946 0.0022266798 0.00044267645
000180 00 00 00 00 a0 5e 9f bb 75 bf ae b9 ab 09 bb 39
       0.0 -0.004863575 -0.00033330513 0.00035674623
000190 43 92 97 b9 02 09 b1 3a 8d 95 03 3b 00 00 00 00
       -0.00028909938 0.0013506713 0.0020078153 0.0
0001a0 14 fe 60 3a 43 03 27 3a ee 5c 37 3a 27 79 02 3b
       0.00085827825 0.00063710305 0.00069947436 0.0019908638
0001b0 dd 71 04 bb fb b6 b4 b5 3d 80 62 ba 44 9b 8e ba
       -0.002020947 -1.3464299e-06 -0.0008640325 -0.0010880013
0001c0 00 00 00 00 50 0b ee 39 13 5b 34 b6 ff 0d fa 39
       0.0 0.00045403326 -2.6875102e-06 0.00047694144
0001d0 1c c4 9d 38 00 00 00 00 89 c1 9a 3a cc b5 f3 38
       7.5228716e-05 0.0 0.0011806946 0.00011621005
0001e0 46 25 bb 33 8a 66 5d bb 13 c5 cc b8 00 00 00 00
       8.714646e-08 -0.0033783042 -9.764186e-05 0.0
0001f0 db 89 c1 b6 9e 51 2a 3b 4e 19 31 bb 02 3e ec 39
       -5.7678967e-06 0.002598859 -0.002702314 0.00045059627

exp_avg_sq f4 [128]
000000 d0 79 8f 34 a3 8e 2f 34 c7 cc 35 38 32 68 e8 37
       2.6724456e-07 1.6350036e-07 4.3344477e-05 2.7705075e-05
000010 e4 47 75 34 99 ff 19 36 0a f4 c2 16 26 49 1f 37
       2.2843557e-07 2.2947554e-06 3.14964e-25 9.49417e-06
000020 00 92 67 35 09 23 41 35 00 00 00 00 60 a6 96 36
       8.6266664e-07 7.1949086e-07 0.0 4.489717e-06
000030 25 12 16 37 fc 2f dd 1e ef 97 53 35 00 00 00 00
       8.944921e-06 2.3419131e-20 7.882472e-07 0.0
000040 fa 1b d9 36 00 00 00 00 f6 b0 67 34 b4 fb 04 36
       6.470361e-06 0.0 2.157793e-07 1.9816043e-06
000050 bc 06 db 36 63 a9 0f 37 00 00 00 00 c1 69 7d 37
       6.5274926e-06 8.562903e-06 0.0 1.5104598e-05
000060 7a b3 8a 37 58 fb ac 34 46 7c b4 34 c8 6b b8 33
       1.6534457e-05 3.2220373e-07 3.3618034e-07 8.587773e-08
000070 c5 bd cf 35 53 fd bd 37 40 3f ab 34 42 2c 9b 35
       1.5477932e-06 2.2648519e-05 3.1897252e-07 1.1561281e-06
000080 f3 75 ac 36 00 00 00 00 5e ea 01 37 93 b3 87 36
       5.1397305e-06 0.0 7.743567e-06 4.0442187e-06
000090 86 90 5c 36 90 1c 98 34 41 50 b4 32 a6 79 2b 36
       3.2866678e-06 2.8332988e-07 2.0991253e-08 2.5551794e-06
0000a0 80 da a5 32 97 0d 05 34 77 64 f6 23 77 14 3a 38
       1.930789e-08 1.2391534e-07 2.6713922e-17 4.4364915e-05
0000b0 c6 38 a1 36 22 10 91 34 23 59 5c 38 e9 05 57 37
       4.804783e-06 2.7020093e-07 5.2535102e-05 1.2816375e-05
0000c0 c9 11 32 36 e8 ac 04 36 dd 16 8b 33 f8 0f 6e 34
       2.653442e-06 1.9770177e-06 6.476851e-08 2.2171287e-07
0000d0 5c 8d 39 34 a4 00 46 37 42 45 a7 33 62 f0 05 37
       1.7280894e-07 1.1801869e-05 7.7891414e-08 7.983386e-06
0000e0 e1 ad 8b 37 44 15 ad 1d 00 00 00 00 f5 e1 10 37
       1.665106e-05 4.5814707e-21 0.0 8.635679e-06
0000f0 c2 72 27 33 79 f1 48 32 76 ed cc 37 00 00 00 00
       3.898709e-08 1.1696437e-08 2.4429271e-05 0.0
000100 00 00 00 00 f4 99 79 37 00 00 00 00 92 4f 36 37
       0.0 1.4877402e-05 0.0 1.0866572e-05
000110 12 3c 37 35 00 8e 5b 22 e0 fd 09 37 30 e5 90 35
       6.8260226e-07 2.9755209e-18 8.224946e-06 1.0795538e-06
000120 e1 64 5e 37 5d 8e cb 1b 50 b1 b3 37 00 00 00 00
       1.3255719e-05 3.3675533e-22 2.142103e-05 0.0
000130 31 f1 02 35 84 aa 1c 34 e0 27 54 35 00 00 00 00
       4.8779754e-07 1.4590665e-07 7.903418e-07 0.0
000140 f4 30 86 33 96 42 43 36 3e fc f0 35 69 27 34 36
       6.248766e-08 2.9096022e-06 1.7954806e-06 2.684503e-06
000150 00 00 00 00 00 00 00 00 9c 1f 9c 34 cc f0 93 36
       0.0 0.0 2.9080263e-07 4.408974e-06
000160 00 00 00 00 c1 1c 0d 36 00 00 00 00 d4 51 23 35
       0.0 2.1027374e-06 0.0 6.084131e-07
000170 5a 36 00 25 6d 3f 09 37 c9 75 c7 37 58 a5 9c 35
       1.1120645e-16 8.180604e-06 2.3777497e-05 1.1671027e-06
000180 00 00 00 00 85 1b d9 38 dc f2 34 35 80 33 27 35
       0.0 0.00010352492 6.740863e-07 6.228729e-07
000190 86 ca 01 34 bc ea 28 37 65 7d 95 37 00 00 00 00
       1.2087739e-07 1.0068234e-05 1.7820576e-05 0.0
0001a0 3e 9e cf 36 16 9d a6 35 d6 91 28 36 b5 a3 82 37
       6.1875025e-06 1.2413682e-06 2.5118838e-06 1.557344e-05
0001b0 34 30 81 37 13 03 52 33 a3 e4 0e 36 2c b2 df 36
       1.5400445e-05 4.889723e-08 2.1292733e-06 6.66666e-06
0001c0 00 00 00 00 9b dd 5b 35 02 31 be 34 02 19 55 35
       0.0 8.1906336e-07 3.5425916e-07 7.9385075e-07
0001d0 12 70 ce 33 00 00 00 00 16 a8 02 37 8b a0 8f 34
       9.613008e-08 0.0 7.787739e-06 2.6752636e-07
0001e0 95 e3 a5 2d a7 e2 5a 38 cf 6a 7a 33 00 00 00 00
       1.8859395e-11 5.2186337e-05 5.8304803e-08 0.0
0001f0 22 b2 63 33 28 9d e0 37 77 b5 eb 37 f3 48 6d 35
       5.3014567e-08 2.6776062e-05 2.8098684e-05 8.8395535e-07

exp_avg f4 [64, 128]
000000 13 79 14 b6 2b c9 47 39 13 27 05 39 e0 50 26 39
       -2.2124193e-06 0.0001905306 0.00012698425 0.00015861122
000010 85 d8 82 37 e4 0c 02 39 04 00 00 00 48 5d 11 3a
       1.5598032e-05 0.00012402568 6e-45 0.0005545211
000020 bb 9b 80 33 53 66 1a 39 00 00 00 00 d9 38 31 b5
       5.988792e-08 0.00014724703 0.0 -6.602036e-07
000030 ba 8c 90 39 04 00 00 80 66 00 9c b4 00 00 00 00
       0.0002757067 -6e-45 -2.9057554e-07 0.0
000040 ec 76 e1 39 00 00 00 00 69 66 ee 32 f4 42 95 39
       0.00043003948 0.0 2.7753417e-08 0.0002846938
000050 7f 61 de 38 e6 90 82 39 00 00 00 00 e3 94 ca 38
       0.00010603945 0.0002490349 0.0 9.659843e-05
000060 fb af 1a 39 e9 5d 37 b6 06 41 2c 38 5d 1d 29 b4
       0.00014752142 -2.7323788e-06 4.1068553e-05 -1.5750034e-07
000070 d6 96 21 b7 74 dd 88 39 4d 15 93 35 f4 f7 88 b6
       -9.631467e-06 0.00026104937 1.0958553e-06 -4.0819814e-06
000080 6c d4 91 37 00 00 00 00 e0 bf 16 3a 43 6f 84 39
       1.7384264e-05 0.0 0.00057506375 0.00025259898
000090 4f de 02 37 49 0c 2f b4 00 ce 95 2f e3 c7 9a 39
       7.800364e-06 -1.6302614e-07 2.7249314e-10 0.00029522096
0000a0 66 12 0c 31 e1 f0 84 b3 04 00 00 00 1b 35 ec 38
       2.038314e-09 -6.1905446e-08 6e-45 0.000112632486
0000b0 1c 91 2f 3a 2e 29 62 b3 d8 e5 71 38 f0 39 26 b8
       0.0006697343 -5.2657178e-08 5.7672936e-05 -3.9631443e-05
0000c0 19 59 11 3a ce 3b f3 b6 c6 fa 2c 3a 97 c2 92 b4
       0.00055445876 -7.2489265e-06 0.00065986475 -2.7336202e-07
0000d0 ef a3 b4 32 ba b5 b8 39 b4 72 a0 b3 e3 76 c8 39
       2.1029306e-08 0.00035230612 -7.471445e-08 0.0003823555
0000e0 60 9c 47 b7 04 00 00 80 00 00 00 00 30 1b 42 39
       -1.1897733e-05 -6e-45 0.0 0.0001851141
0000f0 e1 00 75 32 24 ac f7 b1 7c 54 f4 38 00 00 00 00
       1.4261077e-08 -7.2082162e-09 0.00011650563 0.0
000100 00 00 00 00 c0 9b b6 39 00 00 00 00 b7 fc ab 39
       0.0 0.00034829788 0.0 0.0003280395
000110 1d 29 61 3a 04 00 00 80 db f6 57 38 2e dc ab b6
       0.0008589195 -6e-45 5.1489897e-05 -5.1218294e-06
000120 6c 3f 4b 39 04 00 00 00 f9 f0 48 39 00 00 00 00
       0.00019383215 6e-45 0.00019163256 0.0
000130 67 e1 ac 35 ca 20 c6 33 99 57 0a 39 00 00 00 00
       1.2880599e-06 9.226058e-08 0.00013193338 0.0
000140 35 5f 3d b3 27 1e 4d 3a 71 d0 b5 b6 f7 e1 ee 38
       -4.4091582e-08 0.00078246224 -5.418486e-06 0.000113908136
000150 00 00 00 00 00 00 00 00 48 bf 8f 39 7b 06 13 3a
       0.0 0.0 0.000274176 0.00056085706
000160 00 00 00 00 4e 34 30 39 00 00 00 00 b7 4f 87 38
       0.0 0.00016804153 0.0 6.45215e-05
000170 04 00 00 00 f2 58 00 b7 2d 4a dc 39 8d 9a 83 39
       6e-45 -7.650104e-06 0.00042016935 0.00025101416
000180 00 00 00 00 2c 3d e9 38 37 da 4e b7 8f bd 64 b5
       0.0 0.000111217 -1.2329364e-05 -8.5212463e-07
000190 6b 23 5c 39 e9 42 93 39 80 98 ec b7 00 00 00 00
       0.00020994029 0.00028087877 -2.8204406e-05 0.0
0001a0 61 bc b8 38 5b 62 2a 39 0b 45 5b 39 2e 09 5f 39
       8.808892e-05 0.00016249104 0.00020911188 0.00021270357
0001b0 61 77 42 39 bd ce 2a 31 32 52 e5 39 f6 59 aa 38
       0.00018545754 2.4855773e-09 0.00043739524 8.122988e-05
0001c0 00 00 00 00 f7 dc 30 39 7f 5c 8f 33 7f de 82 34
       0.0 0.00016866984 6.675781e-08 2.4376274e-07
0001d0 15 15 61 39 00 00 00 00 bd e9 64 39 fa 54 e1 35
       0.00021465526 0.0 0.00021830849 1.6788538e-06
0001e0 c3 10 18 b0 e7 8d cf 38 f7 86 4c b6 00 00 00 00
       -5.53211e-10 9.8969605e-05 -3.0476929e-06 0.0
0001f0 b7 8d 2f 35 41 44 39 b8 81 71 4f 39 a4 5e 44 b5
       6.53988e-07 -4.4171004e-05 0.00019783342 -7.315341e-07
000200 13 52 8a 37 68 b6 17 ba 70 bc c3 b9 2c 3a 00 ba
       1.64891e-05 -0.00057873735 -0.00037333695 -0.0004891481
000210 7e fb 12 b8 c6 b8 c9 b9 04 00 00 80 96 4c dc ba
       -3.5043333e-05 -0.00038475374 -6e-45 -0.0016807492
000220 a3 fb 03 32 b1 40 ec b9 00 00 00 00 c7 3f 3e 37
       7.682419e-09 -0.00045061627 0.0 1.1339732e-05
000230 7c bd 5b ba 04 00 00 00 79 b2 56 37 00 00 00 00
       -0.00083824224 6e-45 1.2796948e-05 0.0
000240 61 25 aa ba 00 00 00 00 b4 cb 45 34 8e b1 62 ba
       -0.001298111 0.0 1.8421161e-07 -0.00086476735
000250 20 fd a5 b9 06 78 43 ba 00 00 00 00 85 09 9d b9
       -0.00031659845 -0.00074565446 0.0 -0.00029952466
000260 0b 0a f0 b9 e8 97 3e 37 77 94 fc b8 c8 de b3 36
       -0.0004578385 1.1360251e-05 -0.0001204395 5.360551e-06
000270 f1 77 34 38 40 ae 4e ba 18 db b2 b6 eb bf 85 37
       4.302705e-05 -0.00078842416 -5.3303193e-06 1.5944204e-05
000280 dc 28 66 b8 00 00 00 00 88 33 e2 ba 37 58 43 ba
       -5.4874326e-05 0.0 -0.0017257789 -0.00074518047
000290 a9 92 93 b7 a4 22 83 36 d9 5d b9 ae 91 72 6a ba
       -1.759206e-05 3.908137e-06 -8.429497e-11 -0.00089434633
0002a0 73 b9 88 34 98 65 b7 34 15 51 43 27 6f 4c ae b9
       2.5466906e-07 3.4160325e-07 2.710564e-15 -0.00033244814
0002b0 54 4a 05 bb b8 1b 5d b6 1e a0 24 b9 95 20 03 39
       -0.0020338492 -3.29477e-06 -0.00015699907 0.00012505271
0002c0 e8 39 db ba 92 3d 08 38 6b ea 02 bb c1 f5 f9 33
       -0.0016725631 3.248227e-05 -0.001997615 1.16396684e-07
0002d0 28 86 c7 36 b7 63 8d ba f9 e5 7e 36 5b c8 97 ba
       5.94628e-06 -0.0010787164 3.798281e-06 -0.0011580096
0002e0 e8 e0 0c 38 00 00 00 00 00 00 00 00 cf 3a 12 ba
       3.358806e-05 0.0 0.0 -0.0005578221
0002f0 3b f0 7f 30 d2 28 b2 33 4e 17 b5 b9 00 00 00 00
       9.310985e-10 8.296196e-08 -0.00034540374 0.0
000300 00 00 00 00 37 47 87 ba 00 00 00 00 93 49 83 ba
       0.0 -0.0010320906 0.0 -0.0010016434
000310 09 95 29 bb 00 00 00 00 3d 43 2a b9 78 28 cf 37
       -0.0025876185 0.0 -0.00016237512 2.4695168e-05
000320 62 88 1d ba 04 00 00 80 85 fc 19 ba 00 00 00 00
       -0.00060093973 -6e-45 -0.0005874115 0.0
000330 f5 99 41 b6 5c a4 20 36 37 8e ca b9 00 00 00 00
       -2.8848856e-06 2.3937528e-06 -0.000386344 0.0
000340 09 90 c2 36 0e 4b 1b bb e3 ab eb 37 eb de ac b9
       5.7984184e-06 -0.002369586 2.8094224e-05 -0.00032972483
000350 00 00 00 00 00 00 00 00 d0 9c 5a ba ab e9 dd ba
       0.0 0.0 -0.0008339407 -0.00169306
000360 00 00 00 00 ae 6b 04 ba 00 00 00 00 11 c8 3f b9
       0.0 -0.0005051446 0.0 -0.0001828971
000370 04 00 00 00 73 e4 b7 37 64 fe a7 ba 0b 26 49 ba
       6e-45 2.192168e-05 -0.0012816903 -0.00076732103
000380 00 00 00 00 b2 b1 a7 b9 14 12 16 38 df cf 32 37
       0.0 -0.00031985115 3.5779623e-05 1.06580255e-05
000390 49 a2 25 ba 7d df 60 ba 1b 49 bd 38 00 00 00 00
       -0.0006318433 -0.0008578224 9.025839e-05 0.0
0003a0 83 10 8f b9 4c fc ff b9 fa 02 27 ba 1e 33 2b ba
       -0.00027287388 -0.00048825366 -0.0006370988 -0.00065307494
0003b0 75 c8 12 ba 0c d9 c4 32 94 bf ac ba 79 35 71 b9
       -0.00055993284 2.2916105e-08 -0.0013179653 -0.00023003471
0003c0 00 00 00 00 fe ef 06 ba 2f 2e 68 31 2a 40 fc 36
       0.0 -0.0005147456 3.3786696e-09 7.517655e-06
0003d0 37 5d 26 ba 00 00 00 00 f4 c9 2d ba 45 53 c8 b6
       -0.00063462876 0.0 -0.00066295196 -5.9701583e-06
0003e0 4d 95 73 2f ff 19 95 b9 b5 d9 a1 37 00 00 00 00
       2.2153764e-10 -0.00028438863 1.9294073e-05 0.0
0003f0 d4 fd 65 b6 31 d8 0e 39 35 53 18 ba 3d 56 54 35
       -3.4271407e-06 0.00013622713 -0.00058107387 7.910165e-07
