001-machine_learning/data/00001-MLP-temperature/007_checkpoint.pth (torch_old, 210148 bytes, 24 tensors)

exp_avg f4 [64, 4]
0.0 0.0 0.0 0.0 0.0 -0.00010000911 -2.8702698e-05 -5.3341446e-06
0.0 2.5759464e-05 4.314403e-05 4.6803845e-05 0.0 1.174714e-06 -8.1010535e-07 -1.2857497e-05
0.0 -1.6879534e-05 -1.4692044e-05 -1.2450875e-05 0.0 5.5746114e-07 7.949781e-08 2.0054895e-08
0.0 3.3681805e-05 4.7820868e-06 9.883153e-07 0.0 -5.390452e-06 -3.5562102e-06 -7.002057e-06
0.0 -1.9535013e-05 1.3418319e-05 -2.5079391e-05 0.0 -2.8934532e-05 -3.2097796e-05 -3.4999004e-05
0.0 0.00015194989 0.00010878583 0.00012264116 0.0 -1.755838e-05 -5.1905794e-05 -4.9332404e-05
0.0 1.7319984e-05 9.572224e-06 8.325185e-06 0.0 2.297142e-05 4.0953095e-05 5.2035037e-05
0.0 0.0 0.0 0.0 0.0 1.7736675e-05 1.0200972e-05 1.18284415e-05
0.0 3.3267704e-06 1.5730622e-05 1.20803525e-05 0.0 4.1682684e-05 4.772281e-06 6.4304066e-07
0.0 -6.1463543e-06 -6.649426e-05 -0.0001014956 0.0 -7.976811e-06 -7.962579e-06 -1.1238073e-05
0.0 -4.545747e-05 -6.123927e-05 -7.627023e-05 0.0 0.00012036687 0.00012626023 0.00011408887
0.0 4.2780812e-07 -5.2338163e-07 4.0790114e-06 0.0 -4.8926136e-06 -2.4707484e-07 1.00436196e-07
0.0 0.0 0.0 0.0 0.0 0.0 0.0 0.0
0.0 -3.0677875e-05 -7.662776e-06 -8.843709e-06 0.0 -1.4012238e-05 -2.452343e-06 -1.1069523e-05
0.0 1.7241005e-05 1.6949396e-05 1.2300682e-05 0.0 -2.141429e-06 -1.4416088e-06 -1.4158381e-07
0.0 2.3159413e-05 1.04391e-05 2.2084027e-05 0.0 -2.1765069e-05 -4.6600003e-06 -1.9844754e-05
0.0 -6.860724e-10 1.096611e-08 4.01727e-09 0.0 4.013415e-08 1.9415483e-08 -3.3391884e-10
0.0 -9.210093e-07 -2.7395885e-05 -5.0196562e-05 0.0 -9.4857416e-05 -5.8436093e-05 -9.600387e-05
0.0 0.0 0.0 0.0 0.0 2.3943383e-05 2.436439e-05 2.3837265e-05
0.0 4.0851606e-05 4.7150927e-05 5.9357077e-05 0.0 -3.3397268e-05 -4.6572427e-06 -3.5628218e-05
0.0 0.0 0.0 0.0 0.0 1.3308019e-05 -5.309755e-06 1.4269533e-05
0.0 1.9551142e-05 2.4352858e-05 1.3418455e-05 0.0 0.0 0.0 0.0
0.0 -3.2358683e-05 -4.2049633e-05 -5.717193e-05 0.0 -1.3874045e-05 -7.6081037e-06 -3.1815017e-07
0.0 -1.5318958e-05 -3.8241047e-05 -4.0707186e-05 0.0 0.0 0.0 0.0
0.0 6.407346e-05 7.8991725e-05 8.372951e-05 0.0 1.9286255e-05 2.1530725e-05 4.102505e-05
0.0 -1.0109316e-05 -3.182077e-05 -4.0757863e-05 0.0 0.0 0.0 0.0
0.0 0.0 0.0 0.0 0.0 -3.3588533e-06 -1.7940114e-05 -4.3915134e-06
0.0 4.260982e-06 -8.643029e-06 -9.129664e-06 0.0 -6.9609264e-06 -2.76953e-05 -3.3693294e-05
0.0 -1.9216332e-05 -7.293616e-06 -4.4224607e-06 0.0 5.0108792e-05 2.9411334e-05 3.329084e-05
0.0 -2.310842e-06 -3.9038523e-06 -1.2955991e-05 0.0 8.485121e-06 1.5735062e-05 1.6588665e-05
0.0 -6.106463e-06 4.8422257e-06 8.186578e-06 0.0 -1.66871e-05 -3.2165506e-05 -3.6349196e-05
0.0 0.0 0.0 0.0 0.0 2.6854108e-05 3.305152e-05 4.0718198e-05
00000000: 0000 0000 0000 0000 0000 0000 0000 0000
00000010: 0000 0000 fbbb d1b8 93c6 f0b7 f4fb b2b6
00000020: 0000 0000 0716 d837 8df5 3438 3f4f 4438
00000030: 0000 0000 deaa 9d35 0476 59b5 87b6 57b7
00000040: 0000 0000 8698 8db7 d97d 76b7 1ae4 50b7
00000050: 0000 0000 70a4 1535 62b8 aa33 2e45 ac32
00000060: 0000 0000 9045 0d38 d075 a036 41a6 8435
00000070: 0000 0000 a1df b4b6 3aa7 6eb6 36f3 eab6
00000080: 0000 0000 1fdf a3b7 3e1f 6137 9561 d2b7
00000090: 0000 0000 6fb8 f2b7 bfa0 06b8 e5cb 12b8
000000a0: 0000 0000 bd54 1f39 f323 e438 3c99 0039
000000b0: 0000 0000 554a 93b7 6cb5 59b8 44ea 4eb8
000000c0: 0000 0000 624a 9137 6498 2037 66ac 0b37
000000d0: 0000 0000 c0b2 c037 0dc5 2b38 3240 5a38
000000e0: 0000 0000 0000 0000 0000 0000 0000 0000
000000f0: 0000 0000 38c9 9437 d724 2b37 c572 4637
00000100: 0000 0000 7b41 5f36 41f5 8337 b8ac 4a37
00000110: 0000 0000 71d4 2e38 9521 a036 6b9d 2c35
00000120: 0000 0000 c83c ceb6 d672 8bb8 09da d4b8
00000130: 0000 0000 24d4 05b7 0497 05b7 288b 3cb7
00000140: 0000 0000 96a9 3eb8 956d 80b8 45f3 9fb8
00000150: 0000 0000 796d fc38 b964 0439 ff42 ef38
00000160: 0000 0000 80ad e534 837e 0cb5 71de 8836
00000170: 0000 0000 3b2b a4b6 b5a5 84b4 62af d733
00000180: 0000 0000 0000 0000 0000 0000 0000 0000
00000190: 0000 0000 0000 0000 0000 0000 0000 0000
000001a0: 0000 0000 1eac 00b8 5f8f 00b7 715f 14b7
000001b0: 0000 0000 1b16 6bb7 ef92 24b6 3db7 39b7
000001c0: 0000 0000 c7a0 9037 8d2e 8e37 075f 4e37
000001d0: 0000 0000 78b5 0fb6 4d7d c1b5 4306 18b4
000001e0: 0000 0000 7646 c237 9823 2f37 1641 b937
000001f0: 0000 0000 2194 b6b7 195d 9cb6 4978 a6b7
00000200: 0000 0000 0e96 3cb0 7665 3c32 4808 8a31
00000210: 0000 0000 f75f 2c33 19c7 a632 e692 b7af
00000220: 0000 0000 473b 77b5 37d0 e5b7 268a 52b8
00000230: 0000 0000 30ee c6b8 4719 75b8 af55 c9b8
00000240: 0000 0000 0000 0000 0000 0000 0000 0000
00000250: 0000 0000 06da c837 2162 cc37 23f6 c737
00000260: 0000 0000 1458 2b38 ecc3 4538 2df6 7838
00000270: 0000 0000 0b14 0cb8 6945 9cb6 826f 15b8
00000280: 0000 0000 0000 0000 0000 0000 0000 0000
00000290: 0000 0000 8245 5f37 732a b2b6 2d67 6f37
000002a0: 0000 0000 c201 a437 5d49 cc37 d31f 6137
000002b0: 0000 0000 0000 0000 0000 0000 0000 0000
000002c0: 0000 0000 dfb8 07b8 735e 30b8 e4cb 6fb8
000002d0: 0000 0000 92c4 68b7 1d49 ffb6 3ace aab4
000002e0: 0000 0000 3681 80b7 0365 20b8 02bd 2ab8
000002f0: 0000 0000 0000 0000 0000 0000 0000 0000
00000300: 0000 0000 2d5f 8638 5ca8 a538 f097 af38
00000310: 0000 0000 ebc8 a137 e19c b437 5012 2c38
00000320: 0000 0000 2e9b 29b7 4b77 05b8 6cf3 2ab8
00000330: 0000 0000 0000 0000 0000 0000 0000 0000
00000340: 0000 0000 0000 0000 0000 0000 0000 0000
00000350: 0000 0000 a968 61b6 1a7e 96b7 d05a 93b6
00000360: 0000 0000 8ff9 8e36 8701 11b7 9c2b 19b7
00000370: 0000 0000 e791 e9b6 3453 e8b7 e651 0db8
00000380: 0000 0000 c232 a1b7 afbb f4b6 a664 94b6
00000390: 0000 0000 e82b 5238 5cb8 f637 c4a1 0b38
000003a0: 0000 0000 f713 1bb6 d6fd 82b6 8f5d 59b7
000003b0: 0000 0000 515b 0e37 cafe 8337 e327 8b37
000003c0: 0000 0000 1ee6 ccb6 677a a236 1659 0937
000003d0: 0000 0000 46fb 8bb7 73e9 06b8 a775 18b8
000003e0: 0000 0000 0000 0000 0000 0000 0000 0000
000003f0: 0000 0000 c244 e137 cda0 0a38 d5c8 2a38

exp_avg_sq f4 [64, 4]
0.0 0.0 0.0 0.0 0.0 2.6394122e-08 9.71853e-08 2.8191074e-09
0.0 6.289078e-08 6.2278204e-08 8.693206e-08 0.0 5.4295015e-08 9.889215e-08 8.268192e-08
0.0 1.5786654e-08 7.2357075e-08 5.4991848e-08 0.0 1.1337906e-10 3.3753398e-13 6.1718333e-13
0.0 7.296388e-09 9.030105e-08 5.2999496e-08 0.0 2.5742884e-07 1.1410455e-06 1.009976e-06
0.0 1.4953987e-07 4.953636e-07 3.8151663e-07 0.0 1.6708475e-08 1.0117983e-08 2.1340897e-08
0.0 1.6562441e-07 1.8236918e-07 2.7253392e-07 0.0 7.509849e-08 6.210944e-08 7.938762e-08
0.0 1.0117402e-08 2.9098457e-08 2.1466462e-08 0.0 1.2737475e-07 1.5555565e-07 2.0234579e-07
0.0 0.0 0.0 0.0 0.0 3.6563665e-09 6.3267604e-09 1.8137857e-09
0.0 9.289407e-09 1.0183185e-08 1.0077874e-08 0.0 9.1371835e-09 6.407631e-10 2.1311905e-11
0.0 3.908769e-07 6.883734e-07 7.5357235e-07 0.0 3.3141383e-09 7.665255e-09 3.483666e-09
0.0 6.1004776e-08 1.9041364e-08 5.9275187e-08 0.0 2.6470732e-07 2.545034e-07 4.2455076e-07
0.0 4.453989e-09 1.2626817e-08 1.0251471e-08 0.0 3.7447645e-09 1.3982048e-08 4.961967e-10
0.0 0.0 0.0 0.0 0.0 0.0 0.0 0.0
0.0 2.0396476e-08 8.098542e-09 2.1185587e-08 0.0 1.0126743e-08 2.7245301e-08 2.0537318e-08
0.0 9.844352e-09 2.063109e-08 1.652102e-08 0.0 1.6949551e-09 1.30311655e-08 7.79955e-09
0.0 9.496371e-09 1.949225e-08 2.0393248e-08 0.0 1.0304113e-07 1.5809904e-07 1.8714931e-07
0.0 1.4454324e-09 3.0325094e-08 5.6789324e-09 0.0 4.6411484e-09 4.0068517e-08 1.8570349e-08
0.0 1.5924246e-07 3.29934e-07 3.1904952e-07 0.0 2.1548875e-07 5.510779e-07 5.574005e-07
0.0 0.0 0.0 0.0 0.0 1.7453399e-08 3.6943177e-08 2.2660682e-08
0.0 8.215663e-08 1.16021035e-07 1.4794672e-07 0.0 7.357407e-08 1.6443225e-07 1.68424e-07
0.0 0.0 0.0 0.0 0.0 6.094339e-08 1.1871901e-07 1.16275935e-07
0.0 3.6007787e-08 9.781056e-08 7.7268865e-08 0.0 0.0 0.0 0.0
0.0 1.3986839e-07 2.62476e-07 2.733783e-07 0.0 2.708591e-08 1.2976497e-07 8.650971e-08
0.0 7.040226e-08 4.485113e-08 8.3474404e-08 0.0 0.0 0.0 0.0
0.0 7.047271e-08 8.255801e-08 1.02472455e-07 0.0 1.4499054e-07 2.6649676e-07 2.833501e-07
0.0 1.2977992e-07 2.0626378e-07 2.147896e-07 0.0 0.0 0.0 0.0
0.0 0.0 0.0 0.0 0.0 3.2019273e-08 8.875111e-08 7.2491325e-08
0.0 3.8308066e-08 4.6313122e-08 5.5564048e-08 0.0 8.467252e-08 9.6314444e-08 1.214244e-07
0.0 8.473312e-09 2.1730913e-09 2.6920373e-09 0.0 8.610454e-09 1.3003097e-09 7.4151596e-10
0.0 4.3948138e-08 8.676396e-08 7.561445e-08 0.0 7.715575e-09 1.2288788e-08 1.0317073e-08
0.0 6.889647e-09 2.1071362e-09 3.5669216e-09 0.0 3.0765293e-08 3.1728305e-08 4.160283e-08
0.0 0.0 0.0 0.0 0.0 1.4042146e-08 1.5654374e-08 2.1016126e-08
00000000: 0000 0000 0000 0000 0000 0000 0000 0000
00000010: 0000 0000 4ab9 e232 2fb4 d033 43ba 4131
00000020: 0000 0000 920e 8733 cebd 8533 68af ba33
00000030: 0000 0000 0032 6933 895e d433 de8e b133
00000040: 0000 0000 389b 8732 b962 9b33 2d30 6c33
00000050: 0000 0000 bd52 f92e c603 be2a bfb8 2d2b
00000060: 0000 0000 b5b3 fa31 87eb c133 90a1 6333
00000070: 0000 0000 c034 8a34 0626 9935 838e 8735
00000080: 0000 0000 3591 2034 21f9 0435 3fd3 cc34
00000090: 0000 0000 5386 8f32 5cd3 2d32 2151 b732
000000a0: 0000 0000 7ed6 3134 42d1 4334 c750 9234
000000b0: 0000 0000 d545 a133 0761 8533 ce7b aa33
000000c0: 0000 0000 ced0 2d32 2ff4 f932 4065 b832
000000d0: 0000 0000 81c4 0834 d006 2734 6344 5934
000000e0: 0000 0000 0000 0000 0000 0000 0000 0000
000000f0: 0000 0000 7b43 7b31 c662 d931 e948 f930
00000100: 0000 0000 3e97 1f32 1ff2 2e32 f522 2d32
00000110: 0000 0000 c2f9 1c32 b221 3030 2576 bb2d
00000120: 0000 0000 b6d9 d134 a9c8 3835 1949 4a35
00000130: 0000 0000 f0be 6331 26b0 0332 4d65 6f31
00000140: 0000 0000 bb01 8333 6790 a332 c295 7e33
00000150: 0000 0000 191d 8e34 aea2 8834 d0ed e334
00000160: 0000 0000 b409 9931 54ed 5832 721e 3032
00000170: 0000 0000 4cab 8031 b335 7032 bd64 0830
00000180: 0000 0000 0000 0000 0000 0000 0000 0000
00000190: 0000 0000 0000 0000 0000 0000 0000 0000
000001a0: 0000 0000 5334 af32 c421 0b32 99fb b532
000001b0: 0000 0000 e3f9 2d32 0d09 ea32 0a6a b032
000001c0: 0000 0000 eb1f 2932 3f38 b132 1bea 8d32
000001d0: 0000 0000 eef3 e830 acdf 5f32 c9fe 0532
000001e0: 0000 0000 7b25 2332 e96f a732 3a2d af32
000001f0: 0000 0000 7647 dd33 efc1 2934 36f3 4834
00000200: 0000 0000 a2a8 c630 cb3e 0233 6b20 c331
00000210: 0000 0000 f977 9f31 cd17 2c33 a184 9f32
00000220: 0000 0000 3cfc 2a34 c921 b134 d549 ab34
00000230: 0000 0000 1961 6734 c9ed 1335 45a0 1535
00000240: 0000 0000 0000 0000 0000 0000 0000 0000
00000250: 0000 0000 6eec 9532 74ab 1e33 5ea7 c232
00000260: 0000 0000 166e b033 3d27 f933 49db 1e34
00000270: 0000 0000 c6ff 9d33 cb8e 3034 09d8 3434
00000280: 0000 0000 0000 0000 0000 0000 0000 0000
00000290: 0000 0000 fcdf 8233 77f2 fe33 5fb3 f933
000002a0: 0000 0000 fba6 1a33 ed0b d233 02ef a533
000002b0: 0000 0000 0000 0000 0000 0000 0000 0000
000002c0: 0000 0000 bb2e 1634 6dea 8c34 d4c4 9234
000002d0: 0000 0000 8caa e832 8655 0b34 37c7 b933
000002e0: 0000 0000 0d30 9733 57a2 4033 8a42 b333
000002f0: 0000 0000 0000 0000 0000 0000 0000 0000
00000300: 0000 0000 c856 9733 bf4a b133 d40e dc33
00000310: 0000 0000 b2ae 1b34 0913 8f34 571f 9834
00000320: 0000 0000 a259 0b34 5b79 5d34 eaa0 6634
00000330: 0000 0000 0000 0000 0000 0000 0000 0000
00000340: 0000 0000 0000 0000 0000 0000 0000 0000
00000350: 0000 0000 9085 0933 7097 be33 87ac 9b33
00000360: 0000 0000 2a88 2433 d1e9 4633 51a5 6e33
00000370: 0000 0000 36d5 b533 6dd5 ce33 e360 0234
00000380: 0000 0000 0592 1132 6d55 1531 d2fe 3831
00000390: 0000 0000 2ded 1332 95b6 b230 8cd3 4b30
000003a0: 0000 0000 7dc1 3c33 fe52 ba33 7c61 a233
000003b0: 0000 0000 758d 0432 a91e 5332 f83e 3132
000003c0: 0000 0000 fab9 ec31 22cd 1031 f31d 7531
000003d0: 0000 0000 cc22 0433 a445 0833 ccae 3233
000003e0: 0000 0000 0000 0000 0000 0000 0000 0000
000003f0: 0000 0000 033e 7132 5578 8632 f386 b432

exp_avg f4 [64]
0.0 -9.796235e-05 2.4617828e-05 9.2019906e-07 -1.7623197e-05 5.8373143e-07 3.366877e-05 -7.2191415e-06
-2.2968654e-05 -2.8895496e-05 0.0001475888 -1.6239996e-05 1.6096581e-05 2.1659911e-05 0.0 1.8111325e-05
2.737508e-06 4.1330764e-05 -5.087899e-06 -8.485357e-06 -4.3191998e-05 0.00011386026 6.5487313e-07 -5.5263345e-06
0.0 0.0 -3.1351155e-05 -1.4751703e-05 1.6830545e-05 -2.560522e-06 2.3169134e-05 -2.0196532e-05
1.15902825e-08 9.561311e-08 -1.8062445e-06 -9.111797e-05 0.0 2.3612956e-05 3.976958e-05 -3.390208e-05
0.0 1.3591336e-05 1.8549894e-05 0.0 -3.3545308e-05 -1.4097133e-05 -1.4266457e-05 0.0
6.3146195e-05 1.8551262e-05 -1.0011038e-05 0.0 0.0 -3.217669e-06 4.7316585e-06 -5.8207675e-06
-1.8412853e-05 5.1484734e-05 -2.1601745e-06 8.378936e-06 -4.6178393e-06 -1.5930485e-05 0.0 2.5974583e-05
00000000: 0000 0000 2371 cdb8 6282 ce37 9903 7735
00000010: 87d5 93b7 b8b1 1c35 9137 0d38 f43b f2b6
00000020: cfac c0b7 9b64 f2b7 11c2 1a39 203b 88b7
00000030: 2507 8737 4eb2 b537 0000 0000 c6ed 9737
00000040: 08b6 3736 925a 2d38 b8b8 aab6 555c 0eb7
00000050: 0e29 35b8 43c8 ee38 8aca 2f35 da6e b9b6
00000060: 0000 0000 0000 0000 0c7f 03b8 157e 77b7
00000070: 522f 8d37 6fd5 2bb6 565b c237 b96b a9b7
00000080: 9a1e 4732 dd53 cd33 176e f2b5 9616 bfb8
00000090: 0000 0000 7014 c637 43ce 2638 1532 0eb8
000000a0: 0000 0000 5806 6437 989b 9b37 0000 0000
000000b0: 00b3 0cb8 ba82 6cb7 f759 6fb7 0000 0000
000000c0: 5b6d 8438 889e 9b37 15f5 27b7 0000 0000
000000d0: 0000 0000 22ef 57b6 a3c4 9e36 0350 c3b6
000000e0: 4d75 9ab7 50f1 5738 84f7 10b6 4293 0c37
000000f0: f0f2 9ab6 75a2 85b7 0000 0000 fee3 d937

exp_avg_sq f4 [64]
0.0 4.5335287e-07 2.0544398e-07 3.2049664e-07 1.6899646e-07 1.2094425e-10 2.284532e-07 2.5391428e-06
9.253637e-07 3.282448e-08 4.6549667e-07 2.374246e-07 4.7708564e-08 4.809839e-07 0.0 3.4387885e-08
3.959416e-08 2.150616e-08 1.7931972e-06 3.0749383e-08 7.6104115e-08 5.9202176e-07 2.5439562e-08 1.0680944e-07
0.0 0.0 3.6453258e-08 5.0668806e-08 3.9809176e-08 2.423916e-08 4.268736e-08 4.776627e-07
1.5095739e-07 1.4600474e-07 7.7627374e-07 1.3425342e-06 0.0 1.4391047e-07 3.3656485e-07 3.7360564e-07
0.0 3.2160997e-07 1.8946614e-07 0.0 7.004809e-07 3.9659312e-07 1.840049e-07 0.0
2.3959691e-07 7.20406e-07 6.043439e-07 0.0 0.0 1.9818674e-07 1.4668758e-07 3.1526795e-07
2.2005997e-08 1.3709443e-08 2.5621483e-07 4.1397687e-08 1.10185105e-08 1.0932542e-07 0.0 4.9135082e-08
00000000: 0000 0000 5864 f334 0398 5c34 b910 ac34
00000010: 6575 3534 c8fa 042f bd4c 7534 2466 2a36
00000020: 8266 7835 e6fa 0c33 60e9 f934 c7ee 7e34
00000030: 1fe8 4c33 f61c 0135 0000 0000 e1b1 1333
00000040: 3d0e 2a33 8cbc b832 c9ad f035 4e11 0433
00000050: ae6e a333 6deb 1e35 3086 da32 1c5f e533
00000060: 0000 0000 0000 0000 c890 1c33 f19e 5933
00000070: a7fa 2a33 7a36 d032 4057 3733 bb38 0035
00000080: da16 2234 7ac5 1c34 2061 5035 2031 b435
00000090: 0000 0000 cf85 1a34 1fb1 b434 f893 c834
000000a0: 0000 0000 bda9 ac34 0e70 4b34 0000 0000
000000b0: ae08 3c35 58eb d434 e292 4534 0000 0000
000000c0: f3a1 8034 ec61 4135 323a 2235 0000 0000
000000d0: 0000 0000 28cd 5434 2d81 1d34 1942 a934
000000e0: b307 bd32 c586 6b32 e68d 8934 3dcd 3133
000000f0: ec4b 3d32 49c6 ea33 0000 0000 9808 5333

exp_avg f4 [128, 64]
0.0 0.0 0.0 0.0 0.0 0.0 0.0 0.0
0.0 0.0 0.0 0.0 0.0 0.0 0.0 0.0
0.0 0.0 0.0 0.0 0.0 0.0 0.0 0.0
0.0 0.0 0.0 0.0 0.0 0.0 0.0 0.0
0.0 0.0 0.0 0.0 0.0 0.0 0.0 0.0
0.0 0.0 0.0 0.0 0.0 0.0 0.0 0.0
0.0 0.0 0.0 0.0 0.0 0.0 0.0 0.0
0.0 0.0 0.0 0.0 0.0 0.0 0.0 0.0
0.0 -4.2741004e-07 -1.6232267e-06 -7.021168e-06 2.056748e-06 6.785423e-08 -1.2512855e-06 -8.218703e-09
-2.4261633e-06 8.180655e-07 -4.8656284e-06 1.9261604e-06 -9.196551e-06 3.9168267e-06 0.0 2.569953e-06
-3.887873e-06 -2.7614824e-06 -7.060088e-06 -2.174108e-06 1.6190825e-07 -3.522445e-06 4.288601e-06 1.2434133e-07
0.0 0.0 1.6092832e-07 -4.839161e-06 -1.5802794e-06 -1.5770834e-06 3.5213616e-06 -9.8654105e-08
-5.6182486e-10 -8.098635e-09 -2.0282132e-06 -4.1335733e-07 0.0 -1.8103584e-06 -1.04074296e-07 -1.1709936e-05
0.0 6.8599584e-06 -6.6464236e-06 0.0 -6.0138505e-06 2.4670355e-06 4.459321e-06 0.0
3.4921745e-06 4.866556e-06 -2.0129125e-06 0.0 0.0 7.824717e-06 -4.419243e-06 -6.050972e-07
5.1465786e-06 -1.7340628e-06 -4.341894e-06 2.0911523e-06 4.1651497e-06 -1.031314e-08 0.0 -3.7051936e-06
0.0 0.0 0.0 0.0 0.0 0.0 0.0 0.0
0.0 0.0 0.0 0.0 0.0 0.0 0.0 0.0
0.0 0.0 0.0 0.0 0.0 0.0 0.0 0.0
0.0 0.0 0.0 0.0 0.0 0.0 0.0 0.0
0.0 0.0 0.0 0.0 0.0 0.0 0.0 0.0
0.0 0.0 0.0 0.0 0.0 0.0 0.0 0.0
0.0 0.0 0.0 0.0 0.0 0.0 0.0 0.0
0.0 0.0 0.0 0.0 0.0 0.0 0.0 0.0
0.0 0.0 0.0 0.0 0.0 0.0 0.0 0.0
0.0 0.0 0.0 0.0 0.0 0.0 0.0 0.0
0.0 0.0 0.0 0.0 0.0 0.0 0.0 0.0
0.0 0.0 0.0 0.0 0.0 0.0 0.0 0.0
0.0 0.0 0.0 0.0 0.0 0.0 0.0 0.0
0.0 0.0 0.0 0.0 0.0 0.0 0.0 0.0
0.0 0.0 0.0 0.0 0.0 0.0 0.0 0.0
0.0 0.0 0.0 0.0 0.0 0.0 0.0 0.0
00000000: 0000 0000 0000 0000 0000 0000 0000 0000
00000010: 0000 0000 0000 0000 0000 0000 0000 0000
00000020: 0000 0000 0000 0000 0000 0000 0000 0000
00000030: 0000 0000 0000 0000 0000 0000 0000 0000
00000040: 0000 0000 0000 0000 0000 0000 0000 0000
00000050: 0000 0000 0000 0000 0000 0000 0000 0000
00000060: 0000 0000 0000 0000 0000 0000 0000 0000
00000070: 0000 0000 0000 0000 0000 0000 0000 0000
00000080: 0000 0000 0000 0000 0000 0000 0000 0000
00000090: 0000 0000 0000 0000 0000 0000 0000 0000
000000a0: 0000 0000 0000 0000 0000 0000 0000 0000
000000b0: 0000 0000 0000 0000 0000 0000 0000 0000
000000c0: 0000 0000 0000 0000 0000 0000 0000 0000
000000d0: 0000 0000 0000 0000 0000 0000 0000 0000
000000e0: 0000 0000 0000 0000 0000 0000 0000 0000
000000f0: 0000 0000 0000 0000 0000 0000 0000 0000
00000100: 0000 0000 ca76 e5b4 a5dd d9b5 6097 ebb6
00000110: a906 0a36 42b7 9133 d8f1 a7b5 3d32 0db2
00000120: 2bd1 22b6 0899 5b35 6e43 a3b6 2f43 0136
00000130: e34a 1ab7 496d 8336 0000 0000 7577 2c36
00000140: 9374 82b6 e851 39b6 b2e5 ecb6 e4e6 11b6
00000150: 00d9 2d34 2563 6cb6 cde6 8f36 af82 0534
00000160: 0000 0000 0000 0000 a4cb 2c34 1460 a2b6
00000170: fd19 d4b5 2cac d3b5 8850 6c36 abdb d3b3
00000180: e96e 1ab0 2c22 0bb2 701c 08b6 66eb ddb4
00000190: 0000 0000 71fb f2b5 737f dfb3 cb75 44b7
000001a0: 0000 0000 982e e636 5804 dfb6 0000 0000
000001b0: 95ca c9b6 598f 2536 47a1 9536 0000 0000
000001c0: 1a5b 6a36 664b a336 9315 07b6 0000 0000
000001d0: 0000 0000 e746 0337 0249 94b6 f76d 22b5
000001e0: c6b0 ac36 f2bd e8b5 96b0 91b6 b955 0c36
000001f0: 5dc2 8b36 ab2d 31b2 0000 0000 bea6 78b6
00000200: 0000 0000 0000 0000 0000 0000 0000 0000
00000210: 0000 0000 0000 0000 0000 0000 0000 0000
00000220: 0000 0000 0000 0000 0000 0000 0000 0000
00000230: 0000 0000 0000 0000 0000 0000 0000 0000
00000240: 0000 0000 0000 0000 0000 0000 0000 0000
00000250: 0000 0000 0000 0000 0000 0000 0000 0000
00000260: 0000 0000 0000 0000 0000 0000 0000 0000
00000270: 0000 0000 0000 0000 0000 0000 0000 0000
00000280: 0000 0000 0000 0000 0000 0000 0000 0000
00000290: 0000 0000 0000 0000 0000 0000 0000 0000
000002a0: 0000 0000 0000 0000 0000 0000 0000 0000
000002b0: 0000 0000 0000 0000 0000 0000 0000 0000
000002c0: 0000 0000 0000 0000 0000 0000 0000 0000
000002d0: 0000 0000 0000 0000 0000 0000 0000 0000
000002e0: 0000 0000 0000 0000 0000 0000 0000 0000
000002f0: 0000 0000 0000 0000 0000 0000 0000 0000
00000300: 0000 0000 0000 0000 0000 0000 0000 0000
00000310: 0000 0000 0000 0000 0000 0000 0000 0000
00000320: 0000 0000 0000 0000 0000 0000 0000 0000
00000330: 0000 0000 0000 0000 0000 0000 0000 0000
00000340: 0000 0000 0000 0000 0000 0000 0000 0000
00000350: 0000 0000 0000 0000 0000 0000 0000 0000
00000360: 0000 0000 0000 0000 0000 0000 0000 0000
00000370: 0000 0000 0000 0000 0000 0000 0000 0000
00000380: 0000 0000 0000 0000 0000 0000 0000 0000
00000390: 0000 0000 0000 0000 0000 0000 0000 0000
000003a0: 0000 0000 0000 0000 0000 0000 0000 0000
000003b0: 0000 0000 0000 0000 0000 0000 0000 0000
000003c0: 0000 0000 0000 0000 0000 0000 0000 0000
000003d0: 0000 0000 0000 0000 0000 0000 0000 0000
000003e0: 0000 0000 0000 0000 0000 0000 0000 0000
000003f0: 0000 0000 0000 0000 0000 0000 0000 0000

exp_avg_sq f4 [128, 64]
0.0 0.0 0.0 0.0 0.0 0.0 0.0 0.0
0.0 0.0 0.0 0.0 0.0 0.0 0.0 0.0
0.0 0.0 0.0 0.0 0.0 0.0 0.0 0.0
0.0 0.0 0.0 0.0 0.0 0.0 0.0 0.0
0.0 0.0 0.0 0.0 0.0 0.0 0.0 0.0
0.0 0.0 0.0 0.0 0.0 0.0 0.0 0.0
0.0 0.0 0.0 0.0 0.0 0.0 0.0 0.0
0.0 0.0 0.0 0.0 0.0 0.0 0.0 0.0
0.0 7.3134745e-12 7.0789987e-09 3.0761772e-08 1.939376e-09 1.4268221e-13 3.7108634e-09 1.4496379e-10
3.848412e-10 7.347571e-10 4.4506548e-10 2.3909141e-08 1.3464246e-09 2.5982192e-08 0.0 4.358372e-08
1.7631965e-08 4.263302e-11 1.9934168e-09 5.5040608e-09 5.4183602e-11 1.4559182e-10 3.1264673e-08 1.1118193e-09
0.0 0.0 2.7313166e-10 5.1738485e-09 8.7629837e-10 7.289063e-09 1.3949325e-08 1.9228628e-09
2.248902e-10 2.634701e-09 5.669776e-10 1.5751301e-09 0.0 1.0567216e-08 9.150717e-09 4.238109e-09
0.0 3.1542988e-09 1.1490888e-08 0.0 8.924393e-09 1.2789636e-09 1.7651339e-09 0.0
2.0026121e-08 1.5649785e-08 6.684667e-09 0.0 0.0 1.0332025e-08 5.4570632e-09 1.2647845e-08
5.0167176e-10 3.5269673e-11 4.8844644e-08 8.2617255e-09 2.5328992e-10 5.63609e-08 0.0 4.2565475e-08
0.0 0.0 0.0 0.0 0.0 0.0 0.0 0.0
0.0 0.0 0.0 0.0 0.0 0.0 0.0 0.0
0.0 0.0 0.0 0.0 0.0 0.0 0.0 0.0
0.0 0.0 0.0 0.0 0.0 0.0 0.0 0.0
0.0 0.0 0.0 0.0 0.0 0.0 0.0 0.0
0.0 0.0 0.0 0.0 0.0 0.0 0.0 0.0
0.0 0.0 0.0 0.0 0.0 0.0 0.0 0.0
0.0 0.0 0.0 0.0 0.0 0.0 0.0 0.0
0.0 0.0 0.0 0.0 0.0 0.0 0.0 0.0
0.0 0.0 0.0 0.0 0.0 0.0 0.0 0.0
0.0 0.0 0.0 0.0 0.0 0.0 0.0 0.0
0.0 0.0 0.0 0.0 0.0 0.0 0.0 0.0
0.0 0.0 0.0 0.0 0.0 0.0 0.0 0.0
0.0 0.0 0.0 0.0 0.0 0.0 0.0 0.0
0.0 0.0 0.0 0.0 0.0 0.0 0.0 0.0
0.0 0.0 0.0 0.0 0.0 0.0 0.0 0.0
00000000: 0000 0000 0000 0000 0000 0000 0000 0000
00000010: 0000 0000 0000 0000 0000 0000 0000 0000
00000020: 0000 0000 0000 0000 0000 0000 0000 0000
00000030: 0000 0000 0000 0000 0000 0000 0000 0000
00000040: 0000 0000 0000 0000 0000 0000 0000 0000
00000050: 0000 0000 0000 0000 0000 0000 0000 0000
00000060: 0000 0000 0000 0000 0000 0000 0000 0000
00000070: 0000 0000 0000 0000 0000 0000 0000 0000
00000080: 0000 0000 0000 0000 0000 0000 0000 0000
00000090: 0000 0000 0000 0000 0000 0000 0000 0000
000000a0: 0000 0000 0000 0000 0000 0000 0000 0000
000000b0: 0000 0000 0000 0000 0000 0000 0000 0000
000000c0: 0000 0000 0000 0000 0000 0000 0000 0000
000000d0: 0000 0000 0000 0000 0000 0000 0000 0000
000000e0: 0000 0000 0000 0000 0000 0000 0000 0000
000000f0: 0000 0000 0000 0000 0000 0000 0000 0000
00000100: 0000 0000 f6a8 002d 883b f331 ed1e 0433
00000110: dd45 0531 59a5 202a 3302 7f31 ae63 1f2f
00000120: 9591 d32f eff7 4930 66ad f42f c260 cd32
00000130: 1b0d b930 722f df32 0000 0000 cf30 3b33
00000140: 1a75 9732 8380 3b2e 8ffc 0831 3b1e bd31
00000150: 504d 6e2e 7414 202f df47 0633 aace 9830
00000160: 0000 0000 0000 0000 dd27 962f a7c5 b131
00000170: 04e0 7030 4773 fa31 c8a5 6f32 5c23 0431
00000180: f744 772f 260e 3531 80d9 1b30 f77b d830
00000190: 0000 0000 1c8b 3532 4735 1d32 cd9e 9131
000001a0: 0000 0000 03c3 5831 7669 4532 0000 0000
000001b0: e551 1932 88c7 af30 2199 f230 0000 0000
000001c0: e805 ac32 3e6e 8632 f4ae e531 0000 0000
000001d0: 0000 0000 ba80 3132 d680 bb31 d049 5932
000001e0: 03e6 0930 1f1e 1b2e 41c9 5133 74ef 0d32
000001f0: 633f 8b2f 7711 7233 0000 0000 3cd1 3633
00000200: 0000 0000 0000 0000 0000 0000 0000 0000
00000210: 0000 0000 0000 0000 0000 0000 0000 0000
00000220: 0000 0000 0000 0000 0000 0000 0000 0000
00000230: 0000 0000 0000 0000 0000 0000 0000 0000
00000240: 0000 0000 0000 0000 0000 0000 0000 0000
00000250: 0000 0000 0000 0000 0000 0000 0000 0000
00000260: 0000 0000 0000 0000 0000 0000 0000 0000
00000270: 0000 0000 0000 0000 0000 0000 0000 0000
00000280: 0000 0000 0000 0000 0000 0000 0000 0000
00000290: 0000 0000 0000 0000 0000 0000 0000 0000
000002a0: 0000 0000 0000 0000 0000 0000 0000 0000
000002b0: 0000 0000 0000 0000 0000 0000 0000 0000
000002c0: 0000 0000 0000 0000 0000 0000 0000 0000
000002d0: 0000 0000 0000 0000 0000 0000 0000 0000
000002e0: 0000 0000 0000 0000 0000 0000 0000 0000
000002f0: 0000 0000 0000 0000 0000 0000 0000 0000
00000300: 0000 0000 0000 0000 0000 0000 0000 0000
00000310: 0000 0000 0000 0000 0000 0000 0000 0000
00000320: 0000 0000 0000 0000 0000 0000 0000 0000
00000330: 0000 0000 0000 0000 0000 0000 0000 0000
00000340: 0000 0000 0000 0000 0000 0000 0000 0000
00000350: 0000 0000 0000 0000 0000 0000 0000 0000
00000360: 0000 0000 0000 0000 0000 0000 0000 0000
00000370: 0000 0000 0000 0000 0000 0000 0000 0000
00000380: 0000 0000 0000 0000 0000 0000 0000 0000
00000390: 0000 0000 0000 0000 0000 0000 0000 0000
000003a0: 0000 0000 0000 0000 0000 0000 0000 0000
000003b0: 0000 0000 0000 0000 0000 0000 0000 0000
000003c0: 0000 0000 0000 0000 0000 0000 0000 0000
000003d0: 0000 0000 0000 0000 0000 0000 0000 0000
000003e0: 0000 0000 0000 0000 0000 0000 0000 0000
000003f0: 0000 0000 0000 0000 0000 0000 0000 0000

exp_avg f4 [128]
0.0 4.1325384e-06 0.0 0.0 0.0 0.0 2.8672453e-05 6e-45
0.0 0.0 2.7522197e-05 -1.755407e-05 9.478132e-06 0.0 2.5161822e-05 -2.6290484e-06
1.7225559e-05 5.9785275e-06 6.6608727e-06 0.0 -7.115986e-06 0.0 -2.1155596e-05 0.0
8.55043e-06 2.4048477e-05 0.0 -6.4069027e-06 1.4714598e-05 7.384449e-06 0.0 0.0
0.0 -4.3751366e-05 0.0 0.0 2.356183e-05 0.0 2.7678061e-05 0.0
-1.5038686e-06 0.0 5.306662e-06 0.0 4.055036e-05 -1.0455895e-05 2.1287075e-05 -1.48782865e-05
0.0 6.4612104e-06 -8.487407e-06 -3.5096215e-05 -5.301001e-07 0.0 6e-45 0.0
0.0 3.1986972e-05 -5.1459842e-06 0.0 7.80591e-06 0.0 -1.3176794e-06 5.682474e-05
8.291462e-06 -4.3183852e-07 0.0 0.0 4.9480827e-06 0.0 -3.591066e-05 -2.385133e-05
0.0 0.0 -9.283124e-06 4.6483605e-05 -9.141142e-05 -3.753301e-05 5.7437297e-05 9.328029e-06
-2.1391495e-05 2.8484646e-05 0.0 1.98118e-06 1.2954503e-05 -2.050332e-05 2.5246947e-05 0.0
6e-45 -2.8586057e-05 -1.092912e-05 1.5347692e-05 3.2614687e-05 0.0 3.1816612e-06 -1.2365848e-05
-6e-45 0.0 7.975435e-06 0.0 2.492828e-05 0.0 -1.9686393e-06 -9.771959e-06
2.7337571e-06 -2.465609e-06 0.0 3.0455773e-05 6e-45 6.574781e-07 6.602819e-05 0.0
0.0 0.0 5.956467e-06 8.912994e-06 4.9884326e-05 0.0 -4.681998e-06 -5.01092e-06
0.0 2.0000114e-08 5.2879327e-06 0.0 6e-45 -2.9198527e-06 2.4997356e-05 -4.1891348e-05
00000000: 0000 0000 3caa 8a36 0000 0000 0000 0000
00000010: 0000 0000 0000 0000 a085 f037 0400 0000
00000020: 0000 0000 0000 0000 78df e637 1441 93b7
00000030: 4404 1f37 0000 0000 9a12 d337 b56e 30b6
00000040: 9b7f 9037 299b c836 7680 df36 0000 0000
00000050: dbc5 eeb6 0000 0000 4c77 b1b7 0000 0000
00000060: d173 0f37 b6bb c937 0000 0000 e0fa d6b6
00000070: b8de 7637 efc7 f736 0000 0000 0000 0000
00000080: 0000 0000 ac81 37b8 0000 0000 0000 0000
00000090: a5a6 c537 0000 0000 2f2e e837 0000 0000
000000a0: 88d8 c9b5 0000 0000 e10f b236 0000 0000
000000b0: 9e14 2a38 ba6b 2fb7 a591 b237 c19d 79b7
000000c0: 0000 0000 60cd d836 2365 0eb7 4634 13b8
000000d0: 344c 0eb5 0000 0000 0400 0000 0000 0000
000000e0: 0000 0000 c029 0638 abab acb6 0000 0000
000000f0: 21f6 0237 0000 0000 1fdb b0b5 1a57 6e38
00000100: 8f1b 0b37 6fd7 e7b4 0000 0000 0000 0000
00000110: b507 a636 0000 0000 c79e 16b8 5714 c8b7
00000120: 0000 0000 0000 0000 b7be 1bb7 64f7 4238
00000130: 22b4 bfb8 c36c 1db8 d4e8 7038 947f 1c37
00000140: e371 b3b7 50f2 ee37 0000 0000 6af4 0436
00000150: 2b57 5937 8bfe abb7 68c9 d337 0000 0000
00000160: 0400 0000 17cc efb7 375c 37b7 ebbe 8037
00000170: c1cb 0838 0000 0000 8684 5536 ea76 4fb7
00000180: 0400 0080 0000 0000 3cce 0537 0000 0000
00000190: 131d d137 0000 0000 f71c 04b6 3ff2 23b7
000001a0: 9775 3736 d776 25b6 0000 0000 467b ff37
000001b0: 0400 0000 8d7d 3035 9d78 8a38 0000 0000
000001c0: 0000 0000 0000 0000 a9dd c736 0589 1537
000001d0: e33a 5138 0000 0000 0e1a 9db6 7a23 a8b6
000001e0: 0000 0000 b7cc ab32 ff6e b136 0000 0000
000001f0: 0400 0000 b0f2 43b6 6ab1 d137 7eb4 2fb8

exp_avg_sq f4 [128]
0.0 9.3897526e-08 0.0 0.0 0.0 0.0 3.9514552e-07 2.5619908e-12
0.0 0.0 2.138879e-08 1.2904e-07 3.220745e-08 0.0 3.8403698e-08 1.043678e-07
5.4397624e-08 4.100474e-08 8.526663e-09 0.0 8.703959e-09 0.0 6.2854156e-08 0.0
3.113156e-07 5.11504e-08 0.0 5.6314786e-08 4.29574e-08 6.62189e-08 0.0 0.0
0.0 1.09931655e-07 0.0 0.0 3.971705e-08 0.0 2.500683e-08 0.0
4.0782986e-08 0.0 2.5021398e-08 0.0 2.2793554e-07 1.0424795e-07 5.3003813e-08 5.180983e-08
0.0 5.397999e-08 2.9206488e-08 3.889906e-08 8.869196e-08 0.0 2.8590927e-12 0.0
0.0 4.0605833e-08 2.7565843e-09 0.0 1.6596469e-07 0.0 1.2757712e-07 1.515602e-07
1.2227756e-07 1.5074565e-07 0.0 0.0 4.994119e-09 0.0 1.1049726e-07 1.3608604e-07
0.0 0.0 7.55205e-08 4.0342584e-07 5.6921544e-07 1.6009669e-07 3.2454963e-07 4.579773e-08
1.1744063e-07 8.8428685e-08 0.0 5.0117375e-08 2.7760504e-07 2.6261056e-08 1.4295392e-07 0.0
2.2479058e-10 3.3761418e-07 9.817906e-08 2.3738641e-08 3.0346477e-08 0.0 2.9140885e-08 9.673648e-09
2.269935e-11 0.0 1.3466108e-08 0.0 2.1075083e-08 0.0 6.523471e-09 1.9126841e-07
1.3549818e-08 4.6804907e-08 0.0 1.7260565e-07 2.4198649e-12 7.978256e-08 2.153086e-07 0.0
0.0 0.0 5.7415306e-08 1.2921873e-07 6.5734646e-08 0.0 8.454925e-08 5.3225357e-09
0.0 4.5825477e-08 8.076825e-08 0.0 9.176738e-12 2.9845006e-09 1.7981692e-07 5.4368144e-08
00000000: 0000 0000 b6a4 c933 0000 0000 0000 0000
00000010: 0000 0000 0000 0000 6324 d434 b948 342c
00000020: 0000 0000 0000 0000 72ba b732 3f8e 0a34
00000030: 7754 0a33 0000 0000 50f1 2433 ce20 e033
00000040: d2a2 6933 301d 3033 a97c 1232 0000 0000
00000050: 6b88 1532 0000 0000 70fa 8633 0000 0000
00000060: e422 a734 76b0 5b33 0000 0000 c3de 7133
00000070: 2980 3833 3a34 8e33 0000 0000 0000 0000
00000080: 0000 0000 9113 ec33 0000 0000 0000 0000
00000090: 5c95 2a33 0000 0000 9ace d632 0000 0000
000000a0: 5e29 2f33 0000 0000 a3ee d632 0000 0000
000000b0: 72be 7434 ebde df33 4fa6 6333 8385 5e33
000000c0: 0000 0000 a0d7 6733 bfe1 fa32 f811 2733
000000d0: ec76 be33 0000 0000 d630 492c 0000 0000
000000e0: 0000 0000 9666 2e33 586e 3d31 0000 0000
000000f0: 0734 3234 0000 0000 22fc 0834 8dbc 2234
00000100: 664b 0334 a6dc 2134 0000 0000 0000 0000
00000110: bc98 ab31 0000 0000 834a ed33 0c1f 1234
00000120: 0000 0000 0000 0000 d52d a233 6d96 d834
00000130: 30cc 1835 0be7 2b34 c33d ae34 23b3 4433
00000140: ab33 fc33 2fe6 bd33 0000 0000 a340 5733
00000150: bf09 9534 ac94 e132 e07e 1934 0000 0000
00000160: ec28 772f 5741 b534 82d6 d233 d3e9 cb32
00000170: 4e56 0233 0000 0000 7c51 fa32 2731 2632
00000180: 64aa c72d 0000 0000 9258 6732 0000 0000
00000190: 9908 b532 0000 0000 0f25 e031 765f 4d34
000001a0: bbc8 6832 8a06 4933 0000 0000 7b55 3934
000001b0: 6948 2a2c ed54 ab33 942f 6734 0000 0000
000001c0: 0000 0000 0000 0000 cc98 7633 60bf 0a34
000001d0: 012a 8d33 0000 0000 7191 b533 85e1 b631
000001e0: 0000 0000 a5d1 4433 d172 ad33 0000 0000
000001f0: 5b70 212d e417 4d31 b313 4134 6882 6933

exp_avg f4 [64, 128]
0.0 0.0 0.0 0.0 0.0 0.0 0.0 0.0
0.0 0.0 0.0 0.0 0.0 0.0 0.0 0.0
0.0 0.0 0.0 0.0 0.0 0.0 0.0 0.0
0.0 0.0 0.0 0.0 0.0 0.0 0.0 0.0
0.0 0.0 0.0 0.0 0.0 0.0 0.0 0.0
0.0 0.0 0.0 0.0 0.0 0.0 0.0 0.0
0.0 0.0 0.0 0.0 0.0 0.0 0.0 0.0
0.0 0.0 0.0 0.0 0.0 0.0 0.0 0.0
0.0 0.0 0.0 0.0 0.0 0.0 0.0 0.0
0.0 0.0 0.0 0.0 0.0 0.0 0.0 0.0
0.0 0.0 0.0 0.0 0.0 0.0 0.0 0.0
0.0 0.0 0.0 0.0 0.0 0.0 0.0 0.0
0.0 0.0 0.0 0.0 0.0 0.0 0.0 0.0
0.0 0.0 0.0 0.0 0.0 0.0 0.0 0.0
0.0 0.0 0.0 0.0 0.0 0.0 0.0 0.0
0.0 0.0 0.0 0.0 0.0 0.0 0.0 0.0
0.0 6.176354e-06 0.0 0.0 0.0 0.0 2.3178008e-07 -6e-45
0.0 0.0 6.8470627e-06 -1.0371209e-06 8.832782e-06 0.0 -1.37769e-07 6.2022405e-06
1.1090197e-05 2.1384412e-06 -6.67161e-07 0.0 1.4671311e-05 0.0 3.0490078e-06 0.0
2.8655113e-06 7.2853736e-06 0.0 3.3021706e-06 2.685673e-06 1.2610265e-05 0.0 0.0
0.0 -7.9039836e-08 0.0 0.0 7.1341624e-06 0.0 1.5417832e-05 0.0
8.779553e-06 0.0 1.3069331e-05 0.0 5.848294e-06 9.567013e-06 1.4456087e-05 4.245339e-06
0.0 1.1372365e-05 7.493552e-06 4.872794e-07 9.9682775e-06 0.0 6e-45 0.0
0.0 6.8523477e-06 6.931433e-06 0.0 -1.3358647e-07 0.0 1.8741594e-06 9.833214e-06
8.797455e-06 -7.411424e-09 0.0 0.0 8.0921645e-06 0.0 7.4184923e-06 5.708785e-06
0.0 0.0 1.209757e-05 9.90146e-07 -8.279691e-08 1.0494168e-07 -3.6074047e-07 1.4931967e-05
9.028726e-06 1.3646731e-05 0.0 1.1601503e-05 2.906988e-06 1.7556605e-06 3.5087469e-06 0.0
-6e-45 7.7737724e-07 1.2401839e-05 9.953655e-06 2.3595182e-06 0.0 1.0811238e-05 4.2276633e-06
-6e-45 0.0 7.5355647e-06 0.0 1.1661562e-05 0.0 3.6440592e-06 3.263831e-06
1.3548331e-05 7.1410627e-06 0.0 -6.4914923e-07 6e-45 8.220365e-06 5.9643417e-06 0.0
0.0 0.0 1.4896581e-05 1.3411222e-06 8.808607e-06 0.0 4.637059e-06 7.6074793e-06
0.0 1.6074211e-11 1.238367e-05 0.0 6e-45 4.412661e-06 9.275347e-06 3.922476e-06
00000000: 0000 0000 0000 0000 0000 0000 0000 0000
00000010: 0000 0000 0000 0000 0000 0000 0000 0000
00000020: 0000 0000 0000 0000 0000 0000 0000 0000
00000030: 0000 0000 0000 0000 0000 0000 0000 0000
00000040: 0000 0000 0000 0000 0000 0000 0000 0000
00000050: 0000 0000 0000 0000 0000 0000 0000 0000
00000060: 0000 0000 0000 0000 0000 0000 0000 0000
00000070: 0000 0000 0000 0000 0000 0000 0000 0000
00000080: 0000 0000 0000 0000 0000 0000 0000 0000
00000090: 0000 0000 0000 0000 0000 0000 0000 0000
000000a0: 0000 0000 0000 0000 0000 0000 0000 0000
000000b0: 0000 0000 0000 0000 0000 0000 0000 0000
000000c0: 0000 0000 0000 0000 0000 0000 0000 0000
000000d0: 0000 0000 0000 0000 0000 0000 0000 0000
000000e0: 0000 0000 0000 0000 0000 0000 0000 0000
000000f0: 0000 0000 0000 0000 0000 0000 0000 0000
00000100: 0000 0000 0000 0000 0000 0000 0000 0000
00000110: 0000 0000 0000 0000 0000 0000 0000 0000
00000120: 0000 0000 0000 0000 0000 0000 0000 0000
00000130: 0000 0000 0000 0000 0000 0000 0000 0000
00000140: 0000 0000 0000 0000 0000 0000 0000 0000
00000150: 0000 0000 0000 0000 0000 0000 0000 0000
00000160: 0000 0000 0000 0000 0000 0000 0000 0000
00000170: 0000 0000 0000 0000 0000 0000 0000 0000
00000180: 0000 0000 0000 0000 0000 0000 0000 0000
00000190: 0000 0000 0000 0000 0000 0000 0000 0000
000001a0: 0000 0000 0000 0000 0000 0000 0000 0000
000001b0: 0000 0000 0000 0000 0000 0000 0000 0000
000001c0: 0000 0000 0000 0000 0000 0000 0000 0000
000001d0: 0000 0000 0000 0000 0000 0000 0000 0000
000001e0: 0000 0000 0000 0000 0000 0000 0000 0000
000001f0: 0000 0000 0000 0000 0000 0000 0000 0000
00000200: 0000 0000 7a3e cf36 0000 0000 0000 0000
00000210: 0000 0000 0000 0000 39df 7834 0400 0080
00000220: 0000 0000 0000 0000 d2bf e536 3433 8bb5
00000230: 8330 1437 0000 0000 a8ed 13b4 d71c d036
00000240: 0910 3a37 2482 0f36 f416 33b5 0000 0000
00000250: cd24 7637 0000 0000 8e9d 4c36 0000 0000
00000260: 1c4d 4036 e274 f436 0000 0000 dc9a 5d36
00000270: 833b 3436 ad90 5337 0000 0000 0000 0000
00000280: 0000 0000 9cbc a9b3 0000 0000 0000 0000
00000290: fd61 ef36 0000 0000 8b55 8137 0000 0000
000002a0: e54b 1337 0000 0000 5944 5b37 0000 0000
000002b0: 773c c436 0282 2037 6c88 7237 2f73 8e36
000002c0: 0000 0000 f0cb 3e37 1f71 fb36 96cd 0235
000002d0: 6d3d 2737 0000 0000 0400 0000 0000 0000
000002e0: 0000 0000 38ed e536 8e94 e836 0000 0000
000002f0: f86f 0fb4 0000 0000 a08b fb35 55f9 2437
00000300: c898 1337 93a7 feb1 0000 0000 0000 0000
00000310: 95c3 0737 0000 0000 5dec f836 178e bf36
00000320: 0000 0000 0000 0000 abf6 4a37 28e5 8435
00000330: 15ce b1b3 4c5c e133 cbab c1b4 4f84 7a37
00000340: 157a 1737 43f4 6437 0000 0000 13a4 4237
00000350: ac15 4336 09a4 eb35 d077 6b36 0000 0000
00000360: 0400 0080 f5ac 5035 7e11 5037 9ffe 2637
00000370: 3758 1e36 0000 0000 ea61 3537 5adb 8d36
00000380: 0400 0080 0000 0000 02da fc36 0000 0000
00000390: 07a6 4337 0000 0000 768c 7436 3108 5b36
000003a0: a34d 6337 439d ef36 0000 0000 3241 2eb5
000003b0: 0400 0000 33ea 0937 4e21 c836 0000 0000
000003c0: 0000 0000 0000 0000 54ec 7937 9c00 b435
000003d0: aec8 1337 0000 0000 0998 9b36 c043 ff36
000003e0: 0000 0000 e863 8d2d 75c3 4f37 0000 0000
000003f0: 0400 0000 7810 9436 509d 1b37 d09d 8336

exp_avg_sq f4 [64, 128]
0.0 0.0 0.0 0.0 0.0 0.0 0.0 0.0
0.0 0.0 0.0 0.0 0.0 0.0 0.0 0.0
0.0 0.0 0.0 0.0 0.0 0.0 0.0 0.0
0.0 0.0 0.0 0.0 0.0 0.0 0.0 0.0
0.0 0.0 0.0 0.0 0.0 0.0 0.0 0.0
0.0 0.0 0.0 0.0 0.0 0.0 0.0 0.0
0.0 0.0 0.0 0.0 0.0 0.0 0.0 0.0
0.0 0.0 0.0 0.0 0.0 0.0 0.0 0.0
0.0 0.0 0.0 0.0 0.0 0.0 0.0 0.0
0.0 0.0 0.0 0.0 0.0 0.0 0.0 0.0
0.0 0.0 0.0 0.0 0.0 0.0 0.0 0.0
0.0 0.0 0.0 0.0 0.0 0.0 0.0 0.0
0.0 0.0 0.0 0.0 0.0 0.0 0.0 0.0
0.0 0.0 0.0 0.0 0.0 0.0 0.0 0.0
0.0 0.0 0.0 0.0 0.0 0.0 0.0 0.0
0.0 0.0 0.0 0.0 0.0 0.0 0.0 0.0
0.0 2.8538527e-10 0.0 0.0 0.0 0.0 1.0108338e-11 7.9283965e-17
0.0 0.0 7.961758e-10 2.636122e-10 3.1522496e-10 0.0 1.0376179e-12 1.6911782e-10
9.383695e-10 6.7655596e-11 3.9955256e-10 0.0 1.7435012e-09 0.0 2.2064713e-10 0.0
1.6855724e-10 3.778952e-10 0.0 1.2247424e-10 8.018248e-11 1.5246224e-09 0.0 0.0
0.0 3.7536493e-12 0.0 0.0 4.701238e-10 0.0 1.2703814e-09 0.0
4.80759e-10 0.0 2.177517e-09 0.0 3.0709796e-10 5.8184996e-10 1.343665e-09 1.04506424e-10
0.0 6.401577e-10 6.0275274e-10 1.4955003e-10 7.7822976e-10 0.0 1.08492274e-14 0.0
0.0 1.8112141e-10 4.054213e-10 0.0 2.574229e-11 0.0 1.7339978e-10 3.1747766e-10
5.847661e-10 3.974898e-12 0.0 0.0 3.5984415e-10 0.0 2.3145892e-10 1.5269139e-10
0.0 0.0 7.5978807e-10 1.16502814e-11 3.0777997e-12 2.702499e-12 1.3137569e-11 1.9426036e-09
7.15873e-10 8.4476154e-10 0.0 1.5210624e-09 3.9355022e-10 6.6920625e-10 3.7470368e-10 0.0
5.500881e-14 9.694318e-12 1.1031422e-09 1.0112513e-09 2.1355846e-11 0.0 1.056244e-09 6.500239e-10
7.511889e-15 0.0 2.515459e-10 0.0 8.211644e-10 0.0 1.0714877e-10 4.0184445e-10
9.287312e-10 3.430314e-10 0.0 4.96474e-11 1.5281789e-16 4.8761983e-10 1.6895405e-10 0.0
0.0 0.0 1.1030746e-09 3.0740532e-10 3.5241668e-10 0.0 3.47408e-10 1.6148799e-09
0.0 9.05175e-13 1.4450278e-09 0.0 6.134171e-15 4.876915e-10 4.418085e-10 1.1780595e-10
00000000: 0000 0000 0000 0000 0000 0000 0000 0000
00000010: 0000 0000 0000 0000 0000 0000 0000 0000
00000020: 0000 0000 0000 0000 0000 0000 0000 0000
00000030: 0000 0000 0000 0000 0000 0000 0000 0000
00000040: 0000 0000 0000 0000 0000 0000 0000 0000
00000050: 0000 0000 0000 0000 0000 0000 0000 0000
00000060: 0000 0000 0000 0000 0000 0000 0000 0000
00000070: 0000 0000 0000 0000 0000 0000 0000 0000
00000080: 0000 0000 0000 0000 0000 0000 0000 0000
00000090: 0000 0000 0000 0000 0000 0000 0000 0000
000000a0: 0000 0000 0000 0000 0000 0000 0000 0000
000000b0: 0000 0000 0000 0000 0000 0000 0000 0000
000000c0: 0000 0000 0000 0000 0000 0000 0000 0000
000000d0: 0000 0000 0000 0000 0000 0000 0000 0000
000000e0: 0000 0000 0000 0000 0000 0000 0000 0000
000000f0: 0000 0000 0000 0000 0000 0000 0000 0000
00000100: 0000 0000 0000 0000 0000 0000 0000 0000
00000110: 0000 0000 0000 0000 0000 0000 0000 0000
00000120: 0000 0000 0000 0000 0000 0000 0000 0000
00000130: 0000 0000 0000 0000 0000 0000 0000 0000
00000140: 0000 0000 0000 0000 0000 0000 0000 0000
00000150: 0000 0000 0000 0000 0000 0000 0000 0000
00000160: 0000 0000 0000 0000 0000 0000 0000 0000
00000170: 0000 0000 0000 0000 0000 0000 0000 0000
00000180: 0000 0000 0000 0000 0000 0000 0000 0000
00000190: 0000 0000 0000 0000 0000 0000 0000 0000
000001a0: 0000 0000 0000 0000 0000 0000 0000 0000
000001b0: 0000 0000 0000 0000 0000 0000 0000 0000
000001c0: 0000 0000 0000 0000 0000 0000 0000 0000
000001d0: 0000 0000 0000 0000 0000 0000 0000 0000
000001e0: 0000 0000 0000 0000 0000 0000 0000 0000
000001f0: 0000 0000 0000 0000 0000 0000 0000 0000
00000200: 0000 0000 68e4 9c2f 0000 0000 0000 0000
00000210: 0000 0000 0000 0000 e8d3 312d fed0 b624
00000220: 0000 0000 0000 0000 e4d9 5a30 1eec 902f
00000230: f84b ad2f 0000 0000 2008 922b 6ff2 392f
00000240: f1f7 8030 b7c6 942e 06a8 db2f 0000 0000
00000250: ff9f ef30 0000 0000 a59a 722f 0000 0000
00000260: a554 392f 05c0 cf2f 0000 0000 6fa9 062f
00000270: b952 b02e e28a d130 0000 0000 0000 0000
00000280: 0000 0000 de11 842c 0000 0000 0000 0000
00000290: 053a 0130 0000 0000 9299 ae30 0000 0000
000002a0: 6826 0430 0000 0000 49a3 1531 0000 0000
000002b0: 32d4 a82f 0df0 1f30 02ac b830 e3cf e52e
000002c0: 0000 0000 18f7 2f30 f4ae 2530 976e 242f
000002d0: 0deb 5530 0000 0000 3b71 4328 0000 0000
000002e0: 0000 0000 2525 472f fae1 de2f 0000 0000
000002f0: 7c6e e22d 0000 0000 b3a7 3e2f 0289 ae2f
00000300: 42bd 2030 b3da 8b2c 0000 0000 0000 0000
00000310: 90d3 c52f 0000 0000 e57d 7e2f cee2 272f
00000320: 0000 0000 0000 0000 55d9 5030 34f4 4c2d
00000330: b694 582c e52b 3e2c 5a1e 672d a57e 0531
00000340: 16c7 4430 cf34 6830 0000 0000 a00d d130
00000350: 455b d82f 34f3 3730 dbfe cd2f 0000 0000
00000360: d7bc 7729 548b 2a2d 5e9d 9730 3efc 8a30
00000370: 17d9 bb2d 0000 0000 482b 9130 5ead 3230
00000380: 7952 0728 0000 0000 f049 8a2f 0000 0000
00000390: 4fb8 6130 0000 0000 659f eb2e 94ea dc2f
000003a0: a649 7f30 6195 bc2f 0000 0000 015a 5a2e
000003b0: e12f 3025 3209 0630 56c4 392f 0000 0000
000003c0: 0000 0000 0000 0000 fd9a 9730 74ff a82f
000003d0: 3dbe c12f 0000 0000 54fd be2f 89f2 dd30
000003e0: 0000 0000 bcc8 7e2b 659a c630 0000 0000
000003f0: be01 dd27 3d0e 0630 05e3 f22f 6d87 012f

exp_avg f4 [64]
0.0 2.0058435e-05 0.0 -1.4168025e-05 2.9512626e-05 2.0136351e-05 2.979481e-05 5.261637e-06
-4.6940164e-05 6e-45 5.6672267e-05 6e-45 -2.930944e-06 -8.871098e-06 0.0 6e-45
6e-45 -5.4104396e-05 2.8303964e-05 3.7389334e-05 0.0 0.0 8.15345e-05 4.9992326e-05
6.160485e-05 6e-45 -1.8099448e-05 2.4838455e-05 4.9311642e-05 6.7209335e-06 1.8508115e-05 -1.2670758e-05
3.743159e-05 3.887227e-05 0.0 1.3220425e-05 6e-45 6e-45 -4.432898e-06 -1.2611933e-05
5.2686853e-05 -3.5789213e-05 0.0 -1.1349458e-05 3.541251e-05 -1.8878272e-07 5.3790733e-10 0.0
1.9619576e-05 -1.6813234e-05 -2.7179136e-05 0.0 1.0071366e-19 4.3689593e-05 -6.491576e-05 -4.8145266e-05
5.187121e-06 6e-45 2.1968467e-06 -2.679772e-06 6e-45 0.0 -1.2646109e-05 2.4559402e-05
00000000: 0000 0000 2943 a837 0000 0000 34b3 6db7
00000010: e291 f737 7cea a837 deef f937 1e8d b036
00000020: 9ee1 44b8 0400 0000 62b3 6d38 0400 0000
00000030: 3cb1 44b6 13d5 14b7 0000 0000 0400 0000
00000040: 0400 0000 27ee 62b8 4d6e ed37 7ed2 1c38
00000050: 0000 0000 0000 0000 80fd aa38 daae 5138
00000060: da31 8138 0400 0000 45d4 97b7 2d5c d037
00000070: f9d3 4e38 6184 e136 e041 9b37 7e94 54b7
00000080: ddff 1c38 c80a 2338 0000 0000 4bcd 5d37
00000090: 0400 0000 0400 0000 4ebe 94b6 d797 53b7
000000a0: 14fc 5c38 601c 16b8 0000 0000 8d69 3eb7
000000b0: e587 1438 33b4 4ab4 dddb 1330 0000 0000
000000c0: b894 a437 250a 8db7 c0fe e3b7 0000 0000
000000d0: accd ed1f 583f 3738 6223 88b8 96ef 49b8
000000e0: 080d ae36 0400 0000 8a6d 1336 22d6 33b6
000000f0: 0400 0000 0000 0000 a02a 54b7 ea04 ce37

exp_avg_sq f4 [64]
0.0 7.605665e-09 0.0 3.8068197e-08 2.293619e-07 4.7386564e-08 7.697434e-08 2.865363e-07
9.983589e-08 1.7647848e-10 1.7512484e-07 6.663259e-11 2.0346054e-07 1.0154974e-07 0.0 4.2866396e-14
3.6935326e-13 5.3859353e-08 2.0818531e-07 1.01477056e-07 0.0 0.0 1.4059593e-07 1.18317e-07
8.549964e-08 7.759734e-12 6.1336166e-08 8.9289166e-08 1.5893433e-07 1.659461e-08 5.96992e-08 5.745003e-08
1.6974376e-07 1.5775383e-07 0.0 1.6985102e-07 1.4637395e-13 3.1052808e-12 1.802783e-07 8.785617e-08
6.069606e-08 5.9397166e-08 0.0 2.3696792e-08 8.278169e-08 4.07108e-07 2.4620611e-11 0.0
4.2427303e-08 3.4178342e-08 1.639186e-07 0.0 4.988102e-18 3.6965886e-08 9.669747e-08 1.1196331e-07
2.8273481e-08 3.1247636e-09 4.3532992e-08 7.8343945e-08 1.1252024e-11 0.0 1.12682336e-07 3.002151e-07
00000000: 0000 0000 12aa 0232 0000 0000 6d80 2333
00000010: 8546 7634 1486 4b33 174d a533 40d5 9934
00000020: 5c65 d633 470a 422f f309 3c34 d086 922e
00000030: cf76 5a34 8f13 da33 0000 0000 970d 4129
00000040: 6aed cf2a fc52 6733 8b89 5f34 9aeb d933
00000050: 0000 0000 0000 0000 b7f6 1634 7515 fe33
00000060: ed9b b733 bc82 082d eab7 8333 3dbf bf33
00000070: 89a7 2a34 ef8b 8e32 fb33 8033 fabe 7633
00000080: cf42 3634 0b63 2934 0000 0000 4b60 3634
00000090: 6bcd 242a c483 5a2c 8692 4134 71ab bc33
000000a0: 0358 8233 e01b 7f33 0000 0000 cc8d cb32
000000b0: b7c5 b133 7f90 da34 b090 d82d 0000 0000
000000c0: 5039 3633 7ccb 1233 9a01 3034 0000 0000
000000d0: 4b07 b822 6cc4 1e33 ffa7 cf33 7b70 f033
000000e0: 0bde f232 6cbb 5631 08f9 3a33 0a3e a833
000000f0: 9cf2 452d 0000 0000 c5fb f133 402d a134

exp_avg f4 [2, 64]
0.0 0.00019302241 0.0 7.559588e-05 0.00031133476 0.00020193524 -1.6806798e-05 4.166705e-07
3.061279e-05 -6e-45 0.00025041425 -6e-45 0.00014538887 5.512382e-06 0.0 -6e-45
-6e-45 3.019255e-06 0.00029538627 0.00028645882 0.0 0.0 0.00016581883 -2.8166422e-05
0.0002083779 6e-45 2.529692e-05 -3.096616e-06 0.00020894836 9.091272e-05 6.5517845e-05 8.631654e-06
0.00020968783 0.00010546391 0.0 9.4881696e-05 -6e-45 -6e-45 0.00013153236 0.00018725716
0.00023481649 3.0134792e-05 0.0 0.00011429598 0.00013290785 0.00012165806 -7.960198e-13 0.0
0.0001376996 0.0002585435 -3.9390534e-06 0.0 -2.4132442e-22 0.0001608612 2.8290879e-05 0.00013373181
0.000257411 -6e-45 0.000121848236 7.5887697e-06 -6e-45 0.0 0.00018688351 0.00023911327
0.0 -0.00015435682 0.0 -0.0001926447 -0.00033122842 -0.00022867712 -1.0283951e-05 4.6857994e-07
8.5309733e-07 -6e-45 -0.00028766497 -6e-45 -0.00016056171 -8.090106e-06 0.0 -6e-45
-6e-45 -2.4840116e-05 -0.00030727556 -0.0002636198 0.0 0.0 -0.0001817198 -1.8668985e-05
-0.00021170398 6e-45 9.639629e-05 -2.7964925e-06 -0.00024283843 -0.0002064668 -3.4583212e-05 -1.5300582e-05
-0.00022304097 -9.499191e-05 0.0 -5.058866e-05 -6e-45 -6e-45 -0.0001627351 -0.00021824588
-0.00026217397 -3.886197e-06 0.0 -0.00026973008 -0.00011431538 2.2757988e-06 2.6971708e-13 0.0
-0.00030590972 -0.00020005436 -6.9091307e-06 0.0 -2.3042779e-22 -0.00017669234 5.276575e-05 -8.816239e-05
-0.00025768147 -6e-45 -0.00028890395 -2.4122031e-05 -6e-45 0.0 -0.00020313771 -0.0002472488
00000000: 0000 0000 0f66 4a39 0000 0000 3b89 9e38
00000010: a53a a339 94be 5339 53fc 8cb7 c2b2 df34
00000020: 3c66 0038 0400 0080 084a 8339 0400 0080
00000030: 8773 1839 00f7 b836 0000 0000 0400 0080
00000040: 0400 0080 689e 4a36 13de 9a39 da2f 9639
00000050: 0000 0000 0000 0000 a7df 2d39 ee46 ecb7
00000060: 0480 5a39 0400 0000 b934 d437 75cf 4fb6
00000070: 2619 5b39 65a8 be38 a066 8938 acd0 1037
00000080: a6df 5b39 812c dd38 0000 0000 39fb c638
00000090: 0400 0080 0400 0080 f3eb 0939 765a 4439
000000a0: 1239 7639 f9c9 fc37 0000 0000 30b2 ef38
000000b0: 2e5d 0b39 ac22 ff38 460f 60ab 0000 0000
000000c0: 7463 1039 1f8d 8739 362c 84b6 0000 0000
000000d0: 25df 919b d9ac 2839 3352 ed37 5c3a 0c39
000000e0: 1ff5 8639 0400 0080 c688 ff38 09a3 fe36
000000f0: 0400 0080 0000 0000 29f6 4339 7bba 7a39
00000100: 0000 0000 d8da 21b9 0000 0000 ab00 4ab9
00000110: baa8 adb9 0cc9 6fb9 3c89 2cb7 2391 fb34
00000120: 6700 6535 0400 0080 bdd1 96b9 0400 0080
00000130: 755c 28b9 beba 07b7 0000 0000 0400 0080
00000140: 0400 0080 be5f d0b7 d419 a1b9 7336 8ab9
00000150: 0000 0000 0000 0000 0a8c 3eb9 579b 9cb7
00000160: dbfc 5db9 0400 0000 5d28 ca38 60ab 3bb6
00000170: 72a2 7eb9 027f 58b9 710d 11b8 c059 80b7
00000180: 1be0 69b9 6536 c7b8 0000 0000 292f 54b8
00000190: 0400 0080 0400 0080 dfa3 2ab9 efd8 64b9
000001a0: 6574 89b9 2e66 82b6 0000 0000 8f6a 8db9
000001b0: 9abc efb8 edb9 1836 54d6 972a 0000 0000
000001c0: 8262 a0b9 afc5 51b9 fbd4 e7b6 0000 0000
000001d0: f948 8b9b 7d46 39b9 cb50 5d38 d3e3 b8b8
000001e0: 6c19 87b9 0400 0080 0878 97b9 ab59 cab7
000001f0: 0400 0080 0000 0000 5d01 55b9 2ca1 81b9

exp_avg_sq f4 [2, 64]
0.0 3.378201e-07 0.0 1.5880563e-07 1.1645158e-06 4.300527e-07 2.6593845e-08 2.8844278e-09
9.678497e-08 4.8482577e-14 6.2799734e-07 5.9477506e-11 3.7280552e-07 5.0508207e-09 0.0 1.6390633e-15
3.3692198e-17 1.959156e-08 1.3006414e-06 9.509563e-07 0.0 0.0 2.5043565e-07 6.646721e-08
3.8831897e-07 4.974538e-14 3.6206418e-07 1.2164048e-08 4.649088e-07 1.9512834e-07 3.0244667e-08 4.108907e-09
5.625069e-07 5.197295e-08 0.0 9.4730936e-08 1.4820635e-14 5.227201e-15 2.837787e-07 4.2260666e-07
4.6840663e-07 8.695021e-08 0.0 2.661142e-07 7.635854e-08 3.2414908e-07 2.982536e-13 0.0
2.7608317e-07 1.139356e-06 1.2920989e-08 0.0 1.8850371e-23 1.9998262e-07 2.705435e-07 3.1343268e-07
7.25171e-07 1.2449287e-10 2.9678898e-07 1.0729975e-08 4.7048433e-13 0.0 5.206397e-07 6.836423e-07
0.0 5.2726466e-07 0.0 4.264997e-07 2.2328463e-06 9.026042e-07 2.508627e-08 7.951304e-09
2.578812e-07 5.000082e-14 1.0985183e-06 3.5382974e-11 8.9165604e-07 3.3248524e-09 0.0 2.0281217e-15
4.294137e-17 9.699726e-08 2.4376627e-06 1.7654048e-06 0.0 0.0 3.7883765e-07 6.452695e-08
6.55048e-07 2.389423e-13 3.9217448e-07 9.120106e-09 8.488057e-07 4.5406094e-07 3.0469145e-08 3.1954254e-08
1.0979263e-06 4.4904656e-08 0.0 9.636412e-08 3.7611024e-15 2.710859e-16 7.0690226e-07 9.227213e-07
7.3561813e-07 2.5086197e-07 0.0 5.548259e-07 6.571834e-08 3.4663188e-07 4.8701755e-14 0.0
4.60394e-07 2.3470232e-06 5.2363678e-08 0.0 1.8744261e-23 2.5919397e-07 4.7113232e-07 7.2140887e-07
1.4049871e-06 8.7776356e-11 4.874491e-07 8.104489e-08 4.5374747e-13 0.0 1.171613e-06 1.3813356e-06
00000000: 0000 0000 a45d b534 0000 0000 2984 2a34
00000010: 754c 9c35 fee1 e634 7c70 e432 6437 4631
00000020: 1ad8 cf33 9b58 5a29 a693 2835 dcca 822e
00000030: 0026 c834 7d8b ad31 0000 0000 c336 ec26
00000040: ba60 1b24 4c4a a832 b391 ae35 3845 7f35
00000050: 0000 0000 0000 0000 9d73 8634 bcbc 8e33
00000060: 277a d034 8508 6029 b961 c234 0dfa 5032
00000070: 9498 f934 7884 5134 5de6 0133 542e 8d31
00000080: 2eff 1635 dd38 5f33 0000 0000 e26e cb33
00000090: 0f7e 8528 6b54 bc27 3f5a 9834 9ee2 e234
000000a0: 5179 fb34 62b9 ba33 0000 0000 75de 8e34
000000b0: 8dfa a333 b606 ae34 e0e6 a72a 0000 0000
000000c0: 9538 9434 f9eb 9835 1cfb 5d32 0000 0000
000000d0: 424f b619 ceba 5634 373f 9134 dc45 a834
000000e0: 5fa9 4235 a1e1 082f 5e56 9f34 ee56 3832
000000f0: f86d 042b 0000 0000 16c2 0b35 8b83 3735
00000100: 0000 0000 5a89 0d35 0000 0000 acf9 e434
00000110: 02d8 1536 7d4a 7235 4b7d d732 349a 0832
00000120: ec72 8a34 052f 6129 cd70 9335 b09d 1b2e
00000130: 235a 6f35 6c7b 6431 0000 0000 3e24 1227
00000140: 3908 4624 cf4c d033 ba96 2336 d9f2 ec35
00000150: 0000 0000 0000 0000 0d63 cb34 1192 8a33
00000160: 8ed6 2f35 3783 862a 0d8c d234 a6ae 1c32
00000170: 7cd9 6335 a9c5 f334 2edd 0233 133e 0933
00000180: 765c 9335 31dd 4033 0000 0000 bcf0 ce33
00000190: 0c82 8727 3845 9c25 f4c1 3d35 edb0 7735
000001a0: 4b77 4535 35ae 8634 0000 0000 58ef 1435
000001b0: 0a21 8d33 b918 ba34 4d55 5b29 0000 0000
000001c0: 122c f734 8d81 1d36 79e6 6033 0000 0000
000001d0: 8b48 b519 5927 8b34 efef fc34 d7a6 4135
000001e0: fd92 bc35 b205 c12e 3fd9 0235 e60a ae33
000001f0: e76f ff2a 0000 0000 5140 9d35 5466 b935

exp_avg f4 [2]
0.00044109926 -0.00020591894
00000000: 5743 e739 f2eb 57b9

exp_avg_sq f4 [2]
6.4739115e-06 9.441987e-06
00000000: 7a3a d936 0669 1e37
