001-machine_learning/data/00001-MLP-temperature/008_checkpoint.pth (torch_old, 409225 bytes, 30 tensors)

exp_avg f4 [64, 4]
1.5776935e-05 1.6131005e-05 9.738565e-06 2.6844915e-05 7.774051e-05 8.1531274e-05 4.0655203e-05 0.00011031541
0.0 0.0 0.0 0.0 4.8464884e-05 5.496473e-05 4.5728288e-05 8.9083704e-05
6.923894e-05 7.257577e-05 1.9119328e-05 7.9495665e-05 1.698397e-05 1.766492e-05 9.525647e-06 1.994017e-05
-4.703493e-06 -5.4702077e-06 -8.332503e-06 -1.8150773e-05 2.0761097e-05 2.0487045e-05 8.43064e-06 1.7665288e-05
0.0 -1.479838e-07 -1.3910527e-07 -1.4236205e-07 5.9274385e-05 6.197039e-05 2.3759296e-05 7.223332e-05
7.1262384e-06 7.861096e-06 -6.41967e-07 5.131393e-06 -1.8837469e-05 -1.9966294e-05 -5.413027e-06 -2.6188889e-05
0.0 -1.3350585e-07 -1.0624178e-07 -1.1274818e-07 0.0 3.085565e-10 3.9230214e-10 6.6564726e-10
0.0 0.0 0.0 0.0 2.8311395e-05 2.996853e-05 2.1409707e-05 4.1195333e-05
-7.519901e-06 -8.903293e-06 -9.2060645e-06 -2.1978585e-05 3.6693003e-05 3.7737802e-05 2.2920369e-05 5.0610863e-05
-1.13778715e-05 -1.1996004e-05 -1.30907e-05 -3.3007836e-05 -1.03420525e-05 -1.1431261e-05 -1.776078e-06 -1.1413702e-05
5.7109442e-05 5.9320853e-05 3.1824336e-05 8.1601014e-05 1.2922412e-06 1.0036239e-06 9.792144e-07 1.0568612e-06
0.0 -1.7521872e-07 -3.05245e-08 -1.746482e-07 8.500503e-05 8.8741e-05 1.6518343e-05 8.572653e-05
0.0 1.2674976e-08 4.4033466e-10 1.2134712e-09 8.5269305e-05 8.898603e-05 2.9880628e-05 0.00010367793
0.0 0.0 0.0 0.0 0.0 -3.8287695e-07 -1.4911883e-07 -3.7125915e-07
-1.6114712e-06 -1.7767592e-06 -1.263227e-06 -3.452605e-06 0.0 0.0 0.0 0.0
1.9998295e-05 2.006802e-05 -1.2813766e-06 9.479108e-06 -4.6531284e-05 -4.93378e-05 -2.8212506e-05 -7.435697e-05
1.701943e-05 1.727598e-05 5.12521e-07 1.281719e-05 -2.6530708e-08 -9.213366e-09 -2.9216606e-08 -5.6626805e-09
4.2139225e-05 4.497568e-05 2.8272003e-05 6.819923e-05 -1.4891805e-05 -1.4035989e-05 4.2328375e-06 -2.8987533e-06
3.8375703e-05 3.9583716e-05 2.520683e-05 6.0051774e-05 -7.095291e-06 -7.891277e-06 -1.2128715e-05 -1.8061426e-05
7.811722e-06 6.971018e-06 -6.5032773e-06 -1.0617449e-05 0.0 0.0 0.0 0.0
2.1879845e-05 2.2612056e-05 4.0694404e-06 2.2159442e-05 1.2482509e-05 1.2897834e-05 1.1801998e-05 2.3429762e-05
-2.2259142e-05 -2.4003339e-05 -1.845637e-05 -4.8500842e-05 6e-45 2.920611e-10 4.976606e-10 1.5073345e-10
-2.2109229e-05 -2.3023998e-05 -8.367668e-07 -1.867881e-05 -4.786557e-07 -2.0951737e-07 -3.4573932e-07 -2.0391059e-07
0.0 0.0 0.0 0.0 -5.5686373e-06 -7.0709843e-06 -7.2148678e-06 -1.4750254e-05
-1.5086526e-05 -1.570866e-05 -1.0356803e-05 -2.1394599e-05 2.1098504e-05 2.0880934e-05 3.4542381e-06 1.3031316e-05
-6.360338e-05 -6.55279e-05 -3.528011e-05 -9.2411516e-05 -1.2174955e-07 -1.2942745e-07 1.5552938e-08 2.2331085e-08
0.0 0.0 0.0 0.0 5.8044648e-06 6.3754674e-06 5.426424e-07 5.898891e-07
2.2094426e-05 2.2343458e-05 1.2350042e-05 2.8864592e-05 -2.0992624e-05 -2.2652226e-05 -1.884417e-05 -4.195621e-05
7.130838e-05 7.422423e-05 2.5575695e-05 8.433508e-05 -2.0007921e-05 -2.1446836e-05 -7.883494e-06 -2.9165392e-05
7.4055784e-08 -8.063129e-09 6.769959e-08 4.3409504e-08 -2.8609864e-05 -3.0192814e-05 -2.8975252e-05 -6.0179827e-05
-4.2876265e-05 -4.5553443e-05 -1.891051e-05 -6.849312e-05 0.0 0.0 0.0 0.0
0.0 0.0 0.0 0.0 -2.4112376e-05 -2.5114821e-05 -1.2301302e-05 -3.1254334e-05
00000000: b658 8437 1251 8737 d162 2337 0431 e137
00000010: 9e08 a338 c5fb aa38 3185 2a38 2359 e738
00000020: 0000 0000 0000 0000 0000 0000 0000 0000
00000030: c646 4b38 ee89 6638 60cc 3f38 73d2 ba38
00000040: 5f34 9138 d233 9838 7262 a037 e9b6 a638
00000050: cc78 8e37 202f 9437 58d0 1f37 3045 a737
00000060: b2d2 9db6 ba8c b7b6 d4cb 0bb7 7d42 98b7
00000070: 1e28 ae37 98db ab37 5371 0d37 eb2f 9437
00000080: 0000 0000 7ae5 1eb4 f75c 15b4 2fdc 18b4
00000090: 639d 7838 1af6 8138 b34e c737 f87b 9738
000000a0: ec1d ef36 26e3 0337 a353 2cb5 552e ac36
000000b0: 2805 9eb7 4a7d a7b7 8ca1 b5b6 36b0 dbb7
000000c0: 0000 0000 cf59 0fb4 0927 e4b3 f81f f2b3
000000d0: 0000 0000 78a1 a92f 9eab d72f c3f8 3630
000000e0: 0000 0000 0000 0000 0000 0000 0000 0000
000000f0: 427e ed37 ee64 fb37 ff98 b337 27c9 2c38
00000100: 7553 fcb6 5a5f 15b7 bf73 1ab7 a75e b8b7
00000110: d0e6 1938 a848 1e38 1e45 c037 0047 5438
00000120: 96e3 3eb7 7242 49b7 21a0 5bb7 e571 0ab8
00000130: c782 2db7 e4c8 3fb7 9361 eeb5 7a7d 3fb7
00000140: cc88 6f38 48cf 7838 1f7b 0538 3621 ab38
00000150: 1271 ad35 41b4 8635 8d6d 8335 79d9 8d35
00000160: 0000 0000 c123 3cb4 0b1a 03b3 ef86 3bb4
00000170: ba44 b238 761a ba38 df90 8a37 15c8 b338
00000180: 0000 0000 22c1 5932 9813 f22f 39c7 a630
00000190: 9cd2 b238 039e ba38 29a8 fa37 aa6d d938
000001a0: 0000 0000 0000 0000 0000 0000 0000 0000
000001b0: 0000 0000 358e cdb4 791d 20b4 7851 c7b4
000001c0: bb49 d8b5 fb78 eeb5 268c a9b5 4db3 67b6
000001d0: 0000 0000 0000 0000 0000 0000 0000 0000
000001e0: 03c2 a737 bf57 a837 c4fb abb5 7508 1f37
000001f0: 962a 43b8 0ff0 4eb8 e5a9 ecb7 18f0 9bb8
00000200: f3c4 8e37 e2eb 9037 2d94 0935 6909 5737
00000210: a5e5 e3b2 d048 1eb2 fff7 fab2 7791 c2b1
00000220: a6be 3038 45a4 3c38 aa29 ed37 2f06 8f38
00000230: d1d7 79b7 1d7c 6bb7 cc07 8e36 3488 42b6
00000240: 99f5 2038 b106 2638 4173 d337 1ae0 7b38
00000250: 1614 eeb6 c764 04b7 6f7c 4bb7 9e82 97b7
00000260: 170f 0337 97e8 e936 ba36 dab6 9921 32b7
00000270: 0000 0000 0000 0000 0000 0000 0000 0000
00000280: 9c8a b737 05af bd37 3a8c 8836 0ae3 b937
00000290: f86b 5137 c663 5837 3201 4637 088b c437
000002a0: 25b9 bab7 c75a c9b7 c1d2 9ab7 626d 4bb8
000002b0: 0400 0000 f28f a02f c0cb 0830 b2bb 252f
000002c0: 3577 b9b7 a923 c1b7 2d9e 60b5 70b0 9cb7
000002d0: f87c 00b5 b2f7 60b4 0d9e b9b4 84f2 5ab4
000002e0: 0000 0000 0000 0000 0000 0000 0000 0000
000002f0: 3bda bab6 4b43 edb6 3e17 f2b6 dc77 77b7
00000300: 231c 7db7 17c6 83b7 21c2 2db7 8d78 b3b7
00000310: b1fc b037 7729 af37 5ccf 6736 13a1 5a37
00000320: ce62 85b8 066c 89b8 bbf9 13b8 0ecd c1b8
00000330: 43ba 02b4 bff8 0ab4 4699 8532 93d2 bf32
00000340: 0000 0000 0000 0000 0000 0000 0000 0000
00000350: f9c3 c236 d9ec d536 1aaa 1135 df58 1e35
00000360: 6b57 b937 366e bb37 0733 4f37 3d22 f237
00000370: 5119 b0b7 4905 beb7 8c13 9eb7 23fa 2fb8
00000380: 658b 9538 d4a8 9b38 638b d637 0ddd b038
00000390: afd6 a7b7 bbe8 b3b7 5943 04b7 34a8 f4b7
000003a0: 9908 9f33 0486 0ab2 3e62 9133 4171 3a33
000003b0: 37ff efb7 9346 fdb7 e10f f3b7 9969 7cb8
000003c0: 0ad6 33b8 a310 3fb8 03a2 9eb7 f7a3 8fb8
000003d0: 0000 0000 0000 0000 0000 0000 0000 0000
000003e0: 0000 0000 0000 0000 0000 0000 0000 0000
000003f0: ef44 cab7 abad d2b7 b161 4eb7 1617 03b8

exp_avg_sq f4 [64, 4]
3.614965e-09 1.6980678e-09 1.4198123e-09 2.3092714e-09 3.2861468e-07 1.32669e-07 1.2426246e-07 1.7914611e-07
0.0 0.0 0.0 0.0 4.7069767e-07 1.8969017e-07 1.7359505e-07 2.549551e-07
1.09074946e-07 4.3486505e-08 2.8900882e-08 5.483726e-08 3.0453284e-09 1.7993531e-09 1.2426229e-09 2.2080162e-09
1.5748912e-08 8.2744585e-09 6.2281877e-09 1.0179015e-08 8.978483e-09 4.8905084e-09 3.3108052e-09 4.9551834e-09
0.0 1.3134832e-08 5.463577e-09 1.3448319e-08 1.9024114e-07 5.5222955e-08 6.336143e-08 7.8133496e-08
7.1642225e-10 1.1373627e-08 4.4580655e-09 1.1462206e-08 2.1684256e-08 7.984413e-09 8.50762e-09 1.0770909e-08
0.0 8.076805e-09 3.1657625e-09 8.803056e-09 0.0 1.8483557e-11 5.09879e-10 1.6481053e-10
0.0 0.0 0.0 0.0 5.3729497e-08 2.140467e-08 1.9031868e-08 2.9377443e-08
5.0152437e-08 1.9606547e-08 1.7679609e-08 2.6047434e-08 3.0053243e-08 1.1457774e-08 1.1304336e-08 1.7326052e-08
7.3191266e-08 3.4194866e-08 1.6769576e-08 3.8702474e-08 1.798143e-08 5.9227423e-09 6.8485853e-09 7.859815e-09
1.4799777e-07 4.2593673e-08 4.65234e-08 6.243778e-08 6.492638e-09 4.3933884e-10 5.203137e-09 1.8059062e-09
0.0 5.1866262e-09 3.4057852e-09 5.1877596e-09 1.9537171e-07 7.41852e-08 7.309934e-08 9.767995e-08
0.0 2.1499866e-11 7.1645093e-13 1.0071846e-13 2.4793871e-07 9.353105e-08 9.310582e-08 1.281309e-07
0.0 0.0 0.0 0.0 0.0 1.939371e-08 1.0318173e-08 2.0904874e-08
3.311457e-09 1.5920877e-09 1.1519324e-09 1.7787288e-09 0.0 0.0 0.0 0.0
8.165967e-09 4.7718314e-09 2.4122087e-09 4.926604e-09 2.0318348e-07 8.265617e-08 7.4700615e-08 1.09814316e-07
2.0106927e-09 9.671322e-10 6.0111466e-10 9.757937e-10 1.1639178e-11 2.2213003e-13 9.175084e-12 5.914249e-13
1.18944655e-07 5.197048e-08 4.4673044e-08 6.904907e-08 2.3213403e-08 1.15533565e-08 7.583648e-09 1.3160807e-08
6.2065155e-08 2.930483e-08 2.3784487e-08 3.8341238e-08 1.967166e-08 7.715299e-09 6.8298096e-09 1.0357279e-08
4.3187388e-08 1.435278e-08 1.1405365e-08 1.793917e-08 0.0 0.0 0.0 0.0
6.0143592e-09 1.9828925e-09 2.1279414e-09 2.8761606e-09 7.0897284e-09 3.6443228e-09 2.8077134e-09 4.8325814e-09
1.1507895e-07 5.251836e-08 4.358605e-08 6.592304e-08 1.1842998e-18 2.3488546e-11 1.2847959e-10 4.39799e-11
2.2237144e-08 8.5189855e-09 8.492366e-09 1.0334529e-08 6.5359926e-09 5.041456e-10 6.139293e-09 2.0718613e-09
0.0 0.0 0.0 0.0 3.869447e-08 1.7163902e-08 1.429717e-08 2.1481481e-08
2.1622246e-09 1.4941726e-09 2.8090377e-10 1.593725e-09 2.460822e-08 1.00636415e-08 8.299472e-09 1.1940475e-08
2.5146386e-07 7.420881e-08 8.091782e-08 1.0604592e-07 3.0219047e-09 4.3501595e-11 8.630763e-10 7.290561e-10
0.0 0.0 0.0 0.0 1.8731648e-10 7.094479e-09 4.162908e-09 7.391295e-09
2.1321342e-09 1.1522807e-09 1.1954638e-09 1.6622345e-09 7.757532e-08 3.242195e-08 2.707386e-08 4.255768e-08
3.5557626e-08 3.353908e-08 1.2534481e-08 3.6308897e-08 4.7856147e-08 1.94967e-08 1.6943044e-08 2.5059745e-08
5.632042e-10 8.322504e-10 8.8836527e-10 1.1056264e-09 2.1845459e-07 9.9004836e-08 7.8359626e-08 1.2315621e-07
1.7989318e-07 7.4958606e-08 6.974264e-08 9.807378e-08 0.0 0.0 0.0 0.0
0.0 0.0 0.0 0.0 1.2784821e-08 5.2308367e-09 4.8230895e-09 7.1864585e-09
00000000: 236b 7831 7361 e930 3423 c330 22b1 1e31
00000010: 756c b034 c773 0e34 016d 0534 4f5b 4034
00000020: 0000 0000 0000 0000 0000 0000 0000 0000
00000030: 32b4 fc34 a3ad 4b34 7265 3a34 c3e0 8834
00000040: 963c ea33 ebc5 3a33 b641 f832 3486 6b33
00000050: fc45 5131 1c4d f730 e8c8 aa30 d5bb 1731
00000060: 3948 8732 7427 0e32 b8ff d531 c8df 2e32
00000070: c93f 1a32 5e09 a831 4d84 6331 4142 aa31
00000080: 0000 0000 9aa7 6132 22ba bb31 550a 6732
00000090: 1645 4c34 482e 6d33 5111 8833 58ca a733
000000a0: bced 4430 be65 4332 8f2d 9931 51eb 4432
000000b0: 2f44 ba32 d22b 0932 e928 1232 f50a 3932
000000c0: 0000 0000 2ac2 0a32 af8c 5931 403c 1732
000000d0: 0000 0000 4595 a22d 8b27 0c30 0a36 352f
000000e0: 0000 0000 0000 0000 0000 0000 0000 0000
000000f0: 35c4 6633 5edd b732 857b a332 ae59 fc32
00000100: 3067 5733 416b a832 dfdd 9732 eabe df32
00000110: e413 0133 d3d7 4432 ff34 4232 64d4 9432
00000120: 532d 9d33 a7dd 1233 b00c 9032 d239 2633
00000130: 9575 9a32 fe80 cb31 cb50 eb31 d507 0732
00000140: 51e9 1e34 3df0 3633 05d1 4733 8815 8633
00000150: d915 df31 7287 f12f 47c7 b231 ad33 f830
00000160: 0000 0000 0c36 b231 350b 6a31 0440 b231
00000170: 5ec7 5134 bf4f 9f33 cafa 9c33 1fc4 d133
00000180: 0000 0000 651d bd2d bba9 492b 3dcc e229
00000190: 701c 8534 3ddb c833 77f1 c733 5b94 0934
000001a0: 0000 0000 0000 0000 0000 0000 0000 0000
000001b0: 0000 0000 3897 a632 ce43 3132 4e92 b332
000001c0: c58f 6331 9bd0 da30 0552 9e30 7577 f430
000001d0: 0000 0000 0000 0000 0000 0000 0000 0000
000001e0: 4d4a 0c32 79f5 a331 06c4 2531 de46 a931
000001f0: a62a 5a34 b680 b133 196b a033 0fd3 eb33
00000200: 7b2c 0a31 f0eb 8430 af3b 2530 b01c 8630
00000210: 33c2 4c2d 9f18 7a2a e868 212d a878 262b
00000220: 846e ff33 2636 5f33 88de 3f33 2148 9433
00000230: d066 c732 337c 4632 3d49 0232 d719 6232
00000240: ae48 8533 01ba fb32 a44e cc32 a3ac 2433
00000250: 70fa a832 3e8c 0432 a4ab ea31 cbef 3132
00000260: 097d 3933 3294 7632 53f1 4332 a718 9a32
00000270: 0000 0000 0000 0000 0000 0000 0000 0000
00000280: dda6 ce31 6a43 0831 243b 1231 f4a5 4531
00000290: e999 f331 9b6f 7a31 d1f1 4031 d60b a631
000002a0: 5221 f733 8c90 6133 5e33 3b33 9391 8d33
000002b0: 95c5 ae21 819b ce2d ca43 0d2f f76c 412e
000002c0: ff03 bf32 e55a 1232 d2e5 1132 bd8b 3132
000002d0: 3393 e031 1894 0a30 cbf1 d231 9260 0e31
000002e0: 0000 0000 0000 0000 0000 0000 0000 0000
000002f0: 0531 2633 d26f 9332 9e9f 7532 4786 b832
00000300: 4296 1431 865b cd30 b16d 9a2f 370a db30
00000310: 0c62 d332 5de4 2c32 7795 0e32 c422 4d32
00000320: ee00 8734 ba5c 9f33 0bc5 ad33 5cbb e333
00000330: e9a9 4f31 7152 3f2e 983d 6d30 c366 4830
00000340: 0000 0000 0000 0000 0000 0000 0000 0000
00000350: e7f4 4d2f b2c3 f331 5309 8f31 85f6 fd31
00000360: e784 1231 465e 9e30 a54d a430 ad74 e430
00000370: 7c97 a633 5040 0b33 0c90 e832 aac8 3633
00000380: 06b8 1833 9c0c 1033 3b57 5732 0ef2 1b33
00000390: 648a 4d33 b279 a732 268a 9132 f642 d732
000003a0: f9cf 1a30 6ac4 6430 2631 7430 c5f4 9730
000003b0: 5790 6a34 7c9c d433 a946 a833 ec3c 0434
000003c0: a928 4134 eef8 a033 6cc5 9533 a19c d233
000003d0: 0000 0000 0000 0000 0000 0000 0000 0000
000003e0: 0000 0000 0000 0000 0000 0000 0000 0000
000003f0: 3da4 5b32 edba b331 58b8 a531 c2ec f631

exp_avg f4 [64]
1.583425e-05 7.816339e-05 0.0 4.894178e-05 6.953389e-05 1.7083872e-05 -4.8043994e-06 2.0759991e-05
-1.521693e-07 5.929294e-05 7.015513e-06 -1.8931596e-05 -1.3697603e-07 1.1288716e-09 0.0 2.8435035e-05
-7.653628e-06 3.680774e-05 -1.1253701e-05 -1.0388042e-05 5.713135e-05 1.2941179e-06 -1.7942483e-07 8.5289386e-05
1.2396493e-08 8.563978e-05 0.0 -3.8767712e-07 -1.6112612e-06 0.0 1.9967387e-05 -4.6800404e-05
1.7054766e-05 -2.6493941e-08 4.2385356e-05 -1.4823608e-05 3.86036e-05 -7.1134514e-06 7.811708e-06 0.0
2.1940281e-05 1.2553114e-05 -2.2516146e-05 7.7461293e-10 -2.2140035e-05 -4.8026857e-07 0.0 -5.6493677e-06
-1.5086498e-05 2.1124417e-05 -6.36035e-05 -1.217496e-07 0.0 5.9434446e-06 2.2175942e-05 -2.1152946e-05
7.155666e-05 -2.0101092e-05 6.785041e-08 -2.888018e-05 -4.3282034e-05 0.0 0.0 -2.4225417e-05
00000000: cbd3 8437 a7eb a338 0000 0000 d646 4d38
00000010: b9d2 9138 564f 8f37 7a35 a1b6 be25 ae37
00000020: fb63 23b4 4fb1 7838 cc66 eb36 4bcf 9eb7
00000030: af13 13b4 a326 9b30 0000 0000 c687 ee37
00000040: 1568 00b7 0362 1a38 47ce 3cb7 4d48 2eb7
00000050: 52a0 6f38 8db1 ad35 eca7 40b4 64dd b238
00000060: 5af8 5432 8299 b338 0000 0000 f021 d0b4
00000070: 8342 d8b5 0000 0000 a37f a737 8d4b 44b8
00000080: d510 8f37 cb94 e3b2 eec6 3138 e9b2 78b7
00000090: 4dea 2138 15b0 eeb6 080f 0337 0000 0000
000000a0: 650c b837 379b 5237 0ee1 bcb7 8aec 5430
000000b0: 5db9 b9b7 ceeb 00b5 0000 0000 b38f bdb6
000000c0: 041c 7db7 5734 b137 de62 85b8 46ba 02b4
000000d0: 0000 0000 cd6d c736 7906 ba37 9b71 b1b7
000000e0: b010 9638 c49e a8b7 28b5 9133 b743 f2b7
000000f0: bb89 35b8 0000 0000 0000 0000 b037 cbb7

exp_avg_sq f4 [64]
4.82873e-09 3.9890716e-07 0.0 5.7805687e-07 1.1478643e-07 4.232203e-09 2.1402343e-08 1.15566525e-08
2.5903992e-08 1.9050128e-07 2.1320197e-08 2.4728486e-08 1.681564e-08 1.1118114e-09 0.0 6.688645e-08
6.057233e-08 3.9123567e-08 7.46869e-08 2.0676978e-08 1.4570634e-07 7.095453e-09 1.0613371e-08 2.2711143e-07
2.8443338e-11 2.8981052e-07 0.0 3.8147565e-08 4.1321537e-09 0.0 1.210696e-08 2.4889314e-07
2.4047626e-09 1.4581511e-11 1.5027804e-07 3.0596585e-08 8.252987e-08 2.3874522e-08 4.3187384e-08 0.0
6.7319115e-09 1.0612457e-08 1.4436459e-07 2.1874379e-10 2.5737357e-08 9.570653e-09 0.0 4.875736e-08
2.162224e-09 2.955742e-08 2.5146392e-07 3.0219065e-09 0.0 1.4779876e-08 3.744021e-09 9.363194e-08
5.5196427e-08 5.5502305e-08 2.4997517e-09 2.7376032e-07 2.1938942e-07 0.0 0.0 1.5283712e-08
00000000: f5e9 a531 6229 d634 0000 0000 c42b 1b35
00000010: 8280 f633 da6a 9131 40d8 b732 b28a 4632
00000020: 7b83 de32 988c 4c34 9c23 b732 846a d432
00000030: fc71 9032 63ce 9830 0000 0000 37a3 8f33
00000040: fe13 8233 d108 2833 8f63 a033 289d b132
00000050: 7473 1c34 44cc f331 1956 3632 eadb 7334
00000060: b430 fa2d 4197 9b34 0000 0000 b1d7 2333
00000070: cffa 8d31 0000 0000 f9fe 4f32 9d9f 8534
00000080: 0841 2531 a542 802d 1d5c 2134 4d69 0333
00000090: 473b b133 a114 cd32 087d 3933 0000 0000
000000a0: 854e e731 1452 3632 a302 1b34 e782 702f
000000b0: 0c15 dd32 2d6c 2432 0000 0000 4969 5133
000000c0: 3f96 1431 74e5 fd32 f000 8734 f1a9 4f31
000000d0: 0000 0000 95ea 7d32 c2a4 8031 b412 c933
000000e0: 1d11 6d33 6e61 6e33 19c8 2b31 55f9 9234
000000f0: 4e91 6b34 0000 0000 0000 0000 3d49 8332

exp_avg f4 [128, 64]
-3.5760836e-06 -3.6518609e-06 0.0 -1.276231e-06 -1.7016648e-06 -9.650736e-07 -1.7439593e-06 -2.164769e-06
-2.2179367e-09 -2.1046087e-06 -5.6506715e-09 3.5171548e-09 -3.3724183e-09 0.0 0.0 -9.244535e-07
-2.027652e-06 -6.8373464e-07 -4.6430557e-08 -1.9491883e-06 -1.8614921e-06 -6e-45 3.7008978e-09 -1.2047466e-06
-8.858974e-10 -1.2087971e-06 0.0 1.5069926e-09 -2.1837482e-06 0.0 -1.714752e-06 -4.371194e-07
-2.1498592e-07 0.0 -1.4753164e-06 -2.8182799e-06 -1.965668e-06 -5.167996e-08 -1.1539213e-07 0.0
-2.0005393e-06 -8.4738497e-07 1.2352903e-09 -6e-45 -1.8563501e-06 1.9147528e-10 0.0 -3.2020262e-06
-9.0339675e-08 -2.1161204e-06 0.0 1.6044145e-09 0.0 -2.1013298e-07 -1.560671e-06 -3.2321875e-08
-1.2886183e-06 -1.2192108e-06 2.1997077e-09 -1.0217619e-09 3.2884715e-09 0.0 0.0 7.743577e-09
0.0 0.0 0.0 0.0 0.0 0.0 0.0 0.0
0.0 0.0 0.0 0.0 0.0 0.0 0.0 0.0
0.0 0.0 0.0 0.0 0.0 0.0 0.0 0.0
0.0 0.0 0.0 0.0 0.0 0.0 0.0 0.0
0.0 0.0 0.0 0.0 0.0 0.0 0.0 0.0
0.0 0.0 0.0 0.0 0.0 0.0 0.0 0.0
0.0 0.0 0.0 0.0 0.0 0.0 0.0 0.0
0.0 0.0 0.0 0.0 0.0 0.0 0.0 0.0
-7.893757e-07 -3.0760311e-06 0.0 -1.2183406e-06 -1.5427366e-06 -3.1356127e-08 4.4735313e-07 7.809573e-07
-9.2208696e-10 -2.7052654e-06 5.3892685e-10 1.168496e-06 -2.2787687e-09 9.918403e-12 0.0 1.4989052e-07
8.3293673e-07 5.4475958e-08 9.592836e-07 1.1274482e-06 -9.485479e-07 -3.5164953e-09 1.2314558e-08 -1.43635e-06
-1.7737234e-10 -1.6518068e-06 0.0 8.688962e-09 8.6542315e-07 0.0 -4.252348e-07 1.5289298e-06
3.56417e-07 -5.790113e-10 -6.1092163e-07 -6.266235e-07 -8.538961e-07 6.9341417e-07 1.2204801e-07 0.0
-4.253278e-07 5.6988483e-07 1.6063942e-06 -1.0841796e-10 1.6912362e-06 8.037454e-09 0.0 -6.961776e-09
3.3897564e-07 3.0371993e-07 6.334853e-07 2.434599e-09 0.0 -6.0546097e-09 5.419653e-07 8.7554656e-07
-1.0647176e-06 8.598253e-07 1.0405125e-08 7.266727e-07 2.1006501e-06 0.0 0.0 1.6296357e-06
0.0 0.0 0.0 0.0 0.0 0.0 0.0 0.0
0.0 0.0 0.0 0.0 0.0 0.0 0.0 0.0
0.0 0.0 0.0 0.0 0.0 0.0 0.0 0.0
0.0 0.0 0.0 0.0 0.0 0.0 0.0 0.0
0.0 0.0 0.0 0.0 0.0 0.0 0.0 0.0
0.0 0.0 0.0 0.0 0.0 0.0 0.0 0.0
0.0 0.0 0.0 0.0 0.0 0.0 0.0 0.0
0.0 0.0 0.0 0.0 0.0 0.0 0.0 0.0
00000000: a6fc 6fb6 7e12 75b6 0000 0000 f74a abb5
00000010: c264 e4b5 ad87 81b5 fc11 eab5 7346 11b6
00000020: 5b6a 18b1 e73c 0db6 d527 c2b1 71b2 7131
00000030: 36c0 67b1 0000 0000 0000 0000 f627 78b5
00000040: cc12 08b6 e389 37b5 f06a 47b3 cdce 02b6
00000050: 62d8 f9b5 0400 0080 e252 7e31 c7b2 a1b5
00000060: 7d83 73b0 f43d a2b5 0000 0000 971e cf30
00000070: 828c 12b6 0000 0000 6e26 e6b5 3cad eab4
00000080: e1d6 66b4 0000 0000 7c03 c6b5 ae21 3db6
00000090: ebe9 03b6 b8f6 5db3 7fcd f7b3 0000 0000
000000a0: 0141 06b6 da77 63b5 eac6 a930 0400 0080
000000b0: b427 f9b5 8087 522f 0000 0000 64e2 56b6
000000c0: c300 c2b3 ac02 0eb6 0000 0000 5182 dc30
000000d0: 0000 0000 eaa0 61b4 3f78 d1b5 47d2 0ab3
000000e0: 96f4 acb5 c4a3 a3b5 ab29 1731 0d6e 8cb0
000000f0: 67fb 6131 0000 0000 0000 0000 9d08 0532
00000100: 0000 0000 0000 0000 0000 0000 0000 0000
00000110: 0000 0000 0000 0000 0000 0000 0000 0000
00000120: 0000 0000 0000 0000 0000 0000 0000 0000
00000130: 0000 0000 0000 0000 0000 0000 0000 0000
00000140: 0000 0000 0000 0000 0000 0000 0000 0000
00000150: 0000 0000 0000 0000 0000 0000 0000 0000
00000160: 0000 0000 0000 0000 0000 0000 0000 0000
00000170: 0000 0000 0000 0000 0000 0000 0000 0000
00000180: 0000 0000 0000 0000 0000 0000 0000 0000
00000190: 0000 0000 0000 0000 0000 0000 0000 0000
000001a0: 0000 0000 0000 0000 0000 0000 0000 0000
000001b0: 0000 0000 0000 0000 0000 0000 0000 0000
000001c0: 0000 0000 0000 0000 0000 0000 0000 0000
000001d0: 0000 0000 0000 0000 0000 0000 0000 0000
000001e0: 0000 0000 0000 0000 0000 0000 0000 0000
000001f0: 0000 0000 0000 0000 0000 0000 0000 0000
00000200: 7ce5 53b5 d06d 4eb6 0000 0000 dd85 a3b5
00000210: 0710 cfb5 6dac 06b3 bf2b f034 faa2 5135
00000220: 1a76 7db0 1b8c 35b6 9b23 1430 38d5 9c35
00000230: 8698 1cb1 847c 2e2d 0000 0000 98f1 2034
00000240: fa96 5f35 f3f8 6933 bcc0 8035 d352 9735
00000250: b79f 7eb5 d7a6 71b1 0090 5332 9cc8 c0b5
00000260: e005 43af a6b3 ddb5 0000 0000 7646 1532
00000270: 6d4f 6835 0000 0000 d34b e4b4 a135 cd35
00000280: 9459 bf34 4c28 1fb0 37fe 23b5 3d35 28b5
00000290: 4b37 65b5 0f23 3a35 4d0c 0334 0000 0000
000002a0: 9c58 e4b4 30fa 1835 499b d735 e369 eeae
000002b0: 6ffe e235 1915 0a32 0000 0000 6e34 efb1
000002c0: 75fc b534 f30e a334 c70c 2a35 eb4d 2731
000002d0: 0000 0000 e908 d0b1 927b 1135 1a07 6b35
000002e0: 6be7 8eb5 bfce 6635 39c2 3232 9110 4335
000002f0: e5f8 0c36 0000 0000 0000 0000 dbb9 da35
00000300: 0000 0000 0000 0000 0000 0000 0000 0000
00000310: 0000 0000 0000 0000 0000 0000 0000 0000
00000320: 0000 0000 0000 0000 0000 0000 0000 0000
00000330: 0000 0000 0000 0000 0000 0000 0000 0000
00000340: 0000 0000 0000 0000 0000 0000 0000 0000
00000350: 0000 0000 0000 0000 0000 0000 0000 0000
00000360: 0000 0000 0000 0000 0000 0000 0000 0000
00000370: 0000 0000 0000 0000 0000 0000 0000 0000
00000380: 0000 0000 0000 0000 0000 0000 0000 0000
00000390: 0000 0000 0000 0000 0000 0000 0000 0000
000003a0: 0000 0000 0000 0000 0000 0000 0000 0000
000003b0: 0000 0000 0000 0000 0000 0000 0000 0000
000003c0: 0000 0000 0000 0000 0000 0000 0000 0000
000003d0: 0000 0000 0000 0000 0000 0000 0000 0000
000003e0: 0000 0000 0000 0000 0000 0000 0000 0000
000003f0: 0000 0000 0000 0000 0000 0000 0000 0000

exp_avg_sq f4 [128, 64]
7.1695004e-11 2.4449644e-11 0.0 7.556849e-12 3.8852016e-12 4.24909e-11 2.761831e-11 7.814875e-11
3.3270472e-12 4.6493885e-12 1.3088944e-11 2.605349e-12 4.964412e-12 0.0 0.0 1.4756604e-11
5.664019e-11 1.4394324e-11 3.265933e-14 4.375371e-11 3.1818142e-12 3.5409687e-22 1.3042888e-12 4.34344e-12
4.500277e-14 9.006829e-12 0.0 1.0346731e-12 3.1353455e-11 0.0 3.6901402e-11 4.0583773e-12
2.4497763e-11 0.0 1.12637e-11 2.5625679e-11 2.301772e-11 6.0553377e-15 2.1462692e-14 0.0
3.184903e-11 1.6598492e-11 1.9044826e-11 7.922465e-25 9.102309e-11 1.7049382e-14 0.0 4.7520536e-11
9.105454e-15 4.954604e-11 0.0 1.3123805e-16 0.0 3.016632e-12 7.683494e-11 4.3208683e-12
1.4403706e-11 3.832331e-12 4.161459e-13 4.7696964e-12 2.4307641e-12 0.0 0.0 9.599788e-12
0.0 0.0 0.0 0.0 0.0 0.0 0.0 0.0
0.0 0.0 0.0 0.0 0.0 0.0 0.0 0.0
0.0 0.0 0.0 0.0 0.0 0.0 0.0 0.0
0.0 0.0 0.0 0.0 0.0 0.0 0.0 0.0
0.0 0.0 0.0 0.0 0.0 0.0 0.0 0.0
0.0 0.0 0.0 0.0 0.0 0.0 0.0 0.0
0.0 0.0 0.0 0.0 0.0 0.0 0.0 0.0
0.0 0.0 0.0 0.0 0.0 0.0 0.0 0.0
3.323172e-09 7.038831e-10 0.0 1.6059912e-10 7.266194e-11 7.371172e-10 2.6353848e-09 2.0214148e-09
4.21953e-11 3.9587844e-10 1.1858133e-10 3.042543e-10 6.39543e-11 2.6562254e-13 0.0 4.585081e-10
3.3914733e-09 2.0608953e-10 2.6153331e-11 4.0652743e-09 2.8347502e-10 1.1656829e-12 1.9075736e-11 7.4311536e-11
1.3241433e-15 1.7334852e-10 0.0 1.1816537e-11 4.781498e-09 0.0 8.9148183e-10 9.943845e-10
3.8337444e-10 3.1675134e-15 1.2991491e-10 3.4382295e-09 1.0565357e-09 2.3644534e-10 8.166034e-11 0.0
1.0124125e-09 4.2946846e-10 2.648463e-10 5.9969907e-12 2.4567919e-09 5.6528194e-12 0.0 2.0427922e-09
4.381755e-12 2.5121705e-09 2.6457368e-11 4.3707017e-13 0.0 1.9250546e-11 1.3136016e-09 5.7127314e-10
9.524181e-11 7.473553e-10 3.993076e-11 1.0740993e-10 5.4340177e-10 0.0 0.0 1.4538866e-09
0.0 0.0 0.0 0.0 0.0 0.0 0.0 0.0
0.0 0.0 0.0 0.0 0.0 0.0 0.0 0.0
0.0 0.0 0.0 0.0 0.0 0.0 0.0 0.0
0.0 0.0 0.0 0.0 0.0 0.0 0.0 0.0
0.0 0.0 0.0 0.0 0.0 0.0 0.0 0.0
0.0 0.0 0.0 0.0 0.0 0.0 0.0 0.0
0.0 0.0 0.0 0.0 0.0 0.0 0.0 0.0
0.0 0.0 0.0 0.0 0.0 0.0 0.0 0.0
00000000: b3a8 9d2e b40f d72d 0000 0000 06f1 042d
00000010: c9b2 882c 80e0 3a2e e8ee f22d d6d9 ab2e
00000020: c11e 6a2c f895 a32c 5d43 662d cc55 372c
00000030: 73ab ae2c 0000 0000 0000 0000 ebcc 812d
00000040: 2f1b 792e 463a 7d2d a515 1329 4c6e 402e
00000050: 78e6 5f2c d609 d61b f58f b72b 3bd2 982c
00000060: a9ac 4a29 2773 1e2d 0000 0000 079e 912b
00000070: dae4 092e 0000 0000 494b 222e 9dca 8e2c
00000080: 0f7c d72d 0000 0000 3227 462d e667 e12d
00000090: 4c77 ca2d a22a da27 9951 c128 0000 0000
000000a0: d212 0c2e 7b00 922d 2385 a72d 3c30 7517
000000b0: 7229 c82e 3391 9928 0000 0000 5eff 502e
000000c0: 7f07 2428 e2e7 592e 0000 0000 a34e 1725
000000d0: 0000 0000 d046 542c 3af6 a82e ec06 982c
000000e0: 8664 7d2d 92d6 862c f244 ea2a 9bd1 a72c
000000f0: c10c 2b2c 0000 0000 0000 0000 9ae1 282d
00000100: 0000 0000 0000 0000 0000 0000 0000 0000
00000110: 0000 0000 0000 0000 0000 0000 0000 0000
00000120: 0000 0000 0000 0000 0000 0000 0000 0000
00000130: 0000 0000 0000 0000 0000 0000 0000 0000
00000140: 0000 0000 0000 0000 0000 0000 0000 0000
00000150: 0000 0000 0000 0000 0000 0000 0000 0000
00000160: 0000 0000 0000 0000 0000 0000 0000 0000
00000170: 0000 0000 0000 0000 0000 0000 0000 0000
00000180: 0000 0000 0000 0000 0000 0000 0000 0000
00000190: 0000 0000 0000 0000 0000 0000 0000 0000
000001a0: 0000 0000 0000 0000 0000 0000 0000 0000
000001b0: 0000 0000 0000 0000 0000 0000 0000 0000
000001c0: 0000 0000 0000 0000 0000 0000 0000 0000
000001d0: 0000 0000 0000 0000 0000 0000 0000 0000
000001e0: 0000 0000 0000 0000 0000 0000 0000 0000
000001f0: 0000 0000 0000 0000 0000 0000 0000 0000
00000200: dc5d 6431 5f7b 4130 0000 0000 a294 302f
00000210: 09c9 9f2e 039e 4a30 2e1a 3531 1be9 0a31
00000220: af93 392e f0a2 d92f ad61 022f fc43 a72f
00000230: 12a3 8c2e 3e88 952a 0000 0000 4711 fc2f
00000240: 6e0f 6931 0c99 622f 110c e62d 88ae 8b31
00000250: 90d7 9b2f 270e a42b bdca a72d ad69 a32e
00000260: 44d4 be26 4599 3e2f 0000 0000 f4e0 4f2d
00000270: 804a a431 0000 0000 750c 7530 cbaa 8830
00000280: 28c3 d22f 4f3e 6427 ccd7 0e2f f945 6c31
00000290: 8c35 9130 b9fc 812f af92 b32e 0000 0000
000002a0: 1925 8b30 501a ec2f ce99 912f 1700 d32c
000002b0: 57d4 2831 12e4 c62c 0000 0000 2e61 0c31
000002c0: 572b 9a2c 92a2 2c31 b2b8 e82d 730c f62a
000002d0: 0000 0000 6054 a92d 3f8a b430 c607 1d30
000002e0: 5f70 d12e 746e 4d30 0a9e 2f2e 6a32 ec2e
000002f0: 805e 1530 0000 0000 0000 0000 16d2 c730
00000300: 0000 0000 0000 0000 0000 0000 0000 0000
00000310: 0000 0000 0000 0000 0000 0000 0000 0000
00000320: 0000 0000 0000 0000 0000 0000 0000 0000
00000330: 0000 0000 0000 0000 0000 0000 0000 0000
00000340: 0000 0000 0000 0000 0000 0000 0000 0000
00000350: 0000 0000 0000 0000 0000 0000 0000 0000
00000360: 0000 0000 0000 0000 0000 0000 0000 0000
00000370: 0000 0000 0000 0000 0000 0000 0000 0000
00000380: 0000 0000 0000 0000 0000 0000 0000 0000
00000390: 0000 0000 0000 0000 0000 0000 0000 0000
000003a0: 0000 0000 0000 0000 0000 0000 0000 0000
000003b0: 0000 0000 0000 0000 0000 0000 0000 0000
000003c0: 0000 0000 0000 0000 0000 0000 0000 0000
000003d0: 0000 0000 0000 0000 0000 0000 0000 0000
000003e0: 0000 0000 0000 0000 0000 0000 0000 0000
000003f0: 0000 0000 0000 0000 0000 0000 0000 0000

exp_avg f4 [128]
-3.7417437e-06 0.0 -1.390623e-06 0.0 0.0 3.308596e-05 -1.5377684e-05 -5.1742343e-05
0.0 -8.180751e-06 0.0 0.0 1.8166237e-06 -1.825451e-05 0.0 1.8752798e-05
0.0 -2.8972367e-05 -6.3440825e-06 0.0 -2.6716857e-06 1.967472e-05 9.442115e-06 -3.3394408e-06
6.358989e-05 0.0 -2.3077115e-05 2.2383661e-05 0.0 -1.3130068e-05 0.0 -1.4848618e-05
-6.0107272e-06 1.6602453e-06 -2.966342e-05 2.997017e-05 -5.342908e-06 0.0 -1.3024825e-07 0.0
-6.1027768e-06 0.0 0.0 0.0 2.7761274e-07 -5.2707155e-06 -9.080298e-06 0.0
1.2098204e-08 2.6551168e-05 -1.9403496e-05 -2.7597325e-05 0.0 4.6781588e-05 7.487791e-06 3.0149386e-13
0.0 1.1644021e-05 -2.392411e-05 -1.4992127e-05 5.9187164e-06 1.2184123e-05 -2.6125067e-06 0.0
1.7940752e-06 9.315628e-07 0.0 0.0 9.811584e-06 7.878788e-06 0.0 2.334797e-06
1.6764829e-05 0.0 9.563789e-10 3.375222e-06 -1.1682193e-05 -2.7135404e-05 0.0 1.8038905e-05
0.0 0.0 -4.7130156e-06 -3.3443994e-06 -5.937918e-05 -1.1732039e-05 0.0 0.0
5.236465e-05 -2.1062026e-06 0.0 0.0 0.0 -2.2891676e-05 0.0 1.313763e-05
-1.9494675e-05 0.0 0.0 4.6983707e-05 3.372604e-06 -7.11165e-06 1.10930705e-05 0.0
3.1032507e-06 3.0854717e-05 2.848359e-05 2.7056152e-05 1.50607075e-05 5.173648e-06 7.701106e-06 0.0
0.0 0.0 0.0 6.26777e-05 -1.6736056e-05 1.3338669e-05 0.0 0.0
3.6547404e-05 -5.300017e-07 0.0 1.3939394e-05 0.0 2.906527e-07 6.2065096e-06 0.0
00000000: ab1a 7bb6 0000 0000 71a5 bab5 0000 0000
00000010: 0000 0000 c7c5 0a38 53ff 80b7 eb05 59b8
00000020: 0000 0000 0f40 09b7 0000 0000 0000 0000
00000030: b7d2 f335 4321 99b7 0000 0000 544f 9d37
00000040: 0000 0000 af09 f3b7 41df d4b6 0000 0000
00000050: 364b 33b6 240b a537 9369 1e37 281b 60b6
00000060: 905b 8538 0000 0000 ba95 c1b7 8cc4 bb37
00000070: 0000 0000 3649 5cb7 0000 0000 541e 79b7
00000080: c1af c9b6 98d5 de35 b6d5 f8b7 7368 fb37
00000090: 3b47 b3b6 0000 0000 5eda 0bb4 0000 0000
000000a0: 74c6 ccb6 0000 0000 0000 0000 0000 0000
000000b0: ce0a 9534 1adb b0b6 9557 18b7 0000 0000
000000c0: 77d8 4f32 33ba de37 b1c4 a2b7 ce80 e7b7
000000d0: 0000 0000 5937 4438 a33f fb36 d8b9 a92a
000000e0: 0000 0000 b05a 4337 a3b0 c8b7 b286 7bb7
000000f0: 6399 c636 696a 4c37 8652 2fb6 0000 0000
00000100: f4cb f035 8210 7a35 0000 0000 0000 0000
00000110: 6f9c 2437 232f 0437 0000 0000 82af 1c36
00000120: 32a2 8c37 0000 0000 9771 8330 df81 6236
00000130: a3fe 43b7 d6a0 e3b7 0000 0000 4152 9737
00000140: 0000 0000 0000 0000 7f24 9eb6 5870 60b6
00000150: e90d 79b8 b9d4 44b7 0000 0000 0000 0000
00000160: 1da2 5b38 4958 0db6 0000 0000 0000 0000
00000170: 0000 0000 8007 c0b7 0000 0000 b169 5c37
00000180: 7f88 a3b7 0000 0000 0000 0000 5f10 4538
00000190: e554 6236 9ca0 eeb6 601c 3a37 0000 0000
000001a0: 7141 5036 006a 0138 0bf0 ee37 a5f6 e237
000001b0: 3fad 7c37 4c99 ad36 0034 0137 0000 0000
000001c0: 0000 0000 0000 0000 0000 0000 d571 8338
000001d0: 6864 8cb7 26c9 5f37 0000 0000 0000 0000
000001e0: 7a4a 1938 7145 0eb5 0000 0000 3edd 6937
000001f0: 0000 0000 010b 9c34 8341 d036 0000 0000

exp_avg_sq f4 [128]
1.2758485e-10 0.0 5.200421e-09 0.0 0.0 1.1206073e-08 8.207628e-09 1.6346911e-08
0.0 3.665239e-08 0.0 0.0 1.2309479e-08 1.9462867e-09 0.0 7.040915e-09
0.0 2.088179e-09 3.460899e-09 0.0 2.707118e-09 7.3430577e-09 1.3325133e-08 1.6339249e-09
2.0409198e-08 0.0 4.011189e-09 8.32866e-09 0.0 4.9301767e-09 0.0 1.4225653e-08
6.8213635e-09 2.511193e-10 5.991345e-08 1.8691273e-08 1.3970887e-10 0.0 5.1106483e-08 0.0
3.5833676e-09 0.0 0.0 0.0 3.5810261e-09 5.5754548e-09 1.4681574e-09 0.0
8.6857277e-10 7.299749e-08 2.1170805e-09 1.5644003e-08 0.0 1.4744929e-08 1.3245048e-08 3.143322e-17
0.0 8.700577e-09 8.340426e-09 4.2127205e-08 3.0060303e-09 5.784816e-09 2.134081e-09 0.0
4.9073172e-08 6.4593517e-09 0.0 0.0 6.8447283e-09 9.318822e-09 0.0 1.7671554e-09
1.7289633e-09 0.0 8.889402e-13 1.3275129e-08 5.987681e-10 1.8471342e-08 0.0 5.477456e-09
0.0 0.0 2.4624678e-09 5.5647686e-09 2.5704788e-08 1.7671383e-09 0.0 0.0
2.2138321e-08 1.4587304e-08 0.0 0.0 0.0 6.8207546e-09 0.0 7.481088e-09
2.4149478e-09 0.0 0.0 1.2888009e-07 3.140817e-11 3.244291e-09 1.0972594e-08 0.0
9.117667e-09 4.518626e-08 1.1098821e-08 3.3392138e-09 2.6947617e-08 3.4237264e-08 1.34638585e-08 0.0
0.0 0.0 0.0 1.1929522e-08 1.7345708e-09 4.13618e-08 0.0 0.0
2.374352e-08 1.1151705e-08 0.0 6.788302e-09 0.0 1.2606338e-08 5.7508456e-09 0.0
00000000: f147 0c2f 0000 0000 63af b231 0000 0000
00000010: 0000 0000 d584 4032 8801 0d32 3d6b 8c32
00000020: 0000 0000 bb6b 1d33 0000 0000 0000 0000
00000030: a979 5332 70bf 0531 0000 0000 8bec f131
00000040: 0000 0000 a27f 0f31 c7d4 6d31 0000 0000
00000050: 2008 3a31 384e fc31 8eec 6432 9f90 e030
00000060: 4d50 af32 0000 0000 cbd2 8931 d615 0f32
00000070: 0000 0000 4b66 a931 0000 0000 1565 7432
00000080: 5961 ea31 e60d 8a2f c4a9 8033 8b8e a032
00000090: 8d9c 192f 0000 0000 2c80 5b33 0000 0000
000000a0: 453f 7631 0000 0000 0000 0000 0000 0000
000000b0: 1416 7631 3892 bf31 32c8 c930 0000 0000
000000c0: 60c0 6e30 cbc2 9c33 137c 1131 8761 8632
000000d0: 0000 0000 e250 7d32 568c 6332 ccf5 1024
000000e0: 0000 0000 8b79 1532 9549 0f32 5aef 3433
000000f0: a592 4e31 c8c3 c631 26a7 1231 0000 0000
00000100: 86c4 5233 0ff1 dd31 0000 0000 0000 0000
00000110: de2e eb31 9d18 2032 0000 0000 41e0 f230
00000120: 7da0 ed30 0000 0000 e436 7a2b a310 6432
00000130: 8f96 2430 e9aa 9e32 0000 0000 3634 bc31
00000140: 0000 0000 0000 0000 3138 2931 3934 bf31
00000150: 6dcd dc32 a7df f230 0000 0000 0000 0000
00000160: af2a be32 a49b 7a32 0000 0000 0000 0000
00000170: 0000 0000 fe5b ea31 0000 0000 2c86 0032
00000180: 36f4 2531 0000 0000 0000 0000 4a62 0a34
00000190: 7522 0a2e 2cf2 5e31 fb81 3c32 0000 0000
000001a0: eca3 1c32 d112 4233 22ad 3e32 1278 6531
000001b0: 707a e732 450c 1333 ad4e 6732 0000 0000
000001c0: 0000 0000 0000 0000 0000 0000 98f2 4c32
000001d0: c965 ee30 c8a5 3133 0000 0000 0000 0000
000001e0: 8df4 cb32 b895 3f32 0000 0000 893e e931
000001f0: 0000 0000 4393 5832 f998 c531 0000 0000

exp_avg f4 [128, 128]
1.0600742e-07 0.0 -6.447424e-07 0.0 0.0 -1.0312427e-05 -4.756654e-06 3.7650203e-09
0.0 -6.553783e-06 0.0 0.0 -1.1138745e-05 -4.5347538e-06 0.0 -9.131268e-06
0.0 -2.8376649e-06 -2.9470812e-06 0.0 -1.0189897e-05 -4.9028563e-06 -7.325577e-07 -1.4819077e-05
-1.3148883e-05 0.0 -4.2387633e-08 -6.980857e-06 0.0 -1.7444432e-05 0.0 -8.221797e-07
-1.20951e-06 6.406795e-07 -3.0472245e-06 -3.6074885e-06 1.2332287e-06 0.0 -5.8992478e-06 0.0
-4.1950257e-06 0.0 0.0 0.0 -8.224666e-06 -6.1918365e-07 -1.0873758e-05 0.0
7.296173e-10 -5.905281e-06 -1.0261708e-05 -3.3429401e-07 0.0 -8.551161e-06 -9.39056e-06 -1.3954285e-13
0.0 -9.516003e-06 -6.672139e-07 -8.9475463e-07 -4.912767e-06 -1.463659e-05 -5.86423e-06 0.0
-2.968499e-06 -1.964007e-08 0.0 0.0 -1.1200679e-05 -9.1445845e-06 0.0 -3.8611133e-06
-2.7845126e-06 0.0 -2.9634082e-12 -1.3263701e-05 -7.642506e-06 -2.2937806e-07 0.0 -1.09429775e-05
0.0 0.0 -1.685923e-06 -8.775569e-06 7.7506094e-08 -3.2926928e-06 0.0 0.0
-6.918111e-06 -2.3967464e-06 0.0 0.0 0.0 -9.2041745e-07 0.0 -1.15595985e-05
-4.3789155e-06 0.0 0.0 -4.05236e-06 3.625922e-07 -1.1442464e-05 -6.1166793e-06 0.0
-5.535725e-07 -5.4012226e-06 -4.963462e-06 -4.6383883e-07 -4.07275e-06 1.4431293e-08 3.6651738e-08 0.0
0.0 0.0 0.0 -1.1480357e-05 -6.920221e-06 -3.2951857e-06 0.0 0.0
-7.0008255e-06 -1.2723715e-05 0.0 -8.993156e-06 0.0 -3.0464334e-06 -8.536533e-06 0.0
-1.0898486e-07 0.0 -5.860902e-07 0.0 0.0 -2.4023956e-07 5.783946e-07 -1.3920692e-07
0.0 1.0002145e-06 0.0 0.0 1.9014358e-06 6.195553e-07 0.0 1.2118342e-06
0.0 3.7659515e-07 2.5955618e-08 0.0 4.899039e-08 -5.116764e-07 -3.1518104e-07 1.3329923e-06
-2.2896246e-07 0.0 -1.0533723e-07 7.6322874e-07 0.0 1.8476258e-06 0.0 1.2033175e-07
-2.7984635e-07 -7.2406976e-07 2.3289458e-07 -1.1291513e-06 -1.4903437e-06 0.0 8.826414e-07 0.0
5.1920216e-07 0.0 0.0 0.0 1.0378615e-06 -2.1480814e-07 8.3712973e-07 0.0
-3.634457e-10 -1.7290761e-06 1.2291187e-06 -3.4634263e-07 0.0 -6.437887e-07 1.4533928e-06 1.2308176e-13
0.0 1.5829395e-06 -4.2385705e-07 -2.7829273e-07 -3.4248342e-07 1.7255725e-06 4.715686e-07 0.0
5.215944e-07 7.291155e-09 0.0 0.0 1.6273968e-06 1.4031223e-06 0.0 -9.3957496e-08
6.987073e-08 0.0 2.3138505e-12 1.7237123e-06 5.120823e-07 -2.0850578e-07 0.0 8.2419473e-07
0.0 0.0 -8.667059e-08 -3.470316e-07 -4.7265896e-08 7.704596e-07 0.0 0.0
-8.1524126e-07 1.9756149e-07 0.0 0.0 0.0 2.1190093e-08 0.0 1.3821166e-06
1.00702984e-07 0.0 0.0 -1.5057975e-06 -4.1294604e-07 1.1086485e-06 1.0616894e-06 0.0
-4.0788225e-07 -7.3109516e-07 -9.671052e-07 1.6130228e-07 7.409969e-07 -8.220228e-10 -5.3523156e-08 0.0
0.0 0.0 0.0 2.9716713e-07 9.415667e-07 2.483585e-07 0.0 0.0
-4.2213543e-07 1.9164738e-06 0.0 1.0845937e-06 0.0 4.3173765e-07 3.5308628e-07 0.0
00000000: 32a6 e333 0000 0000 5c12 2db5 0000 0000
00000010: 0000 0000 8903 2db7 599b 9fb6 785d 8131
00000020: 0000 0000 91e8 dbb6 0000 0000 0000 0000
00000030: 8ce0 3ab7 3d29 98b6 0000 0000 7f32 19b7
00000040: 0000 0000 b66e 3eb6 78c6 45b6 0000 0000
00000050: 46f5 2ab7 3783 a4b6 fba4 44b5 739f 78b7
00000060: 069a 5cb7 0000 0000 b20d 36b3 1b3d eab6
00000070: 0000 0000 a255 92b7 0000 0000 c2b3 5cb5
00000080: 7256 a2b5 29fb 2b35 eb7e 4cb6 2e18 72b6
00000090: 6a85 a535 0000 0000 27f2 c5b6 0000 0000
000000a0: ffc2 8cb6 0000 0000 0000 0000 0000 0000
000000b0: acfc 09b7 fa35 26b5 6f6e 36b7 0000 0000
000000c0: 418e 4830 fa25 c6b6 b329 2cb7 0579 b3b4
000000d0: 0000 0000 f576 0fb7 268c 1db7 7d1c 1daa
000000e0: 0000 0000 eca6 1fb7 971a 33b5 122f 70b5
000000f0: 59d8 a4b6 ad8f 75b7 5ac5 c4b6 0000 0000
00000100: 6d36 47b6 f8b4 a8b2 0000 0000 0000 0000
00000110: 8dea 3bb7 b16b 19b7 0000 0000 b68e 81b6
00000120: 90dd 3ab6 0000 0000 0488 50ac 2987 5eb7
00000130: 5038 00b7 f64a 76b4 0000 0000 bb97 37b7
00000140: 0000 0000 0000 0000 e047 e2b5 c83a 13b7
00000150: 6d71 a633 08f8 5cb6 0000 0000 0000 0000
00000160: 1f22 e8b6 cad7 20b6 0000 0000 0000 0000
00000170: 0000 0000 9b12 77b5 0000 0000 19f0 41b7
00000180: 99ee 92b6 0000 0000 0000 0000 82f9 87b6
00000190: 4baa c234 02f9 3fb7 e03d cdb6 0000 0000
000001a0: 3699 14b5 263c b5b6 d08b a6b6 8605 f9b4
000001b0: a8a8 88b6 7fed 7732 036b 1d33 0000 0000
000001c0: 0000 0000 0000 0000 0000 0000 c29b 40b7
000001d0: 3f34 e8b6 dc22 5db6 0000 0000 0000 0000
000001e0: a2e8 eab6 f177 55b7 0000 0000 50e1 16b7
000001f0: 0000 0000 5471 4cb6 2138 0fb7 0000 0000
00000200: 0f0b eab3 0000 0000 d053 1db5 0000 0000
00000210: 0000 0000 46fa 80b4 f942 1b35 e878 15b4
00000220: 0000 0000 1c3f 8635 0000 0000 0000 0000
00000230: d634 ff35 844f 2635 0000 0000 4ea6 a235
00000240: 0000 0000 d82e ca34 02f5 de32 0000 0000
00000250: 8169 5233 225a 09b5 2736 a9b4 44e9 b235
00000260: b9d8 75b4 0000 0000 c135 e2b3 aee0 4c35
00000270: 0000 0000 f0fb f735 0000 0000 8a34 0134
00000280: ca3d 96b4 b25d 42b5 9311 7a34 588d 97b5
00000290: d207 c8b5 0000 0000 a8ee 6c35 0000 0000
000002a0: 4d5f 0b35 0000 0000 0000 0000 0000 0000
000002b0: a64c 8b35 03a6 66b4 1eb7 6035 0000 0000
000002c0: 6fce c7af 9a12 e8b5 32f8 a435 f8f0 b9b4
000002d0: 0000 0000 d3d0 2cb5 3212 c335 e793 0a2a
000002e0: 0000 0000 6375 d435 788e e3b4 4368 95b4
000002f0: 90de b7b4 389a e735 e52b fd34 0000 0000
00000300: b203 0c35 ad85 fa31 0000 0000 0000 0000
00000310: ee6c da35 ea52 bc35 0000 0000 aec5 c9b3
00000320: d70b 9633 0000 0000 a0d2 222c 4e5a e735
00000330: 0776 0935 a2e1 5fb4 0000 0000 3b3e 5d35
00000340: 0000 0000 0000 0000 a91f bab3 a94f bab4
00000350: 6701 4bb3 95d1 4e35 0000 0000 0000 0000
00000360: f4d6 5ab5 4a21 5434 0000 0000 0000 0000
00000370: 0000 0000 8205 b632 0000 0000 2a81 b935
00000380: 0d42 d833 0000 0000 0000 0000 cf1a cab5
00000390: dfb2 ddb4 dfcc 9435 5f7f 8e35 0000 0000
000003a0: e9fa dab4 7a40 44b5 7bcd 81b5 6f32 2d34
000003b0: ebe8 4635 b6f4 61b0 55e1 65b3 0000 0000
000003c0: 0000 0000 0000 0000 0000 0000 578a 9f34
000003d0: f9bf 7c35 2256 8534 0000 0000 0000 0000
000003e0: daa1 e2b4 c59c 0036 0000 0000 5b92 9135
000003f0: 0000 0000 92c9 e734 cf8f bd34 0000 0000

exp_avg_sq f4 [128, 128]
9.793695e-13 0.0 1.6182923e-10 0.0 0.0 4.5544396e-10 3.705603e-10 2.5657372e-11
0.0 2.8135466e-10 0.0 0.0 6.702544e-10 4.7189374e-11 0.0 5.1751203e-10
0.0 6.585204e-12 1.6366206e-10 0.0 6.212045e-10 1.5925467e-10 1.4027421e-10 1.1886931e-09
8.531738e-10 0.0 1.8780765e-12 5.891541e-10 0.0 2.0944544e-09 0.0 2.9566963e-11
1.2276688e-10 4.6207477e-13 6.851152e-11 4.0739564e-10 1.4902216e-12 0.0 1.4182952e-10 0.0
1.1840937e-10 0.0 0.0 0.0 7.7480167e-10 6.1863965e-11 8.508082e-10 0.0
5.5484077e-12 1.0083993e-09 8.0775564e-10 6.8142686e-11 0.0 3.827798e-10 5.614652e-10 3.5229784e-21
0.0 4.340548e-10 6.465609e-11 1.723264e-11 3.0506064e-10 1.4427927e-09 8.0093965e-10 0.0
1.539894e-10 1.3230776e-11 0.0 0.0 1.1932106e-09 3.7137768e-10 0.0 2.2702709e-10
1.8945927e-10 0.0 7.842254e-18 1.5067148e-09 4.8801896e-10 5.2874906e-11 0.0 1.0879371e-09
0.0 0.0 2.2828517e-11 5.811184e-10 1.4852929e-13 2.6714927e-11 0.0 0.0
2.9156333e-10 2.8035727e-10 0.0 0.0 0.0 3.0648636e-11 0.0 8.6547935e-10
1.3564085e-10 0.0 0.0 2.797747e-10 1.6471358e-13 1.1450573e-09 2.0207805e-10 0.0
1.06468195e-10 1.8655094e-10 6.1866745e-10 1.821396e-12 6.246268e-11 1.4742565e-12 6.249052e-11 0.0
0.0 0.0 0.0 7.4143786e-10 2.972837e-10 1.0367852e-10 0.0 0.0
1.9228698e-10 8.412527e-10 0.0 8.666176e-10 0.0 1.7092788e-10 4.1913087e-10 0.0
3.084838e-13 0.0 2.6015677e-11 0.0 0.0 9.039523e-11 5.0101798e-11 7.700154e-13
0.0 5.31276e-11 0.0 0.0 1.2344303e-10 1.0341097e-11 0.0 9.440732e-11
0.0 1.5132783e-12 2.8553463e-11 0.0 1.0884025e-10 3.032025e-11 1.4155861e-11 2.088459e-10
1.6962913e-10 0.0 3.7507145e-13 7.646985e-11 0.0 3.4560677e-10 0.0 7.649049e-12
1.2234092e-11 5.226388e-13 1.1834401e-11 6.181248e-11 1.848564e-12 0.0 3.1068387e-11 0.0
1.8270444e-11 0.0 0.0 0.0 1.1697944e-10 7.742219e-12 1.3135579e-10 0.0
7.825387e-13 1.8150843e-10 1.3518303e-10 6.190712e-12 0.0 8.020976e-11 9.48697e-11 3.1725991e-21
0.0 8.234636e-11 4.7901912e-12 3.7398674e-12 4.4466156e-11 2.3179228e-10 9.414191e-11 0.0
2.798559e-11 1.7228941e-12 0.0 0.0 1.837425e-10 6.462946e-11 0.0 3.935069e-11
2.1352366e-11 0.0 7.382752e-18 2.2511688e-10 7.3432434e-11 6.337555e-12 0.0 1.6293199e-10
0.0 0.0 3.9658485e-12 1.0791122e-10 1.2558964e-14 9.467604e-12 0.0 0.0
5.775779e-11 3.339024e-11 0.0 0.0 0.0 4.4876637e-12 0.0 1.4887717e-10
2.2447145e-11 0.0 0.0 6.109877e-11 1.9946548e-13 1.7498546e-10 3.8846634e-11 0.0
1.2010488e-11 3.8256672e-11 9.689475e-11 1.9605639e-12 1.5507434e-11 5.6356917e-14 5.537981e-12 0.0
0.0 0.0 0.0 1.4365331e-10 4.866558e-11 2.0616318e-11 0.0 0.0
4.3525974e-11 1.5635947e-10 0.0 1.3063742e-10 0.0 2.758665e-11 7.905276e-11 0.0
00000000: 81d5 892b 0000 0000 e1ee 312f 0000 0000
00000010: 0000 0000 0a62 fa2f bab7 cb2f 44af e12d
00000020: 0000 0000 26ad 9a2f 0000 0000 0000 0000
00000030: f63c 3830 838a 4f2e 0000 0000 ac40 0e30
00000040: 0000 0000 3fb2 e72c c6f2 332f 0000 0000
00000050: 61c1 2a30 341a 2f2f ae3b 1a2f 6c5f a330
00000060: c584 6a30 0000 0000 6b28 042c 09f2 2130
00000070: 0000 0000 08ee 0f31 0000 0000 7109 022e
00000080: cefb 062f ff0f 022b 8fa8 962e d7f7 df2f
00000090: e4ba d12b 0000 0000 76f1 1b2f 0000 0000
000000a0: 4631 022f 0000 0000 0000 0000 0000 0000
000000b0: d2f9 5430 510a 882e 4ede 6930 0000 0000
000000c0: 9d37 c32c e597 8a30 c008 5e30 ecd8 952e
000000d0: 0000 0000 786f d22f 9a55 1a30 2818 851d
000000e0: 0000 0000 c89f ee2f 252e 8e2e 7594 972d
000000f0: 78b5 a72f c14b c630 1e29 5c30 0000 0000
00000100: 2a50 292f 1ec2 682d 0000 0000 0000 0000
00000110: 5efe a330 c32a cc2f 0000 0000 729e 792f
00000120: 0b50 502f 0000 0000 ffa9 1023 d014 cf30
00000130: 4825 0630 da8b 682e 0000 0000 6286 9530
00000140: 0000 0000 0000 0000 40cd c82d 92bc 1f30
00000150: a73a 272a abfc ea2d 0000 0000 0000 0000
00000160: e449 a02f c720 9a2f 0000 0000 0000 0000
00000170: 0000 0000 4ccb 062e 0000 0000 b2e6 6d30
00000180: 8123 152f 0000 0000 0000 0000 cace 992f
00000190: 7573 392a 1f60 9d30 ea2f 5e2f 0000 0000
000001a0: 4420 ea2e 6c1d 4d2f da0e 2a30 5a2b 002c
000001b0: 5d5b 892e b07b cf2b 096b 892e 0000 0000
000001c0: 0000 0000 0000 0000 0000 0000 0dce 4b30
000001d0: f66e a32f d1fd e32e 0000 0000 0000 0000
000001e0: f96b 532f e53d 6730 0000 0000 cb36 6e30
000001f0: 0000 0000 ecef 3b2f 6d6b e62f 0000 0000
00000200: 33a9 ad2a 0000 0000 19d6 e42d 0000 0000
00000210: 0000 0000 fec7 c62e 9c59 5c2e 75bd 582b
00000220: 0000 0000 5ca8 692e 0000 0000 0000 0000
00000230: 20ba 072f 29ec 352d 0000 0000 999a cf2e
00000240: 0000 0000 99f9 d42b af28 fb2d 0000 0000
00000250: 9d57 ef2e 9159 052e 5508 792d e5a0 652f
00000260: 5b82 3a2f 0000 0000 7e25 d32a b328 a82e
00000270: 0000 0000 d4ff bd2f 0000 0000 4190 062d
00000280: 7439 572d 181c 132b 6731 502d 55ed 872e
00000290: c514 022c 0000 0000 e5a3 082e 0000 0000
000002a0: 62b5 a02d 0000 0000 0000 0000 0000 0000
000002b0: c99e 002f db33 082d 5e6d 102f 0000 0000
000002c0: db43 5c2b 1592 472f a4a2 142f fad0 d92c
000002d0: 0000 0000 1562 b02e e59e d02e feb6 6f1d
000002e0: 0000 0000 e114 b52e 358a a82c bb95 832c
000002f0: 7190 432e badb 7e2f 2f05 cf2e 0000 0000
00000300: f229 f62d cd79 f22b 0000 0000 0000 0000
00000310: ea06 4a2f 271f 8e2e 0000 0000 f010 2d2e
00000320: 41d1 bb2d 0000 0000 1030 0823 c584 772f
00000330: c97a a12e 9ffb de2c 0000 0000 4725 332f
00000340: 0000 0000 0000 0000 3089 8b2c 9e4c ed2e
00000350: 003e 6228 4c8e 262d 0000 0000 0000 0000
00000360: 7e05 7e2e 11da 122e 0000 0000 0000 0000
00000370: 0000 0000 48e5 9d2c 0000 0000 33b1 232f
00000380: 7a72 c52d 0000 0000 0000 0000 8d5b 862e
00000390: 0394 602a 0766 402f 6cd9 2a2e 0000 0000
000003a0: 6e4a 532d 2f41 282e e512 d52e 61f6 092c
000003b0: a367 882d 1acf 7d29 b3d9 c22c 0000 0000
000003c0: 0000 0000 0000 0000 0000 0000 d0f2 1d2f
000003d0: 9208 562e d257 b52d 0000 0000 0000 0000
000003e0: e46d 3f2e 47eb 2b2f 0000 0000 2aa3 0f2f
000003f0: 0000 0000 9da7 f22d bfd6 ad2e 0000 0000

exp_avg f4 [128]
-2.5910747e-05 7.461626e-07 9.85938e-06 0.0 2.8833176e-06 2.018048e-05 0.0 1.0105472e-05
2.0316356e-05 -1.133562e-06 9.597658e-06 0.0 -4.5045713e-06 1.9809684e-06 9.192839e-06 -2.4132833e-06
2.8009565e-06 -4.234181e-06 0.0 1.0375055e-05 7.5644784e-06 0.0 1.6813763e-05 2.3255512e-05
0.0 1.8176058e-06 -1.9227264e-06 4.346608e-06 -1.2618156e-05 1.5797128e-05 1.0937658e-05 8.887183e-06
4.3332966e-06 0.0 -5.521776e-06 1.6441018e-05 0.0 0.0 3.2155353e-06 0.0
-7.7482355e-06 8.796086e-06 3.9632732e-06 2.16752e-05 0.0 -1.3278662e-06 0.0 0.0
0.0 -4.5727247e-06 0.0 1.3475118e-05 8.442626e-05 0.0 0.0 5.461521e-06
0.0 2.0439622e-06 0.0 1.7056536e-05 0.0 0.0 0.0 -5.393288e-06
-3.7654438e-06 2.607059e-06 -6.8679815e-06 1.8275953e-06 2.0389716e-06 -6.8191905e-05 -1.608348e-05 3.9692804e-06
6.632525e-06 4.7157505e-06 3.069493e-05 0.0 1.2436801e-05 0.0 5.164407e-06 0.0
0.0 0.0 2.0107173e-05 2.3032566e-05 1.6401758e-05 2.715548e-06 4.3384784e-06 -1.2926443e-05
2.89973e-06 7.171344e-06 0.0 8.405257e-06 1.23627e-06 -0.0001289213 2.3012426e-05 -2.1889853e-06
0.0 0.0 0.0 -2.8651286e-06 0.0 -5.0183644e-05 6.4909514e-06 0.0
-9.198312e-05 4.400781e-06 2.5314645e-07 -9.721051e-07 0.0 5.1100665e-06 9.616239e-06 0.0
0.0 4.758418e-06 0.0 6.4560763e-06 3.0802537e-06 0.0 0.0 2.022788e-05
2.9292289e-05 0.0 1.3011623e-05 0.0 0.0 0.0 0.0 0.0
00000000: e85a d9b7 e74b 4835 b769 2537 0000 0000
00000010: 057f 4136 4049 a937 0000 0000 ac8a 2937
00000020: 0b6d aa37 e524 98b5 a105 2137 0000 0000
00000030: f925 97b6 c7f0 0436 f13a 1a37 e4f3 21b6
00000040: 11f8 3b36 5613 8eb6 0000 0000 8610 2e37
00000050: 60d2 fd36 0000 0000 480b 8d37 d514 c337
00000060: 0000 0000 76f4 f335 3008 01b6 14d9 9136
00000070: 91b2 53b7 1384 8437 e280 3737 291a 1537
00000080: bc66 9136 0000 0000 b247 b9b6 d1ea 8937
00000090: 0000 0000 0000 0000 7aca 5736 0000 0000
000000a0: 6bfe 01b7 e792 1337 42fc 8436 23d3 b537
000000b0: 0000 0000 2339 b2b5 0000 0000 0000 0000
000000c0: 0000 0000 686f 99b6 0000 0000 3113 6237
000000d0: 010e b138 0000 0000 0000 0000 1c42 b736
000000e0: 0000 0000 012b 0936 0000 0000 a214 8f37
000000f0: 0000 0000 0000 0000 0000 0000 fef7 b4b6
00000100: d5b1 7cb6 eff4 2e36 8373 e6b6 b24b f535
00000110: 44d5 0836 4002 8fb8 03eb 86b7 dc2f 8536
00000120: f58c de36 fd3b 9e36 6ebe 0038 0000 0000
00000130: a7a7 5037 0000 0000 eb49 ad36 0000 0000
00000140: 0000 0000 0000 0000 d3ab a837 0f36 c137
00000150: 8296 8937 c23c 3636 3f93 9136 a6de 58b7
00000160: fb98 4236 60a1 f036 0000 0000 4e04 0d37
00000170: eaed a535 0c2f 07b9 cf0a c137 7be6 12b6
00000180: 0000 0000 0000 0000 0000 0000 8946 40b6
00000190: 0000 0000 477c 52b8 d9cc d936 0000 0000
000001a0: 10e7 c0b8 6caa 9336 2fe8 8734 4779 82b5
000001b0: 0000 0000 2377 ab36 6f55 2137 0000 0000
000001c0: 0000 0000 80aa 9f36 0000 0000 46a1 d836
000001d0: 5bb6 4e36 0000 0000 0000 0000 0baf a937
000001e0: b6b8 f537 0000 0000 7f4c 5a37 0000 0000
000001f0: 0000 0000 0000 0000 0000 0000 0000 0000

exp_avg_sq f4 [128]
7.708601e-09 1.2261087e-09 3.7748404e-09 0.0 4.0178974e-10 5.7354157e-09 0.0 5.9299916e-09
1.275182e-08 2.596873e-09 2.0505957e-09 0.0 2.0783313e-09 4.2205844e-10 2.4865332e-09 1.7066368e-09
4.515528e-09 1.0422896e-09 0.0 1.1809343e-08 7.477301e-09 0.0 7.241267e-10 1.2907888e-08
0.0 8.64974e-10 1.4854663e-10 5.647584e-09 1.7566546e-08 1.2572329e-09 6.2221326e-09 3.295015e-09
2.0117321e-09 0.0 9.222558e-10 1.2523292e-08 0.0 0.0 3.2235864e-10 0.0
7.833282e-09 4.684106e-09 9.19213e-10 2.3567313e-09 0.0 6.3895106e-10 0.0 0.0
0.0 5.8565e-10 0.0 6.33223e-09 3.1613506e-08 0.0 0.0 2.0362194e-09
0.0 1.52675e-10 0.0 2.4154394e-09 0.0 0.0 0.0 5.521603e-09
1.0815803e-09 9.165504e-09 4.314354e-09 4.700189e-09 1.7789448e-09 1.37998315e-08 3.649556e-09 3.2984695e-09
7.862124e-10 1.273558e-09 6.1670122e-09 0.0 4.4161665e-09 0.0 8.358688e-10 0.0
0.0 0.0 2.4708058e-09 1.226037e-09 3.2397165e-09 2.5931168e-09 1.2035609e-08 1.4266102e-10
2.614199e-10 7.2777473e-10 0.0 6.189041e-09 3.6335215e-09 3.8149622e-08 5.552138e-09 3.4708265e-09
0.0 0.0 0.0 3.0029181e-09 0.0 5.9615486e-09 2.351303e-09 0.0
1.8585027e-08 1.1881804e-08 2.3811234e-10 4.6405138e-10 0.0 1.00009175e-10 6.221355e-09 0.0
0.0 5.547365e-09 0.0 5.783374e-10 4.47428e-11 0.0 0.0 4.59483e-09
6.210728e-09 0.0 7.1359985e-09 0.0 0.0 0.0 0.0 0.0
00000000: c96e 0432 dd83 a830 d9b3 8131 0000 0000
00000010: e1e2 dc2f 4011 c531 0000 0000 c2c0 cb31
00000020: 1913 5b32 ac74 3231 76ea 0c31 0000 0000
00000030: 64d2 0e31 7207 e82f 8edf 2a31 f28e ea30
00000040: 0127 9b31 4e40 8f30 0000 0000 0ae2 4a32
00000050: 8475 0032 0000 0000 e30b 4730 7ec1 5d32
00000060: 0000 0000 22c3 6d30 2954 232f ad0c c231
00000070: 3ee5 9632 f3ca ac30 75ca d531 846e 6231
00000080: c43e 0a31 0000 0000 fc81 7d30 0526 5732
00000090: 0000 0000 0000 0000 f237 b12f 0000 0000
000000a0: 2393 0632 d5f1 a031 ddab 7c30 0ef4 2131
000000b0: 0000 0000 2fa2 2f30 0000 0000 0000 0000
000000c0: 0000 0000 74fb 2030 0000 0000 e292 d931
000000d0: 6bc7 0733 0000 0000 0000 0000 8ded 0b31
000000e0: 0000 0000 31de 272f 0000 0000 dcfc 2531
000000f0: 0000 0000 0000 0000 0000 0000 89b8 bd31
00000100: b9a6 9430 5076 1d32 763d 9431 4d7f a131
00000110: 0e7f f430 4d14 6d32 abcb 7a31 4aab 6231
00000120: c71c 5830 5709 af30 9de5 d331 0000 0000
00000130: 03bd 9731 0000 0000 0ac3 6530 0000 0000
00000140: 0000 0000 0000 0000 e0ca 2931 5881 a830
00000150: b2a1 5e31 9832 3231 2bc5 4e32 82db 1c2f
00000160: 95b7 8f2f 980c 4830 0000 0000 61a7 d431
00000170: 96b1 7931 f4d9 2333 1fc5 be31 6d83 6e31
00000180: 0000 0000 0000 0000 0000 0000 e55b 4e31
00000190: 0000 0000 56d6 cc31 8f94 2131 0000 0000
000001a0: e8a4 9f32 ba20 4c32 55e7 822f 6d1d ff2f
000001b0: 0000 0000 29ec db2e 9ec3 d531 0000 0000
000001c0: 0000 0000 239b be31 0000 0000 e0f8 1e30
000001d0: eac7 442e 0000 0000 0000 0000 8de0 9d31
000001e0: 2466 d531 0000 0000 e830 f531 0000 0000
000001f0: 0000 0000 0000 0000 0000 0000 0000 0000
