001-machine_learning/data/00001-MLP-temperature/008_checkpoint.pth (torch_old, 409225 bytes, 30 tensors)

exp_avg f4 [64, 4]
00000000: eefa f5b8 daa8 10b9 0aa7 92b8 31c3 09b9
00000010: 0000 0000 d932 8534 399a 4c33 0b4f 4634
00000020: a23a 0cb8 a94c 23b8 7262 96b7 c367 21b8
00000030: 0000 0000 0f09 9f31 b005 3132 ab6d 3432
00000040: 2f36 62b9 c940 74b9 559d e9b8 ea6e 6ab9
00000050: d952 4eb2 29d8 bc34 736d f432 6edb 2fb4
00000060: 0000 0000 0000 0000 0000 0000 0000 0000
00000070: 0899 3639 2140 5939 c963 da38 2f0b 5139
00000080: 59ad 04b7 e911 3db7 699f ebb6 753a 5bb7
00000090: ecd8 b8b4 66df 9c34 656c 05b4 ae93 e5b4
000000a0: 179b 6cb7 9791 96b7 f477 28b7 1b27 86b7
000000b0: 3fb8 49b6 4e20 9db5 8f93 a2b6 1a45 4736
000000c0: 0000 0000 0000 0000 0000 0000 0000 0000
000000d0: 0000 0000 0000 0000 0000 0000 0000 0000
000000e0: 7cbc f437 7f9d 1538 a508 9637 6d0a 1138
000000f0: 90c7 a437 ec7b 9137 6395 2236 2010 6137
00000100: 0000 0000 0000 0000 0000 0000 0000 0000
00000110: 3828 8038 3292 9638 7e07 2138 c495 9338
00000120: 0400 0000 0400 0000 0400 0000 0400 0000
00000130: d41d 6139 81de 8439 5f6c 0539 2aa5 7f39
00000140: 0000 0000 0000 0000 0000 0000 0000 0000
00000150: 86e1 2b38 93a4 4338 d54c b237 21b9 3e38
00000160: b05c fd37 7727 f537 deba 6637 d1c6 f937
00000170: 3c01 ad2a ed3e 9027 9537 aa2a af9c 2127
00000180: 108a eeb8 d804 0ab9 2755 8bb8 5588 04b9
00000190: 0119 29b9 fba9 4ab9 2efd d0b8 48ac 44b9
000001a0: a4ae 32b8 6c5d f1b7 931e 81b7 2e38 0bb8
000001b0: 6834 6a38 f915 8838 a1e8 0638 1e9d 8538
000001c0: bf5a 0ab8 d9b0 2eb8 ba53 bab7 0789 2cb8
000001d0: ff16 c6b7 efcc d5b7 ba1c 5bb7 069a b7b7
000001e0: e4c7 97b3 90f7 1f33 2e9c 61b3 646c a6b2
000001f0: 32dd 29b9 7f50 4eb9 ef7e ceb8 2e67 48b9
00000200: 589e c3b7 84f5 dab7 f6ad 7db7 53be cdb7
00000210: 329d 8034 75aa 1eb2 0360 5e34 e7c9 9333
00000220: 94b1 5c38 b40f 8238 bfef f937 b00f 7b38
00000230: 0000 0000 0000 0000 0000 0000 0000 0000
00000240: 0000 0000 4cab 2fb2 5dc6 33b1 bfbb 5db0
00000250: 0000 0000 0000 0000 0000 0000 0000 0000
00000260: 24ac 71b8 7f8a 9ab8 af4a 1db8 314d 94b8
00000270: c74f fcb8 6bec 15b9 342b 99b8 fc8a 10b9
00000280: b5b6 85b7 fd9e 9ab7 d159 2bb7 29fb 8cb7
00000290: d2d8 34b3 33b3 54b5 e092 9db4 4265 29b5
000002a0: a574 87b8 c730 a2b8 24e2 26b8 81f0 99b8
000002b0: 88bd ce36 3a9d d336 aa75 0035 887e 9436
000002c0: 7a77 7eb8 847d 99b8 468f 1ab8 0ae0 95b8
000002d0: 82a0 99b8 8eba bdb8 6347 43b8 d203 b9b8
000002e0: 86e0 09b9 188b 28b9 0bd9 adb8 e31d 22b9
000002f0: 0000 0000 0000 0000 0000 0000 0000 0000
00000300: dcf6 bb38 38ac dc38 f753 5e38 fea8 d438
00000310: 7e0c 36b8 a5c7 66b8 430d f3b7 559d 57b8
00000320: a278 d332 701e fe32 e326 5633 fcd7 5733
00000330: 59dd 86b8 62d3 a3b8 9e25 27b8 ad6a 97b8
00000340: 0000 0000 236f 10b0 96a0 bbb0 89ce 87b0
00000350: 4789 81b9 8ef5 93b9 d808 f7b8 f553 8bb9
00000360: 9e63 1239 4aae 3139 4fc4 b138 c347 2b39
00000370: 37eb 94b8 3987 bcb8 d364 43b8 b390 b3b8
00000380: 0000 0000 0000 0000 0000 0000 0000 0000
00000390: 8f9e 6139 bc6a 8739 807f 0939 eef9 8139
000003a0: fbfb d138 c55c ff38 a542 7e38 2069 f938
000003b0: abf2 1939 eebd 3539 7980 b638 0615 2d39
000003c0: 0000 0000 0000 0000 0000 0000 0000 0000
000003d0: 7c22 c237 cd0f 0238 bca3 9d37 dec4 0038
000003e0: 6fa3 8f38 3904 ab38 8887 2838 ea04 a638
000003f0: f362 5931 9894 09b6 3710 39b5 6a83 dcb5
-0.0001172925 -0.00013795812 -6.992936e-05 -0.00013138053 0.0 2.4810177e-07 4.7637716e-08 1.8468943e-07
-3.3433207e-05 -3.8933624e-05 -1.7927236e-05 -3.8482027e-05 0.0 4.628539e-09 1.0304049e-08 1.0502315e-08
-0.00021573225 -0.00023293788 -0.00011139611 -0.00022357298 -1.20096155e-08 3.5175006e-07 2.845511e-08 -1.6377973e-07
0.0 0.0 0.0 0.0 0.00017413881 0.00020718623 0.000104136365 0.0001993596
-7.908174e-06 -1.1269448e-05 -7.0221035e-06 -1.3067028e-05 -3.4430502e-07 2.9219808e-07 -1.2426024e-07 -4.2762025e-07
-1.4102806e-05 -1.7949189e-05 -1.0041509e-05 -1.5992255e-05 -3.005858e-06 -1.1706813e-06 -4.8451543e-06 2.9693533e-06
0.0 0.0 0.0 0.0 0.0 0.0 0.0 0.0
2.9174837e-05 3.5671048e-05 1.7885419e-05 3.4580404e-05 1.9643252e-05 1.7343053e-05 2.4226836e-06 1.34147995e-05
0.0 0.0 0.0 0.0 6.111007e-05 7.1797884e-05 3.839237e-05 7.037402e-05
6e-45 6e-45 6e-45 6e-45 0.00021468784 0.0002534278 0.0001272424 0.00024380223
0.0 0.0 0.0 0.0 4.0979612e-05 4.6644895e-05 2.1255031e-05 4.5471945e-05
3.0203111e-05 2.9224653e-05 1.3752577e-05 2.9775694e-05 3.073183e-13 4.0036253e-15 3.0236634e-13 2.2428177e-15
-0.000113744405 -0.0001316251 -6.643897e-05 -0.00012639289 -0.0001612641 -0.00019327544 -9.965371e-05 -0.00018756196
-4.2601154e-05 -2.8772942e-05 -1.5392236e-05 -3.3192504e-05 5.5838755e-05 6.489078e-05 3.2164742e-05 6.3711996e-05
-3.2986278e-05 -4.1649535e-05 -2.2211916e-05 -4.1135612e-05 -2.3614148e-05 -2.5487008e-05 -1.3060106e-05 -2.1887023e-05
-7.067845e-08 3.724523e-08 -5.252894e-08 -1.9374234e-08 -0.00016199498 -0.00019675678 -9.846489e-05 -0.00019111924
-2.3319546e-05 -2.6101952e-05 -1.5120479e-05 -2.4526531e-05 2.3956233e-07 -9.235568e-09 2.071029e-07 6.881947e-08
5.261747e-05 6.201808e-05 2.9794754e-05 5.9857673e-05 0.0 0.0 0.0 0.0
0.0 -1.0225289e-08 -2.6160685e-09 -8.0666135e-10 0.0 0.0 0.0 0.0
-5.7619196e-05 -7.369089e-05 -3.750127e-05 -7.071568e-05 -0.00012031156 -0.0001429782 -7.303656e-05 -0.00013784686
-1.5939915e-05 -1.8432265e-05 -1.0213306e-05 -1.6806256e-05 -4.2106713e-08 -7.9236924e-07 -2.9350394e-07 -6.3104756e-07
-6.4590284e-05 -7.7338475e-05 -3.9788094e-05 -7.340406e-05 6.1613428e-06 6.3065936e-06 4.785494e-07 4.425474e-06
-6.066959e-05 -7.3189876e-05 -3.6849895e-05 -7.146604e-05 -7.3255054e-05 -9.046971e-05 -4.6558107e-05 -8.822199e-05
-0.0001314898 -0.00016073545 -8.28971e-05 -0.00015460658 0.0 0.0 0.0 0.0
8.962836e-05 0.00010522496 5.3007123e-05 0.00010140425 -4.3403816e-05 -5.5022207e-05 -2.8974033e-05 -5.140652e-05
2.461849e-08 2.9583333e-08 4.9861125e-08 5.0255025e-08 -6.430847e-05 -7.811819e-05 -3.9850936e-05 -7.220111e-05
0.0 -5.254483e-10 -1.3651682e-09 -9.881244e-10 -0.00024707077 -0.00028220977 -0.00011779525 -0.000265747
0.00013960755 0.00016944963 8.476583e-05 0.00016334564 -7.101002e-05 -8.989726e-05 -4.6585523e-05 -8.5623375e-05
0.0 0.0 0.0 0.0 0.0002151674 0.0002582873 0.00013112836 0.0002479101
0.000100128316 0.00012176627 6.0620387e-05 0.00011892826 0.00014681618 0.0001733226 8.702366e-05 0.00016506398
0.0 0.0 0.0 0.0 2.314266e-05 3.100913e-05 1.8792103e-05 3.0700925e-05
6.849213e-05 8.154702e-05 4.0180545e-05 7.916412e-05 3.1633902e-09 -2.0501084e-06 -6.8941466e-07 -1.6429524e-06

exp_avg_sq f4 [64, 4]
00000000: dd97 4a34 e89d 2134 a2dd 7833 bdc7 4834
00000010: 0000 0000 24ae 1631 c144 7d2e 6537 c230
00000020: cffc 4232 4b2c ce31 ff06 3131 3752 0232
00000030: 0000 0000 9433 142f 9a8b 5430 93e5 a12f
00000040: 468e 1b34 0518 9a34 806d 5634 22c2 cc34
00000050: 2a4f 0630 5f54 8330 7fbf 3230 eff7 b330
00000060: 0000 0000 0000 0000 0000 0000 0000 0000
00000070: fd53 f334 1585 0535 2837 9934 3e16 2d35
00000080: ac98 c831 1d39 3331 80a4 cd30 5fb8 5331
00000090: 0063 f131 f97b 0230 9753 5a32 017e 5731
000000a0: e59b 0332 719e 5132 0458 3732 35bf 8532
000000b0: fe92 0d32 1502 a631 77d7 1130 7656 9f31
000000c0: 0000 0000 0000 0000 0000 0000 0000 0000
000000d0: 0000 0000 0000 0000 0000 0000 0000 0000
000000e0: 6d39 a932 231d 1b32 fdd8 6131 d73a 4132
000000f0: ef5d 7631 f73f fb30 23d2 e42e 3d34 1631
00000100: 0000 0000 0000 0000 0000 0000 0000 0000
00000110: 204e 8733 dafb 8c33 6593 0233 9eda b233
00000120: 6111 3916 2cbd 6a15 20e6 fe13 f818 e015
00000130: e99d 2d35 c71e 3a35 dce0 d734 3fd8 7235
00000140: 0000 0000 0000 0000 0000 0000 0000 0000
00000150: ac69 6932 18f7 1232 34da ba31 be70 5432
00000160: a32f 7f31 a15d 2a32 3fe0 0432 40a4 3532
00000170: 14ac b71d e11f 5a18 3386 8d1d 1321 191b
00000180: 07af 1934 97db 1134 a79c 9d33 3ffd 3b34
00000190: 9cea cf34 a1ac 4134 0c42 b533 db1e 7234
000001a0: 2dbc f633 2f45 6a34 1084 3034 dd60 9d34
000001b0: 0593 2e33 a836 1b33 8e0b a232 6408 5633
000001c0: 73a8 1533 2d47 5133 cf2b f232 d4a0 8233
000001d0: 0898 fd30 f940 de30 96a8 7d30 7c50 f830
000001e0: 4188 9c2f 8837 c62b 3e0d 922e de28 d32c
000001f0: 5123 0135 32cf a834 b3aa 1c34 1839 e634
00000200: 4c88 fc31 5264 7832 2605 8531 b94b 8732
00000210: ea30 1f31 8def 9130 96f0 3532 0104 8b31
00000220: 26d3 1d33 18ad 1533 89c4 b232 6ed1 4e33
00000230: 0000 0000 0000 0000 0000 0000 0000 0000
00000240: 0000 0000 e876 d02c 11f9 2e2b 1288 462b
00000250: 0000 0000 0000 0000 0000 0000 0000 0000
00000260: ac25 fd33 2d6a 0c34 ef94 9833 b158 2e34
00000270: 857a 7334 3eff 5e34 1023 d733 f9d9 8e34
00000280: 906f 8631 b986 e631 8b01 e531 b614 1232
00000290: 6556 e32f 2725 8c33 081d 2f33 50d4 ba33
000002a0: 150e 9b33 b34c 8f33 9baa 2233 3b16 b933
000002b0: 92dd 6831 3c49 9931 5956 7531 7db9 bb31
000002c0: 0814 b233 e4e3 c533 b5a0 3c33 52fe f833
000002d0: c2d4 2434 ce7e 3734 0615 b233 77ac 6334
000002e0: e51f ce34 6c76 db34 5cbb 7e34 c1f1 0c35
000002f0: 0000 0000 0000 0000 0000 0000 0000 0000
00000300: 34be dd33 2e85 da33 ae15 7233 d585 1034
00000310: 3347 8833 39e3 8c33 4f79 2433 c94c ae33
00000320: 8968 8e30 3359 8e2e 2923 d330 b9f2 b72f
00000330: 9ad7 a833 8194 ef33 bf35 ac33 75b4 1634
00000340: 0000 0000 0da1 082f d5a3 1d31 4d0e 3430
00000350: d1e1 1335 71e6 2435 8e43 c634 50b7 5535
00000360: d4a1 b534 7fda 2734 fed8 9e33 1b94 4e34
00000370: 7aa0 2d34 1654 5234 3f87 fe33 b495 8634
00000380: 0000 0000 0000 0000 0000 0000 0000 0000
00000390: 204e 5c35 efee 8235 d0cd 2535 4fb1 a935
000003a0: bcd6 6434 7d05 4234 5265 dd33 668d 6c34
000003b0: c415 9c34 11dc 7c34 f9ef c033 40eb 9934
000003c0: 0000 0000 0000 0000 0000 0000 0000 0000
000003d0: 926d e132 5fb9 a232 050e 7432 2641 cf32
000003e0: c665 aa33 b005 b233 abb5 1d33 78d0 df33
000003f0: ba9d 6c23 0fe1 ca34 7e2f 8534 1d5f 0935
1.8867964e-07 1.505174e-07 5.7943573e-08 1.8699116e-07 0.0 2.192686e-09 5.7586606e-11 1.4131102e-09
1.1349768e-08 6.0004246e-09 2.5760867e-09 7.585689e-09 0.0 1.3478846e-10 7.7323536e-10 2.9448852e-10
1.4487259e-07 2.8702212e-07 1.9970139e-07 3.813921e-07 4.8861415e-10 9.555484e-10 6.5028155e-10 1.3094431e-09
0.0 0.0 0.0 0.0 4.5323387e-07 4.974002e-07 2.8538602e-07 6.447989e-07
5.838123e-09 2.6080393e-09 1.4962467e-09 3.0809344e-09 7.025278e-09 4.74699e-10 1.2708276e-08 3.1358243e-09
7.66065e-09 1.22014265e-08 1.0672014e-08 1.5570189e-08 8.240702e-09 4.8314726e-09 5.3056887e-10 4.6373385e-09
0.0 0.0 0.0 0.0 0.0 0.0 0.0 0.0
1.9700304e-08 9.028812e-09 3.2865153e-09 1.1247457e-08 3.5851107e-09 1.8280834e-09 1.04055674e-10 2.1857567e-09
0.0 0.0 0.0 0.0 6.300638e-08 6.5650696e-08 3.0402038e-08 8.328537e-08
1.4949665e-25 4.7405154e-26 6.4345535e-27 9.0512273e-26 6.467731e-07 6.9335186e-07 4.0210477e-07 9.0466705e-07
0.0 0.0 0.0 0.0 1.3586412e-08 8.554501e-09 5.4381193e-09 1.2365659e-08
3.7134462e-09 9.916591e-09 7.734399e-09 1.0572933e-08 4.861762e-21 2.8191934e-24 3.7461148e-21 1.266655e-22
1.431291e-07 1.3584064e-07 7.339377e-08 1.7507863e-07 3.8727455e-07 1.8037328e-07 8.440483e-08 2.2549231e-07
1.14894966e-07 2.1818117e-07 1.6439321e-07 2.9314006e-07 4.0646245e-08 3.613846e-08 1.8864537e-08 4.983339e-08
3.484497e-08 4.872634e-08 2.819243e-08 6.082851e-08 1.8451383e-09 1.6171092e-09 9.228044e-10 1.806725e-09
2.847305e-10 1.4084159e-12 6.6416636e-11 6.001518e-12 4.8107637e-07 3.1443193e-07 1.4590732e-07 4.288238e-07
7.3496604e-09 1.445831e-08 3.8713948e-09 1.5750503e-08 2.316535e-09 1.0618223e-09 1.05902895e-08 4.0458876e-09
3.674645e-08 3.4849194e-08 2.0811301e-08 4.8153588e-08 0.0 0.0 0.0 0.0
0.0 5.924917e-12 6.2162867e-13 7.0532566e-13 0.0 0.0 0.0 0.0
1.1788083e-07 1.3077143e-07 7.1051424e-08 1.6237279e-07 2.2675711e-07 2.0768218e-07 1.00180955e-07 2.6608157e-07
3.9125965e-09 6.709197e-09 6.6649526e-09 8.503028e-09 4.1352446e-10 6.526016e-08 4.0771766e-08 8.6999194e-08
7.2203115e-08 6.672908e-08 3.787373e-08 8.6187775e-08 3.3886391e-09 4.461212e-09 3.5701275e-09 5.463504e-09
8.2924146e-08 9.2149804e-08 4.3918323e-08 1.15946605e-07 1.5351091e-07 1.7089334e-07 8.292595e-08 2.1203765e-07
3.8393696e-07 4.0878092e-07 2.3723754e-07 5.250586e-07 0.0 0.0 0.0 0.0
1.0325712e-07 1.0175641e-07 5.6364733e-08 1.3459733e-07 6.3459446e-08 6.5605896e-08 3.8294555e-08 8.1164735e-08
1.036157e-09 6.473257e-11 1.5362264e-09 3.345997e-10 7.862327e-08 1.11563175e-07 8.0191505e-08 1.4035489e-07
0.0 1.2426345e-10 2.2939635e-09 6.550394e-10 5.5090374e-07 6.14301e-07 3.6929526e-07 7.961544e-07
3.3831623e-07 1.5632575e-07 7.396919e-08 1.9239125e-07 1.6170262e-07 1.9588364e-07 1.1852398e-07 2.5068368e-07
0.0 0.0 0.0 0.0 8.2070073e-07 9.755294e-07 6.1766787e-07 1.2643085e-06
2.1312275e-07 1.8069655e-07 1.03095445e-07 2.2030653e-07 2.90731e-07 2.3549389e-07 8.9843475e-08 2.8669638e-07
0.0 0.0 0.0 0.0 2.6243274e-08 1.894358e-08 1.4205857e-08 2.4127598e-08
7.9347544e-08 8.2898055e-08 3.6719637e-08 1.0422167e-07 1.28269855e-17 3.7789184e-07 2.4807736e-07 5.1174885e-07

exp_avg f4 [64]
00000000: 32b2 f3b8 b883 8d34 fc96 0bb8 be58 3c32
00000010: 3bc5 60b9 db39 a8b3 0000 0000 8fc1 3439
00000020: 48ad 04b7 09e0 b6b4 9992 67b7 2238 4ab6
00000030: 0000 0000 0000 0000 f8ca f437 9ac7 a437
00000040: 0000 0000 71de 7d38 0400 0000 790c 5f39
00000050: 0000 0000 b7ce 2b38 c8a0 0038 3c01 ad2a
00000060: e3b8 ecb8 fa18 29b9 956d 36b8 8f0c 6938
00000070: 207d 07b8 a53c c5b7 e0c7 97b3 8d26 2ab9
00000080: efa3 bfb7 74e5 7034 e356 5b38 0000 0000
00000090: dd82 2eb2 0000 0000 5708 6db8 2323 fab8
000000a0: bb25 84b7 1fd0 5ab5 d134 86b8 6141 d136
000000b0: 09d9 7ab8 9706 97b8 a81a 08b9 0000 0000
000000c0: 798e ba38 00c0 32b8 5e53 e732 0ea7 84b8
000000d0: d2c0 e8b0 2c7d 80b9 1e26 1239 0d55 92b8
000000e0: 0000 0000 57c8 5e39 f217 cf38 b346 1839
000000f0: 0000 0000 998d c237 0117 8e38 f2cd 05b6
-0.000116203344 2.6359135e-07 -3.3280798e-05 1.0963218e-08 -0.00021435779 -7.8336335e-08 0.0 0.00017238244
-7.908158e-06 -3.406315e-07 -1.3802805e-05 -3.013302e-06 0.0 0.0 2.9181581e-05 1.964327e-05
0.0 6.0527065e-05 6e-45 0.00021271584 0.0 4.0962095e-05 3.0667317e-05 3.073183e-13
-0.00011287795 -0.000161264 -4.3494238e-05 5.5563225e-05 -3.230304e-05 -2.351247e-05 -7.0678425e-08 -0.00016226825
-2.2845312e-05 2.2435216e-07 5.229459e-05 0.0 -1.0157888e-08 0.0 -5.651297e-05 -0.00011927474
-1.5753196e-05 -8.1514185e-07 -6.399456e-05 6.2362965e-06 -5.9806775e-05 -7.2014685e-05 -0.00012979901 0.0
8.895709e-05 -4.261732e-05 2.692985e-08 -6.325367e-05 -1.6935024e-09 -0.00024507323 0.00013937845 -6.9776645e-05
0.0 0.00021246202 9.874989e-05 0.00014522187 0.0 2.3192539e-05 6.7753725e-05 -1.993842e-06

exp_avg_sq f4 [64]
00000000: c080 b234 e1e2 2831 5827 5532 05c9 9330
00000010: 38eb 3835 e004 4231 0000 0000 40c1 a535
00000020: ad98 c831 1d31 9332 16d5 0633 129d 0d32
00000030: 0000 0000 0000 0000 8a16 a932 ec5d 7631
00000040: 0000 0000 ae8a 2e34 d610 3916 244a e835
00000050: 0000 0000 3c17 bf32 6fac f232 21ac b71d
00000060: 4961 b134 a2ea cf34 9aeb 2a35 8eae cc33
00000070: 7081 0834 4e23 6031 4088 9c2f 0317 5d35
00000080: 2343 0133 a43c 8532 c697 c533 0000 0000
00000090: 0b55 0a2d 0000 0000 b816 b234 a4b2 0735
000000a0: 36a2 a032 1d3a 4534 d851 3634 f455 7032
000000b0: 5367 7634 184b e534 7765 8b35 0000 0000
000000c0: 2224 8834 e5c1 3234 0a3b 3431 e233 9834
000000d0: 67e4 5731 9dcc cc35 c09d b634 71e4 0835
000000e0: 0000 0000 55fe 2736 9d25 dc34 2df3 0835
000000f0: 0000 0000 3314 6633 7b6d 5934 6987 8d35
3.3248762e-07 2.4576183e-09 1.24071775e-08 1.0752791e-09 6.888763e-07 2.8233487e-09 0.0 1.2349701e-06
5.8381233e-09 1.7135386e-08 3.1393107e-08 8.242994e-09 0.0 0.0 1.9684439e-08 3.58511e-09
0.0 1.6255464e-07 1.4949493e-25 1.7306925e-06 0.0 2.2245892e-08 2.8250922e-08 4.8617674e-21
3.3039603e-07 3.8727472e-07 6.367278e-07 9.5312416e-08 1.2713076e-07 3.2616359e-09 2.8473046e-10 8.23624e-07
3.0096214e-08 1.5510814e-08 9.201135e-08 0.0 7.863275e-12 0.0 3.3171614e-07 5.0551375e-07
1.8700216e-08 1.8368196e-07 1.6979845e-07 1.3989382e-08 2.2948124e-07 4.2709212e-07 1.0385837e-06 0.0
2.5358264e-07 1.664808e-07 2.6227007e-09 2.8349956e-07 3.141645e-09 1.5258735e-06 3.401492e-07 5.0996374e-07
0.0 2.503298e-06 4.100556e-07 5.1017815e-07 0.0 5.356942e-08 2.0249529e-07 1.0544728e-06

exp_avg f4 [128, 64]
00000000: 0000 0000 0000 0000 0000 0000 0000 0000
00000010: 0000 0000 0400 0000 0000 0000 0400 0000
00000020: 0000 0000 0000 0000 0400 0000 0000 0000
00000030: 0000 0000 0000 0000 0000 0000 0000 0000
00000040: 0000 0000 0400 0000 0000 0000 0400 0000
00000050: 0000 0000 0400 0000 0400 0000 0000 0000
00000060: 0400 0000 0000 0000 0400 0000 0400 0000
00000070: 0400 0000 0400 0000 0000 0000 0000 0000
00000080: 0000 0000 0000 0000 0400 0000 0000 0000
00000090: 0400 0000 0000 0000 0400 0000 0000 0000
000000a0: 0400 0000 0400 0000 0400 0000 0000 0000
000000b0: 0400 0000 0000 0000 0000 0000 0000 0000
000000c0: 0400 0000 0400 0000 0400 0000 0400 0000
000000d0: 0400 0000 0400 0000 0000 0000 0400 0000
000000e0: 0000 0000 0000 0000 0400 0000 0000 0000
000000f0: 0000 0000 0400 0000 0400 0000 0400 0000
00000100: b90d 2432 cb24 cdaf a56a b431 ba27 742e
00000110: 0400 0000 6146 9832 0000 0000 0d62 8d32
00000120: d7b9 5231 31f0 ca2f 0f4b 9f32 f55a 4432
00000130: 0000 0000 0000 0000 c3dd 9131 0400 0000
00000140: 0000 0000 7939 9c32 0000 0000 7ebf 4232
00000150: 0000 0000 11d6 7331 539a 1a32 0000 0000
00000160: d15c c531 0400 0000 fa0a 8731 737d cc32
00000170: fa77 eeb1 39cc c232 2ded fb2f 41f5 35aa
00000180: 44e1 3b30 29f1 3aac 8ecd cd32 0000 0000
00000190: 8171 aab1 0000 0000 e9de b632 73f5 ae32
000001a0: 8fda 7232 b9ab 90b0 d62c 94b1 5b24 a030
000001b0: c4ea 6431 5193 8732 ca28 a231 0000 0000
000001c0: a23d cf31 3bd4 98b1 d9d6 202d 04bf 79b0
000001d0: d8f2 8b2c e8ca 7b2f 2cfc 7032 bfc7 a1b1
000001e0: 0000 0000 a0c6 8732 e75a e231 d23d 7f32
000001f0: 0000 0000 1d93 fb32 160a d632 f2ec 05b2
00000200: 587a b537 808d 65b1 df98 8a37 45f0 052e
00000210: 5977 0437 c2ba 8537 0000 0000 9665 8237
00000220: 90b6 22b5 0c91 e031 6182 d737 5093 6632
00000230: 0000 0000 0000 0000 a34e a337 8015 2634
00000240: 0000 0000 87ec df37 0400 0000 b444 6e37
00000250: 0000 0000 88fd cb37 f401 4e38 78aa 61a4
00000260: 4d52 0837 6342 8c36 d57a c7b4 9ee4 3538
00000270: 219f 0138 7f29 3d38 bc35 43b0 f4bd f035
00000280: 76bb 2037 5a9b 2fb1 38c7 b437 0000 0000
00000290: 87e2 2330 0000 0000 29d7 5d38 f68e c337
000002a0: cbbb 9037 23e7 c8b2 534d 6836 8627 f7b4
000002b0: e356 6937 c3e2 0438 1fa4 d537 0000 0000
000002c0: 3214 cd37 e88d 1538 a451 31af 90ef b637
000002d0: 79c5 072f 4d19 3437 63e2 4236 3d2d b537
000002e0: 0000 0000 5e72 c236 f6b5 7337 9bf2 3237
000002f0: 0000 0000 ec29 7a36 7eda f937 bc01 73b3
00000300: 0400 0000 0000 0000 0000 0000 0000 0000
00000310: 0000 0000 0400 0000 0000 0000 0000 0000
00000320: 0400 0000 0000 0000 0400 0000 0000 0000
00000330: 0000 0000 0000 0000 0400 0000 0000 0000
00000340: 0000 0000 0400 0000 0000 0000 0400 0000
00000350: 0000 0000 0400 0000 0400 0000 0400 0000
00000360: 0400 0000 0000 0000 0400 0000 0400 0000
00000370: 0400 0000 0400 0000 0000 0000 0400 0000
00000380: 0000 0000 0400 0000 0400 0000 0000 0000
00000390: 0000 0000 0000 0000 0400 0000 0400 0000
000003a0: 0400 0000 0400 0000 0400 0000 0000 0000
000003b0: 0400 0000 0400 0000 0400 0000 0000 0000
000003c0: 0400 0000 0400 0000 0400 0000 0400 0000
000003d0: 0000 0000 0400 0000 0000 0000 0400 0000
000003e0: 0000 0000 0400 0000 0400 0000 0000 0000
000003f0: 0000 0000 0400 0000 0400 0000 0000 0000
0.0 0.0 0.0 0.0 0.0 6e-45 0.0 6e-45
0.0 0.0 6e-45 0.0 0.0 0.0 0.0 0.0
0.0 6e-45 0.0 6e-45 0.0 6e-45 6e-45 0.0
6e-45 0.0 6e-45 6e-45 6e-45 6e-45 0.0 0.0
0.0 0.0 6e-45 0.0 6e-45 0.0 6e-45 0.0
6e-45 6e-45 6e-45 0.0 6e-45 0.0 0.0 0.0
6e-45 6e-45 6e-45 6e-45 6e-45 6e-45 0.0 6e-45
0.0 0.0 6e-45 0.0 0.0 6e-45 6e-45 6e-45
9.549177e-09 -3.7315426e-10 5.2508136e-09 5.551446e-11 6e-45 1.7727134e-08 0.0 1.6459149e-08
3.066466e-09 3.6914252e-10 1.8544169e-08 1.1429383e-08 0.0 0.0 4.245267e-09 6e-45
0.0 1.8186926e-08 0.0 1.13358265e-08 0.0 3.5482837e-09 8.999069e-09 0.0
5.7440066e-09 6e-45 3.930265e-09 2.3805773e-08 -6.9403514e-09 2.2677442e-08 4.5825158e-10 -1.6161119e-13
6.8350325e-10 -2.656606e-12 2.3958616e-08 0.0 -4.960555e-09 0.0 2.1288956e-08 2.0367883e-08
1.4135948e-08 -1.0526185e-09 -4.312464e-09 1.1651865e-09 3.3311816e-09 1.578306e-08 4.7194577e-09 0.0
6.0314997e-09 -4.44791e-09 9.142653e-12 -9.085712e-10 3.9775787e-12 2.2900404e-10 1.4027176e-08 -4.708425e-09
0.0 1.5806393e-08 6.5878e-09 1.485701e-08 0.0 2.9287145e-08 2.4917465e-08 -7.795494e-09
2.1633852e-05 -3.340432e-09 1.6522068e-05 3.04541e-11 7.895601e-06 1.5941801e-05 0.0 1.5544512e-05
-6.0615366e-07 6.535748e-09 2.569071e-05 1.3421257e-08 0.0 0.0 1.9467732e-05 1.5467776e-07
0.0 2.6693813e-05 6e-45 1.4201902e-05 0.0 2.4317545e-05 4.9116046e-05 -4.893349e-17
8.125394e-06 4.1800536e-06 -3.715601e-07 4.336668e-05 3.0904197e-05 4.5099758e-05 -7.101695e-10 1.7936677e-06
9.58039e-06 -2.5554159e-09 2.155044e-05 0.0 5.962097e-10 0.0 5.289089e-05 2.3312383e-05
1.7253586e-05 -2.3388173e-08 3.4615703e-06 -4.6036092e-07 1.3908112e-05 3.168244e-05 2.5468004e-05 0.0
2.4447309e-05 3.565653e-05 -1.6127061e-10 2.1807646e-05 1.2348335e-10 1.0734727e-05 2.9040027e-06 2.1597947e-05
0.0 5.7949646e-06 1.4526295e-05 1.0666113e-05 0.0 3.7277305e-06 2.9784856e-05 -5.6579424e-08
6e-45 0.0 0.0 0.0 0.0 6e-45 0.0 0.0
6e-45 0.0 6e-45 0.0 0.0 0.0 6e-45 0.0
0.0 6e-45 0.0 6e-45 0.0 6e-45 6e-45 6e-45
6e-45 0.0 6e-45 6e-45 6e-45 6e-45 0.0 6e-45
0.0 6e-45 6e-45 0.0 0.0 0.0 6e-45 6e-45
6e-45 6e-45 6e-45 0.0 6e-45 6e-45 6e-45 0.0
6e-45 6e-45 6e-45 6e-45 0.0 6e-45 0.0 6e-45
0.0 6e-45 6e-45 0.0 0.0 6e-45 6e-45 0.0

exp_avg_sq f4 [128, 64]
00000000: 0000 0000 0000 0000 0000 0000 0000 0000
00000010: 0000 0000 4f19 6f0e 0000 0000 b650 270b
00000020: 0000 0000 0000 0000 fe2f 0310 0000 0000
00000030: 0000 0000 0000 0000 0000 0000 0000 0000
00000040: 0000 0000 d895 540f 0000 0000 bc32 8710
00000050: 0000 0000 b6fc 7210 ee98 d610 0000 0000
00000060: b197 310a 0000 0000 119c 7d0c 90d5 1311
00000070: 9f3f 9f0f a7ca c810 0000 0000 0000 0000
00000080: 0000 0000 0000 0000 d5de 1710 0000 0000
00000090: d83a 3c02 0000 0000 ab46 9010 0000 0000
000000a0: 1c63 000f 61c8 970f a30f a80f 0000 0000
000000b0: ebde d406 0000 0000 0000 0000 0000 0000
000000c0: f2e5 d410 b4e8 7c10 7ec1 7b06 46c8 c50e
000000d0: 2f34 6a0d 4526 d80d 0000 0000 28f5 310f
000000e0: 0000 0000 0000 0000 d124 6c0e 0000 0000
000000f0: 0000 0000 83fc 7f0f c580 f210 e259 4f0f
00000100: af32 5129 5375 a527 10e7 3028 f4fc 3228
00000110: 786b d512 5472 9f2b 0000 0000 ef44 032d
00000120: 3b92 1827 75e4 1c2b 69ca 182d f080 dd29
00000130: 0000 0000 0000 0000 906e 6827 0404 e913
00000140: 0000 0000 304e 5c2b 0000 0000 b4b0 0f2e
00000150: 0000 0000 d409 b32d 10e1 a72d 0000 0000
00000160: 46de 182c c5ea 8d10 cbff 6f2c 43cd 2a2e
00000170: e324 af2c 1317 ab2d 2e23 ab24 188c 2524
00000180: fad9 632b af07 1828 dab5 442d 0000 0000
00000190: 9a36 ba2b 0000 0000 7b8c bb2d 597a ae2b
000001a0: 910a 872b 65dc fd2b 1d29 012d 47bc c02b
000001b0: 2a05 ab2b 875a bb2a 3987 9327 0000 0000
000001c0: 5aff da2d d3ed b02d 82a3 082b d1b1 172a
000001d0: b1af aa2a 7d1c b52b 8532 952b 8728 122c
000001e0: 0000 0000 9b74 092d 9a9f fa2a d30f 7d2c
000001f0: 0000 0000 8ef0 d42c 83a8 012e 39f7 cc2c
00000200: 1e37 7031 870f 5b2b 740e 6b30 fb2c 802c
00000210: 5f60 0e2f 6e8c 7731 0000 0000 0854 4031
00000220: cd8c 392e e9c2 372d 2e5f 8932 8ef3 242d
00000230: 0000 0000 0000 0000 942c 0e31 31bd 3c2a
00000240: 0000 0000 d71d ad31 2500 300e ab65 ed31
00000250: 0000 0000 ec1d 5a32 007d 1133 f610 6a18
00000260: 0794 ac31 3b4c 4b2f 78f2 a32f b902 f632
00000270: 8593 4f32 e920 dc32 cdbf 2428 8993 b72f
00000280: 324a 2c30 9a09 9d2d 0db8 4a32 0000 0000
00000290: 79c5 ad2a 0000 0000 c01b 4333 55c3 5f32
000002a0: 1dda 8c31 69ba 5930 d9a3 c431 7a47 992f
000002b0: f078 b931 59fc 4432 4871 a831 0000 0000
000002c0: a19e 4032 2db8 dc32 e58d f52c ebcd 5d31
000002d0: ef16 872d 2772 c031 5c3f ca2f 9722 fa31
000002e0: 0000 0000 4d77 0131 db43 2d30 0f5d d230
000002f0: 0000 0000 aac3 4731 2f1f 9332 8cdf b22f
00000300: 15cb 810d 0000 0000 0000 0000 0000 0000
00000310: 0000 0000 f541 6b16 0000 0000 0000 0000
00000320: 17b7 bd15 0000 0000 f39a ce17 0000 0000
00000330: 0000 0000 0000 0000 2a1a 4016 0000 0000
00000340: 0000 0000 56e3 bf16 0000 0000 5965 b313
00000350: 0000 0000 bb2e 9815 7cbe 5417 8536 c411
00000360: 1dcb 6a16 0000 0000 9d18 5913 e581 5817
00000370: 76e7 d913 085e 7017 0000 0000 81e6 f10d
00000380: 0000 0000 1053 d710 0796 a617 0000 0000
00000390: 0000 0000 0000 0000 64ff b717 4217 f416
000003a0: ac23 0a17 94d5 1e09 698b 9d15 0000 0000
000003b0: a243 3b15 02ba 0316 4f30 4b16 0000 0000
000003c0: 1737 2716 3941 b715 3751 1f14 1a70 0d15
000003d0: 0000 0000 16d3 ca15 0000 0000 1fcd 7014
000003e0: 0000 0000 d545 220c d127 c314 0000 0000
000003f0: 0000 0000 d954 9117 818e 8017 0000 0000
0.0 0.0 0.0 0.0 0.0 2.947121e-30 0.0 3.222375e-32
0.0 0.0 2.5872166e-29 0.0 0.0 0.0 0.0 0.0
0.0 1.0481266e-29 0.0 5.332628e-29 0.0 4.7920766e-29 8.464374e-29 0.0
8.55077e-33 0.0 1.9537376e-31 1.1662064e-28 1.5703116e-29 7.9198326e-29 0.0 0.0
0.0 0.0 2.9951163e-29 0.0 1.3828946e-37 0.0 5.6906866e-29 0.0
6.329975e-30 1.4966933e-29 1.6572102e-29 0.0 8.0073085e-35 0.0 0.0 0.0
8.397354e-29 4.9877505e-29 4.735001e-35 4.8757106e-30 7.216963e-31 1.3321241e-30 0.0 8.773989e-30
0.0 0.0 2.9106972e-30 0.0 0.0 1.2621103e-29 9.565057e-29 1.0223199e-29
4.6451283e-14 4.5923903e-15 9.820066e-15 9.935835e-15 1.3468683e-27 1.1329362e-12 0.0 7.461794e-12
2.117351e-15 5.573938e-13 8.685144e-12 9.8367386e-14 0.0 0.0 3.2256404e-15 5.882143e-27
0.0 7.826821e-13 0.0 3.267138e-11 0.0 2.0354309e-11 1.908565e-11 0.0
2.1723886e-12 5.5976414e-29 3.4105936e-12 3.8835834e-11 4.9778944e-12 1.9450696e-11 7.4219025e-17 3.5897336e-17
8.0949104e-13 8.439361e-15 1.1181689e-11 0.0 1.323125e-12 0.0 2.1321825e-11 1.2397402e-12
9.59526e-13 1.8037903e-12 7.34193e-12 1.3694678e-12 1.2151714e-12 3.328069e-13 4.0947305e-15 0.0
2.489713e-11 2.0114499e-11 4.854382e-13 1.3473187e-13 3.0319977e-13 1.2868731e-12 1.0601109e-12 2.0770345e-12
0.0 7.81344e-12 4.4519667e-13 3.5962247e-12 0.0 6.0521093e-12 2.9480873e-11 5.825476e-12
3.4955927e-09 7.782598e-13 8.551304e-10 3.6429726e-12 1.2949063e-10 3.6023056e-09 0.0 2.7987443e-09
4.2189186e-11 1.0445624e-11 1.5992182e-08 9.376401e-12 0.0 0.0 2.068906e-09 1.6763393e-13
0.0 5.038355e-09 2.1693744e-30 6.909166e-09 0.0 1.26960735e-08 3.387413e-08 3.0252354e-24
5.0226876e-09 1.8489825e-10 2.9821812e-10 2.8639407e-08 1.2082528e-08 2.5626337e-08 9.145419e-15 3.3392336e-10
6.2678673e-10 1.7853097e-11 1.1799796e-08 0.0 3.0867998e-13 0.0 4.5427214e-08 1.3024722e-08
4.099333e-09 7.9209045e-10 5.722978e-09 2.7881325e-10 5.3979576e-09 1.1466079e-08 4.902322e-09 0.0
1.1211939e-08 2.5695124e-08 6.9790723e-12 3.2276783e-09 1.5357908e-11 5.600913e-09 3.6788605e-10 7.27989e-09
0.0 1.8839785e-09 6.303346e-10 1.530596e-09 0.0 2.9069533e-09 1.7127233e-08 3.253685e-10
7.999129e-31 0.0 0.0 0.0 0.0 1.9003961e-25 0.0 0.0
7.6625357e-26 0.0 1.3351553e-24 0.0 0.0 0.0 1.5517892e-25 0.0
0.0 3.1001183e-25 0.0 4.528589e-27 0.0 6.146604e-26 6.874132e-25 3.0956948e-28
1.8966461e-25 0.0 2.7401386e-27 6.9957314e-25 5.500674e-27 7.7666867e-25 0.0 1.49082635e-30
0.0 8.4930525e-29 1.0765371e-24 0.0 0.0 0.0 1.1890567e-24 3.9435004e-25
4.463523e-25 1.9118982e-33 6.3631745e-26 0.0 3.7817702e-26 1.064079e-25 1.6413453e-25 0.0
1.3507536e-25 7.4016015e-26 8.043465e-27 2.8563156e-26 0.0 8.1920185e-26 0.0 1.21573565e-26
0.0 1.250104e-31 1.9705673e-26 0.0 0.0 9.391824e-25 8.307779e-25 0.0

exp_avg f4 [128]
00000000: 0400 0000 33a1 c732 6e7a 1b38 0400 0000
00000010: 0000 0000 0000 0000 e4b7 ce37 0000 0000
00000020: fc7c 7338 b000 a737 0400 0000 c4e8 5ab8
00000030: 0000 0000 9ced 9cb7 0000 0000 f580 5bb7
00000040: 0000 0000 0000 0000 0000 0000 0000 0000
00000050: cf96 a5b7 0000 0000 0400 0000 47ac a338
00000060: 0400 0000 0800 cfb7 f490 4038 696a 24b8
00000070: f401 48b8 7cdf 9135 d8cb 10b8 4f8d 5738
00000080: 5c71 8ab8 b31e 1db7 2e03 4fb8 4433 ac38
00000090: dfe2 3bb7 73bf c238 181e b8b2 23c9 1db8
000000a0: 2369 2c37 f025 ebb7 d36a d0b7 0000 0000
000000b0: 0400 0000 0000 0000 0400 0000 0400 0000
000000c0: 0400 0000 0000 0000 a1d7 e037 0000 0000
000000d0: 9be7 beb7 4722 c3b7 a0a5 8437 68e2 99b7
000000e0: 1566 a736 0423 f534 2cdf fdb6 0400 0000
000000f0: 3753 b237 5bda 72b7 0188 63b7 b8d2 54b6
00000100: 941a 6238 5a47 8834 0400 0000 aeb4 6db7
00000110: 4f9a 7d35 7c1c 8a38 42e0 3ab8 6688 6ab8
00000120: 3573 a238 0000 0000 0400 0000 c106 d4b7
00000130: 78ce 81b6 e30b 65b7 1859 9138 7a99 4db6
00000140: 0000 0000 b976 feb6 6cd1 3236 a78a 9fb4
00000150: 0000 0000 37b0 efb7 bf41 6eb7 31fa 9cb7
00000160: 0000 0000 0000 0000 e905 18b8 106c 0137
00000170: 0000 0000 a566 9b36 0400 0000 f8fa 0eb8
00000180: 5797 f436 5298 e2b7 61c2 2eb8 ec0b 56b7
00000190: 0000 0000 0400 0000 6587 deb6 0000 0000
000001a0: 0000 0000 f549 a938 0000 0000 0000 0000
000001b0: 8ed4 03b9 0000 0000 0000 0000 0000 0000
000001c0: 0000 0000 0400 0000 3e6e 5db8 b063 96b6
000001d0: a7ed 72b8 0400 0000 3926 4636 1646 1737
000001e0: 88df 2e38 d6d2 3137 cf23 dbb7 0000 0000
000001f0: 6d2e 10b7 4d59 2f37 0000 0000 0400 0000
6e-45 2.3239954e-08 3.70689e-05 6e-45 0.0 0.0 2.4642744e-05 0.0
5.8052115e-05 1.9908271e-05 6e-45 -5.219203e-05 0.0 -1.8707295e-05 0.0 -1.3083442e-05
0.0 0.0 0.0 0.0 -1.9739758e-05 0.0 6e-45 7.804535e-05
6e-45 -2.4676337e-05 4.5911365e-05 -3.919975e-05 -4.7685535e-05 1.0868384e-06 -3.452212e-05 5.13916e-05
-6.6014676e-05 -9.365077e-06 -4.9355607e-05 8.211148e-05 -1.1198891e-05 9.286301e-05 -2.1434104e-08 -3.761904e-05
1.0276478e-05 -2.8031849e-05 -2.4845276e-05 0.0 6e-45 0.0 6e-45 6e-45
6e-45 0.0 2.680329e-05 0.0 -2.2757615e-05 -2.3261773e-05 1.5812751e-05 -1.834445e-05
4.9888718e-06 4.5660283e-07 -7.565968e-06 6e-45 2.1258003e-05 -1.4475164e-05 -1.356192e-05 -3.1713116e-06
5.390735e-05 2.538389e-07 6e-45 -1.4168369e-05 9.4474393e-07 6.5856584e-05 -4.4554712e-05 -5.591698e-05
7.746221e-05 0.0 6e-45 -2.5275514e-05 -3.8685357e-06 -1.3652231e-05 6.930734e-05 -3.0636716e-06
0.0 -7.583611e-06 2.6645966e-06 -2.971694e-07 0.0 -2.8573077e-05 -1.4201213e-05 -1.8713154e-05
0.0 0.0 -3.624513e-05 7.714159e-06 0.0 4.6313094e-06 6e-45 -3.408917e-05
7.289385e-06 -2.701223e-05 -4.1665862e-05 -1.275817e-05 0.0 6e-45 -6.6318776e-06 0.0
0.0 8.0723235e-05 0.0 0.0 -0.00012572316 0.0 0.0 0.0
0.0 6e-45 -5.2793177e-05 -4.4819535e-06 -5.7918627e-05 6e-45 2.9526548e-06 9.0166195e-06
4.1693012e-05 1.0599111e-05 -2.6123509e-05 0.0 -8.593878e-06 1.0451605e-05 0.0 6e-45

exp_avg_sq f4 [128]
00000000: ea9d 1011 8103 902e 7aae 3a33 9c01 8a17
00000010: 0000 0000 0000 0000 b180 9231 0000 0000
00000020: 503b 2333 5af6 0e31 e708 6719 4de4 f933
00000030: 0000 0000 a622 8d32 0000 0000 4b9b 1132
00000040: 0000 0000 0000 0000 0000 0000 0000 0000
00000050: 3b06 6e32 0000 0000 94b9 c213 4ef3 5f34
00000060: 09f4 611c f0e5 4633 26ab e233 53a6 5b33
00000070: f78c 9233 6969 e031 beac 2034 2226 b833
00000080: 6da9 8d34 58e0 1a33 f298 6d33 1aa6 de33
00000090: a5cc 7931 03f6 a834 0f6d 1330 33cf 1f33
000000a0: 8b74 a331 8979 d133 df53 0732 0000 0000
000000b0: 1d08 881d 0000 0000 f5a7 ae1c 55b8 5b1c
000000c0: f61c 0319 0000 0000 5d53 e331 0000 0000
000000d0: 6e8b 4033 a229 6d31 7644 0233 b1af 4431
000000e0: ecb3 1a33 77e9 7e33 749b 0334 f498 141c
000000f0: 0599 e831 8228 7f32 150c 8333 b875 2f31
00000100: 3202 b033 c330 9732 3013 dd18 ae9a fd32
00000110: d722 6731 1282 2234 7500 a233 4a77 eb32
00000120: d644 5034 0000 0000 1655 f31a 8942 ad33
00000130: 7919 9732 04ba 6032 c2fc 6e34 e1e3 df2f
00000140: 0000 0000 9927 d432 9816 d530 a96f ad2c
00000150: 0000 0000 68b3 3233 bcf6 d932 4390 8233
00000160: 0000 0000 0000 0000 7069 7732 6321 bf31
00000170: 0000 0000 bb51 2a33 f7e3 301c 5906 ab32
00000180: e2f3 1530 d146 b132 f657 9733 175d 3932
00000190: 0000 0000 53e2 971c 969e 8f31 0000 0000
000001a0: 0000 0000 1623 8234 0000 0000 0000 0000
000001b0: 2309 f133 0000 0000 0000 0000 0000 0000
000001c0: 0000 0000 232f d71a 025a 9833 45f0 3e30
000001d0: 40f8 0534 07ed 1e1b acf5 1a32 de37 1130
000001e0: a4ff 9a33 6b6a 8532 c04a a933 0000 0000
000001f0: 167b 4433 ca01 1032 0000 0000 a571 da17
1.1408258e-28 6.548984e-11 4.3465185e-08 8.918447e-25 0.0 0.0 4.2637898e-09 0.0
3.800534e-08 2.0803754e-09 1.1944218e-23 1.1636494e-07 0.0 1.6430317e-08 0.0 8.47542e-09
0.0 0.0 0.0 0.0 1.385484e-08 0.0 4.915548e-27 2.0857007e-07
7.4761663e-22 4.6309594e-08 1.0555077e-07 5.1141182e-08 6.824296e-08 6.5312418e-09 1.4964004e-07 8.575104e-08
2.638657e-07 3.605996e-08 5.5319965e-08 1.0367894e-07 3.6350596e-09 3.1471436e-07 5.363327e-10 3.720852e-08
4.7571738e-09 9.754428e-08 7.877104e-09 0.0 3.600729e-21 0.0 1.155777e-21 7.2699265e-22
6.77839e-24 0.0 6.616047e-09 0.0 4.4830294e-08 3.4511705e-09 3.033025e-08 2.8621623e-09
3.6019557e-08 5.935132e-08 1.2256879e-07 4.916678e-22 6.769485e-09 1.4852164e-08 6.1023606e-08 2.5532767e-09
8.196038e-08 1.7600888e-08 5.7146535e-24 2.9523417e-08 3.3634728e-09 1.5134745e-07 7.543796e-08 2.7411847e-08
1.9396552e-07 0.0 1.0063991e-22 8.068043e-08 1.7590297e-08 1.3080811e-08 2.225743e-07 4.0725381e-10
0.0 2.4698055e-08 1.5504211e-09 4.9293525e-12 0.0 4.1607024e-08 2.5374327e-08 6.079838e-08
0.0 0.0 1.4401266e-08 5.5626272e-09 0.0 3.9655543e-08 5.8528153e-22 1.9909907e-08
5.455246e-10 2.0637716e-08 7.0474854e-08 1.07895834e-08 0.0 1.0050845e-21 4.179877e-09 0.0
0.0 2.4239915e-07 0.0 0.0 1.1224099e-07 0.0 0.0 0.0
0.0 8.899807e-23 7.094424e-08 6.946304e-10 1.2476903e-07 1.3146041e-22 9.019839e-09 5.2830085e-10
7.2176846e-08 1.5531631e-08 7.883273e-08 0.0 4.5746752e-08 8.38231e-09 0.0 1.4116608e-24

exp_avg f4 [128, 128]
00000000: 0400 0000 0400 0080 ef26 8a35 0400 0080
00000010: 0000 0000 0000 0000 8c35 9435 0000 0000
00000020: 3131 7136 0b54 5636 0400 0000 f3dc dfb5
00000030: 0000 0000 06c9 7334 0000 0000 6e79 89b5
00000040: 0000 0000 0000 0000 0000 0000 0000 0000
00000050: dda8 a6b5 0000 0000 0400 0080 6605 2f36
00000060: 0400 0000 2443 c634 451f 2f35 2a28 8b34
00000070: 6734 cbb4 750f d7b5 2750 3eb5 91de 0136
00000080: 5f90 79b5 433f 88b5 f8c7 ac35 b11b f335
00000090: 6365 feb4 dfd0 c135 bfba 1131 8e4b 87b5
000000a0: 2bd4 4135 9449 2bb5 d3e3 99b5 0000 0000
000000b0: 0400 0080 0000 0000 0400 0080 0400 0000
000000c0: 0400 0000 0000 0000 7167 9235 0000 0000
000000d0: ef78 8934 948f 28b5 9fae da35 80ea 7735
000000e0: a01a 8c32 b32e d132 c23d 3f33 0400 0080
000000f0: 88d8 b4b5 355e 57b4 3a64 db33 f5f5 d1b5
00000100: ac2f 5436 663c 76b1 0400 0000 728c 19b5
00000110: 7f56 1133 c657 f135 2f16 d2b5 d084 edb3
00000120: 555b 3a36 0000 0000 0400 0080 29a1 0db6
00000130: 5427 a1b5 e677 92b5 e422 0536 169d 0735
00000140: 0000 0000 006a 8d35 2c4b 9eb5 0400 0080
00000150: 0000 0000 a46c 1635 d6b1 f1b4 111f 3f35
00000160: 0000 0000 0000 0000 fd09 2e36 c934 2c35
00000170: 0000 0000 a7fc 26b0 0400 0080 04dd a5b4
00000180: 1e62 c335 b84c 1d33 8aaa c3b3 2315 13b5
00000190: 0000 0000 0400 0080 70e9 92b4 0000 0000
000001a0: 0000 0000 7c16 2836 0000 0000 0000 0000
000001b0: 84a6 5bb4 0000 0000 0000 0000 0000 0000
000001c0: 0000 0000 0400 0000 54d9 bdb5 955c a933
000001d0: f2e3 08b5 0400 0080 7fed 74b2 2c53 9eb4
000001e0: 483b 2f36 c837 4a35 3d49 39b4 0000 0000
000001f0: 23db c0b4 1eb6 8634 0000 0000 0400 0080
00000200: 0000 0000 fd6f 1330 7e3e cc36 0000 0000
00000210: 0000 0000 0000 0000 17d5 9636 0000 0000
00000220: bafb 8336 aa87 2837 0000 0000 b2e5 0c36
00000230: 0000 0000 cc6d 9cb4 0000 0000 8c0d b636
00000240: 0000 0000 0000 0000 0000 0000 0000 0000
00000250: 295f 5936 0000 0000 0400 0080 bcc1 d035
00000260: 0400 0000 b217 1237 7d93 ce35 e843 9136
00000270: 5fe3 5236 3cb3 0637 88d5 d536 15a0 c435
00000280: 000d fc35 d021 f336 3b77 d9b5 f464 3036
00000290: 2866 0837 9aa4 8a35 b1b9 1933 7a4f 1736
000002a0: b2cd a5b4 56ba 8236 9c00 0237 0000 0000
000002b0: 0000 0000 0000 0000 0400 0080 0400 0000
000002c0: 0000 0000 0000 0000 b83a 6935 0000 0000
000002d0: 42b2 4c37 6a16 9a34 34dc 5936 bb44 3a35
000002e0: 9842 b131 322e 8632 cfbf 08b3 0000 0000
000002f0: af6e 1437 9e97 4936 a120 ae36 c3ae 9b36
00000300: 62c3 7136 cbf9 8831 0400 0000 b14c 8736
00000310: 3ac6 b1b4 23ea 3c36 ba53 1036 2d1b c432
00000320: 067d 1136 0000 0000 0000 0000 0463 ad36
00000330: fb06 d836 0fa2 d736 10d4 f435 8d9f bfb4
00000340: 0000 0000 bdb3 0c37 63fd 5b36 85b9 7db4
00000350: 0000 0000 48dc 6d37 e39f 2937 5338 b036
00000360: 0000 0000 0000 0000 d783 3a35 f4da 1bb3
00000370: 0000 0000 0508 68b1 0000 0000 9ace ad35
00000380: 45b8 4a36 94ec 5136 8f97 5936 5a36 3a37
00000390: 0000 0000 0000 0000 4ed7 9f36 0000 0000
000003a0: 0000 0000 2ea2 9235 0000 0000 0000 0000
000003b0: 637c 0333 0000 0000 0000 0000 0000 0000
000003c0: 0000 0000 0000 0000 b57b 8a36 5afa b233
000003d0: fdeb 3d36 0000 0000 45c4 f436 434f 5436
000003e0: 1774 8b36 c145 4d37 abde bc36 0000 0000
000003f0: 1902 3137 6798 de36 0000 0000 0400 0000
6e-45 -6e-45 1.0293132e-06 -6e-45 0.0 0.0 1.1042443e-06 0.0
3.5940432e-06 3.1937404e-06 6e-45 -1.6679099e-06 0.0 2.270427e-07 0.0 -1.0242636e-06
0.0 0.0 0.0 0.0 -1.241711e-06 0.0 -6e-45 2.6080174e-06
6e-45 3.6929225e-07 6.5238083e-07 2.591999e-07 -3.7849824e-07 -1.6023247e-06 -7.089715e-07 1.9352049e-06
-9.2969816e-07 -1.0151201e-06 1.2873197e-06 1.811297e-06 -4.7384955e-07 1.444041e-06 2.120643e-09 -1.0080273e-06
7.220685e-07 -6.3809534e-07 -1.1465694e-06 0.0 -6e-45 0.0 -6e-45 6e-45
6e-45 0.0 1.0907953e-06 0.0 2.560623e-07 -6.279381e-07 1.6293087e-06 9.235591e-07
1.6310253e-08 2.4352039e-08 4.452682e-08 -6e-45 -1.3474064e-06 -2.0057708e-07 1.0216213e-07 -1.5643296e-06
3.161821e-06 -3.5832044e-09 6e-45 -5.7201316e-07 3.383911e-08 1.7981445e-06 -1.5652676e-06 -1.1060331e-07
2.7769322e-06 0.0 -6e-45 -2.1104445e-06 -1.2006881e-06 -1.0912743e-06 1.9838853e-06 5.052001e-07
0.0 1.0536169e-06 -1.1793795e-06 -6e-45 0.0 5.603745e-07 -4.501914e-07 7.119825e-07
0.0 0.0 2.5933834e-06 6.4151806e-07 0.0 -6.074949e-10 -6e-45 -3.0894455e-07
1.4557188e-06 3.6624186e-08 -9.111416e-08 -5.4792525e-07 0.0 -6e-45 -2.7364467e-07 0.0
0.0 2.5047038e-06 0.0 0.0 -2.0456542e-07 0.0 0.0 0.0
0.0 6e-45 -1.4144848e-06 7.886516e-08 -5.099565e-07 -6e-45 -1.425667e-08 -2.949031e-07
2.6111538e-06 7.5332036e-07 -1.7256112e-07 0.0 -3.592223e-07 2.5091953e-07 0.0 -6e-45
0.0 5.3637433e-10 6.086949e-06 0.0 0.0 0.0 4.4951553e-06 0.0
3.933409e-06 1.0045167e-05 0.0 2.0995326e-06 0.0 -2.9137152e-07 0.0 5.4255997e-06
0.0 0.0 0.0 0.0 3.239091e-06 0.0 -6e-45 1.5553592e-06
6e-45 8.707795e-06 1.5391121e-06 4.329242e-06 3.1424786e-06 8.028754e-06 6.372753e-06 1.4649728e-06
1.8779247e-06 7.2459006e-06 -1.620246e-06 2.6284806e-06 8.130017e-06 1.0329707e-06 3.5791974e-08 2.2547015e-06
-3.0883308e-07 3.8959943e-06 7.748746e-06 0.0 0.0 0.0 -6e-45 6e-45
0.0 0.0 8.688471e-07 0.0 1.2200851e-05 2.8701044e-07 3.2463695e-06 6.9390416e-07
5.158949e-09 1.562066e-08 -3.1839416e-08 0.0 8.847258e-06 3.0039587e-06 5.1894026e-06 4.639705e-06
3.6025526e-06 3.986519e-09 6e-45 4.0322416e-06 -3.3113048e-07 2.8150469e-06 2.1506407e-06 2.2829761e-08
2.1679457e-06 0.0 0.0 5.1673287e-06 6.4381143e-06 6.4263654e-06 1.8241135e-06 -3.569261e-07
0.0 8.386499e-06 3.2781033e-06 -2.3629953e-07 0.0 1.4177589e-05 1.01104115e-05 5.2517657e-06
0.0 0.0 6.948225e-07 -3.6287886e-08 0.0 -3.3765002e-09 0.0 1.2949633e-06
3.0207605e-06 3.1281133e-06 3.2423739e-06 1.1099119e-05 0.0 0.0 4.763634e-06 0.0
0.0 1.0925048e-06 0.0 0.0 3.0613943e-08 0.0 0.0 0.0
0.0 0.0 4.127122e-06 8.3343096e-08 2.8300558e-06 0.0 7.2946154e-06 3.1636598e-06
4.1560374e-06 1.2235193e-05 5.6287586e-06 0.0 1.05505105e-05 6.6338575e-06 0.0 6e-45

exp_avg_sq f4 [128, 128]
00000000: 6605 ac06 6802 981b 19c3 9a30 a2b8 9f11
00000010: 0000 0000 0000 0000 1bb4 3130 0000 0000
00000020: 84b6 0d30 48c6 1831 ac83 0718 7f5f 2b2f
00000030: 0000 0000 17ef 862c 0000 0000 565c d52f
00000040: 0000 0000 0000 0000 0000 0000 0000 0000
00000050: c438 762f 0000 0000 2d06 6b0e 0bd4 a72f
00000060: 2add f218 e6a2 0e31 3b88 4d30 ad64 a32f
00000070: d79f f62e 9404 2431 9b4c 7930 9607 1b30
00000080: 8e3e 952f 8d81 dc30 466f ce2d d1f3 3430
00000090: 7df9 cf30 cd0a 932f 3ee7 f42c 6a31 cd2e
000000a0: 6810 932e 90f9 cd2f f7fc 5b30 0000 0000
000000b0: fe44 a21a 0000 0000 b915 8419 381d 771a
000000c0: 07d9 3511 0000 0000 a352 ba2e 0000 0000
000000d0: d9f0 8631 7680 112e 99de 572f 3247 e32c
000000e0: 15b5 852d 4346 852e 259d 6e2f 3343 f818
000000f0: b865 de30 fa58 e42f e455 6230 6876 b030
00000100: 1ce7 1e30 9330 b32d 7e30 c214 f702 0830
00000110: 88a9 cd2c 23b7 2430 60ef 902e 3ecb 082c
00000120: a500 c42f 0000 0000 6878 df15 2460 b130
00000130: 49d4 8530 a761 4630 17fe 912f ae0f 452d
00000140: 0000 0000 3e05 e030 85bc 7c30 07e7 1217
00000150: 0000 0000 e1c8 4631 89b7 de30 5c0c 8830
00000160: 0000 0000 0000 0000 e923 d22e da98 c92d
00000170: 0000 0000 cb0b df29 59a8 7f1a d0d0 fe2d
00000180: bba0 0030 7cc7 1130 ca13 c82e 075d 6c31
00000190: 0000 0000 0fb3 551b 8108 a130 0000 0000
000001a0: 0000 0000 0d96 0c30 0000 0000 0000 0000
000001b0: 0c24 af2a 0000 0000 0000 0000 0000 0000
000001c0: 0000 0000 3c38 2b18 2dce 632f 01f1 3a28
000001d0: 6966 4d2f 174d d61a 61ab a430 4020 0e30
000001e0: 86f0 6130 33f7 4931 e0e2 4030 0000 0000
000001f0: a33e 1b31 e89b c330 0000 0000 697b b513
00000200: 0000 0000 adb7 c128 4ef4 bc2f 0000 0000
00000210: 0000 0000 0000 0000 1c7f 3b2f 0000 0000
00000220: aada 882f 808f 4830 0000 0000 a592 d42d
00000230: 0000 0000 6df1 352d 0000 0000 e4c5 b42e
00000240: 0000 0000 0000 0000 0000 0000 0000 0000
00000250: d690 542e 0000 0000 ae24 850c 3e29 132f
00000260: 142c 4917 600d 1f30 853a 772f f3f1 092f
00000270: bb66 662e f673 0a30 3013 812f c15c 742f
00000280: c55e 982e 1730 b72f dbc5 4d2e a6b5 532f
00000290: 4917 d52f de87 e32e e75e 492d 4646 a22d
000002a0: 4b5f 522e d8e5 e82e 6a29 5a2f 0000 0000
000002b0: 0000 0000 0000 0000 85d4 9915 0db4 9814
000002c0: 0000 0000 0000 0000 1a67 222e 0000 0000
000002d0: c553 8330 8d79 502d f027 af2e ac1c 352d
000002e0: 52d9 9e2c 4610 de2c b184 e22e 0000 0000
000002f0: 3d08 b92f d42f d52e 84f6 7e2f fe02 9f2f
00000300: 5805 892f c8e7 a22d 31b8 910b cdee 032f
00000310: 7e17 2d2d 02b3 622f 41d1 aa2d 78b2 082c
00000320: 27cd 392f 0000 0000 0000 0000 3a0c 802f
00000330: 3b54 552f bac0 232f 17ba f62e b06b b62c
00000340: 0000 0000 2c32 f62f 728f 652f 9c0d 022a
00000350: 0000 0000 684c 6330 bc18 dd2f 5776 a72f
00000360: 0000 0000 0000 0000 2cb9 8e2e baa5 e12d
00000370: 0000 0000 4561 312a 0000 0000 904f 782d
00000380: dd96 162f f75a 112f 5de8 252e 5012 5b30
00000390: 0000 0000 0000 0000 4920 9e2f 0000 0000
000003a0: 0000 0000 cf6f 4e2f 0000 0000 0000 0000
000003b0: 955d 232a 0000 0000 0000 0000 0000 0000
000003c0: 0000 0000 0000 0000 e73e 5a2e 740a 9128
000003d0: eee9 822e 0000 0000 d19f 992f 8ff8 122f
000003e0: d5c3 a62f a868 4830 e647 6a2f 0000 0000
000003f0: 6008 1030 0a96 bc2f 0000 0000 df0d 220a
6.470714e-35 2.5147846e-22 1.1260425e-09 2.5199566e-28 0.0 0.0 6.464817e-10 0.0
5.155487e-10 2.223162e-09 1.7514818e-24 1.5586286e-10 0.0 3.8350534e-12 0.0 3.8810083e-10
0.0 0.0 0.0 0.0 2.2393737e-10 0.0 2.896896e-30 3.052779e-10
6.2778852e-24 2.0756317e-09 7.477216e-10 2.9721062e-10 1.1215178e-10 2.3867743e-09 9.0694535e-10 5.639945e-10
2.714739e-10 1.6043927e-09 2.3468904e-11 6.58301e-10 1.5132141e-09 2.674682e-10 6.96057e-12 9.3310984e-11
6.6877004e-11 3.7466608e-10 8.003122e-10 0.0 6.711309e-23 0.0 1.3657254e-23 5.1102006e-23
1.4345259e-28 0.0 8.47298e-11 0.0 3.9272945e-09 3.308328e-11 1.9633219e-10 6.4596323e-12
1.5200766e-11 6.060621e-11 2.1701803e-10 6.417435e-24 1.6181536e-09 4.153618e-10 8.234038e-10 1.2839338e-09
5.780849e-10 2.0371515e-11 1.9608121e-26 4.9480725e-10 5.845272e-12 5.9923105e-10 6.5908834e-11 1.9439584e-12
3.565265e-10 0.0 9.025895e-26 1.290577e-09 9.737359e-10 7.217075e-10 2.6555888e-10 1.1201635e-11
0.0 1.6299635e-09 9.194497e-10 4.746674e-25 0.0 2.8926979e-09 1.620479e-09 9.898815e-10
0.0 0.0 9.556073e-11 2.2918934e-11 0.0 9.905235e-14 5.2868754e-23 2.8969188e-11
4.679454e-10 5.3034177e-10 9.098462e-11 3.43954e-09 0.0 1.7676804e-22 1.1716709e-09 0.0
0.0 5.114494e-10 0.0 0.0 3.1111257e-13 0.0 0.0 0.0
0.0 2.2129623e-24 2.0718778e-10 1.03773335e-14 1.8681025e-10 8.863287e-23 1.1981279e-09 5.170513e-10
8.219633e-10 2.9389866e-09 7.01716e-10 0.0 2.2591073e-09 1.4232429e-09 0.0 4.5812515e-27
0.0 2.1506961e-14 3.437059e-10 0.0 0.0 0.0 1.7052709e-10 0.0
2.4893626e-10 7.29635e-10 0.0 2.4166733e-11 0.0 1.0342266e-11 0.0 8.220605e-11
0.0 0.0 0.0 0.0 4.833186e-11 0.0 2.051397e-31 1.3384224e-10
6.5002237e-25 5.786287e-10 2.248531e-10 1.2546035e-10 5.238719e-11 5.03689e-10 2.3478597e-10 2.2224624e-10
6.928994e-11 3.3321676e-10 4.6787334e-11 1.9254873e-10 3.876102e-10 1.03469e-10 1.14466e-11 1.8448475e-11
4.783311e-11 1.0590967e-10 1.9841698e-10 0.0 0.0 0.0 6.2131505e-26 1.5419095e-26
0.0 0.0 3.6926108e-11 0.0 9.555313e-10 1.1850421e-11 7.965173e-11 1.0295025e-11
4.5147575e-12 6.311426e-12 1.0300861e-10 0.0 3.3657158e-10 9.6946146e-11 2.3188745e-10 2.8924058e-10
2.4923952e-10 1.85202e-11 5.612911e-32 1.199922e-10 9.839128e-12 2.0618177e-10 1.941969e-11 1.9425832e-12
1.6898537e-10 0.0 0.0 2.3291752e-10 1.9402162e-10 1.4893234e-10 1.1219841e-10 5.184707e-12
0.0 4.4782789e-10 2.087839e-10 1.1551041e-13 0.0 8.26907e-10 4.021724e-10 3.0461209e-10
0.0 0.0 6.4903055e-11 2.5653136e-11 0.0 1.5754505e-13 0.0 1.4114834e-11
1.3696018e-10 1.321999e-10 3.7723037e-11 7.969776e-10 0.0 0.0 2.8762973e-10 0.0
0.0 1.8775313e-10 0.0 0.0 1.4509776e-13 0.0 0.0 0.0
0.0 0.0 4.962333e-11 1.6102767e-14 5.95327e-11 0.0 2.7944094e-10 1.3366928e-10
3.033437e-10 7.29083e-10 2.130772e-10 0.0 5.2398796e-10 3.430361e-10 0.0 7.802625e-33

exp_avg f4 [128]
00000000: c469 bb36 57d7 8837 df38 2937 0400 0000
00000010: 500d 7fb7 351b 96b6 0400 0000 0400 0000
00000020: dd98 cfb4 9f2a 52b7 f672 ddb7 0b61 f0b6
00000030: 6220 84b7 6cc5 d7b8 0000 0000 6df3 8e37
00000040: 0400 0000 20a5 3336 ae52 97b7 955c 73b6
00000050: 156a 09b7 0000 0000 0400 0000 48c3 2737
00000060: 0400 0000 0000 0000 0400 0000 8beb 1e37
00000070: b951 9f36 e92d f436 79a3 72b7 7823 feb6
00000080: 0400 0000 777e 2f37 0400 0000 0000 0000
00000090: 29af 0237 72a4 ad35 0000 0000 0400 0000
000000a0: 0400 0000 0400 0000 6eb4 1d34 0400 0000
000000b0: 71fc 24b7 0000 0000 0400 0000 71b2 dd37
000000c0: 0400 0000 0400 0000 c0af c7b6 3e8e 9136
000000d0: 6e48 81b6 8eed e636 040b 8436 caba 6936
000000e0: 0400 0000 0400 0000 e957 6837 8bce f632
000000f0: ac1f 3737 3ce0 c336 19b8 4937 b850 3737
00000100: 1100 2837 0000 0000 f35e 8236 5e8f f237
00000110: 8fd9 9a37 f95e 18b7 d4c4 60b5 fd64 14b5
00000120: a5ed 8f37 0400 0000 ee7b 62b1 0400 0000
00000130: 19d7 8fb8 0400 0000 84b4 2436 ec67 aa37
00000140: 0400 0000 0c22 3eb7 d1ea 39b3 0400 0000
00000150: f67c 2cb7 4a93 45b7 731e 35b7 0000 0000
00000160: 0000 0000 6974 84b8 83d3 85b6 2eea 4f37
00000170: 5ef8 2cb7 3e84 46b7 0400 0000 0400 0000
00000180: 1c33 4437 866c 82b7 967f 9d32 0000 0000
00000190: a429 6e36 0000 0000 0400 0000 c8a4 91b8
000001a0: 0400 0000 c80e b436 bd0d 9eb4 0400 0000
000001b0: 0e4f 28b7 baa6 8cb8 705f 83b6 23f0 3433
000001c0: 6060 fc36 0000 0000 0400 0000 17ec 1e37
000001d0: 0400 0000 0400 0000 0400 0000 5dc2 efb6
000001e0: 0400 0000 6404 b1b5 1f30 67b7 0400 0000
000001f0: 0400 0000 15c6 d9b7 f98e b4b6 0400 0000
5.585347e-06 1.6312739e-05 1.0086426e-05 6e-45 -1.5202284e-05 -4.4735157e-06 6e-45 6e-45
-3.8667977e-07 -1.2526899e-05 -2.6398786e-05 -7.1638547e-06 -1.5750706e-05 -0.000102887716 0.0 1.7041073e-05
6e-45 2.6769194e-06 -1.8039103e-05 -3.6263712e-06 -8.1905355e-06 0.0 6e-45 9.999443e-06
6e-45 0.0 6e-45 9.4723755e-06 4.748083e-06 7.2771113e-06 -1.44623855e-05 -7.573919e-06
6e-45 1.0460258e-05 6e-45 0.0 7.7893865e-06 1.2937364e-06 0.0 6e-45
6e-45 6e-45 1.4687404e-07 6e-45 -9.833938e-06 0.0 6e-45 2.6428346e-05
6e-45 6e-45 -5.951122e-06 4.337896e-06 -3.8529315e-06 6.882189e-06 3.935189e-06 3.482843e-06
6e-45 6e-45 1.3848746e-05 2.8732094e-08 1.0915024e-05 5.837557e-06 1.2023397e-05 1.0926444e-05
1.0013596e-05 0.0 3.8853555e-06 2.8915409e-05 1.845954e-05 -9.082019e-06 -8.3732925e-07 -5.5281254e-07
1.715759e-05 6e-45 -3.2957774e-09 6e-45 -6.8588364e-05 6e-45 2.4542978e-06 2.0313972e-05
6e-45 -1.133281e-05 -4.3287233e-08 6e-45 -1.0281094e-05 -1.1776408e-05 -1.079553e-05 0.0
0.0 -6.3159336e-05 -3.988332e-06 1.2392686e-05 -1.0309826e-05 -1.183251e-05 6e-45 6e-45
1.169441e-05 -1.5547743e-05 1.8335225e-08 0.0 3.5489002e-06 0.0 6e-45 -6.944832e-05
6e-45 5.366139e-06 -2.943979e-07 6e-45 -1.0031987e-05 -6.7067755e-05 -3.9152146e-06 4.212792e-08
7.5214048e-06 0.0 6e-45 9.472503e-06 6e-45 6e-45 6e-45 -7.145382e-06
6e-45 -1.3188805e-06 -1.3779877e-05 6e-45 6e-45 -2.5960655e-05 -5.3810622e-06 6e-45
