001-machine_learning/data/00001-MLP-temperature/010_checkpoint.pth (torch_old, 409231 bytes, 30 tensors)

exp_avg f4 [64, 4]
000000 09 a1 72 b6 12 5e b8 b5 9c 6a 68 b7 bd 6a 34 b5
       -3.6154545e-06 -1.3736446e-06 -1.38530995e-05 -6.721055e-07
000010 00 00 00 00 00 00 00 00 00 00 00 00 00 00 00 00
       0.0 0.0 0.0 0.0
000020 6f 17 f3 36 0b fc aa 36 38 87 92 37 22 e5 28 35
       7.2446924e-06 5.0957365e-06 1.7467522e-05 6.291831e-07
000030 b1 05 30 35 5e c8 9c 36 d7 b9 de b7 35 af 5d b5
       6.557339e-07 4.672488e-06 -2.6551e-05 -8.2583875e-07
000040 72 60 17 b6 dd f6 c7 b5 33 63 04 b7 ea 33 b8 b6
       -2.2556892e-06 -1.4898502e-06 -7.89091e-06 -5.489671e-06
000050 78 65 b1 34 a7 d8 3a 35 f1 71 bd b5 77 e2 36 b6
       3.3042647e-07 6.960567e-07 -1.4114759e-06 -2.7251933e-06
000060 60 b4 0d b7 a1 68 fd b6 74 ad 21 b7 08 bd 1a b7
       -8.446252e-06 -7.552168e-06 -9.636733e-06 -9.223128e-06
000070 98 f2 12 b3 3e 5c 85 2f f1 ed 78 b2 74 c5 89 b1
       -3.421391e-08 2.42581e-10 -1.44896015e-08 -4.0096726e-09
000080 13 ec 0f b6 ae 20 e9 b5 ae 39 80 b5 a3 e4 ba 33
       -2.1446074e-06 -1.7369364e-06 -9.55353e-07 8.702889e-08
000090 cb c0 9c 33 df d4 84 32 ce fb 43 33 78 9e ec 2f
       7.299385e-08 1.5463625e-08 4.563099e-08 4.304075e-10
0000a0 f7 60 f2 b5 77 fc 90 b5 b9 ea 47 b5 87 a3 43 b5
       -1.8058626e-06 -1.0802313e-06 -7.4474843e-07 -7.2881124e-07
0000b0 ac ab 01 b5 60 73 fb b3 72 27 83 b4 30 0b 32 b4
       -4.830606e-07 -1.1709085e-07 -2.4429352e-07 -1.6581612e-07
0000c0 e1 0f ff 36 08 8f bd 36 2a f8 ac 36 c6 5f eb 36
       7.6014408e-06 5.64929e-06 5.1548895e-06 7.0146953e-06
0000d0 f7 14 02 37 95 5b e2 36 67 4b 31 36 7a 54 71 34
       7.753485e-06 6.7459864e-06 2.6418945e-06 2.2475606e-07
0000e0 b1 24 a6 36 d1 cd 9f 36 bd 89 7c 36 c1 5d c1 36
       4.951457e-06 4.7625294e-06 3.76311e-06 5.7627626e-06
0000f0 37 9d 61 b7 2b 83 75 b7 24 ab 15 36 88 ef f3 b6
       -1.34476495e-05 -1.4633678e-05 2.2302347e-06 -7.2698494e-06
000100 02 10 f3 37 58 09 e3 37 e0 41 a9 37 f1 9a 82 37
       2.8975312e-05 2.706486e-05 2.0177045e-05 1.5569358e-05
000110 00 00 00 00 b2 7b 87 33 df 89 bd 32 97 a1 bb 31
       0.0 6.3089274e-08 2.2065192e-08 5.460787e-09
000120 3c 24 8f b6 e0 29 c2 b6 88 1a e0 36 4a 32 24 b6
       -4.2659503e-06 -5.7865254e-06 6.678809e-06 -2.4467176e-06
000130 d6 79 95 b6 35 94 30 36 78 6e 1d b8 4c f0 26 b7
       -4.4547296e-06 2.6312312e-06 -3.75346e-05 -9.9503195e-06
000140 00 00 00 00 e6 aa 8b 34 21 0e a7 33 95 86 58 34
       0.0 2.6015113e-07 7.7791135e-08 2.0165528e-07
000150 e4 f1 15 b7 78 f6 1f b7 4b 62 3b b5 01 f0 36 b7
       -8.937412e-06 -9.534524e-06 -6.9805964e-07 -1.0903926e-05
000160 00 c3 43 b5 10 3e 33 b6 3a 67 96 37 08 3c 28 b7
       -7.2926923e-07 -2.6709204e-06 1.7929462e-05 -1.0027557e-05
000170 6b fa 59 38 cf 2b 48 38 66 1a 2c 38 f8 55 c0 37
       5.197005e-05 4.7724516e-05 4.103258e-05 2.2928216e-05
000180 6f ce b7 b6 61 f2 08 b6 63 c7 cc b7 d8 03 c5 b7
       -5.477857e-06 -2.0406662e-06 -2.4411542e-05 -2.348602e-05
000190 00 00 00 00 00 00 00 00 00 00 00 00 00 00 00 00
       0.0 0.0 0.0 0.0
0001a0 97 6e 1a b6 a9 f9 13 36 a4 d3 9c b7 39 79 c1 35
       -2.301216e-06 2.2050028e-06 -1.8695202e-05 1.4414901e-06
0001b0 23 64 c2 b7 e8 26 b8 b7 68 70 b0 b7 e9 69 b6 b7
       -2.3173232e-05 -2.1952626e-05 -2.1033178e-05 -2.1745409e-05
0001c0 00 00 00 00 00 00 00 00 00 00 00 00 00 00 00 00
       0.0 0.0 0.0 0.0
0001d0 6c a4 a7 37 12 e0 aa 37 8b 1d 1e 36 13 57 10 36
       1.9984516e-05 2.036992e-05 2.356103e-06 2.1508356e-06
0001e0 00 00 00 00 00 00 00 00 00 00 00 00 00 00 00 00
       0.0 0.0 0.0 0.0
0001f0 cb 10 3c 37 bc da 54 37 01 1e 3d 36 df 6c 5d 37
       1.1209583e-05 1.2687113e-05 2.818066e-06 1.3197975e-05
000200 52 59 c9 b8 38 8d c5 b8 3d 73 35 b8 de 63 ae b8
       -9.601064e-05 -9.419996e-05 -4.3261087e-05 -8.315568e-05
000210 5a 92 ea b5 35 24 51 b6 8b 8b 23 37 c0 65 61 b5
       -1.7476953e-06 -3.1164502e-06 9.748047e-06 -8.39671e-07
000220 1f c4 40 37 03 9e 99 37 a7 19 fe b7 f3 95 2c 37
       1.1489755e-05 1.8312601e-05 -3.0291105e-05 1.0286912e-05
000230 55 dd 49 36 57 29 3e 36 1b 96 0d 34 74 ec 2b 35
       3.0080166e-06 2.833627e-06 1.3186256e-07 6.404655e-07
000240 00 00 00 00 00 00 00 00 00 00 00 00 00 00 00 00
       0.0 0.0 0.0 0.0
000250 8c 2c b4 b7 28 7b d5 b7 9a 37 08 37 1b a3 9c b7
       -2.1478416e-05 -2.5448928e-05 8.119177e-06 -1.8672601e-05
000260 f4 f6 a3 36 ea 03 26 37 30 fd f3 b7 3c 7c 6d 35
       4.8865277e-06 9.895282e-06 -2.9085757e-05 8.8470165e-07
000270 2a ef 38 b7 47 8c 5d b6 36 e5 59 b8 ba af 81 b7
       -1.1022939e-05 -3.3013218e-06 -5.19503e-05 -1.5459827e-05
000280 16 b1 d9 37 d9 77 d2 37 6e 6a 9f 37 90 70 a4 37
       2.5950878e-05 2.508976e-05 1.9003837e-05 1.960274e-05
000290 00 00 00 00 00 00 00 00 00 00 00 00 00 00 00 00
       0.0 0.0 0.0 0.0
0002a0 25 8e 0d b8 8e 49 0d b8 fd ab e7 b7 c6 27 34 b8
       -3.3749402e-05 -3.3685523e-05 -2.7617434e-05 -4.2952386e-05
0002b0 a4 42 10 37 68 93 10 37 cf 10 26 35 2b 21 e4 34
       8.598585e-06 8.6173895e-06 6.186428e-07 4.2492442e-07
0002c0 00 00 00 00 00 00 00 00 00 00 00 00 00 00 00 00
       0.0 0.0 0.0 0.0
0002d0 eb 81 0b b5 fb 74 5a b6 2c f9 60 37 50 2e 6c b3
       -5.197059e-07 -3.2552623e-06 1.3409455e-05 -5.4990153e-08
0002e0 00 00 00 00 00 00 00 00 00 00 00 00 00 00 00 00
       0.0 0.0 0.0 0.0
0002f0 00 00 00 00 63 c4 cc b0 fb d9 87 b1 76 e8 0a b1
       0.0 -1.489877e-09 -3.9537986e-09 -2.0213782e-09
000300 00 00 00 00 00 00 00 00 00 00 00 00 00 00 00 00
       0.0 0.0 0.0 0.0
000310 cb 84 30 38 d8 aa 32 38 a2 25 83 37 cc 6b 4e 37
       4.2085343e-05 4.2597618e-05 1.5633941e-05 1.2303655e-05
000320 92 86 94 b2 e8 7d d2 34 1f f8 3b b2 3e 22 85 b4
       -1.7290663e-08 3.9207157e-07 -1.0941249e-08 -2.4798095e-07
000330 f9 75 cd b6 04 9e 0d b7 4a 54 1f 37 f1 0d 7c b6
       -6.12321e-06 -8.441046e-06 9.496764e-06 -3.7559041e-06
000340 57 86 c5 b6 b7 e3 e1 b6 1d b3 57 b6 58 41 19 b7
       -5.8866967e-06 -6.732032e-06 -3.2141754e-06 -9.134725e-06
000350 00 00 00 00 06 82 41 34 10 55 74 33 92 d2 27 34
       0.0 1.8021828e-07 5.688804e-08 1.5629692e-07
000360 1a 97 08 37 cc b8 02 37 1f 00 00 37 8e 39 df 36
       8.141413e-06 7.79163e-06 7.629423e-06 6.652618e-06
000370 de 84 69 38 f6 8e 6d 38 ee 1b 94 37 3c 9c cb 37
       5.567527e-05 5.6638346e-05 1.765598e-05 2.4272238e-05
000380 35 35 47 37 bb 66 89 37 2d a0 ad b7 7b e0 c7 36
       1.18737125e-05 1.637951e-05 -2.0697795e-05 5.956795e-06
000390 ad d9 10 38 15 ce f3 37 af 56 3f 38 56 9e a8 37
       3.4535e-05 2.9063822e-05 4.561868e-05 2.0100892e-05
0003a0 ae fb a1 36 37 a4 27 37 c8 f3 e4 b7 e0 4a 8a b6
       4.8274733e-06 9.99221e-06 -2.7293238e-05 -4.121437e-06
0003b0 d0 2d 5c b6 ff 02 0d 35 08 c1 ca b7 77 28 77 b6
       -3.280922e-06 5.2530953e-07 -2.4170164e-05 -3.6829422e-06
0003c0 66 39 8d 37 a0 15 83 37 39 aa 94 37 d6 71 98 37
       1.6835238e-05 1.5626487e-05 1.7722241e-05 1.8172821e-05
0003d0 02 5f c6 37 a4 21 b6 37 7a 02 89 37 e0 87 75 36
       2.364768e-05 2.1711756e-05 1.6332826e-05 3.6586935e-06
0003e0 1c 09 26 b4 83 9d 5a b2 42 15 95 b3 67 f9 7c b2
       -1.5463269e-07 -1.2725084e-08 -6.94222e-08 -1.4725038e-08
0003f0 af 88 80 38 42 dc 5d 38 c2 91 78 38 82 2d 93 37
       6.128975e-05 5.2895637e-05 5.9263555e-05 1.7544957e-05

exp_avg_sq f4 [64, 4]
000000 9c 30 bf 32 50 a8 9a 32 5a 24 45 32 ab af af 32
       2.2257431e-08 1.80045e-08 1.1475175e-08 2.0452566e-08
000010 00 00 00 00 00 00 00 00 00 00 00 00 00 00 00 00
       0.0 0.0 0.0 0.0
000020 12 8c 16 33 88 91 c0 32 5a bb 8d 32 11 c2 da 32
       3.505199e-08 2.2417922e-08 1.6499758e-08 2.5466791e-08
000030 c6 4e ec 33 15 5c 96 33 f9 4e 64 33 39 8c 9d 33
       1.1003935e-07 7.001669e-08 5.3157212e-08 7.3363886e-08
000040 49 98 e2 31 a2 8e 5d 31 0a 08 52 31 29 54 5b 31
       6.5947785e-09 3.224081e-09 3.0563592e-09 3.1916534e-09
000050 f1 3e e5 30 e6 c3 9a 30 c5 18 8f 30 1f 77 41 30
       1.6679832e-09 1.1260652e-09 1.0411659e-09 7.038227e-10
000060 50 e8 18 31 7e 6e 00 31 54 d7 89 2f f0 a4 b0 30
       2.2250966e-09 1.868926e-09 2.5073155e-10 1.2852563e-09
000070 e5 73 32 2e ad c1 a5 28 30 2b 1b 2d 00 39 8e 2b
       4.057545e-11 1.8402673e-14 8.8203195e-12 1.0105528e-12
000080 4e 4a 12 30 bf df 1b 2f a8 19 de 2e 12 fd 0b 2b
       5.3220084e-10 1.4176658e-10 1.0099949e-10 4.9733926e-13
000090 db 7e e9 2d 4d 3a 95 2b a2 65 a8 2d dd 19 ac 2a
       2.6545368e-11 1.0603268e-12 1.9144523e-11 3.0571284e-13
0000a0 5f 53 73 32 3e 45 91 31 f9 00 22 32 65 d4 e3 31
       1.4163418e-08 4.2279273e-09 9.429862e-09 6.630716e-09
0000b0 5f 49 4f 30 ad 05 9b 2f 5e 4d 99 30 ff ba a7 2f
       7.541043e-10 2.819837e-10 1.1154204e-09 3.0509992e-10
0000c0 b3 81 44 33 e0 6e 0c 33 35 f1 32 33 a4 30 45 33
       4.5752767e-08 3.269713e-08 4.166323e-08 4.5911875e-08
0000d0 89 33 0c 30 3c 53 a4 30 70 44 af 2e 29 f4 af 30
       5.100494e-10 1.1956227e-09 7.9702356e-11 1.280232e-09
0000e0 7a 47 f2 2f 4f d0 9c 2f b8 56 82 2f 97 62 c3 2f
       4.407033e-10 2.8524247e-10 2.370848e-10 3.5540346e-10
0000f0 b7 07 f3 31 40 3b 79 31 56 54 02 31 e5 36 3c 31
       7.073108e-09 3.6267949e-09 1.896543e-09 2.7388805e-09
000100 6a 9d 98 32 4b 6d eb 31 1a f4 dc 31 50 a7 0d 32
       1.7766713e-08 6.8518253e-09 6.430594e-09 8.245323e-09
000110 00 00 00 00 2a 6b 3f 2f 3d 8f ec 2d 38 56 23 2b
       0.0 1.7409421e-10 2.6893704e-11 5.8028886e-13
000120 c2 77 0f 32 f1 1a bd 31 f5 ff 82 31 08 97 9a 31
       8.350925e-09 5.503687e-09 3.812597e-09 4.49916e-09
000130 8c 0f 36 34 e7 93 c6 33 d2 50 8c 33 5c cc af 33
       1.6955727e-07 9.246997e-08 6.533959e-08 8.186245e-08
000140 00 00 00 00 75 fd a2 32 50 66 3a 32 c2 8a c1 32
       0.0 1.8974541e-08 1.0849888e-08 2.2531257e-08
000150 09 71 5c 31 4c e2 c3 30 3e e9 96 30 d2 50 dd 30
       3.2078467e-09 1.4252435e-09 1.0980228e-09 1.6102837e-09
000160 4e ad 55 33 fb 4f 26 33 0b 40 ec 32 1a ec 39 33
       4.9750547e-08 3.872263e-08 2.750314e-08 4.3288402e-08
000170 cf 4f 7f 33 b8 16 5b 33 fe 56 04 33 1b f3 71 33
       5.94444e-08 5.1010574e-08 3.0812764e-08 5.633329e-08
000180 8a 5f 36 33 88 32 20 33 a1 f8 11 33 5d 39 2b 33
       4.246207e-08 3.729886e-08 3.398657e-08 3.986621e-08
000190 00 00 00 00 00 00 00 00 00 00 00 00 00 00 00 00
       0.0 0.0 0.0 0.0
0001a0 5a bc 0f 33 db 20 1e 33 7f f2 41 32 91 bb 08 33
       3.3466087e-08 3.6817124e-08 1.1289216e-08 3.1835558e-08
0001b0 df 1c b2 32 7f 9f 5a 32 b1 43 3f 32 24 e1 68 32
       2.0735056e-08 1.2725535e-08 1.11330545e-08 1.3555368e-08
0001c0 00 00 00 00 00 00 00 00 00 00 00 00 00 00 00 00
       0.0 0.0 0.0 0.0
0001d0 51 99 86 31 00 e8 2a 31 9f 70 3b 31 f9 61 83 30
       3.9173433e-09 2.4870133e-09 2.72761e-09 9.55935e-10
0001e0 00 00 00 00 00 00 00 00 00 00 00 00 00 00 00 00
       0.0 0.0 0.0 0.0
0001f0 8f d8 36 31 db 6c 56 30 a3 d4 3d 30 08 91 80 30
       2.6607585e-09 7.800744e-10 6.9059974e-10 9.354446e-10
000200 3a b1 97 33 ab 29 d4 32 90 04 14 33 78 af fa 32
       7.063723e-08 2.4698997e-08 3.4463085e-08 2.9183624e-08
000210 6d 55 4f 32 d0 5b 17 32 d8 f0 d7 31 e6 4a 22 32
       1.2068409e-08 8.8102325e-09 6.2847043e-09 9.446671e-09
000220 b3 f8 2f 34 34 6c b4 33 00 ca 54 33 32 18 ad 33
       1.6388621e-07 8.401585e-08 4.9543814e-08 8.0603414e-08
000230 58 59 92 2e ab 40 b7 2d 58 05 20 2d 64 57 9d 2b
       6.655182e-11 2.083341e-11 9.096134e-12 1.1179777e-12
000240 00 00 00 00 00 00 00 00 00 00 00 00 00 00 00 00
       0.0 0.0 0.0 0.0
000250 6e 0a 51 33 0c ff 35 33 94 79 bd 32 fe 63 24 33
       4.867109e-08 4.237431e-08 2.2057783e-08 3.8275168e-08
000260 34 39 fa 33 b2 67 c3 33 16 7f 65 33 10 8a c1 33
       1.16519374e-07 9.099257e-08 5.34338e-08 9.012376e-08
000270 06 61 a6 34 22 89 73 34 a1 e8 1e 34 e9 f5 72 34
       3.0990503e-07 2.2681027e-07 1.4799527e-07 2.2627468e-07
000280 38 dc bc 32 d6 d6 0f 32 7f e3 1f 32 bc da 25 32
       2.1986224e-08 8.3725435e-09 9.306745e-09 9.6539985e-09
000290 00 00 00 00 00 00 00 00 00 00 00 00 00 00 00 00
       0.0 0.0 0.0 0.0
0002a0 5e ee 08 33 6e 5a 75 32 6c f1 86 32 e9 8b 5b 32
       3.188176e-08 1.4281438e-08 1.5709439e-08 1.277929e-08
0002b0 5b 94 0b 2f 1f 83 19 31 92 ec 82 2f cc a8 b7 30
       1.2694683e-10 2.2338964e-09 2.3814956e-10 1.3362977e-09
0002c0 00 00 00 00 00 00 00 00 00 00 00 00 00 00 00 00
       0.0 0.0 0.0 0.0
0002d0 05 07 08 33 b5 db cf 32 47 32 83 32 40 aa ce 32
       3.167135e-08 2.4197883e-08 1.527327e-08 2.4058977e-08
0002e0 00 00 00 00 00 00 00 00 00 00 00 00 00 00 00 00
       0.0 0.0 0.0 0.0
0002f0 00 00 00 00 6e 67 fd 30 c1 4c c8 31 34 2c 97 31
       0.0 1.8437569e-09 5.829492e-09 4.3997037e-09
000300 00 00 00 00 00 00 00 00 00 00 00 00 00 00 00 00
       0.0 0.0 0.0 0.0
000310 b3 ed 09 31 59 be f8 32 b2 af 80 32 61 d5 fc 32
       2.007124e-09 2.895756e-08 1.4981058e-08 2.9433695e-08
000320 bf 10 a9 31 fe 9f 0f 32 c4 e3 1d 32 6b bc 33 32
       4.920451e-09 8.3600735e-09 9.190391e-09 1.0462013e-08
000330 6b 44 aa 32 7b 78 8b 32 84 5b 22 32 d4 fc 7d 32
       1.9821718e-08 1.6236518e-08 9.450449e-09 1.4784025e-08
000340 92 08 95 31 8e 84 2f 31 bb 76 1b 31 e3 8c 2d 31
       4.337445e-09 2.55412e-09 2.262296e-09 2.5254898e-09
000350 00 00 00 00 57 c6 5d 32 ec 7b b0 31 2d b8 80 32
       0.0 1.290899e-08 5.1363624e-09 1.4984915e-08
000360 29 ea ae 31 ef 61 4b 31 53 9d 55 31 09 06 74 31
       5.0906874e-09 2.9596057e-09 3.1085008e-09 3.5510104e-09
000370 47 b8 48 31 15 16 2e 31 4c 8b 49 2f 84 53 12 30
       2.920858e-09 2.5332885e-09 1.8330332e-10 5.3233173e-10
000380 9a 03 cb 33 d0 10 91 33 0a c2 41 33 ec 1d 91 33
       9.453579e-08 6.755147e-08 4.511279e-08 6.7575314e-08
000390 f4 04 4c 34 33 3e 00 34 2e 5e c1 33 37 66 0f 34
       1.9000782e-07 1.1943557e-07 9.004394e-08 1.3355098e-07
0003a0 00 cb bf 33 b9 c9 a7 33 ea f4 3d 33 e3 8b 9a 33
       8.931056e-08 7.8132366e-08 4.422774e-08 7.196629e-08
0003b0 87 0c 90 33 cd b4 64 33 66 d9 f7 32 8a c9 5d 33
       6.707801e-08 5.3249824e-08 2.8853446e-08 5.163887e-08
0003c0 ef 91 71 32 75 27 1b 32 ee 9f ea 31 cc 62 13 32
       1.4061228e-08 9.031159e-09 6.8284782e-09 8.57899e-09
0003d0 df f0 d7 32 bb 8b 3c 33 d9 62 5c 32 01 93 47 33
       2.513883e-08 4.3899245e-08 1.2828161e-08 4.6466997e-08
0003e0 4d 4c 70 2f 22 66 be 2b c6 e0 42 2e cb bb 4f 2c
       2.185498e-10 1.352866e-12 4.4310132e-11 2.9520715e-12
0003f0 cb ef 6d 34 c7 3c d3 33 ca 4b a9 33 05 1a f5 33
       2.2159581e-07 9.8365085e-08 7.883462e-08 1.14134345e-07

exp_avg f4 [64]
000000 59 82 7b b6 00 00 00 00 eb c7 f9 36 e2 e2 b2 34
       -3.7477787e-06 0.0 7.444052e-06 3.3320163e-07
000010 19 55 19 b6 f1 20 e2 34 48 b4 0d b7 9f f2 12 b3
       -2.284831e-06 4.2119748e-07 -8.44623e-06 -3.4213937e-08
000020 15 ec 0f b6 cb c0 9c 33 4d 72 f4 b5 ab 8e 02 b5
       -2.1446078e-06 7.299385e-08 -1.8212683e-06 -4.8636383e-07
000030 c7 1d fd 36 3d cb 02 37 e3 f6 a4 36 49 9d 61 b7
       7.543454e-06 7.795924e-06 4.9163223e-06 -1.3447666e-05
000040 09 10 f3 37 32 64 97 33 32 43 91 b6 6c 28 8e b6
       2.8975324e-05 7.049711e-08 -4.3291593e-06 -4.2366355e-06
000050 b3 59 91 34 f6 f1 15 b7 26 bb 3f b5 ef 6b 5a 38
       2.707362e-07 -8.937428e-06 -7.142538e-07 5.207577e-05
000060 bd ea c0 b6 00 00 00 00 13 74 18 b6 49 a8 c4 b7
       -5.749373e-06 0.0 -2.271733e-06 -2.3443385e-05
000070 00 00 00 00 be 49 a6 37 00 00 00 00 d1 10 3c 37
       0.0 1.9823081e-05 0.0 1.1209589e-05
000080 9d 71 c9 b8 fa 63 e0 b5 f7 6f 42 37 53 dd 49 36
       -9.605589e-05 -1.6718398e-06 1.158937e-05 3.0080162e-06
000090 00 00 00 00 e8 c8 b4 b7 01 b8 99 36 7f 49 3d b7
       0.0 -2.1551226e-05 4.581176e-06 -1.128239e-05
0000a0 09 79 da 37 00 00 00 00 21 19 0d b8 2d 6f 0f 37
       2.6043987e-05 0.0 -3.3640423e-05 8.549349e-06
0000b0 00 00 00 00 f0 7f d5 b4 00 00 00 00 7e 85 3c b1
       0.0 -3.9767428e-07 0.0 -2.7433482e-09
0000c0 00 00 00 00 ab 8d 2f 38 2b ca 6a b3 f9 ee ce b6
       0.0 4.185519e-05 -5.466624e-08 -6.1670985e-06
0000d0 e1 d1 c6 b6 1f b9 48 34 1c 54 0a 37 88 71 69 38
       -5.925293e-06 1.8693798e-07 8.245024e-06 5.5657263e-05
0000e0 45 e1 43 37 de 1a 12 38 1e 1c 9c 36 ba a1 65 b6
       1.1675355e-05 3.4834135e-05 4.6524356e-06 -3.4217796e-06
0000f0 11 dd 8d 37 2f 3d c9 37 1f 09 26 b4 ac 88 80 38
       1.6911452e-05 2.3989558e-05 -1.5463273e-07 6.128973e-05

exp_avg_sq f4 [64]
000000 f4 1c 26 33 00 00 00 00 c0 74 60 33 bd 1c 2d 34
       3.867622e-08 0.0 5.2260248e-08 1.6122335e-07
000010 a4 6f 11 32 c0 c8 4c 31 54 e8 18 31 e4 73 32 2e
       8.465495e-09 2.980002e-09 2.2250974e-09 4.0575446e-11
000020 4e 4a 12 30 db 7e e9 2d 68 9c 9d 32 29 62 3f 31
       5.3220084e-10 2.6545368e-11 1.834833e-08 2.7849956e-09
000030 c1 12 dc 33 f0 a7 db 30 90 89 50 30 b7 07 f3 31
       1.02479596e-07 1.5982078e-09 7.586545e-10 7.073108e-09
000040 69 9d 98 32 ee 36 ca 2f f9 21 49 32 ed 13 52 34
       1.776671e-08 3.6782616e-10 1.1707464e-08 1.9565023e-07
000050 5f 06 30 33 0a 71 5c 31 a0 18 b2 33 ac 76 d9 33
       4.0983988e-08 3.2078469e-09 8.29325e-08 1.0126436e-07
000060 2d b4 c9 33 00 00 00 00 c2 a5 7c 33 c5 b5 15 33
       9.392566e-08 0.0 5.8824078e-08 3.4857084e-08
000070 00 00 00 00 a5 a1 65 32 00 00 00 00 8b d8 36 31
       0.0 1.3366308e-08 0.0 2.6607576e-09
000080 b1 07 b7 33 e7 88 a7 32 8e b6 31 34 56 59 92 2e
       8.5230006e-08 1.9503615e-08 1.6550823e-07 6.6551806e-11
000090 00 00 00 00 58 4a b1 33 4e 61 47 34 7e 0c 01 35
       0.0 8.255728e-08 1.8568718e-07 4.8074423e-07
0000a0 60 3e d6 32 00 00 00 00 f0 bc 17 33 47 e5 54 31
       2.4941244e-08 0.0 3.5329265e-08 3.098039e-09
0000b0 00 00 00 00 34 93 5c 33 00 00 00 00 07 83 66 32
       0.0 5.1356622e-08 0.0 1.3417554e-08
0000c0 00 00 00 00 d4 8b 76 33 5a 4b d0 32 a8 10 10 33
       0.0 5.740351e-08 2.4248653e-08 3.354276e-08
0000d0 f1 52 fd 31 e6 f3 d4 32 fc 7e 18 32 8b cd 49 31
       7.3726985e-09 2.479096e-08 8.876437e-09 2.9366187e-09
0000e0 0d 49 1a 34 cc 3e 95 34 dd 8f 22 34 66 17 e0 33
       1.4368943e-07 2.7799103e-07 1.5139763e-07 1.0435069e-07
0000f0 3c b5 b3 32 bc 73 9d 33 4d 4c 70 2f c8 ef 6d 34
       2.0920758e-08 7.331934e-08 2.185498e-10 2.2159577e-07

exp_avg f4 [128, 64]
000000 00 00 00 00 00 00 00 00 00 00 00 00 00 00 00 00
       0.0 0.0 0.0 0.0
000010 00 00 00 00 00 00 00 00 00 00 00 00 00 00 00 00
       0.0 0.0 0.0 0.0
000020 00 00 00 00 00 00 00 00 00 00 00 00 00 00 00 00
       0.0 0.0 0.0 0.0
000030 00 00 00 00 00 00 00 00 00 00 00 00 00 00 00 00
       0.0 0.0 0.0 0.0
000040 00 00 00 00 00 00 00 00 00 00 00 00 00 00 00 00
       0.0 0.0 0.0 0.0
000050 00 00 00 00 00 00 00 00 00 00 00 00 00 00 00 00
       0.0 0.0 0.0 0.0
000060 00 00 00 00 00 00 00 00 00 00 00 00 00 00 00 00
       0.0 0.0 0.0 0.0
000070 00 00 00 00 00 00 00 00 00 00 00 00 00 00 00 00
       0.0 0.0 0.0 0.0
000080 00 00 00 00 00 00 00 00 00 00 00 00 00 00 00 00
       0.0 0.0 0.0 0.0
000090 00 00 00 00 00 00 00 00 00 00 00 00 00 00 00 00
       0.0 0.0 0.0 0.0
0000a0 00 00 00 00 00 00 00 00 00 00 00 00 00 00 00 00
       0.0 0.0 0.0 0.0
0000b0 00 00 00 00 00 00 00 00 00 00 00 00 00 00 00 00
       0.0 0.0 0.0 0.0
0000c0 00 00 00 00 00 00 00 00 00 00 00 00 00 00 00 00
       0.0 0.0 0.0 0.0
0000d0 00 00 00 00 00 00 00 00 00 00 00 00 00 00 00 00
       0.0 0.0 0.0 0.0
0000e0 00 00 00 00 00 00 00 00 00 00 00 00 00 00 00 00
       0.0 0.0 0.0 0.0
0000f0 00 00 00 00 00 00 00 00 00 00 00 00 00 00 00 00
       0.0 0.0 0.0 0.0
000100 d3 28 15 37 00 00 00 00 41 0e 21 37 18 c9 cf 34
       8.890597e-06 0.0 9.599667e-06 3.870307e-07
000110 1d 71 ba 36 ef cf fd 36 8a 2c 34 35 e9 aa 0d 31
       5.5564e-06 7.564194e-06 6.712004e-07 2.0615352e-09
000120 5e 9d ec 33 2d d3 5b 31 12 4f a6 33 0a 93 35 33
       1.1018231e-07 3.1988734e-09 7.74436e-08 4.2276078e-08
000130 0e f0 77 33 70 c7 d8 b5 32 46 9e 36 0c da 9f 36
       5.7727497e-08 -1.6151298e-06 4.7169387e-06 4.7639533e-06
000140 5e 06 06 b4 01 80 e3 2f 15 76 33 37 13 5f 9a 36
       -1.2482039e-07 4.1382012e-10 1.06967245e-05 4.6006257e-06
000150 ea 77 c4 32 35 ce 2c 36 f0 56 a1 36 b4 65 a3 35
       2.2871934e-08 2.5750026e-06 4.8082948e-06 1.2174046e-06
000160 f2 c1 82 b5 00 00 00 00 ad 20 1a b5 36 35 b0 36
       -9.7422e-07 0.0 -5.741702e-07 5.2514033e-06
000170 00 00 00 00 c7 9a eb b4 00 00 00 00 09 ec d0 b5
       0.0 -4.3884776e-07 0.0 -1.5565903e-06
000180 8a 0c 2e b5 f5 1c 00 37 4f cd ea b4 5d 24 89 33
       -6.48383e-07 7.636137e-06 -4.3735278e-07 6.386174e-08
000190 00 00 00 00 d1 94 66 37 21 67 09 37 b1 f9 5f 34
       0.0 1.3743717e-05 8.189848e-06 2.085933e-07
0001a0 d8 e1 77 36 00 00 00 00 10 cd 18 35 17 75 30 b4
       3.6937327e-06 0.0 5.692282e-07 -1.6433874e-07
0001b0 00 00 00 00 cb 8a de 36 00 00 00 00 35 c2 58 2e
       0.0 6.632273e-06 0.0 4.9285204e-11
0001c0 00 00 00 00 77 a7 dd b5 1e 07 5e 32 af 89 11 37
       0.0 -1.6514522e-06 1.2923719e-08 8.67473e-06
0001d0 2e 32 2e 36 b2 ee fd 31 a4 8f 0c 37 e2 dc 81 b5
       2.595723e-06 7.3904056e-09 8.378094e-06 -9.675534e-07
0001e0 eb 4f 8b 36 b7 5a 94 36 3b 87 85 36 41 0f 8e 36
       4.1518265e-06 4.4213043e-06 3.979452e-06 4.2337056e-06
0001f0 4a c1 cf 36 a1 05 81 b5 cc 88 92 30 52 08 d6 b4
       6.1915825e-06 -9.612887e-07 1.0661778e-09 -3.986666e-07
000200 00 00 00 00 00 00 00 00 00 00 00 00 00 00 00 00
       0.0 0.0 0.0 0.0
000210 00 00 00 00 00 00 00 00 00 00 00 00 00 00 00 00
       0.0 0.0 0.0 0.0
000220 00 00 00 00 00 00 00 00 00 00 00 00 00 00 00 00
       0.0 0.0 0.0 0.0
000230 00 00 00 00 00 00 00 00 00 00 00 00 00 00 00 00
       0.0 0.0 0.0 0.0
000240 00 00 00 00 00 00 00 00 00 00 00 00 00 00 00 00
       0.0 0.0 0.0 0.0
000250 00 00 00 00 00 00 00 00 00 00 00 00 00 00 00 00
       0.0 0.0 0.0 0.0
000260 00 00 00 00 00 00 00 00 00 00 00 00 00 00 00 00
       0.0 0.0 0.0 0.0
000270 00 00 00 00 00 00 00 00 00 00 00 00 00 00 00 00
       0.0 0.0 0.0 0.0
000280 00 00 00 00 00 00 00 00 00 00 00 00 00 00 00 00
       0.0 0.0 0.0 0.0
000290 00 00 00 00 00 00 00 00 00 00 00 00 00 00 00 00
       0.0 0.0 0.0 0.0
0002a0 00 00 00 00 00 00 00 00 00 00 00 00 00 00 00 00
       0.0 0.0 0.0 0.0
0002b0 00 00 00 00 00 00 00 00 00 00 00 00 00 00 00 00
       0.0 0.0 0.0 0.0
0002c0 00 00 00 00 00 00 00 00 00 00 00 00 00 00 00 00
       0.0 0.0 0.0 0.0
0002d0 00 00 00 00 00 00 00 00 00 00 00 00 00 00 00 00
       0.0 0.0 0.0 0.0
0002e0 00 00 00 00 00 00 00 00 00 00 00 00 00 00 00 00
       0.0 0.0 0.0 0.0
0002f0 00 00 00 00 00 00 00 00 00 00 00 00 00 00 00 00
       0.0 0.0 0.0 0.0
000300 00 00 00 00 00 00 00 00 00 00 00 00 00 00 00 00
       0.0 0.0 0.0 0.0
000310 00 00 00 00 00 00 00 00 00 00 00 00 00 00 00 00
       0.0 0.0 0.0 0.0
000320 00 00 00 00 00 00 00 00 00 00 00 00 00 00 00 00
       0.0 0.0 0.0 0.0
000330 00 00 00 00 00 00 00 00 00 00 00 00 00 00 00 00
       0.0 0.0 0.0 0.0
000340 00 00 00 00 00 00 00 00 00 00 00 00 00 00 00 00
       0.0 0.0 0.0 0.0
000350 00 00 00 00 00 00 00 00 00 00 00 00 00 00 00 00
       0.0 0.0 0.0 0.0
000360 00 00 00 00 00 00 00 00 00 00 00 00 00 00 00 00
       0.0 0.0 0.0 0.0
000370 00 00 00 00 00 00 00 00 00 00 00 00 00 00 00 00
       0.0 0.0 0.0 0.0
000380 00 00 00 00 00 00 00 00 00 00 00 00 00 00 00 00
       0.0 0.0 0.0 0.0
000390 00 00 00 00 00 00 00 00 00 00 00 00 00 00 00 00
       0.0 0.0 0.0 0.0
0003a0 00 00 00 00 00 00 00 00 00 00 00 00 00 00 00 00
       0.0 0.0 0.0 0.0
0003b0 00 00 00 00 00 00 00 00 00 00 00 00 00 00 00 00
       0.0 0.0 0.0 0.0
0003c0 00 00 00 00 00 00 00 00 00 00 00 00 00 00 00 00
       0.0 0.0 0.0 0.0
0003d0 00 00 00 00 00 00 00 00 00 00 00 00 00 00 00 00
       0.0 0.0 0.0 0.0
0003e0 00 00 00 00 00 00 00 00 00 00 00 00 00 00 00 00
       0.0 0.0 0.0 0.0
0003f0 00 00 00 00 00 00 00 00 00 00 00 00 00 00 00 00
       0.0 0.0 0.0 0.0

exp_avg_sq f4 [128, 64]
000000 00 00 00 00 00 00 00 00 00 00 00 00 00 00 00 00
       0.0 0.0 0.0 0.0
000010 00 00 00 00 00 00 00 00 00 00 00 00 00 00 00 00
       0.0 0.0 0.0 0.0
000020 00 00 00 00 00 00 00 00 00 00 00 00 00 00 00 00
       0.0 0.0 0.0 0.0
000030 00 00 00 00 00 00 00 00 00 00 00 00 00 00 00 00
       0.0 0.0 0.0 0.0
000040 00 00 00 00 00 00 00 00 00 00 00 00 00 00 00 00
       0.0 0.0 0.0 0.0
000050 00 00 00 00 00 00 00 00 00 00 00 00 00 00 00 00
       0.0 0.0 0.0 0.0
000060 00 00 00 00 00 00 00 00 00 00 00 00 00 00 00 00
       0.0 0.0 0.0 0.0
000070 00 00 00 00 00 00 00 00 00 00 00 00 00 00 00 00
       0.0 0.0 0.0 0.0
000080 00 00 00 00 00 00 00 00 00 00 00 00 00 00 00 00
       0.0 0.0 0.0 0.0
000090 00 00 00 00 00 00 00 00 00 00 00 00 00 00 00 00
       0.0 0.0 0.0 0.0
0000a0 00 00 00 00 00 00 00 00 00 00 00 00 00 00 00 00
       0.0 0.0 0.0 0.0
0000b0 00 00 00 00 00 00 00 00 00 00 00 00 00 00 00 00
       0.0 0.0 0.0 0.0
0000c0 00 00 00 00 00 00 00 00 00 00 00 00 00 00 00 00
       0.0 0.0 0.0 0.0
0000d0 00 00 00 00 00 00 00 00 00 00 00 00 00 00 00 00
       0.0 0.0 0.0 0.0
0000e0 00 00 00 00 00 00 00 00 00 00 00 00 00 00 00 00
       0.0 0.0 0.0 0.0
0000f0 00 00 00 00 00 00 00 00 00 00 00 00 00 00 00 00
       0.0 0.0 0.0 0.0
000100 b5 5c 09 32 00 00 00 00 03 00 f9 31 11 c7 aa 30
       7.995529e-09 0.0 7.246855e-09 1.2425706e-09
000110 7b b8 b5 31 fc 6b b8 31 40 4d 51 2d 00 32 bc 29
       5.2887663e-09 5.367381e-09 1.18974275e-11 8.357551e-14
000120 25 30 99 29 cf 6c e4 2b 11 38 9e 2d ae 84 64 2f
       6.8029167e-14 1.6230575e-12 1.7987419e-11 2.0783616e-10
000130 6e ef 10 2f ab 74 dd 2d 68 21 7f 31 a9 b2 7a 30
       1.3181786e-10 2.5176602e-11 3.7126373e-09 9.120336e-10
000140 db 06 47 2e e7 1e 18 2a ea ff 47 32 37 6f 4b 30
       4.525345e-11 1.3511033e-13 1.1641513e-08 7.4009016e-10
000150 39 69 c0 2f d4 5a 2b 2f d1 04 8e 30 a2 47 e8 2f
       3.4999362e-10 1.5584628e-10 1.0333229e-09 4.2251452e-10
000160 fa 2c a7 30 00 00 00 00 d7 d0 c9 2f 9f c1 b7 30
       1.2163632e-09 0.0 3.6710077e-10 1.3370033e-09
000170 00 00 00 00 af 42 67 2c 00 00 00 00 5f 52 06 2f
       0.0 3.2864091e-12 0.0 1.2216493e-10
000180 82 71 1d 31 45 47 b1 31 f2 94 64 2f 92 2b 9f 29
       2.2911029e-09 5.1594804e-09 2.0789395e-10 7.068577e-14
000190 00 00 00 00 de b3 8a 32 34 89 b4 31 8b fa cd 2f
       0.0 1.6147109e-08 5.2542877e-09 3.7467304e-10
0001a0 9a c6 29 30 00 00 00 00 5d 51 da 2f b7 02 86 2c
       6.176407e-10 0.0 3.971178e-10 3.8088105e-12
0001b0 00 00 00 00 a7 f9 86 31 00 00 00 00 23 11 ab 2c
       0.0 3.9282955e-09 0.0 4.862015e-12
0001c0 00 00 00 00 75 30 2d 2f 53 3c 83 2f 3b ba 89 31
       0.0 1.5751474e-10 2.3871624e-10 4.0083967e-09
0001d0 79 a0 d2 30 fb 7c 8b 2d e5 d7 87 31 79 3e 10 2b
       1.532512e-09 1.5857973e-11 3.9535615e-09 5.1245775e-13
0001e0 57 5d 33 31 cc b6 64 30 f4 a4 a0 30 9e 26 2a 31
       2.6100986e-09 8.3205687e-10 1.1688415e-09 2.4760207e-09
0001f0 05 b6 ad 31 63 da aa 2f 2c 3a b2 28 10 8a 0d 2f
       5.055656e-09 3.1077993e-10 1.9787198e-14 1.2872925e-10
000200 00 00 00 00 00 00 00 00 00 00 00 00 00 00 00 00
       0.0 0.0 0.0 0.0
000210 00 00 00 00 00 00 00 00 00 00 00 00 00 00 00 00
       0.0 0.0 0.0 0.0
000220 00 00 00 00 00 00 00 00 00 00 00 00 00 00 00 00
       0.0 0.0 0.0 0.0
000230 00 00 00 00 00 00 00 00 00 00 00 00 00 00 00 00
       0.0 0.0 0.0 0.0
000240 00 00 00 00 00 00 00 00 00 00 00 00 00 00 00 00
       0.0 0.0 0.0 0.0
000250 00 00 00 00 00 00 00 00 00 00 00 00 00 00 00 00
       0.0 0.0 0.0 0.0
000260 00 00 00 00 00 00 00 00 00 00 00 00 00 00 00 00
       0.0 0.0 0.0 0.0
000270 00 00 00 00 00 00 00 00 00 00 00 00 00 00 00 00
       0.0 0.0 0.0 0.0
000280 00 00 00 00 00 00 00 00 00 00 00 00 00 00 00 00
       0.0 0.0 0.0 0.0
000290 00 00 00 00 00 00 00 00 00 00 00 00 00 00 00 00
       0.0 0.0 0.0 0.0
0002a0 00 00 00 00 00 00 00 00 00 00 00 00 00 00 00 00
       0.0 0.0 0.0 0.0
0002b0 00 00 00 00 00 00 00 00 00 00 00 00 00 00 00 00
       0.0 0.0 0.0 0.0
0002c0 00 00 00 00 00 00 00 00 00 00 00 00 00 00 00 00
       0.0 0.0 0.0 0.0
0002d0 00 00 00 00 00 00 00 00 00 00 00 00 00 00 00 00
       0.0 0.0 0.0 0.0
0002e0 00 00 00 00 00 00 00 00 00 00 00 00 00 00 00 00
       0.0 0.0 0.0 0.0
0002f0 00 00 00 00 00 00 00 00 00 00 00 00 00 00 00 00
       0.0 0.0 0.0 0.0
000300 00 00 00 00 00 00 00 00 00 00 00 00 00 00 00 00
       0.0 0.0 0.0 0.0
000310 00 00 00 00 00 00 00 00 00 00 00 00 00 00 00 00
       0.0 0.0 0.0 0.0
000320 00 00 00 00 00 00 00 00 00 00 00 00 00 00 00 00
       0.0 0.0 0.0 0.0
000330 00 00 00 00 00 00 00 00 00 00 00 00 00 00 00 00
       0.0 0.0 0.0 0.0
000340 00 00 00 00 00 00 00 00 00 00 00 00 00 00 00 00
       0.0 0.0 0.0 0.0
000350 00 00 00 00 00 00 00 00 00 00 00 00 00 00 00 00
       0.0 0.0 0.0 0.0
000360 00 00 00 00 00 00 00 00 00 00 00 00 00 00 00 00
       0.0 0.0 0.0 0.0
000370 00 00 00 00 00 00 00 00 00 00 00 00 00 00 00 00
       0.0 0.0 0.0 0.0
000380 00 00 00 00 00 00 00 00 00 00 00 00 00 00 00 00
       0.0 0.0 0.0 0.0
000390 00 00 00 00 00 00 00 00 00 00 00 00 00 00 00 00
       0.0 0.0 0.0 0.0
0003a0 00 00 00 00 00 00 00 00 00 00 00 00 00 00 00 00
       0.0 0.0 0.0 0.0
0003b0 00 00 00 00 00 00 00 00 00 00 00 00 00 00 00 00
       0.0 0.0 0.0 0.0
0003c0 00 00 00 00 00 00 00 00 00 00 00 00 00 00 00 00
       0.0 0.0 0.0 0.0
0003d0 00 00 00 00 00 00 00 00 00 00 00 00 00 00 00 00
       0.0 0.0 0.0 0.0
0003e0 00 00 00 00 00 00 00 00 00 00 00 00 00 00 00 00
       0.0 0.0 0.0 0.0
0003f0 00 00 00 00 00 00 00 00 00 00 00 00 00 00 00 00
       0.0 0.0 0.0 0.0

exp_avg f4 [128]
000000 00 00 00 00 ab ad 47 37 00 00 00 00 00 00 00 00
       0.0 1.19017595e-05 0.0 0.0
000010 f1 da 96 37 89 27 05 37 00 00 00 00 cc 06 45 b7
       1.7983346e-05 7.936623e-06 0.0 -1.17436975e-05
000020 00 00 00 00 00 00 00 00 b5 b5 03 b3 00 00 00 00
       0.0 0.0 -3.0666076e-08 0.0
000030 00 00 00 00 35 c5 5d 36 e7 11 5b b7 b2 95 f6 b5
       0.0 3.3046356e-06 -1.3057585e-05 -1.8371995e-06
000040 f9 bb b6 b5 00 00 00 00 00 00 00 00 00 00 00 00
       -1.3614764e-06 0.0 0.0 0.0
000050 af f2 a9 b7 b0 89 bb b6 00 00 00 00 00 00 00 00
       -2.0259378e-05 -5.589063e-06 0.0 0.0
000060 00 00 00 00 00 00 00 00 f1 f3 99 37 0d f7 57 37
       0.0 0.0 1.8352615e-05 1.287252e-05
000070 23 11 d1 34 00 00 00 00 23 82 c4 37 00 00 00 00
       3.8941752e-07 0.0 2.342562e-05 0.0
000080 0a b1 be b7 2c 26 3f b7 00 00 00 00 f0 1f c4 b3
       -2.2732205e-05 -1.1393375e-05 0.0 -9.1327706e-08
000090 b8 5d 85 32 9e ec 79 37 00 00 00 00 00 00 00 00
       1.5525856e-08 1.4896648e-05 0.0 0.0
0000a0 00 00 00 00 00 00 00 00 b7 e1 67 b7 7b 51 7a 36
       0.0 0.0 -1.3821226e-05 3.730033e-06
0000b0 00 00 00 00 00 00 00 00 00 00 00 00 63 b0 a8 b7
       0.0 0.0 0.0 -2.0109297e-05
0000c0 c6 34 a4 b7 20 4b d8 37 3b 0a 5f 37 00 00 00 00
       -1.9574898e-05 2.578419e-05 1.3294218e-05 0.0
0000d0 df 0b 38 b7 dd 28 5a b7 95 09 de b6 94 62 bd 35
       -1.0970019e-05 -1.3003327e-05 -6.617231e-06 1.4110287e-06
0000e0 c8 22 1e b7 86 89 88 b7 c5 a7 22 38 8e b4 e8 36
       -9.425632e-06 -1.6276503e-05 3.8780057e-05 6.935158e-06
0000f0 b3 e1 09 b7 00 00 00 00 46 31 50 b4 a0 2e 8c 36
       -8.218386e-06 0.0 -1.9389435e-07 4.177753e-06
000100 c8 c3 31 b8 da c5 f4 34 ff 6c 67 36 d5 c6 35 36
       -4.2382424e-05 4.5592498e-07 3.4485126e-06 2.7086837e-06
000110 00 00 00 00 00 00 00 00 69 de c9 27 73 2f 02 37
       0.0 0.0 5.6029845e-15 7.759651e-06
000120 00 00 00 00 15 86 6e 37 00 00 00 00 00 00 00 00
       0.0 1.4217124e-05 0.0 0.0
000130 6e 1a 0f b7 00 00 00 00 00 00 00 00 90 e9 0a 38
       -8.529618e-06 0.0 0.0 3.3119286e-05
000140 00 00 00 00 bd b0 22 b7 00 00 00 00 00 00 00 00
       0.0 -9.6971025e-06 0.0 0.0
000150 00 00 00 00 16 b9 0a b7 00 00 00 00 00 00 00 00
       0.0 -8.268535e-06 0.0 0.0
000160 d9 6e cd 36 b4 fd aa b4 00 00 00 00 56 e4 8b 37
       6.1223805e-06 -3.184956e-07 0.0 1.6676418e-05
000170 bf 0c 48 b7 a8 a2 26 b7 9b 06 80 36 d1 7e 5e 36
       -1.1923897e-05 -9.932242e-06 3.8154662e-06 3.3154395e-06
000180 57 4a 9c b6 f7 53 63 b7 ef 4f 1f b6 00 00 00 00
       -4.6578166e-06 -1.3549804e-05 -2.3739374e-06 0.0
000190 26 e4 e4 b6 00 00 00 00 69 72 b8 37 96 48 1c 36
       -6.8214895e-06 0.0 2.1987786e-05 2.3288062e-06
0001a0 df 04 22 36 83 75 29 b8 95 2f 1a 37 ce b5 5d b7
       2.4142716e-06 -4.040218e-05 9.190194e-06 -1.3214956e-05
0001b0 4f c5 ce b1 00 00 00 00 00 00 00 00 a7 c9 64 b7
       -6.0178205e-09 0.0 0.0 -1.363681e-05
0001c0 91 fb aa 37 b8 33 a0 b6 24 d2 21 b7 8b ce c7 b7
       2.0382724e-05 -4.7743924e-06 -9.645275e-06 -2.3818828e-05
0001d0 72 97 2a b7 00 00 00 00 00 00 00 00 00 00 00 00
       -1.0168051e-05 0.0 0.0 0.0
0001e0 00 00 00 00 72 68 21 37 00 00 00 00 f2 7f 61 b6
       0.0 9.620666e-06 0.0 -3.3602087e-06
0001f0 5b 2d a3 35 71 a6 f9 b6 99 f5 99 b7 00 00 00 00
       1.2157647e-06 -7.4401546e-06 -1.8353387e-05 0.0

exp_avg_sq f4 [128]
000000 00 00 00 00 87 cd a2 32 00 00 00 00 00 00 00 00
       0.0 1.8952745e-08 0.0 0.0
000010 d4 83 ce 32 b8 5f 02 32 00 00 00 00 64 ea 0a 32
       2.4041505e-08 7.58876e-09 0.0 8.0859515e-09
000020 00 00 00 00 00 00 00 00 bd 23 93 30 00 00 00 00
       0.0 0.0 1.0705815e-09 0.0
000030 00 00 00 00 5d de 11 33 a8 24 33 32 fb d9 63 33
       0.0 3.396268e-08 1.0427506e-08 5.3050808e-08
000040 f1 10 60 31 00 00 00 00 00 00 00 00 00 00 00 00
       3.260592e-09 0.0 0.0 0.0
000050 1d 27 19 32 73 be 92 31 00 00 00 00 00 00 00 00
       8.9146655e-09 4.270811e-09 0.0 0.0
000060 00 00 00 00 00 00 00 00 5c 52 37 33 3b 09 70 32
       0.0 0.0 4.2682913e-08 1.3971937e-08
000070 88 9b f0 32 00 00 00 00 66 8b 30 33 00 00 00 00
       2.8010405e-08 0.0 4.1104975e-08 0.0
000080 0c c1 4a 32 8e 5d b6 33 00 00 00 00 cf a7 88 30
       1.1801841e-08 8.492053e-08 0.0 9.942996e-10
000090 d0 a8 16 31 d8 18 c3 32 00 00 00 00 00 00 00 00
       2.1923832e-09 2.2712285e-08 0.0 0.0
0000a0 00 00 00 00 00 00 00 00 ef 25 fe 31 d6 5b b4 2f
       0.0 0.0 7.3966855e-09 3.2807063e-10
0000b0 00 00 00 00 00 00 00 00 00 00 00 00 a1 d7 2c 32
       0.0 0.0 0.0 1.0060746e-08
0000c0 d2 14 06 33 91 7f f5 32 8c b2 01 33 00 00 00 00
       3.1218242e-08 2.8579764e-08 3.019754e-08 0.0
0000d0 98 f1 88 31 e2 c4 1a 33 72 90 c5 32 e3 56 21 33
       3.985587e-09 3.6034983e-08 2.2999505e-08 3.7564757e-08
0000e0 43 f4 d4 32 18 a1 13 32 2d fd 40 33 c0 4e 1c 33
       2.4791126e-08 8.593155e-09 4.4933746e-08 3.6393203e-08
0000f0 c0 f9 83 33 00 00 00 00 7b 38 66 30 d0 2e 80 33
       6.145592e-08 0.0 8.3753776e-10 5.9689796e-08
000100 3f 28 29 33 12 fd 0b 33 50 0c 0e 32 54 33 0f 32
       3.9384982e-08 3.2593626e-08 8.268287e-09 8.335366e-09
000110 00 00 00 00 00 00 00 00 76 c3 45 1f 23 cc bf 32
       0.0 0.0 4.1878054e-20 2.2328157e-08
000120 00 00 00 00 de 1d 5b 33 00 00 00 00 00 00 00 00
       0.0 5.1017075e-08 0.0 0.0
000130 e0 ef 76 31 00 00 00 00 00 00 00 00 a3 b6 11 32
       3.5934065e-09 0.0 0.0 8.481638e-09
000140 00 00 00 00 fb 66 22 32 00 00 00 00 00 00 00 00
       0.0 9.453056e-09 0.0 0.0
000150 00 00 00 00 21 bb b9 31 00 00 00 00 00 00 00 00
       0.0 5.4054827e-09 0.0 0.0
000160 38 05 23 32 12 ca 7e 33 00 00 00 00 2a 75 3d 32
       9.489035e-09 5.9322765e-08 0.0 1.1027888e-08
000170 c4 b5 d1 32 fa 5d da 31 f9 0d 03 33 59 ff 25 31
       2.441346e-08 6.355319e-09 3.0513522e-08 2.4155808e-09
000180 57 e3 94 32 6b 11 15 31 77 2f 2a 33 00 00 00 00
       1.733285e-08 2.1692255e-09 3.962438e-08 0.0
000190 f2 97 88 32 00 00 00 00 8c 6d 92 32 2a d2 cd 30
       1.590158e-08 0.0 1.7046453e-08 1.4975445e-09
0001a0 f8 2c 15 32 2c a1 8b 32 f6 ca d2 32 59 25 6a 32
       8.683166e-09 1.6255022e-08 2.4539514e-08 1.36290845e-08
0001b0 2e 82 09 2b 00 00 00 00 00 00 00 00 68 80 6a 32
       4.885284e-13 0.0 0.0 1.3649789e-08
0001c0 74 5f 11 33 fd 30 19 30 31 e5 b9 31 63 e6 ae 31
       3.3847257e-08 5.573069e-10 5.4102647e-09 5.0902584e-09
0001d0 37 74 27 33 00 00 00 00 00 00 00 00 00 00 00 00
       3.8988414e-08 0.0 0.0 0.0
0001e0 00 00 00 00 c6 56 4f 32 00 00 00 00 ac 79 99 32
       0.0 1.2068716e-08 0.0 1.7866874e-08
0001f0 4e 31 cb 30 24 f9 11 32 a0 06 96 32 00 00 00 00
       1.4784207e-09 8.496759e-09 1.7465311e-08 0.0

exp_avg f4 [128, 128]
000000 00 00 00 00 00 00 00 00 00 00 00 00 00 00 00 00
       0.0 0.0 0.0 0.0
000010 00 00 00 00 00 00 00 00 00 00 00 00 00 00 00 00
       0.0 0.0 0.0 0.0
000020 00 00 00 00 00 00 00 00 00 00 00 00 00 00 00 00
       0.0 0.0 0.0 0.0
000030 00 00 00 00 00 00 00 00 00 00 00 00 00 00 00 00
       0.0 0.0 0.0 0.0
000040 00 00 00 00 00 00 00 00 00 00 00 00 00 00 00 00
       0.0 0.0 0.0 0.0
000050 00 00 00 00 00 00 00 00 00 00 00 00 00 00 00 00
       0.0 0.0 0.0 0.0
000060 00 00 00 00 00 00 00 00 00 00 00 00 00 00 00 00
       0.0 0.0 0.0 0.0
000070 00 00 00 00 00 00 00 00 00 00 00 00 00 00 00 00
       0.0 0.0 0.0 0.0
000080 00 00 00 00 00 00 00 00 00 00 00 00 00 00 00 00
       0.0 0.0 0.0 0.0
000090 00 00 00 00 00 00 00 00 00 00 00 00 00 00 00 00
       0.0 0.0 0.0 0.0
0000a0 00 00 00 00 00 00 00 00 00 00 00 00 00 00 00 00
       0.0 0.0 0.0 0.0
0000b0 00 00 00 00 00 00 00 00 00 00 00 00 00 00 00 00
       0.0 0.0 0.0 0.0
0000c0 00 00 00 00 00 00 00 00 00 00 00 00 00 00 00 00
       0.0 0.0 0.0 0.0
0000d0 00 00 00 00 00 00 00 00 00 00 00 00 00 00 00 00
       0.0 0.0 0.0 0.0
0000e0 00 00 00 00 00 00 00 00 00 00 00 00 00 00 00 00
       0.0 0.0 0.0 0.0
0000f0 00 00 00 00 00 00 00 00 00 00 00 00 00 00 00 00
       0.0 0.0 0.0 0.0
000100 00 00 00 00 00 00 00 00 00 00 00 00 00 00 00 00
       0.0 0.0 0.0 0.0
000110 00 00 00 00 00 00 00 00 00 00 00 00 00 00 00 00
       0.0 0.0 0.0 0.0
000120 00 00 00 00 00 00 00 00 00 00 00 00 00 00 00 00
       0.0 0.0 0.0 0.0
000130 00 00 00 00 00 00 00 00 00 00 00 00 00 00 00 00
       0.0 0.0 0.0 0.0
000140 00 00 00 00 00 00 00 00 00 00 00 00 00 00 00 00
       0.0 0.0 0.0 0.0
000150 00 00 00 00 00 00 00 00 00 00 00 00 00 00 00 00
       0.0 0.0 0.0 0.0
000160 00 00 00 00 00 00 00 00 00 00 00 00 00 00 00 00
       0.0 0.0 0.0 0.0
000170 00 00 00 00 00 00 00 00 00 00 00 00 00 00 00 00
       0.0 0.0 0.0 0.0
000180 00 00 00 00 00 00 00 00 00 00 00 00 00 00 00 00
       0.0 0.0 0.0 0.0
000190 00 00 00 00 00 00 00 00 00 00 00 00 00 00 00 00
       0.0 0.0 0.0 0.0
0001a0 00 00 00 00 00 00 00 00 00 00 00 00 00 00 00 00
       0.0 0.0 0.0 0.0
0001b0 00 00 00 00 00 00 00 00 00 00 00 00 00 00 00 00
       0.0 0.0 0.0 0.0
0001c0 00 00 00 00 00 00 00 00 00 00 00 00 00 00 00 00
       0.0 0.0 0.0 0.0
0001d0 00 00 00 00 00 00 00 00 00 00 00 00 00 00 00 00
       0.0 0.0 0.0 0.0
0001e0 00 00 00 00 00 00 00 00 00 00 00 00 00 00 00 00
       0.0 0.0 0.0 0.0
0001f0 00 00 00 00 00 00 00 00 00 00 00 00 00 00 00 00
       0.0 0.0 0.0 0.0
000200 00 00 00 00 28 36 37 37 00 00 00 00 00 00 00 00
       0.0 1.0920259e-05 0.0 0.0
000210 25 7b b2 36 44 27 cc 35 00 00 00 00 53 d4 51 37
       5.3191493e-06 1.5210612e-06 0.0 1.2506806e-05
000220 00 00 00 00 00 00 00 00 59 8d bf b0 00 00 00 00
       0.0 0.0 -1.3937252e-09 0.0
000230 00 00 00 00 25 f7 89 36 c5 33 4a 36 c1 b0 b2 36
       0.0 4.1116896e-06 3.013048e-06 5.3253902e-06
000240 93 6c 09 b4 00 00 00 00 00 00 00 00 00 00 00 00
       -1.2798618e-07 0.0 0.0 0.0
000250 22 70 1c 36 7f fb 0b 37 00 00 00 00 00 00 00 00
       2.3311081e-06 8.343602e-06 0.0 0.0
000260 00 00 00 00 00 00 00 00 f3 5a 55 37 ca 94 73 36
       0.0 0.0 1.2716965e-05 3.6296428e-06
000270 b7 d4 bc 36 00 00 00 00 fa 1b 7d 37 00 00 00 00
       5.6276e-06 0.0 1.5086489e-05 0.0
000280 6d bc 66 36 8a 99 b3 36 00 00 00 00 f1 ee 41 b1
       3.438235e-06 5.35249e-06 0.0 -2.8221019e-09
000290 e9 81 98 af ea f5 71 36 00 00 00 00 00 00 00 00
       -2.7740946e-10 3.605494e-06 0.0 0.0
0002a0 00 00 00 00 00 00 00 00 ed 0d e9 35 fe 31 c3 33
       0.0 0.0 1.7363906e-06 9.0894886e-08
0002b0 00 00 00 00 00 00 00 00 00 00 00 00 4d 2b 5a 34
       0.0 0.0 0.0 2.0318585e-07
0002c0 2c be 46 37 22 dc 87 36 54 9f 60 36 00 00 00 00
       1.18459975e-05 4.0489404e-06 3.3471342e-06 0.0
0002d0 4e 4a 81 37 e8 17 c4 36 cd c1 f8 36 cd ad e6 36
       1.54126e-05 5.8440382e-06 7.4135373e-06 6.874767e-06
0002e0 88 7c d9 36 50 2e 0e 37 9b f2 8b 36 07 74 1d 37
       6.4816013e-06 8.4746425e-06 4.170766e-06 9.384944e-06
0002f0 d5 de 95 36 00 00 00 00 fc 44 7d 32 18 2f c1 36
       4.466487e-06 0.0 1.4742223e-08 5.7573307e-06
000300 86 93 7f 36 a8 39 ce 36 45 68 be 32 6a 1a 62 36
       3.808383e-06 6.1459905e-06 2.2166327e-08 3.3692e-06
000310 00 00 00 00 00 00 00 00 4b 0a 6c a3 8a eb b2 b3
       0.0 0.0 -1.2795765e-17 -8.331615e-08
000320 00 00 00 00 50 6c 65 37 00 00 00 00 00 00 00 00
       0.0 1.3674682e-05 0.0 0.0
000330 45 ec 4b 35 00 00 00 00 00 00 00 00 1b ce ea 35
       7.596721e-07 0.0 0.0 1.7494343e-06
000340 00 00 00 00 a6 1b 87 36 00 00 00 00 00 00 00 00
       0.0 4.026532e-06 0.0 0.0
000350 00 00 00 00 b5 24 c7 36 00 00 00 00 00 00 00 00
       0.0 5.9349354e-06 0.0 0.0
000360 b5 a3 1f 37 52 50 c6 36 00 00 00 00 52 74 86 36
       9.5152545e-06 5.9102103e-06 0.0 4.0070527e-06
000370 e6 52 14 36 92 fe ca 32 82 d9 16 36 6c b6 aa 33
       2.2101972e-06 2.363166e-08 2.2478348e-06 7.949424e-08
000380 5b c0 2a 37 0e e8 b0 34 0a 25 fc 36 00 00 00 00
       1.0177576e-05 3.2951397e-07 7.514497e-06 0.0
000390 9d f6 03 36 00 00 00 00 eb 12 62 37 6f a7 57 37
       1.966407e-06 0.0 1.3475054e-05 1.2853982e-05
0003a0 88 8e 53 b3 27 d6 a1 36 ff 24 59 36 4d 54 09 37
       -4.9256897e-08 4.8231045e-06 3.2357054e-06 8.185464e-06
0003b0 b6 9a 32 af 00 00 00 00 00 00 00 00 59 fd 88 34
       -1.624397e-10 0.0 0.0 2.551631e-07
0003c0 ae cc 98 36 32 c2 b6 b4 bf df 7f 35 61 81 ac 35
       4.553781e-06 -3.4041437e-07 9.5320496e-07 1.2852653e-06
0003d0 57 79 bf 36 00 00 00 00 00 00 00 00 00 00 00 00
       5.7063694e-06 0.0 0.0 0.0
0003e0 00 00 00 00 41 a5 ef 36 00 00 00 00 7f 49 db 33
       0.0 7.141993e-06 0.0 1.0211351e-07
0003f0 81 6f 00 37 2d 86 a6 36 82 66 76 36 00 00 00 00
       7.655356e-06 4.9628056e-06 3.6716524e-06 0.0

exp_avg_sq f4 [128, 128]
000000 00 00 00 00 00 00 00 00 00 00 00 00 00 00 00 00
       0.0 0.0 0.0 0.0
000010 00 00 00 00 00 00 00 00 00 00 00 00 00 00 00 00
       0.0 0.0 0.0 0.0
000020 00 00 00 00 00 00 00 00 00 00 00 00 00 00 00 00
       0.0 0.0 0.0 0.0
000030 00 00 00 00 00 00 00 00 00 00 00 00 00 00 00 00
       0.0 0.0 0.0 0.0
000040 00 00 00 00 00 00 00 00 00 00 00 00 00 00 00 00
       0.0 0.0 0.0 0.0
000050 00 00 00 00 00 00 00 00 00 00 00 00 00 00 00 00
       0.0 0.0 0.0 0.0
000060 00 00 00 00 00 00 00 00 00 00 00 00 00 00 00 00
       0.0 0.0 0.0 0.0
000070 00 00 00 00 00 00 00 00 00 00 00 00 00 00 00 00
       0.0 0.0 0.0 0.0
000080 00 00 00 00 00 00 00 00 00 00 00 00 00 00 00 00
       0.0 0.0 0.0 0.0
000090 00 00 00 00 00 00 00 00 00 00 00 00 00 00 00 00
       0.0 0.0 0.0 0.0
0000a0 00 00 00 00 00 00 00 00 00 00 00 00 00 00 00 00
       0.0 0.0 0.0 0.0
0000b0 00 00 00 00 00 00 00 00 00 00 00 00 00 00 00 00
       0.0 0.0 0.0 0.0
0000c0 00 00 00 00 00 00 00 00 00 00 00 00 00 00 00 00
       0.0 0.0 0.0 0.0
0000d0 00 00 00 00 00 00 00 00 00 00 00 00 00 00 00 00
       0.0 0.0 0.0 0.0
0000e0 00 00 00 00 00 00 00 00 00 00 00 00 00 00 00 00
       0.0 0.0 0.0 0.0
0000f0 00 00 00 00 00 00 00 00 00 00 00 00 00 00 00 00
       0.0 0.0 0.0 0.0
000100 00 00 00 00 00 00 00 00 00 00 00 00 00 00 00 00
       0.0 0.0 0.0 0.0
000110 00 00 00 00 00 00 00 00 00 00 00 00 00 00 00 00
       0.0 0.0 0.0 0.0
000120 00 00 00 00 00 00 00 00 00 00 00 00 00 00 00 00
       0.0 0.0 0.0 0.0
000130 00 00 00 00 00 00 00 00 00 00 00 00 00 00 00 00
       0.0 0.0 0.0 0.0
000140 00 00 00 00 00 00 00 00 00 00 00 00 00 00 00 00
       0.0 0.0 0.0 0.0
000150 00 00 00 00 00 00 00 00 00 00 00 00 00 00 00 00
       0.0 0.0 0.0 0.0
000160 00 00 00 00 00 00 00 00 00 00 00 00 00 00 00 00
       0.0 0.0 0.0 0.0
000170 00 00 00 00 00 00 00 00 00 00 00 00 00 00 00 00
       0.0 0.0 0.0 0.0
000180 00 00 00 00 00 00 00 00 00 00 00 00 00 00 00 00
       0.0 0.0 0.0 0.0
000190 00 00 00 00 00 00 00 00 00 00 00 00 00 00 00 00
       0.0 0.0 0.0 0.0
0001a0 00 00 00 00 00 00 00 00 00 00 00 00 00 00 00 00
       0.0 0.0 0.0 0.0
0001b0 00 00 00 00 00 00 00 00 00 00 00 00 00 00 00 00
       0.0 0.0 0.0 0.0
0001c0 00 00 00 00 00 00 00 00 00 00 00 00 00 00 00 00
       0.0 0.0 0.0 0.0
0001d0 00 00 00 00 00 00 00 00 00 00 00 00 00 00 00 00
       0.0 0.0 0.0 0.0
0001e0 00 00 00 00 00 00 00 00 00 00 00 00 00 00 00 00
       0.0 0.0 0.0 0.0
0001f0 00 00 00 00 00 00 00 00 00 00 00 00 00 00 00 00
       0.0 0.0 0.0 0.0
000200 00 00 00 00 6c 43 9e 30 00 00 00 00 00 00 00 00
       0.0 1.1515175e-09 0.0 0.0
000210 30 36 a1 2f a4 0e 4b 2f 00 00 00 00 50 1f 06 31
       2.9324232e-10 1.8467944e-10 0.0 1.9517366e-09
000220 00 00 00 00 00 00 00 00 77 9f 21 2b 00 00 00 00
       0.0 0.0 5.741999e-13 0.0
000230 00 00 00 00 45 5f 8a 2f 3c 20 4c 2f 18 07 e9 2f
       0.0 2.5169747e-10 1.8565144e-10 4.2387494e-10
000240 0a c2 3a 2e 00 00 00 00 00 00 00 00 00 00 00 00
       4.2463845e-11 0.0 0.0 0.0
000250 fa 63 24 30 5f 07 4b 30 00 00 00 00 00 00 00 00
       5.980493e-10 7.3861445e-10 0.0 0.0
000260 00 00 00 00 00 00 00 00 de 95 9f 30 ee 3f 1b 2f
       0.0 0.0 1.1611367e-09 1.411988e-10
000270 2e fc 8e 2f 00 00 00 00 90 fe ca 30 00 00 00 00
       2.6008834e-10 0.0 1.4769785e-09 0.0
000280 43 b4 33 30 95 84 03 30 00 00 00 00 2a 27 85 2d
       6.537599e-10 4.784593e-10 0.0 1.5137742e-11
000290 ec 6d 9d 2c 68 ff 90 2f 00 00 00 00 00 00 00 00
       4.474412e-12 2.6374924e-10 0.0 0.0
0002a0 00 00 00 00 00 00 00 00 8e e3 a5 2f 6e c2 b7 27
       0.0 0.0 3.0175012e-10 5.1003504e-15
0002b0 00 00 00 00 00 00 00 00 00 00 00 00 0d 28 8d 2f
       0.0 0.0 0.0 2.5676208e-10
0002c0 ca fa 25 31 fd 43 d7 2e 9b 63 c1 2f 00 00 00 00
       2.4153217e-09 9.789145e-11 3.517727e-10 0.0
0002d0 30 39 75 31 16 6c 3f 30 5e 82 96 30 3f dc 79 30
       3.56847e-09 6.9638995e-10 1.0950989e-09 9.089866e-10
0002e0 b6 ef 26 30 b4 a4 05 31 3e 73 c7 2e 29 01 55 30
       6.07311e-10 1.944767e-09 9.0699434e-11 7.74906e-10
0002f0 eb 78 da 2f 00 00 00 00 25 29 4d 2a 55 03 db 2f
       3.9739886e-10 0.0 1.8221932e-13 3.9838235e-10
000300 4c 4b c5 2f e4 79 ba 2f 4b 5b 1e 2b 3f 80 6d 2f
       3.5887593e-10 3.3919811e-10 5.625957e-13 2.1600587e-10
000310 00 00 00 00 00 00 00 00 f7 46 87 16 4d 03 d4 2e
       0.0 0.0 2.1855211e-25 9.64123e-11
000320 00 00 00 00 63 76 fc 30 00 00 00 00 00 00 00 00
       0.0 1.8369061e-09 0.0 0.0
000330 a8 d8 62 2f 00 00 00 00 00 00 00 00 01 0e 48 2f
       2.0631552e-10 0.0 0.0 1.8194869e-10
000340 00 00 00 00 e3 b0 07 30 00 00 00 00 00 00 00 00
       0.0 4.9364085e-10 0.0 0.0
000350 00 00 00 00 05 be 76 30 00 00 00 00 00 00 00 00
       0.0 8.976431e-10 0.0 0.0
000360 fb 87 95 30 f4 42 c6 2f 00 00 00 00 a2 28 86 2f
       1.0879825e-09 3.6063563e-10 0.0 2.440333e-10
000370 19 23 de 2f 24 70 88 2e 4d a6 7e 2e 8d e3 64 2e
       4.0406503e-10 6.204484e-11 5.790062e-11 5.2043304e-11
000380 15 5f cf 30 0e 5d 99 2c 61 c9 e7 2f 00 00 00 00
       1.5088256e-09 4.3588527e-12 4.2161744e-10 0.0
000390 4a 56 7a 2f 00 00 00 00 d2 e9 aa 30 b5 0e e7 30
       2.2768024e-10 0.0 1.2435584e-09 1.6811642e-09
0003a0 8a a8 18 2e 5e ca dc 30 95 b3 c8 2f ef ec e4 30
       3.471049e-11 1.6064623e-09 3.650739e-10 1.6656524e-09
0003b0 7e d0 25 26 00 00 00 00 00 00 00 00 0e f4 76 2d
       5.7528434e-16 0.0 0.0 1.4037672e-11
0003c0 ce ed 06 2f ba c4 cf 2e 67 02 0d 30 37 89 3e 2c
       1.2271714e-10 9.448216e-11 5.1298915e-10 2.7076793e-12
0003d0 4b 09 58 30 00 00 00 00 00 00 00 00 00 00 00 00
       7.859355e-10 0.0 0.0 0.0
0003e0 00 00 00 00 07 6b d1 2f 00 00 00 00 5a 70 8d 2e
       0.0 3.8092926e-10 0.0 6.431895e-11
0003f0 e8 eb 78 30 04 d3 d0 2f bc bd 3c 2f 00 00 00 00
       9.055712e-10 3.7984915e-10 1.7165908e-10 0.0
