001-machine_learning/data/00001-MLP-temperature/010_checkpoint.pth (torch_old, 409226 bytes, 30 tensors)

exp_avg f4 [64, 4]
0	0x00000000	0.0
1	0xb917ac16	-0.00014464589
2	0xb701438d	-7.704727e-06
3	0xb8f5d07f	-0.00011721346
4	0x00000000	0.0
5	0x359dd694	1.1759862e-06
6	0x35912ae4	1.0815825e-06
7	0x33ad288c	8.063316e-08
8	0x00000000	0.0
9	0xb8117e36	-3.4688237e-05
10	0x3628e957	2.5169772e-06
11	0xb884aeb7	-6.326794e-05
12	0x00000000	0.0
13	0xb8f94769	-0.000118865464
14	0xb703fa3f	-7.866473e-06
15	0xb89d3561	-7.496286e-05
16	0x00000000	0.0
17	0xb8e981a4	-0.00011134453
18	0xb714b80a	-8.864337e-06
19	0xb8872618	-6.444397e-05
20	0x00000000	0.0
21	0xb85196c6	-4.99699e-05
22	0xb7255285	-9.8539795e-06
23	0xb6844044	-3.941388e-06
24	0x00000000	0.0
25	0xb88f34b0	-6.828585e-05
26	0xb702a1a0	-7.786235e-06
27	0xb87a5a35	-5.9688657e-05
28	0x00000000	0.0
29	0xb89b64cd	-7.4097516e-05
30	0xb7007b31	-7.658077e-06
31	0xb67962e4	-3.7161453e-06
32	0x00000000	0.0
33	0x00000000	0.0
34	0x00000000	0.0
35	0x00000000	0.0
36	0x00000000	0.0
37	0x39a50b0d	0.00031479486
38	0x38ae26ea	8.304215e-05
39	0x397f56e8	0.0002435107
40	0x00000000	0.0
41	0x00000000	0.0
42	0x00000000	0.0
43	0x00000000	0.0
44	0x00000000	0.0
45	0x38c88a54	9.562509e-05
46	0x388ca0a4	6.705642e-05
47	0x38c3e1ec	9.340406e-05
48	0x00000000	0.0
49	0xb56e9c64	-8.888949e-07
50	0xb474506a	-2.2753525e-07
51	0x32f13009	2.8077936e-08
52	0x00000000	0.0
53	0x00000000	0.0
54	0x00000000	0.0
55	0x00000000	0.0
56	0x00000000	0.0
57	0x00000000	0.0
58	0x00000000	0.0
59	0x00000000	0.0
60	0x00000000	0.0
61	0x383cc498	4.5005785e-05
62	0x34ce591c	3.8435326e-07
63	0x383df074	4.528505e-05
64	0x00000000	0.0
65	0x00000000	0.0
66	0x00000000	0.0
67	0x00000000	0.0
68	0x00000000	0.0
69	0xb738a62f	-1.1005947e-05
70	0xb6ee0271	-7.093237e-06
71	0xb619e3b3	-2.2931315e-06
72	0x00000000	0.0
73	0x00000000	0.0
74	0x00000000	0.0
75	0x00000000	0.0
76	0x00000000	0.0
77	0x38bdd844	9.052505e-05
78	0x36844fec	3.9432107e-06
79	0x37cf2477	2.4693303e-05
80	0x00000000	0.0
81	0x00000000	0.0
82	0x00000000	0.0
83	0x00000000	0.0
84	0x00000000	0.0
85	0xb8a510e3	-7.8709585e-05
86	0xb745de46	-1.1793867e-05
87	0xb7443074	-1.1693792e-05
88	0x00000000	0.0
89	0x00000000	0.0
90	0x00000000	0.0
91	0x00000000	0.0
92	0x00000000	0.0
93	0x3965b76f	0.00021907476
94	0x37780ca1	1.4784892e-05
95	0x3914070a	0.00014117002
96	0x00000000	0.0
97	0x389f0a1c	7.583594e-05
98	0x36b1db64	5.3005515e-06
99	0x37aef80e	2.0857926e-05
100	0x00000000	0.0
101	0xb643f4aa	-2.9199678e-06
102	0xb4af2d8c	-3.262943e-07
103	0x33eb3648	1.0952914e-07
104	0x00000000	0.0
105	0x3762d66c	1.3520574e-05
106	0x36fd1b6f	7.5431813e-06
107	0x356b0807	8.7556003e-07
108	0x00000000	0.0
109	0x39116bce	0.00013868438
110	0x373f9a76	1.142045e-05
111	0x38810edc	6.153967e-05
112	0x00000000	0.0
113	0x35bddff6	1.4146779e-06
114	0x35fa1ab9	1.8634229e-06
115	0x3559c8ae	8.1130827e-07
116	0x00000000	0.0
117	0x39448e9c	0.00018745143
118	0x377176f5	1.4392416e-05
119	0x3908a915	0.00013032959
120	0x00000000	0.0
121	0xb7b23050	-2.124175e-05
122	0x353373a2	6.6850964e-07
123	0xb80146b5	-3.0821848e-05
124	0x00000000	0.0
125	0x390b5d5b	0.0001329085
126	0x36f39f76	7.260528e-06
127	0x39018978	0.0001235361
128	0x00000000	0.0
129	0x37ca8115	2.4140385e-05
130	0x35b4867e	1.3450187e-06
131	0x3779d75b	1.4891698e-05
132	0x00000000	0.0
133	0x34ff2cf5	4.7530162e-07
134	0x3470c3a6	2.2422918e-07
135	0xb3b8d7d9	-8.60743e-08
136	0x00000000	0.0
137	0x39653221	0.00021857816
138	0x3775e35e	1.4656076e-05
139	0x3908f716	0.00013062017
140	0x00000000	0.0
141	0x00000000	0.0
142	0x00000000	0.0
143	0x00000000	0.0
144	0x00000000	0.0
145	0x38431a12	4.6515903e-05
146	0x36c14da6	5.7608877e-06
147	0xb742cf45	-1.161156e-05
148	0x00000000	0.0
149	0x391566c9	0.00014248038
150	0x36c49380	5.8584264e-06
151	0x38d31c1a	0.00010066498
152	0x00000000	0.0
153	0x00000000	0.0
154	0x00000000	0.0
155	0x00000000	0.0
156	0x00000000	0.0
157	0x3957d199	0.00020582079
158	0x36075f5e	2.0172079e-06
159	0x37159701	8.91625e-06
160	0x00000000	0.0
161	0x38b042e6	8.404795e-05
162	0x36bfeecd	5.7200436e-06
163	0x3889ee38	6.577041e-05
164	0x00000000	0.0
165	0x38748f61	5.8307665e-05
166	0xb440a8b3	-1.7942766e-07
167	0x3586193f	9.991126e-07
168	0x00000000	0.0
169	0xb8e73ca0	-0.00011026231
170	0xb6f2fe8d	-7.2417956e-06
171	0xb86cfcfb	-5.650239e-05
172	0x00000000	0.0
173	0x00000000	0.0
174	0x00000000	0.0
175	0x00000000	0.0
176	0x00000000	0.0
177	0xb8bec341	-9.096275e-05
178	0xb3e8f0ab	-1.0847119e-07
179	0xb8f66501	-0.000117490075
180	0x00000000	0.0
181	0xb91b99bf	-0.00014839227
182	0xb745c104	-1.1787055e-05
183	0xb8d2c0bb	-0.00010049479
184	0x00000000	0.0
185	0xb83b6f8c	-4.468816e-05
186	0xb649a998	-3.005005e-06
187	0x353b4c98	6.9774387e-07
188	0x00000000	0.0
189	0x39f4c442	0.0004668553
190	0x37dcf6eb	2.6341024e-05
191	0x399f475f	0.0003038002
192	0x00000000	0.0
193	0x38ba1e37	8.874799e-05
194	0x36598c4e	3.2417188e-06
195	0x38a5c075	7.903661e-05
196	0x00000000	0.0
197	0x00000000	0.0
198	0x00000000	0.0
199	0x00000000	0.0
200	0x00000000	0.0
201	0x00000000	0.0
202	0x00000000	0.0
203	0x00000000	0.0
204	0x00000000	0.0
205	0x00000000	0.0
206	0x00000000	0.0
207	0x00000000	0.0
208	0x00000000	0.0
209	0x3746f97a	1.1859805e-05
210	0xb599a502	-1.1447412e-06
211	0xb5160378	-5.58844e-07
212	0x00000000	0.0
213	0xb84ed9eb	-4.931718e-05
214	0xb605d58d	-1.9942847e-06
215	0xb8455000	-4.7042966e-05
216	0x00000000	0.0
217	0xb965b1bf	-0.00021905357
218	0xb6675c83	-3.4475531e-06
219	0xb915a969	-0.00014272858
220	0x00000000	0.0
221	0x384dfbde	4.911038e-05
222	0x35992ce9	1.1412459e-06
223	0x36f820fe	7.3948167e-06
224	0x00000000	0.0
225	0x34dc52e5	4.1038507e-07
226	0xb54e7c5b	-7.692194e-07
227	0x358a3f0a	1.0300148e-06
228	0x00000000	0.0
229	0x00000000	0.0
230	0x00000000	0.0
231	0x00000000	0.0
232	0x00000000	0.0
233	0x383574bb	4.3262477e-05
234	0x35c3e7ce	1.4596096e-06
235	0x37ef5253	2.8529355e-05
236	0x00000000	0.0
237	0xb912e11d	-0.00014007506
238	0xb6bd7bfc	-5.6470726e-06
239	0xb905d077	-0.00012761528
240	0x00000000	0.0
241	0x00000000	0.0
242	0x00000000	0.0
243	0x00000000	0.0
244	0x00000000	0.0
245	0xb99bd9b1	-0.00029726097
246	0xb792efa1	-1.7516142e-05
247	0xb926296d	-0.00015846426
248	0x00000000	0.0
249	0xb8e3dba9	-0.000108651184
250	0xb55e2f0c	-8.2769907e-07
251	0xb8e1bc76	-0.0001076394
252	0x00000000	0.0
253	0x391eaa54	0.00015131506
254	0x378f5564	1.7086692e-05
255	0x37560efc	1.2758883e-05

exp_avg_sq f4 [64, 4]
0	0x00000000	0.0
1	0x350efb59	5.326488e-07
2	0x35e02496	1.6699948e-06
3	0x358ad49e	1.0343681e-06
4	0x00000000	0.0
5	0x32919956	1.694995e-08
6	0x353d9227	7.0620666e-07
7	0x3484e538	2.4753695e-07
8	0x00000000	0.0
9	0x33f1ad97	1.1254013e-07
10	0x34381fbf	1.7147885e-07
11	0x34431e04	1.817171e-07
12	0x00000000	0.0
13	0x3447fe23	1.8625774e-07
14	0x340bb12a	1.3009836e-07
15	0x3463e847	2.1225524e-07
16	0x00000000	0.0
17	0x3423d3c7	1.5257602e-07
18	0x34a5452f	3.0783983e-07
19	0x347575d4	2.2860269e-07
20	0x00000000	0.0
21	0x331d43c3	3.661604e-08
22	0x3504895d	4.937372e-07
23	0x3456a472	1.9990128e-07
24	0x00000000	0.0
25	0x33bed0bf	8.885535e-08
26	0x34cfd95b	3.8714902e-07
27	0x348ccc64	2.6225746e-07
28	0x00000000	0.0
29	0x329be644	1.8149088e-08
30	0x300fc566	5.2303617e-10
31	0x2ec2760e	8.843069e-11
32	0x00000000	0.0
33	0x00000000	0.0
34	0x00000000	0.0
35	0x00000000	0.0
36	0x00000000	0.0
37	0x351507b8	5.551806e-07
38	0x34794984	2.3216677e-07
39	0x34c3489b	3.6374408e-07
40	0x00000000	0.0
41	0x00000000	0.0
42	0x00000000	0.0
43	0x00000000	0.0
44	0x00000000	0.0
45	0x34913cb8	2.7052533e-07
46	0x3627ade8	2.4986166e-06
47	0x35afebe5	1.310717e-06
48	0x00000000	0.0
49	0x31c05f3c	5.5987623e-09
50	0x33f39c11	1.13439576e-07
51	0x32f4afad	2.8485227e-08
52	0x00000000	0.0
53	0x00000000	0.0
54	0x00000000	0.0
55	0x00000000	0.0
56	0x00000000	0.0
57	0x00000000	0.0
58	0x00000000	0.0
59	0x00000000	0.0
60	0x00000000	0.0
61	0x33d99649	1.0132187e-07
62	0x340eff37	1.3317627e-07
63	0x3406df65	1.2560993e-07
64	0x00000000	0.0
65	0x00000000	0.0
66	0x00000000	0.0
67	0x00000000	0.0
68	0x00000000	0.0
69	0x30b975a4	1.3493957e-09
70	0x3198c6eb	4.4463966e-09
71	0x2e193435	3.483454e-11
72	0x00000000	0.0
73	0x00000000	0.0
74	0x00000000	0.0
75	0x00000000	0.0
76	0x00000000	0.0
77	0x3364f60c	5.3309165e-08
78	0x33744631	5.6874516e-08
79	0x3299de04	1.7912505e-08
80	0x00000000	0.0
81	0x00000000	0.0
82	0x00000000	0.0
83	0x00000000	0.0
84	0x00000000	0.0
85	0x3433042a	1.6672189e-07
86	0x33efff9e	1.1175801e-07
87	0x31d5e6d6	6.225359e-09
88	0x00000000	0.0
89	0x00000000	0.0
90	0x00000000	0.0
91	0x00000000	0.0
92	0x00000000	0.0
93	0x3544b185	7.3274015e-07
94	0x361b190f	2.3111386e-06
95	0x35c197a9	1.442376e-06
96	0x00000000	0.0
97	0x32b218c1	2.0733184e-08
98	0x323d286c	1.1010439e-08
99	0x31882864	3.962713e-09
100	0x00000000	0.0
101	0x31f38569	7.087398e-09
102	0x3458a106	2.0175148e-07
103	0x333a0936	4.3314877e-08
104	0x00000000	0.0
105	0x34771d4e	2.3014329e-07
106	0x3626f8b7	2.4880699e-06
107	0x3581ebba	9.679854e-07
108	0x00000000	0.0
109	0x3437d52f	1.7120759e-07
110	0x34cf8132	3.8650757e-07
111	0x345a6a98	2.034161e-07
112	0x00000000	0.0
113	0x3319873d	3.5746087e-08
114	0x34fefd4f	4.7495493e-07
115	0x342f4694	1.6323821e-07
116	0x00000000	0.0
117	0x350ca178	5.238903e-07
118	0x35c34ba7	1.455065e-06
119	0x35818249	9.649167e-07
120	0x00000000	0.0
121	0x3369478b	5.4314608e-08
122	0x342f166e	1.6306305e-07
123	0x33e281ac	1.0547532e-07
124	0x00000000	0.0
125	0x3508494a	5.07706e-07
126	0x35ba7d02	1.3894462e-06
127	0x3583f934	9.832788e-07
128	0x00000000	0.0
129	0x33002352	2.9834446e-08
130	0x2f94833b	2.7014288e-10
131	0x3107d2bf	1.976488e-09
132	0x00000000	0.0
133	0x323e03ba	1.1060303e-08
134	0x34b3c057	3.3481294e-07
135	0x33f00fec	1.1178767e-07
136	0x00000000	0.0
137	0x3523fa9f	6.1086934e-07
138	0x35f22f8a	1.8044241e-06
139	0x35978742	1.1289742e-06
140	0x00000000	0.0
141	0x00000000	0.0
142	0x00000000	0.0
143	0x00000000	0.0
144	0x00000000	0.0
145	0x32866656	1.564619e-08
146	0x33162286	3.4955995e-08
147	0x32a58b64	1.9271916e-08
148	0x00000000	0.0
149	0x34c065a7	3.583675e-07
150	0x339c4fba	7.278818e-08
151	0x349d4744	2.929538e-07
152	0x00000000	0.0
153	0x00000000	0.0
154	0x00000000	0.0
155	0x00000000	0.0
156	0x00000000	0.0
157	0x35607e83	8.36306e-07
158	0x35349095	6.726562e-07
159	0x318ecda5	4.156123e-09
160	0x00000000	0.0
161	0x34168b57	1.402053e-07
162	0x34d1b71b	3.906251e-07
163	0x3482ffa6	2.4400396e-07
164	0x00000000	0.0
165	0x33e6d07d	1.07481334e-07
166	0x356a3df8	8.726197e-07
167	0x34b450c5	3.358638e-07
168	0x00000000	0.0
169	0x33b9dd18	8.6549505e-08
170	0x324b6892	1.1839932e-08
171	0x3384a168	6.1760886e-08
172	0x00000000	0.0
173	0x00000000	0.0
174	0x00000000	0.0
175	0x00000000	0.0
176	0x00000000	0.0
177	0x350aaec9	5.166335e-07
178	0x35d10c1e	1.557524e-06
179	0x358eed1c	1.0648832e-06
180	0x00000000	0.0
181	0x34900f89	2.6833393e-07
182	0x34142bbf	1.3799489e-07
183	0x34a34cea	3.0417078e-07
184	0x00000000	0.0
185	0x331e99aa	3.6927e-08
186	0x2fd6ab4f	3.9048095e-10
187	0x2ce1d662	6.418686e-12
188	0x00000000	0.0
189	0x36511403	3.1155075e-06
190	0x370f2cb8	8.533876e-06
191	0x36ac6660	5.1379175e-06
192	0x00000000	0.0
193	0x346eb946	2.223288e-07
194	0x34a3be42	3.0499547e-07
195	0x349778aa	2.8213736e-07
196	0x00000000	0.0
197	0x00000000	0.0
198	0x00000000	0.0
199	0x00000000	0.0
200	0x00000000	0.0
201	0x00000000	0.0
202	0x00000000	0.0
203	0x00000000	0.0
204	0x00000000	0.0
205	0x00000000	0.0
206	0x00000000	0.0
207	0x00000000	0.0
208	0x00000000	0.0
209	0x3388e1bf	6.3740565e-08
210	0x35362dd4	6.786697e-07
211	0x346c600b	2.2014153e-07
212	0x00000000	0.0
213	0x33aaf38a	7.9605414e-08
214	0x34bdd743	3.5360617e-07
215	0x34641ef5	2.1245417e-07
216	0x00000000	0.0
217	0x352d83fb	6.463958e-07
218	0x34116c8e	1.354367e-07
219	0x351fadd7	5.9485086e-07
220	0x00000000	0.0
221	0x32b996af	2.1605358e-08
222	0x31d05f69	6.0644436e-09
223	0x312a5772	2.4787963e-09
224	0x00000000	0.0
225	0x320272c3	7.59309e-09
226	0x331ae941	3.6068062e-08
227	0x32c5c638	2.3023958e-08
228	0x00000000	0.0
229	0x00000000	0.0
230	0x00000000	0.0
231	0x00000000	0.0
232	0x00000000	0.0
233	0x33204601	3.731657e-08
234	0x33d8da83	1.0098031e-07
235	0x3395c2d6	6.9737936e-08
236	0x00000000	0.0
237	0x349a0f9e	2.8696098e-07
238	0x3379f022	5.819323e-08
239	0x34af4544	3.2646687e-07
240	0x00000000	0.0
241	0x00000000	0.0
242	0x00000000	0.0
243	0x00000000	0.0
244	0x00000000	0.0
245	0x3586f1bc	1.0054132e-06
246	0x35440f4c	7.303795e-07
247	0x359aea70	1.1542124e-06
248	0x00000000	0.0
249	0x3525478d	6.157141e-07
250	0x36125cba	2.180967e-06
251	0x35cc173f	1.520595e-06
252	0x00000000	0.0
253	0x356cd5aa	8.8227773e-07
254	0x36c5ecd6	5.898629e-06
255	0x3622a943	2.4238404e-06

exp_avg f4 [64]
0	0xb9150f17	-0.00014215369
1	0x3591a74a	1.0852029e-06
2	0xb80ef4c6	-3.40834e-05
3	0xb8f36963	-0.00011606773
4	0xb8e5ca90	-0.00010957301
5	0xb849f303	-4.8148457e-05
6	0xb88bbc2a	-6.663085e-05
7	0xb895bfe8	-7.140619e-05
8	0x00000000	0.0
9	0x39a31cdb	0.00031111282
10	0x00000000	0.0
11	0x38c6af22	9.473997e-05
12	0xb5b8a18a	-1.3756082e-06
13	0x00000000	0.0
14	0x00000000	0.0
15	0x383adb6a	4.45502e-05
16	0x00000000	0.0
17	0xb74043cf	-1.145988e-05
18	0x00000000	0.0
19	0x38b9d4d4	8.86113e-05
20	0x00000000	0.0
21	0xb89d99eb	-7.515013e-05
22	0x00000000	0.0
23	0x39613770	0.00021478324
24	0x389900e6	7.295776e-05
25	0xb65bd80e	-3.2759303e-06
26	0x377575bf	1.4630553e-05
27	0x390df768	0.00013538974
28	0x35a295d6	1.2113549e-06
29	0x39409c6e	0.00018368821
30	0xb7b17f18	-2.1159227e-05
31	0x39096e92	0.00013106529
32	0x37c703f0	2.3724482e-05
33	0x34e7bed1	4.316594e-07
34	0x39608049	0.00021410095
35	0x00000000	0.0
36	0x383d18c9	4.5084194e-05
37	0x3911bec5	0.00013899345
38	0x00000000	0.0
39	0x3953c3e6	0.00020195506
40	0x38ad5366	8.264817e-05
41	0x386ba2b4	5.6179895e-05
42	0xb8e0bffc	-0.00010716912
43	0x00000000	0.0
44	0xb8bcd41d	-9.004048e-05
45	0xb917d5cc	-0.00014480128
46	0xb8316397	-4.229284e-05
47	0x39effdb0	0.00045774644
48	0x38b6df8a	8.720074e-05
49	0x00000000	0.0
50	0x00000000	0.0
51	0x00000000	0.0
52	0x375b05c4	1.305476e-05
53	0xb84a21dd	-4.819209e-05
54	0xb95dedfc	-0.00021164858
55	0x384489bc	4.6858317e-05
56	0xb3c95d45	-9.3767575e-08
57	0x00000000	0.0
58	0x383243a9	4.250152e-05
59	0xb90d0929	-0.0001345022
60	0x00000000	0.0
61	0xb9989b09	-0.0002910721
62	0xb8e0520c	-0.00010696435
63	0x391ea85a	0.0001513077

exp_avg_sq f4 [64]
0	0x36917a12	4.3355476e-06
1	0x35c79d45	1.4872427e-06
2	0x3502f46c	4.8784455e-07
3	0x34fd94cb	4.7233183e-07
4	0x352e5028	6.4936694e-07
5	0x357e8882	9.482102e-07
6	0x355061d3	7.762839e-07
7	0x32c46541	2.2863448e-08
8	0x00000000	0.0
9	0x35efd735	1.7869521e-06
10	0x00000000	0.0
11	0x369fe588	4.76529e-06
12	0x34de2d64	4.1383748e-07
13	0x00000000	0.0
14	0x00000000	0.0
15	0x34f6ffdb	4.600723e-07
16	0x00000000	0.0
17	0x31fa4655	7.2839534e-09
18	0x00000000	0.0
19	0x349a9e45	2.8799892e-07
20	0x00000000	0.0
21	0x353e9f57	7.1012386e-07
22	0x00000000	0.0
23	0x36c8fc8e	5.9898657e-06
24	0x33a4c131	7.6719864e-08
25	0x34cc71a6	3.808065e-07
26	0x36d42722	6.322648e-06
27	0x359e1b46	1.1779855e-06
28	0x35a5fb7f	1.2366653e-06
29	0x3679199a	3.7118793e-06
30	0x34ea58e3	4.365057e-07
31	0x366aacc8	3.496929e-06
32	0x33208157	3.7370537e-08
33	0x355001a5	7.748843e-07
34	0x369d0f3f	4.6807395e-06
35	0x00000000	0.0
36	0x33b7c4db	8.5574094e-08
37	0x350fd4a3	5.358108e-07
38	0x00000000	0.0
39	0x36a2aff3	4.8484594e-06
40	0x35988994	1.1364923e-06
41	0x361499dd	2.2143279e-06
42	0x33f6eab3	1.1497959e-07
43	0x00000000	0.0
44	0x3684229f	3.937937e-06
45	0x351876a7	5.6797074e-07
46	0x3340ae41	4.4861967e-08
47	0x37c4904b	2.3432212e-05
48	0x3549a918	7.51244e-07
49	0x00000000	0.0
50	0x00000000	0.0
51	0x00000000	0.0
52	0x35bcb242	1.4058971e-06
53	0x3560e38e	8.377764e-07
54	0x35828c7e	9.726643e-07
55	0x3371638e	5.620273e-08
56	0x34000194	1.1921503e-07
57	0x00000000	0.0
58	0x349d8318	2.9338912e-07
59	0x34caad56	3.775155e-07
60	0x00000000	0.0
61	0x36474a2a	2.969648e-06
62	0x36b2bec7	5.327023e-06
63	0x376ec71d	1.4232265e-05

exp_avg f4 [128, 64]
0	0x383026fb	4.1997973e-05
1	0x32976e85	1.7628972e-08
2	0x384887b7	4.781011e-05
3	0x382de70d	4.1461597e-05
4	0x37a77c51	1.996584e-05
5	0x34e95c0d	4.3466608e-07
6	0x37ddb169	2.6427866e-05
7	0x36d540c9	6.3554367e-06
8	0x00000000	0.0
9	0x37c678d6	2.3659708e-05
10	0x00000000	0.0
11	0xb61a67e1	-2.3008254e-06
12	0xb2b00970	-2.0493388e-08
13	0x00000000	0.0
14	0x00000000	0.0
15	0x3868fad4	5.5546712e-05
16	0x00000000	0.0
17	0x33e594ac	1.0690687e-07
18	0x00000000	0.0
19	0x389ea1e9	7.564185e-05
20	0x00000000	0.0
21	0x36b35665	5.3446734e-06
22	0x00000000	0.0
23	0x37f724e3	2.9461871e-05
24	0x368a4bc6	4.1215417e-06
25	0x320aa171	8.069365e-09
26	0x3548bd05	7.4780866e-07
27	0x38098ee8	3.2796437e-05
28	0x3388c1cf	6.368247e-08
29	0x3831f457	4.2427648e-05
30	0x383c677e	4.4919077e-05
31	0x3887c950	6.474799e-05
32	0x36c051a9	5.7315524e-06
33	0x324f52da	1.2067824e-08
34	0x382e7d1d	4.1601354e-05
35	0x00000000	0.0
36	0x37f8e59f	2.967083e-05
37	0x3774aca7	1.4583732e-05
38	0x00000000	0.0
39	0x36176f43	2.2565516e-06
40	0x385683f8	5.114448e-05
41	0x353459f8	6.7186147e-07
42	0x3807daf0	3.239041e-05
43	0x00000000	0.0
44	0x38021cb9	3.1021165e-05
45	0x382aa44c	4.0684172e-05
46	0x35fede83	1.8989234e-06
47	0x37b3a56e	2.1415497e-05
48	0x37bda519	2.2607435e-05
49	0x00000000	0.0
50	0x00000000	0.0
51	0x00000000	0.0
52	0x36e2af58	6.7557376e-06
53	0x381d96c9	3.7572147e-05
54	0x37edc0d9	2.8342403e-05
55	0x36922377	4.3552677e-06
56	0xb449c570	-1.8791411e-07
57	0x00000000	0.0
58	0x387a4db4	5.967701e-05
59	0x36f962d8	7.432285e-06
60	0x00000000	0.0
61	0x3762f0bf	1.3526703e-05
62	0xb584c713	-9.892705e-07
63	0x37488cd1	1.1953715e-05
64	0x00000000	0.0
65	0x00000000	0.0
66	0x00000000	0.0
67	0x00000000	0.0
68	0x00000000	0.0
69	0x00000000	0.0
70	0x00000000	0.0
71	0x00000000	0.0
72	0x00000000	0.0
73	0x00000000	0.0
74	0x00000000	0.0
75	0x00000000	0.0
76	0x00000000	0.0
77	0x00000000	0.0
78	0x00000000	0.0
79	0x00000000	0.0
80	0x00000000	0.0
81	0x00000000	0.0
82	0x00000000	0.0
83	0x00000000	0.0
84	0x00000000	0.0
85	0x00000000	0.0
86	0x00000000	0.0
87	0x00000000	0.0
88	0x00000000	0.0
89	0x00000000	0.0
90	0x00000000	0.0
91	0x00000000	0.0
92	0x00000000	0.0
93	0x00000000	0.0
94	0x00000000	0.0
95	0x00000000	0.0
96	0x00000000	0.0
97	0x00000000	0.0
98	0x00000000	0.0
99	0x00000000	0.0
100	0x00000000	0.0
101	0x00000000	0.0
102	0x00000000	0.0
103	0x00000000	0.0
104	0x00000000	0.0
105	0x00000000	0.0
106	0x00000000	0.0
107	0x00000000	0.0
108	0x00000000	0.0
109	0x00000000	0.0
110	0x00000000	0.0
111	0x00000000	0.0
112	0x00000000	0.0
113	0x00000000	0.0
114	0x00000000	0.0
115	0x00000000	0.0
116	0x00000000	0.0
117	0x00000000	0.0
118	0x00000000	0.0
119	0x00000000	0.0
120	0x00000000	0.0
121	0x00000000	0.0
122	0x00000000	0.0
123	0x00000000	0.0
124	0x00000000	0.0
125	0x00000000	0.0
126	0x00000000	0.0
127	0x00000000	0.0
128	0x370786b4	8.07799e-06
129	0xb3092fd6	-3.1941305e-08
130	0x374a28b6	1.2049617e-05
131	0x3708828b	8.136626e-06
132	0x36619a77	3.3617523e-06
133	0x3547f762	7.4493266e-07
134	0x3661df0c	3.3657443e-06
135	0x3703d9a0	7.858878e-06
136	0x00000000	0.0
137	0x3790ff70	1.7285085e-05
138	0x00000000	0.0
139	0x34963e2a	2.7984908e-07
140	0xb1ba4f5b	-5.422334e-09
141	0x00000000	0.0
142	0x00000000	0.0
143	0x37a33036	1.9453564e-05
144	0x00000000	0.0
145	0x3459b150	2.0274206e-07
146	0x00000000	0.0
147	0x37be9b46	2.272207e-05
148	0x00000000	0.0
149	0x36d724b6	6.411773e-06
150	0x00000000	0.0
151	0x37abd2b1	2.04829e-05
152	0x36024af9	1.941515e-06
153	0x32e4a14b	2.6616041e-08
154	0x35993a8a	1.1416425e-06
155	0x373722c2	1.0915743e-05
156	0xb197d658	-4.4190465e-09
157	0x37a2f9d5	1.9428242e-05
158	0x3738c900	1.1014054e-05
159	0x3802620b	3.1085725e-05
160	0x36d588b1	6.3638076e-06
161	0xb30a81c0	-3.2248636e-08
162	0x37acf5d7	2.0618476e-05
163	0x00000000	0.0
164	0x3742b234	1.1604792e-05
165	0x372053ad	9.556225e-06
166	0x00000000	0.0
167	0x3632b94d	2.6631926e-06
168	0x37a7dfdc	2.0012194e-05
169	0x3548daf1	7.482441e-07
170	0x36a8e7e7	5.033787e-06
171	0x00000000	0.0
172	0xb591bbda	-1.0858014e-06
173	0x36c4b116	5.8618707e-06
174	0x3633a51d	2.6769187e-06
175	0x37cad9be	2.418167e-05
176	0x376cf76e	1.4124305e-05
177	0x00000000	0.0
178	0x00000000	0.0
179	0x00000000	0.0
180	0x37049953	7.903512e-06
181	0x3735fb41	1.084694e-05
182	0xb58e1dfb	-1.058855e-06
183	0x3687502e	4.0326477e-06
184	0xb263c390	-1.3257605e-08
185	0x00000000	0.0
186	0x377c48d9	1.5037332e-05
187	0xb555f004	-7.969795e-07
188	0x00000000	0.0
189	0x347574d4	2.2859905e-07
190	0x3537745a	6.8342126e-07
191	0x376c3f90	1.40814955e-05
192	0x37a6f32a	1.9901974e-05
193	0x32899381	1.6015976e-08
194	0x37bdcd07	2.2626029e-05
195	0x37a2db8c	1.941414e-05
196	0x371e81a7	9.447721e-06
197	0x343f1e19	1.779921e-07
198	0x374f818a	1.2368322e-05
199	0x366043e3	3.3418116e-06
200	0x00000000	0.0
201	0x3746133e	1.18062e-05
202	0x00000000	0.0
203	0xb580a027	-9.583354e-07
204	0xb2559ab4	-1.2433407e-08
205	0x00000000	0.0
206	0x00000000	0.0
207	0x37de4238	2.6495298e-05
208	0x00000000	0.0
209	0x33317785	4.1319726e-08
210	0x00000000	0.0
211	0x3817bd9b	3.617779e-05
212	0x00000000	0.0
213	0x363c6dd2	2.8078107e-06
214	0x00000000	0.0
215	0x3777b35f	1.476411e-05
216	0x3608d3b7	2.0388813e-06
217	0xb03ce2f0	-6.87165e-10
218	0x34ae83f5	3.2506037e-07
219	0x37845409	1.5774758e-05
220	0x3345ba0c	4.6036845e-08
221	0x37ac3983	2.0530779e-05
222	0x37b2fcc5	2.1336959e-05
223	0x3803c1d5	3.1413354e-05
224	0x364f3df1	3.0881458e-06
225	0x32584c8a	1.2590258e-08
226	0x37ab016b	2.0385449e-05
227	0x00000000	0.0
228	0x3770e2f7	1.4357959e-05
229	0x36f3107a	7.2438825e-06
230	0x00000000	0.0
231	0x35a0d68d	1.1983371e-06
232	0x37ce4c42	2.4592624e-05
233	0x34b36eda	3.3422003e-07
234	0x377b6463	1.4984139e-05
235	0x00000000	0.0
236	0x376dc091	1.4171136e-05
237	0x379e19c7	1.8847071e-05
238	0x3583e8ec	9.82805e-07
239	0x373fd435	1.1433895e-05
240	0x373df060	1.13212445e-05
241	0x00000000	0.0
242	0x00000000	0.0
243	0x00000000	0.0
244	0x366f96b4	3.5701496e-06
245	0x379616cd	1.789201e-05
246	0x37535f03	1.2598702e-05
247	0x3619752f	2.2866986e-06
248	0xb3d22dd9	-9.787227e-08
249	0x00000000	0.0
250	0x37eda401	2.8328972e-05
251	0x3661b917	3.363535e-06
252	0x00000000	0.0
253	0x36cd98cb	6.1272635e-06
254	0xb3c696fb	-9.247557e-08
255	0x36d39b13	6.306343e-06

exp_avg_sq f4 [128, 64]
0	0x34c901d3	3.7440495e-07
1	0x32189db9	8.883426e-09
2	0x347ac1f9	2.3353631e-07
3	0x32d39e04	2.463549e-08
4	0x327e005f	1.478483e-08
5	0x316a6212	3.4107228e-09
6	0x32c6d406	2.314665e-08
7	0x30232e16	5.9364547e-10
8	0x00000000	0.0
9	0x3230427c	1.0259665e-08
10	0x00000000	0.0
11	0x322c40cd	1.0026452e-08
12	0x31e9b98b	6.8022863e-09
13	0x00000000	0.0
14	0x00000000	0.0
15	0x3332f36b	4.1665242e-08
16	0x00000000	0.0
17	0x2b4625d6	7.039624e-13
18	0x00000000	0.0
19	0x34d4a515	3.960819e-07
20	0x00000000	0.0
21	0x307285df	8.822933e-10
22	0x00000000	0.0
23	0x33dbeda1	1.02412066e-07
24	0x3374c3a6	5.698862e-08
25	0x30d1ba63	1.5259726e-09
26	0x33a7fdac	7.822686e-08
27	0x347bfdb1	2.3468489e-07
28	0x339de6fc	7.352898e-08
29	0x3363df0f	5.3055427e-08
30	0x3403fab6	1.2291534e-07
31	0x33a79d2b	7.805132e-08
32	0x30052d73	4.8449705e-10
33	0x32b4feae	2.1070573e-08
34	0x3402793b	1.2151297e-07
35	0x00000000	0.0
36	0x33e3f59f	1.06151894e-07
37	0x31167753	2.18957e-09
38	0x00000000	0.0
39	0x30ac9a3c	1.2558483e-09
40	0x33d99493	1.01318754e-07
41	0x32f60ed4	2.8644912e-08
42	0x32184260	8.862656e-09
43	0x00000000	0.0
44	0x34938049	2.7474223e-07
45	0x32ac07eb	2.0027036e-08
46	0x2e3c24b7	4.277886e-11
47	0x3359d377	5.0716576e-08
48	0x322e5ac1	1.0148768e-08
49	0x00000000	0.0
50	0x00000000	0.0
51	0x00000000	0.0
52	0x31a00013	4.6566213e-09
53	0x33664dd7	5.3621843e-08
54	0x3209727b	8.000479e-09
55	0x328d74b6	1.6467634e-08
56	0x33151a88	3.4715896e-08
57	0x00000000	0.0
58	0x34204f22	1.492995e-07
59	0x307e71e9	9.256654e-10
60	0x00000000	0.0
61	0x312bdd1a	2.5009457e-09
62	0x340660b6	1.2514906e-07
63	0x32983333	1.7718412e-08
64	0x00000000	0.0
65	0x00000000	0.0
66	0x00000000	0.0
67	0x00000000	0.0
68	0x00000000	0.0
69	0x00000000	0.0
70	0x00000000	0.0
71	0x00000000	0.0
72	0x00000000	0.0
73	0x00000000	0.0
74	0x00000000	0.0
75	0x00000000	0.0
76	0x00000000	0.0
77	0x00000000	0.0
78	0x00000000	0.0
79	0x00000000	0.0
80	0x00000000	0.0
81	0x00000000	0.0
82	0x00000000	0.0
83	0x00000000	0.0
84	0x00000000	0.0
85	0x00000000	0.0
86	0x00000000	0.0
87	0x00000000	0.0
88	0x00000000	0.0
89	0x00000000	0.0
90	0x00000000	0.0
91	0x00000000	0.0
92	0x00000000	0.0
93	0x00000000	0.0
94	0x00000000	0.0
95	0x00000000	0.0
96	0x00000000	0.0
97	0x00000000	0.0
98	0x00000000	0.0
99	0x00000000	0.0
100	0x00000000	0.0
101	0x00000000	0.0
102	0x00000000	0.0
103	0x00000000	0.0
104	0x00000000	0.0
105	0x00000000	0.0
106	0x00000000	0.0
107	0x00000000	0.0
108	0x00000000	0.0
109	0x00000000	0.0
110	0x00000000	0.0
111	0x00000000	0.0
112	0x00000000	0.0
113	0x00000000	0.0
114	0x00000000	0.0
115	0x00000000	0.0
116	0x00000000	0.0
117	0x00000000	0.0
118	0x00000000	0.0
119	0x00000000	0.0
120	0x00000000	0.0
121	0x00000000	0.0
122	0x00000000	0.0
123	0x00000000	0.0
124	0x00000000	0.0
125	0x00000000	0.0
126	0x00000000	0.0
127	0x00000000	0.0
128	0x325cfe8d	1.28635635e-08
129	0x30686851	8.454935e-10
130	0x32214e29	9.389205e-09
131	0x3016674b	5.471647e-10
132	0x2f7776d7	2.250674e-10
133	0x2f7b9c57	2.288386e-10
134	0x2fd1d4ab	3.8167988e-10
135	0x2f307978	1.6050261e-10
136	0x00000000	0.0
137	0x30e988db	1.6991878e-09
138	0x00000000	0.0
139	0x2f82a032	2.3760688e-10
140	0x30635189	8.269799e-10
141	0x00000000	0.0
142	0x00000000	0.0
143	0x311a28c5	2.2433124e-09
144	0x00000000	0.0
145	0x2a9512fa	2.6480885e-13
146	0x00000000	0.0
147	0x32673f7f	1.3460407e-08
148	0x00000000	0.0
149	0x2f487ddb	1.8234607e-10
150	0x00000000	0.0
151	0x3206bb07	7.842352e-09
152	0x3168d1f4	3.3879788e-09
153	0x2f588666	1.9692833e-10
154	0x31908081	4.205561e-09
155	0x32319f4a	1.0338974e-08
156	0x319ac282	4.504103e-09
157	0x318766b1	3.9406918e-09
158	0x31696ab8	3.3966625e-09
159	0x31ea2da8	6.815487e-09
160	0x2f1731bf	1.3751043e-10
161	0x30d815d1	1.5722269e-09
162	0x31e4507e	6.6448242e-09
163	0x00000000	0.0
164	0x31a5f4a9	4.8299467e-09
165	0x2fb82837	3.349798e-10
166	0x00000000	0.0
167	0x2f526d83	1.9138295e-10
168	0x31bc1ebc	5.475014e-09
169	0x31203595	2.3313522e-09
170	0x2f672e1d	2.102571e-10
171	0x00000000	0.0
172	0x3224845d	9.576152e-09
173	0x2fd9ad2d	3.959512e-10
174	0x2d98921a	1.7345281e-11
175	0x31b2b6f7	5.2012825e-09
176	0x304bfce0	7.4210327e-10
177	0x00000000	0.0
178	0x00000000	0.0
179	0x00000000	0.0
180	0x30404e6b	6.996063e-10
181	0x30e621a4	1.6744264e-09
182	0x2ee92002	1.0601299e-10
183	0x30c1ca54	1.4100103e-09
184	0x310888d0	1.9868374e-09
185	0x00000000	0.0
186	0x3187082a	3.9299453e-09
187	0x2d775451	1.40590465e-11
188	0x00000000	0.0
189	0x2e1d855a	3.5816107e-11
190	0x318d8f0a	4.1199018e-09
191	0x3121fcb0	2.357222e-09
192	0x3403b732	1.2266972e-07
193	0x31642a2b	3.3202336e-09
194	0x33a44df3	7.651024e-08
195	0x31b5d707	5.292239e-09
196	0x316aa095	3.4142762e-09
197	0x30a7e205	1.2215088e-09
198	0x31bf7474	5.572071e-09
199	0x2f8e879e	2.592601e-10
200	0x00000000	0.0
201	0x318a63c6	4.0276715e-09
202	0x00000000	0.0
203	0x3167f4c2	3.3754053e-09
204	0x3135ba08	2.6444713e-09
205	0x00000000	0.0
206	0x00000000	0.0
207	0x323f3d12	1.1131549e-08
208	0x00000000	0.0
209	0x2aa9698d	3.009367e-13
210	0x00000000	0.0
211	0x3403e3a4	1.2283141e-07
212	0x00000000	0.0
213	0x2fcb2dea	3.695811e-10
214	0x00000000	0.0
215	0x331eccc4	3.6973475e-08
216	0x32b1ac98	2.0683999e-08
217	0x301fdd6c	5.815852e-10
218	0x32ef31a8	2.7845843e-08
219	0x33ab1661	7.966879e-08
220	0x32e4994e	2.6612408e-08
221	0x3297cddf	1.7672333e-08
222	0x331cd5af	3.6515925e-08
223	0x32d9d6bd	2.5359777e-08
224	0x2f64d5d0	2.081244e-10
225	0x3204bac1	7.725874e-09
226	0x332e08e0	4.0520604e-08
227	0x00000000	0.0
228	0x33183c2f	3.5444994e-08
229	0x3057f327	7.8562085e-10
230	0x00000000	0.0
231	0x3006db3b	4.906046e-10
232	0x330b845b	3.2483836e-08
233	0x3239824a	1.0798042e-08
234	0x30f43c09	1.77704e-09
235	0x00000000	0.0
236	0x33c3e5d1	9.1221985e-08
237	0x318c9222	4.0911496e-09
238	0x2da06b5f	1.8237576e-11
239	0x32a196ec	1.8811498e-08
240	0x314c67fe	2.974502e-09
241	0x00000000	0.0
242	0x00000000	0.0
243	0x00000000	0.0
244	0x30fdb669	1.8460017e-09
245	0x3284bbb8	1.5452187e-08
246	0x30c535fe	1.4348982e-09
247	0x31d726e8	6.2617467e-09
248	0x325964eb	1.26540085e-08
249	0x00000000	0.0
250	0x33359657	4.227908e-08
251	0x2f334f38	1.63081e-10
252	0x00000000	0.0
253	0x300a083e	5.021582e-10
254	0x33376826	4.270273e-08
255	0x31ee2ba7	6.9316743e-09

exp_avg f4 [128]
0	0x38c337f2	9.308745e-05
1	0x00000000	0.0
2	0x3821ff38	3.8623082e-05
3	0x383ce75b	4.503816e-05
4	0x00000000	0.0
5	0x373ed4b6	1.1374408e-05
6	0x388cb900	6.710179e-05
7	0x3880a709	6.134628e-05
8	0x00000000	0.0
9	0x383fbee7	4.571574e-05
10	0x377f196f	1.5205106e-05
11	0x38722d41	5.7739442e-05
12	0x3733ad2d	1.0709552e-05
13	0x00000000	0.0
14	0x37b1390b	2.1126607e-05
15	0x3849371c	4.797346e-05
16	0x00000000	0.0
17	0x38abd8c2	8.19429e-05
18	0x00000000	0.0
19	0x00000000	0.0
20	0x00000000	0.0
21	0x383ab5d2	4.451519e-05
22	0x37d58eaf	2.545802e-05
23	0x38652ac2	5.4637676e-05
24	0xb90a7435	-0.00013203996
25	0x3749be2d	1.2024812e-05
26	0x00000000	0.0
27	0x390bab0f	0.00013319797
28	0xb87d1096	-6.0335347e-05
29	0x388e7548	6.792933e-05
30	0x00000000	0.0
31	0x3726efe7	9.950228e-06
32	0x00000000	0.0
33	0x386f637f	5.7074703e-05
34	0xb7efb8d2	-2.8577084e-05
35	0x3804f838	3.1702424e-05
36	0x36d8bde2	6.459407e-06
37	0x38a8c478	8.0474594e-05
38	0x00000000	0.0
39	0x383f3794	4.558971e-05
40	0x00000000	0.0
41	0xb8f62420	-0.00011736923
42	0xb8d8ce76	-0.00010338139
43	0xb7a7452e	-1.9940166e-05
44	0x387e2c51	6.0599592e-05
45	0x390f29fd	0.00013653185
46	0x00000000	0.0
47	0x38791a6b	5.939083e-05
48	0x378ed0d0	1.7024955e-05
49	0x380d8c89	3.3747903e-05
50	0x3876a7a3	5.8807094e-05
51	0x38ed3158	0.00011310232
52	0x00000000	0.0
53	0x3828b4ca	4.0222694e-05
54	0x38451494	4.6987625e-05
55	0x00000000	0.0
56	0x00000004	6e-45
57	0x38e82693	0.00011069807
58	0x3844364e	4.6780617e-05
59	0xb826bcf4	-3.975346e-05
60	0x387d41e4	6.0381266e-05
61	0x38c18ad6	9.228817e-05
62	0x3847d5c6	4.764439e-05
63	0x3908d8e3	0.00013050767
64	0x389b8de5	7.417406e-05
65	0x3844037e	4.6733294e-05
66	0x3751c727	1.25037395e-05
67	0xb895b57e	-7.138679e-05
68	0x340ecb37	1.329871e-07
69	0x38501816	4.9613496e-05
70	0x388d099c	6.725194e-05
71	0xb6f94302	-7.428579e-06
72	0x3862065d	5.3888525e-05
73	0x386b1d1b	5.6055473e-05
74	0x38aebef2	8.332533e-05
75	0x00000000	0.0
76	0xb85702cc	-5.12626e-05
77	0x38958b77	7.130851e-05
78	0x3880580e	6.119917e-05
79	0x3868f57d	5.554174e-05
80	0xb75ad35b	-1.3043023e-05
81	0x38f3cd73	0.00011625411
82	0x3880fd90	6.150745e-05
83	0x38258600	3.9463863e-05
84	0xb86b963d	-5.6168286e-05
85	0x38ae960f	8.324917e-05
86	0x38e2748c	0.00010798228
87	0x00000000	0.0
88	0x387fdceb	6.1002484e-05
89	0x00000004	6e-45
90	0x00000000	0.0
91	0x00000000	0.0
92	0x38cf09f4	9.872383e-05
93	0x38c0d105	9.194206e-05
94	0x3863426a	5.418287e-05
95	0x00000000	0.0
96	0x389b2ee8	7.399713e-05
97	0xb8999413	-7.3231895e-05
98	0x00000000	0.0
99	0xb8a50caf	-7.8701756e-05
100	0x00000000	0.0
101	0xb893aaff	-7.041357e-05
102	0x389cfa87	7.485324e-05
103	0x388aa6b6	6.611405e-05
104	0x379c21a3	1.8612312e-05
105	0x00000004	6e-45
106	0x380e252e	3.3890065e-05
107	0x38747049	5.8278707e-05
108	0xb89b7dd4	-7.414413e-05
109	0x385f57cd	5.3249114e-05
110	0xb6d13952	-6.2353583e-06
111	0x38bc2e06	8.973111e-05
112	0x37b8f383	2.2047903e-05
113	0x00000000	0.0
114	0x38912790	6.921508e-05
115	0x38968a98	7.1783725e-05
116	0x37ceaf71	2.463881e-05
117	0xb879daa3	-5.9569848e-05
118	0x37bf420b	2.2799728e-05
119	0x00000000	0.0
120	0x38a3cee0	7.810979e-05
121	0x390a9a6b	0.00013218231
122	0x38ef8c3f	0.00011422531
123	0x378a9388	1.6519582e-05
124	0xb8b0dc0f	-8.433323e-05
125	0x38658435	5.4720982e-05
126	0xb88b7bc5	-6.6510904e-05
127	0x00000000	0.0

exp_avg_sq f4 [128]
0	0x357d58eb	9.437924e-07
1	0x00000000	0.0
2	0x3350ef63	4.8646495e-08
3	0x34ac386f	3.2078557e-07
4	0x00000000	0.0
5	0x33f53db6	1.1419927e-07
6	0x35153bdd	5.559394e-07
7	0x34101dee	1.3421933e-07
8	0x00000000	0.0
9	0x34898c69	2.56204e-07
10	0x340bfdd7	1.303773e-07
11	0x3453d358	1.9727793e-07
12	0x32d1b934	2.4415023e-08
13	0x00000000	0.0
14	0x330b87d0	3.248698e-08
15	0x3505f839	4.990757e-07
16	0x00000000	0.0
17	0x3568fd21	8.6795086e-07
18	0x00000000	0.0
19	0x00000000	0.0
20	0x00000000	0.0
21	0x349a0c99	2.86939e-07
22	0x34ae171e	3.2426846e-07
23	0x34dc2f25	4.1012495e-07
24	0x35993604	1.1415109e-06
25	0x330977c7	3.2006735e-08
26	0x00000000	0.0
27	0x35ab8786	1.2779935e-06
28	0x358b8378	1.039457e-06
29	0x34c2d7f0	3.629243e-07
30	0x00000000	0.0
31	0x3130e4c6	2.5741413e-09
32	0x00000000	0.0
33	0x3516188f	5.591509e-07
34	0x34b2a407	3.327443e-07
35	0x337b1fbd	5.8469357e-08
36	0x33836c43	6.1198556e-08
37	0x35123a81	5.447437e-07
38	0x00000000	0.0
39	0x33bb2430	8.7144485e-08
40	0x00000000	0.0
41	0x355ac4d3	8.1497745e-07
42	0x331c5ec7	3.640778e-08
43	0x340adaa9	1.29318e-07
44	0x347b6d4e	2.3415961e-07
45	0x35de0741	1.65424e-06
46	0x00000000	0.0
47	0x353c5f56	7.017419e-07
48	0x32e164f9	2.6239364e-08
49	0x343ee031	1.7776689e-07
50	0x342dacb0	1.6174704e-07
51	0x359b85c8	1.1587335e-06
52	0x00000000	0.0
53	0x3438ec25	1.7222244e-07
54	0x34128ffc	1.3649691e-07
55	0x00000000	0.0
56	0x1f46c404	4.209027e-20
57	0x35bac207	1.3914549e-06
58	0x340e228b	1.3237347e-07
59	0x3430dcb5	1.647157e-07
60	0x350ca744	5.239747e-07
61	0x35402534	7.157971e-07
62	0x34816a85	2.4105626e-07
63	0x3638808a	2.7492956e-06
64	0x3508f7bd	5.1024455e-07
65	0x33c58cb9	9.199125e-08
66	0x33a69125	7.756379e-08
67	0x335214e9	4.8913453e-08
68	0x302b7938	6.23817e-10
69	0x34aebbf8	3.254679e-07
70	0x3558ed07	8.081119e-07
71	0x330f2a40	3.3333208e-08
72	0x34c8749e	3.7337753e-07
73	0x34b21bb2	3.3175235e-07
74	0x3553823b	7.8793136e-07
75	0x00000000	0.0
76	0x35b2c97b	1.3320672e-06
77	0x3543cade	7.293837e-07
78	0x348426c8	2.4615133e-07
79	0x3421ab59	1.505663e-07
80	0x35ea1cde	1.744276e-06
81	0x3594d715	1.1089456e-06
82	0x344ec10d	1.9255477e-07
83	0x33f70185	1.150211e-07
84	0x3596d959	1.1239127e-06
85	0x34e985b4	4.3496914e-07
86	0x35ef6ef6	1.7839182e-06
87	0x00000000	0.0
88	0x3462f972	2.1138638e-07
89	0x1da9cdcf	4.494673e-21
90	0x00000000	0.0
91	0x00000000	0.0
92	0x358e61a1	1.0608238e-06
93	0x35a57cce	1.2329781e-06
94	0x33e76722	1.07755355e-07
95	0x00000000	0.0
96	0x34a5f536	3.091206e-07
97	0x3588eebb	1.0202269e-06
98	0x00000000	0.0
99	0x3597149c	1.1256375e-06
100	0x00000000	0.0
101	0x3590e22e	1.0794663e-06
102	0x34dd11c7	4.1177393e-07
103	0x35354585	6.752892e-07
104	0x33063740	3.1249556e-08
105	0x182c0a9d	2.2235837e-24
106	0x33eb6270	1.0960946e-07
107	0x34bf888f	3.5675882e-07
108	0x359acc4e	1.1533355e-06
109	0x3449c658	1.8791741e-07
110	0x341f3a90	1.4829334e-07
111	0x354c3470	7.607223e-07
112	0x325ae5c4	1.2741513e-08
113	0x00000000	0.0
114	0x3498062d	2.83167e-07
115	0x34e751c3	4.3086592e-07
116	0x331d3588	3.6603097e-08
117	0x357f958e	9.5212533e-07
118	0x323c4434	1.0958548e-08
119	0x00000000	0.0
120	0x353d1c1a	7.044888e-07
121	0x35a893c8	1.2559985e-06
122	0x35ae246f	1.2974614e-06
123	0x3373e803	5.678886e-08
124	0x35bf9477	1.4273818e-06
125	0x348ca61b	2.619789e-07
126	0x35b8ce1e	1.3769056e-06
127	0x00000000	0.0

exp_avg f4 [128, 128]
0	0x36ab6071	5.1074244e-06
1	0x00000000	0.0
2	0xb44ccafe	-1.9072829e-07
3	0x3690d953	4.3168343e-06
4	0x00000000	0.0
5	0x36e46611	6.8068116e-06
6	0x36869d99	4.011858e-06
7	0x3677255e	3.6827619e-06
8	0x00000000	0.0
9	0x36dcd06c	6.5807744e-06
10	0x36aef015	5.2135533e-06
11	0x365711ac	3.2047783e-06
12	0x35ba5037	1.3881426e-06
13	0x00000000	0.0
14	0x35bb58c7	1.3958423e-06
15	0x36f4ecc9	7.299332e-06
16	0x00000000	0.0
17	0x36c1166c	5.7544585e-06
18	0x00000000	0.0
19	0x00000000	0.0
20	0x00000000	0.0
21	0x36946096	4.421988e-06
22	0x36f1ebed	7.209825e-06
23	0x36d60949	6.378778e-06
24	0x37000bcd	7.632142e-06
25	0x368c06cf	4.1731178e-06
26	0x00000000	0.0
27	0x36ad2640	5.1602547e-06
28	0xb5a6532e	-1.2392172e-06
29	0x369bf2d7	4.6476302e-06
30	0x00000000	0.0
31	0x35764cd9	9.175397e-07
32	0x00000000	0.0
33	0x36bc2d4a	5.608109e-06
34	0xb5329e1c	-6.6540247e-07
35	0xb4d2cce1	-3.9264617e-07
36	0x3515ac97	5.5757977e-07
37	0x35ec9a36	1.7628251e-06
38	0x00000000	0.0
39	0x36c1c072	5.774252e-06
40	0x00000000	0.0
41	0x355c4ac3	8.206518e-07
42	0x35b31286	1.334193e-06
43	0xb583df27	-9.825206e-07
44	0x3681d012	3.868722e-06
45	0x36a86cd3	5.019459e-06
46	0x00000000	0.0
47	0x36ead328	6.9983253e-06
48	0xb3f0d1eb	-1.1214055e-07
49	0x366398f8	3.3914675e-06
50	0x35e229dc	1.6850495e-06
51	0x368b6598	4.15435e-06
52	0x00000000	0.0
53	0x36265cba	2.4789902e-06
54	0x36216828	2.4051496e-06
55	0x00000000	0.0
56	0x00000004	6e-45
57	0x36a53830	4.9239243e-06
58	0x35c2d2a1	1.4515427e-06
59	0xb45f5712	-2.080017e-07
60	0x36fb570b	7.490516e-06
61	0x36a8b0f6	5.027391e-06
62	0x372ff69f	1.0488234e-05
63	0x36d066bd	6.2108434e-06
64	0x36bd37eb	5.6391486e-06
65	0x36352657	2.6993418e-06
66	0x371d08e6	9.360001e-06
67	0x358d7ddf	1.0541952e-06
68	0x3459b2d9	2.0274764e-07
69	0x364ca288	3.0492974e-06
70	0x36e6f8ac	6.8834834e-06
71	0xb58f47b5	-1.06752e-06
72	0x371266be	8.7262e-06
73	0x363d329e	2.8192658e-06
74	0x371890d8	9.09363e-06
75	0x00000000	0.0
76	0xb5eb0f0c	-1.7513244e-06
77	0x36615b62	3.3580804e-06
78	0x36982fd0	4.535519e-06
79	0x36248797	2.4516828e-06
80	0x3398d40b	7.116622e-08
81	0x36be898f	5.678455e-06
82	0x35993e3c	1.1417501e-06
83	0x3671ab75	3.60116e-06
84	0xb5b1e19e	-1.3253191e-06
85	0x367bf28c	3.7543095e-06
86	0x36d478d6	6.3321595e-06
87	0x00000000	0.0
88	0x36685bd1	3.4624138e-06
89	0x00000004	6e-45
90	0x00000000	0.0
91	0x00000000	0.0
92	0x367b1013	3.741127e-06
93	0x36f14029	7.189829e-06
94	0x36ac1ca2	5.1293327e-06
95	0x00000000	0.0
96	0x368a7954	4.126845e-06
97	0xb5104d7b	-5.375693e-07
98	0x00000000	0.0
99	0xb5576f38	-8.0255586e-07
100	0x00000000	0.0
101	0xb55ed7cd	-8.3015476e-07
102	0x366590b2	3.4207883e-06
103	0x36c1e2f4	5.778269e-06
104	0x3188375e	3.9644155e-09
105	0x00000004	6e-45
106	0x364a8c29	3.018193e-06
107	0x36a20597	4.828627e-06
108	0xb435e2b4	-1.6939413e-07
109	0x35146bbd	5.5291076e-07
110	0xb59b5556	-1.1573236e-06
111	0x371ccd51	9.3461285e-06
112	0x361a1336	2.295897e-06
113	0x00000000	0.0
114	0x36f212fd	7.2143725e-06
115	0x36bdabd4	5.6526424e-06
116	0x366be3c1	3.51503e-06
117	0xb5af6049	-1.3066539e-06
118	0x34c53362	3.6731495e-07
119	0x00000000	0.0
120	0x36bf8769	5.7080074e-06
121	0x366bc333	3.513135e-06
122	0x36ca25c0	6.024464e-06
123	0x369ab6f5	4.6108566e-06
124	0xb56b9640	-8.7762965e-07
125	0x36675fec	3.4477516e-06
126	0xb5e52fe8	-1.7075772e-06
127	0x00000000	0.0
128	0x372a0e77	1.01361575e-05
129	0x00000000	0.0
130	0x36031b0a	1.953626e-06
131	0x3776decd	1.47146175e-05
132	0x00000000	0.0
133	0x37a5d3e1	1.9768197e-05
134	0x3707f191	8.102871e-06
135	0x3731c0e2	1.0594931e-05
136	0x00000000	0.0
137	0x379b574b	1.8518089e-05
138	0x37a1928e	1.926094e-05
139	0x3719710b	9.1458305e-06
140	0x37276a21	9.978686e-06
141	0x00000000	0.0
142	0x36c95eb7	6.001293e-06
143	0x378df4b5	1.692246e-05
144	0x00000000	0.0
145	0x3786577e	1.6014787e-05
146	0x00000000	0.0
147	0x00000000	0.0
148	0x00000000	0.0
149	0x37605d22	1.3373125e-05
150	0x37af8be5	2.092677e-05
151	0x379bacae	1.855785e-05
152	0x3777fe9a	1.4781626e-05
153	0x372ae12e	1.0185218e-05
154	0x00000000	0.0
155	0x3729adab	1.011362e-05
156	0x371cb6d5	9.3408935e-06
157	0x372bdbfe	1.0243615e-05
158	0x00000000	0.0
159	0x36222c77	2.4165763e-06
160	0x00000000	0.0
161	0x374322b5	1.1630987e-05
162	0x3666615c	3.4329341e-06
163	0x35a3e40e	1.2210819e-06
164	0x352fc785	6.548292e-07
165	0x3690756c	4.305204e-06
166	0x00000000	0.0
167	0x37e79f39	2.761149e-05
168	0x00000000	0.0
169	0x375071d3	1.2424268e-05
170	0x3709a806	8.204957e-06
171	0x369ddecf	4.704903e-06
172	0x3780bddd	1.5347201e-05
173	0x372f1aa4	1.0437016e-05
174	0x00000000	0.0
175	0x377ebef3	1.5184039e-05
176	0x365e1e7a	3.3098318e-06
177	0x370e109f	8.4677295e-06
178	0x36c439ff	5.848007e-06
179	0x3741db0d	1.1554698e-05
180	0x00000000	0.0
181	0x375f017d	1.3292182e-05
182	0x369a6488	4.601261e-06
183	0x00000000	0.0
184	0x80000004	-6e-45
185	0x37226bb9	9.681034e-06
186	0x36d5a3f4	6.3669813e-06
187	0x358ca858	1.0479807e-06
188	0x379eee5d	1.8946064e-05
189	0x3714b0dc	8.862666e-06
190	0x380c64e7	3.3472574e-05
191	0x3757d092	1.286356e-05
192	0x373801e1	1.0967692e-05
193	0x36da3440	6.502989e-06
194	0x38016079	3.0845844e-05
195	0x36328975	2.6604077e-06
196	0x3382d9f4	6.093242e-08
197	0x3735dec9	1.0840312e-05
198	0x378f5801	1.7087908e-05
199	0x36f122bc	7.1864033e-06
200	0x37fedc4f	3.0381749e-05
201	0x36b581ab	5.4093157e-06
202	0x37c4874d	2.3428025e-05
203	0x00000000	0.0
204	0x373b477e	1.1162714e-05
205	0x36f1248b	7.186614e-06
206	0x376f3707	1.4258322e-05
207	0x36a22e3e	4.8333595e-06
208	0xb5682c45	-8.6491156e-07
209	0x3785c120	1.5944766e-05
210	0x36a7e7c9	5.003971e-06
211	0x3729facb	1.0131577e-05
212	0x37086997	8.130816e-06
213	0x3703dd3e	7.85972e-06
214	0x37637451	1.3557336e-05
215	0x00000000	0.0
216	0x372ee680	1.0424876e-05
217	0x80000004	-6e-45
218	0x00000000	0.0
219	0x00000000	0.0
220	0x36f0fa58	7.181701e-06
221	0x37a137ea	1.9218733e-05
222	0x3767d67c	1.38186115e-05
223	0x00000000	0.0
224	0x3762bbe7	1.3514399e-05
225	0x371fcfe8	9.5255455e-06
226	0x00000000	0.0
227	0x36ae0122	5.185736e-06
228	0x00000000	0.0
229	0x369e2afd	4.7137714e-06
230	0x36d0b9bf	6.2205067e-06
231	0x3761950f	1.34457505e-05
232	0x33992aa7	7.132376e-08
233	0x00000004	6e-45
234	0x3721a7ad	9.635388e-06
235	0x3789d7a5	1.643209e-05
236	0x35450972	7.3401964e-07
237	0x360b08e2	2.0717785e-06
238	0x36f8e498	7.4175878e-06
239	0x37d842d2	2.5780322e-05
240	0x3782136b	1.550625e-05
241	0x00000000	0.0
242	0x37d46880	2.5321031e-05
243	0x373ba3a3	1.1184168e-05
244	0x376b9a27	1.4042983e-05
245	0x373b03db	1.1146966e-05
246	0x3527a7c7	6.2456496e-07
247	0x00000000	0.0
248	0x37430425	1.1623871e-05
249	0x36f01ac7	7.1556747e-06
250	0x3758eeac	1.2930173e-05
251	0x37a7cd38	2.0003514e-05
252	0x3735cf54	1.0836713e-05
253	0x3700f832	7.687182e-06
254	0x37384a1e	1.0984511e-05
255	0x00000000	0.0

exp_avg_sq f4 [128, 128]
0	0x303d85d3	6.8947975e-10
1	0x00000000	0.0
2	0x3058fc8d	7.893924e-10
3	0x2f9c7bdf	2.846425e-10
4	0x00000000	0.0
5	0x2fd2284f	3.8227418e-10
6	0x2fce3670	3.7509862e-10
7	0x2e8ee5f5	6.498261e-11
8	0x00000000	0.0
9	0x30a9c881	1.2353355e-09
10	0x303414c8	6.551315e-10
11	0x3065dfcc	8.362775e-10
12	0x301caf3e	5.7001504e-10
13	0x00000000	0.0
14	0x2f0114ff	1.1739941e-10
15	0x306518c0	8.3344887e-10
16	0x00000000	0.0
17	0x302bd45e	6.251123e-10
18	0x00000000	0.0
19	0x00000000	0.0
20	0x00000000	0.0
21	0x3092787d	1.0657143e-09
22	0x302b8834	6.2402994e-10
23	0x3005a487	4.8618926e-10
24	0x3022ef40	5.927525e-10
25	0x2fb7d371	3.3437744e-10
26	0x00000000	0.0
27	0x2fd0ecf5	3.8003348e-10
28	0x3048a91e	7.2999906e-10
29	0x308adb07	1.0103073e-09
30	0x00000000	0.0
31	0x2f24cbe5	1.4988151e-10
32	0x00000000	0.0
33	0x3089644a	9.996566e-10
34	0x2f524f37	1.9127532e-10
35	0x3022b0ff	5.9186783e-10
36	0x2daffec4	2.0008335e-11
37	0x2fd5a2d7	3.886018e-10
38	0x00000000	0.0
39	0x309bffbc	1.1350418e-09
40	0x00000000	0.0
41	0x2e8aa1f1	6.30428e-11
42	0x2d54bc27	1.2092583e-11
43	0x2e1708cd	3.434124e-11
44	0x30ac4fde	1.2537347e-09
45	0x303c5c6e	6.852535e-10
46	0x00000000	0.0
47	0x2ff65988	4.4810755e-10
48	0x2fd235f1	3.8237105e-10
49	0x2fa64102	3.0241415e-10
50	0x2fbdeb1f	3.4545963e-10
51	0x3001b6e2	4.718982e-10
52	0x00000000	0.0
53	0x30195d6d	5.579384e-10
54	0x2de0f6ea	2.5575504e-11
55	0x00000000	0.0
56	0x1387dd5f	3.429708e-27
57	0x2fe6540d	4.1896478e-10
58	0x2fb272f4	3.245969e-10
59	0x2cd507fb	6.05471e-12
60	0x3005e90b	4.871629e-10
61	0x30860180	9.75021e-10
62	0x310ff663	2.0949293e-09
63	0x2fb63445	3.3142747e-10
64	0x3064c2c2	8.3222684e-10
65	0x2f35b1cb	1.6525019e-10
66	0x30ab548e	1.2465919e-09
67	0x2c19d493	2.186061e-12
68	0x2b735654	8.6450747e-13
69	0x3000dedb	4.6882825e-10
70	0x3025bdb9	6.029626e-10
71	0x2fb3a562	3.2677422e-10
72	0x310a9508	2.0166357e-09
73	0x302fe4b9	6.3989664e-10
74	0x30a19fe7	1.1759739e-09
75	0x00000000	0.0
76	0x3070f283	8.765612e-10
77	0x2f096484	1.2495788e-10
78	0x30f37dd3	1.7716338e-09
79	0x302f82d7	6.3850564e-10
80	0x2d9a5872	1.754705e-11
81	0x30a8f209	1.2292399e-09
82	0x30311ee6	6.4436134e-10
83	0x30874b74	9.843988e-10
84	0x302fea59	6.3997657e-10
85	0x306d504b	8.63342e-10
86	0x301cbdb9	5.702208e-10
87	0x00000000	0.0
88	0x304a0ef4	7.350842e-10
89	0x0f81689c	1.2760676e-29
90	0x00000000	0.0
91	0x00000000	0.0
92	0x30120ac8	5.312981e-10
93	0x301d17d0	5.7150107e-10
94	0x3091e690	1.0615668e-09
95	0x00000000	0.0
96	0x30bb7bb3	1.3641198e-09
97	0x2fc375fa	3.555412e-10
98	0x00000000	0.0
99	0x2df64844	2.7999054e-11
100	0x00000000	0.0
101	0x2fe1dbfa	4.1083564e-10
102	0x2ff446c5	4.4433626e-10
103	0x2fcd1427	3.7303602e-10
104	0x2f49edc1	1.836531e-10
105	0x0edb5768	5.4071837e-30
106	0x302e6479	6.344361e-10
107	0x3041728a	7.037576e-10
108	0x2d34c922	1.0276476e-11
109	0x3010e12d	5.270689e-10
110	0x3082db55	9.521083e-10
111	0x3169073d	3.3910077e-09
112	0x30850ee0	9.681251e-10
113	0x00000000	0.0
114	0x313eded9	2.7775313e-09
115	0x301a7965	5.6197386e-10
116	0x2f0d7c52	1.2868043e-10
117	0x2fd9bd21	3.9606454e-10
118	0x2ac021d4	3.4129524e-13
119	0x00000000	0.0
120	0x300adbde	5.051656e-10
121	0x301207a6	5.312536e-10
122	0x30949d4c	1.0813124e-09
123	0x30bcb24c	1.3729475e-09
124	0x2f145ce4	1.3493523e-10
125	0x2fe45bbc	4.153814e-10
126	0x2fc29693	3.5395384e-10
127	0x00000000	0.0
128	0x32678ae9	1.3477554e-08
129	0x00000000	0.0
130	0x32b6754f	2.1240934e-08
131	0x319feec2	4.6546527e-09
132	0x00000000	0.0
133	0x31ac3db6	5.0128746e-09
134	0x31ed5452	6.907194e-09
135	0x3083b401	9.582665e-10
136	0x00000000	0.0
137	0x32e62570	2.6792549e-08
138	0x3255f5a6	1.2454086e-08
139	0x32a35ce4	1.901794e-08
140	0x328707c2	1.5719596e-08
141	0x00000000	0.0
142	0x314017d7	2.7953229e-09
143	0x3275b7f1	1.43027e-08
144	0x00000000	0.0
145	0x321e3449	9.208699e-09
146	0x00000000	0.0
147	0x00000000	0.0
148	0x00000000	0.0
149	0x32bcdbfb	2.1986116e-08
150	0x32264b92	9.679654e-09
151	0x3200be05	7.493786e-09
152	0x3206625c	7.822191e-09
153	0x31c363ea	5.686606e-09
154	0x00000000	0.0
155	0x31cc1169	5.9391607e-09
156	0x32bf88e8	2.2297584e-08
157	0x32aa506b	1.9827175e-08
158	0x00000000	0.0
159	0x314d6c5f	2.9893028e-09
160	0x00000000	0.0
161	0x32a1db23	1.8842519e-08
162	0x31b6b30a	5.3172515e-09
163	0x32861e1b	1.5613344e-08
164	0x2fbcb335	3.4324335e-10
165	0x3214174f	8.620034e-09
166	0x00000000	0.0
167	0x32df0ea8	2.5967282e-08
168	0x00000000	0.0
169	0x311a234e	2.2430018e-09
170	0x2fb26cf3	3.2455424e-10
171	0x30a10f20	1.171859e-09
172	0x32f7668a	2.8801214e-08
173	0x3254c08a	1.2383802e-08
174	0x00000000	0.0
175	0x31cf36e4	6.0307332e-09
176	0x3223d338	9.535874e-09
177	0x31bbf1ae	5.469892e-09
178	0x32059c32	7.777134e-09
179	0x32271427	9.7252615e-09
180	0x00000000	0.0
181	0x3245e0c6	1.1518017e-08
182	0x2fb0eda3	3.2183065e-10
183	0x00000000	0.0
184	0x122f3118	5.5280776e-28
185	0x31e86a55	6.764177e-09
186	0x31f30ed7	7.073918e-09
187	0x2f3c11a8	1.7104773e-10
188	0x31e09520	6.5362116e-09
189	0x32ac8d71	2.0087755e-08
190	0x33338410	4.1796795e-08
191	0x319d0d5d	4.5708206e-09
192	0x328ee08e	1.6633091e-08
193	0x3147d3a1	2.9078608e-09
194	0x32bdc3e8	2.2091584e-08
195	0x2e4548ae	4.4857167e-11
196	0x2d97abbe	1.7242981e-11
197	0x32311328	1.0307112e-08
198	0x321ec496	9.241509e-09
199	0x322b2182	9.961129e-09
200	0x33342728	4.194513e-08
201	0x32772c4a	1.4387362e-08
202	0x32ab0a3b	1.9911672e-08
203	0x00000000	0.0
204	0x32eb411a	2.7387205e-08
205	0x30e489e0	1.662837e-09
206	0x33284926	3.9182076e-08
207	0x327de64a	1.47789e-08
208	0x2fececad	4.3096318e-10
209	0x32dc2224	2.5626896e-08
210	0x3283e66f	1.5355196e-08
211	0x32bb81f5	2.1828763e-08
212	0x32a9f65e	1.9786224e-08
213	0x3299c3ef	1.7900645e-08
214	0x32142c02	8.62474e-09
215	0x00000000	0.0
216	0x32945921	1.7269999e-08
217	0x15e41a18	9.2129635e-26
218	0x00000000	0.0
219	0x00000000	0.0
220	0x32274fef	9.738854e-09
221	0x320ba03f	8.127301e-09
222	0x32be63ea	2.2164347e-08
223	0x00000000	0.0
224	0x3303234d	3.053292e-08
225	0x3246b7fe	1.1566952e-08
226	0x00000000	0.0
227	0x3085e1ed	9.741236e-10
228	0x00000000	0.0
229	0x324e51e1	1.2009395e-08
230	0x3232acc0	1.04002424e-08
231	0x31c3df7f	5.7006555e-09
232	0x31968113	4.3802486e-09
233	0x0dd890a8	1.33468525e-30
234	0x32648277	1.3301011e-08
235	0x3271cdf1	1.4074872e-08
236	0x2fb33413	3.259691e-10
237	0x324f785c	1.2076352e-08
238	0x32eafb42	2.7355444e-08
239	0x339f4c52	7.417897e-08
240	0x32d6931b	2.4979775e-08
241	0x00000000	0.0
242	0x338a49c5	6.4395444e-08
243	0x3225d0d7	9.651749e-09
244	0x310af1e2	2.0219137e-09
245	0x325c92ca	1.2839061e-08
246	0x2c63b3a8	3.235837e-12
247	0x00000000	0.0
248	0x3201b721	7.550427e-09
249	0x323b1015	1.0888489e-08
250	0x32aa6c24	1.9839781e-08
251	0x3302d325	3.046002e-08
252	0x31a4ee70	4.8001354e-09
253	0x3211c082	8.483882e-09
254	0x324f0659	1.2050429e-08
255	0x00000000	0.0
