001-machine_learning/data/00001-MLP-temperature/012_checkpoint.pth (torch_old, 409226 bytes, 30 tensors)

exp_avg f4 [64, 4]
000000 af 23 96 3a ae fd 99 3a 21 81 eb 39 bf 1d 8b 3a
       0.0011454726 0.0011748576 0.000449189 0.0010613723
000010 00 00 00 00 00 00 00 00 00 00 00 00 00 00 00 00
       0.0 0.0 0.0 0.0
000020 00 00 00 00 00 00 00 00 00 00 00 00 00 00 00 00
       0.0 0.0 0.0 0.0
000030 c4 0b d1 b9 6c 7d d6 b9 2e 66 0a b9 7b 4f bf b9
       -0.00039872352 -0.00040910707 -0.0001319877 -0.00036489576
000040 00 00 00 00 98 8f 89 35 d9 dd fb 34 33 a3 82 35
       0.0 1.0249087e-06 4.691381e-07 9.733252e-07
000050 05 e0 8f 36 ed 51 ce 35 29 2a fd 35 8a da 17 36
       4.2878114e-06 1.537204e-06 1.8862239e-06 2.262796e-06
000060 00 00 00 00 00 00 00 00 00 00 00 00 00 00 00 00
       0.0 0.0 0.0 0.0
000070 39 85 64 ba 5b bc 69 ba b5 c8 c6 b9 be 16 55 ba
       -0.00087173615 -0.0008916312 -0.0003791504 -0.0008128694
000080 da 96 33 3a 14 99 37 3a 58 b6 84 39 27 aa 23 3a
       0.0006850787 0.00070037064 0.0002531286 0.0006243311
000090 00 00 00 00 00 00 00 00 00 00 00 00 00 00 00 00
       0.0 0.0 0.0 0.0
0000a0 c4 a0 d2 3a be fc d7 3a 70 bc 26 3a db 4b c2 3a
       0.001606964 0.0016478521 0.0006360477 0.0014823632
0000b0 8b f1 a3 ba 2e 11 a8 ba fb c2 0c ba 49 38 9a ba
       -0.0012507899 -0.0012822503 -0.00053696305 -0.0011766042
0000c0 0f f8 59 ba bc 40 5f ba ba f8 a9 b9 b2 5a 48 ba
       -0.00083148567 -0.0008516421 -0.00032419508 -0.0007642909
0000d0 00 00 00 00 f3 6a dd b3 48 b6 a2 33 40 69 7e b3
       0.0 -1.03105684e-07 7.5768696e-08 -5.9234708e-08
0000e0 f0 25 4d b9 5d 97 53 b9 0a 09 98 b8 c4 43 3b b9
       -0.00019564456 -0.00020178915 -7.2496085e-05 -0.00017858954
0000f0 1c e7 2a b7 11 6a 83 b6 17 b1 04 b5 8a 3f c4 b6
       -1.0186599e-05 -3.916452e-06 -4.943153e-07 -5.848652e-06
000100 7b 3a 5f b0 78 aa db 34 69 86 12 34 a4 d6 cb 34
       -8.1210033e-10 4.091596e-07 1.3646208e-07 3.7967868e-07
000110 a1 fc e9 b8 a3 ce ef b8 9e ea 56 b7 51 89 bb b8
       -0.000111573616 -0.00011434897 -1.281002e-05 -8.942432e-05
000120 00 00 00 00 00 00 00 00 00 00 00 00 00 00 00 00
       0.0 0.0 0.0 0.0
000130 00 00 00 00 00 00 00 00 00 00 00 00 00 00 00 00
       0.0 0.0 0.0 0.0
000140 fa 67 02 ba f7 ce 05 ba 3e b1 34 b9 2a 8d f1 b9
       -0.00049746 -0.00051043875 -0.00017232166 -0.00046072277
000150 b1 17 ab 3a e1 73 b1 3a 6d e5 21 3a 01 3a a6 3a
       0.0013053325 0.0013538563 0.00061758497 0.0012682081
000160 b3 cd c6 b6 99 5a a7 b6 8a c8 28 b6 b7 54 e0 b6
       -5.9248064e-06 -4.987535e-06 -2.515068e-06 -6.6855823e-06
000170 6d ad 07 ba 46 3b 0b ba 80 a6 5a b9 07 a4 fc b9
       -0.0005175684 -0.00053112616 -0.00020852126 -0.00048187395
000180 12 79 70 3a 40 6e 77 3a 23 57 b6 39 0d f8 64 3a
       0.00091733143 0.0009438731 0.00034778667 0.0008734472
000190 c7 af 50 b9 f9 2e 57 b9 12 ee 73 b8 da f5 40 b9
       -0.00019901908 -0.00020521496 -5.8157435e-05 -0.00018402134
0001a0 4e 6f 27 b4 6e 4a cb b1 52 83 19 b4 60 33 74 b3
       -1.559358e-07 -5.9165393e-09 -1.429701e-07 -5.6857402e-08
0001b0 00 00 00 00 00 00 00 00 00 00 00 00 00 00 00 00
       0.0 0.0 0.0 0.0
0001c0 00 00 00 00 00 00 00 00 00 00 00 00 00 00 00 00
       0.0 0.0 0.0 0.0
0001d0 d5 f8 d1 34 4e e6 5a 35 ca cb 80 35 a1 57 17 36
       3.9110333e-07 8.1546466e-07 9.596054e-07 2.255176e-06
0001e0 00 00 00 00 00 00 00 00 00 00 00 00 00 00 00 00
       0.0 0.0 0.0 0.0
0001f0 00 00 00 00 00 00 00 00 00 00 00 00 00 00 00 00
       0.0 0.0 0.0 0.0
000200 d5 b2 3a 37 75 56 57 37 ef f6 a6 b6 e1 24 6c 37
       1.11281015e-05 1.28351285e-05 -4.9759324e-06 1.4075283e-05
000210 00 00 00 00 00 00 00 00 00 00 00 00 00 00 00 00
       0.0 0.0 0.0 0.0
000220 9d 3e 4c 3a 8f ad 51 3a e1 68 9c 39 5e fa 3b 3a
       0.00077913125 0.00079985795 0.0002983278 0.00071707915
000230 52 b1 24 3a cb 50 28 3a ea 3b 77 39 9b 4a 16 3a
       0.00062825263 0.00064207305 0.00023578075 0.0005733163
000240 00 00 00 00 00 00 00 00 00 00 00 00 00 00 00 00
       0.0 0.0 0.0 0.0
000250 04 00 00 80 2f aa dc b5 fc b4 3e b5 48 0a cd b5
       -6e-45 -1.6440807e-06 -7.104388e-07 -1.5276682e-06
000260 3c 02 b1 36 c0 af f3 36 62 6b b3 36 ac 17 ea 35
       5.275271e-06 7.2624243e-06 5.3471167e-06 1.7441248e-06
000270 00 00 00 00 00 00 00 00 00 00 00 00 00 00 00 00
       0.0 0.0 0.0 0.0
000280 ee 72 21 ba 8b a3 25 ba f4 24 8e b9 2e 46 17 ba
       -0.00061587885 -0.000631862 -0.00027111883 -0.00057706505
000290 31 8b 27 3a d7 1b 2b 3a a9 69 96 39 5c de 1b 3a
       0.00063912856 0.0006527281 0.00028688952 0.0005945915
0002a0 36 df 82 ba 33 24 86 ba 7b dd df b9 e5 eb 76 ba
       -0.0009984735 -0.0010234177 -0.0004269889 -0.00094193063
0002b0 01 6c b9 b9 4e 81 bd b9 f8 c1 52 b9 a0 f6 b5 b9
       -0.0003536642 -0.0003614523 -0.0002009942 -0.0003470676
0002c0 f7 73 23 ba 69 ae 27 ba 57 fe 79 b9 95 5b 18 ba
       -0.00062352367 -0.00063965336 -0.0002384124 -0.00058119866
0002d0 32 f2 9f ba 5c 23 a4 ba eb 93 f1 b9 7f 2e 93 ba
       -0.0012202917 -0.0012522745 -0.0004607731 -0.0011229067
0002e0 d6 26 29 39 13 f0 26 39 f0 ad cc 37 c5 33 1f 39
       0.00016131563 0.00015920428 2.4399691e-05 0.00015182707
0002f0 26 74 7e 34 7b 85 cf b2 5b c5 42 34 d2 27 c9 33
       2.3697848e-07 -2.4158672e-08 1.8139455e-07 9.367035e-08
000300 e6 35 8a 35 24 c6 8c 35 1c f9 82 34 85 76 75 34
       1.0297488e-06 1.0488479e-06 2.4395638e-07 2.286052e-07
000310 00 00 00 00 00 00 00 00 00 00 00 00 00 00 00 00
       0.0 0.0 0.0 0.0
000320 a6 7f 85 3a 6e ca 88 3a 8b fc dc 39 4a c4 77 3a
       0.0010185137 0.0010436305 0.0004214983 0.00094515516
000330 63 b3 c8 36 c1 b2 12 37 41 5e ad 36 27 6b d7 35
       5.981348e-06 8.7438975e-06 5.1667744e-06 1.6049934e-06
000340 76 7b 7f 36 94 bb 82 36 41 46 9d 35 6f 90 f9 b4
       3.8069825e-06 3.896139e-06 1.1717858e-06 -4.6484953e-07
000350 00 00 00 00 00 00 00 00 00 00 00 00 00 00 00 00
       0.0 0.0 0.0 0.0
000360 00 00 00 00 fd cc 73 b0 46 f6 c7 b0 70 2a a7 b0
       0.0 -8.869419e-10 -1.4549151e-09 -1.2162911e-09
000370 e8 25 92 ba e2 e1 95 ba e7 c9 d3 b9 f5 32 86 ba
       -0.0011150213 -0.0011435116 -0.00040395485 -0.0010238575
000380 82 80 85 ba 51 af 88 ba 25 57 e3 b9 90 9d 79 ba
       -0.0010185393 -0.0010428225 -0.00043361742 -0.0009522075
000390 60 17 cd b8 48 c3 d5 b8 47 9d 37 b7 79 70 b1 b8
       -9.779516e-05 -0.000101930054 -1.0944269e-05 -8.4609674e-05
0003a0 c0 db c6 39 fc c4 cb 39 f9 d8 30 39 6a c8 bb 39
       0.0003792923 0.00038865942 0.00016865497 0.0003581674
0003b0 00 00 00 00 00 00 00 00 c9 47 ee a7 ff 39 08 a4
       0.0 0.0 -6.61361e-15 -2.9539424e-17
0003c0 13 98 f2 39 ab b6 f7 39 64 ed 47 39 3f 6d dd 39
       0.0004627114 0.0004724761 0.00019066554 0.000422338
0003d0 00 00 00 00 00 00 00 00 00 00 00 00 00 00 00 00
       0.0 0.0 0.0 0.0
0003e0 c9 f2 b3 ba e5 bb b8 ba 82 c1 0b ba e9 bb a5 ba
       -0.0013728972 -0.0014094083 -0.0005331264 -0.0012644503
0003f0 53 60 2f 3a 20 b4 33 3a fc f9 7e 39 27 b8 1e 3a
       0.00066900736 0.0006855149 0.00024316454 0.00060546625

exp_avg_sq f4 [64, 4]
000000 f1 9f d6 35 7d de af 35 69 3f 26 35 36 ad c9 35
       1.5990792e-06 1.3103269e-06 6.1932093e-07 1.5026078e-06
000010 00 00 00 00 00 00 00 00 00 00 00 00 00 00 00 00
       0.0 0.0 0.0 0.0
000020 00 00 00 00 00 00 00 00 00 00 00 00 00 00 00 00
       0.0 0.0 0.0 0.0
000030 4c 2d 5d 34 3a 5c 2d 34 f5 94 63 33 7c f5 36 34
       2.0598708e-07 1.6145432e-07 5.298803e-08 1.7039378e-07
000040 00 00 00 00 d4 48 f7 32 b2 60 cb 31 a0 23 ff 32
       0.0 2.8787703e-08 5.9190706e-09 2.9702107e-08
000050 84 78 c4 33 2d 41 a4 32 3c 38 20 33 df 6f 31 33
       9.148883e-08 1.9121751e-08 3.7304048e-08 4.131277e-08
000060 00 00 00 00 00 00 00 00 00 00 00 00 00 00 00 00
       0.0 0.0 0.0 0.0
000070 53 be 6a 35 c0 69 5e 35 7b 9a 03 35 d6 9f 83 35
       8.744875e-07 8.285533e-07 4.90261e-07 9.806779e-07
000080 74 cc 02 35 2a 4b d9 34 be 01 32 34 f8 2d ec 34
       4.872629e-07 4.047409e-07 1.6578176e-07 4.3991872e-07
000090 00 00 00 00 00 00 00 00 00 00 00 00 00 00 00 00
       0.0 0.0 0.0 0.0
0000a0 5e bd 51 36 ad b2 28 36 c2 ff a3 35 66 d2 41 36
       3.1253653e-06 2.5137954e-06 1.2218882e-06 2.888171e-06
0000b0 33 c7 bc 35 e9 9d d1 35 22 ec 3e 35 e0 60 ec 35
       1.4065066e-06 1.5617671e-06 7.1124134e-07 1.7611565e-06
0000c0 b0 f0 49 35 a8 07 26 35 02 96 91 34 d5 5e 37 35
       7.522858e-07 6.185096e-07 2.71175e-07 6.831081e-07
0000d0 00 00 00 00 ac d8 8a 34 f5 83 c8 33 b8 07 c3 34
       0.0 2.5862153e-07 9.3372286e-08 3.6327197e-07
0000e0 2c 0f 6f 33 db fe f9 32 c3 ca 46 32 77 ad 09 33
       5.5660323e-08 2.910331e-08 1.15712195e-08 3.2055564e-08
0000f0 cd 27 86 34 58 06 a1 34 1c 87 86 34 d8 f2 e1 34
       2.4988404e-07 2.9993203e-07 2.505775e-07 4.2086208e-07
000100 6c 20 61 2f 0c d0 a6 31 73 3a fa 30 0b 08 a4 31
       2.047515e-10 4.854888e-09 1.8206506e-09 4.7739426e-09
000110 69 7c b2 32 91 10 cd 32 c4 55 8a 31 73 5a b5 32
       2.0778502e-08 2.3872675e-08 4.026079e-09 2.1112305e-08
000120 00 00 00 00 00 00 00 00 00 00 00 00 00 00 00 00
       0.0 0.0 0.0 0.0
000130 00 00 00 00 00 00 00 00 00 00 00 00 00 00 00 00
       0.0 0.0 0.0 0.0
000140 ff e1 a5 34 3d 46 8d 34 67 da aa 33 db 97 96 34
       3.089808e-07 2.6314402e-07 7.955969e-08 2.8050167e-07
000150 5d c0 45 36 0e a7 e6 35 b1 e2 8b 35 4e 2c 0e 36
       2.9467258e-06 1.7184955e-06 1.0422283e-06 2.1185438e-06
000160 5e d5 53 31 85 0e 11 31 38 96 e7 30 02 b9 2f 31
       3.0825826e-09 2.110853e-09 1.6850157e-09 2.5571016e-09
000170 71 09 b6 34 e2 bd 8b 34 79 fb 01 34 22 6a a0 34
       3.390701e-07 2.6028926e-07 1.2105546e-07 2.9879544e-07
000180 07 c0 9f 35 30 6a 79 35 04 20 c9 34 56 90 8e 35
       1.190231e-06 9.291425e-07 3.7462462e-07 1.0621832e-06
000190 6b 27 97 33 74 cf 1a 33 f3 61 6b 32 1b d5 27 33
       7.0386555e-08 3.6044597e-08 1.3701071e-08 3.9076536e-08
0001a0 03 95 2d 30 de 44 c3 2f 74 9a f2 31 3e 53 2c 31
       6.314879e-10 3.5519226e-10 7.0606863e-09 2.5076612e-09
0001b0 00 00 00 00 00 00 00 00 00 00 00 00 00 00 00 00
       0.0 0.0 0.0 0.0
0001c0 00 00 00 00 00 00 00 00 00 00 00 00 00 00 00 00
       0.0 0.0 0.0 0.0
0001d0 c7 53 c3 2f af 67 65 33 cc 5d a9 32 b7 be 7f 33
       3.552982e-10 5.3412517e-08 1.9716843e-08 5.954527e-08
0001e0 00 00 00 00 00 00 00 00 00 00 00 00 00 00 00 00
       0.0 0.0 0.0 0.0
0001f0 00 00 00 00 00 00 00 00 00 00 00 00 00 00 00 00
       0.0 0.0 0.0 0.0
000200 a2 49 58 31 df b7 06 31 18 b1 0f 30 48 e3 09 31
       3.1473992e-09 1.9604085e-09 5.227476e-10 2.0065318e-09
000210 00 00 00 00 00 00 00 00 00 00 00 00 00 00 00 00
       0.0 0.0 0.0 0.0
000220 d6 18 4f 35 f7 01 1b 35 40 4d 98 34 b8 64 32 35
       7.714965e-07 5.774486e-07 2.8368413e-07 6.645673e-07
000230 1e a8 c0 34 75 10 b0 34 a8 b2 00 34 f9 26 bb 34
       3.5885108e-07 3.279453e-07 1.1985924e-07 3.485982e-07
000240 00 00 00 00 00 00 00 00 00 00 00 00 00 00 00 00
       0.0 0.0 0.0 0.0
000250 d1 fc d5 21 ff 12 01 34 ee a3 1f 33 70 81 11 34
       1.4500361e-18 1.2020972e-07 3.7169166e-08 1.3551266e-07
000260 29 ce 56 33 90 9f e8 34 c4 9e 9b 34 78 e8 14 35
       5.001326e-08 4.3329464e-07 2.8986517e-07 5.5472583e-07
000270 00 00 00 00 00 00 00 00 00 00 00 00 00 00 00 00
       0.0 0.0 0.0 0.0
000280 11 94 fc 34 cc bc 81 34 66 2e 13 34 fc 9b 95 34
       4.704639e-07 2.416549e-07 1.3707322e-07 2.7866906e-07
000290 c8 22 e4 34 19 e3 ce 34 75 11 78 34 89 e4 ee 34
       4.2493616e-07 3.8535725e-07 2.310315e-07 4.4497236e-07
0002a0 62 5b a6 35 c7 68 89 35 61 76 14 35 9c 9d a2 35
       1.239456e-06 1.023779e-06 5.530656e-07 1.2115811e-06
0002b0 d1 7a 37 34 6f 66 0b 34 dc 8c df 33 87 a4 2e 34
       1.7087883e-07 1.2982649e-07 1.0409869e-07 1.6264867e-07
0002c0 92 75 f2 34 99 88 b5 34 03 06 0f 34 0d 0a c6 34
       4.5161556e-07 3.3813265e-07 1.33201e-07 3.6887687e-07
0002d0 66 ba f4 35 8f 0a 9f 35 45 53 06 35 73 2d a9 35
       1.8233666e-06 1.1849496e-06 5.0040063e-07 1.2604709e-06
0002e0 7a d0 e8 32 a7 5e 98 34 9c 53 0c 34 e3 2a b6 34
       2.7103159e-08 2.8381075e-07 1.3068933e-07 3.3931346e-07
0002f0 cc 85 cb 30 e5 18 bf 31 6b eb 23 32 aa 4d 16 32
       1.4808221e-09 5.561662e-09 9.541377e-09 8.748808e-09
000300 b7 02 f3 2b 6e 9d e7 2b ea 81 18 29 93 ea 5c 2a
       1.7266942e-12 1.6457233e-12 3.3863462e-14 1.962131e-13
000310 00 00 00 00 00 00 00 00 00 00 00 00 00 00 00 00
       0.0 0.0 0.0 0.0
000320 1a 1e a6 35 47 e7 7f 35 6e 70 06 35 06 35 95 35
       1.2376724e-06 9.5331455e-07 5.0082497e-07 1.1116797e-06
000330 5f 3f 15 2e e2 4b 0d 35 14 2c 96 34 41 dd 2a 35
       3.3934962e-11 5.263702e-07 2.7971748e-07 6.36519e-07
000340 80 19 33 30 b0 00 f8 2e eb e9 d0 2e 6e 30 1e 2c
       6.515606e-10 1.12778564e-10 9.500297e-11 2.2480034e-12
000350 00 00 00 00 00 00 00 00 00 00 00 00 00 00 00 00
       0.0 0.0 0.0 0.0
000360 00 00 00 00 26 66 8b 2e 2d bf 27 30 0b 26 bb 2f
       0.0 6.3391334e-11 6.1025923e-10 3.4042133e-10
000370 8c a8 c4 35 99 f5 a0 35 0f f3 ec 34 a6 5f b0 35
       1.4652192e-06 1.1992407e-06 4.4135274e-07 1.3140859e-06
000380 2c 77 a4 35 4a 04 81 35 16 9a f4 34 76 73 92 35
       1.2253636e-06 9.612497e-07 4.5560654e-07 1.0911451e-06
000390 f8 54 c6 32 31 ef a5 32 73 13 38 31 54 13 a1 32
       2.3088873e-08 1.93173e-08 2.678658e-09 1.8751656e-08
0003a0 63 46 4b 34 04 80 57 34 57 18 02 34 a2 b7 84 34
       1.8931455e-07 2.0070007e-07 1.2116048e-07 2.4720526e-07
0003b0 00 00 00 00 00 00 00 00 c0 e3 88 1f 10 f8 b2 17
       0.0 0.0 5.797502e-20 1.15656e-24
0003c0 67 09 4f 34 7a 82 25 34 9a 9d 9a 33 43 c3 34 34
       1.9281798e-07 1.541429e-07 7.1998514e-08 1.6834842e-07
0003d0 00 00 00 00 00 00 00 00 00 00 00 00 00 00 00 00
       0.0 0.0 0.0 0.0
0003e0 95 28 10 36 51 c4 ab 35 34 6c 26 35 e2 ce bf 35
       2.1481294e-06 1.2797628e-06 6.1997275e-07 1.429082e-06
0003f0 5c 20 09 35 0d 79 c7 34 13 fe 25 34 f6 23 d9 34
       5.1083566e-07 3.7154715e-07 1.5459254e-07 4.0445565e-07

exp_avg f4 [64]
000000 1e ce 95 3a 00 00 00 00 00 00 00 00 43 ad d0 b9
       0.0011429226 0.0 0.0 -0.00039801942
000010 ef f7 8b 35 f4 d5 8e 36 00 00 00 00 2d ec 63 ba
       1.0428465e-06 4.256837e-06 0.0 -0.0008694556
000020 e7 38 33 3a 00 00 00 00 a3 2d d2 3a 7e 8a a3 ba
       0.0006836787 0.0 0.0016035329 -0.0012477187
000030 fc 91 59 ba 66 7f 2b b3 f1 25 4d b9 f3 55 09 b7
       -0.00082996464 -3.992991e-08 -0.00019564458 -8.185848e-06
000040 56 a3 d7 34 1d 90 e9 b8 00 00 00 00 00 00 00 00
       4.0165713e-07 -0.00011137149 0.0 0.0
000050 61 17 02 ba 32 1d ab 3a e5 51 c1 b6 6b 64 07 ba
       -0.000496259 0.0013054966 -5.761382e-06 -0.0005164805
000060 42 ef 6f 3a c3 af 50 b9 a3 d0 23 b4 00 00 00 00
       0.00091527787 -0.00019901902 -1.525646e-07 0.0
000070 00 00 00 00 b9 1d c2 35 00 00 00 00 00 00 00 00
       0.0 1.4462777e-06 0.0 0.0
000080 e1 b2 3a 37 00 00 00 00 61 e0 4b 3a 6e 5b 24 3a
       1.1128112e-05 0.0 0.00077772705 0.00062697276
000090 00 00 00 00 9a c2 dc b5 78 b0 03 37 00 00 00 00
       0.0 -1.6447914e-06 7.849296e-06 0.0
0000a0 37 6e 21 ba 0f 2c 27 3a 5a 90 82 ba 89 88 b9 b9
       -0.0006158086 0.00063771097 -0.0009961233 -0.00035387676
0000b0 cb 30 23 ba c2 a3 9f ba 31 24 27 39 03 cb 48 34
       -0.0006225227 -0.0012179541 0.00015939843 1.8700307e-07
0000c0 e2 35 8a 35 00 00 00 00 3d 3b 85 3a 13 77 15 37
       1.0297483e-06 0.0 0.0010164749 8.908816e-06
0000d0 73 7b 7f 36 00 00 00 00 14 c1 cf b0 7d d7 91 ba
       3.8069818e-06 0.0 -1.5116108e-09 -0.0011126843
0000e0 9d 29 85 ba 5d ed cc b8 8e 37 c6 39 c9 47 ee a7
       -0.0010159496 -9.7716904e-05 0.00037806894 -6.61361e-15
0000f0 9e 34 f2 39 00 00 00 00 a4 fa b3 ba 0f 1b 2f 3a
       0.0004619704 0.0 -0.0013731313 0.0006679752

exp_avg_sq f4 [64]
000000 e3 32 31 36 00 00 00 00 00 00 00 00 b1 70 a0 34
       2.6404675e-06 0.0 0.0 2.9884316e-07
000010 d3 49 3d 33 94 03 03 34 00 00 00 00 a2 10 ee 35
       4.4072134e-08 1.2201627e-07 0.0 1.7737223e-06
000020 9d c3 4f 35 00 00 00 00 2e d9 ab 36 da 87 42 36
       7.7398164e-07 0.0 5.12148e-06 2.8987329e-06
000030 b7 ba 9f 35 5c 19 54 35 2e 0f 6f 33 bf dd 6f 35
       1.1900764e-06 7.9013057e-07 5.566033e-08 8.935712e-07
000040 cf 67 14 32 8e 27 22 33 00 00 00 00 00 00 00 00
       8.638337e-09 3.775454e-08 0.0 0.0
000050 e9 31 fb 34 5b d4 7c 36 40 7d af 31 85 fa 09 35
       4.6788708e-07 3.7674533e-06 5.1074096e-09 5.140103e-07
000060 86 30 f6 35 69 27 97 33 49 3e bd 32 00 00 00 00
       1.834255e-06 7.038654e-08 2.203082e-08 0.0
000070 00 00 00 00 0f 5a d8 33 00 00 00 00 00 00 00 00
       0.0 1.00746654e-07 0.0 0.0
000080 9a 49 58 31 00 00 00 00 08 4e a1 35 4e 5a 1e 35
       3.1473975e-09 0.0 1.2018145e-06 5.8991e-07
000090 00 00 00 00 b6 38 67 34 a1 25 8f 35 00 00 00 00
       0.0 2.1534183e-07 1.0665282e-06 0.0
0000a0 78 85 fd 34 1e 3f 58 35 f2 aa 0d 36 9a b9 a3 34
       4.7222034e-07 8.055812e-07 2.111014e-06 3.049616e-07
0000b0 41 32 28 35 b3 e1 0e 36 50 cd 2b 35 31 b8 da 32
       6.2658006e-07 2.1291023e-06 6.4001233e-07 2.54623e-08
0000c0 b6 02 f3 2b 00 00 00 00 7d b5 02 36 54 a7 98 35
       1.7266941e-12 0.0 1.947715e-06 1.1373581e-06
0000d0 82 19 33 30 00 00 00 00 8f f6 12 31 c0 a0 17 36
       6.515607e-10 0.0 2.1385949e-09 2.2594322e-06
0000e0 6e 01 f7 35 8b 9d 02 33 e4 2f ed 34 c0 e3 88 1f
       1.840335e-06 3.0411268e-08 4.4179535e-07 5.797502e-20
0000f0 ac c0 9b 34 00 00 00 00 c7 30 2d 36 ce 56 41 35
       2.9011187e-07 0.0 2.58074e-06 7.202442e-07

exp_avg f4 [128, 64]
000000 6a 17 cb b5 00 00 00 00 00 00 00 00 f4 d9 80 b4
       -1.5131493e-06 0.0 0.0 -2.400044e-07
000010 6b e8 80 b0 38 31 c1 b3 00 00 00 00 da f6 8f b5
       -9.379283e-10 -8.996216e-08 0.0 -1.0726174e-06
000020 e2 9c bd b5 00 00 00 00 7d d1 f6 b2 fa 3e 0e 34
       -1.4127256e-06 0.0 -2.8733433e-08 1.3247691e-07
000030 b9 08 b5 b4 0d 0a 53 af b4 26 14 b4 e1 95 e6 34
       -3.3720224e-07 -1.9193909e-10 -1.3797654e-07 4.294989e-07
000040 7e 43 20 33 96 eb 21 30 00 00 00 00 00 00 00 00
       3.7314287e-08 5.8906247e-10 0.0 0.0
000050 f2 d6 14 b4 f4 8a 5c b4 1a 39 98 b4 44 cc 8e b5
       -1.3861771e-07 -2.0539647e-07 -2.8353753e-07 -1.0639274e-06
000060 46 db a8 b3 15 11 ce b3 35 33 f2 30 00 00 00 00
       -7.862995e-08 -9.59573e-08 1.7622371e-09 0.0
000070 00 00 00 00 ba 94 47 33 00 00 00 00 00 00 00 00
       0.0 4.6468564e-08 0.0 0.0
000080 82 ee 81 b4 00 00 00 00 4a 46 0d b6 85 01 0d b6
       -2.420166e-07 0.0 -2.105155e-06 -2.1011522e-06
000090 00 00 00 00 96 d2 86 b0 6e ba 2a 35 00 00 00 00
       0.0 -9.809635e-10 6.3601226e-07 0.0
0000a0 57 12 de b4 a5 30 7f b5 2c 16 56 b3 10 c4 ca b4
       -4.1364066e-07 -9.506569e-07 -4.9845923e-08 -3.7768086e-07
0000b0 44 f3 e9 33 29 f7 8a 34 bb 2a 9c 2f 0f bc 07 33
       1.0894158e-07 2.5884336e-07 2.8406597e-10 3.1603175e-08
0000c0 58 e6 fe 33 00 00 00 00 08 24 7b b5 eb 37 87 35
       1.1869696e-07 0.0 -9.355722e-07 1.0074558e-06
0000d0 16 45 00 34 00 00 00 00 b5 25 82 ae 8a 74 c0 34
       1.1946062e-07 0.0 -5.918414e-11 3.584758e-07
0000e0 5a ef ca b4 57 3d c4 b3 e5 96 67 b5 67 ad cb 23
       -3.7799583e-07 -9.138119e-08 -8.6273786e-07 2.2082743e-17
0000f0 46 23 0e b6 00 00 00 00 1a a0 1f 34 fc 20 ed b5
       -2.118018e-06 0.0 1.4866274e-07 -1.7667476e-06
000100 32 31 a3 b9 00 00 00 00 00 00 00 00 60 36 66 b9
       -0.00031126436 0.0 0.0 -0.00021954766
000110 31 17 67 33 fb 7d 08 b5 00 00 00 00 b8 1a e6 b9
       5.380497e-08 -5.0847274e-07 0.0 -0.00043888926
000120 24 b3 b2 b9 00 00 00 00 e2 ad ea b8 0c 4b f4 b8
       -0.00034084276 0.0 -0.00011190378 -0.00011648805
000130 f3 48 a3 b9 b3 8f e7 b0 54 ee 32 b8 08 86 11 35
       -0.00031144134 -1.6848304e-09 -4.2660467e-05 5.421175e-07
000140 b3 6c 6e 34 81 80 c2 b8 00 00 00 00 00 00 00 00
       2.2205022e-07 -9.2745766e-05 0.0 0.0
000150 6b 79 5d b9 ac 7a 28 b8 fc 25 04 b9 c7 11 d4 b9
       -0.00021121434 -4.016857e-05 -0.00012602651 -0.00040449036
000160 32 3a a6 b7 a8 61 75 b8 5e 2f 36 31 00 00 00 00
       -1.9815841e-05 -5.85035e-05 2.651141e-09 0.0
000170 00 00 00 00 7c 02 c4 34 00 00 00 00 00 00 00 00
       0.0 3.6509653e-07 0.0 0.0
000180 9c 55 2b b8 00 00 00 00 ba 2a 3d ba 0c 63 45 ba
       -4.0849307e-05 0.0 -0.00072161446 -0.0007529713
000190 00 00 00 00 52 03 7f 34 b8 f0 f8 34 00 00 00 00
       0.0 2.3749934e-07 4.6368746e-07 0.0
0001a0 28 b8 09 b9 52 08 ca b9 5b 6e 66 b9 5f aa 69 b8
       -0.00013133942 -0.00038534641 -0.0002197562 -5.57102e-05
0001b0 83 46 93 b8 d1 e8 80 b9 a6 93 bb b4 47 5a 81 33
       -7.02264e-05 -0.00024587524 -3.4938893e-07 6.023452e-08
0001c0 73 ef b5 32 00 00 00 00 9c 67 63 b9 4b a9 3a 35
       2.1180062e-08 0.0 -0.00021687004 6.9536753e-07
0001d0 19 06 46 33 00 00 00 00 d6 9c a6 af 0f e9 5d b9
       4.6106013e-08 0.0 -3.0306663e-10 -0.00021163023
0001e0 aa 8c 82 b9 a0 72 31 b9 95 a4 93 b9 d0 ba 17 23
       -0.00024900335 -0.00016922737 -0.00028160648 8.2252855e-18
0001f0 dd 08 2e ba 00 00 00 00 34 3c e9 b7 9d fb fb b9
       -0.0006638894 0.0 -2.7803799e-05 -0.00048061917
000200 04 00 00 00 00 00 00 00 00 00 00 00 04 00 00 00
       6e-45 0.0 0.0 6e-45
000210 00 00 00 00 04 00 00 00 00 00 00 00 04 00 00 00
       0.0 6e-45 0.0 6e-45
000220 04 00 00 00 00 00 00 00 04 00 00 00 04 00 00 00
       6e-45 0.0 6e-45 6e-45
000230 04 00 00 00 00 00 00 00 00 00 00 00 04 00 00 00
       6e-45 0.0 0.0 6e-45
000240 04 00 00 00 04 00 00 00 00 00 00 00 00 00 00 00
       6e-45 6e-45 0.0 0.0
000250 04 00 00 00 00 00 00 00 04 00 00 00 04 00 00 00
       6e-45 0.0 6e-45 6e-45
000260 04 00 00 00 00 00 00 00 00 00 00 00 00 00 00 00
       6e-45 0.0 0.0 0.0
000270 00 00 00 00 04 00 00 00 00 00 00 00 00 00 00 00
       0.0 6e-45 0.0 0.0
000280 00 00 00 00 00 00 00 00 04 00 00 00 04 00 00 00
       0.0 0.0 6e-45 6e-45
000290 00 00 00 00 04 00 00 00 04 00 00 00 00 00 00 00
       0.0 6e-45 6e-45 0.0
0002a0 00 00 00 00 04 00 00 00 04 00 00 00 04 00 00 00
       0.0 6e-45 6e-45 6e-45
0002b0 04 00 00 00 00 00 00 00 04 00 00 00 04 00 00 00
       6e-45 0.0 6e-45 6e-45
0002c0 00 00 00 00 00 00 00 00 04 00 00 00 00 00 00 00
       0.0 0.0 6e-45 0.0
0002d0 00 00 00 00 00 00 00 00 00 00 00 00 04 00 00 00
       0.0 0.0 0.0 6e-45
0002e0 00 00 00 00 04 00 00 00 04 00 00 00 00 00 00 00
       0.0 6e-45 6e-45 0.0
0002f0 04 00 00 00 00 00 00 00 04 00 00 00 04 00 00 00
       6e-45 0.0 6e-45 6e-45
000300 f1 0e 88 39 00 00 00 00 00 00 00 00 49 6e 3c 39
       0.00025951074 0.0 0.0 0.00017970162
000310 e1 69 5f b3 86 41 b6 34 00 00 00 00 c7 4e ce 39
       -5.201753e-08 3.3947816e-07 0.0 0.00039350076
000320 7e b9 99 39 00 00 00 00 db f5 c1 38 f7 e7 ec 38
       0.00029320637 0.0 9.248751e-05 0.00011296564
000330 2b ec 88 39 d4 55 fc b0 ec 3d 27 38 08 f0 5f b4
       0.000261159 -1.8359807e-09 3.9873572e-05 -2.0855816e-07
000340 2f 9d 42 b4 ed 8c 93 38 00 00 00 00 00 00 00 00
       -1.8124841e-07 7.035756e-05 0.0 0.0
000350 eb 55 32 39 9a 93 fa 37 53 84 db 38 e4 20 b7 39
       0.0001700741 2.9871055e-05 0.00010467381 0.00034928985
000360 00 0b 86 37 f4 a4 34 38 aa e4 cd b0 00 00 00 00
       1.5979167e-05 4.306897e-05 -1.4980703e-09 0.0
000370 00 00 00 00 7e 02 3a b4 00 00 00 00 00 00 00 00
       0.0 -1.7323507e-07 0.0 0.0
000380 e8 56 0a 38 00 00 00 00 f3 dd 20 3a 20 2f 2a 3a
       3.29827e-05 0.0 0.00061365886 0.00064920075
000390 00 00 00 00 d3 10 66 b4 db 03 c9 b4 00 00 00 00
       0.0 -2.142654e-07 -3.7441973e-07 0.0
0003a0 65 f0 05 39 08 f4 a5 39 04 40 4e 39 a8 b0 68 38
       0.00012773422 0.0003165307 0.00019669539 5.5477634e-05
0003b0 a4 35 5d 38 d5 79 57 39 d6 2a dc 34 1d 58 15 b3
       5.2740463e-05 0.00020549384 4.100936e-07 -3.4771904e-08
0003c0 b2 d4 f3 b3 00 00 00 00 3b 40 3d 39 63 e6 41 b5
       -1.1354258e-07 0.0 0.00018048372 -7.223336e-07
0003d0 86 69 29 b4 00 00 00 00 9e 4c b0 ad ad 43 36 39
       -1.5777741e-07 0.0 -2.0042908e-11 0.00017382084
0003e0 30 9e 6c 39 8f c2 12 39 f1 1c 7a 39 00 00 00 00
       0.00022565643 0.00013996124 0.0002385264 0.0
0003f0 64 d1 15 3a 00 00 00 00 fa dc da 37 85 aa da 39
       0.00057151006 0.0 2.6090525e-05 0.00041707247

exp_avg_sq f4 [128, 64]
000000 96 2f ff 31 00 00 00 00 00 00 00 00 f6 ff 45 31
       7.4268867e-09 0.0 0.0 2.881277e-09
000010 48 22 ac 2c 5d 6e 36 30 00 00 00 00 01 0b 8d 31
       4.89234e-12 6.636805e-10 0.0 4.104891e-09
000020 a7 f7 5d 31 00 00 00 00 97 c4 7f 30 5e 7b 29 30
       3.2300507e-09 0.0 9.304783e-10 6.1657157e-10
000030 12 97 82 31 0c a9 02 2e 25 23 5c 2f 72 69 2d 31
       3.8006727e-09 2.970872e-11 2.0021369e-10 2.5234752e-09
000040 83 c1 e8 30 ed 14 10 30 00 00 00 00 00 00 00 00
       1.6935221e-09 5.241663e-10 0.0 0.0
000050 9c 5a 4d 31 2f 6c 1e 30 b7 19 c1 30 32 8f dd 31
       2.9882932e-09 5.7633803e-10 1.4049907e-09 6.448226e-09
000060 5c 14 81 31 68 58 02 2f 5f d6 b7 2e 00 00 00 00
       3.7567087e-09 1.185484e-10 8.3599565e-11 0.0
000070 00 00 00 00 39 37 db 2f 00 00 00 00 00 00 00 00
       0.0 3.9875106e-10 0.0 0.0
000080 f1 09 c3 2f 00 00 00 00 9c 78 7b 32 de 41 58 32
       3.5477357e-10 0.0 1.4637546e-08 1.2587831e-08
000090 00 00 00 00 fa 6e 89 2d d9 01 ce 30 00 00 00 00
       0.0 1.562438e-11 1.4988998e-09 0.0
0000a0 39 88 08 30 42 2d be 31 fb 2c c3 30 fb cb dd 30
       4.9670096e-10 5.534873e-09 1.4200902e-09 1.6137841e-09
0000b0 d4 83 6d 30 fb dc 2b 30 b7 db 44 30 c7 76 49 30
       8.6407437e-10 6.252347e-10 7.161662e-10 7.3292167e-10
0000c0 c0 30 24 29 00 00 00 00 69 b7 dd 30 4d 7a 27 2f
       3.64576e-14 0.0 1.6131995e-09 1.5232011e-10
0000d0 fa d3 4a 2a 00 00 00 00 43 d2 90 2e f8 70 03 32
       1.8014748e-13 0.0 6.585712e-11 7.65089e-09
0000e0 18 8f 6a 30 ff 83 a9 30 ad 95 8e 31 13 7d 47 17
       8.533205e-10 1.2333884e-09 4.14976e-09 6.4458234e-25
0000f0 50 bd 5f 32 00 00 00 00 be 73 87 31 13 83 a4 31
       1.3023353e-08 0.0 3.9421755e-09 4.7879296e-09
000100 0e a2 59 34 00 00 00 00 00 00 00 00 f5 1c b7 33
       2.0268655e-07 0.0 0.0 8.526869e-08
000110 7a 3a 0a 2f e0 b6 81 31 00 00 00 00 e5 5d 5f 34
       1.2571802e-10 3.7751846e-09 0.0 2.0802652e-07
000120 a4 31 27 34 00 00 00 00 a2 bb eb 32 81 d6 96 32
       1.5571146e-07 0.0 2.7442926e-08 1.7559843e-08
000130 3b 3c 15 34 7a 18 63 2f 1a 54 d5 31 a2 9a c7 32
       1.3898618e-07 2.0654226e-10 6.208677e-09 2.3236968e-08
000140 25 1c 80 32 0f cb 9c 32 00 00 00 00 00 00 00 00
       1.491396e-08 1.825313e-08 0.0 0.0
000150 04 61 ca 33 44 8b 3d 32 93 24 17 33 65 ba 78 34
       9.424005e-08 1.1032913e-08 3.519069e-08 2.316461e-07
000160 a4 8e 4e 33 fc 67 98 31 98 f4 6d 2f 00 00 00 00
       4.8092843e-08 4.435604e-09 2.1641922e-10 0.0
000170 00 00 00 00 ad 57 c7 31 00 00 00 00 00 00 00 00
       0.0 5.80163e-09 0.0 0.0
000180 fd 8a 16 32 00 00 00 00 a2 11 2f 35 65 72 2b 35
       8.762751e-09 0.0 6.521824e-07 6.386893e-07
000190 00 00 00 00 50 39 e0 30 ca 18 24 32 00 00 00 00
       0.0 1.6314434e-09 9.551693e-09 0.0
0001a0 4b 31 d7 32 c9 d6 80 34 03 e0 68 33 07 e6 dd 32
       2.505171e-08 2.3998135e-07 5.4220447e-08 2.583239e-08
0001b0 13 f1 94 32 57 3d 4c 33 89 e0 bd 32 24 c3 24 31
       1.7339095e-08 4.755324e-08 2.2104603e-08 2.3976066e-09
0001c0 05 b9 99 27 00 00 00 00 8d b7 8c 33 6d ad 30 31
       4.266663e-15 0.0 6.552646e-08 2.5709952e-09
0001d0 97 0f 16 29 00 00 00 00 75 cd 40 2f 18 f5 1f 34
       3.3320213e-14 0.0 1.7535291e-10 1.4897194e-07
0001e0 38 ee 72 33 51 04 70 33 4c 38 10 34 b4 be dd 15
       5.6561674e-08 5.588328e-08 1.3431526e-07 8.9562066e-26
0001f0 d4 2f 19 35 00 00 00 00 4b cf 5a 33 61 ab 8a 34
       5.706654e-07 0.0 5.0945612e-08 2.5829198e-07
000200 05 27 63 1f 00 00 00 00 00 00 00 00 61 89 ff 1d
       4.8101396e-20 0.0 0.0 6.7639984e-21
000210 00 00 00 00 d3 c1 c8 19 00 00 00 00 8e fc b7 1e
       0.0 2.07578e-23 0.0 1.9480333e-20
000220 ff 6f 81 1f 00 00 00 00 97 b6 fb 1c 84 70 b7 1a
       5.481891e-20 0.0 1.6656985e-21 7.5868805e-23
000230 e8 10 e0 1c 00 00 00 00 00 00 00 00 42 23 a1 1e
       1.4827447e-21 0.0 0.0 1.706112e-20
000240 02 7c a7 1e 77 dd b7 1d 00 00 00 00 00 00 00 00
       1.7733101e-20 4.8668686e-21 0.0 0.0
000250 da 02 2c 1f 00 00 00 00 b7 b0 e2 1d ff 9e 24 1f
       3.6424775e-20 0.0 6.000442e-21 3.485987e-20
000260 83 8c 77 1f 00 00 00 00 00 00 00 00 00 00 00 00
       5.2420513e-20 0.0 0.0 0.0
000270 00 00 00 00 aa 9e 00 1c 00 00 00 00 00 00 00 00
       0.0 4.2556716e-22 0.0 0.0
000280 00 00 00 00 00 00 00 00 7d b1 fd 1f ce b0 bd 1f
       0.0 0.0 1.074433e-19 8.033711e-20
000290 00 00 00 00 9f ac a7 17 e7 5b 2d 1c 00 00 00 00
       0.0 1.0835698e-24 5.735968e-22 0.0
0002a0 00 00 00 00 93 10 bf 1f 96 91 50 1e 88 df 69 1d
       0.0 8.0919066e-20 1.1041535e-20 3.0952856e-21
0002b0 77 7b 1b 1a 00 00 00 00 a0 35 c1 1e 4b 72 24 1a
       3.2152983e-23 0.0 2.0456849e-20 3.400673e-23
0002c0 00 00 00 00 00 00 00 00 e5 96 f7 1d 00 00 00 00
       0.0 0.0 6.5536377e-21 0.0
0002d0 00 00 00 00 00 00 00 00 00 00 00 00 9a 2a a4 1f
       0.0 0.0 0.0 6.952718e-20
0002e0 00 00 00 00 a9 73 0a 1f 5e 2a 19 1e 00 00 00 00
       0.0 2.931831e-20 8.108514e-21 0.0
0002f0 d7 6a 34 20 00 00 00 00 ce 8e 24 1b 3d d0 4b 1f
       1.5281943e-19 0.0 1.3611905e-22 4.3159173e-20
000300 0f 1c f1 33 00 00 00 00 00 00 00 00 91 f9 40 33
       1.1227541e-07 0.0 0.0 4.4930463e-08
000310 de 2d 24 2f a4 cd ba 30 00 00 00 00 1b 2c 1c 34
       1.4932008e-10 1.3591728e-09 0.0 1.4544678e-07
000320 3f 86 de 33 00 00 00 00 3f 04 84 32 73 6a 84 32
       1.03621e-07 0.0 1.5368753e-08 1.541523e-08
000330 60 ac a6 33 06 38 00 2f 9c 3a 7a 31 c8 5f 54 32
       7.761332e-08 1.1661436e-10 3.6413104e-09 1.2361802e-08
000340 31 f0 e9 31 7a 70 22 32 00 00 00 00 00 00 00 00
       6.808499e-09 9.455215e-09 0.0 0.0
000350 51 1d 64 33 98 94 b5 31 a6 b8 9f 32 75 ba 17 34
       5.311205e-08 5.2846865e-09 1.8594005e-08 1.4130804e-07
000360 a1 fd de 32 35 f5 14 31 26 bb 1d 2e 00 00 00 00
       2.5959539e-08 2.1676219e-09 3.5863888e-11 0.0
000370 00 00 00 00 15 48 38 31 00 00 00 00 00 00 00 00
       0.0 2.6816498e-09 0.0 0.0
000380 6b 69 98 31 00 00 00 00 61 0d d7 34 1b a7 db 34
       4.435767e-09 0.0 4.0056605e-07 4.0913514e-07
000390 00 00 00 00 b7 62 b5 30 a2 98 9d 31 00 00 00 00
       0.0 1.319754e-09 4.5866537e-09 0.0
0003a0 4c 7f a4 32 15 76 1a 34 a7 92 24 33 2a 82 75 32
       1.915e-08 1.4385326e-07 3.8317605e-08 1.4290473e-08
0003b0 7f 44 0a 32 81 b5 f3 32 b5 10 7a 32 6b 61 17 30
       8.048231e-09 2.8371462e-08 1.4555714e-08 5.507192e-10
0003c0 56 bf 90 28 00 00 00 00 98 be 22 33 a6 c1 f7 30
       1.607019e-14 0.0 3.789191e-08 1.8026654e-09
0003d0 b9 ab 79 29 00 00 00 00 04 46 05 2e 26 42 af 33
       5.5438052e-14 0.0 3.0302885e-11 8.161105e-08
0003e0 83 93 31 33 ef 0f 16 33 3c e9 a2 33 00 00 00 00
       4.1345185e-08 3.4939088e-08 7.586138e-08 0.0
0003f0 14 8d c5 34 00 00 00 00 e5 3d c8 32 b3 17 38 34
       3.6796757e-07 0.0 2.331121e-08 1.7144957e-07

exp_avg f4 [128]
000000 8a 0c ce b5 59 bc 10 ba 04 00 00 00 c0 ec fa 39
       -1.5351845e-06 -0.000552123 6e-45 0.00047860108
000010 2a 8d 97 38 04 00 00 00 c4 fc a0 38 e3 12 53 37
       7.226535e-05 6e-45 7.676476e-05 1.2580977e-05
000020 9a 6b ba 39 1a 9a 8d 38 4c b1 df 39 f0 1d 67 39
       0.00035556854 6.7521076e-05 0.0004266597 0.0002204103
000030 00 00 00 00 88 73 f1 39 d1 a4 03 ba 00 00 00 00
       0.0 0.0004605318 -0.0005021813 0.0
000040 ed 7e 04 36 b8 fb ae b8 04 00 00 00 04 00 00 00
       1.9743413e-06 -8.343853e-05 6e-45 6e-45
000050 00 00 00 00 00 00 00 00 80 ff c8 b7 00 00 00 00
       0.0 0.0 -2.3960834e-05 0.0
000060 79 b2 1e 39 09 80 79 39 9c 79 61 b9 3a 0a 8b 34
       0.0001513454 0.00023794187 -0.00021502975 2.5898208e-07
000070 32 da 16 39 cc 5d c1 38 94 d2 e4 38 b7 bd 3e 39
       0.00014386399 9.220428e-05 0.000109111104 0.00018190486
000080 04 00 00 00 ae c3 6d 37 00 00 00 00 d0 43 2a 39
       6e-45 1.4171861e-05 0.0 0.00016237726
000090 00 00 00 00 56 e1 5d 39 84 04 d1 b9 2f e8 ae 39
       0.0 0.00021160147 -0.0003986695 0.00033360856
0000a0 04 00 00 80 a9 93 dd 34 d9 ac 9f 39 b0 6e 61 37
       -6e-45 4.1271895e-07 0.00030455625 1.34368165e-05
0000b0 04 00 00 00 ae 53 10 3a 35 38 4b b9 60 66 7c 38
       6e-45 0.00055056333 -0.00019380527 6.0176826e-05
0000c0 00 00 00 00 71 40 ba 39 67 9c d5 b8 4b e0 a9 38
       0.0 0.00035524697 -0.00010185764 8.100326e-05
0000d0 7a 06 8f 39 f5 0f 46 38 00 00 00 00 bc a5 4e 39
       0.0002727991 4.722174e-05 0.0 0.00019707432
0000e0 92 b8 30 ba ca 82 08 39 00 00 00 00 3e e1 bc b9
       -0.00067413703 0.00013018693 0.0 -0.00036025973
0000f0 00 00 00 00 08 2a 2e 32 00 00 00 00 06 04 23 39
       0.0 1.013769e-08 0.0 0.0001554639
000100 04 00 00 00 ca 5c ba 39 09 1f 1a ba 8a 16 c2 39
       6e-45 0.00035545818 -0.00058792584 0.00037019356
000110 fe e9 d0 38 f0 5b 75 39 04 00 00 00 04 00 00 00
       9.961797e-05 0.0002339927 6e-45 6e-45
000120 d8 1b f8 b9 00 00 00 00 ab 46 78 39 04 00 00 00
       -0.0004732299 0.0 0.00023677449 6e-45
000130 04 00 00 00 04 00 00 00 04 00 00 00 04 00 00 00
       6e-45 6e-45 6e-45 6e-45
000140 04 00 00 00 5f bd 7e 39 21 93 be 39 16 e1 ae b9
       6e-45 0.00024293874 0.00036349244 -0.00033355568
000150 3c 21 31 b9 00 00 00 00 b1 16 d0 b9 04 00 00 00
       -0.00016892416 0.0 -0.00039689758 6e-45
000160 11 ce 3a 39 69 61 df 38 00 00 00 00 00 00 00 00
       0.00017815108 0.00010651613 0.0 0.0
000170 e7 67 14 ba 72 b3 50 b7 02 b3 cf 37 04 00 00 00
       -0.00056612346 -1.24395465e-05 2.475968e-05 6e-45
000180 b1 9d c3 39 49 4b 66 39 e0 43 e2 39 af 62 37 39
       0.00037310788 0.00021962555 0.0004315665 0.00017489002
000190 aa 44 d9 39 04 00 00 00 00 00 00 00 00 00 00 00
       0.00041440624 6e-45 0.0 0.0
0001a0 4e 59 cd 38 96 5b ed 39 00 00 00 00 00 00 00 00
       9.791796e-05 0.000452724 0.0 0.0
0001b0 00 00 00 00 29 70 05 3a 79 7f 89 b4 04 00 00 00
       0.0 0.00050902605 -2.5610987e-07 6e-45
0001c0 00 00 00 00 81 bc 27 b9 08 67 1a ba 00 00 00 00
       0.0 -0.00015996584 -0.00058899866 0.0
0001d0 4a 40 d4 b9 21 61 3a 39 8a a4 c2 39 f4 80 de b9
       -0.0004048369 0.00017774526 0.00037125155 -0.00042439217
0001e0 52 bf 11 39 70 49 8f b7 d3 1b de 38 d6 8f 2f 39
       0.0001389955 -1.7081125e-05 0.000105909676 0.00016742884
0001f0 a5 00 03 39 57 12 de b9 11 db 07 39 00 00 00 00
       0.00012493374 -0.00042356804 0.00012956212 0.0

exp_avg_sq f4 [128]
000000 61 36 d3 32 3f 0f 25 35 61 81 88 20 d8 32 c7 34
       2.4588362e-08 6.1489476e-07 2.3124912e-19 3.7103632e-07
000010 0f b7 39 32 77 ba 17 15 56 e2 6b 32 dd ab 0f 31
       1.081004e-08 3.0641302e-26 1.3730263e-08 2.0906932e-09
000020 7f 38 71 34 36 db fb 31 1f a4 b3 34 b9 d7 5a 33
       2.2465427e-07 7.329983e-09 3.3460762e-07 5.095328e-08
000030 00 00 00 00 47 a7 c5 34 47 49 07 35 00 00 00 00
       0.0 3.681582e-07 5.039805e-07 0.0
000040 b8 b3 bd 32 af 5d d5 32 1c 7d 8a 23 73 93 dd 22
       2.2084222e-08 2.4839066e-08 1.5014976e-17 6.005829e-18
000050 00 00 00 00 00 00 00 00 66 40 68 32 00 00 00 00
       0.0 0.0 1.351882e-08 0.0
000060 a0 b3 4b 34 54 63 f6 33 43 4c f8 33 aa b8 1d 32
       1.8971195e-07 1.1473335e-07 1.1562272e-07 9.1805905e-09
000070 53 9a 81 33 85 8e b7 32 c4 23 15 33 67 a3 7b 34
       6.035102e-08 2.1368814e-08 3.4724295e-08 2.3435642e-07
000080 3a 51 bb 1d 97 d0 31 32 00 00 00 00 3d 65 2e 33
       4.9582474e-21 1.0350184e-08 0.0 4.0604608e-08
000090 00 00 00 00 3d d4 a4 33 12 21 e3 34 2d b9 26 34
       0.0 7.675451e-08 4.2306107e-07 1.5527321e-07
0000a0 48 f4 1c 24 25 93 7b 30 b1 44 3d 34 06 da 9e 32
       3.4034022e-17 9.1522373e-10 1.7626986e-07 1.8492766e-08
0000b0 aa 41 58 23 e7 1c 0d 35 b4 54 9b 33 41 ed 0e 32
       1.1723288e-17 5.256865e-07 7.2331574e-08 8.319433e-09
0000c0 00 00 00 00 60 74 68 34 7e 16 05 34 87 63 5f 32
       0.0 2.164902e-07 1.2394773e-07 1.3002938e-08
0000d0 5f fa 21 34 a6 d8 58 32 00 00 00 00 6b 35 9e 33
       1.5085378e-07 1.2622115e-08 0.0 7.367165e-08
0000e0 8e fb 77 35 3d 2e f6 32 00 00 00 00 5a 8d 84 34
       9.238073e-07 2.8659196e-08 0.0 2.4689763e-07
0000f0 00 00 00 00 20 bc b9 30 00 00 00 00 e4 58 43 33
       0.0 1.351399e-09 0.0 4.548282e-08
000100 66 90 2c 24 82 f4 bc 34 a0 bb 3d 35 17 4c 76 34
       3.7418865e-17 3.5195632e-07 7.0681017e-07 2.2938217e-07
000110 fb e9 ae 32 61 52 86 33 7d 06 b2 1f 44 a6 a6 1a
       2.0362668e-08 6.254846e-08 7.5396666e-20 6.892461e-23
000120 14 4d eb 34 00 00 00 00 37 3f c7 33 69 a4 21 22
       4.3828243e-07 0.0 9.278158e-08 2.1906607e-18
000130 41 51 b1 20 9d 95 b1 24 02 f0 a1 23 9d 89 0a 1d
       3.0038736e-19 7.701497e-17 1.7557302e-17 1.8335292e-21
000140 aa cc 97 24 85 33 cf 33 1f 04 41 35 e2 3f f7 33
       6.5832526e-17 9.64856e-08 7.19041e-07 1.1513454e-07
000150 05 25 02 33 00 00 00 00 3b e7 a6 34 57 77 a2 23
       3.0301653e-08 0.0 3.1088152e-07 1.7614618e-17
000160 80 86 c3 33 04 57 d1 32 00 00 00 00 00 00 00 00
       9.1048605e-08 2.4370372e-08 0.0 0.0
000170 0f 45 41 35 96 62 1e 32 5a 84 bb 31 93 cc 10 1e
       7.1998596e-07 9.219226e-09 5.457463e-09 7.6656015e-21
000180 d3 92 84 34 7e 44 18 34 f7 33 af 34 1f 33 63 33
       2.4693745e-07 1.418102e-07 3.26341e-07 5.289905e-08
000190 ae 12 8b 34 c9 14 d7 24 00 00 00 00 00 00 00 00
       2.590436e-07 9.32766e-17 0.0 0.0
0001a0 0e d4 19 32 4d 93 7e 34 00 00 00 00 00 00 00 00
       8.953988e-09 2.3709181e-07 0.0 0.0
0001b0 00 00 00 00 e3 53 ed 34 85 5b a2 32 76 26 e3 25
       0.0 4.4205726e-07 1.89009e-08 3.9404285e-16
0001c0 00 00 00 00 f8 1d 17 33 3d ec 30 35 00 00 00 00
       0.0 3.5184684e-08 6.590888e-07 0.0
0001d0 b0 f4 c7 34 8d 8f 6c 33 2b f3 23 34 c3 5f c1 34
       3.7244672e-07 5.507859e-08 1.5269022e-07 3.6018727e-07
0001e0 b6 ea 1a 33 e4 a8 01 31 da d9 09 33 dd eb 4b 33
       3.6069387e-08 1.8867974e-09 3.2095933e-08 4.7479137e-08
0001f0 4f e1 ea 32 af e7 cd 34 c9 a5 01 33 00 00 00 00
       2.7343644e-08 3.8352798e-07 3.0185934e-08 0.0

exp_avg f4 [128, 128]
000000 a3 ea ea 32 8c 3a 1c 38 04 00 00 80 04 2d 06 38
       2.7347886e-08 3.7247824e-05 -6e-45 3.1990014e-05
000010 86 a0 dd 32 00 00 00 00 21 80 2f 38 e9 44 55 b2
       2.5800784e-08 0.0 4.184258e-05 -1.24139e-08
000020 89 91 00 38 3e 92 db 37 b4 de a6 37 9f 2b df 37
       3.065312e-05 2.6174934e-05 1.9892446e-05 2.6603984e-05
000030 00 00 00 00 1a 03 f2 37 20 14 76 37 00 00 00 00
       0.0 2.8850092e-05 1.4667428e-05 0.0
000040 f5 2b 70 33 75 c9 15 38 04 00 00 80 04 00 00 80
       5.5919333e-08 3.571199e-05 -6e-45 -6e-45
000050 00 00 00 00 00 00 00 00 31 3d 08 38 00 00 00 00
       0.0 0.0 3.2481916e-05 0.0
000060 bb 4c f8 33 0c c1 d2 37 57 4a 3e 36 70 57 3b b3
       1.1562357e-07 2.5123845e-05 2.8355478e-06 -4.3618854e-08
000070 84 b1 2a 38 af f0 b9 36 00 d1 1a 38 26 69 c1 35
       4.0696483e-05 5.541449e-06 3.6911108e-05 1.4410223e-06
000080 04 00 00 00 c4 fc 03 34 00 00 00 00 bd 7c e0 37
       6e-45 1.2292281e-07 0.0 2.6760967e-05
000090 00 00 00 00 ab 56 19 37 a1 c5 dc 37 b2 37 93 37
       0.0 9.13969e-06 2.6318072e-05 1.75497e-05
0000a0 04 00 00 80 fb 4c 3e b4 e3 93 8a 38 06 7d d0 37
       -6e-45 -1.7723134e-07 6.607899e-05 2.485375e-05
0000b0 04 00 00 80 6e 30 b3 37 29 93 cd 37 4d 62 2b 36
       -6e-45 2.1361015e-05 2.4506431e-05 2.5538204e-06
0000c0 00 00 00 00 b7 1d 1a 38 57 88 a7 36 c0 89 dd 36
       0.0 3.6744135e-05 4.99286e-06 6.6023495e-06
0000d0 96 85 8c 37 23 34 c5 34 00 00 00 00 f6 65 7b 38
       1.6751506e-05 3.6732044e-07 0.0 5.9938022e-05
0000e0 40 76 77 37 cc a2 18 38 00 00 00 00 ac ee af 37
       1.47498795e-05 3.639124e-05 0.0 2.0972766e-05
0000f0 00 00 00 00 a3 47 8e ad 00 00 00 00 bb e4 4c 38
       0.0 -1.6175344e-11 0.0 4.8850412e-05
000100 04 00 00 80 d6 83 10 37 0d d6 b4 37 5f 6e 12 38
       -6e-45 8.613764e-06 2.1557347e-05 3.4911904e-05
000110 92 d8 c1 37 6c 43 43 37 04 00 00 80 04 00 00 80
       2.3108241e-05 1.1638604e-05 -6e-45 -6e-45
000120 38 fb 0c 38 00 00 00 00 da da eb 37 04 00 00 80
       3.3612567e-05 0.0 2.8116094e-05 -6e-45
000130 04 00 00 80 04 00 00 80 04 00 00 80 04 00 00 80
       -6e-45 -6e-45 -6e-45 -6e-45
000140 04 00 00 00 9d 0f 8e 38 9a a7 7d 36 6d 5d aa 37
       6e-45 6.773996e-05 3.7797495e-06 2.0309084e-05
000150 53 97 b8 37 00 00 00 00 11 0e aa 37 04 00 00 00
       2.2004975e-05 0.0 2.027213e-05 6e-45
000160 01 fa 7b 37 3c 98 8b 38 00 00 00 00 00 00 00 00
       1.5018974e-05 6.656392e-05 0.0 0.0
000170 31 f2 85 37 91 c4 5d b5 2e 98 f0 37 04 00 00 00
       1.5967615e-05 -8.261496e-07 2.8681094e-05 6e-45
000180 89 c3 3b 37 1e 3a de 36 e5 2f 6f 37 ce 5c 4e 38
       1.1191595e-05 6.6228813e-06 1.4256661e-05 4.920066e-05
000190 a8 4a f2 37 04 00 00 00 00 00 00 00 00 00 00 00
       2.8883413e-05 6e-45 0.0 0.0
0001a0 e2 b6 c2 37 41 59 59 37 00 00 00 00 00 00 00 00
       2.3211764e-05 1.2954989e-05 0.0 0.0
0001b0 00 00 00 00 0d ae d6 37 39 00 3f b3 04 00 00 00
       0.0 2.5591837e-05 -4.4470855e-08 6e-45
0001c0 00 00 00 00 7b 63 f7 36 7a be d5 37 00 00 00 00
       0.0 7.3727547e-06 2.5480276e-05 0.0
0001d0 cc 69 08 38 2a 82 0e 38 c9 a2 57 37 07 77 38 37
       3.2523458e-05 3.3976663e-05 1.28529e-05 1.0994968e-05
0001e0 58 55 41 37 37 01 3e 38 e0 55 d5 37 6d 75 73 38
       1.1523567e-05 4.530066e-05 2.5431567e-05 5.8045076e-05
0001f0 0c 25 c6 37 ae 7e 1a 38 7a 33 51 38 00 00 00 00
       2.362069e-05 3.683444e-05 4.9877424e-05 0.0
000200 c3 7f ac 33 0b eb ab b6 04 00 00 00 6c 13 03 b7
       8.032614e-08 -5.1235597e-06 6e-45 -7.8127305e-06
000210 48 09 67 b2 04 00 00 80 b1 07 f8 b6 cb 5d 07 34
       -1.344808e-08 -6e-45 -7.3918713e-06 1.2606976e-07
000220 c3 97 f9 b6 dd 16 be b6 6f 26 db b6 0a 2c db b6
       -7.4384457e-06 -5.665103e-06 -6.531183e-06 -6.5318354e-06
000230 00 00 00 00 0c b8 f4 b6 28 b0 97 b5 00 00 00 00
       0.0 -7.2931925e-06 -1.1301645e-06 0.0
000240 e7 bb c4 b2 2c cb 93 b6 04 00 00 00 04 00 00 00
       -2.2902851e-08 -4.4045937e-06 6e-45 6e-45
000250 00 00 00 00 00 00 00 00 39 59 8f b6 00 00 00 00
       0.0 0.0 -4.272119e-06 0.0
000260 c3 ef be b3 2f 55 b7 b6 17 6a 28 b5 1e 2b ff 32
       -8.891177e-08 -5.4637417e-06 -6.273926e-07 2.9705514e-08
000270 b9 5c e2 b6 9d 62 38 b6 6c 4e db b6 ec 07 4c b5
       -6.746119e-06 -2.7475537e-06 -6.535838e-06 -7.600745e-07
000280 04 00 00 80 f5 c1 8c 34 00 00 00 00 5b 89 d3 b6
       -6e-45 2.6218154e-07 0.0 -6.3042803e-06
000290 00 00 00 00 21 4f 79 b6 b8 62 88 b6 51 39 b3 b6
       0.0 -3.714995e-06 -4.064608e-06 -5.341288e-06
0002a0 04 00 00 80 3f ac f6 32 b3 fa 5b b7 2e 03 1a b6
       -6e-45 2.8716498e-08 -1.3111788e-05 -2.294964e-06
0002b0 04 00 00 80 72 bc f1 b6 86 e2 83 b6 e3 c3 b1 b5
       -6e-45 -7.2042976e-06 -3.930475e-06 -1.3244538e-06
0002c0 00 00 00 00 5b 50 0d b7 dc a3 11 b6 6f 6a e6 b5
       0.0 -8.422964e-06 -2.1702062e-06 -1.7167312e-06
0002d0 11 2a ae b6 a3 16 f8 34 00 00 00 00 ab a1 3e b7
       -5.1905013e-06 4.621007e-07 0.0 -1.1362524e-05
0002e0 c6 ba 1f b5 d9 62 e8 b6 00 00 00 00 75 87 d5 b5
       -5.9503907e-07 -6.925646e-06 0.0 -1.590916e-06
0002f0 00 00 00 00 45 f4 d7 af 00 00 00 00 19 5e 1a b7
       0.0 -3.9281836e-10 0.0 -9.201024e-06
000300 04 00 00 80 b3 45 7d b6 f0 b2 e8 b5 a4 2b 16 b7
       -6e-45 -3.7740508e-06 -1.7337425e-06 -8.950858e-06
000310 b0 bf 86 b6 b4 06 96 b6 04 00 00 80 04 00 00 80
       -4.0158266e-06 -4.4711287e-06 -6e-45 -6e-45
000320 28 78 92 b6 00 00 00 00 6b 13 de b6 00 00 00 00
       -4.365127e-06 0.0 -6.618376e-06 0.0
000330 04 00 00 00 04 00 00 80 04 00 00 00 04 00 00 00
       6e-45 -6e-45 6e-45 6e-45
000340 04 00 00 00 b1 a2 5a b7 86 f4 2e b6 33 ec 20 b6
       6e-45 -1.3031692e-05 -2.6070352e-06 -2.3979344e-06
000350 f9 db 50 b6 00 00 00 00 4b 51 ad b5 04 00 00 00
       -3.1122456e-06 0.0 -1.2913164e-06 6e-45
000360 bb af 41 b6 bc 67 3d b7 00 00 00 00 00 00 00 00
       -2.886153e-06 -1.128943e-05 0.0 0.0
000370 bc d8 b5 b5 fa 9c aa 32 9d bd b5 b6 04 00 00 80
       -1.3548629e-06 1.986199e-08 -5.4162942e-06 -6e-45
000380 c8 b9 9d b6 24 03 47 b6 b3 c4 c0 b6 ef 50 17 b7
       -4.7005924e-06 -2.9655139e-06 -5.7449447e-06 -9.019145e-06
000390 91 07 f0 b6 04 00 00 80 00 00 00 00 00 00 00 00
       -7.153438e-06 -6e-45 0.0 0.0
0003a0 77 63 b8 b6 9f 20 9c b6 00 00 00 00 00 00 00 00
       -5.4952066e-06 -4.65296e-06 0.0 0.0
0003b0 00 00 00 00 b1 8d f3 b6 a8 ad bf 32 04 00 00 00
       0.0 -7.2584594e-06 2.2314296e-08 6e-45
0003c0 00 00 00 00 0f 32 7d 34 b7 c1 34 b6 00 00 00 00
       0.0 2.3580672e-07 -2.6934847e-06 0.0
0003d0 2b 72 9f b6 2c fd dc b6 2d 0e ad b6 11 88 51 b5
       -4.75186e-06 -6.585984e-06 -5.157452e-06 -7.805657e-07
0003e0 9c c0 6b b6 5e a5 06 b7 65 2c 88 b6 c1 33 34 b7
       -3.5129842e-06 -8.025525e-06 -4.058284e-06 -1.0740886e-05
0003f0 e3 35 71 b6 b7 18 b2 b6 6c 9c 17 b7 00 00 00 00
       -3.5943165e-06 -5.3076906e-06 -9.036721e-06 0.0
