001-machine_learning/data/00001-MLP-temperature/014_checkpoint.pth (torch_old, 409235 bytes, 30 tensors)

exp_avg f4 [64, 4]
0	0x00000000	0.0
1	0x33924cdb	6.812635e-08
2	0x32d0efca	2.432343e-08
3	0x326df84d	1.3851673e-08
4	0x38a9016d	8.0588135e-05
5	0x384aaa95	4.831942e-05
6	0x381b7e12	3.7072292e-05
7	0x377d4137	1.5095159e-05
8	0x00000000	0.0
9	0x00000000	0.0
10	0x00000000	0.0
11	0x00000000	0.0
12	0xb2f3534a	-2.8326799e-08
13	0xb43d848b	-1.7650216e-07
14	0xb39af122	-7.2150456e-08
15	0xb3035162	-3.057483e-08
16	0x37fac30e	2.9893152e-05
17	0x36dbd98a	6.5520335e-06
18	0x377af562	1.4958294e-05
19	0x3606e6a2	2.0101802e-06
20	0xb8b3229e	-8.541833e-05
21	0xb843504e	-4.6566412e-05
22	0xb81ee9f1	-3.788801e-05
23	0xb6b66659	-5.4359375e-06
24	0x00000000	0.0
25	0x00000000	0.0
26	0x00000000	0.0
27	0x00000000	0.0
28	0xb7d8102c	-2.5756737e-05
29	0xb7bcc730	-2.25041e-05
30	0xb78c68fb	-1.6738186e-05
31	0xb7c98bd4	-2.402618e-05
32	0x38a5b1a6	7.900903e-05
33	0x384d50b3	4.8950966e-05
34	0x380361cb	3.132391e-05
35	0xb4a35c10	-3.04281e-07
36	0xb83c9fab	-4.4971395e-05
37	0xb790d315	-1.726443e-05
38	0xb7c60bea	-2.3608987e-05
39	0x370a8d08	8.258277e-06
40	0xb82d57fb	-4.1328352e-05
41	0xb79a9fc4	-1.8432627e-05
42	0xb7c943e1	-2.3992676e-05
43	0xb787a3c8	-1.616952e-05
44	0xb55de9c1	-8.266907e-07
45	0xb5694523	-8.689987e-07
46	0x33e2c326	1.05594424e-07
47	0xb4c0bf86	-3.5902139e-07
48	0xb896da96	-7.193272e-05
49	0xb80cde38	-3.358556e-05
50	0xb8056c84	-3.1810734e-05
51	0x36c2a544	5.80089e-06
52	0xb7f39449	-2.9036908e-05
53	0xb783438c	-1.564787e-05
54	0xb788bb5f	-1.6299715e-05
55	0xb7082a5f	-8.116097e-06
56	0x38997bbd	7.3186566e-05
57	0x380ff264	3.43196e-05
58	0x381d8996	3.7559854e-05
59	0x37ac4698	2.053687e-05
60	0xb85197b2	-4.997076e-05
61	0xb822095f	-3.8632537e-05
62	0xb76af3f8	-1.400429e-05
63	0x35bf5950	1.4256602e-06
64	0x00000000	0.0
65	0x00000000	0.0
66	0x00000000	0.0
67	0x00000000	0.0
68	0xb706021e	-7.987515e-06
69	0xb6fd7a28	-7.5542084e-06
70	0xb6cbdc9b	-6.0755533e-06
71	0xb6a0f0dd	-4.7964118e-06
72	0xb827479f	-3.9882605e-05
73	0xb7e32871	-2.707934e-05
74	0xb7c22f81	-2.3148723e-05
75	0xb77f527a	-1.52183875e-05
76	0x36c95820	6.000526e-06
77	0x35de43f6	1.6560068e-06
78	0x3680a1c5	3.8335297e-06
79	0x36826265	3.8857565e-06
80	0x00000000	0.0
81	0x00000000	0.0
82	0x00000000	0.0
83	0x00000000	0.0
84	0xb776072e	-1.4664414e-05
85	0xb6fb5c80	-7.4911513e-06
86	0xb69d2be7	-4.6840755e-06
87	0xb49b794b	-2.8959252e-07
88	0xb5deb688	-1.6593413e-06
89	0xb4d9ef95	-4.059372e-07
90	0xb5ab6129	-1.276877e-06
91	0xb58c6851	-1.0461173e-06
92	0x38020d90	3.1007046e-05
93	0x3808c648	3.260959e-05
94	0x3736eda9	1.090338e-05
95	0x36962e86	4.4757644e-06
96	0xb81cceed	-3.7386013e-05
97	0xb79d3e99	-1.8745008e-05
98	0xb7d2cc11	-2.5128977e-05
99	0xb7d63d47	-2.5539322e-05
100	0x00000000	0.0
101	0x00000000	0.0
102	0x00000000	0.0
103	0x00000000	0.0
104	0x38934a59	7.0233546e-05
105	0x38102bd1	3.4373083e-05
106	0x380a4b6d	3.297201e-05
107	0x3609b180	2.051791e-06
108	0xb89083ff	-6.891041e-05
109	0xb814aa2f	-3.5444446e-05
110	0xb8203184	-3.8193088e-05
111	0xb78216e2	-1.5507863e-05
112	0xb7b4bd94	-2.1545951e-05
113	0xb792c119	-1.7494474e-05
114	0xb7433459	-1.1635094e-05
115	0xb7535bba	-1.2597937e-05
116	0xb7b08c10	-2.1046057e-05
117	0xb64d2d02	-3.0573578e-06
118	0xb76d370f	-1.413912e-05
119	0xb738c50a	-1.1013131e-05
120	0xb7ef5744	-2.8531656e-05
121	0xb796f8ae	-1.7997194e-05
122	0xb71b1f25	-9.245971e-06
123	0xb709eddf	-8.22122e-06
124	0x00000000	0.0
125	0x00000000	0.0
126	0x00000000	0.0
127	0x00000000	0.0
128	0x38a72434	7.969924e-05
129	0x3838becf	4.4046723e-05
130	0x382663e1	3.9670504e-05
131	0x371f3555	9.489556e-06
132	0xb85fa183	-5.3317763e-05
133	0xb7cf9f3a	-2.4750469e-05
134	0xb7c78a1a	-2.3786957e-05
135	0x362361e1	2.4345866e-06
136	0x3887d54d	6.477032e-05
137	0x379b7555	1.8532077e-05
138	0x37ec60fd	2.8178556e-05
139	0xb7997d80	-1.8297462e-05
140	0x37908414	1.7227641e-05
141	0x36e0c1c7	6.698279e-06
142	0xb4e876c0	-4.329977e-07
143	0xb6c31c63	-5.8147575e-06
144	0x00000000	0.0
145	0xb134ecfe	-2.6328162e-09
146	0x3163a5bb	3.3127054e-09
147	0x31adf926	5.0632876e-09
148	0x00000000	0.0
149	0x00000000	0.0
150	0x00000000	0.0
151	0x00000000	0.0
152	0xb812148d	-3.4828252e-05
153	0xb7cd9072	-2.4505167e-05
154	0xb79855e3	-1.8159806e-05
155	0xb727eef0	-1.0009608e-05
156	0xb7aa965f	-2.0335601e-05
157	0xb7ad8c33	-2.0688492e-05
158	0xb62b94af	-2.556753e-06
159	0x359b9867	1.1592755e-06
160	0xb7c6cb18	-2.3698012e-05
161	0xb76bd1d1	-1.4055943e-05
162	0xb7604c54	-1.3369212e-05
163	0xb66a220e	-3.488854e-06
164	0x37f3c246	2.9058323e-05
165	0x36e99097	6.9607736e-06
166	0x37796c34	1.486675e-05
167	0x36abd618	5.121121e-06
168	0x3782361d	1.5522406e-05
169	0xb6b93651	-5.519753e-06
170	0x369e53ca	4.7185213e-06
171	0xb6ecbc71	-7.0552856e-06
172	0x00000000	0.0
173	0x00000000	0.0
174	0x00000000	0.0
175	0x00000000	0.0
176	0x32a3498b	1.9009141e-08
177	0x2f7a9b85	2.2792619e-10
178	0x32a1c19b	1.8830908e-08
179	0x30bb6cc9	1.3636959e-09
180	0xb65f9d5d	-3.3321187e-06
181	0xb72742fa	-9.96957e-06
182	0xb6c05ce0	-5.732858e-06
183	0xb698c94a	-4.553386e-06
184	0xb4f2e632	-4.5243502e-07
185	0x334ad054	4.7221263e-08
186	0xb42f576a	-1.6329946e-07
187	0x338fef0e	6.70244e-08
188	0xb8520db8	-5.008068e-05
189	0xb7e5e859	-2.7407123e-05
190	0xb7cc50dc	-2.4356348e-05
191	0xb6dd723d	-6.5996123e-06
192	0x00000000	0.0
193	0x00000000	0.0
194	0x00000000	0.0
195	0x00000000	0.0
196	0xb7e0ffe5	-2.6822041e-05
197	0xb75f7dec	-1.3321154e-05
198	0xb76df4d4	-1.4183304e-05
199	0xb6f64513	-7.3394126e-06
200	0xb7799112	-1.4875333e-05
201	0xb74d1331	-1.22234205e-05
202	0xb6e08918	-6.69168e-06
203	0xb6a61f27	-4.950812e-06
204	0x00000000	0.0
205	0x00000000	0.0
206	0x00000000	0.0
207	0x00000000	0.0
208	0xb8af4b56	-8.358683e-05
209	0xb835acdc	-4.331475e-05
210	0xb8426bf6	-4.635375e-05
211	0x35f6c42c	1.8385522e-06
212	0x3790797b	1.7222706e-05
213	0x370398d1	7.843789e-06
214	0x368410cc	3.935862e-06
215	0x3732f750	1.0667209e-05
216	0x00000000	0.0
217	0x00000000	0.0
218	0x00000000	0.0
219	0x00000000	0.0
220	0x38da8ebc	0.000104216364
221	0x389921e7	7.301923e-05
222	0x37bccf48	2.250787e-05
223	0xb6fda85c	-7.559587e-06
224	0x3738de09	1.1018951e-05
225	0x379f26dc	1.8972372e-05
226	0xb6fa3723	-7.4569994e-06
227	0xb763018a	-1.3530613e-05
228	0x00000000	0.0
229	0x3386388e	6.2501485e-08
230	0x33237e44	3.8066233e-08
231	0x32dd4a73	2.5761642e-08
232	0xb28649fe	-1.56333e-08
233	0xb49f9829	-2.972677e-07
234	0xb44edf39	-1.9266453e-07
235	0xb230bf83	-1.0288093e-08
236	0x00000000	0.0
237	0xb308c941	-3.1848007e-08
238	0x326468c3	1.3295167e-08
239	0x30230e88	5.9319705e-10
240	0xb7d6941b	-2.5579755e-05
241	0xb78f8eae	-1.7113369e-05
242	0xb6eac6a7	-6.9968696e-06
243	0x37322a96	1.0619542e-05
244	0xb836a771	-4.3548123e-05
245	0xb7b0abc3	-2.1060818e-05
246	0xb7d748e3	-2.5663938e-05
247	0xb7370821	-1.0909543e-05
248	0xb6a12bd2	-4.8032753e-06
249	0xb74ccd14	-1.2207096e-05
250	0xb54e9f4f	-7.6972805e-07
251	0x3657a8e1	3.2135797e-06
252	0x80000004	-6e-45
253	0x80000004	-6e-45
254	0x2da4f7b6	1.8754647e-11
255	0x2b2a7529	6.0558725e-13

exp_avg_sq f4 [64, 4]
0	0x00000000	0.0
1	0x315cca13	3.212908e-09
2	0x2f45d3e1	1.799232e-10
3	0x2d3364bd	1.019734e-11
4	0x3404cf8a	1.236896e-07
5	0x33b9ac9a	8.64613e-08
6	0x3391147e	6.755816e-08
7	0x3315586c	3.4772185e-08
8	0x00000000	0.0
9	0x00000000	0.0
10	0x00000000	0.0
11	0x00000000	0.0
12	0x2da4f122	1.8751726e-11
13	0x31e5aa31	6.6841257e-09
14	0x31f51b27	7.1335253e-09
15	0x31e4e15f	6.661295e-09
16	0x33858cb9	6.2188924e-08
17	0x32c827c6	2.3301151e-08
18	0x325d3402	1.2875718e-08
19	0x3205c708	7.786873e-09
20	0x344776c7	1.857653e-07
21	0x340c7331	1.3080422e-07
22	0x340450ab	1.2322805e-07
23	0x3339181b	4.3095593e-08
24	0x00000000	0.0
25	0x00000000	0.0
26	0x00000000	0.0
27	0x00000000	0.0
28	0x322f1002	1.018998e-08
29	0x311114e7	2.1112159e-09
30	0x316da23d	3.458026e-09
31	0x3138d60d	2.6897198e-09
32	0x34005b65	1.1954178e-07
33	0x33bc3686	8.76435e-08
34	0x33630338	5.2855484e-08
35	0x31ece6cf	6.894744e-09
36	0x33d94247	1.0116906e-07
37	0x33a19639	7.524472e-08
38	0x33922697	6.805674e-08
39	0x32c15b4e	2.2509678e-08
40	0x339e8f8d	7.38356e-08
41	0x32eac4ea	2.7330731e-08
42	0x333463ab	4.2000163e-08
43	0x32b5bf13	2.1158064e-08
44	0x2ca7fd08	4.7745176e-12
45	0x2fb5d285	3.307329e-10
46	0x2e7ab120	5.7000737e-11
47	0x2fa56880	3.0087577e-10
48	0x343e844c	1.7743258e-07
49	0x3406e0ca	1.25615e-07
50	0x338f3cb2	6.669997e-08
51	0x320d3334	8.218922e-09
52	0x32aca02f	2.0096278e-08
53	0x32c9b8c0	2.3483494e-08
54	0x32df61da	2.6005115e-08
55	0x32494f80	1.1717816e-08
56	0x3438c74d	1.720884e-07
57	0x33aece15	8.1399925e-08
58	0x33989ebd	7.106926e-08
59	0x333ad64a	4.3501394e-08
60	0x326f79d2	1.393933e-08
61	0x31be1dad	5.5331015e-09
62	0x317a3cff	3.641446e-09
63	0x2f8750c3	2.4613742e-10
64	0x00000000	0.0
65	0x00000000	0.0
66	0x00000000	0.0
67	0x00000000	0.0
68	0x302e089f	6.331308e-10
69	0x323165ae	1.0325875e-08
70	0x3188ce41	3.9815693e-09
71	0x31f717ce	7.1913524e-09
72	0x32c16e96	2.2518446e-08
73	0x325f5338	1.299923e-08
74	0x3297c8aa	1.7669965e-08
75	0x32159a99	8.708093e-09
76	0x32994ec8	1.784737e-08
77	0x3150a427	3.0361293e-09
78	0x329a945c	1.7995426e-08
79	0x321d0ffa	9.142235e-09
80	0x00000000	0.0
81	0x00000000	0.0
82	0x00000000	0.0
83	0x00000000	0.0
84	0x32c2d111	2.2679645e-08
85	0x3341f74a	4.5161222e-08
86	0x33812055	6.012912e-08
87	0x3209e410	8.026305e-09
88	0x31a458bc	4.783116e-09
89	0x2ea29410	7.393208e-11
90	0x3160771c	3.2663996e-09
91	0x30a73606	1.2166204e-09
92	0x3198b1eb	4.444009e-09
93	0x30edc41e	1.7299759e-09
94	0x30bb6620	1.3635066e-09
95	0x2ff05513	4.3716195e-10
96	0x33900f63	6.7083214e-08
97	0x33168b9c	3.505157e-08
98	0x3381cab9	6.0439056e-08
99	0x332c0093	4.0047393e-08
100	0x00000000	0.0
101	0x00000000	0.0
102	0x00000000	0.0
103	0x00000000	0.0
104	0x3423583c	1.5212657e-07
105	0x33e28438	1.05479955e-07
106	0x33b69561	8.502207e-08
107	0x32bc62b6	2.1930969e-08
108	0x3411e5f1	1.358783e-07
109	0x338f5500	6.674418e-08
110	0x33d18d7a	9.758055e-08
111	0x331b603f	3.6176285e-08
112	0x30b982dc	1.3497714e-09
113	0x3012d800	5.3421445e-10
114	0x2fa6385c	3.023527e-10
115	0x301797b8	5.5149085e-10
116	0x333e75ac	4.4344844e-08
117	0x32f92138	2.9002521e-08
118	0x3311cf38	3.3948908e-08
119	0x32cde94a	2.3971229e-08
120	0x32c32149	2.2716124e-08
121	0x3104b77d	1.931283e-09
122	0x3226802f	9.691617e-09
123	0x3192c919	4.2720214e-09
124	0x00000000	0.0
125	0x00000000	0.0
126	0x00000000	0.0
127	0x00000000	0.0
128	0x34243590	1.5293176e-07
129	0x33d4b040	9.904079e-08
130	0x33ce45aa	9.605294e-08
131	0x32eb6894	2.7405157e-08
132	0x33d151f4	9.747228e-08
133	0x339ea55b	7.387526e-08
134	0x335735b0	5.0107417e-08
135	0x31d2bf11	6.133526e-09
136	0x34958b50	2.7854776e-07
137	0x33ec8455	1.10136774e-07
138	0x33bf5d43	8.911095e-08
139	0x32eef419	2.781785e-08
140	0x329266c7	1.7043375e-08
141	0x3261f867	1.3153204e-08
142	0x31da0e85	6.3462857e-09
143	0x2fe59eb3	4.176762e-10
144	0x00000000	0.0
145	0x3058ac12	7.882487e-10
146	0x2ed8bbc8	9.8558994e-11
147	0x2d037a32	7.473621e-12
148	0x00000000	0.0
149	0x00000000	0.0
150	0x00000000	0.0
151	0x00000000	0.0
152	0x32a000dd	1.8626844e-08
153	0x318f4bd5	4.170469e-09
154	0x3249a7c6	1.1737887e-08
155	0x3170f95d	3.5066343e-09
156	0x318413ff	3.843979e-09
157	0x3297626a	1.7623467e-08
158	0x321f798b	9.282654e-09
159	0x321cb171	9.120741e-09
160	0x323e5a86	1.1080038e-08
161	0x325fce59	1.3027226e-08
162	0x32516b0f	1.2189743e-08
163	0x31cf74f0	6.037787e-09
164	0x3384be7a	6.1813765e-08
165	0x32c765db	2.3212968e-08
166	0x324b0b4a	1.1818722e-08
167	0x32121f11	8.505382e-09
168	0x338d1171	6.568997e-08
169	0x3337d11b	4.2798188e-08
170	0x330f3a59	3.334785e-08
171	0x31c771c2	5.804595e-09
172	0x00000000	0.0
173	0x00000000	0.0
174	0x00000000	0.0
175	0x00000000	0.0
176	0x2da917bd	1.9223617e-11
177	0x2c4ed356	2.9391676e-12
178	0x303abe9e	6.793729e-10
179	0x2c0412c7	1.8768752e-12
180	0x328f6efb	1.6697859e-08
181	0x32de593e	2.5884784e-08
182	0x32df610b	2.6004747e-08
183	0x31df1ddc	6.493549e-09
184	0x313d556e	2.755168e-09
185	0x32fa867e	2.916499e-08
186	0x3327be41	3.9055752e-08
187	0x32a18b21	1.8806135e-08
188	0x337efea9	5.9370596e-08
189	0x3346852e	4.6221594e-08
190	0x33364b3c	4.2443602e-08
191	0x32690a5e	1.3564742e-08
192	0x00000000	0.0
193	0x00000000	0.0
194	0x00000000	0.0
195	0x00000000	0.0
196	0x334aa4e0	4.7181743e-08
197	0x331c6df9	3.64216e-08
198	0x337a56a8	5.8286474e-08
199	0x32cd60ab	2.39091e-08
200	0x30e39a68	1.6560309e-09
201	0x30860693	9.751652e-10
202	0x305907e7	7.895537e-10
203	0x2ff05c7f	4.3721468e-10
204	0x00000000	0.0
205	0x00000000	0.0
206	0x00000000	0.0
207	0x00000000	0.0
208	0x3461f182	2.1042618e-07
209	0x33b42d46	8.3901384e-08
210	0x331555f5	3.4769943e-08
211	0x30a9f9f2	1.2367407e-09
212	0x32921030	1.7003998e-08
213	0x3382c051	6.088579e-08
214	0x33878ce6	6.312057e-08
215	0x3324f309	3.8405265e-08
216	0x00000000	0.0
217	0x00000000	0.0
218	0x00000000	0.0
219	0x00000000	0.0
220	0x33c1fd88	9.03338e-08
221	0x3364bb3e	5.3255683e-08
222	0x33225d7f	3.78036e-08
223	0x32423df9	1.1306377e-08
224	0x330be7d6	3.2574313e-08
225	0x32eb05da	2.7360262e-08
226	0x330400fd	3.0734544e-08
227	0x32d6a3db	2.4987392e-08
228	0x00000000	0.0
229	0x321f92fb	9.288438e-09
230	0x32215bf4	9.392341e-09
231	0x31b27250	5.1934776e-09
232	0x2ea1ff28	7.366757e-11
233	0x32247f0f	9.574946e-09
234	0x31e68735	6.7092523e-09
235	0x315a777e	3.1791099e-09
236	0x00000000	0.0
237	0x30d35409	1.5376155e-09
238	0x30b743cd	1.3334273e-09
239	0x31465cbd	2.8865508e-09
240	0x3281e816	1.5123117e-08
241	0x326cdc5c	1.3787112e-08
242	0x31001bbd	1.8642219e-09
243	0x2f86dec9	2.4532756e-10
244	0x338a50c2	6.4408155e-08
245	0x33362304	4.2407024e-08
246	0x335f629e	5.2010925e-08
247	0x32c31a94	2.2713074e-08
248	0x31f50c05	7.131805e-09
249	0x3181f293	3.7819716e-09
250	0x306939c8	8.484702e-10
251	0x315c367d	3.2045187e-09
252	0x21c03a4a	1.3025855e-18
253	0x1fc6300a	8.3935736e-20
254	0x2afe09fd	4.5126394e-13
255	0x26109f68	5.017607e-16

exp_avg f4 [64]
0	0x3366d402	5.3743868e-08
1	0x38a80a89	8.0128266e-05
2	0x00000000	0.0
3	0xb4231ec2	-1.5191748e-07
4	0x37fc05e2	3.004348e-05
5	0xb8b21789	-8.492085e-05
6	0x00000000	0.0
7	0xb7d81030	-2.5756744e-05
8	0x38a48bda	7.846179e-05
9	0xb83b9b57	-4.4728946e-05
10	0xb82c9c91	-4.115381e-05
11	0xb55b2e8a	-8.165158e-07
12	0xb895a418	-7.1354385e-05
13	0xb7f2f3b8	-2.8962138e-05
14	0x389969ac	7.3152914e-05
15	0xb8518308	-4.9951515e-05
16	0x00000000	0.0
17	0xb707f3d4	-8.103398e-06
18	0xb826e3e2	-3.9789717e-05
19	0x36c5accd	5.891174e-06
20	0x00000000	0.0
21	0xb76fbfe8	-1.4290192e-05
22	0xb5de9b62	-1.6585511e-06
23	0x3801d931	3.0958272e-05
24	0xb81bef86	-3.7177953e-05
25	0x00000000	0.0
26	0x38924869	6.97531e-05
27	0xb88fb0f9	-6.851735e-05
28	0xb7b4bd94	-2.1545951e-05
29	0xb7af8c3b	-2.0926926e-05
30	0xb7ef4f0e	-2.8527833e-05
31	0x00000000	0.0
32	0x38a5ec12	7.9117846e-05
33	0xb85e1ae7	-5.295398e-05
34	0x388788cc	6.462782e-05
35	0x378dd2f5	1.6906744e-05
36	0xb19101ad	-4.220246e-09
37	0x00000000	0.0
38	0xb811d012	-3.4764475e-05
39	0xb7ab38d5	-2.0411253e-05
40	0xb7c6a1e8	-2.3678833e-05
41	0x37f3f8fa	2.9083796e-05
42	0x377f6d89	1.5224688e-05
43	0x00000000	0.0
44	0x32a30750	1.8979023e-08
45	0xb6785d56	-3.7009208e-06
46	0xb4612ffe	-2.0972217e-07
47	0xb851064c	-4.9835347e-05
48	0x00000000	0.0
49	0xb7e00e40	-2.6709517e-05
50	0xb778bf4d	-1.4826493e-05
51	0x00000000	0.0
52	0xb8af4b57	-8.3586834e-05
53	0x378d3a91	1.6835782e-05
54	0x00000000	0.0
55	0x38d9dd22	0.000103885555
56	0x3731dcd3	1.0601437e-05
57	0x340b06eb	1.29479e-07
58	0xb4d81486	-4.0248068e-07
59	0xb11f12ce	-2.3148234e-09
60	0xb7d382a3	-2.5213993e-05
61	0xb835d1a7	-4.3349017e-05
62	0xb6a04bc8	-4.7771937e-06
63	0x2da71992	1.8997057e-11

exp_avg_sq f4 [64]
0	0x31c66753	5.774305e-09
1	0x3497e78b	2.8294411e-07
2	0x00000000	0.0
3	0x32eed1c5	2.7802239e-08
4	0x338d7b1e	6.588219e-08
5	0x35025c61	4.8563203e-07
6	0x00000000	0.0
7	0x322f1003	1.0189981e-08
8	0x348c9592	2.618586e-07
9	0x34904151	2.6869614e-07
10	0x3420da7c	1.4980645e-07
11	0x30339264	6.5327854e-10
12	0x34c36952	3.639821e-07
13	0x33c1604b	9.0047784e-08
14	0x34844bc7	2.464205e-07
15	0x3291069e	1.688323e-08
16	0x00000000	0.0
17	0x32bd5a8a	2.2043668e-08
18	0x336f60cd	5.5734564e-08
19	0x3314782a	3.4568224e-08
20	0x00000000	0.0
21	0x347677ef	2.2954167e-07
22	0x31b07ac6	5.136232e-09
23	0x31a573f0	4.8153126e-09
24	0x3441534d	1.800483e-07
25	0x00000000	0.0
26	0x34c4a486	3.6627551e-07
27	0x34a927b9	3.1507605e-07
28	0x30b982dd	1.3497715e-09
29	0x34015869	1.2046225e-07
30	0x32c720d3	2.3181576e-08
31	0x00000000	0.0
32	0x34c80c67	3.7261927e-07
33	0x3483cd99	2.4550243e-07
34	0x34bb6547	3.4905153e-07
35	0x332a6d50	3.968063e-08
36	0x30820828	9.461063e-10
37	0x00000000	0.0
38	0x32f9ace5	2.9066038e-08
39	0x33264019	3.8708183e-08
40	0x334847f5	4.6631573e-08
41	0x338d49e9	6.579268e-08
42	0x3420f5d0	1.4990587e-07
43	0x00000000	0.0
44	0x306ad767	8.543481e-10
45	0x33d9c960	1.014148e-07
46	0x34134b20	1.3717772e-07
47	0x3436c755	1.7022587e-07
48	0x00000000	0.0
49	0x344a7595	1.8855492e-07
50	0x3168f228	3.3898093e-09
51	0x00000000	0.0
52	0x3461f182	2.1042618e-07
53	0x3477f430	2.3092502e-07
54	0x00000000	0.0
55	0x3436b5e7	1.7016247e-07
56	0x33d64acf	9.978759e-08
57	0x335de988	5.1667968e-08
58	0x32ee81ca	2.7765868e-08
59	0x31c92c3d	5.8548992e-09
60	0x32d6496a	2.4946264e-08
61	0x34402718	1.7895616e-07
62	0x31f85f0e	7.2285564e-09
63	0x2b02551c	4.630339e-13

exp_avg f4 [128, 64]
0	0x80000004	-6e-45
1	0x370a9eb6	8.262394e-06
2	0x00000000	0.0
3	0x00000004	6e-45
4	0x3675fe33	3.6655808e-06
5	0x36b31b36	5.3377835e-06
6	0x00000000	0.0
7	0x353662a9	6.7943853e-07
8	0x36c3ee75	5.839213e-06
9	0x365012e8	3.100542e-06
10	0x35a13e61	1.2013589e-06
11	0x3348272e	4.6601762e-08
12	0x36028c48	1.9453164e-06
13	0x35ac77ff	1.2849922e-06
14	0x3623541a	2.4337846e-06
15	0x3589c363	1.026416e-06
16	0x00000000	0.0
17	0x358e2f05	1.0593509e-06
18	0x35f8a021	1.8524044e-06
19	0x30cd50ac	1.4938641e-09
20	0x00000000	0.0
21	0x323cd954	1.0992455e-08
22	0x00000000	0.0
23	0x368a5c27	4.1234484e-06
24	0x3669e114	3.4850718e-06
25	0x00000000	0.0
26	0x36bb9754	5.590651e-06
27	0x367235cd	3.6092126e-06
28	0x358a2086	1.0291267e-06
29	0x364d91de	3.0632286e-06
30	0x352ad41f	6.363861e-07
31	0x00000000	0.0
32	0x36a787a7	4.99278e-06
33	0x3565c0ba	8.55896e-07
34	0x368fb2ec	4.2825613e-06
35	0x355f8b31	8.3276524e-07
36	0x80000004	-6e-45
37	0x00000000	0.0
38	0x35ca8ee8	1.5091764e-06
39	0x35df72c9	1.6648202e-06
40	0x36bc20cd	5.606655e-06
41	0x35a16d28	1.2027203e-06
42	0x36d481fb	6.333224e-06
43	0x00000000	0.0
44	0x00000000	0.0
45	0x351bda2a	5.805947e-07
46	0x80000004	-6e-45
47	0x3640ccc1	2.8729412e-06
48	0x00000000	0.0
49	0x32397e56	1.0797143e-08
50	0x3624e267	2.4569688e-06
51	0x00000000	0.0
52	0x3525a7ee	6.171166e-07
53	0x36877c9e	4.037821e-06
54	0x00000000	0.0
55	0x36375e68	2.7324077e-06
56	0x371d6d70	9.38341e-06
57	0x80000004	-6e-45
58	0xaaeb8b51	-4.1841056e-13
59	0x80000004	-6e-45
60	0x33207085	3.735524e-08
61	0x36ac609d	5.1372467e-06
62	0x3595bca4	1.1156267e-06
63	0x00000000	0.0
64	0x302923d5	6.153276e-10
65	0xb858faf7	-5.1732142e-05
66	0x00000000	0.0
67	0x32f71986	2.8766191e-08
68	0xb7cd67d6	-2.4486257e-05
69	0xb8065d92	-3.2035234e-05
70	0x00000000	0.0
71	0xb679212d	-3.7123202e-06
72	0xb80ff151	-3.43186e-05
73	0xb78f38bb	-1.7073346e-05
74	0xb6be3958	-5.669117e-06
75	0xb43cb705	-1.7575447e-07
76	0xb76b2702	-1.4016174e-05
77	0xb6e6afc8	-6.874998e-06
78	0xb77e143c	-1.5144291e-05
79	0xb682936d	-3.8914645e-06
80	0x00000000	0.0
81	0xb69ac379	-4.6123137e-06
82	0xb72f9227	-1.0464842e-05
83	0xb40dcd8a	-1.3206423e-07
84	0x00000000	0.0
85	0xb2fc438e	-2.9367381e-08
86	0xb1a115b3	-4.6881836e-09
87	0xb7e3e754	-2.716823e-05
88	0xb7b2a9f0	-2.1298387e-05
89	0x00000000	0.0
90	0xb812102d	-3.4824177e-05
91	0xb7a2a981	-1.9390836e-05
92	0xb68d5444	-4.2119373e-06
93	0xb79c93a7	-1.8665405e-05
94	0xb60cea73	-2.0998093e-06
95	0x00000000	0.0
96	0xb7fba742	-2.9999417e-05
97	0xb69c8a24	-4.665244e-06
98	0xb7c8eb6b	-2.3951483e-05
99	0xb67e6655	-3.7908515e-06
100	0x3088a595	9.942364e-10
101	0x00000000	0.0
102	0xb69ac260	-4.612186e-06
103	0xb7193453	-9.131693e-06
104	0xb80e4190	-3.3916498e-05
105	0xb70452d4	-7.887098e-06
106	0xb81ebbef	-3.7845162e-05
107	0x00000000	0.0
108	0x2f6db6df	2.1619993e-10
109	0xb6437800	-2.9127114e-06
110	0x32b3353f	2.0862556e-08
111	0xb784b0df	-1.5817988e-05
112	0x00000000	0.0
113	0xb563424a	-8.4660553e-07
114	0xb788182e	-1.6223723e-05
115	0x00000000	0.0
116	0xb61034ac	-2.1488331e-06
117	0xb781ae70	-1.5459227e-05
118	0x00000000	0.0
119	0xb78c7732	-1.6744805e-05
120	0xb858ffdd	-5.1736704e-05
121	0x30711325	8.7702495e-10
122	0x3350c678	4.860928e-08
123	0x32ac86b9	2.00847e-08
124	0xb671c400	-3.6025885e-06
125	0xb7fffcd0	-3.0516094e-05
126	0xb6b200bd	-5.3048993e-06
127	0x2a9a0915	2.7362197e-13
128	0x00000000	0.0
129	0x00000000	0.0
130	0x00000000	0.0
131	0x00000000	0.0
132	0x00000000	0.0
133	0x00000000	0.0
134	0x00000000	0.0
135	0x00000000	0.0
136	0x00000000	0.0
137	0x00000000	0.0
138	0x00000000	0.0
139	0x00000000	0.0
140	0x00000000	0.0
141	0x00000000	0.0
142	0x00000000	0.0
143	0x00000000	0.0
144	0x00000000	0.0
145	0x00000000	0.0
146	0x00000000	0.0
147	0x00000000	0.0
148	0x00000000	0.0
149	0x00000000	0.0
150	0x00000000	0.0
151	0x00000000	0.0
152	0x00000000	0.0
153	0x00000000	0.0
154	0x00000000	0.0
155	0x00000000	0.0
156	0x00000000	0.0
157	0x00000000	0.0
158	0x00000000	0.0
159	0x00000000	0.0
160	0x00000000	0.0
161	0x00000000	0.0
162	0x00000000	0.0
163	0x00000000	0.0
164	0x00000000	0.0
165	0x00000000	0.0
166	0x00000000	0.0
167	0x00000000	0.0
168	0x00000000	0.0
169	0x00000000	0.0
170	0x00000000	0.0
171	0x00000000	0.0
172	0x00000000	0.0
173	0x00000000	0.0
174	0x00000000	0.0
175	0x00000000	0.0
176	0x00000000	0.0
177	0x00000000	0.0
178	0x00000000	0.0
179	0x00000000	0.0
180	0x00000000	0.0
181	0x00000000	0.0
182	0x00000000	0.0
183	0x00000000	0.0
184	0x00000000	0.0
185	0x00000000	0.0
186	0x00000000	0.0
187	0x00000000	0.0
188	0x00000000	0.0
189	0x00000000	0.0
190	0x00000000	0.0
191	0x00000000	0.0
192	0x00000000	0.0
193	0x00000000	0.0
194	0x00000000	0.0
195	0x00000000	0.0
196	0x00000000	0.0
197	0x00000000	0.0
198	0x00000000	0.0
199	0x00000000	0.0
200	0x00000000	0.0
201	0x00000000	0.0
202	0x00000000	0.0
203	0x00000000	0.0
204	0x00000000	0.0
205	0x00000000	0.0
206	0x00000000	0.0
207	0x00000000	0.0
208	0x00000000	0.0
209	0x00000000	0.0
210	0x00000000	0.0
211	0x00000000	0.0
212	0x00000000	0.0
213	0x00000000	0.0
214	0x00000000	0.0
215	0x00000000	0.0
216	0x00000000	0.0
217	0x00000000	0.0
218	0x00000000	0.0
219	0x00000000	0.0
220	0x00000000	0.0
221	0x00000000	0.0
222	0x00000000	0.0
223	0x00000000	0.0
224	0x00000000	0.0
225	0x00000000	0.0
226	0x00000000	0.0
227	0x00000000	0.0
228	0x00000000	0.0
229	0x00000000	0.0
230	0x00000000	0.0
231	0x00000000	0.0
232	0x00000000	0.0
233	0x00000000	0.0
234	0x00000000	0.0
235	0x00000000	0.0
236	0x00000000	0.0
237	0x00000000	0.0
238	0x00000000	0.0
239	0x00000000	0.0
240	0x00000000	0.0
241	0x00000000	0.0
242	0x00000000	0.0
243	0x00000000	0.0
244	0x00000000	0.0
245	0x00000000	0.0
246	0x00000000	0.0
247	0x00000000	0.0
248	0x00000000	0.0
249	0x00000000	0.0
250	0x00000000	0.0
251	0x00000000	0.0
252	0x00000000	0.0
253	0x00000000	0.0
254	0x00000000	0.0
255	0x00000000	0.0

exp_avg_sq f4 [128, 64]
0	0x1971db07	1.250364e-23
1	0x3056bea9	7.812369e-10
2	0x00000000	0.0
3	0x0b9d6314	6.0623276e-32
4	0x2ee6a4f7	1.0488493e-10
5	0x30886dd0	9.926513e-10
6	0x00000000	0.0
7	0x2ce8d770	6.617755e-12
8	0x2f62dcc3	2.063301e-10
9	0x2f5dd33b	2.0174877e-10
10	0x2ed2ee75	9.592053e-11
11	0x2699be93	1.0668163e-15
12	0x2ff511cc	4.4577886e-10
13	0x2d882f3d	1.5482388e-11
14	0x2dad573d	1.9706565e-11
15	0x2ddb8731	2.4957455e-11
16	0x00000000	0.0
17	0x2b0e1a02	5.048463e-13
18	0x2e97d79e	6.904986e-11
19	0x260ce491	4.888202e-16
20	0x00000000	0.0
21	0x28866389	1.4920155e-14
22	0x00000000	0.0
23	0x3005efd4	4.8725934e-10
24	0x2fed4213	4.3156997e-10
25	0x00000000	0.0
26	0x2f954b21	2.7156324e-10
27	0x2fad8253	3.1561118e-10
28	0x2b09634e	4.880999e-13
29	0x2f9f8a65	2.9020267e-10
30	0x2d0c821b	7.986968e-12
31	0x00000000	0.0
32	0x2f5ea6f1	2.0250092e-10
33	0x2f03a96b	1.197457e-10
34	0x2e26981a	3.7879123e-11
35	0x2c046442	1.8813982e-12
36	0x17b2c59e	1.1552866e-24
37	0x00000000	0.0
38	0x2e322743	4.0507386e-11
39	0x2c3ad47b	2.655014e-12
40	0x2fdcbdc9	4.0152617e-10
41	0x2c7c6621	3.5868047e-12
42	0x2f925f53	2.6624977e-10
43	0x00000000	0.0
44	0x00000000	0.0
45	0x2aa578f3	2.9393813e-13
46	0x18faa884	6.4793643e-24
47	0x2f4d5861	1.867604e-10
48	0x00000000	0.0
49	0x28157c89	8.298166e-15
50	0x2ebca8a3	8.579206e-11
51	0x00000000	0.0
52	0x2da53914	1.8783676e-11
53	0x2d040e39	7.506489e-12
54	0x00000000	0.0
55	0x2d972e65	1.7187316e-11
56	0x3080dbb2	9.375667e-10
57	0x185fcb7f	2.8924814e-24
58	0x1e35bf38	9.621603e-21
59	0x1545fd50	3.998366e-26
60	0x2e2b1e0f	3.8907596e-11
61	0x30172359	5.498371e-10
62	0x2b2fd7c8	6.2471946e-13
63	0x00000000	0.0
64	0x29d2028c	9.326315e-14
65	0x31853f9d	3.8780414e-09
66	0x00000000	0.0
67	0x2f26c04c	1.516593e-10
68	0x2ff2a2c6	4.41352e-10
69	0x314bae25	2.9639378e-09
70	0x00000000	0.0
71	0x2e921958	6.643813e-11
72	0x319bb184	4.531275e-09
73	0x31122141	2.12647e-09
74	0x3026b46c	6.0646843e-10
75	0x2cf76c09	7.0321565e-12
76	0x302f7337	6.382836e-10
77	0x30a23a71	1.1803661e-09
78	0x2f432e01	1.775149e-10
79	0x303ce21a	6.871531e-10
80	0x00000000	0.0
81	0x2ec1e8ee	8.8180005e-11
82	0x2fd3c64a	3.852157e-10
83	0x2e0017c8	2.9124952e-11
84	0x00000000	0.0
85	0x2ecf5b80	9.429524e-11
86	0x2a9802ac	2.7002478e-13
87	0x309ba3fd	1.1324343e-09
88	0x30ea633c	1.7053945e-09
89	0x00000000	0.0
90	0x312fcc7e	2.5582092e-09
91	0x31004472	1.8665358e-09
92	0x2d1b5a01	8.830715e-12
93	0x308df7fb	1.032958e-09
94	0x2ee9554d	1.0610766e-10
95	0x00000000	0.0
96	0x314e2c62	3.0002174e-09
97	0x2f713000	2.1935875e-10
98	0x30a1074d	1.1716367e-09
99	0x3005c152	4.8659843e-10
100	0x299a0084	6.839063e-14
101	0x00000000	0.0
102	0x307cfa0d	9.203241e-10
103	0x2ed792c7	9.803141e-11
104	0x315a9ee6	3.1813499e-09
105	0x2e79d6e0	5.6806893e-11
106	0x316804b1	3.376311e-09
107	0x00000000	0.0
108	0x2a2ccafe	1.5347096e-13
109	0x308ee90f	1.0398099e-09
110	0x2f07d361	1.2353275e-10
111	0x31127c7a	2.1316553e-09
112	0x00000000	0.0
113	0x305a2139	7.935515e-10
114	0x31004f5d	1.8671564e-09
115	0x00000000	0.0
116	0x2deed851	2.7153531e-11
117	0x3084ecce	9.671568e-10
118	0x00000000	0.0
119	0x30ef8e22	1.7429935e-09
120	0x3244af20	1.144852e-08
121	0x2d06370f	7.629244e-12
122	0x2f8bb9a9	2.5415872e-10
123	0x2df8c9fe	2.8284038e-11
124	0x2de37231	2.5857623e-11
125	0x318d8d38	4.119695e-09
126	0x2d40d36a	1.096088e-11
127	0x24db1eae	9.5028084e-17
128	0x00000000	0.0
129	0x00000000	0.0
130	0x00000000	0.0
131	0x00000000	0.0
132	0x00000000	0.0
133	0x00000000	0.0
134	0x00000000	0.0
135	0x00000000	0.0
136	0x00000000	0.0
137	0x00000000	0.0
138	0x00000000	0.0
139	0x00000000	0.0
140	0x00000000	0.0
141	0x00000000	0.0
142	0x00000000	0.0
143	0x00000000	0.0
144	0x00000000	0.0
145	0x00000000	0.0
146	0x00000000	0.0
147	0x00000000	0.0
148	0x00000000	0.0
149	0x00000000	0.0
150	0x00000000	0.0
151	0x00000000	0.0
152	0x00000000	0.0
153	0x00000000	0.0
154	0x00000000	0.0
155	0x00000000	0.0
156	0x00000000	0.0
157	0x00000000	0.0
158	0x00000000	0.0
159	0x00000000	0.0
160	0x00000000	0.0
161	0x00000000	0.0
162	0x00000000	0.0
163	0x00000000	0.0
164	0x00000000	0.0
165	0x00000000	0.0
166	0x00000000	0.0
167	0x00000000	0.0
168	0x00000000	0.0
169	0x00000000	0.0
170	0x00000000	0.0
171	0x00000000	0.0
172	0x00000000	0.0
173	0x00000000	0.0
174	0x00000000	0.0
175	0x00000000	0.0
176	0x00000000	0.0
177	0x00000000	0.0
178	0x00000000	0.0
179	0x00000000	0.0
180	0x00000000	0.0
181	0x00000000	0.0
182	0x00000000	0.0
183	0x00000000	0.0
184	0x00000000	0.0
185	0x00000000	0.0
186	0x00000000	0.0
187	0x00000000	0.0
188	0x00000000	0.0
189	0x00000000	0.0
190	0x00000000	0.0
191	0x00000000	0.0
192	0x00000000	0.0
193	0x00000000	0.0
194	0x00000000	0.0
195	0x00000000	0.0
196	0x00000000	0.0
197	0x00000000	0.0
198	0x00000000	0.0
199	0x00000000	0.0
200	0x00000000	0.0
201	0x00000000	0.0
202	0x00000000	0.0
203	0x00000000	0.0
204	0x00000000	0.0
205	0x00000000	0.0
206	0x00000000	0.0
207	0x00000000	0.0
208	0x00000000	0.0
209	0x00000000	0.0
210	0x00000000	0.0
211	0x00000000	0.0
212	0x00000000	0.0
213	0x00000000	0.0
214	0x00000000	0.0
215	0x00000000	0.0
216	0x00000000	0.0
217	0x00000000	0.0
218	0x00000000	0.0
219	0x00000000	0.0
220	0x00000000	0.0
221	0x00000000	0.0
222	0x00000000	0.0
223	0x00000000	0.0
224	0x00000000	0.0
225	0x00000000	0.0
226	0x00000000	0.0
227	0x00000000	0.0
228	0x00000000	0.0
229	0x00000000	0.0
230	0x00000000	0.0
231	0x00000000	0.0
232	0x00000000	0.0
233	0x00000000	0.0
234	0x00000000	0.0
235	0x00000000	0.0
236	0x00000000	0.0
237	0x00000000	0.0
238	0x00000000	0.0
239	0x00000000	0.0
240	0x00000000	0.0
241	0x00000000	0.0
242	0x00000000	0.0
243	0x00000000	0.0
244	0x00000000	0.0
245	0x00000000	0.0
246	0x00000000	0.0
247	0x00000000	0.0
248	0x00000000	0.0
249	0x00000000	0.0
250	0x00000000	0.0
251	0x00000000	0.0
252	0x00000000	0.0
253	0x00000000	0.0
254	0x00000000	0.0
255	0x00000000	0.0

exp_avg f4 [128]
0	0x3726eaee	9.94907e-06
1	0xb871b3b1	-5.762623e-05
2	0x00000000	0.0
3	0x00000000	0.0
4	0x378a2a72	1.6470647e-05
5	0x37d0df41	2.4899493e-05
6	0x00000000	0.0
7	0x00000000	0.0
8	0xb67561a3	-3.6564677e-06
9	0x37b3a615	2.14158e-05
10	0x00000000	0.0
11	0xb79e24d5	-1.8852219e-05
12	0xb7358770	-1.0819975e-05
13	0x00000004	6e-45
14	0x38201883	3.81698e-05
15	0x380b34bf	3.3189306e-05
16	0xb73305f2	-1.0670616e-05
17	0x362c2669	2.5652355e-06
18	0xb82a8428	-4.065424e-05
19	0x37c72c0e	2.3743163e-05
20	0x00000000	0.0
21	0xb7bf045f	-2.277101e-05
22	0xb7e4238f	-2.7196276e-05
23	0xb7d51616	-2.5401863e-05
24	0xb7424223	-1.15787e-05
25	0xb79c4067	-1.8626639e-05
26	0x37a657f4	1.9829698e-05
27	0x00000004	6e-45
28	0x37c6d262	2.3701406e-05
29	0xb68f4986	-4.2702914e-06
30	0xb7e36282	-2.710638e-05
31	0x3698a78b	4.5494576e-06
32	0x375f8ff3	1.3325352e-05
33	0xb73e12f2	-1.1329294e-05
34	0x3740f7f1	1.150182e-05
35	0xb7a9c469	-2.023783e-05
36	0xb784fcb4	-1.58533e-05
37	0x00000000	0.0
38	0xb806261c	-3.198358e-05
39	0x00000000	0.0
40	0x00000000	0.0
41	0xb774f91a	-1.4601532e-05
42	0x00000000	0.0
43	0xb71a9b20	-9.215233e-06
44	0xb70ba08b	-8.322425e-06
45	0x00000000	0.0
46	0xb84174d7	-4.61236e-05
47	0x80000004	-6e-45
48	0xb7b21050	-2.122685e-05
49	0xb7be2fac	-2.2671964e-05
50	0x376be97c	1.4061454e-05
51	0x3765ba53	1.3692846e-05
52	0xb7f001c6	-2.8611055e-05
53	0xb8a30760	-7.7738194e-05
54	0x368b6213	4.15394e-06
55	0x37875360	1.6132079e-05
56	0xb8108927	-3.446001e-05
57	0xb7f4f930	-2.9203104e-05
58	0xb7e115a8	-2.6832175e-05
59	0x3739bedf	1.10713e-05
60	0xb8203cc7	-3.8203576e-05
61	0xb7327aba	-1.0638201e-05
62	0xb8102054	-3.4362383e-05
63	0xb81987da	-3.6604564e-05
64	0xb6df1a93	-6.6490115e-06
65	0x38013eff	3.0814666e-05
66	0x36dda990	6.606053e-06
67	0xb594d111	-1.1087706e-06
68	0x37b48b9d	2.1522685e-05
69	0xb90a1ece	-0.00013172181
70	0xb8026e1b	-3.109696e-05
71	0x00000000	0.0
72	0xb819fb5c	-3.671214e-05
73	0xb733cd6e	-1.0717062e-05
74	0x3892a2f0	6.992172e-05
75	0x382f338f	4.177127e-05
76	0x00000000	0.0
77	0x3698f94b	4.5589745e-06
78	0xb8669271	-5.4972657e-05
79	0x37bf8dbc	2.2834975e-05
80	0x371f60c4	9.4996685e-06
81	0xb7fb25b3	-2.9939087e-05
82	0x00000000	0.0
83	0xb6489f20	-2.9894945e-06
84	0x378c9918	1.676059e-05
85	0xb4d566b2	-3.9749062e-07
86	0x32d3d843	2.4661977e-08
87	0x378db698	1.6893537e-05
88	0x00000000	0.0
89	0x00000000	0.0
90	0x38317c0f	4.2315627e-05
91	0x361c3dd4	2.32818e-06
92	0xb716eea3	-8.996259e-06
93	0xb75f14b0	-1.32966525e-05
94	0xb8600a03	-5.3415086e-05
95	0x379aa2c9	1.8434033e-05
96	0xb70ea213	-8.501595e-06
97	0x37879092	1.6160575e-05
98	0x00000000	0.0
99	0x00000000	0.0
100	0xb827eaa1	-4.0034418e-05
101	0x00000000	0.0
102	0x381dcfb8	3.762517e-05
103	0xb8379499	-4.3768992e-05
104	0xb6ac1c21	-5.129274e-06
105	0xb7a8aa96	-2.0106596e-05
106	0x00000000	0.0
107	0xb7b2a33c	-2.1295265e-05
108	0x381e1136	3.7686164e-05
109	0xb78b14d3	-1.6579788e-05
110	0x371499cc	8.857296e-06
111	0xb7db3b40	-2.6134425e-05
112	0xb7902b48	-1.7186292e-05
113	0x38073ec0	3.224495e-05
114	0x37d34156	2.5183585e-05
115	0x38066351	3.2040585e-05
116	0x36bcbc27	5.6247404e-06
117	0x00000000	0.0
118	0xb703560a	-7.828241e-06
119	0xb7cceda5	-2.4429357e-05
120	0x00000000	0.0
121	0xb7d062b8	-2.4841502e-05
122	0xb8251070	-3.9354374e-05
123	0xb79c6df1	-1.8647845e-05
124	0x376ac835	1.3994101e-05
125	0x38050289	3.1712032e-05
126	0x00000000	0.0
127	0xb69f7f7f	-4.7534118e-06

exp_avg_sq f4 [128]
0	0x30f42445	1.7763645e-09
1	0x3270703f	1.399536e-08
2	0x00000000	0.0
3	0x00000000	0.0
4	0x32227088	9.455228e-09
5	0x319c52dd	4.549618e-09
6	0x00000000	0.0
7	0x00000000	0.0
8	0x322046a5	9.3292885e-09
9	0x343623a1	1.6963033e-07
10	0x00000000	0.0
11	0x3322ec94	3.793373e-08
12	0x32b83497	2.1444334e-08
13	0x19f41d31	2.5240799e-23
14	0x32cebc39	2.406715e-08
15	0x33bf1cf1	8.899395e-08
16	0x335aae59	5.091565e-08
17	0x33013b6f	3.0089208e-08
18	0x341cee4b	1.4615323e-07
19	0x3331d8c2	4.1408164e-08
20	0x00000000	0.0
21	0x332eec5a	4.0727492e-08
22	0x3393b1c8	6.877559e-08
23	0x32dc3479	2.5635233e-08
24	0x33167e44	3.5039434e-08
25	0x3194fef3	4.3363513e-09
26	0x330bfcda	3.2593427e-08
27	0x19d5e44c	2.2115892e-23
28	0x32b6fc86	2.1302423e-08
29	0x33ff1acc	1.1879237e-07
30	0x338e8060	6.6357416e-08
31	0x330f23dd	3.33274e-08
32	0x31c763fc	5.803029e-09
33	0x338e9405	6.639315e-08
34	0x32e0ab76	2.6155003e-08
35	0x339ceece	7.3077544e-08
36	0x32e56a40	2.6707426e-08
37	0x00000000	0.0
38	0x33fb35f1	1.169791e-07
39	0x00000000	0.0
40	0x00000000	0.0
41	0x330d158e	3.2848725e-08
42	0x00000000	0.0
43	0x327f5a2c	1.4863456e-08
44	0x32c33b38	2.2727917e-08
45	0x00000000	0.0
46	0x33b786c9	8.546119e-08
47	0x129b84a5	9.814575e-28
48	0x33e75a21	1.077317e-07
49	0x331fda19	3.721843e-08
50	0x328274e6	1.5187151e-08
51	0x3367a302	5.3932133e-08
52	0x334c735e	4.7602377e-08
53	0x33c9d83f	9.399127e-08
54	0x328fd0d9	1.6742364e-08
55	0x32ce4dbb	2.4016904e-08
56	0x341048cd	1.343753e-07
57	0x32f856de	2.8910502e-08
58	0x337b5a2a	5.8522495e-08
59	0x32ed8187	2.7649333e-08
60	0x3430d164	1.6467453e-07
61	0x3366c8a0	5.3733515e-08
62	0x33bcda77	8.794171e-08
63	0x336d4fd5	5.525347e-08
64	0x327ced6a	1.4722312e-08
65	0x333ef306	4.445885e-08
66	0x321945ce	8.921644e-09
67	0x3343828c	4.5520707e-08
68	0x320388c1	7.656298e-09
69	0x33dd0756	1.0292449e-07
70	0x32c5924d	2.3000348e-08
71	0x00000000	0.0
72	0x32c75ce1	2.3208885e-08
73	0x329f3945	1.853608e-08
74	0x34bcad78	3.5143944e-07
75	0x342472e2	1.5315484e-07
76	0x00000000	0.0
77	0x33be159b	8.8514945e-08
78	0x32c14217	2.2498211e-08
79	0x3233bda8	1.0462294e-08
80	0x31e178b2	6.5620833e-09
81	0x338a20b1	6.432072e-08
82	0x00000000	0.0
83	0x3300c40e	2.9980633e-08
84	0x328fb7a4	1.6730901e-08
85	0x3309d587	3.2092e-08
86	0x3216b4d2	8.772263e-09
87	0x33e750d7	1.07714804e-07
88	0x00000000	0.0
89	0x00000000	0.0
90	0x32a22b60	1.8879007e-08
91	0x328d5c39	1.6456498e-08
92	0x3259e2d0	1.2682634e-08
93	0x338354d7	6.115595e-08
94	0x32b1ebab	2.0712681e-08
95	0x33229893	3.785733e-08
96	0x328d8ddb	1.6479069e-08
97	0x3308a77d	3.1817297e-08
98	0x00000000	0.0
99	0x00000000	0.0
100	0x3442a921	1.8129187e-07
101	0x00000000	0.0
102	0x33fae1a0	1.1682573e-07
103	0x33d733a3	1.002111e-07
104	0x328dc6a3	1.650489e-08
105	0x338bd815	6.511997e-08
106	0x00000000	0.0
107	0x33423b6f	4.52232e-08
108	0x341bb83d	1.4502525e-07
109	0x328b9ffc	1.6254482e-08
110	0x3238ceaf	1.0757204e-08
111	0x33b83fc6	8.579768e-08
112	0x339900ca	7.124761e-08
113	0x33946523	6.910184e-08
114	0x33f0de2a	1.1216282e-07
115	0x33d1426a	9.7444016e-08
116	0x33bd995b	8.8288935e-08
117	0x00000000	0.0
118	0x333f566f	4.4549264e-08
119	0x33c25245	9.048794e-08
120	0x00000000	0.0
121	0x32bdb5a1	2.2085091e-08
122	0x3216efc5	8.785666e-09
123	0x31f3e00c	7.097702e-09
124	0x3189e63c	4.0133994e-09
125	0x34312686	1.6498424e-07
126	0x00000000	0.0
127	0x32c84bed	2.3317591e-08

exp_avg f4 [128, 128]
0	0x35b2304b	1.3276089e-06
1	0x35fbcc02	1.8760331e-06
2	0x00000000	0.0
3	0x00000000	0.0
4	0x36c8fafc	5.989683e-06
5	0xb2edd0c8	-2.7685374e-08
6	0x00000000	0.0
7	0x00000000	0.0
8	0x368a4601	4.12087e-06
9	0x3657f724	3.2181351e-06
10	0x00000000	0.0
11	0x3618dc81	2.2778115e-06
12	0x35de46eb	1.6560929e-06
13	0x00000004	6e-45
14	0x36a1efda	4.8260963e-06
15	0x364db654	3.065351e-06
16	0xb404934d	-1.2347046e-07
17	0x369e5309	4.7184335e-06
18	0x35c066ac	1.4334996e-06
19	0x36e6327b	6.860411e-06
20	0x00000000	0.0
21	0x359dcf2c	1.1757706e-06
22	0x3593c473	1.1009528e-06
23	0x34cb802e	3.790496e-07
24	0xb52f6ae4	-6.5348127e-07
25	0x36dfff29	6.6756224e-06
26	0x3516f57f	5.62366e-07
27	0x00000004	6e-45
28	0x36bd2092	5.6364306e-06
29	0x368a26c5	4.117234e-06
30	0x3624bb77	2.4547023e-06
31	0x34a492cf	3.0654198e-07
32	0x36b3eabb	5.361942e-06
33	0x365565be	3.1798695e-06
34	0x3594be3a	1.1082222e-06
35	0xb334b516	-4.2074213e-08
36	0x36681ef5	3.4588713e-06
37	0x00000000	0.0
38	0x35d53956	1.5886424e-06
39	0x00000000	0.0
40	0x00000000	0.0
41	0xb4b117e7	-3.298621e-07
42	0x00000000	0.0
43	0x36089f83	2.0358427e-06
44	0x36483295	2.9831765e-06
45	0x00000000	0.0
46	0x35e17113	1.6796715e-06
47	0x80000004	-6e-45
48	0xb38c4206	-6.5312676e-08
49	0x369f1a02	4.741597e-06
50	0x36e7abba	6.904328e-06
51	0x34f5f4d0	4.581293e-07
52	0x355c1f82	8.2002236e-07
53	0x34d90949	4.0426156e-07
54	0x363645b1	2.716068e-06
55	0x369f8330	4.7538415e-06
56	0x35d6c5e1	1.6001833e-06
57	0x362572b8	2.465369e-06
58	0x3688703a	4.0661807e-06
59	0x3504ae99	4.9427905e-07
60	0xb4b557fa	-3.3777889e-07
61	0x352d0601	6.445626e-07
62	0x3492fd80	2.7379065e-07
63	0x364a33f9	3.0130598e-06
64	0x3680a7ab	3.8342164e-06
65	0x3677284e	3.6829329e-06
66	0x361852ee	2.2698036e-06
67	0x359c50be	1.1646405e-06
68	0x36b7cb5c	5.477499e-06
69	0x345ac72c	2.037529e-07
70	0x3640404d	2.8647657e-06
71	0x00000000	0.0
72	0x34a43a9e	3.059003e-07
73	0x3608da85	2.0392774e-06
74	0x36b31f51	5.3382614e-06
75	0x365baa59	3.2732698e-06
76	0x00000000	0.0
77	0x35d3b569	1.5773522e-06
78	0x34a2a388	3.0293836e-07
79	0x369d8e43	4.695526e-06
80	0x368ed94b	4.257226e-06
81	0x351c7709	5.828775e-07
82	0x00000000	0.0
83	0x351258de	5.4518557e-07
84	0x3641aade	2.88587e-06
85	0xb26bc119	-1.3722706e-08
86	0xb172ef6d	-3.5351733e-09
87	0x361c06d4	2.3249786e-06
88	0x00000000	0.0
89	0x00000000	0.0
90	0x362d06b4	2.578291e-06
91	0x3621f3b2	2.413272e-06
92	0x3653f8ae	3.15862e-06
93	0xb3ead817	-1.09357806e-07
94	0x35b60c7a	1.3563688e-06
95	0xb403f137	-1.2288079e-07
96	0x3609f3ce	2.0556504e-06
97	0x34fda3ff	4.7244245e-07
98	0x00000000	0.0
99	0x00000000	0.0
100	0x360b3a3d	2.0746513e-06
101	0x00000000	0.0
102	0x36bc232a	5.6069302e-06
103	0x365c3361	3.281246e-06
104	0x355254ef	7.835469e-07
105	0x36a08bc2	4.7846415e-06
106	0x00000000	0.0
107	0x360379cf	1.9591423e-06
108	0x36a058ad	4.778695e-06
109	0x363791e9	2.7354056e-06
110	0x36501b5a	3.1010336e-06
111	0x3652c5c2	3.1407549e-06
112	0x361f5d44	2.3747134e-06
113	0x35489654	7.472456e-07
114	0x364b8e63	3.0332237e-06
115	0x36376446	2.7327492e-06
116	0x362ff1f5	2.621787e-06
117	0x00000000	0.0
118	0x35b93854	1.3799968e-06
119	0x33aa2074	7.922145e-08
120	0x00000000	0.0
121	0x3555f5e4	7.97065e-07
122	0x35e6bdf1	1.7191616e-06
123	0x36a67b43	4.961535e-06
124	0x3570a194	8.9642094e-07
125	0x3608caee	2.03837e-06
126	0x00000000	0.0
127	0x36e43fc6	6.8023537e-06
128	0x36158c33	2.2284337e-06
129	0x36cf5b29	6.179693e-06
130	0x00000000	0.0
131	0x00000000	0.0
132	0x3778a4d3	1.4820328e-05
133	0x328a4850	1.6098198e-08
134	0x00000000	0.0
135	0x00000000	0.0
136	0x373a0156	1.1086775e-05
137	0x3729aac1	1.0112942e-05
138	0x00000000	0.0
139	0x360245d1	1.9412148e-06
140	0x36bdfffb	5.662439e-06
141	0x00000004	6e-45
142	0x3753ccdb	1.2624277e-05
143	0x37051522	7.932338e-06
144	0x351aa17a	5.760445e-07
145	0x375e1a38	1.3238336e-05
146	0x353fe070	7.1479644e-07
147	0x37950768	1.7765633e-05
148	0x00000000	0.0
149	0x353ef9b9	7.114391e-07
150	0x352928a1	6.301653e-07
151	0x3588a358	1.0180329e-06
152	0xb4f45ebd	-4.5517473e-07
153	0x378c6efb	1.674098e-05
154	0x34a8aa64	3.1416414e-07
155	0x00000004	6e-45
156	0x378702db	1.6094584e-05
157	0x37367150	1.0874428e-05
158	0x369ad2d5	4.6141017e-06
159	0x34321352	1.658457e-07
160	0x376f4533	1.4261622e-05
161	0x36bed25a	5.6869294e-06
162	0x3628a5a1	2.513036e-06
163	0xb30a27f9	-3.2166984e-08
164	0x3716bac3	8.984181e-06
165	0x00000000	0.0
166	0x358509da	9.912139e-07
167	0x00000000	0.0
168	0x00000000	0.0
169	0x351fef44	5.9580293e-07
170	0x00000000	0.0
171	0x36a0311c	4.7740887e-06
172	0x36b008b1	5.2462206e-06
173	0x00000000	0.0
174	0x358aee86	1.0351221e-06
175	0x80000004	-6e-45
176	0xb3b5bce0	-8.4628255e-08
177	0x37020153	7.748912e-06
178	0x3784f2a6	1.5848618e-05
179	0x34911991	2.7026957e-07
180	0x35046142	4.931536e-07
181	0x347e1273	2.3662305e-07
182	0x3687da6e	4.048742e-06
183	0x375655d8	1.2775381e-05
184	0x3584c03e	9.890716e-07
185	0x35f267f6	1.8060662e-06
186	0x36df4890	6.6543653e-06
187	0x35255787	6.159466e-07
188	0xb4d4af65	-3.9615693e-07
189	0x36239654	2.4376395e-06
190	0x34318017	1.6531008e-07
191	0x368967db	4.0950085e-06
192	0x3728feba	1.00728885e-05
193	0x3728457a	1.0029757e-05
194	0x36964814	4.4787394e-06
195	0x3601a1f8	1.9316776e-06
196	0x37425c07	1.1584728e-05
197	0x33f4680e	1.1381063e-07
198	0x36858565	3.979238e-06
199	0x00000000	0.0
200	0x344c8ce0	1.905023e-07
201	0x367397b2	3.629812e-06
202	0x37787048	1.4808094e-05
203	0x3723cd7f	9.763403e-06
204	0x00000000	0.0
205	0x3673a1b3	3.6303943e-06
206	0x3441c733	1.8046994e-07
207	0x37424d73	1.1581334e-05
208	0x374a3702	1.2052946e-05
209	0x34b2cd2b	3.3304363e-07
210	0x00000000	0.0
211	0x364d995a	3.0636643e-06
212	0x362a1f7d	2.5350303e-06
213	0xb2e134cc	-2.6217457e-08
214	0xb21a1eef	-8.971013e-09
215	0x3705121e	7.931636e-06
216	0x00000000	0.0
217	0x00000000	0.0
218	0x36f9bedf	7.4429986e-06
219	0x36dbcdab	6.5506515e-06
220	0x36b554b4	5.404081e-06
221	0xb403320e	-1.2218536e-07
222	0x3688289b	4.057843e-06
223	0x35883f35	1.0151185e-06
224	0x36eeed20	7.1205577e-06
225	0x3491a760	2.7130136e-07
226	0x00000000	0.0
227	0x00000000	0.0
228	0x35a16a08	1.2026294e-06
229	0x00000000	0.0
230	0x37781c38	1.4788522e-05
231	0x36da60e1	6.5081845e-06
232	0x3620601e	2.3897805e-06
233	0x3719af58	9.160336e-06
234	0x00000000	0.0
235	0x35a468a8	1.2249411e-06
236	0x3744e22b	1.1735169e-05
237	0x36b73bee	5.4608017e-06
238	0x37113af9	8.656404e-06
239	0x36ec869a	7.0490178e-06
240	0x36780b7d	3.6961567e-06
241	0x361784dd	2.257809e-06
242	0x37238816	9.747242e-06
243	0x37107117	8.6094e-06
244	0x36a6ca5c	4.9707432e-06
245	0x00000000	0.0
246	0x3542631f	7.241487e-07
247	0xb3831d3c	-6.1054806e-08
248	0x00000000	0.0
249	0x3654d863	3.1716415e-06
250	0x367a2f01	3.7280263e-06
251	0x375affbc	1.3053355e-05
252	0x3632a035	2.661732e-06
253	0x36e20553	6.7359447e-06
254	0x00000000	0.0
255	0x3781ddfc	1.5481368e-05

exp_avg_sq f4 [128, 128]
0	0x2c11b8f5	2.0708411e-12
1	0x2f0cb09d	1.2795671e-10
2	0x00000000	0.0
3	0x00000000	0.0
4	0x30d08451	1.5171598e-09
5	0x2c88388a	3.8716296e-12
6	0x00000000	0.0
7	0x00000000	0.0
8	0x301b2b2d	5.645003e-10
9	0x2f91ae01	2.6498984e-10
10	0x00000000	0.0
11	0x2f0213b8	1.1830437e-10
12	0x2f21fb18	1.4732071e-10
13	0x127fa3e5	8.066583e-28
14	0x3075b6d0	8.9390273e-10
15	0x2f7d46ed	2.3035414e-10
16	0x2f7e29e2	2.3116045e-10
17	0x302a7805	6.20162e-10
18	0x2e672e18	5.256426e-11
19	0x312b92c6	2.4967206e-09
20	0x00000000	0.0
21	0x2f0067cb	1.1678407e-10
22	0x2f2ed82c	1.5902007e-10
23	0x2f7a88ba	2.2785943e-10
24	0x2f5daccc	2.0161223e-10
25	0x30b7c337	1.3370486e-09
26	0x2bdadc0f	1.555091e-12
27	0x164c2a19	1.6492272e-25
28	0x30906325	1.0505558e-09
29	0x2fb223cd	3.240345e-10
30	0x2fc5fb43	3.6012623e-10
31	0x2bac8b7f	1.2260053e-12
32	0x30a64709	1.2098279e-09
33	0x2f1a5fdd	1.4040276e-10
34	0x2f6ec815	2.1717057e-10
35	0x2d9a92da	1.7572988e-11
36	0x30d508e0	1.5500312e-09
37	0x00000000	0.0
38	0x2ea9e535	7.7259456e-11
39	0x00000000	0.0
40	0x00000000	0.0
41	0x2fd36a1d	3.8456074e-10
42	0x00000000	0.0
43	0x2f6fab00	2.1797675e-10
44	0x2f3664fd	1.6588682e-10
45	0x00000000	0.0
46	0x2d911fcd	1.6498714e-11
47	0x0c042c5f	1.0182263e-31
48	0x2dabd957	1.9536968e-11
49	0x3090582c	1.0502439e-09
50	0x30c3285b	1.4199587e-09
51	0x2d328c56	1.0149289e-11
52	0x2db6d491	2.0785403e-11
53	0x29f64dca	1.0938089e-13
54	0x2f869958	2.4483415e-10
55	0x306fc87f	8.7232616e-10
56	0x2e7970d3	5.6716253e-11
57	0x2db8efe2	2.1024908e-11
58	0x2fc9077e	3.656701e-10
59	0x2c725397	3.443667e-12
60	0x2eac37bb	7.831554e-11
61	0x2f5ce0c4	2.0088736e-10
62	0x2a60ff13	1.9983693e-13
63	0x2f9a186d	2.8029792e-10
64	0x31212345	2.3448632e-09
65	0x30157cee	5.438342e-10
66	0x2ee7ae3e	1.05356154e-10
67	0x2fcd1ac7	3.730831e-10
68	0x30281920	6.115375e-10
69	0x2b2bd558	6.104748e-13
70	0x2ea4c3d7	7.492645e-11
71	0x00000000	0.0
72	0x2cae9d00	4.962808e-12
73	0x2f7f1c83	2.3202244e-10
74	0x301b92a2	5.659705e-10
75	0x2f8b0d8f	2.5293587e-10
76	0x00000000	0.0
77	0x2d58f2c8	1.2332087e-11
78	0x2911011e	3.2197437e-14
79	0x30764e2a	8.9605356e-10
80	0x3091b444	1.0601373e-09
81	0x2cf87b21	7.062254e-12
82	0x00000000	0.0
83	0x3005c2c5	4.86619e-10
84	0x2ee0c627	1.02215396e-10
85	0x2d9e3481	1.7985837e-11
86	0x2eb5c006	8.265037e-11
87	0x2fec1e02	4.2949472e-10
88	0x00000000	0.0
89	0x00000000	0.0
90	0x30261737	6.042344e-10
91	0x30004c3c	4.6674464e-10
92	0x2f8fa930	2.6131763e-10
93	0x2e97a0bd	6.895238e-11
94	0x2f07b6af	1.2343081e-10
95	0x2f1dec6f	1.4363065e-10
96	0x2f801301	2.3296567e-10
97	0x2bed68ed	1.6868986e-12
98	0x00000000	0.0
99	0x00000000	0.0
100	0x2fa4360d	2.9869832e-10
101	0x00000000	0.0
102	0x2fd07aec	3.792232e-10
103	0x303b7314	6.819374e-10
104	0x2d96218a	1.706792e-11
105	0x305f90bc	8.133261e-10
106	0x00000000	0.0
107	0x2ea5d374	7.540893e-11
108	0x2fd823b3	3.9315537e-10
109	0x300bd4f5	5.0870536e-10
110	0x301e9988	5.7698246e-10
111	0x2fe8a19f	4.2315393e-10
112	0x2fed8667	4.3205547e-10
113	0x2e9992ee	6.9837344e-11
114	0x2eb9be8b	8.446673e-11
115	0x2fc83f8d	3.6424944e-10
116	0x2e358e63	4.12811e-11
117	0x00000000	0.0
118	0x2f24b210	1.4978974e-10
119	0x2efd1bc1	1.1510038e-10
120	0x00000000	0.0
121	0x2eda79b0	9.935108e-11
122	0x2fbc6cd4	3.4274328e-10
123	0x30bf39cb	1.3913505e-09
124	0x2f8dcf4e	2.579505e-10
125	0x2f88782f	2.4823651e-10
126	0x00000000	0.0
127	0x310e6a6e	2.0724218e-09
128	0x2c7d5485	3.600038e-12
129	0x2fc84fd1	3.64365e-10
130	0x00000000	0.0
131	0x00000000	0.0
132	0x315441ad	3.0887393e-09
133	0x2c885a40	3.8753722e-12
134	0x00000000	0.0
135	0x00000000	0.0
136	0x30b01b49	1.281344e-09
137	0x3049a1ca	7.335329e-10
138	0x00000000	0.0
139	0x2ea75b64	7.610515e-11
140	0x2fcfc756	3.7794717e-10
141	0x13fcbdc4	6.3800867e-27
142	0x3104b2a1	1.9310067e-09
143	0x301f0ede	5.786499e-10
144	0x2fbe9504	3.466668e-10
145	0x30d37c13	1.5387535e-09
146	0x2e377b95	4.1719145e-11
147	0x31b30259	5.2098525e-09
148	0x00000000	0.0
149	0x2f142c51	1.3476266e-10
150	0x2f6385e2	2.0693094e-10
151	0x300604aa	4.8755544e-10
152	0x2fc430a0	3.5686742e-10
153	0x313d1544	2.7515208e-09
154	0x2b5202c3	7.461082e-13
155	0x17a5259a	1.0672367e-24
156	0x312dbcee	2.5282207e-09
157	0x306c9be2	8.607782e-10
158	0x3014ce1a	5.4134974e-10
159	0x2b49d87c	7.170998e-13
160	0x3135d35e	2.6459115e-09
161	0x2f5c0b49	2.0012893e-10
162	0x2fd1fa8e	3.8194908e-10
163	0x2e36048a	4.138604e-11
164	0x313dc09e	2.761261e-09
165	0x00000000	0.0
166	0x2e5bc59c	4.9970347e-11
167	0x00000000	0.0
168	0x00000000	0.0
169	0x3032386d	6.483621e-10
170	0x00000000	0.0
171	0x2fee5c15	4.3357376e-10
172	0x2f835efe	2.3896257e-10
173	0x00000000	0.0
174	0x2d2fc58f	9.991465e-12
175	0x0d203415	4.93665e-31
176	0x2e3984c1	4.218204e-11
177	0x30c069f7	1.3999956e-09
178	0x31419ed1	2.8175473e-09
179	0x2cee154b	6.766731e-12
180	0x2de6f65d	2.625738e-11
181	0x294f6caa	4.6057484e-14
182	0x2fd53856	3.8784503e-10
183	0x31090817	1.9940722e-09
184	0x2e221115	3.6849707e-11
185	0x2d5a8c0a	1.242296e-11
186	0x3003df2f	4.7974685e-10
187	0x2cb2a9fa	5.0779355e-12
188	0x2ef991ee	1.13491314e-10
189	0x2fe78bea	4.211807e-10
190	0x29f4b8a2	1.08678054e-13
191	0x2faa1d75	3.094375e-10
192	0x3195cca4	4.3597357e-09
193	0x30b43f32	1.3114685e-09
194	0x2f6b2788	2.138717e-10
195	0x301a9523	5.623681e-10
196	0x30abbc26	1.2495363e-09
197	0x2ae2087f	4.015156e-13
198	0x2ec31956	8.872074e-11
199	0x00000000	0.0
200	0x2c85ad8f	3.7993562e-12
201	0x2fc6337c	3.6052572e-10
202	0x30d27f87	1.5315756e-09
203	0x302c6498	6.271619e-10
204	0x00000000	0.0
205	0x2e5874e7	4.9216544e-11
206	0x2852ab07	1.1694427e-14
207	0x3102b827	1.9022168e-09
208	0x31198616	2.234065e-09
209	0x2cee0ed9	6.7660153e-12
210	0x00000000	0.0
211	0x3093a4d6	1.0742507e-09
212	0x2ea9ab4d	7.7156594e-11
213	0x2e7a8cf3	5.6968607e-11
214	0x2f2a2fa6	1.5478338e-10
215	0x308d4639	1.0279059e-09
216	0x00000000	0.0
217	0x00000000	0.0
218	0x30b8fbad	1.3459293e-09
219	0x30825145	9.481843e-10
220	0x2fc8859f	3.6474732e-10
221	0x2f1ff3d1	1.4547587e-10
222	0x2fc52422	3.5859765e-10
223	0x2fa004e6	2.910731e-10
224	0x302097f0	5.8423577e-10
225	0x2bc0a312	1.3687682e-12
226	0x00000000	0.0
227	0x00000000	0.0
228	0x2f8d69fd	2.572306e-10
229	0x00000000	0.0
230	0x308e7cf4	1.0367374e-09
231	0x308ea048	1.0377414e-09
232	0x2e337449	4.080317e-11
233	0x30b2a3cf	1.2997762e-09
234	0x00000000	0.0
235	0x2e554978	4.8495846e-11
236	0x30908b3a	1.051695e-09
237	0x307217d8	8.807297e-10
238	0x30a0abc0	1.1690346e-09
239	0x304d2eb2	7.4644924e-10
240	0x30396905	6.745185e-10
241	0x2f3310f3	1.6285977e-10
242	0x2fa37d81	2.9738703e-10
243	0x307288c1	8.8233426e-10
244	0x2eb94797	8.425543e-11
245	0x00000000	0.0
246	0x2f45710e	1.7957211e-10
247	0x2f21ad4b	1.4704431e-10
248	0x00000000	0.0
249	0x2f82ed65	2.381554e-10
250	0x302a21a3	6.189344e-10
251	0x31395e0d	2.6974505e-09
252	0x301d309e	5.7185356e-10
253	0x302e0740	6.3311134e-10
254	0x00000000	0.0
255	0x31840ad3	3.842936e-09
