001-machine_learning/data/00001-MLP-temperature/014_checkpoint.pth (torch_old, 409229 bytes, 30 tensors)

exp_avg f4 [64, 4]
000000 00 00 00 00 00 00 00 00 00 00 00 00 00 00 00 00
       0.0 0.0 0.0 0.0
000010 43 b9 8e b8 2f 4a 94 b8 74 32 8e b8 2c 6a af b8
       -6.805595e-05 -7.071008e-05 -6.780485e-05 -8.364426e-05
000020 55 ce f5 b7 60 34 fb b7 cb c1 e3 b7 90 31 11 b8
       -2.9302357e-05 -2.994592e-05 -2.715075e-05 -3.4616853e-05
000030 33 dc a8 37 3e 75 b4 37 2f 1d 8c 37 7a 2f bc 37
       2.0129699e-05 2.1512267e-05 1.670289e-05 2.2433454e-05
000040 1f 1b 34 38 a6 9b 3c 38 5b be eb 37 d8 ee 36 38
       4.2940603e-05 4.496765e-05 2.8102824e-05 4.3614622e-05
000050 20 55 87 37 5c 1a 91 37 fd 0e f0 36 16 46 20 36
       1.6132894e-05 1.7297622e-05 7.1543022e-06 2.3882653e-06
000060 00 00 00 00 00 00 00 00 00 00 00 00 00 00 00 00
       0.0 0.0 0.0 0.0
000070 0c 71 a1 b6 18 e4 9d b6 bc 76 19 36 96 fb e8 35
       -4.8113343e-06 -4.705518e-06 2.286789e-06 1.7358568e-06
000080 6c 24 1f 37 c7 4a 1d 37 11 dd 71 36 d6 79 5a b6
       9.485619e-06 9.37534e-06 3.6040476e-06 -3.255545e-06
000090 00 00 00 00 00 00 00 00 00 00 00 00 00 00 00 00
       0.0 0.0 0.0 0.0
0000a0 17 0e 09 39 d0 de 0f 39 46 76 c4 38 d0 86 0b 39
       0.00013070587 0.00013720547 9.3680384e-05 0.00013306295
0000b0 05 55 2e 39 c2 17 34 39 c1 1d 0c 39 3f f9 2c 39
       0.00016625605 0.00017174988 0.00013362525 0.0001649605
0000c0 dd 66 b1 38 ec 7c b9 38 3c 48 6a 38 eb 57 ae 38
       8.4591775e-05 8.844756e-05 5.585722e-05 8.3133426e-05
0000d0 00 00 00 00 06 6a 4d b1 ed 51 9c b1 ae 56 a4 b0
       0.0 -2.9891694e-09 -4.5495114e-09 -1.1957206e-09
0000e0 b9 a8 61 39 88 ae 64 39 61 51 ec 38 1d cc 48 39
       0.00021520526 0.00021808792 0.00011268515 0.00019149524
0000f0 47 d5 3a b9 81 61 41 b9 73 18 1b b9 a8 19 4e b9
       -0.00017817794 -0.00018442237 -0.0001479106 -0.00019655249
000100 00 00 00 00 04 00 00 80 e2 e5 19 28 21 67 03 24
       0.0 -6e-45 8.543054e-15 2.849345e-17
000110 99 37 44 b6 fe 78 1a b6 fc 16 14 b6 93 88 19 b4
       -2.9238638e-06 -2.3018215e-06 -2.2067097e-06 -1.4298921e-07
000120 b5 f0 88 b8 4d 4c 8c b8 87 94 4f b8 bd 05 8b b8
       -6.5298205e-05 -6.689932e-05 -4.9490973e-05 -6.629105e-05
000130 6f 5e 0b 35 6a 04 a5 b4 03 60 a9 32 d6 19 0d b5
       5.1918954e-07 -3.0736857e-07 1.971785e-08 -5.256419e-07
000140 67 f3 dd b7 40 91 e4 b7 26 de fe b7 c6 ab 1c b8
       -2.6458596e-05 -2.7247355e-05 -3.0382605e-05 -3.7353275e-05
000150 00 00 00 00 00 00 00 00 00 00 00 00 00 00 00 00
       0.0 0.0 0.0 0.0
000160 c7 53 ac b8 be d5 b0 b8 f7 39 67 b8 4d ee ce b8
       -8.217204e-05 -8.4321466e-05 -5.5128676e-05 -9.8672324e-05
000170 5f d8 d9 b5 64 64 f3 b5 96 f2 3f 35 d4 e4 7b 34
       -1.6230732e-06 -1.8134128e-06 7.1506054e-07 2.3459444e-07
000180 00 00 00 00 00 00 00 00 00 00 00 00 00 00 00 00
       0.0 0.0 0.0 0.0
000190 00 00 00 00 00 00 00 00 00 00 00 00 00 00 00 00
       0.0 0.0 0.0 0.0
0001a0 00 00 00 00 49 80 00 35 2e 2e fc 33 17 44 f6 34
       0.0 4.7870395e-07 1.17430645e-07 4.5870613e-07
0001b0 18 01 88 b8 22 bd 8e b8 38 39 84 b8 4c 34 a8 b8
       -6.485189e-05 -6.8063164e-05 -6.304908e-05 -8.020605e-05
0001c0 23 5e 3a 38 b6 2e 35 38 4c d8 9e 37 99 54 5e 37
       4.4433527e-05 4.3197266e-05 1.8935789e-05 1.3251928e-05
0001d0 c8 3f a4 b5 d0 87 7a b5 25 6c 15 b7 18 8b 26 b7
       -1.2237515e-06 -9.332989e-07 -8.906271e-06 -9.926756e-06
0001e0 5a 56 00 39 b4 5a 05 39 27 da da 38 f7 96 0d 39
       0.000122392 0.00012717658 0.00010435684 0.00013503047
0001f0 e8 a5 0d 38 17 e9 14 38 61 0d 09 38 2e 04 31 38
       3.3771532e-05 3.550303e-05 3.2675805e-05 4.220398e-05
000200 0e 48 35 b9 43 d1 3c b9 3f 4d 1a b9 8c 3f 4d b9
       -0.00017288348 -0.00018007033 -0.00014715361 -0.00019573997
000210 fa 65 b3 38 8d 27 b7 38 cc 55 5a 38 99 b5 b6 38
       8.55438e-05 8.733487e-05 5.2055155e-05 8.7122615e-05
000220 e7 1d 6a b7 d4 1a 81 b7 fe 50 8b 36 cb 3d 21 b6
       -1.3954449e-05 -1.5390491e-05 4.1519515e-06 -2.4026838e-06
000230 32 0e af b8 b3 5c b7 b8 e1 f8 9e b8 cf 81 d2 b8
       -8.347294e-05 -8.7433866e-05 -7.5803844e-05 -0.00010037759
000240 4e d9 2a b9 3c f5 31 b9 bd e6 06 b9 a6 ff 39 b9
       -0.00016293416 -0.00016971392 -0.00012865193 -0.00017738211
000250 bb f7 49 38 c0 fa 53 38 fe 40 26 38 ad 3b 5c 38
       4.815285e-05 5.053985e-05 3.9638013e-05 5.2507665e-05
000260 00 00 00 00 00 00 00 00 00 00 00 00 00 00 00 00
       0.0 0.0 0.0 0.0
000270 f5 31 a6 38 86 2a ab 38 91 5c a0 38 63 13 cf 38
       7.924802e-05 8.161836e-05 7.6466364e-05 9.87414e-05
000280 bf 60 49 37 3f 9d 4c 37 07 cb 19 36 e2 a8 96 36
       1.2003059e-05 1.2195959e-05 2.2916954e-06 4.490009e-06
000290 66 8f 3e b6 e2 36 d4 b5 ba b6 64 b5 cf 1c 8c b4
       -2.8395675e-06 -1.5811204e-06 -8.520252e-07 -2.6097993e-07
0002a0 ab d7 e4 b8 c4 08 ed b8 4c 84 ce b8 4e f4 03 b9
       -0.000109120585 -0.000113026734 -9.847488e-05 -0.00012584144
0002b0 b4 48 00 38 65 ac 00 38 23 cc 9c 37 32 d8 ec 37
       3.058529e-05 3.0678133e-05 1.8691708e-05 2.8234066e-05
0002c0 17 c1 88 38 53 a1 8d 38 03 32 70 38 c2 7c 96 38
       6.520951e-05 6.753453e-05 5.7267036e-05 7.175795e-05
0002d0 04 00 00 00 f4 27 47 34 62 50 18 33 50 90 82 34
       6e-45 1.8547854e-07 3.5463366e-08 2.4319388e-07
0002e0 04 00 00 00 d2 98 a4 2b e0 02 a7 ae 08 c8 df ac
       6e-45 1.1695317e-12 -7.5947915e-11 -6.360249e-12
0002f0 00 00 00 00 00 00 00 00 00 00 00 00 00 00 00 00
       0.0 0.0 0.0 0.0
000300 6d 53 45 b9 9e 76 4d b9 6d 78 19 b9 03 7d 49 b9
       -0.00018818463 -0.00019594512 -0.00014636079 -0.00019215424
000310 6e e7 d8 b8 df 7e de b8 62 db ae b8 43 68 f6 b8
       -0.0001034279 -0.000106094165 -8.33783e-05 -0.00011749614
000320 00 00 00 00 00 00 00 00 00 00 00 00 00 00 00 00
       0.0 0.0 0.0 0.0
000330 6d 41 0d b9 bc f2 12 b9 ec 9d e1 b8 80 92 21 b9
       -0.00013471181 -0.0001401407 -0.00010758251 -0.00015408732
000340 99 fb 48 39 9d 7e 4e 39 be 70 1b 39 81 42 4a 39
       0.00019167214 0.00019692858 0.00014823952 0.00019288996
000350 55 49 67 b3 f9 51 81 b3 26 32 8f 32 35 9e 9d 33
       -5.3850574e-08 -6.021941e-08 1.6670196e-08 7.33966e-08
000360 00 00 00 00 00 00 00 00 00 00 00 00 00 00 00 00
       0.0 0.0 0.0 0.0
000370 e3 98 df 37 dc 29 e3 37 39 e2 13 38 b1 aa 21 38
       2.6654865e-05 2.7080001e-05 3.5258217e-05 3.854436e-05
000380 00 11 2d 37 69 c4 40 37 c2 36 82 36 dc 38 03 37
       1.0315562e-05 1.1489822e-05 3.8806766e-06 7.821447e-06
000390 db 41 b2 36 37 03 bc 36 b5 29 ca 37 fb f0 a3 37
       5.31248e-06 5.603211e-06 2.4099698e-05 1.954333e-05
0003a0 00 00 00 00 dd f3 04 b6 b2 af 33 b5 65 2c f4 b5
       0.0 -1.981148e-06 -6.6938367e-07 -1.8192337e-06
0003b0 43 d1 e8 b8 fa 36 f2 b8 e5 47 b3 b8 1e 90 fb b8
       -0.000111016 -0.000115496994 -8.5487765e-05 -0.000119954566
0003c0 c9 1d 94 b6 37 01 96 b6 a2 ad bc 36 7c e5 7f 36
       -4.414211e-06 -4.47049e-06 5.62305e-06 3.8131539e-06
0003d0 00 00 00 00 00 00 00 00 00 00 00 00 00 00 00 00
       0.0 0.0 0.0 0.0
0003e0 2b 69 89 b7 2b 8c 8e b7 87 79 cc 33 77 60 82 b7
       -1.6380645e-05 -1.699299e-05 9.521596e-08 -1.5542128e-05
0003f0 bb 0b 44 b3 00 dd a7 b2 c3 73 19 b3 5e 5b a1 b3
       -4.5645475e-08 -1.9541858e-08 -3.5728373e-08 -7.513766e-08

exp_avg_sq f4 [64, 4]
000000 00 00 00 00 00 00 00 00 00 00 00 00 00 00 00 00
       0.0 0.0 0.0 0.0
000010 2b 77 55 33 70 4d 17 33 44 b1 53 32 36 a8 0f 33
       4.970131e-08 3.5227856e-08 1.2322122e-08 3.344777e-08
000020 df f6 0f 32 b4 ec 81 32 51 bf 2b 32 53 7a 8d 32
       8.3798275e-09 1.5125217e-08 9.99701e-09 1.6470187e-08
000030 30 12 eb 31 ba 5f 96 32 f1 7a 8c 32 73 a8 c2 32
       6.841468e-09 1.750583e-08 1.6354052e-08 2.2661174e-08
000040 b6 21 d9 31 86 5a 6f 32 b0 f7 51 32 68 7f 85 32
       6.3193637e-09 1.3932214e-08 1.2221719e-08 1.5541175e-08
000050 cf 1e 79 31 90 bd 11 34 03 9d c7 33 10 c1 27 34
       3.6251782e-09 1.357314e-07 9.29522e-08 1.5623323e-07
000060 00 00 00 00 00 00 00 00 00 00 00 00 00 00 00 00
       0.0 0.0 0.0 0.0
000070 2a df 25 30 65 5b e5 30 cc 15 d8 2f 71 ec b0 30
       6.0343786e-10 1.6687919e-09 3.930566e-10 1.2872886e-09
000080 9b dc a2 30 4e 8f f4 33 a4 4d d0 33 19 67 11 34
       1.1849751e-09 1.13882024e-07 9.6998775e-08 1.3541684e-07
000090 00 00 00 00 00 00 00 00 00 00 00 00 00 00 00 00
       0.0 0.0 0.0 0.0
0000a0 79 f1 a6 33 f5 43 1c 34 64 23 22 34 95 07 39 34
       7.773901e-08 1.4553355e-07 1.5100301e-07 1.7232226e-07
0000b0 97 2a 22 34 54 83 0a 35 a3 35 c2 34 28 5f 1f 35
       1.510292e-07 5.1600114e-07 3.6174342e-07 5.9370586e-07
0000c0 43 aa ce 32 98 66 34 33 3e 27 2f 33 96 43 4a 33
       2.4058982e-08 4.2002824e-08 4.0781053e-08 4.709326e-08
0000d0 00 00 00 00 3a 41 2d 30 2f 3a 5d 32 e6 66 fa 30
       0.0 6.3029726e-10 1.28771225e-08 1.821914e-09
0000e0 50 70 8f 33 27 e1 40 33 62 90 d3 32 53 33 4b 33
       6.679386e-08 4.490826e-08 2.462929e-08 4.73113e-08
0000f0 10 3c 50 34 af 7c 03 35 bc b3 b0 34 db 70 15 35
       1.939336e-07 4.898274e-07 3.291333e-07 5.567105e-07
000100 00 00 00 00 62 22 50 15 a2 71 18 20 64 6c ef 19
       0.0 4.203239e-26 1.2912499e-19 2.47558e-23
000110 49 0b 8f 30 38 dd 2d 33 06 13 84 32 86 8d 25 33
       1.0407827e-09 4.04809e-08 1.5375473e-08 3.854577e-08
000120 53 f7 af 32 07 e2 3f 33 ec 9c f1 32 64 37 66 33
       2.0485151e-08 4.4676224e-08 2.8127452e-08 5.3601426e-08
000130 a5 15 5c 31 59 93 99 33 8d 58 ac 33 ec 88 d4 33
       3.2026517e-09 7.15142e-08 8.0254814e-08 9.896925e-08
000140 7f 3c 51 32 cf 48 e1 32 2a 9d 57 32 54 c4 e6 32
       1.2179156e-08 2.6226557e-08 1.2550382e-08 2.6864804e-08
000150 00 00 00 00 00 00 00 00 00 00 00 00 00 00 00 00
       0.0 0.0 0.0 0.0
000160 ee 2b f0 32 fe b0 9c 33 62 22 95 33 0c 3e c4 33
       2.7959654e-08 7.296511e-08 6.9446074e-08 9.1382475e-08
000170 a8 a9 c2 31 ca 6f 95 30 83 dd f1 30 10 0e 96 2f
       5.665431e-09 1.0872949e-09 1.7598015e-09 2.7294833e-10
000180 00 00 00 00 00 00 00 00 00 00 00 00 00 00 00 00
       0.0 0.0 0.0 0.0
000190 00 00 00 00 00 00 00 00 00 00 00 00 00 00 00 00
       0.0 0.0 0.0 0.0
0001a0 00 00 00 00 e2 92 50 33 4c b4 18 33 e0 42 7a 33
       0.0 4.8562363e-08 3.5554237e-08 5.8268483e-08
0001b0 e5 cf 2d 33 a7 9e 13 33 87 1e 82 32 f0 88 fa 32
       4.046878e-08 3.4370398e-08 1.5147874e-08 2.9166102e-08
0001c0 b9 e2 83 31 fa 7a 94 31 19 12 6e 30 68 ce 79 2f
       3.838377e-09 4.3213477e-09 8.6609614e-10 2.2719748e-10
0001d0 c8 72 37 31 79 aa 50 32 f8 66 89 31 89 b3 2d 32
       2.669525e-09 1.21459545e-08 3.998931e-09 1.0110747e-08
0001e0 08 6f d6 33 21 ef 71 34 5a 13 44 34 5a 88 97 34
       9.985348e-08 2.2531869e-07 1.8260963e-07 2.822515e-07
0001f0 99 9d 34 32 85 92 ee 32 7a 19 90 32 a9 1f f7 32
       1.05132125e-08 2.7773476e-08 1.6775392e-08 2.8768982e-08
000200 07 b6 62 34 aa 06 17 35 02 63 de 34 0a b3 30 35
       2.1114111e-07 5.626158e-07 4.142276e-07 6.5825645e-07
000210 32 43 de 33 17 39 86 34 52 a6 f3 34 2e cc ee 34
       1.0349903e-07 2.5000983e-07 4.538329e-07 4.4479515e-07
000220 35 f0 79 31 ba 83 1a 31 00 35 25 30 58 db e9 2e
       3.637081e-09 2.2484827e-09 6.010197e-10 1.06345766e-10
000230 2a ec 81 33 0f ce a8 33 eb 7b 4c 33 28 2a 9b 33
       6.0499886e-08 7.8605915e-08 4.7610154e-08 7.225418e-08
000240 28 7e 23 34 dd 90 e2 34 10 14 3c 34 1e 2a e7 34
       1.5226453e-07 4.2201182e-07 1.7516163e-07 4.3057747e-07
000250 28 82 7c 32 3a 79 17 33 f9 e5 22 33 15 f7 44 33
       1.4697925e-08 3.5267682e-08 3.7927723e-08 4.5859526e-08
000260 00 00 00 00 00 00 00 00 00 00 00 00 00 00 00 00
       0.0 0.0 0.0 0.0
000270 f7 df 7a 33 ef de 51 34 08 ee 17 34 c6 d7 6f 34
       5.8411356e-08 1.9545745e-07 1.4149566e-07 2.2337107e-07
000280 4f fa 60 30 ba 40 a1 30 a2 02 f2 30 ed a7 72 30
       8.1846435e-10 1.1732688e-09 1.7608566e-09 8.8277724e-10
000290 82 23 a4 31 7f ef b6 33 90 16 59 33 35 3c c5 33
       4.777065e-09 8.5185995e-08 5.054477e-08 9.184479e-08
0002a0 43 9f b9 33 7f d1 78 34 55 9e 2d 34 85 93 8f 34
       8.643703e-08 2.3173014e-07 1.6169481e-07 2.674316e-07
0002b0 71 78 5b 30 9d 18 99 32 b9 96 1e 32 c6 72 a0 32
       7.9842893e-10 1.7822737e-08 9.231081e-09 1.8678644e-08
0002c0 e6 5f f6 32 8d 56 83 33 25 8d 1c 33 29 93 8c 33
       2.8681779e-08 6.1159064e-08 3.644995e-08 6.546026e-08
0002d0 73 99 8e 25 60 77 ec 32 45 3a a2 32 6c 7d 12 33
       2.4737055e-16 2.7528301e-08 1.888578e-08 3.4107345e-08
0002e0 3c 0b 98 15 c5 fc 94 27 d8 0b ee 2c a3 b1 21 29
       6.1410036e-26 4.1352305e-15 6.7656818e-12 3.5903257e-14
0002f0 00 00 00 00 00 00 00 00 00 00 00 00 00 00 00 00
       0.0 0.0 0.0 0.0
000300 b2 8a 3a 34 b9 c5 e7 34 85 20 97 34 f6 76 01 35
       1.7373057e-07 4.3170965e-07 2.8149603e-07 4.8229356e-07
000310 d7 80 77 33 54 05 33 34 da 75 e3 33 92 61 4a 34
       5.7626348e-08 1.6672612e-07 1.0591948e-07 1.8848212e-07
000320 00 00 00 00 00 00 00 00 00 00 00 00 00 00 00 00
       0.0 0.0 0.0 0.0
000330 4c 2e e8 33 a6 ae a9 33 17 78 de 32 d3 ae 94 33
       1.0811763e-07 7.901444e-08 2.5898812e-08 6.9235874e-08
000340 df 92 5d 34 92 37 24 35 6a dc fc 34 43 b4 4e 35
       2.063566e-07 6.1175626e-07 4.709903e-07 7.7003295e-07
000350 f6 6a 05 2f 2a cb 6c 2c ab 65 3d 2f b9 e8 c2 2d
       1.213428e-10 3.3650396e-12 1.722557e-10 2.2158596e-11
000360 00 00 00 00 00 00 00 00 00 00 00 00 00 00 00 00
       0.0 0.0 0.0 0.0
000370 62 bd bf 32 5c bd a4 33 a3 45 25 33 9c ed b4 33
       2.2321448e-08 7.6712894e-08 3.848039e-08 8.425124e-08
000380 87 1e ea 30 3a 2e 7b 30 d4 e1 77 30 da ef 8f 30
       1.7034417e-09 9.137896e-10 9.0179e-10 1.0472789e-09
000390 36 eb 4c 32 1b 70 16 33 36 ea 94 32 4e 41 0a 33
       1.1927844e-08 3.5026556e-08 1.7335974e-08 3.2190023e-08
0003a0 00 00 00 00 fc 42 f3 34 dd 39 e1 34 e9 e5 25 35
       0.0 4.5311015e-07 4.1951617e-07 6.1801853e-07
0003b0 73 4f 98 33 d4 09 32 34 b3 f6 ff 33 06 e0 52 34
       7.092503e-08 1.6581117e-07 1.1919237e-07 1.9639273e-07
0003c0 23 70 17 31 40 d9 a8 31 63 d1 02 31 27 f1 7f 31
       2.2037134e-09 4.914142e-09 1.9036512e-09 3.7244463e-09
0003d0 00 00 00 00 00 00 00 00 00 00 00 00 00 00 00 00
       0.0 0.0 0.0 0.0
0003e0 f1 81 96 30 ae 8a 71 30 8c fa 3e 2e 0b c5 c7 2f
       1.0950868e-09 8.7872365e-10 4.342353e-11 3.6337897e-10
0003f0 07 4d 12 2f 63 c6 db 2c f6 33 69 2e bc 23 a0 2e
       1.3305988e-10 6.2463797e-12 5.3024217e-11 7.282305e-11

exp_avg f4 [64]
000000 00 00 00 00 cc 8e 8e b8 5c 83 f4 b7 5e 30 a7 37
       0.0 -6.797686e-05 -2.9148236e-05 1.9930474e-05
000010 bd d3 33 38 78 3b 8c 37 00 00 00 00 10 4b a7 b6
       4.2874122e-05 1.6716993e-05 0.0 -4.9857263e-06
000020 a6 89 27 37 00 00 00 00 8d 02 09 39 ae 23 2d 39
       9.986024e-06 0.0 0.00013066288 0.00016511857
000030 ad 66 b1 38 a2 e4 bc b1 9c a7 61 39 f1 18 3a b9
       8.4591426e-05 -5.4975127e-09 0.00021520111 -0.00017747634
000040 9c 38 1c 28 ee 24 26 b6 94 32 88 b8 92 37 ff b2
       8.672015e-15 -2.4757423e-06 -6.494406e-05 -2.9711178e-08
000050 0d 0f db b7 00 00 00 00 a4 01 ad b8 57 d8 d9 b5
       -2.6113843e-05 0.0 -8.2495884e-05 -1.6230723e-06
000060 00 00 00 00 00 00 00 00 1f 48 f7 34 fe 54 88 b8
       0.0 0.0 4.605981e-07 -6.5008164e-05
000070 d6 79 3a 38 00 50 6d b5 c3 e5 fe 38 5b f2 0c 38
       4.4459324e-05 -8.8405795e-07 0.0001215446 3.3604312e-05
000080 7c 9b 34 b9 c1 95 b2 38 e5 1d 6a b7 1f be ae b8
       -0.0001722406 8.515595e-05 -1.3954447e-05 -8.3323794e-05
000090 86 16 2a b9 8f 50 49 38 00 00 00 00 b9 a6 a4 38
       -0.00016220854 4.799716e-05 0.0 7.851184e-05
0000a0 3d fe 49 37 00 1a 1a b6 69 89 e3 b8 3f 51 ff 37
       1.2039728e-05 -2.2962922e-06 -0.00010849798 3.0436202e-05
0000b0 95 71 88 38 27 d6 32 34 8f 7d ab ae 00 00 00 00
       6.506142e-05 1.665545e-07 -7.7984834e-11 0.0
0000c0 de 97 44 b9 a3 ab d7 b8 00 00 00 00 6d 41 0d b9
       -0.00018748592 -0.00010283969 0.0 -0.00013471181
0000d0 8d 43 47 39 83 bc 66 b3 00 00 00 00 dd bf d9 37
       0.00019003284 -5.37225e-08 0.0 2.595776e-05
0000e0 d4 0a 2d 37 e6 f6 a9 36 89 88 01 b6 b8 e0 e7 b8
       1.0314125e-05 5.0653352e-06 -1.9301972e-06 -0.000110567955
0000f0 ab c7 96 b6 00 00 00 00 29 69 89 b7 89 0b 44 b3
       -4.4935928e-06 0.0 -1.6380642e-05 -4.5645297e-08

exp_avg_sq f4 [64]
000000 00 00 00 00 46 2c 6d 33 fe b7 17 33 8f a4 64 33
       0.0 5.522113e-08 3.5324767e-08 5.3235052e-08
000010 52 e3 1e 33 9c 8b b8 34 00 00 00 00 67 72 26 31
       3.699399e-08 3.437425e-07 0.0 2.422121e-09
000020 4c 25 a9 34 00 00 00 00 ca 06 ee 34 e0 8c aa 35
       3.150584e-07 0.0 4.4335894e-07 1.2706987e-06
000030 3f b3 02 34 3d 4d cf 32 ce a5 9c 33 17 db 9b 35
       1.2172403e-07 2.4133096e-08 7.294476e-08 1.1612163e-06
000040 6d 8c 23 20 57 b4 ac 33 4e 6f db 33 c9 bd 83 34
       1.38531e-19 8.042178e-08 1.02182284e-07 2.4538738e-07
000050 e7 06 60 33 00 00 00 00 1f 86 63 34 a9 a9 c2 31
       5.2160342e-08 0.0 2.1189815e-07 5.6654312e-09
000060 00 00 00 00 00 00 00 00 8f df 09 34 18 1d 66 33
       0.0 0.0 1.284045e-07 5.357751e-08
000070 33 0b d5 31 76 72 ba 32 03 83 1e 35 7f a3 87 33
       6.200389e-09 2.17053e-08 5.9050234e-07 6.316167e-08
000080 1c 77 bd 35 25 e3 99 35 35 f0 79 31 fc c3 1d 34
       1.4116263e-06 1.1465496e-06 3.637081e-09 1.4693063e-07
000090 b1 38 58 35 e1 59 ec 33 00 00 00 00 09 ec 02 35
       8.054877e-07 1.1005955e-07 0.0 4.877225e-07
0000a0 94 9b 99 31 15 d1 53 34 8f c9 16 35 8c be 29 33
       4.4705732e-09 1.972697e-07 5.617266e-07 3.952168e-08
0000b0 a8 41 12 34 46 7b 9b 33 6f bf fc 2c 00 00 00 00
       1.3621195e-07 7.240173e-08 7.183524e-12 0.0
0000c0 51 bb 88 35 df f0 ce 34 00 00 00 00 51 2e e8 33
       1.0187306e-06 3.8545747e-07 0.0 1.0811767e-07
0000d0 67 ef d6 35 cc 73 34 2f 00 00 00 00 a7 ac 31 34
       1.6013918e-06 1.6412044e-10 0.0 1.654722e-07
0000e0 90 37 59 31 15 88 a0 33 91 b9 b8 35 bc 9a df 34
       3.160924e-09 7.475334e-08 1.3763075e-06 4.164957e-07
0000f0 fb f2 1d 32 00 00 00 00 f0 81 96 30 05 4d 12 2f
       9.19385e-09 0.0 1.0950867e-09 1.3305985e-10

exp_avg f4 [128, 64]
000000 00 00 00 00 04 00 00 00 04 00 00 00 00 00 00 00
       0.0 6e-45 6e-45 0.0
000010 04 00 00 00 04 00 00 00 00 00 00 00 00 00 00 00
       6e-45 6e-45 0.0 0.0
000020 04 00 00 00 00 00 00 00 04 00 00 00 00 00 00 00
       6e-45 0.0 6e-45 0.0
000030 04 00 00 00 04 00 00 00 00 00 00 00 04 00 00 00
       6e-45 6e-45 0.0 6e-45
000040 04 00 00 00 04 00 00 00 04 00 00 00 04 00 00 00
       6e-45 6e-45 6e-45 6e-45
000050 04 00 00 00 00 00 00 00 04 00 00 00 00 00 00 00
       6e-45 0.0 6e-45 0.0
000060 00 00 00 00 00 00 00 00 04 00 00 00 04 00 00 00
       0.0 0.0 6e-45 6e-45
000070 00 00 00 00 04 00 00 00 04 00 00 00 04 00 00 00
       0.0 6e-45 6e-45 6e-45
000080 04 00 00 00 04 00 00 00 00 00 00 00 04 00 00 00
       6e-45 6e-45 0.0 6e-45
000090 00 00 00 00 04 00 00 00 00 00 00 00 04 00 00 00
       0.0 6e-45 0.0 6e-45
0000a0 04 00 00 00 04 00 00 00 04 00 00 00 04 00 00 00
       6e-45 6e-45 6e-45 6e-45
0000b0 04 00 00 00 04 00 00 00 04 00 00 00 00 00 00 00
       6e-45 6e-45 6e-45 0.0
0000c0 00 00 00 00 04 00 00 00 00 00 00 00 00 00 00 00
       0.0 6e-45 0.0 0.0
0000d0 00 00 00 00 00 00 00 00 00 00 00 00 00 00 00 00
       0.0 0.0 0.0 0.0
0000e0 00 00 00 00 00 00 00 00 00 00 00 00 04 00 00 00
       0.0 0.0 0.0 6e-45
0000f0 04 00 00 00 00 00 00 00 00 00 00 00 00 00 00 00
       6e-45 0.0 0.0 0.0
000100 00 00 00 00 23 51 9c ad 38 83 af b2 20 c0 90 b2
       0.0 -1.7771179e-11 -2.0432353e-08 -1.6851175e-08
000110 99 d2 b8 b3 87 7e 9e 2f 00 00 00 00 61 42 68 b3
       -8.606475e-08 2.8829936e-10 0.0 -5.407708e-08
000120 fa ce f4 b1 00 00 00 00 a7 69 98 b3 8f 7d 2c b3
       -7.124865e-09 0.0 -7.0972696e-08 -4.0161066e-08
000130 20 34 47 b3 76 5f 0b ab 00 00 00 00 41 88 02 b2
       -4.6380705e-08 -4.95152e-13 0.0 -7.5979765e-09
000140 04 00 00 00 8a 8a 3d b2 8c 11 1f b3 b9 ef 7c 2f
       6e-45 -1.1032748e-08 -3.703603e-08 2.3004433e-10
000150 51 a2 a1 b3 00 00 00 00 57 22 00 31 00 00 00 00
       -7.526672e-08 0.0 1.8645971e-09 0.0
000160 00 00 00 00 00 00 00 00 f2 a8 04 b0 a9 f6 e4 ad
       0.0 0.0 -4.8261406e-10 -2.6030138e-11
000170 4a f8 e3 2c 90 32 64 b3 fe 9e a3 b2 d6 05 83 b3
       6.4792937e-12 -5.3131373e-08 -1.9047999e-08 -6.1012244e-08
000180 af 20 24 31 2d 53 33 31 00 00 00 00 6c cd 56 b0
       2.388372e-09 2.6095208e-09 0.0 -7.814467e-10
000190 5f 9f a9 b2 8f fe 30 b3 00 00 00 00 58 b3 9d b3
       -1.9746663e-08 -4.1209713e-08 0.0 -7.343505e-08
0001a0 3a 3a 32 b3 e7 b5 72 31 9a 8e 99 b1 a0 06 2b b3
       -4.149681e-08 3.5319034e-09 -4.469098e-09 -3.9820065e-08
0001b0 35 0e fc b3 75 ed 15 b3 00 00 00 00 00 00 00 00
       -1.1737249e-07 -3.4907732e-08 0.0 0.0
0001c0 41 fe 17 b3 de 3d 4a b3 00 00 00 00 00 00 00 00
       -3.538867e-08 -4.7088058e-08 0.0 0.0
0001d0 c9 df 1a b3 00 00 00 00 00 00 00 00 ce 56 f3 b2
       -3.605945e-08 0.0 0.0 -2.8328397e-08
0001e0 96 85 9d ae ab f8 81 b3 76 a6 4b b2 69 c3 5d b3
       -7.163263e-11 -6.052263e-08 -1.1854004e-08 -5.1633297e-08
0001f0 a1 67 05 b4 00 00 00 00 00 00 00 00 00 00 00 00
       -1.242429e-07 0.0 0.0 0.0
000200 00 00 00 00 62 88 3e b4 3c 65 37 37 dc 25 de b5
       0.0 -1.7744745e-07 1.09312205e-05 -1.6551307e-06
000210 54 da 80 38 ba a8 2f b1 00 00 00 00 1d d6 06 38
       6.1441824e-05 -2.5561762e-09 0.0 3.2147498e-05
000220 c9 9b 6e b2 00 00 00 00 4e 93 28 38 f7 89 0d 37
       -1.3888845e-08 0.0 4.019151e-05 8.436377e-06
000230 2b f6 fd 37 00 00 00 00 50 36 fd 36 10 a3 42 36
       3.0274581e-05 0.0 7.5463104e-06 2.9003168e-06
000240 00 00 00 00 e5 63 27 b4 c3 21 03 36 e5 c6 58 af
       0.0 -1.5589428e-07 1.9540173e-06 -1.9715747e-10
000250 12 e4 81 37 00 00 00 00 b3 c7 1c 36 91 ea 27 b1
       1.5484202e-05 0.0 2.3362052e-06 -2.4435034e-09
000260 00 00 00 00 00 00 00 00 f6 87 07 2f 19 82 d3 37
       0.0 0.0 1.2326482e-10 2.5213742e-05
000270 04 00 00 80 1b c0 05 37 82 ea 9d 37 64 46 86 37
       -6e-45 7.972146e-06 1.882506e-05 1.6006823e-05
000280 37 43 16 37 9d 12 30 33 04 00 00 00 af 30 9c 37
       8.956346e-06 4.0995122e-08 6e-45 1.861932e-05
000290 46 6e 61 37 eb 1f cc 37 00 00 00 00 e9 89 08 38
       1.343672e-05 2.4333558e-05 0.0 3.2553366e-05
0002a0 99 20 34 38 39 5f 46 b2 d3 6c af 37 6e e2 bc 35
       4.2945703e-05 -1.1546768e-08 2.09123e-05 1.4072991e-06
0002b0 c2 6c 09 38 4d 48 df b2 00 00 00 00 00 00 00 00
       3.2764634e-05 -2.5993495e-08 0.0 0.0
0002c0 18 db 8c 34 56 31 d7 36 00 00 00 00 34 2e d7 36
       2.6236444e-07 6.4132428e-06 0.0 6.412878e-06
0002d0 77 d6 c3 36 db e8 b8 31 00 00 00 00 de 0b e7 36
       5.83642e-06 5.3815774e-09 0.0 6.885718e-06
0002e0 86 33 0c b6 01 b0 57 37 55 f1 86 af 0b 01 bb 37
       -2.0891616e-06 1.2855978e-05 -2.4545935e-10 2.2292623e-05
0002f0 65 85 3e 38 00 00 00 00 84 23 ed b4 0f 3b 5f 32
       4.5423763e-05 0.0 -4.417053e-07 1.2993737e-08
000300 00 00 00 00 4b 8e d6 36 a0 16 7c 36 2d ef 10 36
       0.0 6.394262e-06 3.7564096e-06 2.159689e-06
000310 f4 c0 20 b6 e6 4d 3e 34 00 00 00 00 a3 d7 94 b4
       -2.3954171e-06 1.7723468e-07 0.0 -2.7724045e-07
000320 17 f3 e0 33 00 00 00 00 ed 8f 6b b5 32 87 18 b6
       1.04750306e-07 0.0 -8.775376e-07 -2.272846e-06
000330 4b c9 ef b6 da b4 e6 ae d3 ce 7d b6 3f c9 cd 36
       -7.1461886e-06 -1.0491315e-10 -3.7820325e-06 6.132904e-06
000340 24 de 54 a4 70 03 0d b4 f1 63 a9 36 f5 a9 07 33
       -4.6158333e-17 -1.3132899e-07 5.048227e-06 3.1586712e-08
000350 0b 15 7f b6 00 00 00 00 bc 8e 6f 35 db c2 4f b3
       -3.801021e-06 0.0 8.9242144e-07 -4.8373163e-08
000360 00 00 00 00 00 00 00 00 d8 90 10 32 4b c9 f0 34
       0.0 0.0 8.414837e-09 4.4849943e-07
000370 5a 70 9c 35 83 19 2d b6 00 a0 04 b6 83 f2 81 34
       1.1655604e-06 -2.5793859e-06 -1.9762665e-06 2.4204573e-07
000380 81 2b bb 36 5e bf 5d b2 86 f0 a7 34 61 39 ed b4
       5.578099e-06 -1.2907405e-08 3.1281178e-07 -4.418644e-07
000390 13 bd 0a 36 0d dc 0a 36 00 00 00 00 d1 70 e9 b6
       2.0673658e-06 2.0691689e-06 0.0 -6.9570747e-06
0003a0 94 ab 04 b4 55 6c ed 32 bb 1d aa 35 00 f2 09 b5
       -1.2355878e-07 2.7639695e-08 1.267464e-06 -5.1388633e-07
0003b0 a8 51 43 36 f0 5a 78 33 71 6b 34 ac 00 00 00 00
       2.9104795e-06 5.7824707e-08 -2.563918e-12 0.0
0003c0 5e 44 0a 37 15 69 7c 35 00 00 00 00 0e 58 bf b5
       8.241359e-06 9.403023e-07 0.0 -1.4256236e-06
0003d0 fe a4 7f b5 d3 27 44 b1 00 00 00 00 e1 a0 40 35
       -9.5235e-07 -2.8544391e-09 0.0 7.1759683e-07
0003e0 c6 23 50 36 30 ad 53 36 4a 5e aa 31 85 08 b4 36
       3.1015238e-06 3.1542259e-06 4.9583706e-09 5.36541e-06
0003f0 5f df 26 b5 00 00 00 00 35 d7 8c 35 9b 03 c4 af
       -6.2164867e-07 0.0 1.0493446e-06 -3.5654754e-10

exp_avg_sq f4 [128, 64]
000000 00 00 00 00 55 24 73 14 97 c9 ab 19 00 00 00 00
       0.0 1.227553e-26 1.7762407e-23 0.0
000010 85 08 4a 1b 37 06 ea 19 00 00 00 00 00 00 00 00
       1.6711801e-22 2.4197543e-23 0.0 0.0
000020 4f 51 ec 19 00 00 00 00 bf dc 2a 1a 00 00 00 00
       2.4434668e-23 0.0 3.5333493e-23 0.0
000030 94 a4 db 1a cf 32 4e 16 00 00 00 00 51 04 0a 18
       9.084217e-23 1.665658e-25 0.0 1.7838261e-24
000040 dd ad c4 13 7d db ab 1a 4f 5c 71 17 8d d3 a5 1a
       4.96488e-27 7.1078545e-23 7.798781e-25 6.858418e-23
000050 42 05 0d 1b 00 00 00 00 f2 f5 2a 1b 00 00 00 00
       1.1664946e-22 0.0 1.414154e-22 0.0
000060 00 00 00 00 00 00 00 00 ce ef b1 18 9c 0e 89 17
       0.0 0.0 4.599557e-24 8.857105e-25
000070 00 00 00 00 2c 86 e1 1a d9 57 9e 17 1d 7e 86 19
       0.0 9.3274585e-23 1.0232687e-24 1.3906212e-23
000080 53 ff d0 18 f8 2d bb 18 00 00 00 00 fe bb 69 18
       5.402455e-24 4.8384784e-24 0.0 3.0209456e-24
000090 00 00 00 00 7c 27 23 18 00 00 00 00 96 bf bc 16
       0.0 2.108719e-24 0.0 3.0493946e-25
0000a0 7e fc 09 1b 73 6d da 19 4b e8 b4 1a c2 c3 2d 1a
       1.1413959e-22 2.2584878e-23 7.4821545e-23 3.5933693e-23
0000b0 73 bf 0b 19 c4 68 dd 12 2b 82 d1 16 00 00 00 00
       7.2247944e-24 1.3972888e-27 3.3847919e-25 0.0
0000c0 00 00 00 00 3d 48 bf 1a 00 00 00 00 00 00 00 00
       0.0 7.9112456e-23 0.0 0.0
0000d0 00 00 00 00 00 00 00 00 00 00 00 00 00 00 00 00
       0.0 0.0 0.0 0.0
0000e0 00 00 00 00 00 00 00 00 00 00 00 00 95 ce b6 19
       0.0 0.0 0.0 1.8901797e-23
0000f0 f7 fc 02 1a 00 00 00 00 00 00 00 00 00 00 00 00
       2.7087713e-23 0.0 0.0 0.0
000100 00 00 00 00 95 64 32 2a ea 4f 0f 2f fc cd b8 2e
       0.0 1.5844472e-13 1.3034165e-10 8.4039414e-11
000110 ca 7f a9 30 be 6c f2 2d 00 00 00 00 e3 e7 92 2f
       1.2332688e-09 2.7560506e-11 0.0 2.672201e-10
000120 36 46 36 2d 00 00 00 00 5b 6e 7b 30 d6 ce 37 2f
       1.0361092e-11 0.0 9.147009e-10 1.6717236e-10
000130 be c6 f6 2f 12 22 10 25 00 00 00 00 af ad 1a 2e
       4.4888354e-10 1.2501552e-16 0.0 3.5169808e-11
000140 f2 04 b9 16 2d 2f ca 2e 37 51 81 2f fa 07 06 2e
       2.9891483e-25 9.1942766e-11 2.352267e-10 3.0475157e-11
000150 1f ee 7c 30 00 00 00 00 11 03 48 2e 00 00 00 00
       9.2015456e-10 0.0 4.547746e-11 0.0
000160 00 00 00 00 00 00 00 00 ac 8e 4a 2d 70 ee 45 24
       0.0 0.0 1.151405e-11 4.291953e-17
000170 81 15 22 22 ae a5 15 30 06 b0 bf 2e 7f a0 19 30
       2.1966478e-18 5.444133e-10 8.7169424e-11 5.5889154e-10
000180 12 3d c4 2c 4d df 51 2d 00 00 00 00 ed 9d ae 2a
       5.577435e-12 1.1929857e-11 0.0 3.1018192e-13
000190 33 3a 0d 2e 82 4d 95 2f 00 00 00 00 fc 7b 06 30
       3.211138e-11 2.7158015e-10 0.0 4.892511e-10
0001a0 46 36 c6 2f 24 19 29 2e 48 6d 07 2e 6b 1b 57 2f
       3.6054554e-10 3.844848e-11 3.0792507e-11 1.9563877e-10
0001b0 ee 59 f3 30 9d 9a c5 2e 00 00 00 00 00 00 00 00
       1.7706137e-09 8.9859876e-11 0.0 0.0
0001c0 fe 6a 58 2f dd cf f6 2f 00 00 00 00 00 00 00 00
       1.9683097e-10 4.4894835e-10 0.0 0.0
0001d0 29 d6 2b 2f 00 00 00 00 00 00 00 00 c0 02 a2 2e
       1.5628444e-10 0.0 0.0 7.3673956e-11
0001e0 44 27 bd 2b 17 4d eb 2f bf 0d 05 2e bf 03 d0 2f
       1.3440156e-12 4.2801027e-10 3.0252908e-11 3.783764e-10
0001f0 f8 d0 04 31 00 00 00 00 00 00 00 00 00 00 00 00
       1.9327313e-09 0.0 0.0 0.0
000200 00 00 00 00 40 2c b1 2f b0 2c 87 30 d2 3e 36 2f
       0.0 3.2227554e-10 9.835244e-10 1.6575122e-10
000210 28 d2 5a 32 51 52 28 2b 00 00 00 00 84 21 43 31
       1.2737054e-08 5.9799827e-13 0.0 2.8395286e-09
000220 e9 53 aa 2c 00 00 00 00 da 34 09 32 54 9f 60 2f
       4.8410065e-12 0.0 7.986467e-09 2.0429286e-10
000230 8f 82 60 31 00 00 00 00 d5 13 8a 2f f4 66 86 2f
       3.2670504e-09 0.0 2.5116145e-10 2.444761e-10
000240 00 00 00 00 fb f5 6e 2e 8c 0f 81 2f e9 63 bc 2b
       0.0 5.433341e-11 2.347601e-10 1.3385934e-12
000250 ea 0f 16 30 00 00 00 00 4c 72 11 30 88 11 64 2a
       5.45923e-10 0.0 5.291312e-10 2.025655e-13
000260 00 00 00 00 00 00 00 00 3c c2 a8 27 42 a5 f2 30
       0.0 0.0 4.6839956e-15 1.7654787e-09
000270 42 a5 0c 12 2e 9c 49 2f 13 d5 14 31 63 1e a7 30
       4.4379907e-28 1.833633e-10 2.1657953e-09 1.2159486e-09
000280 c1 1e 03 30 a7 fe 58 2e 61 a6 86 20 f3 97 46 30
       4.7701226e-10 4.933889e-11 2.2810583e-19 7.2247913e-10
000290 ad 15 e0 2f 74 b1 58 31 00 00 00 00 78 0f 17 31
       4.0760764e-10 3.1533007e-09 0.0 2.1982185e-09
0002a0 1b 38 f4 31 eb 5f f0 2d 2c c6 bb 30 7b 62 64 2e
       7.107713e-09 2.7327437e-11 1.3662365e-09 5.1928666e-11
0002b0 8c a8 9b 31 6e 05 a4 2d 00 00 00 00 00 00 00 00
       4.5302553e-09 1.8647053e-11 0.0 0.0
0002c0 62 cc 57 2f 46 7a f3 2e 00 00 00 00 d7 66 01 2f
       1.9626747e-10 1.1072081e-10 0.0 1.1769018e-10
0002d0 a6 f9 b5 2f c4 60 9c 2a 00 00 00 00 a9 4f a1 2f
       3.3101094e-10 2.777831e-13 0.0 2.934233e-10
0002e0 a4 7a 8f 2f 14 98 ae 30 96 27 f4 2a ba a5 f2 30
       2.609869e-10 1.270339e-09 4.3370575e-13 1.765492e-09
0002f0 6d 8f ed 31 00 00 00 00 4f 25 b0 2a 1f 45 83 2d
       6.9139134e-09 0.0 3.1289768e-13 1.4923672e-11
000300 00 00 00 00 67 a7 7a 2f f9 06 d1 30 a0 df e9 2f
       0.0 2.2796841e-10 1.5208733e-09 4.2541348e-10
000310 5e ab 72 32 0c 97 07 30 00 00 00 00 c4 e3 35 31
       1.4125218e-08 4.9327364e-10 0.0 2.6468436e-09
000320 ec 4d bd 2f 00 00 00 00 2b 56 07 32 f5 d7 76 30
       3.4434267e-10 0.0 7.8776266e-09 8.980117e-10
000330 5c fd 89 31 71 57 85 2c 78 a3 ce 2d 5c 82 48 30
       4.0160284e-09 3.7897953e-12 2.3492083e-11 7.294483e-10
000340 a1 71 c1 18 dc c7 a2 30 61 c9 04 31 52 9c 2b 30
       5.0004067e-24 1.1843855e-09 1.9322999e-09 6.243158e-10
000350 ac 36 06 32 00 00 00 00 0d 4d a1 30 6b 00 81 2b
       7.8122575e-09 0.0 1.1736191e-09 9.166117e-13
000360 00 00 00 00 00 00 00 00 b7 e7 0c 2f 03 d5 30 30
       0.0 0.0 1.2815247e-10 6.4331135e-10
000370 c9 05 94 2c c6 b9 ac 31 29 e4 6b 30 3c d9 8b 31
       4.2070553e-12 5.026979e-09 8.5816737e-10 4.070129e-09
000380 09 36 44 30 01 7a 93 2f c0 4a dc 2a 28 e2 b6 2f
       7.1381173e-10 2.6825833e-10 3.913172e-13 3.32663e-10
000390 89 fa 20 30 31 64 33 31 00 00 00 00 a0 48 5d 31
       5.8563693e-10 2.610488e-09 0.0 3.2201015e-09
0003a0 c6 c5 b9 31 3d 46 08 30 08 bf d1 30 b1 56 d8 30
       5.406693e-09 4.9576326e-10 1.5261046e-09 1.5740708e-09
0003b0 56 0d 66 32 7f 31 2c 30 ee 8e a1 27 00 00 00 00
       1.3390794e-08 6.2643574e-10 4.484144e-15 0.0
0003c0 04 4c 14 31 34 34 ab 31 00 00 00 00 09 d9 f5 2d
       2.1580044e-09 4.98269e-09 0.0 2.7949658e-11
0003d0 80 60 4b 30 5c 8b 0f 2b 00 00 00 00 54 08 e1 2f
       7.3988105e-10 5.0997206e-13 0.0 4.093318e-10
0003e0 a3 dd 8c 2e d5 5a 3b 31 e7 7b c7 2e c9 3c 9f 31
       6.4058335e-11 2.7263714e-09 9.071482e-11 4.6344195e-09
0003f0 9f 6d 82 32 00 00 00 00 1c 72 fd 2b 80 25 8d 2a
       1.5183842e-08 0.0 1.8008403e-12 2.5072652e-13

exp_avg f4 [128]
000000 04 00 00 00 4f a4 f9 b3 40 10 49 38 d5 43 46 36
       6e-45 -1.16248536e-07 4.793727e-05 2.9543783e-06
000010 43 1a fa b7 57 52 50 37 a6 ee 38 38 04 00 00 00
       -2.9814551e-05 1.2416937e-05 4.4091277e-05 6e-45
000020 b5 70 46 b8 04 00 00 00 6c 53 4d b6 77 22 b0 38
       -4.7311845e-05 6e-45 -3.0595938e-06 8.3987536e-05
000030 00 00 00 00 77 00 08 36 04 00 00 00 5a 04 93 38
       0.0 2.026585e-06 6e-45 7.010317e-05
000040 00 00 00 00 04 00 00 00 4d 63 b1 35 d2 f1 3b b4
       0.0 6e-45 1.3216428e-06 -1.7503706e-07
000050 4b 58 a9 b6 e2 75 b6 36 46 fe 6e 38 f2 73 01 38
       -5.046871e-06 5.437746e-06 5.6980432e-05 3.086398e-05
000060 20 b1 21 38 f4 8d c0 b7 c7 62 6f b7 04 00 00 00
       3.855035e-05 -2.2954286e-05 -1.42685085e-05 6e-45
000070 00 00 00 00 4e aa c6 37 1a dd 68 37 37 3f cc b6
       0.0 2.3682744e-05 1.3879757e-05 -6.087033e-06
000080 3d b2 9d 36 04 00 00 00 c3 fd 6f b8 fc 36 bd b7
       4.6997143e-06 6e-45 -5.7218374e-05 -2.255616e-05
000090 c5 52 39 38 f1 51 37 b8 04 00 00 00 00 00 00 00
       4.4184522e-05 -4.3706914e-05 6e-45 0.0
0000a0 6e 14 99 b8 00 00 00 00 35 87 53 2c 00 00 00 00
       -7.299414e-05 0.0 3.0059958e-12 0.0
0000b0 04 00 00 00 04 00 00 00 97 7e a3 b8 a1 d3 c6 b7
       6e-45 6e-45 -7.796025e-05 -2.3701987e-05
0000c0 8b 8d a1 b7 21 ee 44 b8 04 00 00 00 9b 9d 94 b7
       -1.9258607e-05 -4.6951816e-05 6e-45 -1.7716366e-05
0000d0 e0 a7 1b 38 a9 87 d4 35 00 00 00 00 04 00 00 00
       3.7111226e-05 1.5834713e-06 0.0 6e-45
0000e0 28 de 6d 38 79 64 fd b8 04 00 00 00 00 00 00 00
       5.6712102e-05 -0.000120826946 6e-45 0.0
0000f0 00 00 00 00 04 00 00 00 5b 6e a0 37 64 57 ab 33
       0.0 6e-45 1.9124875e-05 7.978704e-08
000100 f9 ea 71 37 00 00 00 00 03 66 9b b7 8d de 3c 38
       1.4419428e-05 0.0 -1.8524943e-05 4.502996e-05
000110 fa ab 71 b7 3d 28 ad b6 7f 4a 3a b7 04 00 00 00
       -1.4404761e-05 -5.160486e-06 -1.1103809e-05 6e-45
000120 e7 f8 f1 b7 04 00 00 00 04 00 00 00 04 00 00 00
       -2.8845343e-05 6e-45 6e-45 6e-45
000130 51 ba 50 37 00 00 00 00 00 00 00 00 04 00 00 00
       1.2441146e-05 0.0 0.0 6e-45
000140 a7 c7 e8 b7 04 00 00 00 00 00 00 00 97 c1 c6 b5
       -2.7749526e-05 6e-45 0.0 -1.4808492e-06
000150 31 62 04 b8 6f 19 52 b8 04 00 00 00 dd 69 e2 b6
       -3.15627e-05 -5.009159e-05 6e-45 -6.747649e-06
000160 21 6a 33 38 e5 37 45 37 04 00 00 00 5b 5f 61 b8
       4.2775766e-05 1.1755129e-05 6e-45 -5.3732987e-05
000170 e7 82 6c 38 64 be 1f b8 58 ba 16 b7 a0 99 0e 37
       5.6388697e-05 -3.808587e-05 -8.984083e-06 8.499628e-06
000180 96 03 00 b8 71 8d 97 37 a5 c8 35 36 55 a5 40 38
       -3.0520918e-05 1.8066467e-05 2.7087892e-06 4.5930345e-05
000190 00 00 00 00 00 00 00 00 49 ef 35 37 00 00 00 00
       0.0 0.0 1.0844154e-05 0.0
0001a0 04 00 00 00 00 00 00 00 00 00 00 00 f2 98 f0 a9
       6e-45 0.0 0.0 -1.0684673e-13
0001b0 1f 4e 35 38 42 55 a6 b6 87 e3 f0 37 d4 66 de b7
       4.322652e-05 -4.957111e-06 2.871618e-05 -2.6512345e-05
0001c0 00 00 00 00 2f 3f 86 38 00 00 00 00 68 d0 c6 37
       0.0 6.401387e-05 0.0 2.3700486e-05
0001d0 00 00 00 00 3c f6 b4 37 70 32 05 37 b5 09 15 34
       0.0 2.1572334e-05 7.939161e-06 1.3880238e-07
0001e0 00 c1 37 b8 b9 c3 af 37 5c 76 bb 36 04 00 00 00
       -4.3810345e-05 2.0952766e-05 5.586813e-06 6e-45
0001f0 da d6 2a b8 ba 94 6b b8 00 00 00 00 00 00 00 00
       -4.0731255e-05 -5.616688e-05 0.0 0.0

exp_avg_sq f4 [128]
000000 76 6b 8c 1b 59 85 34 31 07 7b 32 32 bc 19 d7 32
       2.3230502e-22 2.6269247e-09 1.0388937e-08 2.5040997e-08
000010 91 f0 bc 33 14 c9 c0 31 5e bf 66 34 21 af f1 24
       8.798191e-08 5.6107954e-09 2.1490038e-07 1.0481377e-16
000020 6d 5e 7b 34 9c ec b6 25 c8 6f 1c 30 1a 4f ca 33
       2.3410549e-07 3.17323e-16 5.691132e-10 9.4207465e-08
000030 00 00 00 00 f2 80 45 2d d9 72 bd 1d f5 5a a9 33
       0.0 1.1226785e-11 5.0146633e-21 7.886221e-08
000040 00 00 00 00 54 9d c1 25 80 97 a1 32 b7 30 8f 2f
       0.0 3.3586773e-16 1.8811761e-08 2.6046162e-10
000050 d6 27 ae 32 23 15 99 31 9a 4b d5 32 35 96 ab 32
       2.0274381e-08 4.455289e-09 2.4830843e-08 1.9975326e-08
000060 1e 50 b7 32 51 2e 80 33 3a 5a 72 31 b2 0f b9 25
       2.1340437e-08 5.9688894e-08 3.5266923e-09 3.210302e-16
000070 00 00 00 00 8d 59 30 32 7c 89 9c 31 90 f7 35 33
       0.0 1.026491e-08 4.5558277e-09 4.2367503e-08
000080 a3 7b 21 31 4e 93 d4 24 e3 3a 21 34 7c 71 37 32
       2.3498863e-09 9.218989e-17 1.5015716e-07 1.0677805e-08
000090 7a 14 07 33 fd a7 81 33 da 36 28 20 00 00 00 00
       3.145076e-08 6.0375875e-08 1.4248302e-19 0.0
0000a0 6f b5 8f 33 00 00 00 00 71 bf 47 26 00 00 00 00
       6.691959e-08 0.0 6.9301446e-16 0.0
0000b0 83 74 dd 25 ea 5b d9 22 17 c1 b3 34 72 16 80 33
       3.841634e-16 5.8915286e-18 3.348184e-07 5.964547e-08
0000c0 90 79 89 34 49 1e f4 33 4d 0e ca 1d 98 ad 92 33
       2.5606687e-07 1.1367644e-07 5.348374e-21 6.830231e-08
0000d0 e3 4a a7 33 84 f8 b8 32 00 00 00 00 cf ef c1 1e
       7.790165e-08 2.1533431e-08 0.0 2.0533852e-20
0000e0 b0 a8 4d 32 b4 8f 06 34 c4 f6 17 1d 00 00 00 00
       1.1970926e-08 1.2532001e-07 2.0112258e-21 0.0
0000f0 00 00 00 00 69 0e 3c 24 f0 4f 7b 32 9f f7 de 32
       0.0 4.0778208e-17 1.4628299e-08 2.5956806e-08
000100 ca 94 93 32 00 00 00 00 10 fb b6 31 23 3b 4b 33
       1.7180714e-08 0.0 5.3254396e-09 4.7318405e-08
000110 53 9c ea 33 a6 df 21 32 61 55 f9 30 8c ce fb 23
       1.0924909e-07 9.422285e-09 1.8141401e-09 2.730095e-17
000120 a5 98 0f 34 89 74 35 1a b0 39 4d 24 96 68 48 25
       1.3373445e-07 3.752406e-23 4.4501152e-17 1.738267e-16
000130 97 f1 d9 31 00 00 00 00 00 00 00 00 81 b9 0f 26
       6.342997e-09 0.0 0.0 4.9864496e-16
000140 14 b3 70 33 14 d3 fb 1b 00 00 00 00 cc 04 09 32
       5.6042225e-08 4.1660873e-22 0.0 7.97554e-09
000150 54 d3 f7 33 a1 0e 42 34 e2 f5 80 1f a0 bd 0f 30
       1.1540274e-07 1.807298e-07 5.461689e-20 5.229257e-10
000160 78 34 d5 32 14 a4 f0 31 9b 2e 13 20 65 49 38 34
       2.4820324e-08 7.003573e-09 1.2466805e-19 1.7163036e-07
000170 97 22 3e 34 eb a1 11 34 55 6f d4 32 04 8b 0f 31
       1.7707713e-07 1.3563083e-07 2.4730676e-08 2.088826e-09
000180 32 48 11 34 9e 5a d3 31 80 7c f7 31 b4 04 4b 33
       1.3530442e-07 6.15121e-09 7.2028e-09 4.7268898e-08
000190 00 00 00 00 00 00 00 00 bb a0 dc 2f 00 00 00 00
       0.0 0.0 4.0131973e-10 0.0
0001a0 76 13 69 26 00 00 00 00 00 00 00 00 55 fe 92 23
       8.086449e-16 0.0 0.0 1.5937066e-17
0001b0 bb 88 09 33 ca cb 01 33 1c a4 81 33 2a 73 73 33
       3.2022154e-08 3.0220498e-08 6.036882e-08 5.6682588e-08
0001c0 00 00 00 00 a2 d7 b2 34 00 00 00 00 a6 d0 47 32
       0.0 3.3311977e-07 0.0 1.1630766e-08
0001d0 00 00 00 00 fb 06 4c 33 73 1e 4c 2f c3 e7 48 31
       0.0 4.75038e-08 1.856451e-10 2.9235572e-09
0001e0 48 1a 95 32 d7 17 8e 31 03 a4 bb 30 a1 91 57 1f
       1.7357834e-08 4.135454e-09 1.3652656e-09 4.5648482e-20
0001f0 01 28 76 33 f5 40 3b 34 00 00 00 00 00 00 00 00
       5.731272e-08 1.7439363e-07 0.0 0.0

exp_avg f4 [128, 128]
000000 00 00 00 00 b0 0b 55 b1 3b 9f 80 35 cc b8 f6 36
       0.0 -3.1002223e-09 9.583085e-07 7.3528845e-06
000010 0e 5f f1 36 2e ee c9 36 f7 e7 91 37 04 00 00 00
       7.1934255e-06 6.0179946e-06 1.7393364e-05 6e-45
000020 47 43 90 b5 04 00 00 00 85 f8 92 b5 8a 27 2b 37
       -1.0748416e-06 6e-45 -1.0950176e-06 1.02016e-05
000030 00 00 00 00 da fc e6 32 00 00 00 00 00 ce 00 36
       0.0 2.6890508e-08 0.0 1.9193394e-06
000040 00 00 00 00 04 00 00 80 95 78 80 b4 92 7a 36 32
       0.0 -6e-45 -2.3929593e-07 1.06216635e-08
000050 20 b3 83 b5 c0 89 fd b5 f8 6d 0a 37 8f f0 28 34
       -9.812393e-07 -1.889006e-06 8.251045e-06 1.5733734e-07
000060 74 2f 37 37 db ec 33 36 86 eb 9e 36 04 00 00 80
       1.09186985e-05 2.6810947e-06 4.7361855e-06 -6e-45
000070 00 00 00 00 11 fb 04 35 1b 71 23 b6 8a a5 30 36
       0.0 4.953918e-07 -2.4354729e-06 2.63224e-06
000080 57 ca 91 b3 04 00 00 00 6f 66 c0 b5 d2 3a a6 b5
       -6.788894e-08 6e-45 -1.4334927e-06 -1.2385083e-06
000090 5a 20 e4 35 e9 6c c2 36 04 00 00 80 00 00 00 00
       1.6996739e-06 5.7943294e-06 -6e-45 0.0
0000a0 f2 d6 b7 36 00 00 00 00 04 00 00 00 00 00 00 00
       5.478848e-06 0.0 6e-45 0.0
0000b0 04 00 00 00 04 00 00 00 a3 4f a6 34 2a c3 29 36
       6e-45 6e-45 3.0977853e-07 2.5296563e-06
0000c0 ff 8d 2a b6 13 fb ae 35 04 00 00 80 d8 bb 7d 36
       -2.5414627e-06 1.3037082e-06 -6e-45 3.7809277e-06
0000d0 4d ce c6 36 14 29 01 33 00 00 00 00 04 00 00 80
       5.9248764e-06 3.0072513e-08 0.0 -6e-45
0000e0 44 f6 bb 34 17 e3 87 35 00 00 00 00 00 00 00 00
       3.5010646e-07 1.0124376e-06 0.0 0.0
0000f0 00 00 00 00 04 00 00 00 9e bb ce 34 88 0f 3e 36
       0.0 6e-45 3.8507e-07 2.8321247e-06
000100 66 48 2c 37 00 00 00 00 32 5e b3 35 db 8c fa 36
       1.02688555e-05 0.0 1.3363954e-06 7.4669783e-06
000110 0c 28 2a 36 f1 ff f9 b5 eb fd c2 35 04 00 00 80
       2.5355284e-06 -1.8626434e-06 1.4528026e-06 -6e-45
000120 e5 30 57 36 04 00 00 80 04 00 00 00 04 00 00 00
       3.2065957e-06 -6e-45 6e-45 6e-45
000130 01 63 d5 36 00 00 00 00 00 00 00 00 04 00 00 80
       6.3594202e-06 0.0 0.0 -6e-45
000140 44 2f 4e 36 00 00 00 00 00 00 00 00 9b 35 0f b6
       3.0723904e-06 0.0 0.0 -2.1339863e-06
000150 15 76 18 35 d0 c9 20 b5 04 00 00 00 d5 dc c8 b3
       5.6796245e-07 -5.989832e-07 6e-45 -9.353395e-08
000160 a1 af 6a 36 63 9e a3 34 04 00 00 00 64 49 d7 35
       3.4970947e-06 3.0476357e-07 6e-45 1.6040108e-06
000170 1b 7b 9a 37 b7 ec da 35 75 35 2d 36 f6 32 07 37
       1.8415556e-05 1.6311159e-06 2.5810125e-06 8.058492e-06
000180 7d f6 38 36 cd c2 09 37 d0 30 5e b5 82 70 19 37
       2.7561612e-06 8.211192e-06 -8.2772476e-07 9.145706e-06
000190 00 00 00 00 00 00 00 00 4e 0c 25 36 00 00 00 00
       0.0 0.0 2.4594078e-06 0.0
0001a0 04 00 00 00 00 00 00 00 00 00 00 00 b7 76 1a a2
       6e-45 0.0 0.0 -2.0933739e-18
0001b0 1a 03 32 37 1e e4 2c 32 9d 15 84 36 8f d0 6e 36
       1.0610349e-05 1.00635855e-08 3.9364227e-06 3.558616e-06
0001c0 00 00 00 00 ac 48 8c 37 00 00 00 00 08 68 c8 b5
       0.0 1.6723141e-05 0.0 -1.4931438e-06
0001d0 00 00 00 00 3d 59 a8 36 a9 6e e2 b4 21 0d 04 b2
       0.0 5.017179e-06 -4.2176296e-07 -7.686396e-09
0001e0 48 c2 9a 35 76 55 75 36 13 55 6a 36 04 00 00 00
       1.1530437e-06 3.655759e-06 3.4918237e-06 6e-45
0001f0 ed 22 4a b5 2b a5 80 35 00 00 00 00 00 00 00 00
       -7.530169e-07 9.584813e-07 0.0 0.0
000200 00 00 00 00 28 04 45 af 04 00 00 00 36 71 ab 36
       0.0 -1.7918522e-10 6e-45 5.1093766e-06
000210 64 c6 a1 36 26 05 63 36 de dc 3b 36 04 00 00 00
       4.8212696e-06 3.3828633e-06 2.7993733e-06 6e-45
000220 9c fc 3e 36 00 00 00 00 32 55 07 35 bf e2 53 32
       2.8459244e-06 0.0 5.0415395e-07 1.23333725e-08
000230 00 00 00 00 f1 62 fd b3 04 00 00 80 28 d5 c2 b0
       0.0 -1.1799228e-07 -6e-45 -1.417594e-09
000240 00 00 00 00 04 00 00 00 db 2f a2 33 61 2e 02 b3
       0.0 6e-45 7.552418e-08 -3.0310165e-08
000250 14 06 2e 34 ed e5 4b 35 6a f4 94 33 75 1e 56 b2
       1.6207224e-07 7.595798e-07 6.936246e-08 -1.2463365e-08
000260 19 7b 85 34 fb 38 64 36 20 bf 76 35 04 00 00 00
       2.4862746e-07 3.4007815e-06 9.1920265e-07 6e-45
000270 00 00 00 00 04 00 00 00 7e 55 d6 33 c1 e2 4d 36
       0.0 6e-45 9.9807025e-08 3.0679369e-06
000280 af a8 d8 32 00 00 00 00 a2 35 49 36 8d 3f f1 35
       2.5222418e-08 0.0 2.9982552e-06 1.7974395e-06
000290 b3 f5 5b b1 aa 2c 92 36 00 00 00 00 00 00 00 00
       -3.2008358e-09 4.3563386e-06 0.0 0.0
0002a0 07 c6 90 36 00 00 00 00 7a 53 90 a7 00 00 00 00
       4.314588e-06 0.0 -4.0058534e-15 0.0
0002b0 00 00 00 00 04 00 00 80 94 61 7d 36 ab e0 5d 36
       0.0 -6e-45 3.7756736e-06 3.306234e-06
0002c0 05 10 31 36 43 f9 56 36 00 00 00 00 15 23 80 36
       2.638438e-06 3.2033574e-06 0.0 3.8187814e-06
0002d0 94 f3 77 34 37 e2 e8 b2 00 00 00 00 04 00 00 00
       2.3092281e-07 -2.7111225e-08 0.0 6e-45
0002e0 04 00 00 00 24 34 96 36 00 00 00 00 00 00 00 00
       6e-45 4.4764183e-06 0.0 0.0
0002f0 00 00 00 00 04 00 00 80 b7 fa a0 b2 a6 c9 20 36
       0.0 -6e-45 -1.8740463e-08 2.3959233e-06
000300 16 1d 93 36 00 00 00 00 71 e5 20 35 cb 71 54 34
       4.3843274e-06 0.0 5.9938526e-07 1.9785436e-07
000310 ca be 65 36 25 53 0f 36 8d 4d 69 b4 04 00 00 00
       3.4234713e-06 2.1357057e-06 -2.1728029e-07 6e-45
000320 50 19 97 36 00 00 00 00 00 00 00 00 00 00 00 00
       4.5030974e-06 0.0 0.0 0.0
000330 ff 93 55 36 00 00 00 00 00 00 00 00 04 00 00 00
       3.1825618e-06 0.0 0.0 6e-45
000340 1b 6a 85 36 00 00 00 00 00 00 00 00 97 25 a3 35
       3.976061e-06 0.0 0.0 1.2155386e-06
000350 2c b5 62 36 07 9e 36 36 04 00 00 80 04 00 00 80
       3.378208e-06 2.7212097e-06 -6e-45 -6e-45
000360 51 d3 9d 33 fc 9b e0 b4 00 00 00 00 c6 fb 5a 36
       7.3493204e-08 -4.1836745e-07 0.0 3.2631083e-06
000370 32 df 3c 36 f8 7e 83 36 c0 a1 55 36 df 63 8e 34
       2.81441e-06 3.9188853e-06 3.1833624e-06 2.6522227e-07
000380 69 ca 64 36 f1 d2 a5 35 0e 7a 96 35 17 55 a5 34
       3.4092466e-06 1.235485e-06 1.1211393e-06 3.0795556e-07
000390 00 00 00 00 00 00 00 00 13 0d 3c 35 00 00 00 00
       0.0 0.0 7.0054483e-07 0.0
0003a0 04 00 00 80 00 00 00 00 00 00 00 00 00 00 00 00
       -6e-45 0.0 0.0 0.0
0003b0 7f 78 9a 35 7a 84 41 2b 94 5f ab 34 e9 cc 82 36
       1.1508963e-06 6.875122e-13 3.1920774e-07 3.8981566e-06
0003c0 00 00 00 00 e8 d9 c1 35 00 00 00 00 24 dc 92 32
       0.0 1.444304e-06 0.0 1.7096745e-08
0003d0 00 00 00 00 9a e6 27 36 5e ae 57 b4 24 8a 96 ad
       0.0 2.5019167e-06 -2.008687e-07 -1.7114372e-11
0003e0 ef 9a d8 34 53 95 df b1 38 ab b4 35 04 00 00 80
       4.0345864e-07 -6.5071304e-09 1.3460876e-06 -6e-45
0003f0 b8 0d f8 35 7c 73 67 36 00 00 00 00 00 00 00 00
       1.8481433e-06 3.4488903e-06 0.0 0.0
