001-machine_learning/data/00001-MLP-temperature/016_checkpoint.pth (torch_old, 210138 bytes, 24 tensors)

exp_avg f4 [64, 4]
0	0x38bfa82f	9.138916e-05
1	0x38cd756e	9.797035e-05
2	0x37a79ed0	1.9981904e-05
3	0x38e0e953	0.000107246124
4	0xb904970f	-0.00012644775
5	0xb91393cc	-0.00014074071
6	0xb6abede1	-5.12389e-06
7	0xb90fd12f	-0.0001371547
8	0x00000000	0.0
9	0xb52ccb46	-6.4370795e-07
10	0xb46f586c	-2.2290777e-07
11	0xb51b5602	-5.786716e-07
12	0xb9302faa	-0.00016802424
13	0xb93b7260	-0.00017876318
14	0xb7dde16d	-2.6450225e-05
15	0xb9392e9e	-0.00017660341
16	0xb8769307	-5.87879e-05
17	0xb886e9fc	-6.433201e-05
18	0xb4eada2b	-4.3744635e-07
19	0xb8819928	-6.179727e-05
20	0x00000000	0.0
21	0x00000000	0.0
22	0x00000000	0.0
23	0x00000000	0.0
24	0x00000000	0.0
25	0x34296e45	1.5779467e-07
26	0xb3a09a8c	-7.4786925e-08
27	0x33b6c2a3	8.5104396e-08
28	0x39018439	0.00012351655
29	0x390c5eea	0.00013386799
30	0x37a521b9	1.9685236e-05
31	0x391190b9	0.00013882191
32	0xb7d4a33a	-2.5348378e-05
33	0xb7f7fe68	-2.9563162e-05
34	0x3796b635	1.796624e-05
35	0xb76aef8f	-1.40032635e-05
36	0x00000000	0.0
37	0x32be559e	2.2157845e-08
38	0x328a67af	1.6112464e-08
39	0x31f75004	7.197743e-09
40	0x00000000	0.0
41	0x00000000	0.0
42	0x00000000	0.0
43	0x00000000	0.0
44	0xb7285dda	-1.0035432e-05
45	0xb6ca3c28	-6.0270722e-06
46	0xb6874f1d	-4.0325235e-06
47	0xb680180e	-3.8174976e-06
48	0x00000000	0.0
49	0x00000000	0.0
50	0x00000000	0.0
51	0x00000000	0.0
52	0xb6852ce0	-3.968933e-06
53	0xb682fadf	-3.903507e-06
54	0xb54f6f39	-7.727536e-07
55	0x3503a66e	4.904349e-07
56	0x38f44892	0.00011648344
57	0x38f9faca	0.00011919958
58	0x37e4e9ed	2.7288648e-05
59	0x38e14fb6	0.000107436834
60	0xb942d4b1	-0.00018580515
61	0xb950efce	-0.0001992576
62	0xb855eaeb	-5.100194e-05
63	0xb9617906	-0.00021502757
64	0x00000000	0.0
65	0xb38bb9e9	-6.506509e-08
66	0x3418096d	1.4159532e-07
67	0x31f85186	7.227018e-09
68	0x38d08169	9.9423174e-05
69	0x38ea7632	0.00011180005
70	0x371e8bd8	9.450094e-06
71	0x38df6784	0.0001065275
72	0x00000000	0.0
73	0x00000004	6e-45
74	0x00000004	6e-45
75	0x00000004	6e-45
76	0x38c4efd3	9.390679e-05
77	0x38d0a12e	9.948235e-05
78	0x3777acc4	1.4762572e-05
79	0x38b2ad0c	8.519934e-05
80	0x00000000	0.0
81	0x00000000	0.0
82	0x00000000	0.0
83	0x00000000	0.0
84	0xb84eff1a	-4.935181e-05
85	0xb85009d4	-4.9600218e-05
86	0xb7b031b1	-2.1003974e-05
87	0xb8793fc7	-5.9425623e-05
88	0x38e6cdd4	0.00011005593
89	0x38ea44ef	0.000111708294
90	0x374f2d85	1.234876e-05
91	0x38c45c95	9.363253e-05
92	0x00000000	0.0
93	0x00000000	0.0
94	0x00000000	0.0
95	0x00000000	0.0
96	0xb935413d	-0.00017285808
97	0xb9454c99	-0.00018815919
98	0xb7791751	-1.4846985e-05
99	0xb9463aab	-0.00018904607
100	0xb855e20f	-5.099369e-05
101	0xb85bd579	-5.241248e-05
102	0xb5ff70b7	-1.9031785e-06
103	0xb856f9ee	-5.125434e-05
104	0x381777ac	3.611266e-05
105	0x3810e43e	3.4544842e-05
106	0x3742ee63	1.1618805e-05
107	0x37aa15b4	2.0275686e-05
108	0x39663d69	0.00021957386
109	0x3975b46b	0.00023432232
110	0x386519e6	5.4621974e-05
111	0x397be434	0.00024022238
112	0xb82c2de6	-4.1050742e-05
113	0xb845bc8e	-4.7144065e-05
114	0xb6f9169c	-7.4234104e-06
115	0xb873a928	-5.8093254e-05
116	0x398a5a2a	0.0002638859
117	0x3993087e	0.00028044352
118	0x388a2ee2	6.5890854e-05
119	0x39978969	0.00028903343
120	0xb9063403	-0.00012798612
121	0xb912b740	-0.00013991911
122	0xb7575407	-1.2834563e-05
123	0xb90f05d3	-0.00013639712
124	0xb9719dfc	-0.00023042405
125	0xb98092a2	-0.00024523312
126	0xb878c6dd	-5.9313013e-05
127	0xb9864c2b	-0.0002561522
128	0x388e54ed	6.786906e-05
129	0x389ef2f2	7.579279e-05
130	0x3794491d	1.767702e-05
131	0x38b9064e	8.822662e-05
132	0x34bc97a0	3.512805e-07
133	0xb304f675	-3.0957796e-08
134	0xb3f2b638	-1.13021486e-07
135	0xb4b90a34	-3.446636e-07
136	0x00000000	0.0
137	0x00000000	0.0
138	0x00000000	0.0
139	0x00000000	0.0
140	0x37a8099a	2.0031632e-05
141	0x37e52593	2.7316424e-05
142	0xb6616f54	-3.3592414e-06
143	0x37eb00ce	2.8014558e-05
144	0x00000000	0.0
145	0x00000000	0.0
146	0x00000000	0.0
147	0x00000000	0.0
148	0x35c92015	1.4985004e-06
149	0x357dba86	9.452127e-07
150	0x35a517b8	1.2300361e-06
151	0x359ba866	1.159741e-06
152	0xb98206aa	-0.00024800497
153	0xb98dc1b7	-0.00027037945
154	0xb833fdd3	-4.2913318e-05
155	0xb99529c3	-0.0002845061
156	0x386a3891	5.584263e-05
157	0x388074ab	6.125247e-05
158	0x3784e29b	1.5841148e-05
159	0x388a4edc	6.5950415e-05
160	0x00000000	0.0
161	0x00000000	0.0
162	0x00000000	0.0
163	0x00000000	0.0
164	0xb93903ca	-0.00017644386
165	0xb94696aa	-0.00018938878
166	0xb8579005	-5.1394123e-05
167	0xb9570eeb	-0.00020509555
168	0x3781ebd5	1.5487816e-05
169	0x37499839	1.2015976e-05
170	0x372b1552	1.0197358e-05
171	0x3734ed48	1.0784082e-05
172	0x3878b49a	5.9296006e-05
173	0x3879215e	5.93973e-05
174	0x374fa3ab	1.2376268e-05
175	0x383fe2c1	4.574913e-05
176	0x00000000	0.0
177	0x00000000	0.0
178	0x00000000	0.0
179	0x00000000	0.0
180	0xb96644f8	-0.00021960202
181	0xb977708c	-0.00023597683
182	0xb804e061	-3.168022e-05
183	0xb97c1a07	-0.00024042289
184	0xb59961b5	-1.1427825e-06
185	0xb5d1c265	-1.562829e-06
186	0x3475c962	2.2890666e-07
187	0xb3000988	-2.981099e-08
188	0x00000000	0.0
189	0x350ab854	5.167724e-07
190	0x346941f9	2.1723817e-07
191	0x34fa1d4f	4.6587454e-07
192	0x387bde1a	6.004991e-05
193	0x38909695	6.894503e-05
194	0x36ae04fe	5.1861853e-06
195	0x3899a7d1	7.326867e-05
196	0xb9951491	-0.00028434818
197	0xb9a37748	-0.00031178654
198	0xb862a18c	-5.403305e-05
199	0xb9abb1e6	-0.00032748206
200	0x37f0ceee	2.8706589e-05
201	0x37d9fb84	2.5985537e-05
202	0x378ca28f	1.6764998e-05
203	0x37aaa915	2.0344314e-05
204	0xb7a53ef9	-1.9698857e-05
205	0xb73d7305	-1.1292058e-05
206	0xb6798e6f	-3.7186799e-06
207	0x36529076	3.1376526e-06
208	0x34a4221b	3.0572195e-07
209	0x33feb934	1.1861485e-07
210	0xb37f1856	-5.9393948e-08
211	0xb480142c	-2.3856535e-07
212	0xb902a537	-0.00012459313
213	0xb90d2c18	-0.00013463234
214	0xb761f003	-1.3466927e-05
215	0xb90531db	-0.00012702441
216	0x00000000	0.0
217	0x00000000	0.0
218	0x00000000	0.0
219	0x00000000	0.0
220	0xb938e3cd	-0.0001763247
221	0xb943eab8	-0.00018684089
222	0xb866cd43	-5.5027438e-05
223	0xb94b9408	-0.00019414735
224	0xb6aa4a25	-5.0750264e-06
225	0xb685915e	-3.980632e-06
226	0xb63fee5b	-2.859996e-06
227	0xb6843367	-3.9398906e-06
228	0x00000000	0.0
229	0x00000000	0.0
230	0x00000000	0.0
231	0x00000000	0.0
232	0x00000000	0.0
233	0xad70d8dc	-1.3690573e-11
234	0xaf33a03b	-1.633688e-10
235	0xacf9572a	-7.086683e-12
236	0x38b1a791	8.4712294e-05
237	0x38b5c651	8.667692e-05
238	0x380adbfe	3.3106648e-05
239	0x38ab557d	8.169839e-05
240	0x3941d478	0.00018485065
241	0x394f9c9c	0.000197994
242	0x384302af	4.6494122e-05
243	0x395691d6	0.00020462958
244	0x00000000	0.0
245	0x00000000	0.0
246	0x00000000	0.0
247	0x00000000	0.0
248	0x00000000	0.0
249	0x00000000	0.0
250	0x00000000	0.0
251	0x00000000	0.0
252	0x00000000	0.0
253	0x00000000	0.0
254	0x00000000	0.0
255	0x00000000	0.0

exp_avg_sq f4 [64, 4]
0	0x343f9d8d	1.7845578e-07
1	0x339e7d3a	7.380227e-08
2	0x337ed521	5.9332823e-08
3	0x33d4adfd	9.9036676e-08
4	0x3509e12e	5.1364157e-07
5	0x346b33b6	2.1904893e-07
6	0x33eb7c70	1.0965675e-07
7	0x34886f5a	2.5412993e-07
8	0x00000000	0.0
9	0x3504f337	4.9527756e-07
10	0x34f38206	4.5356882e-07
11	0x354ff937	7.7476165e-07
12	0x34da7b35	4.069531e-07
13	0x3478ec2b	2.3182717e-07
14	0x341e1328	1.4721866e-07
15	0x349ddeaa	2.9405538e-07
16	0x33bfa232	8.923634e-08
17	0x3355adb1	4.97509e-08
18	0x32e6e0ac	2.6877693e-08
19	0x3383ed79	6.143359e-08
20	0x00000000	0.0
21	0x00000000	0.0
22	0x00000000	0.0
23	0x00000000	0.0
24	0x00000000	0.0
25	0x32c8c45a	2.3372355e-08
26	0x3196acb3	4.385208e-09
27	0x329945c8	1.7843277e-08
28	0x34befc1f	3.55737e-07
29	0x345f1d0b	2.0779059e-07
30	0x3426b476	1.5525606e-07
31	0x34932c35	2.7413049e-07
32	0x33894e3f	6.3937925e-08
33	0x334c668d	4.759072e-08
34	0x32b5dd8f	2.1171926e-08
35	0x3343507d	4.547518e-08
36	0x00000000	0.0
37	0x2f401188	1.7468527e-10
38	0x304752ff	7.2513723e-10
39	0x2f93856c	2.6833946e-10
40	0x00000000	0.0
41	0x00000000	0.0
42	0x00000000	0.0
43	0x00000000	0.0
44	0x3435d7a1	1.6935384e-07
45	0x33364076	4.2433804e-08
46	0x339503ef	6.939069e-08
47	0x33c0eaa9	8.983381e-08
48	0x00000000	0.0
49	0x00000000	0.0
50	0x00000000	0.0
51	0x00000000	0.0
52	0x31c54e50	5.7423577e-09
53	0x2f8487ce	2.4107155e-10
54	0x311316fe	2.1404385e-09
55	0x309f5e8f	1.1595648e-09
56	0x3353a0b3	4.927342e-08
57	0x3308611f	3.17533e-08
58	0x3213460e	8.572455e-09
59	0x3306aaf4	3.1354787e-08
60	0x3564cd11	8.523503e-07
61	0x34e0cd51	4.187264e-07
62	0x34e2ecd7	4.2268104e-07
63	0x351acdfa	5.7669206e-07
64	0x00000000	0.0
65	0x33876d95	6.30636e-08
66	0x339a4fa3	7.18567e-08
67	0x33bf2816	8.901422e-08
68	0x34cbba6c	3.7947336e-07
69	0x3474d1f6	2.2800654e-07
70	0x342bb6b3	1.5992082e-07
71	0x3499cbd4	2.8646775e-07
72	0x00000000	0.0
73	0x22e4ce32	6.201784e-18
74	0x21316a40	6.0110553e-19
75	0x2327afb4	9.090295e-18
76	0x33433d75	4.545787e-08
77	0x330136c7	3.0084973e-08
78	0x31124638	2.128571e-09
79	0x32f9ce08	2.9081107e-08
80	0x00000000	0.0
81	0x00000000	0.0
82	0x00000000	0.0
83	0x00000000	0.0
84	0x32aa0cb1	1.9796376e-08
85	0x31dc1790	6.4055214e-09
86	0x321ed11c	9.244356e-09
87	0x323cc4ba	1.0987771e-08
88	0x32a6a0db	1.9398092e-08
89	0x33166944	3.5020335e-08
90	0x30d9d39c	1.5848971e-09
91	0x32e69463	2.6843002e-08
92	0x00000000	0.0
93	0x00000000	0.0
94	0x00000000	0.0
95	0x00000000	0.0
96	0x35329e63	6.654065e-07
97	0x34d7dca4	4.0207408e-07
98	0x347e08cc	2.3658794e-07
99	0x3506b159	5.0176965e-07
100	0x32697c03	1.3590582e-08
101	0x325cc606	1.2850711e-08
102	0x31a44642	4.7810156e-09
103	0x326c1c14	1.3743392e-08
104	0x32717ca9	1.4056391e-08
105	0x3260cd02	1.3085129e-08
106	0x323a4c9d	1.0844045e-08
107	0x327fa94d	1.4881448e-08
108	0x357450ea	9.101483e-07
109	0x350ad7f6	5.172327e-07
110	0x350cdcf6	5.2475605e-07
111	0x35481962	7.454274e-07
112	0x34247f17	1.5319925e-07
113	0x33919cee	6.780634e-08
114	0x339a37ff	7.1813695e-08
115	0x33d56c2b	9.938261e-08
116	0x35abbd34	1.2795558e-06
117	0x352f2a3b	6.5254034e-07
118	0x3521b046	6.0233685e-07
119	0x3577fe8e	9.2385096e-07
120	0x34c60bf9	3.6889085e-07
121	0x3472452c	2.2563171e-07
122	0x341936ba	1.4269145e-07
123	0x349a6819	2.8760476e-07
124	0x3597f751	1.1322355e-06
125	0x34ce0850	3.8376538e-07
126	0x34ca1cef	3.7646484e-07
127	0x350a340d	5.148475e-07
128	0x3495c88f	2.7899338e-07
129	0x341c9009	1.4581032e-07
130	0x341d51a5	1.4651467e-07
131	0x345c7064	2.0529984e-07
132	0x2ba585b8	1.176107e-12
133	0x343c6446	1.7545344e-07
134	0x34471fbd	1.8544866e-07
135	0x349cf338	2.923423e-07
136	0x00000000	0.0
137	0x00000000	0.0
138	0x00000000	0.0
139	0x00000000	0.0
140	0x34162741	1.3984119e-07
141	0x3391a299	6.781665e-08
142	0x33762520	5.7310103e-08
143	0x33c0e834	8.982934e-08
144	0x00000000	0.0
145	0x00000000	0.0
146	0x00000000	0.0
147	0x00000000	0.0
148	0x31c1e2d2	5.6428258e-09
149	0x32728190	1.4115713e-08
150	0x32a2a598	1.8934585e-08
151	0x32c4b787	2.2900862e-08
152	0x35e7d69d	1.7273302e-06
153	0x35815696	9.636449e-07
154	0x352f913d	6.540393e-07
155	0x35a43e19	1.2237025e-06
156	0x34080e3b	1.2671164e-07
157	0x338cf1ba	6.563228e-08
158	0x337c055a	5.867819e-08
159	0x33be31f1	8.856649e-08
160	0x00000000	0.0
161	0x00000000	0.0
162	0x00000000	0.0
163	0x00000000	0.0
164	0x356ea809	8.890643e-07
165	0x34f8c660	4.6337937e-07
166	0x350e1fd7	5.2945455e-07
167	0x3534b869	6.732358e-07
168	0x33d5bb91	9.9527036e-08
169	0x32cc481a	2.3781514e-08
170	0x332c8e55	4.017632e-08
171	0x3325e401	3.8624425e-08
172	0x3282d36d	1.5230137e-08
173	0x320c4774	8.165319e-09
174	0x310ddc87	2.0643556e-09
175	0x32071760	7.863349e-09
176	0x00000000	0.0
177	0x00000000	0.0
178	0x00000000	0.0
179	0x00000000	0.0
180	0x357a59cd	9.3262935e-07
181	0x34cb25ec	3.7839288e-07
182	0x34773979	2.3024576e-07
183	0x34f64b70	4.587596e-07
184	0x32966465	1.7507952e-08
185	0x326f2810	1.392074e-08
186	0x32c9c2a2	2.3487988e-08
187	0x32cdea15	2.397159e-08
188	0x00000000	0.0
189	0x34138a10	1.3740669e-07
190	0x33fe8466	1.185188e-07
191	0x3455a437	1.9896912e-07
192	0x34745b9c	2.2757598e-07
193	0x34044327	1.2317888e-07
194	0x33bd1cd1	8.80624e-08
195	0x342dfed2	1.6204584e-07
196	0x36387b85	2.7490034e-06
197	0x35862ec3	9.997387e-07
198	0x35581baf	8.0506555e-07
199	0x35ac5518	1.2839764e-06
200	0x3285db13	1.5582861e-08
201	0x31e0f6dc	6.5473227e-09
202	0x31e78c8e	6.738964e-09
203	0x32181271	8.8517575e-09
204	0x343e81a5	1.7742293e-07
205	0x337eae87	5.9297715e-08
206	0x33548771	4.948328e-08
207	0x33aa8156	7.939768e-08
208	0x2ab40350	3.1976722e-13
209	0x345c73e1	2.0531253e-07
210	0x34503bca	1.939326e-07
211	0x34a9d767	3.163543e-07
212	0x348e6abd	2.6527223e-07
213	0x343f7ca4	1.7833605e-07
214	0x33e31ed3	1.0576118e-07
215	0x346c5f14	2.2013802e-07
216	0x00000000	0.0
217	0x00000000	0.0
218	0x00000000	0.0
219	0x00000000	0.0
220	0x34c43924	3.654942e-07
221	0x3431cfee	1.6560054e-07
222	0x33cf71fe	9.659924e-08
223	0x344cd210	1.9075401e-07
224	0x332b463b	3.9877914e-08
225	0x322280d0	9.45893e-09
226	0x32d21fac	2.446162e-08
227	0x32b68480	2.1247843e-08
228	0x00000000	0.0
229	0x00000000	0.0
230	0x00000000	0.0
231	0x00000000	0.0
232	0x00000000	0.0
233	0x2983803a	5.8398124e-14
234	0x2d0a044a	7.845344e-12
235	0x28e4ed56	2.5416013e-14
236	0x3381f350	6.051289e-08
237	0x3337ed20	4.282367e-08
238	0x334dd295	4.7921805e-08
239	0x336ffb65	5.5875166e-08
240	0x354d2324	7.641959e-07
241	0x34d40050	3.9488305e-07
242	0x34be5d99	3.545836e-07
243	0x350f2011	5.3318314e-07
244	0x00000000	0.0
245	0x00000000	0.0
246	0x00000000	0.0
247	0x00000000	0.0
248	0x00000000	0.0
249	0x00000000	0.0
250	0x00000000	0.0
251	0x00000000	0.0
252	0x00000000	0.0
253	0x00000000	0.0
254	0x00000000	0.0
255	0x00000000	0.0

exp_avg f4 [64]
0	0x38bf87e9	9.132905e-05
1	0xb904a05c	-0.0001264824
2	0xb518cdc5	-5.6923847e-07
3	0xb9304088	-0.00016808708
4	0xb8768b7d	-5.878088e-05
5	0x00000000	0.0
6	0x3424260a	1.5287529e-07
7	0x3901a807	0.00012364994
8	0xb7d75783	-2.5670748e-05
9	0x32d07a47	2.4269992e-08
10	0x00000000	0.0
11	0xb72969ec	-1.0097847e-05
12	0x00000000	0.0
13	0xb6852cdf	-3.9689326e-06
14	0x38f4cc5b	0.00011672891
15	0xb9431388	-0.00018603925
16	0xb3c5bf2a	-9.2083e-08
17	0x38d16501	9.98471e-05
18	0x00000004	6e-45
19	0x38c515e4	9.3977695e-05
20	0x00000000	0.0
21	0xb84ec434	-4.9296956e-05
22	0x38e7a635	0.00011045897
23	0x00000000	0.0
24	0xb9357690	-0.00017305673
25	0xb8555389	-5.0860956e-05
26	0x3817b1e3	3.6166875e-05
27	0x3966b108	0.00022000459
28	0xb82c6bc4	-4.110836e-05
29	0x398a7a01	0.0002641231
30	0xb90691eb	-0.00012833595
31	0xb971b093	-0.0002304933
32	0x388eaf8e	6.803787e-05
33	0x332eed50	4.0728366e-08
34	0x00000000	0.0
35	0x37a9cfb7	2.0243095e-05
36	0x00000000	0.0
37	0x35d2846e	1.5684761e-06
38	0xb9823fb9	-0.0002484301
39	0x386b09b5	5.6037406e-05
40	0x00000000	0.0
41	0xb9394191	-0.000176674
42	0x3781ebd0	1.5487807e-05
43	0x3878b496	5.929599e-05
44	0x00000000	0.0
45	0xb9663ff2	-0.00021958331
46	0xb58dd107	-1.0566154e-06
47	0x35016507	4.820326e-07
48	0x387c2748	6.0118065e-05
49	0xb99518dd	-0.0002843802
50	0x37ef92cc	2.8559378e-05
51	0xb7a53ffb	-1.9699326e-05
52	0x343a0f34	1.7328131e-07
53	0xb902d9a3	-0.00012478842
54	0x00000000	0.0
55	0xb938e3b6	-0.00017632436
56	0xb6a6be2b	-4.969324e-06
57	0x00000000	0.0
58	0xaf34a5ef	-1.6429856e-10
59	0x38b23d77	8.49915e-05
60	0x39420c32	0.00018505825
61	0x00000000	0.0
62	0x00000000	0.0
63	0x00000000	0.0

exp_avg_sq f4 [64]
0	0x3461092a	2.0958092e-07
1	0x350a3801	5.14905e-07
2	0x35f16801	1.7986168e-06
3	0x352517fc	6.150219e-07
4	0x340917a2	1.2767717e-07
5	0x00000000	0.0
6	0x3328dd66	3.931691e-08
7	0x351d2cc5	5.8552206e-07
8	0x33d2563c	9.794573e-08
9	0x30bcb12d	1.3729157e-09
10	0x00000000	0.0
11	0x34801010	2.3853545e-07
12	0x00000000	0.0
13	0x31c54e47	5.7423537e-09
14	0x33803152	5.969436e-08
15	0x35b1aa80	1.323715e-06
16	0x345ba209	2.0454912e-07
17	0x35270172	6.221445e-07
18	0x22fcbe9d	6.8506557e-18
19	0x334544fd	4.593038e-08
20	0x00000000	0.0
21	0x32cb8c1b	2.3696023e-08
22	0x3342aa98	4.53243e-08
23	0x00000000	0.0
24	0x358c2fc0	1.044471e-06
25	0x32e6ac15	2.6853778e-08
26	0x3317ff29	3.5389494e-08
27	0x35e392f4	1.6955587e-06
28	0x346f2324	2.2271394e-07
29	0x3607454e	2.0156908e-06
30	0x35223809	6.0431245e-07
31	0x35990fde	1.1404006e-06
32	0x34f6fc03	4.6004433e-07
33	0x352fdb3f	6.5511625e-07
34	0x00000000	0.0
35	0x345715f5	2.0031423e-07
36	0x00000000	0.0
37	0x336414ad	5.310419e-08
38	0x362a8268	2.540788e-06
39	0x34534280	1.9675099e-07
40	0x00000000	0.0
41	0x35d0c7b8	1.5555333e-06
42	0x33d5bb93	9.952705e-08
43	0x3282d369	1.523013e-08
44	0x00000000	0.0
45	0x357a5795	9.3259706e-07
46	0x3388f39c	6.377306e-08
47	0x34eef1a0	4.450676e-07
48	0x34bd6792	3.527935e-07
49	0x36389787	2.7506337e-06
50	0x32b5e5ea	2.1175726e-08
51	0x343ed970	1.7774232e-07
52	0x3540c24e	7.1808324e-07
53	0x34f9f238	4.6556102e-07
54	0x00000000	0.0
55	0x34c43921	3.6549412e-07
56	0x33711d6a	5.6138937e-08
57	0x00000000	0.0
58	0x2d154896	8.485787e-12
59	0x340e134c	1.3231801e-07
60	0x359e6975	1.1802609e-06
61	0x00000000	0.0
62	0x00000000	0.0
63	0x00000000	0.0

exp_avg f4 [128, 64]
0	0xb50a93e1	-5.16242e-07
1	0x3682293b	3.8791018e-06
2	0x32b63b2d	2.1214499e-08
3	0x37184845	9.076733e-06
4	0x369163e9	4.332968e-06
5	0x00000000	0.0
6	0x328d6ba4	1.646351e-08
7	0x356aab41	8.7421e-07
8	0x3623ad98	2.4389938e-06
9	0xb00536d5	-4.846304e-10
10	0x00000000	0.0
11	0xb53554da	-6.755123e-07
12	0x00000000	0.0
13	0xb3aeb9db	-8.136313e-08
14	0x35aa0004	1.2665992e-06
15	0x3647ab20	2.9752919e-06
16	0x31960cdc	4.3670365e-09
17	0xb5f5acd7	-1.8304225e-06
18	0x00000004	6e-45
19	0xb693e559	-4.407641e-06
20	0x00000000	0.0
21	0x35d7be5e	1.6074152e-06
22	0xb565d2c3	-8.5615847e-07
23	0x00000000	0.0
24	0x367c444d	3.7590682e-06
25	0x3650f3eb	3.1136394e-06
26	0xb58508c7	-9.911827e-07
27	0xb65a5e26	-3.2539333e-06
28	0x36a9307b	5.0422364e-06
29	0xb5ffbdbf	-1.9054204e-06
30	0x36c84668	5.968661e-06
31	0x368c110f	4.174311e-06
32	0x368a4490	4.120702e-06
33	0xb3c21650	-9.0378876e-08
34	0x00000000	0.0
35	0x363c272b	2.8036982e-06
36	0x00000000	0.0
37	0x328169d6	1.5065705e-08
38	0x360f3e2f	2.1344856e-06
39	0x3638964d	2.7505623e-06
40	0x00000000	0.0
41	0x369290e2	4.3680056e-06
42	0x33af0d65	8.151509e-08
43	0xb5432710	-7.2700004e-07
44	0x00000000	0.0
45	0x3675601e	3.6563792e-06
46	0xb446bd52	-1.8509061e-07
47	0x32290f6b	9.8406e-09
48	0x3515eab6	5.5848375e-07
49	0x3647df01	2.9783116e-06
50	0x354aa175	7.5485815e-07
51	0x347c77a9	2.3512861e-07
52	0x332b4fe3	3.9886697e-08
53	0x3695f17b	4.468658e-06
54	0x00000000	0.0
55	0xb3b28029	-8.312083e-08
56	0x32b847fc	2.1453154e-08
57	0x00000000	0.0
58	0xac84ca38	-3.7741164e-12
59	0x360b7f1b	2.07866e-06
60	0xb59ce0d1	-1.1688336e-06
61	0x00000000	0.0
62	0x00000000	0.0
63	0x00000000	0.0
64	0x361e8863	2.3623222e-06
65	0x3524b6bc	6.1360674e-07
66	0x32178e29	8.82168e-09
67	0x364150be	2.880624e-06
68	0x35bca5d1	1.405535e-06
69	0x00000000	0.0
70	0x330a9fdc	3.227602e-08
71	0x363b13cb	2.7876692e-06
72	0x35f49965	1.822406e-06
73	0x80000004	-6e-45
74	0x00000000	0.0
75	0x80000004	-6e-45
76	0x00000000	0.0
77	0x80000004	-6e-45
78	0x36518164	3.1218742e-06
79	0x364b7b39	3.0321082e-06
80	0x32477b29	1.1611328e-08
81	0x3673882a	3.628908e-06
82	0x00000000	0.0
83	0x35908537	1.0767607e-06
84	0x00000000	0.0
85	0x35fe6f31	1.8956836e-06
86	0x34ad57ab	3.2287548e-07
87	0x00000000	0.0
88	0x35d257d8	1.5671785e-06
89	0x3415e7f8	1.3961096e-07
90	0x364482c4	2.9282392e-06
91	0x36525d54	3.1346763e-06
92	0x3658ec36	3.2324e-06
93	0x35e3461d	1.6933224e-06
94	0xb236039b	-1.0594614e-08
95	0x3513e799	5.5098786e-07
96	0x3675da50	3.663492e-06
97	0x3222e7b5	9.482325e-09
98	0x00000000	0.0
99	0x368c2172	4.1762187e-06
100	0x00000000	0.0
101	0xad834d92	-1.4927424e-11
102	0x35fbc52f	1.8758345e-06
103	0x36b0def6	5.271165e-06
104	0x00000000	0.0
105	0x368114d7	3.8469257e-06
106	0x00000004	6e-45
107	0x331b0086	3.6089226e-08
108	0x00000000	0.0
109	0x34a9b25c	3.1608477e-07
110	0x80000004	-6e-45
111	0x33414ffb	4.5009056e-08
112	0x363e2919	2.8336128e-06
113	0x3558ba60	8.073748e-07
114	0x30b5957a	1.3211967e-09
115	0xb3de6de4	-1.03576696e-07
116	0x335ec90a	5.1871247e-08
117	0x34f99fdc	4.6496177e-07
118	0x00000000	0.0
119	0x35aaab2a	1.2715802e-06
120	0x329c20eb	1.817576e-08
121	0x00000000	0.0
122	0x00000000	0.0
123	0x362de8e0	2.591456e-06
124	0x3684151d	3.9363645e-06
125	0x00000000	0.0
126	0x00000000	0.0
127	0x00000000	0.0
128	0x00000000	0.0
129	0x00000000	0.0
130	0x80000004	-6e-45
131	0x00000004	6e-45
132	0x00000004	6e-45
133	0x00000000	0.0
134	0x00000004	6e-45
135	0x00000004	6e-45
136	0x00000004	6e-45
137	0x00000004	6e-45
138	0x00000000	0.0
139	0x00000004	6e-45
140	0x00000000	0.0
141	0x00000000	0.0
142	0x00000004	6e-45
143	0x00000004	6e-45
144	0x00000000	0.0
145	0x00000004	6e-45
146	0x00000000	0.0
147	0x00000000	0.0
148	0x00000000	0.0
149	0x00000004	6e-45
150	0x00000000	0.0
151	0x00000000	0.0
152	0x00000004	6e-45
153	0x00000004	6e-45
154	0x00000004	6e-45
155	0x00000000	0.0
156	0x00000004	6e-45
157	0x00000004	6e-45
158	0x00000004	6e-45
159	0x00000004	6e-45
160	0x00000004	6e-45
161	0x00000004	6e-45
162	0x00000000	0.0
163	0x00000004	6e-45
164	0x00000000	0.0
165	0x00000004	6e-45
166	0x00000000	0.0
167	0x00000004	6e-45
168	0x00000000	0.0
169	0x00000004	6e-45
170	0x00000000	0.0
171	0x00000000	0.0
172	0x00000000	0.0
173	0x00000000	0.0
174	0x00000004	6e-45
175	0x00000000	0.0
176	0x00000004	6e-45
177	0x00000000	0.0
178	0x00000004	6e-45
179	0x00000000	0.0
180	0x00000000	0.0
181	0x00000004	6e-45
182	0x00000000	0.0
183	0x00000000	0.0
184	0x00000004	6e-45
185	0x00000000	0.0
186	0x00000004	6e-45
187	0x00000004	6e-45
188	0x00000000	0.0
189	0x00000000	0.0
190	0x00000000	0.0
191	0x00000000	0.0
192	0x00000000	0.0
193	0x00000000	0.0
194	0x00000000	0.0
195	0x00000000	0.0
196	0x00000000	0.0
197	0x00000000	0.0
198	0x00000000	0.0
199	0x00000000	0.0
200	0x00000000	0.0
201	0x00000000	0.0
202	0x00000000	0.0
203	0x00000000	0.0
204	0x00000000	0.0
205	0x00000000	0.0
206	0x00000000	0.0
207	0x00000000	0.0
208	0x00000000	0.0
209	0x00000000	0.0
210	0x00000000	0.0
211	0x00000000	0.0
212	0x00000000	0.0
213	0x00000000	0.0
214	0x00000000	0.0
215	0x00000000	0.0
216	0x00000000	0.0
217	0x00000000	0.0
218	0x00000000	0.0
219	0x00000000	0.0
220	0x00000000	0.0
221	0x00000000	0.0
222	0x00000000	0.0
223	0x00000000	0.0
224	0x00000000	0.0
225	0x00000000	0.0
226	0x00000000	0.0
227	0x00000000	0.0
228	0x00000000	0.0
229	0x00000000	0.0
230	0x00000000	0.0
231	0x00000000	0.0
232	0x00000000	0.0
233	0x00000000	0.0
234	0x00000000	0.0
235	0x00000000	0.0
236	0x00000000	0.0
237	0x00000000	0.0
238	0x00000000	0.0
239	0x00000000	0.0
240	0x00000000	0.0
241	0x00000000	0.0
242	0x00000000	0.0
243	0x00000000	0.0
244	0x00000000	0.0
245	0x00000000	0.0
246	0x00000000	0.0
247	0x00000000	0.0
248	0x00000000	0.0
249	0x00000000	0.0
250	0x00000000	0.0
251	0x00000000	0.0
252	0x00000000	0.0
253	0x00000000	0.0
254	0x00000000	0.0
255	0x00000000	0.0

exp_avg_sq f4 [128, 64]
0	0x30b23b2d	1.2968023e-09
1	0x2fddab5f	4.0321432e-10
2	0x2e8de80c	6.4531575e-11
3	0x320fdbf6	8.373709e-09
4	0x314fc84d	3.0236322e-09
5	0x00000000	0.0
6	0x2e88398a	6.194785e-11
7	0x321e3006	9.20773e-09
8	0x311ed93b	2.3115507e-09
9	0x2c59d00f	3.095305e-12
10	0x00000000	0.0
11	0x2f22b27c	1.4797225e-10
12	0x00000000	0.0
13	0x2bd7f011	1.5343301e-12
14	0x31c111e1	5.619072e-09
15	0x31552987	3.1019185e-09
16	0x2dbfcfd0	2.1806473e-11
17	0x31a6d45f	4.8553797e-09
18	0x1b714393	1.9956887e-22
19	0x2e3f6f5b	4.3527276e-11
20	0x00000000	0.0
21	0x31841dfe	3.8451153e-09
22	0x2cba69b1	5.298172e-12
23	0x00000000	0.0
24	0x30953995	1.0857543e-09
25	0x30d49ae6	1.5469055e-09
26	0x30b1abbc	1.2927255e-09
27	0x3116616f	2.1883257e-09
28	0x31de61de	6.4721766e-09
29	0x31403c81	2.797407e-09
30	0x30ea376d	1.7041494e-09
31	0x302f0378	6.366956e-10
32	0x325ebc04	1.29648505e-08
33	0x2e8f89c0	6.5273564e-11
34	0x00000000	0.0
35	0x324ec7d3	1.2036213e-08
36	0x00000000	0.0
37	0x2f89a931	2.5040373e-10
38	0x30283fc3	6.1208655e-10
39	0x328436d0	1.5391748e-08
40	0x00000000	0.0
41	0x31b2429e	5.1880553e-09
42	0x2f0943f3	1.2484218e-10
43	0x2f80848b	2.3377242e-10
44	0x00000000	0.0
45	0x2f89c96d	2.5063276e-10
46	0x2f86a7c4	2.4493663e-10
47	0x2ed65fce	9.7486116e-11
48	0x319d9c7f	4.587093e-09
49	0x2f1f4f3a	1.4489113e-10
50	0x303e1986	6.915787e-10
51	0x303aa796	6.790456e-10
52	0x2f8483bd	2.4104266e-10
53	0x30a0acea	1.1690677e-09
54	0x00000000	0.0
55	0x2f508fbe	1.8968557e-10
56	0x305aac26	7.9552576e-10
57	0x00000000	0.0
58	0x27f9a868	6.929397e-15
59	0x319bcfbc	4.5347104e-09
60	0x31787925	3.6157612e-09
61	0x00000000	0.0
62	0x00000000	0.0
63	0x00000000	0.0
64	0x2f0b3788	1.2661705e-10
65	0x2c213661	2.2909662e-12
66	0x2c8b70dd	3.963148e-12
67	0x2f659904	2.0881791e-10
68	0x2fcb2be6	3.6956677e-10
69	0x00000000	0.0
70	0x2e9aa248	7.031936e-11
71	0x2fb20ade	3.2385733e-10
72	0x2ecb3d49	9.242258e-11
73	0x1a59145c	4.4890994e-23
74	0x00000000	0.0
75	0x21db9d00	1.4881575e-18
76	0x00000000	0.0
77	0x2084e8f4	2.2515825e-19
78	0x2facc2eb	3.1425115e-10
79	0x2f8c3b96	2.550819e-10
80	0x2d152b13	8.479234e-12
81	0x3048c03d	7.3032763e-10
82	0x00000000	0.0
83	0x2d9a6b79	1.75555e-11
84	0x00000000	0.0
85	0x307a03ab	9.095468e-10
86	0x2e02ac04	2.971136e-11
87	0x00000000	0.0
88	0x2e5dbe3e	5.041855e-11
89	0x2efe9515	1.1577065e-10
90	0x3005db4b	4.869675e-10
91	0x300157ac	4.7054516e-10
92	0x2fd0b93d	3.79666e-10
93	0x2f278c59	1.5238423e-10
94	0x2c06dd0f	1.9165257e-12
95	0x2cd2aef7	5.987984e-12
96	0x3042bf32	7.0848494e-10
97	0x2caeec71	4.9716277e-12
98	0x00000000	0.0
99	0x30a29506	1.1829406e-09
100	0x00000000	0.0
101	0x27085e8c	1.8925045e-15
102	0x2eb3b121	8.171442e-11
103	0x309f2b1f	1.1581028e-09
104	0x00000000	0.0
105	0x2ff2c6e0	4.4160853e-10
106	0x236004e5	1.2144101e-17
107	0x2c29d40b	2.4134052e-12
108	0x00000000	0.0
109	0x2b034876	4.664111e-13
110	0x22bf9db4	5.193763e-18
111	0x2f156fe6	1.3591225e-10
112	0x2fac7bfa	3.1374708e-10
113	0x2ceffdaa	6.820951e-12
114	0x2b8e2a4c	1.0101447e-12
115	0x29fd5673	1.12504536e-13
116	0x2f34b550	1.643532e-10
117	0x2c875a5e	3.8469635e-12
118	0x00000000	0.0
119	0x2dd84a0b	2.4589239e-11
120	0x2e09c8b7	3.1328464e-11
121	0x00000000	0.0
122	0x00000000	0.0
123	0x2fa405bb	2.9835498e-10
124	0x2fe550f2	4.1712372e-10
125	0x00000000	0.0
126	0x00000000	0.0
127	0x00000000	0.0
128	0x00000000	0.0
129	0x00000000	0.0
130	0x144fbfa6	1.0488625e-26
131	0x1f667bc3	4.8806768e-20
132	0x1f61ddf4	4.78292e-20
133	0x00000000	0.0
134	0x1b00d326	1.0656138e-22
135	0x1f13d633	3.1305642e-20
136	0x1c3c04d0	6.22102e-22
137	0x1c1397a8	4.883423e-22
138	0x00000000	0.0
139	0x1e96ace6	1.5953377e-20
140	0x00000000	0.0
141	0x00000000	0.0
142	0x1e9f059e	1.6837103e-20
143	0x1cf6f7e6	1.6342995e-21
144	0x00000000	0.0
145	0x1c8d47f0	9.349193e-22
146	0x00000000	0.0
147	0x00000000	0.0
148	0x00000000	0.0
149	0x1f413010	4.0909096e-20
150	0x00000000	0.0
151	0x00000000	0.0
152	0x19cc9060	2.1151418e-23
153	0x1f15e13c	3.1738287e-20
154	0x18a7cfd3	4.3378337e-24
155	0x00000000	0.0
156	0x1f2acc07	3.6167668e-20
157	0x1dac41d9	4.5596106e-21
158	0x1f30a348	3.7404513e-20
159	0x1d25223b	2.1855265e-21
160	0x1f389016	3.90827e-20
161	0x1eb544d4	1.9192587e-20
162	0x00000000	0.0
163	0x1f07e45d	2.877626e-20
164	0x00000000	0.0
165	0x1e422527	1.02779574e-20
166	0x00000000	0.0
167	0x1e6f4069	1.2665874e-20
168	0x00000000	0.0
169	0x1e303753	9.328803e-21
170	0x00000000	0.0
171	0x00000000	0.0
172	0x00000000	0.0
173	0x00000000	0.0
174	0x1f63e102	4.8255242e-20
175	0x00000000	0.0
176	0x1dd2fb42	5.584633e-21
177	0x00000000	0.0
178	0x1ee73fe7	2.4484506e-20
179	0x00000000	0.0
180	0x00000000	0.0
181	0x1e8138b7	1.3681863e-20
182	0x00000000	0.0
183	0x00000000	0.0
184	0x1eee1ec1	2.521195e-20
185	0x00000000	0.0
186	0x17488401	6.47901e-25
187	0x1d9d897c	4.169971e-21
188	0x00000000	0.0
189	0x00000000	0.0
190	0x00000000	0.0
191	0x00000000	0.0
192	0x00000000	0.0
193	0x00000000	0.0
194	0x00000000	0.0
195	0x00000000	0.0
196	0x00000000	0.0
197	0x00000000	0.0
198	0x00000000	0.0
199	0x00000000	0.0
200	0x00000000	0.0
201	0x00000000	0.0
202	0x00000000	0.0
203	0x00000000	0.0
204	0x00000000	0.0
205	0x00000000	0.0
206	0x00000000	0.0
207	0x00000000	0.0
208	0x00000000	0.0
209	0x00000000	0.0
210	0x00000000	0.0
211	0x00000000	0.0
212	0x00000000	0.0
213	0x00000000	0.0
214	0x00000000	0.0
215	0x00000000	0.0
216	0x00000000	0.0
217	0x00000000	0.0
218	0x00000000	0.0
219	0x00000000	0.0
220	0x00000000	0.0
221	0x00000000	0.0
222	0x00000000	0.0
223	0x00000000	0.0
224	0x00000000	0.0
225	0x00000000	0.0
226	0x00000000	0.0
227	0x00000000	0.0
228	0x00000000	0.0
229	0x00000000	0.0
230	0x00000000	0.0
231	0x00000000	0.0
232	0x00000000	0.0
233	0x00000000	0.0
234	0x00000000	0.0
235	0x00000000	0.0
236	0x00000000	0.0
237	0x00000000	0.0
238	0x00000000	0.0
239	0x00000000	0.0
240	0x00000000	0.0
241	0x00000000	0.0
242	0x00000000	0.0
243	0x00000000	0.0
244	0x00000000	0.0
245	0x00000000	0.0
246	0x00000000	0.0
247	0x00000000	0.0
248	0x00000000	0.0
249	0x00000000	0.0
250	0x00000000	0.0
251	0x00000000	0.0
252	0x00000000	0.0
253	0x00000000	0.0
254	0x00000000	0.0
255	0x00000000	0.0

exp_avg f4 [128]
0	0x36884594	4.061216e-06
1	0x368e07c3	4.2328334e-06
2	0x00000004	6e-45
3	0x00000000	0.0
4	0xb6d3e997	-6.3154835e-06
5	0x00000000	0.0
6	0x3832606f	4.2528318e-05
7	0xb8641045	-5.437459e-05
8	0x387bdc08	6.0047983e-05
9	0x3836665a	4.3487504e-05
10	0x387c3871	6.0134047e-05
11	0x3062af98	8.2467855e-10
12	0xb82ce5b0	-4.122191e-05
13	0x37c08ee2	2.2954719e-05
14	0xb825b5c1	-3.9508337e-05
15	0x00000000	0.0
16	0x3867ed4e	5.52957e-05
17	0x00000004	6e-45
18	0x36a73d78	4.9841437e-06
19	0x37fe423c	3.0310002e-05
20	0x00000004	6e-45
21	0x00000004	6e-45
22	0xb656fa5f	-3.203422e-06
23	0x00000004	6e-45
24	0x00000004	6e-45
25	0x00000000	0.0
26	0x38816796	6.170494e-05
27	0x38578137	5.1380335e-05
28	0x00000000	0.0
29	0x3744bc32	1.1726328e-05
30	0x3788b811	1.6298176e-05
31	0x00000000	0.0
32	0x00000004	6e-45
33	0x00000000	0.0
34	0x386d2095	5.6535548e-05
35	0x36a91645	5.039185e-06
36	0x380b333d	3.3187902e-05
37	0x00000000	0.0
38	0x37562584	1.2764129e-05
39	0x00000004	6e-45
40	0x00000000	0.0
41	0xb1cb61fb	-5.9192167e-09
42	0xb793daf6	-1.7625727e-05
43	0x37d8a8b3	2.5827763e-05
44	0x387eaf94	6.072184e-05
45	0x00000004	6e-45
46	0x00000004	6e-45
47	0x00000004	6e-45
48	0x3891b316	6.947496e-05
49	0x00000000	0.0
50	0x00000000	0.0
51	0x378a2361	1.6467357e-05
52	0x37c52189	2.3499846e-05
53	0x37bfec09	2.2878887e-05
54	0x00000000	0.0
55	0x38111c0b	3.459681e-05
56	0x36cd73e3	6.122967e-06
57	0xb7d46ce8	-2.5323083e-05
58	0x00000000	0.0
59	0x00000000	0.0
60	0x2f128018	1.332413e-10
61	0x38df0cb3	0.00010635834
62	0x00000000	0.0
63	0xb85c5cdc	-5.253857e-05
64	0x00000004	6e-45
65	0x37ff6178	3.0443756e-05
66	0x37aef5fb	2.085696e-05
67	0xb3b772ea	-8.542504e-08
68	0x37ea328b	2.791851e-05
69	0x00000000	0.0
70	0x00000000	0.0
71	0x00000004	6e-45
72	0x386e0c44	5.6755045e-05
73	0xb84e39db	-4.916811e-05
74	0x37a872df	2.0080652e-05
75	0x00000000	0.0
76	0x37786621	1.4805731e-05
77	0x00000000	0.0
78	0xb6f22289	-7.2161824e-06
79	0x00000000	0.0
80	0x38342f1b	4.2959215e-05
81	0x00000004	6e-45
82	0x00000004	6e-45
83	0x380cd5f6	3.3577868e-05
84	0x00000000	0.0
85	0x370d11c9	8.408396e-06
86	0x37f1af98	2.8811206e-05
87	0x00000000	0.0
88	0x00000000	0.0
89	0x3871541c	5.753721e-05
90	0xb78dfbce	-1.6925766e-05
91	0xb72e2ade	-1.0381189e-05
92	0x00000004	6e-45
93	0x38a42576	7.827107e-05
94	0x387097c0	5.7361787e-05
95	0x3799ea3c	1.8348095e-05
96	0x00000004	6e-45
97	0xb8215deb	-3.847286e-05
98	0x00000004	6e-45
99	0x36eda521	7.082374e-06
100	0xb78a5d54	-1.6494341e-05
101	0x3a02022c	0.000495943
102	0xb334c4f3	-4.208864e-08
103	0x38210219	3.8387345e-05
104	0xb7d9eba1	-2.597814e-05
105	0x00000000	0.0
106	0xb7a0552e	-1.9113151e-05
107	0x00000000	0.0
108	0xb8d9a4c9	-0.0001037806
109	0x380330ed	3.12784e-05
110	0x00000004	6e-45
111	0x00000000	0.0
112	0x00000004	6e-45
113	0x00000004	6e-45
114	0x00000004	6e-45
115	0xb8115def	-3.4658176e-05
116	0xb86df34c	-5.673179e-05
117	0x389093f1	6.894011e-05
118	0x00000004	6e-45
119	0xb8af0b9a	-8.346811e-05
120	0xb87aba45	-5.977812e-05
121	0x3860a187	5.3556196e-05
122	0xb1d53ab3	-6.205789e-09
123	0x00000004	6e-45
124	0x3767c1fc	1.3813838e-05
125	0xb63b22e2	-2.7885476e-06
126	0x00000000	0.0
127	0x00000004	6e-45

exp_avg_sq f4 [128]
0	0x32998537	1.7872123e-08
1	0x30de142b	1.6158358e-09
2	0x203b4986	1.5863843e-19
3	0x00000000	0.0
4	0x32b7d788	2.1402016e-08
5	0x00000000	0.0
6	0x338be8ce	6.515039e-08
7	0x34944b53	2.7621954e-07
8	0x330a655d	3.2222818e-08
9	0x32f38064	2.8347309e-08
10	0x3349ffa9	4.703148e-08
11	0x3015c2d4	5.448275e-10
12	0x33a3ff08	7.636669e-08
13	0x33636d7f	5.2952142e-08
14	0x340a34ca	1.2871456e-07
15	0x00000000	0.0
16	0x3392cfd9	6.836462e-08
17	0x1d1b3a62	2.0544262e-21
18	0x2e751623	5.5726212e-11
19	0x34cc0d04	3.800743e-07
20	0x2010c181	1.22613e-19
21	0x23e37a37	2.466315e-17
22	0x353f7c5c	7.133401e-07
23	0x26486da8	6.953755e-16
24	0x20ae7483	2.9553848e-19
25	0x00000000	0.0
26	0x332ae24b	3.978702e-08
27	0x328ad316	1.6161305e-08
28	0x00000000	0.0
29	0x31cfabc7	6.0440217e-09
30	0x3320d21d	3.7444e-08
31	0x00000000	0.0
32	0x1ae1010f	9.305953e-23
33	0x00000000	0.0
34	0x3485b2ec	2.4903363e-07
35	0x31ee7f6f	6.941199e-09
36	0x331bfeca	3.632048e-08
37	0x00000000	0.0
38	0x3297da3e	1.7677959e-08
39	0x25b28330	3.0966974e-16
40	0x00000000	0.0
41	0x31b2d091	5.204193e-09
42	0x343f0ff3	1.7794063e-07
43	0x34ad09b7	3.223083e-07
44	0x3373518c	5.6652013e-08
45	0x23b3b5bd	1.9484188e-17
46	0x26ca3d9b	1.4033264e-15
47	0x26669881	8.000396e-16
48	0x34cb42f6	3.7860417e-07
49	0x00000000	0.0
50	0x00000000	0.0
51	0x32451de2	1.1473704e-08
52	0x33c3ae45	9.1120945e-08
53	0x343d1b38	1.7611899e-07
54	0x00000000	0.0
55	0x33c82576	9.32004e-08
56	0x330601a1	3.1200788e-08
57	0x327159f4	1.4048499e-08
58	0x00000000	0.0
59	0x00000000	0.0
60	0x311f1b18	2.3152946e-09
61	0x34cd96d9	3.8293982e-07
62	0x00000000	0.0
63	0x33b6ff2a	8.5214495e-08
64	0x23021a98	7.0529456e-18
65	0x33908890	6.730363e-08
66	0x322c185a	1.0017255e-08
67	0x319fe7e9	4.653874e-09
68	0x32731350	1.4148853e-08
69	0x00000000	0.0
70	0x00000000	0.0
71	0x20a365da	2.7680674e-19
72	0x3376b925	5.7444726e-08
73	0x3362bdb9	5.2792277e-08
74	0x32b83181	2.1442931e-08
75	0x00000000	0.0
76	0x3217b022	8.829405e-09
77	0x00000000	0.0
78	0x32f5b387	2.8603393e-08
79	0x00000000	0.0
80	0x33ded37d	1.037615e-07
81	0x254b1ae6	1.7616557e-16
82	0x1c4c2107	6.7540625e-22
83	0x330b1771	3.238478e-08
84	0x00000000	0.0
85	0x31548d54	3.0930396e-09
86	0x34073e43	1.2595505e-07
87	0x00000000	0.0
88	0x00000000	0.0
89	0x33c22cc7	9.041974e-08
90	0x325ab576	1.27305295e-08
91	0x33a03fa2	7.462155e-08
92	0x20532e6a	1.7887752e-19
93	0x341f9af3	1.4864399e-07
94	0x32ee8475	2.7767081e-08
95	0x32f68c86	2.8702072e-08
96	0x260aabe5	4.811133e-16
97	0x33d24690	9.791722e-08
98	0x26021283	4.51279e-16
99	0x32eff426	2.7934288e-08
100	0x31b6a739	5.315908e-09
101	0x3522d812	6.0664127e-07
102	0x32d948dc	2.5295257e-08
103	0x33642420	5.3118242e-08
104	0x32aedb44	2.0355976e-08
105	0x00000000	0.0
106	0x3216871d	8.76187e-09
107	0x00000000	0.0
108	0x34b7fe6b	3.427152e-07
109	0x32b4bbc5	2.1040146e-08
110	0x207c5116	2.137206e-19
111	0x00000000	0.0
112	0x1e07cb86	7.188928e-21
113	0x188d2405	3.6484016e-24
114	0x253532d5	1.571647e-16
115	0x338de49d	6.607409e-08
116	0x33e0bbf6	1.0465003e-07
117	0x33aa43aa	7.92855e-08
118	0x269dd6e5	1.0952311e-15
119	0x33a08e13	7.476424e-08
120	0x341e08b4	1.4718063e-07
121	0x3375ae78	5.7202186e-08
122	0x31ef7622	6.9692456e-09
123	0x24ff4685	1.10708086e-16
124	0x3381137c	6.010575e-08
125	0x3280061f	1.4903945e-08
126	0x00000000	0.0
127	0x21ceedb4	1.4022022e-18

exp_avg f4 [64, 128]
0	0x00000004	6e-45
1	0x00000000	0.0
2	0x00000004	6e-45
3	0x00000000	0.0
4	0x00000004	6e-45
5	0x00000000	0.0
6	0x00000004	6e-45
7	0x00000004	6e-45
8	0x00000004	6e-45
9	0x00000004	6e-45
10	0x00000004	6e-45
11	0x00000004	6e-45
12	0x00000004	6e-45
13	0x00000004	6e-45
14	0x00000004	6e-45
15	0x00000000	0.0
16	0x00000004	6e-45
17	0x00000000	0.0
18	0x00000004	6e-45
19	0x00000004	6e-45
20	0x80000004	-6e-45
21	0x00000004	6e-45
22	0x00000004	6e-45
23	0x00000004	6e-45
24	0x00000000	0.0
25	0x00000000	0.0
26	0x00000004	6e-45
27	0x00000000	0.0
28	0x00000000	0.0
29	0x00000004	6e-45
30	0x00000004	6e-45
31	0x00000000	0.0
32	0x00000000	0.0
33	0x00000000	0.0
34	0x00000004	6e-45
35	0x00000004	6e-45
36	0x00000004	6e-45
37	0x00000000	0.0
38	0x00000004	6e-45
39	0x00000004	6e-45
40	0x00000000	0.0
41	0x00000004	6e-45
42	0x00000004	6e-45
43	0x00000004	6e-45
44	0x00000004	6e-45
45	0x00000000	0.0
46	0x00000004	6e-45
47	0x00000004	6e-45
48	0x00000004	6e-45
49	0x00000000	0.0
50	0x00000000	0.0
51	0x00000004	6e-45
52	0x00000004	6e-45
53	0x00000004	6e-45
54	0x00000000	0.0
55	0x00000004	6e-45
56	0x00000004	6e-45
57	0x00000004	6e-45
58	0x00000000	0.0
59	0x00000000	0.0
60	0x00000004	6e-45
61	0x00000004	6e-45
62	0x00000000	0.0
63	0x00000004	6e-45
64	0x00000000	0.0
65	0x00000004	6e-45
66	0x00000004	6e-45
67	0x00000004	6e-45
68	0x00000004	6e-45
69	0x00000000	0.0
70	0x00000000	0.0
71	0x00000004	6e-45
72	0x00000004	6e-45
73	0x00000004	6e-45
74	0x00000004	6e-45
75	0x00000000	0.0
76	0x00000004	6e-45
77	0x00000000	0.0
78	0x00000004	6e-45
79	0x00000000	0.0
80	0x00000004	6e-45
81	0x00000004	6e-45
82	0x00000000	0.0
83	0x00000004	6e-45
84	0x00000000	0.0
85	0x00000004	6e-45
86	0x00000004	6e-45
87	0x00000000	0.0
88	0x00000000	0.0
89	0x00000004	6e-45
90	0x00000004	6e-45
91	0x00000004	6e-45
92	0x00000004	6e-45
93	0x00000004	6e-45
94	0x00000004	6e-45
95	0x80000004	-6e-45
96	0x00000004	6e-45
97	0x00000004	6e-45
98	0x00000004	6e-45
99	0x00000004	6e-45
100	0x00000004	6e-45
101	0x00000004	6e-45
102	0x00000004	6e-45
103	0x00000000	0.0
104	0x00000004	6e-45
105	0x00000000	0.0
106	0x00000004	6e-45
107	0x00000000	0.0
108	0x00000004	6e-45
109	0x00000004	6e-45
110	0x00000004	6e-45
111	0x00000000	0.0
112	0x00000000	0.0
113	0x00000000	0.0
114	0x00000004	6e-45
115	0x00000004	6e-45
116	0x00000004	6e-45
117	0x00000004	6e-45
118	0x00000004	6e-45
119	0x00000000	0.0
120	0x00000004	6e-45
121	0x00000004	6e-45
122	0x00000004	6e-45
123	0x00000004	6e-45
124	0x00000004	6e-45
125	0x00000004	6e-45
126	0x00000000	0.0
127	0x00000004	6e-45
128	0x35f6dab2	1.8392077e-06
129	0x329ea17a	1.8467052e-08
130	0x80000004	-6e-45
131	0x00000000	0.0
132	0x37bae1f7	2.2278151e-05
133	0x00000000	0.0
134	0x37a19208	1.9260697e-05
135	0x36bab578	5.5643577e-06
136	0x35524e9b	7.834548e-07
137	0xb418abaa	-1.4218554e-07
138	0x379b5c61	1.8520457e-05
139	0xb0554743	-7.759022e-10
140	0x370b6773	8.309132e-06
141	0x37bf6ac8	2.2818698e-05
142	0x36209933	2.3931032e-06
143	0x00000000	0.0
144	0x368fbf15	4.283977e-06
145	0x80000004	-6e-45
146	0xb2fbf88a	-2.9333268e-08
147	0x378a015b	1.6451513e-05
148	0x00000004	6e-45
149	0x80000004	-6e-45
150	0x378a4265	1.64818e-05
151	0x00000004	6e-45
152	0x00000004	6e-45
153	0x00000000	0.0
154	0x35968340	1.121407e-06
155	0xb63ed3bd	-2.8435454e-06
156	0x00000000	0.0
157	0x3721830f	9.626862e-06
158	0x372b1bc8	1.0198863e-05
159	0x00000000	0.0
160	0x00000004	6e-45
161	0x00000000	0.0
162	0x37730446	1.4484924e-05
163	0x331f98db	3.7159094e-08
164	0x36f86321	7.402516e-06
165	0x00000000	0.0
166	0x37985c77	1.816287e-05
167	0x00000004	6e-45
168	0x00000000	0.0
169	0xb0d2ac4c	-1.5328481e-09
170	0xb51dec1b	-5.8830636e-07
171	0x375bef88	1.3109187e-05
172	0x37619dd4	1.3447792e-05
173	0x80000004	-6e-45
174	0x80000004	-6e-45
175	0x00000004	6e-45
176	0x37730a3c	1.4486312e-05
177	0x00000000	0.0
178	0x00000000	0.0
179	0x3789ac66	1.6411952e-05
180	0x3795b066	1.7844326e-05
181	0xb31ddbae	-3.675421e-08
182	0x00000000	0.0
183	0x37894c6f	1.6367265e-05
184	0xb3d56515	-9.936972e-08
185	0x37455259	1.1761288e-05
186	0x00000000	0.0
187	0x00000000	0.0
188	0x2d8c2bc7	1.5935598e-11
189	0x377ce1d1	1.50729475e-05
190	0x00000000	0.0
191	0x3700baff	7.672933e-06
192	0x00000004	6e-45
193	0x37c85a6d	2.3883966e-05
194	0x376153aa	1.3430525e-05
195	0x30a12ea9	1.1727553e-09
196	0x36a144e2	4.806193e-06
197	0x00000000	0.0
198	0x00000000	0.0
199	0x00000004	6e-45
200	0x380673c3	3.20559e-05
201	0x371f6935	9.501634e-06
202	0x38146c08	3.538656e-05
203	0x00000000	0.0
204	0x35fc6eb3	1.8807681e-06
205	0x00000000	0.0
206	0x375990e0	1.2967939e-05
207	0x00000000	0.0
208	0xb5a94262	-1.2610801e-06
209	0x80000004	-6e-45
210	0x80000004	-6e-45
211	0x37b9cb28	2.214832e-05
212	0x00000000	0.0
213	0x37215b43	9.617596e-06
214	0x373bb7f5	1.1188899e-05
215	0x00000000	0.0
216	0x00000000	0.0
217	0x3727f7b9	1.0011653e-05
218	0x37917dd0	1.7343933e-05
219	0x368b497a	4.1510766e-06
220	0x80000004	-6e-45
221	0x3661090a	3.3532874e-06
222	0x378e9380	1.6996404e-05
223	0x3735e379	1.0841403e-05
224	0x80000004	-6e-45
225	0x37244c3c	9.792911e-06
226	0x80000004	-6e-45
227	0xb33d432d	-4.4066088e-08
228	0x36990cf9	4.5612655e-06
229	0xb531a364	-6.6175403e-07
230	0x322b273a	9.962429e-09
231	0x359d4a52	1.1719042e-06
232	0x37c77bcf	2.3780301e-05
233	0x00000000	0.0
234	0x378cb7c5	1.6774875e-05
235	0x00000000	0.0
236	0x37459a3b	1.1778025e-05
237	0x35e77bec	1.7246907e-06
238	0x80000004	-6e-45
239	0x00000000	0.0
240	0x00000004	6e-45
241	0x80000004	-6e-45
242	0x80000004	-6e-45
243	0x36e1ebf0	6.7329893e-06
244	0x36a9ace1	5.0567182e-06
245	0x377f394b	1.5212524e-05
246	0x00000004	6e-45
247	0x37d538ae	2.5417972e-05
248	0x37636829	1.3554506e-05
249	0x37533f59	1.2591329e-05
250	0xb20b5d38	-8.11206e-09
251	0x00000004	6e-45
252	0x3790dc69	1.7268774e-05
253	0x36999f58	4.5783054e-06
254	0x00000000	0.0
255	0x80000004	-6e-45

exp_avg_sq f4 [64, 128]
0	0x2510d479	1.2561998e-16
1	0x00000000	0.0
2	0x1c52d235	6.975486e-22
3	0x00000000	0.0
4	0x2673334d	8.4377086e-16
5	0x00000000	0.0
6	0x2641669b	6.709938e-16
7	0x20ee9362	4.0416298e-19
8	0x231276d1	7.939836e-18
9	0x2405bf2d	2.900171e-17
10	0x24ee6439	1.0338583e-16
11	0x24b46c69	7.824621e-17
12	0x1bddf771	3.6721288e-22
13	0x25fbc4e5	4.367498e-16
14	0x228c1c26	3.797688e-18
15	0x00000000	0.0
16	0x251ffe31	1.3877175e-16
17	0x00000000	0.0
18	0x214bb170	6.901391e-19
19	0x24f2d67e	1.05314134e-16
20	0x1948676e	1.0360645e-23
21	0x20202b20	1.3566796e-19
22	0x21a16fdf	1.0939396e-18
23	0x25077db4	1.1751973e-16
24	0x00000000	0.0
25	0x00000000	0.0
26	0x23071aeb	7.324065e-18
27	0x00000000	0.0
28	0x00000000	0.0
29	0x26821eaa	9.028874e-16
30	0x25e2ca44	3.934181e-16
31	0x00000000	0.0
32	0x00000000	0.0
33	0x00000000	0.0
34	0x24be9bce	8.266331e-17
35	0x25baa793	3.237941e-16
36	0x25c5c20e	3.430555e-16
37	0x00000000	0.0
38	0x230e8af1	7.727257e-18
39	0x239a266b	1.6712984e-17
40	0x00000000	0.0
41	0x25b8e16c	3.2071664e-16
42	0x2397b49e	1.6447947e-17
43	0x24ee5573	1.03360803e-16
44	0x22197c8a	2.0801297e-18
45	0x00000000	0.0
46	0x24ce841c	8.956206e-17
47	0x2113bff4	5.0059585e-19
48	0x24d1181b	9.068014e-17
49	0x00000000	0.0
50	0x00000000	0.0
51	0x2576025d	2.13379e-16
52	0x25389fc7	1.601359e-16
53	0x24f6ee32	1.0708901e-16
54	0x00000000	0.0
55	0x25911f9a	2.5174904e-16
56	0x23f6b16b	2.6746513e-17
57	0x2233470f	2.4296642e-18
58	0x00000000	0.0
59	0x00000000	0.0
60	0x23fd7f4b	2.7484226e-17
61	0x256c5419	2.049823e-16
62	0x00000000	0.0
63	0x23a390f5	1.7733887e-17
64	0x00000000	0.0
65	0x244e15d9	4.4687635e-17
66	0x26184924	5.283472e-16
67	0x20598fe5	1.8428226e-19
68	0x244485cc	4.2614056e-17
69	0x00000000	0.0
70	0x00000000	0.0
71	0x16e4eec6	3.6986074e-25
72	0x26902183	1.0001091e-15
73	0x2298321d	4.125274e-18
74	0x26bc65d5	1.3072722e-15
75	0x00000000	0.0
76	0x25ac5974	2.989786e-16
77	0x00000000	0.0
78	0x228872c1	3.6984374e-18
79	0x00000000	0.0
80	0x21a11948	1.0916476e-18
81	0x2303a529	7.136498e-18
82	0x00000000	0.0
83	0x2637702f	6.3642916e-16
84	0x00000000	0.0
85	0x21ed0079	1.605987e-18
86	0x257dc77a	2.2011837e-16
87	0x00000000	0.0
88	0x00000000	0.0
89	0x226fcb93	3.2498311e-18
90	0x251f1f30	1.3801618e-16
91	0x20074685	1.1458278e-19
92	0x1c9bb02a	1.0302577e-21
93	0x21ba777b	1.2635476e-18
94	0x24223df8	3.518064e-17
95	0x24dcdeb9	9.57871e-17
96	0x24f3e8b4	1.05778666e-16
97	0x25126811	1.269874e-16
98	0x25b0dd12	3.0680936e-16
99	0x257cd100	2.1928328e-16
100	0x24acce4f	7.494261e-17
101	0x238ca575	1.5248904e-17
102	0x248cdef2	6.1093006e-17
103	0x00000000	0.0
104	0x259f60d9	2.764773e-16
105	0x00000000	0.0
106	0x26553d1a	7.398203e-16
107	0x00000000	0.0
108	0x218a8c4e	9.388382e-19
109	0x2511b47a	1.2637893e-16
110	0x195ce807	1.1420591e-23
111	0x00000000	0.0
112	0x00000000	0.0
113	0x00000000	0.0
114	0x232f1c14	9.492715e-18
115	0x21c90962	1.3622773e-18
116	0x1df2a270	6.4224823e-21
117	0x2380dd7a	1.3971587e-17
118	0x1c44bf89	6.5098513e-22
119	0x00000000	0.0
120	0x22e37180	6.1648646e-18
121	0x2542cbd3	1.6895876e-16
122	0x239f81c5	1.7293774e-17
123	0x2386462d	1.455803e-17
124	0x25b0c217	3.0662654e-16
125	0x23435675	1.0589279e-17
126	0x00000000	0.0
127	0x1b899a6d	2.2764544e-22
128	0x313cfbfd	2.750084e-09
129	0x28fef49e	2.830575e-14
130	0x1c9165ac	9.621577e-22
131	0x00000000	0.0
132	0x3234c5e7	1.0522377e-08
133	0x00000000	0.0
134	0x3263630d	1.3235661e-08
135	0x31c7d228	5.8155543e-09
136	0x2e767855	5.60408e-11
137	0x2bad78ca	1.2325915e-12
138	0x325758f9	1.2534877e-08
139	0x2ee73b72	1.05152234e-10
140	0x31c6c157	5.7845386e-09
141	0x3228ef26	9.833263e-09
142	0x318f947c	4.1787285e-09
143	0x00000000	0.0
144	0x309c7f3c	1.1386656e-09
145	0x1415a604	7.5553184e-27
146	0x290ad6f7	3.0828608e-14
147	0x3055320e	7.756008e-10
148	0x19289ffe	8.7177066e-24
149	0x203a58f2	1.5784242e-19
150	0x2ff6e06b	4.4906598e-10
151	0x26b61511	1.2634497e-15
152	0x1c0af810	4.5980983e-22
153	0x00000000	0.0
154	0x2e8bfcb1	6.365875e-11
155	0x2ed8a01a	9.8509825e-11
156	0x00000000	0.0
157	0x31887669	3.9715826e-09
158	0x2fee7ae1	4.3379259e-10
159	0x00000000	0.0
160	0x15b29b76	7.21389e-26
161	0x00000000	0.0
162	0x31126def	2.1308286e-09
163	0x2e8748e5	6.152038e-11
164	0x316100f9	3.2742362e-09
165	0x00000000	0.0
166	0x31e1aa10	6.5676957e-09
167	0x23487f55	1.0868985e-17
168	0x00000000	0.0
169	0x2d3fa9d3	1.08948016e-11
170	0x2f5c0921	2.0012127e-10
171	0x2fc6af64	3.6140613e-10
172	0x320d7ba4	8.235393e-09
173	0x212cd285	5.8554487e-19
174	0x24c0d64f	8.362978e-17
175	0x23fa5015	2.713897e-17
176	0x30af79d5	1.2767553e-09
177	0x00000000	0.0
178	0x00000000	0.0
179	0x31815244	3.7637466e-09
180	0x30773698	8.993566e-10
181	0x2ee54fae	1.0427868e-10
182	0x00000000	0.0
183	0x30c5d17e	1.4393178e-09
184	0x2f9c8540	2.8470915e-10
185	0x3167f976	3.3756726e-09
186	0x00000000	0.0
187	0x00000000	0.0
188	0x2cad44dd	4.924601e-12
189	0x30be0ca6	1.3827914e-09
190	0x00000000	0.0
191	0x3179772e	3.6302015e-09
192	0x1f757219	5.1975147e-20
193	0x323db5e4	1.1042605e-08
194	0x31d5e831	6.225513e-09
195	0x2d42a2f6	1.1063808e-11
196	0x309be539	1.1342883e-09
197	0x00000000	0.0
198	0x00000000	0.0
199	0x1794f729	9.626668e-25
200	0x331ed2e4	3.6979046e-08
201	0x3157c147	3.1396483e-09
202	0x331acf10	3.604424e-08
203	0x00000000	0.0
204	0x2f9ad6da	2.8165098e-10
205	0x00000000	0.0
206	0x310fa5b4	2.090343e-09
207	0x00000000	0.0
208	0x2ed6e89c	9.772913e-11
209	0x22b09900	4.786689e-18
210	0x13104756	1.8210527e-27
211	0x327bae1e	1.46497126e-08
212	0x00000000	0.0
213	0x2fce3a41	3.7512574e-10
214	0x3025a00b	6.0254085e-10
215	0x00000000	0.0
216	0x00000000	0.0
217	0x3110b18e	2.1055686e-09
218	0x31b366b7	5.221263e-09
219	0x31c07e92	5.602325e-09
220	0x1aca86d7	8.376309e-23
221	0x31195a4e	2.2315763e-09
222	0x325365b6	1.2304943e-08
223	0x3120e06b	2.3410631e-09
224	0x2520f55a	1.3960916e-16
225	0x31c43c1e	5.7111853e-09
226	0x25c587b5	3.426601e-16
227	0x2fdd77b7	4.0284728e-10
228	0x2ee4a8b6	1.0398209e-10
229	0x2e8b70d2	6.341029e-11
230	0x2fb46365	3.2812433e-10
231	0x2fad2e51	3.1501426e-10
232	0x321d1505	9.143382e-09
233	0x00000000	0.0
234	0x31baeef4	5.4404783e-09
235	0x00000000	0.0
236	0x32000c76	7.453414e-09
237	0x31971065	4.3965422e-09
238	0x1a0c24dd	2.89811e-23
239	0x00000000	0.0
240	0x15424082	3.9228876e-26
241	0x108024c8	5.054377e-29
242	0x22e25ca9	6.135553e-18
243	0x31aa0c0d	4.949021e-09
244	0x317c4f93	3.671606e-09
245	0x320c2526	8.157519e-09
246	0x226c2e00	3.2008316e-18
247	0x32177460	8.815817e-09
248	0x31ceda64	6.020217e-09
249	0x31c00c5e	5.5893414e-09
250	0x2d27a1bf	9.528766e-12
251	0x2375e28d	1.3329451e-17
252	0x31adf2df	5.062574e-09
253	0x2fd32b62	3.8411502e-10
254	0x00000000	0.0
255	0x1b64d871	1.8929654e-22

exp_avg f4 [64]
0	0x00000004	6e-45
1	0x380ed4f9	3.4053784e-05
2	0x00000004	6e-45
3	0x33290532	3.9353104e-08
4	0x00000000	0.0
5	0x00000004	6e-45
6	0x38a83628	8.020952e-05
7	0xb6e7fa6b	-6.913489e-06
8	0x00000004	6e-45
9	0x00000000	0.0
10	0x00000000	0.0
11	0x00000004	6e-45
12	0xb81a507e	-3.6791425e-05
13	0x00000004	6e-45
14	0x00000000	0.0
15	0x00000004	6e-45
16	0x00000004	6e-45
17	0x36a707e9	4.9779087e-06
18	0x38ac5f1f	8.219317e-05
19	0x38b60b19	8.6805034e-05
20	0x389115a9	6.918173e-05
21	0x39132c1d	0.00014035446
22	0xb85aaa72	-5.213399e-05
23	0x38a68928	7.941044e-05
24	0x387f0cc0	6.0808612e-05
25	0xb7213858	-9.609466e-06
26	0x390f1459	0.00013645123
27	0x00000004	6e-45
28	0x00000004	6e-45
29	0x00000004	6e-45
30	0x37be2669	2.2667651e-05
31	0x00000004	6e-45
32	0x38a250db	7.7398225e-05
33	0x38b19ad8	8.4688596e-05
34	0x00000004	6e-45
35	0x00000004	6e-45
36	0x31f0c84c	7.0076904e-09
37	0x00000004	6e-45
38	0x389dc004	7.522109e-05
39	0x37dd8173	2.6405532e-05
40	0x00000004	6e-45
41	0x389e9a90	7.5628166e-05
42	0x00000004	6e-45
43	0xb8f57a15	-0.0001170525
44	0x00000000	0.0
45	0x2ead6d15	7.886506e-11
46	0x00000004	6e-45
47	0xb6a2d104	-4.852309e-06
48	0x00000004	6e-45
49	0xb897473a	-7.213508e-05
50	0x3889e851	6.5759414e-05
51	0x00000004	6e-45
52	0x00000004	6e-45
53	0x37935ee2	1.7567949e-05
54	0x00000000	0.0
55	0x361c6417	2.3304071e-06
56	0x00000004	6e-45
57	0xb761f7cb	-1.3468739e-05
58	0x37d75381	2.5668882e-05
59	0xb77052a1	-1.4324353e-05
60	0x38b4bd38	8.6183136e-05
61	0x37f8e93c	2.9672512e-05
62	0x00000000	0.0
63	0x00000004	6e-45
