001-machine_learning/data/00001-MLP-temperature/017_checkpoint.pth (torch_old, 410073 bytes, 30 tensors)

exp_avg f4 [64, 4]
0	0xbac01a89	-0.0014656346
1	0xbad00d7d	-0.001587316
2	0xba85a42b	-0.0010196021
3	0xbacd3bf4	-0.0015658126
4	0x39d5f217	0.00040806897
5	0x3a12c5b4	0.0005598918
6	0x3a43b2c4	0.0007465298
7	0x3a2bb099	0.00065494474
8	0x39fbddfc	0.00048039842
9	0x3a122c05	0.00055760174
10	0x3a047abf	0.0005053691
11	0x3a0d61a2	0.00053932716
12	0xb97a53a2	-0.00023873014
13	0xb9aa2d47	-0.0003245866
14	0xb9db8e21	-0.0004187683
15	0xb9bcdac6	-0.00036021153
16	0xba1aacfc	-0.00059004105
17	0xba62f9b4	-0.00086584245
18	0xbaa182a9	-0.0012322265
19	0xba841d87	-0.0010079601
20	0x00000000	0.0
21	0xb6294709	-2.522431e-06
22	0xb59db96b	-1.1751375e-06
23	0xb62047fa	-2.3883754e-06
24	0x00000000	0.0
25	0x00000000	0.0
26	0x00000000	0.0
27	0x00000000	0.0
28	0x00000000	0.0
29	0x3517573a	5.6378815e-07
30	0x35467353	7.3928567e-07
31	0x35581cdc	8.0508266e-07
32	0x3a031a04	0.000500113
33	0x3a28d67a	0.0006440651
34	0x3a4cd723	0.00078140403
35	0x3a37fa82	0.00070182246
36	0x3a71cbb4	0.00092237745
37	0x3aa2ecb8	0.0012430167
38	0x3ac73f76	0.0015201408
39	0x3ab45e29	0.0013760972
40	0xba0be912	-0.00053371594
41	0xba48dece	-0.0007662595
42	0xba8a07b2	-0.0010530858
43	0xba648909	-0.00087179296
44	0x3a26b86d	0.0006359879
45	0x3a70e691	0.00091896305
46	0x3aa7d1df	0.0012803635
47	0x3a8c764b	0.0010716406
48	0x3909c510	0.0001313875
49	0x3997debc	0.00028966914
50	0x3a1fda36	0.00060978846
51	0x39d168b0	0.00039941585
52	0x3a453437	0.0007522734
53	0x3a814f02	0.0009865465
54	0x3a9243aa	0.0011159081
55	0x3a8994d8	0.0010496629
56	0xbaa96224	-0.0012922925
57	0xbae33034	-0.0017333091
58	0xbb0da286	-0.0021611764
59	0xbafc8350	-0.0019265208
60	0xb8a1c0f8	-7.7130215e-05
61	0xb9245ec4	-0.00015675562
62	0xb9954128	-0.0002846804
63	0xb94f9c59	-0.00019799302
64	0x3ab9088b	0.0014116926
65	0x3ae576ed	0.0017506756
66	0x3afba1be	0.0019197983
67	0x3af3d091	0.0018601586
68	0x3a6201df	0.00086214946
69	0x3a8e4df6	0.0010856974
70	0x3a9d8b12	0.0012019596
71	0x3a9950d7	0.0011697066
72	0xba942dfe	-0.0011305211
73	0xba9c6a04	-0.0011933451
74	0xbaa3c4b1	-0.0012494532
75	0xbaa241d5	-0.0012379239
76	0xba44a8bd	-0.00075019506
77	0xba7dcc21	-0.00096816017
78	0xba95cf8c	-0.0011429652
79	0xba8bcec9	-0.0010666485
80	0x39079646	0.00012930584
81	0x391096f0	0.00013789139
82	0x38b5a8d4	8.662199e-05
83	0x38c026e8	9.16252e-05
84	0xba2c7ed1	-0.00065801764
85	0xba6b5f41	-0.00089787325
86	0xba93af99	-0.0011267542
87	0xba81bce8	-0.0009898217
88	0x3a31b649	0.0006779177
89	0x3a6b6ed9	0.0008981056
90	0x3a902ae1	0.0010999107
91	0x3a822497	0.0009929118
92	0xba8cd0b5	-0.0010743352
93	0xbaac5f95	-0.0013151044
94	0xbabb0896	-0.0014269527
95	0xbab412d0	-0.0013738517
96	0xbb147aee	-0.002265628
97	0xbb062fa4	-0.0020475173
98	0xba494f94	-0.00076793996
99	0xbae9406f	-0.0017795692
100	0xb8ff6be5	-0.000121794445
101	0xb8a32a80	-7.780362e-05
102	0xb833ba87	-4.2850643e-05
103	0xb88a425b	-6.5927125e-05
104	0xb991da31	-0.0002781912
105	0xb9c6b3b9	-0.00037899407
106	0xb9fe5ab4	-0.00048514234
107	0xb9ea266a	-0.0004466058
108	0xba07ce17	-0.0005180551
109	0xba3f00ff	-0.000728622
110	0xba8119ae	-0.0009849572
111	0xba4edc7f	-0.0007891133
112	0x39200cbd	0.00015263534
113	0x393c478b	0.00017955729
114	0x39244900	0.00015667453
115	0x39538b58	0.00020174438
116	0xb702d2ca	-7.797682e-06
117	0xb7fb8c4d	-2.9986864e-05
118	0xb70b9a25	-8.320935e-06
119	0xb7adc935	-2.0716901e-05
120	0xba522f9c	-0.00080179586
121	0xba882bd2	-0.0010389036
122	0xbaadef52	-0.0013270176
123	0xba982e18	-0.0011610417
124	0xba4bb95e	-0.00077714573
125	0xba84743b	-0.001010544
126	0xba9c53ab	-0.001192679
127	0xba93dc31	-0.0011280832
128	0x3a430d7d	0.00074406696
129	0x3a708beb	0.0009176123
130	0x3a83ce21	0.0010055938
131	0x3a7d6abc	0.0009667089
132	0x00000004	6e-45
133	0x00000004	6e-45
134	0x00000004	6e-45
135	0x00000004	6e-45
136	0x3a00559e	0.00048955705
137	0x3a323f88	0.0006799628
138	0x3a6e912d	0.00091006124
139	0x3a47c3c5	0.00076204195
140	0xbaa366ec	-0.0012466586
141	0xbad7cce2	-0.0016464258
142	0xbb05c8ec	-0.0020413948
143	0xbaec50b7	-0.0018029426
144	0x3419154f	1.4256987e-07
145	0x3245e3bf	1.1518693e-08
146	0x34725869	2.257017e-07
147	0x33e85517	1.08188196e-07
148	0xbb252077	-0.0025196353
149	0xbb14bf60	-0.0022697076
150	0xba49c1e0	-0.0007696431
151	0xbb0817ab	-0.002076606
152	0x3a85df83	0.0010213706
153	0x3aaf4103	0.0013370815
154	0x3acf3997	0.001581001
155	0x3ac11d46	0.0014733456
156	0xb90560a1	-0.00012719865
157	0xb954ff05	-0.00020312898
158	0xb9a5be03	-0.00031612822
159	0xb988c75f	-0.00026088484
160	0x37a6815c	1.984898e-05
161	0x36fc245d	7.5144185e-06
162	0x37ab1dbd	2.0398636e-05
163	0x3745bb03	1.1785657e-05
164	0x3b168474	0.0022967132
165	0x3b16c9c7	0.0023008452
166	0x3aba74ff	0.0014225541
167	0x3b17833d	0.0023118996
168	0x00000000	0.0
169	0x00000000	0.0
170	0x00000000	0.0
171	0x00000000	0.0
172	0xba58c6f4	-0.00082693924
173	0xba63bc0a	-0.0008687383
174	0xba458fd2	-0.00075363845
175	0xba657f1a	-0.00087545963
176	0x00000004	6e-45
177	0xb680351a	-3.820879e-06
178	0xb5de1490	-1.6546273e-06
179	0xb67e4c58	-3.7893387e-06
180	0x00000000	0.0
181	0x372a48e2	1.0149759e-05
182	0x36829b80	3.8924045e-06
183	0x37152223	8.88904e-06
184	0xba1b5c5b	-0.0005926543
185	0xba49547f	-0.00076801324
186	0xba63f4ea	-0.0008695858
187	0xba58cab8	-0.00082699535
188	0xb9eb5d50	-0.00044892216
189	0xba39dd68	-0.0007090182
190	0xba8cc614	-0.0010740184
191	0xba6706a5	-0.0008812941
192	0xb5bbeba8	-1.4001171e-06
193	0xb71c58f2	-9.319034e-06
194	0xb6360659	-2.7123808e-06
195	0xb6da1523	-6.499367e-06
196	0xbaebf625	-0.0018002434
197	0xbb1b6cba	-0.002371593
198	0xbb3dc166	-0.0028954386
199	0xbb29f35e	-0.0025932412
200	0xb70fe4ad	-8.576707e-06
201	0xb81354ec	-3.512662e-05
202	0xb7285647	-1.0033668e-05
203	0xb7c78a60	-2.3787085e-05
204	0xb401764c	-1.2057097e-07
205	0xb7806c0a	-1.5309099e-05
206	0xb6c987d8	-6.006081e-06
207	0xb768e19a	-1.38808045e-05
208	0x35e648be	1.7157506e-06
209	0x33e0bd19	1.04652095e-07
210	0x35f2a97b	1.807973e-06
211	0x3566d321	8.598891e-07
212	0x00000000	0.0
213	0x00000000	0.0
214	0x00000000	0.0
215	0x00000000	0.0
216	0xb9b2c9be	-0.00034101115
217	0xb999accf	-0.00029311187
218	0xb95a6840	-0.00020828936
219	0xb9847a89	-0.00025268298
220	0x37d54848	2.5425237e-05
221	0x3740747d	1.1471214e-05
222	0x3686830b	4.0087666e-06
223	0x374888f3	1.1952815e-05
224	0x3a5d822e	0.0008449879
225	0x3a8a2873	0.0010540619
226	0x3a99f4ab	0.001174589
227	0x3a917c14	0.00110996
228	0xb8a3e7be	-7.815611e-05
229	0xb8a84425	-8.023557e-05
230	0xb8a68c4d	-7.94163e-05
231	0xb8bbe146	-8.958815e-05
232	0xba0005b5	-0.0004883663
233	0xba36fdd5	-0.0006980573
234	0xba7521eb	-0.00093510625
235	0xba50ed3f	-0.0007969923
236	0x38732c09	5.7976726e-05
237	0xb7fc2ecd	-3.0062534e-05
238	0xb96a9691	-0.0002237207
239	0xb8d54dc2	-0.00010171115
240	0x00000000	0.0
241	0xb5a8452c	-1.2537107e-06
242	0xb422dd00	-1.5167825e-07
243	0xb5768b3a	-9.184474e-07
244	0xba1fd2fc	-0.0006096808
245	0xba6ad1f4	-0.0008957677
246	0xbaa35d53	-0.0012463726
247	0xba8bf51e	-0.0010677909
248	0xbaf26a96	-0.00184949
249	0xbb131992	-0.002244566
250	0xbb0e5f29	-0.00217242
251	0xbb19ff36	-0.0023498065
252	0x00000000	0.0
253	0xb05b2880	-7.972929e-10
254	0xaf1cae08	-1.4249946e-10
255	0x302e99d1	6.351942e-10

exp_avg_sq f4 [64, 4]
0	0x37080a02	8.108562e-06
1	0x370a7e74	8.254883e-06
2	0x366f1e8e	3.563156e-06
3	0x37142c4d	8.831802e-06
4	0x3715035d	8.881875e-06
5	0x3756683f	1.2779666e-05
6	0x37327471	1.0636738e-05
7	0x378f076f	1.705039e-05
8	0x362aa2f1	2.5426818e-06
9	0x35ffc040	1.9054933e-06
10	0x3561e6ee	8.415508e-07
11	0x36059945	1.990776e-06
12	0x36174d18	2.2545628e-06
13	0x35df01f5	1.6615364e-06
14	0x35437749	7.2816744e-07
15	0x35e58713	1.7101141e-06
16	0x37ceab51	2.4636889e-05
17	0x379417ab	1.7653996e-05
18	0x370a9a86	8.261419e-06
19	0x3799f219	1.8351757e-05
20	0x00000000	0.0
21	0x3498d129	2.846439e-07
22	0x34328e2f	1.6629268e-07
23	0x34e400bd	4.2468847e-07
24	0x00000000	0.0
25	0x00000000	0.0
26	0x00000000	0.0
27	0x00000000	0.0
28	0x00000000	0.0
29	0x362dded2	2.5908707e-06
30	0x36b23987	5.3115104e-06
31	0x36b53a74	5.401025e-06
32	0x37048a6a	7.90004e-06
33	0x371767cb	9.0244675e-06
34	0x36ae6dff	5.1984093e-06
35	0x373521c9	1.0796307e-05
36	0x380cbc72	3.3554104e-05
37	0x37c883d1	2.390324e-05
38	0x373df12c	1.132143e-05
39	0x37d07128	2.4848225e-05
40	0x3797c105	1.8090484e-05
41	0x37dc5c55	2.626904e-05
42	0x37becf68	2.2746346e-05
43	0x381714b7	3.6020498e-05
44	0x37e2a237	2.7016837e-05
45	0x37ce8e3c	2.4623347e-05
46	0x372a0b32	1.0135396e-05
47	0x37d09ea3	2.4869403e-05
48	0x370c8013	8.37447e-06
49	0x3751a719	1.2496276e-05
50	0x373f5eee	1.140659e-05
51	0x3791d4be	1.7384413e-05
52	0x378d5188	1.6846476e-05
53	0x375e45d4	1.3248489e-05
54	0x36b5720b	5.4074967e-06
55	0x37620dde	1.3473878e-05
56	0x3894572e	7.0734284e-05
57	0x38dd7b49	0.00010561065
58	0x38aa2310	8.1127626e-05
59	0x39123b6f	0.00013945786
60	0x361417fa	2.2067675e-06
61	0x368b205c	4.14629e-06
62	0x368e490d	4.240434e-06
63	0x36ca3a15	6.0268308e-06
64	0x3839f959	4.433966e-05
65	0x386d5b6e	5.6590354e-05
66	0x381e2dd6	3.7712824e-05
67	0x389549e4	7.118637e-05
68	0x379c505a	1.8634066e-05
69	0x37be4936	2.2683857e-05
70	0x37408eae	1.1477312e-05
71	0x37e1ba79	2.6908923e-05
72	0x36f9a03a	7.439431e-06
73	0x37586f55	1.2900525e-05
74	0x3703967d	7.843247e-06
75	0x3783a45f	1.5692958e-05
76	0x3797f061	1.8112538e-05
77	0x37db2a22	2.6126454e-05
78	0x379da1b8	1.8791165e-05
79	0x380e990b	3.399797e-05
80	0x34099a99	1.2815362e-07
81	0x342fd0e0	1.6374133e-07
82	0x34012866	1.2028758e-07
83	0x34576504	2.0060185e-07
84	0x37a40d22	1.9556439e-05
85	0x37a679f6	1.9845535e-05
86	0x37816278	1.5423851e-05
87	0x37c9648a	2.4007884e-05
88	0x378fb51b	1.7131262e-05
89	0x37be525c	2.2688117e-05
90	0x37a5a966	1.9748415e-05
91	0x37fde125	3.0264791e-05
92	0x37c12a2d	2.3027033e-05
93	0x37ce6be9	2.4607363e-05
94	0x3789c5a8	1.6423714e-05
95	0x38005ead	3.060575e-05
96	0x373b1be5	1.1152563e-05
97	0x379e435e	1.8866438e-05
98	0x37ad0b34	2.0628424e-05
99	0x37f78fb2	2.9511608e-05
100	0x36b69959	5.4418747e-06
101	0x35840104	9.835062e-07
102	0x3605b684	1.9924782e-06
103	0x35ee90d5	1.7774533e-06
104	0x36528aa3	3.1373136e-06
105	0x3629d605	2.5307538e-06
106	0x358c45d1	1.0451132e-06
107	0x362a40f7	2.5369789e-06
108	0x37681aba	1.38345e-05
109	0x377c791c	1.50485685e-05
110	0x371fe8ef	9.531373e-06
111	0x3798b4ba	1.820397e-05
112	0x34b67d67	3.3991384e-07
113	0x34842cb7	2.461945e-07
114	0x34445985	1.828649e-07
115	0x3496e6ab	2.810751e-07
116	0x2e836c18	5.9763916e-11
117	0x37adc8d5	2.0716727e-05
118	0x369a7539	4.603204e-06
119	0x37cde590	2.4544803e-05
120	0x37bf027c	2.2770131e-05
121	0x38112200	3.460236e-05
122	0x37e2accf	2.702177e-05
123	0x383eba77	4.547319e-05
124	0x379fedee	1.9065072e-05
125	0x37c61e1f	2.3617466e-05
126	0x376bd64d	1.4056987e-05
127	0x37ef3363	2.8514949e-05
128	0x374f514f	1.2357093e-05
129	0x3783638e	1.5662776e-05
130	0x37218820	9.628042e-06
131	0x37a3fe45	1.9549518e-05
132	0x1a6ead8a	4.935743e-23
133	0x1a565fb5	4.4331474e-23
134	0x159ebb1b	6.411089e-26
135	0x1283f852	8.328478e-28
136	0x374fa317	1.2376134e-05
137	0x3776b77a	1.4705462e-05
138	0x370426c8	7.876843e-06
139	0x3791f0a5	1.7397406e-05
140	0x3879f5c5	5.9595117e-05
141	0x38ad1db4	8.2548155e-05
142	0x3881b8d2	6.185625e-05
143	0x38e365ce	0.00010843166
144	0x30ac0cf9	1.2518334e-09
145	0x32cbb5e5	2.3715026e-08
146	0x35a47963	1.225428e-06
147	0x349744db	2.817604e-07
148	0x374fa57d	1.2376692e-05
149	0x36a4c271	4.910217e-06
150	0x367d5023	3.7746584e-06
151	0x36cb8826	6.065721e-06
152	0x38121019	3.4824105e-05
153	0x37d57e73	2.5450461e-05
154	0x3746c61a	1.1847844e-05
155	0x37dd2b05	2.6365286e-05
156	0x35f52a78	1.8266282e-06
157	0x363869f7	2.7479816e-06
158	0x3623fc5a	2.443578e-06
159	0x367d1060	3.770947e-06
160	0x35dc4452	1.6411161e-06
161	0x36b7578e	5.4640177e-06
162	0x37942b52	1.7663147e-05
163	0x375fce00	1.3339799e-05
164	0x36d7bc31	6.4294077e-06
165	0x3702d156	7.797344e-06
166	0x36689d2e	3.4662185e-06
167	0x37085390	8.125688e-06
168	0x00000000	0.0
169	0x00000000	0.0
170	0x00000000	0.0
171	0x00000000	0.0
172	0x3632448d	2.6563969e-06
173	0x367eda27	3.797593e-06
174	0x35f672b3	1.836181e-06
175	0x3692cb27	4.374789e-06
176	0x26b6057b	1.2630272e-15
177	0x34f93426	4.6417807e-07
178	0x343266bc	1.6614916e-07
179	0x352df9e5	6.4811167e-07
180	0x00000000	0.0
181	0x371e8c1b	9.450155e-06
182	0x37442523	1.1691157e-05
183	0x378456de	1.5776077e-05
184	0x372e1328	1.0375668e-05
185	0x373b6c2d	1.1171255e-05
186	0x370c7f44	8.374282e-06
187	0x3778a95b	1.4821383e-05
188	0x37ba9f03	2.2246973e-05
189	0x38045eb3	3.1559448e-05
190	0x37d963e8	2.5914938e-05
191	0x383082c0	4.208344e-05
192	0x2c5c841c	3.1337216e-12
193	0x35b8916f	1.3751395e-06
194	0x34210b33	1.4998368e-07
195	0x35802069	9.546176e-07
196	0x38f6c6f4	0.00011767252
197	0x391e6f71	0.0001510957
198	0x38e1fb7d	0.000107756794
199	0x3948f3a4	0.0001916425
200	0x2e9339d2	6.695057e-11
201	0x385c80d1	5.2572057e-05
202	0x3882f45f	6.244401e-05
203	0x38b52723	8.638042e-05
204	0x2a1e0e20	1.403812e-13
205	0x373671f8	1.0874581e-05
206	0x37609bc2	1.3387706e-05
207	0x37883f2d	1.6241882e-05
208	0x33b81167	8.571333e-08
209	0x3431888c	1.6534085e-07
210	0x360c9248	2.0946773e-06
211	0x35507856	7.766115e-07
212	0x00000000	0.0
213	0x00000000	0.0
214	0x00000000	0.0
215	0x00000000	0.0
216	0x3687a68e	4.042703e-06
217	0x377670c3	1.4688997e-05
218	0x378a84c3	1.6512704e-05
219	0x37ca95e3	2.4150073e-05
220	0x371164ef	8.666174e-06
221	0x355d69ae	8.24827e-07
222	0x366243f1	3.3716171e-06
223	0x36245181	2.4485346e-06
224	0x37917fde	1.734489e-05
225	0x37b0a03e	2.1055454e-05
226	0x376726e0	1.3777724e-05
227	0x37e01ca7	2.6716223e-05
228	0x33727b93	5.6457406e-08
229	0x34ac5f3b	3.2106786e-07
230	0x34b7ed4c	3.4259062e-07
231	0x35075e0f	5.042829e-07
232	0x376d4e66	1.4144554e-05
233	0x3798b593	1.8204364e-05
234	0x37221cb6	9.662637e-06
235	0x37bb834e	2.235328e-05
236	0x36069219	2.0052596e-06
237	0x363e71c3	2.8378424e-06
238	0x36836a5a	3.916485e-06
239	0x368e0ce8	4.2334323e-06
240	0x00000000	0.0
241	0x35069e04	5.0148833e-07
242	0x35159c8d	5.5734637e-07
243	0x355263ac	7.837614e-07
244	0x37df0f00	2.6590656e-05
245	0x37b75afc	2.1857668e-05
246	0x371548d1	8.898046e-06
247	0x37bf354d	2.2793794e-05
248	0x3879b1da	5.9531863e-05
249	0x38952e76	7.113528e-05
250	0x3868e3f6	5.5525416e-05
251	0x38c199ef	9.2316295e-05
252	0x00000000	0.0
253	0x2c956166	4.245648e-12
254	0x29a764f0	7.4338e-14
255	0x28def2a5	2.4752181e-14

exp_avg f4 [64]
0	0xbabf3569	-0.0014588061
1	0x39d13cd8	0.0003990892
2	0x39fbd182	0.00048030546
3	0xb97a5382	-0.00023872967
4	0xba1aad15	-0.0005900425
5	0xb628bd50	-2.5144145e-06
6	0x00000000	0.0
7	0x35af3357	1.3053458e-06
8	0x3a012d27	0.00049276877
9	0x3a71cba5	0.0009223766
10	0xba08e5f1	-0.0005222252
11	0x3a225dfb	0.0006193814
12	0x3901d0d4	0.00012380193
13	0x3a43fd8e	0.0007476442
14	0xbaa60b5e	-0.0012668183
15	0xb895d978	-7.1453804e-05
16	0x3ab6a07f	0.001393333
17	0x3a5ef6fc	0.00085054315
18	0xba930c89	-0.0011218946
19	0xba416c63	-0.00073785166
20	0x3906d0f1	0.00012857073
21	0xba2a5821	-0.00064981176
22	0x3a2ed0c1	0.000666868
23	0xba8be174	-0.0010672049
24	0xbb14fb74	-0.0022732886
25	0xb8ff6ce1	-0.00012179628
26	0xb991da28	-0.00027819094
27	0xba056a62	-0.00050893996
28	0x391f6fb7	0.00015205039
29	0xb7fd93d8	-3.0228795e-05
30	0xba4e9900	-0.0007881075
31	0xba48bd4b	-0.00076576014
32	0x3a407cbd	0.0007342806
33	0x00000004	6e-45
34	0x39fbfa0d	0.00048060753
35	0xbaa08ac9	-0.0012248392
36	0x347ac5f6	2.3355082e-07
37	0xbb251d87	-0.0025194602
38	0x3a856b95	0.0010179157
39	0xb9012cde	-0.00012319113
40	0x37b8b6f6	2.2019707e-05
41	0x3b160f5c	0.0022897338
42	0x00000000	0.0
43	0xba579bbe	-0.00082248065
44	0xb6832aea	-3.9091e-06
45	0x371cdef4	9.350235e-06
46	0xba1be5ee	-0.0005947043
47	0xb9e44d9e	-0.00043545378
48	0xb72445c4	-9.791405e-06
49	0xbae811dd	-0.0017705519
50	0xb80e1319	-3.3873224e-05
51	0xb7795858	-1.4862126e-05
52	0x36025e31	1.9426336e-06
53	0x00000000	0.0
54	0xb9b8bb9e	-0.00035235
55	0x37d5482b	2.5425185e-05
56	0x3a5ad13c	0.00083472184
57	0xb8a15e07	-7.694592e-05
58	0xb9fa9195	-0.00047792183
59	0x3881d005	6.189946e-05
60	0xb5854cd6	-9.931634e-07
61	0xba1e02f0	-0.00060276594
62	0xbaf0aec7	-0.0018362635
63	0xb0b1e82a	-1.294443e-09

exp_avg_sq f4 [64]
0	0x3740ae57	1.14846835e-05
1	0x3808d61b	3.2624328e-05
2	0x362ab1f4	2.5435556e-06
3	0x36174d19	2.254563e-06
4	0x37ceab52	2.463689e-05
5	0x35335d55	6.681851e-07
6	0x00000000	0.0
7	0x3774150e	1.45484355e-05
8	0x378fd4c3	1.7146003e-05
9	0x380cbc71	3.35541e-05
10	0x38945128	7.0723065e-05
11	0x380a43b9	3.2964836e-05
12	0x3812b9f8	3.498231e-05
13	0x37948d9a	1.7708913e-05
14	0x3988eb87	0.00026115423
15	0x375bc561	1.3099373e-05
16	0x38fea85a	0.00012143022
17	0x383536f1	4.320493e-05
18	0x37da4b4f	2.6022693e-05
19	0x38822b72	6.2069754e-05
20	0x34d58bcf	3.9776066e-07
21	0x382da2d4	4.139806e-05
22	0x38753d56	5.8469675e-05
23	0x3855d3ea	5.0980518e-05
24	0x388c1a71	6.680645e-05
25	0x36b6a048	5.442682e-06
26	0x36528aa2	3.1373133e-06
27	0x3801dea1	3.0963336e-05
28	0x34f8543f	4.6254897e-07
29	0x382a1b41	4.055654e-05
30	0x38b013d9	8.396031e-05
31	0x384551c3	4.7044607e-05
32	0x38090403	3.266708e-05
33	0x1a6ead94	4.9357462e-23
34	0x37ebafcc	2.8096045e-05
35	0x39500b55	0.00019840647
36	0x35ca265a	1.5061335e-06
37	0x3759cebc	1.2982342e-05
38	0x38145234	3.5362507e-05
39	0x37000fb5	7.633052e-06
40	0x382799b7	3.995906e-05
41	0x3720c81b	9.583334e-06
42	0x00000000	0.0
43	0x36d66fb4	6.390701e-06
44	0x357e33e8	9.4697907e-07
45	0x38178e56	3.6133766e-05
46	0x37dc1b52	2.6238766e-05
47	0x38aa26c5	8.113453e-05
48	0x35d5e44c	1.593618e-06
49	0x39b3d9ec	0.00034303905
50	0x394cf6fb	0.00019546963
51	0x38136f47	3.5151166e-05
52	0x36575c19	3.2091104e-06
53	0x00000000	0.0
54	0x3861415c	5.370505e-05
55	0x371164f1	8.666176e-06
56	0x383aeb4d	4.4564997e-05
57	0x3589b00e	1.0258534e-06
58	0x381ce650	3.7407794e-05
59	0x37293df8	1.0087613e-05
60	0x35fc4f95	1.8798625e-06
61	0x38020c8f	3.100611e-05
62	0x392ca2cd	0.00016463846
63	0x2ccde89d	5.8522757e-12

exp_avg f4 [128, 64]
0	0xb7f8352e	-2.9588668e-05
1	0xb90965d6	-0.00013103275
2	0xb888e845	-6.528249e-05
3	0xb8d74b36	-0.00010266008
4	0x389ed09f	7.572886e-05
5	0x34c269ce	3.62123e-07
6	0x00000000	0.0
7	0xb390db74	-6.745441e-08
8	0xb9785f4e	-0.00023686627
9	0xb8a54112	-7.8799334e-05
10	0xb8ed57dc	-0.00011317406
11	0xb8cd43c3	-9.787783e-05
12	0xb7ec7179	-2.8186232e-05
13	0xb7be61d6	-2.2695323e-05
14	0xb909932e	-0.00013120167
15	0xb9c0cd9f	-0.00036774293
16	0xb7b9f2bc	-2.216675e-05
17	0x388c485e	6.6892e-05
18	0xb664a08f	-3.4068105e-06
19	0xb984c724	-0.00025325373
20	0xb83d3f83	-4.512026e-05
21	0xb93bdf8b	-0.00017916986
22	0xb8733379	-5.7983652e-05
23	0x38638c89	5.42519e-05
24	0x37b738e0	2.1841784e-05
25	0x3592c9f1	1.093662e-06
26	0x372653b6	9.9138615e-06
27	0x37ba9732	2.2243334e-05
28	0xb8e35a47	-0.00010841019
29	0x34a98345	3.1574214e-07
30	0xb926cc31	-0.00015907061
31	0xb7dadbc2	-2.6089958e-05
32	0xb9784493	-0.00023676669
33	0x00000004	6e-45
34	0x377126ef	1.4373784e-05
35	0xb8688141	-5.5433487e-05
36	0xb074d4c7	-8.906906e-10
37	0x3819a169	3.6628368e-05
38	0xb853e7dc	-5.0522256e-05
39	0xb94168c4	-0.00018444943
40	0xb5423e09	-7.2360905e-07
41	0xb8155b2c	-3.560928e-05
42	0x00000000	0.0
43	0x37eb2cbe	2.8035018e-05
44	0x35b2a6f4	1.3310623e-06
45	0x34e3a9b9	4.2405534e-07
46	0xb86cf6c9	-5.649662e-05
47	0xb90f10d8	-0.00013643818
48	0x333520f4	4.2172317e-08
49	0xb804a712	-3.162685e-05
50	0x34c4e88c	3.6677045e-07
51	0x34f1f0f5	4.5065067e-07
52	0xb2a41c4b	-1.9104979e-08
53	0x00000000	0.0
54	0x35ab3d6e	1.2758371e-06
55	0xb50720ef	-5.0339344e-07
56	0xb8fa7534	-0.0001194276
57	0xb79872df	-1.8173303e-05
58	0xb65d297f	-3.295572e-06
59	0xb951116d	-0.00019938285
60	0x34918bc2	2.7110042e-07
61	0xb7d63d1c	-2.5539244e-05
62	0xb9400bdf	-0.00018314969
63	0x00000004	6e-45
64	0xb83d05fd	-4.506669e-05
65	0xb9e546e3	-0.00043731098
66	0xb97c6634	-0.00024070666
67	0xb96b8bb0	-0.00022463384
68	0x38885de8	6.502477e-05
69	0x34ed1825	4.4162257e-07
70	0x00000000	0.0
71	0xb3e9c3c3	-1.0885517e-07
72	0xba3e1687	-0.00072512816
73	0xb93ad377	-0.00017817119
74	0xb9afa580	-0.00033501908
75	0xb98e2db3	-0.000271184
76	0xb8f31495	-0.00011590977
77	0xb9595562	-0.0002072654
78	0xb988ba23	-0.00026078624
79	0xba74d765	-0.00093399576
80	0xb97c81c1	-0.0002408093
81	0xb7d21211	-2.5042364e-05
82	0xb69eca5c	-4.7323247e-06
83	0xba1832d3	-0.0005805913
84	0xb963bab0	-0.00021717953
85	0xb9a8c910	-0.0003219326
86	0xb981cdd9	-0.00024758166
87	0x384f948c	4.949099e-05
88	0x3740947a	1.1478662e-05
89	0x35e57756	1.7096561e-06
90	0xb771d82e	-1.4415053e-05
91	0x3765f706	1.3706978e-05
92	0xb970de93	-0.00022971099
93	0x349f6bc4	2.9694468e-07
94	0xb988a5b6	-0.00026063406
95	0xb8a31e76	-7.7781195e-05
96	0xba2c48fc	-0.0006572155
97	0x00000000	0.0
98	0xb92c5086	-0.00016433196
99	0xb8e5882a	-0.000109449335
100	0xb14d895e	-2.990951e-09
101	0x37b5875d	2.1639915e-05
102	0xb92525ff	-0.00015749781
103	0xba0b7412	-0.0005319725
104	0xb5119a0b	-5.424087e-07
105	0xb85169af	-4.992791e-05
106	0x00000000	0.0
107	0x37ba919a	2.2240729e-05
108	0x35d8474e	1.6114006e-06
109	0x35181f5a	5.6670035e-07
110	0xb9374c2b	-0.00017480615
111	0xb9a50fd6	-0.0003148305
112	0x32cf3d79	2.4125926e-08
113	0xb8b962f0	-8.839916e-05
114	0x34cfee81	3.873029e-07
115	0x350b6471	5.1927697e-07
116	0xb300568f	-2.9881047e-08
117	0x00000000	0.0
118	0xb54eed64	-7.708643e-07
119	0xb388933f	-6.3597774e-08
120	0xb9a869d9	-0.0003212232
121	0xb868d0d1	-5.5507586e-05
122	0xb8d138ae	-9.976454e-05
123	0xb9f6af66	-0.00047051458
124	0x34a5aabe	3.0857876e-07
125	0xb92f9581	-0.00016744995
126	0xb99afb01	-0.0002956018
127	0x00000000	0.0
128	0xb796c2eb	-1.797216e-05
129	0xba09bc8f	-0.00052542327
130	0xb9afe0e0	-0.00033546146
131	0xb947ba7b	-0.00019047588
132	0xb8fe2b27	-0.000121197016
133	0xb5153ed4	-5.559825e-07
134	0x00000000	0.0
135	0x3426942d	1.5513861e-07
136	0xba5d8dd4	-0.0008451615
137	0xb8d5d331	-0.00010195969
138	0xb9efd486	-0.00045743975
139	0xb9907546	-0.00027553196
140	0xb90d4b64	-0.00013474893
141	0xb9cae3c1	-0.00038698132
142	0xb95e41fb	-0.0002119615
143	0xba7a4f09	-0.00095485203
144	0xb9fba3ed	-0.00047996585
145	0xb98c2e48	-0.00026737363
146	0xb8305b2e	-4.2046588e-05
147	0xba0d2d6c	-0.00053854915
148	0xb9db0276	-0.0004177277
149	0xb92aac05	-0.00016276546
150	0xb9a39f34	-0.00031208398
151	0xb8cdf676	-9.821069e-05
152	0xb7e700e0	-2.7537753e-05
153	0xb6370686	-2.7272922e-06
154	0xb893dae1	-7.0502756e-05
155	0xb8b3f1b5	-8.5804066e-05
156	0xb9152b42	-0.00014225862
157	0xb52d71cc	-6.461312e-07
158	0xb9082b68	-0.00012986141
159	0xb9067d0d	-0.00012825821
160	0xba40241b	-0.0007329599
161	0x00000004	6e-45
162	0xb9d8f9ec	-0.00041384937
163	0xb91ecf03	-0.00015145172
164	0x311ebec4	2.3100464e-09
165	0xb8579473	-5.139825e-05
166	0xb926050d	-0.00015832875
167	0xba29e675	-0.0006481179
168	0x35cf24be	1.5433395e-06
169	0xb5907b3b	-1.0764701e-06
170	0x00000000	0.0
171	0xb8a931a4	-8.067794e-05
172	0xb608099d	-2.0271175e-06
173	0xb52b8fd0	-6.391174e-07
174	0xb96af200	-0.00022406131
175	0xb9ace80a	-0.0003297928
176	0xb34a088a	-4.7039556e-08
177	0xb936a632	-0.00017418785
178	0xb5019e1b	-4.828632e-07
179	0xb5262251	-6.1889756e-07
180	0x333d57e8	4.4084942e-08
181	0x00000000	0.0
182	0x34d3edda	3.9474872e-07
183	0x35b6be7f	1.3615498e-06
184	0xb9b958fc	-0.00035352248
185	0xb8adc37e	-8.285696e-05
186	0xb98e2cfa	-0.0002711786
187	0xb9ee3533	-0.00045434534
188	0xb4d06f76	-3.8824118e-07
189	0xb9c6f883	-0.0003795066
190	0xb9077dd5	-0.0001292148
191	0x30462c71	7.2095135e-10
192	0xb72c4e8b	-1.0270286e-05
193	0xb88af2bb	-6.625565e-05
194	0xb80a8ce0	-3.3032964e-05
195	0xb82585af	-3.9463568e-05
196	0x37a2c10a	1.9401796e-05
197	0x338f7db2	6.68182e-08
198	0x00000000	0.0
199	0x30310fe1	6.441479e-10
200	0xb8eb4350	-0.00011218211
201	0xb8020a84	-3.100421e-05
202	0xb8606308	-5.349799e-05
203	0xb8323be9	-4.2494303e-05
204	0xb7951365	-1.7771215e-05
205	0xb7b99d70	-2.2127031e-05
206	0xb84a7432	-4.826877e-05
207	0xb92287b9	-0.00015500085
208	0xb7d14cc8	-2.4950496e-05
209	0x372a9a36	1.0168695e-05
210	0xb5150d4c	-5.5526175e-07
211	0xb8d529c2	-0.000101644095
212	0xb7ddfdb7	-2.6463398e-05
213	0xb88512b8	-6.345421e-05
214	0xb8149c6e	-3.5431636e-05
215	0x37643683	1.3602551e-05
216	0x369851e0	4.5394845e-06
217	0x34111ec7	1.3515374e-07
218	0xb3b63c65	-8.486021e-08
219	0x369f5f72	4.7496806e-06
220	0xb8315091	-4.227512e-05
221	0x3383ca04	6.136909e-08
222	0xb85ec000	-5.310774e-05
223	0xb7461f54	-1.1809014e-05
224	0xb8db19df	-0.000104475526
225	0x00000004	6e-45
226	0xb75782ab	-1.2845422e-05
227	0xb7ae9c2a	-2.0815136e-05
228	0x00000004	6e-45
229	0x37148c6e	8.854184e-06
230	0xb7c95fef	-2.400574e-05
231	0xb8af9615	-8.372605e-05
232	0xb3853781	-6.203391e-08
233	0xb737b2d1	-1.0949284e-05
234	0x00000000	0.0
235	0x3702a9c0	7.788127e-06
236	0x34875053	2.5204153e-07
237	0x33b1f04e	8.285916e-08
238	0xb7f14c68	-2.8765018e-05
239	0xb8629abb	-5.4026703e-05
240	0x3196e207	4.391271e-09
241	0xb777fd1a	-1.4781277e-05
242	0x33991aa1	7.1294615e-08
243	0x3399f0ed	7.168442e-08
244	0x00000004	6e-45
245	0x00000000	0.0
246	0x341764e9	1.4099682e-07
247	0xb3a1b46a	-7.529964e-08
248	0xb854c04e	-5.0723836e-05
249	0xb70992e0	-8.200033e-06
250	0xb717ca8a	-9.047459e-06
251	0xb8ab7572	-8.175791e-05
252	0x338fb84c	6.69248e-08
253	0xb7a58847	-1.9732992e-05
254	0xb8829a40	-6.227614e-05
255	0x80000004	-6e-45

exp_avg_sq f4 [128, 64]
0	0x346a7800	2.1836604e-07
1	0x354edadc	7.705946e-07
2	0x3409359d	1.2778624e-07
3	0x339f3824	7.4142264e-08
4	0x32d5e1ea	2.4899197e-08
5	0x319187b3	4.2354826e-09
6	0x00000000	0.0
7	0x33101545	3.3546957e-08
8	0x36168245	2.2427569e-06
9	0x33129e12	3.4137038e-08
10	0x35a446eb	1.2239592e-06
11	0x340196bf	1.2068902e-07
12	0x34c25f0e	3.6204477e-07
13	0x3419e950	1.4334114e-07
14	0x3437e761	1.7127378e-07
15	0x365ec1d2	3.3193396e-06
16	0x35916974	1.0834033e-06
17	0x33d0d656	9.724742e-08
18	0x3422fc12	1.5179128e-07
19	0x356c87c0	8.8114393e-07
20	0x3507ee8f	5.063857e-07
21	0x3422113b	1.5093694e-07
22	0x3510dff3	5.397007e-07
23	0x33fb6028	1.1705589e-07
24	0x340c141d	1.3045833e-07
25	0x31f74329	7.1962813e-09
26	0x328a991d	1.6134942e-08
27	0x34a6d01b	3.1071326e-07
28	0x33e9b209	1.08822924e-07
29	0x3197b05d	4.4147286e-09
30	0x3489a270	2.5636427e-07
31	0x339c1709	7.268506e-08
32	0x36716e0c	3.5975854e-06
33	0x158cc6ac	5.6859e-26
34	0x3482e8a4	2.4383655e-07
35	0x351e0a19	5.887428e-07
36	0x2dbc96db	2.1440119e-11
37	0x31dc3040	6.408328e-09
38	0x3359d5a4	5.0718555e-08
39	0x3616a3d1	2.2447095e-06
40	0x326213e0	1.315945e-08
41	0x33069b5a	3.1340598e-08
42	0x00000000	0.0
43	0x336ddd38	5.538206e-08
44	0x339cef51	7.3078475e-08
45	0x336f643e	5.5737694e-08
46	0x349e73fd	2.9514186e-07
47	0x3524a816	6.133936e-07
48	0x2df3a706	2.7700075e-11
49	0x3449e067	1.8801221e-07
50	0x3307ac96	3.1589103e-08
51	0x32b1462a	2.0637419e-08
52	0x305a3165	7.937813e-10
53	0x00000000	0.0
54	0x34e6526b	4.2900805e-07
55	0x32257365	9.630502e-09
56	0x352f7b62	6.5372126e-07
57	0x333bf4af	4.376187e-08
58	0x34046525	1.2330254e-07
59	0x362521ff	2.4606704e-06
60	0x32988ec5	1.7760053e-08
61	0x3420395d	1.492203e-07
62	0x3468cce0	2.1681217e-07
63	0x1889da21	3.5633924e-24
64	0x3532fb37	6.6675733e-07
65	0x35afb621	1.3091523e-06
66	0x344a7e92	1.8858762e-07
67	0x33f65762	1.14711625e-07
68	0x33075b19	3.151499e-08
69	0x31c11c09	5.6202265e-09
70	0x00000000	0.0
71	0x343cfe25	1.7601322e-07
72	0x36874599	4.0314158e-06
73	0x335540f6	4.965201e-08
74	0x3631e857	2.6510295e-06
75	0x34409ebd	1.7939142e-07
76	0x358edd47	1.0644225e-06
77	0x34569e1b	1.9987822e-07
78	0x3495d029	2.790487e-07
79	0x36c557aa	5.881263e-06
80	0x3600b0df	1.9176439e-06
81	0x341aa85f	1.440362e-07
82	0x34837e8b	2.4492724e-07
83	0x35bebd95	1.4211279e-06
84	0x354e8618	7.693611e-07
85	0x34828c68	2.4316546e-07
86	0x35aa2919	1.2677948e-06
87	0x34aad31f	3.1818578e-07
88	0x34fc279a	4.6967472e-07
89	0x3225055b	9.605482e-09
90	0x32aaf19b	1.9900474e-08
91	0x35540072	7.89768e-07
92	0x342ad750	1.5910814e-07
93	0x3190da4e	4.21577e-09
94	0x34efdc41	4.4677475e-07
95	0x3406264d	1.2493656e-07
96	0x36f2b831	7.2336047e-06
97	0x00000000	0.0
98	0x34b614c4	3.391525e-07
99	0x35b428c7	1.3422913e-06
100	0x30a56ddb	1.2036553e-09
101	0x3208ff9f	7.974363e-09
102	0x3395498d	6.951732e-08
103	0x36956e96	4.45342e-06
104	0x33b1763d	8.263712e-08
105	0x3379e11f	5.8179577e-08
106	0x00000000	0.0
107	0x33b6222b	8.4812505e-08
108	0x33d42d1a	9.880223e-08
109	0x340ea2c0	1.3283989e-07
110	0x352338f6	6.080512e-07
111	0x35951952	1.1108734e-06
112	0x2d19c017	8.739696e-12
113	0x34d7be1e	4.01852e-07
114	0x33c948c4	9.373028e-08
115	0x3340a0f9	4.4849887e-08
116	0x328ecbe7	1.66237e-08
117	0x00000000	0.0
118	0x35c19fd3	1.4426136e-06
119	0x322e17e1	1.0133562e-08
120	0x3596f428	1.124693e-06
121	0x33a3e4ad	7.631875e-08
122	0x34434dde	1.8189118e-07
123	0x36bdf09f	5.660651e-06
124	0x330bbd07	3.253538e-08
125	0x34690d35	2.170462e-07
126	0x34e76efb	4.3107852e-07
127	0x00000000	0.0
128	0x35aa132d	1.2671568e-06
129	0x35ff5841	1.9024666e-06
130	0x33b79f4f	8.5505796e-08
131	0x334111de	4.4952564e-08
132	0x3393a74d	6.875653e-08
133	0x32424b87	1.1309459e-08
134	0x00000000	0.0
135	0x349f6166	2.9686925e-07
136	0x36c78f4e	5.947345e-06
137	0x32e603f6	2.6777325e-08
138	0x369db7c9	4.70036e-06
139	0x33ab2261	7.9690615e-08
140	0x36062baf	1.9992983e-06
141	0x34065f35	1.2514359e-07
142	0x34a45f60	3.0616775e-07
143	0x370d2467	8.4127305e-06
144	0x366dd4fc	3.5439725e-06
145	0x3484c66f	2.4731295e-07
146	0x3508c358	5.094821e-07
147	0x35dbbba7	1.6371386e-06
148	0x35a59d8e	1.2339312e-06
149	0x3467200a	2.1525207e-07
150	0x3617b79e	2.2607633e-06
151	0x35260f12	6.186175e-07
152	0x3568a97a	8.6673356e-07
153	0x32ca5359	2.3553797e-08
154	0x333d06b3	4.4011085e-08
155	0x35cfa1bd	1.5469774e-06
156	0x346402f2	2.1235226e-07
157	0x3226bf94	9.7060315e-09
158	0x353b5595	6.9787467e-07
159	0x346677f4	2.1464058e-07
160	0x3754ea85	1.2690788e-05
161	0x15809c73	5.194562e-26
162	0x34f751f8	4.6066975e-07
163	0x362e33f6	2.5958266e-06
164	0x30a254ee	1.181119e-09
165	0x3280e614	1.5005789e-08
166	0x3380b654	5.99363e-08
167	0x37001d96	7.636283e-06
168	0x3413dfb0	1.3771819e-07
169	0x33ebb4cf	1.0975929e-07
170	0x00000000	0.0
171	0x343d4e51	1.7630488e-07
172	0x345a65cb	2.0339864e-07
173	0x34899f1c	2.5634006e-07
174	0x35966804	1.1206143e-06
175	0x35f4610c	1.8207661e-06
176	0x2eb941a3	8.4244854e-11
177	0x3545f4d8	7.3744513e-07
178	0x343ebcc6	1.7763804e-07
179	0x33b7fab4	8.567204e-08
180	0x32af06e8	2.0375822e-08
181	0x00000000	0.0
182	0x36342c59	2.6847904e-06
183	0x3322e576	3.7927258e-08
184	0x35fa4fbe	1.864966e-06
185	0x34155bea	1.3910145e-07
186	0x3489d6b3	2.5674453e-07
187	0x372d258e	1.0320347e-05
188	0x33921130	6.801781e-08
189	0x342e9161	1.6257901e-07
190	0x352b56a0	6.382852e-07
191	0x28d53cc4	2.3674103e-14
192	0x301d5d3f	5.724878e-10
193	0x33116052	3.3848046e-08
194	0x3228742e	9.805303e-09
195	0x31c49d98	5.722267e-09
196	0x3064b01d	8.319619e-10
197	0x2ec51086	8.961458e-11
198	0x00000000	0.0
199	0x28f292d4	2.6931074e-14
200	0x33bc59df	8.77078e-08
201	0x3123b737	2.3823767e-09
202	0x32e96c0a	2.71739e-08
203	0x321afd16	9.021525e-09
204	0x3182e02a	3.8089825e-09
205	0x3231ded3	1.035342e-08
206	0x32101820	8.387389e-09
207	0x3409c7a8	1.2831754e-07
208	0x32c10fd4	2.2475355e-08
209	0x317b77ad	3.6593335e-09
210	0x30df3933	1.6241642e-09
211	0x33454c12	4.5936822e-08
212	0x3292cf2c	1.7090848e-08
213	0x3219200e	8.9130605e-09
214	0x325cd718	1.2854592e-08
215	0x3086fe5b	9.822075e-10
216	0x3011a329	5.298256e-10
217	0x2eace9b3	7.863168e-11
218	0x300d14f3	5.132527e-10
219	0x30c4a4a4	1.4307671e-09
220	0x31b835c1	5.361216e-09
221	0x2f3a7ca4	1.6960883e-10
222	0x31ed6723	6.909333e-09
223	0x31034257	1.9100719e-09
224	0x33a3be50	7.6248966e-08
225	0x12bc018e	1.1864851e-27
226	0x3252e167	1.2274859e-08
227	0x31aba255	4.99521e-09
228	0x1df537b6	6.4908564e-21
229	0x2f475026	1.8127419e-10
230	0x315757ba	3.1336485e-09
231	0x336ad02c	5.4671702e-08
232	0x2d3012fd	1.0008658e-11
233	0x2f9220b0	2.658047e-10
234	0x00000000	0.0
235	0x307db296	9.229465e-10
236	0x30ba4556	1.3552988e-09
237	0x2f07c9da	1.234989e-10
238	0x3211aa19	8.478787e-09
239	0x32906f2d	1.6814363e-08
240	0x2b689604	8.2631146e-13
241	0x317de809	3.6948242e-09
242	0x2eef4796	1.0881178e-10
243	0x2eb9d58f	8.4507616e-11
244	0x22eb1517	6.3719207e-18
245	0x00000000	0.0
246	0x2fc1bb11	3.5239414e-10
247	0x2e7a6238	5.6930655e-11
248	0x3297abe2	1.7656877e-08
249	0x3078ed8d	9.0559454e-10
250	0x31bf029c	5.5591283e-09
251	0x33208380	3.73725e-08
252	0x2f4072ea	1.7503124e-10
253	0x3237f833	1.0708436e-08
254	0x320d1b93	8.21355e-09
255	0x19515409	1.08220175e-23

exp_avg f4 [128]
0	0xb944768a	-0.00018736176
1	0xba2e9aba	-0.00066606293
2	0xba6d785d	-0.0009058768
3	0xb8cd7f3f	-9.798863e-05
4	0x3684e58d	3.96063e-06
5	0x39ddb232	0.0004228517
6	0x3993ee7a	0.00028215704
7	0x80000004	-6e-45
8	0x35939e0c	1.0998351e-06
9	0x00000000	0.0
10	0x00000000	0.0
11	0x388f7e12	6.842254e-05
12	0x00000000	0.0
13	0x00000004	6e-45
14	0x00000004	6e-45
15	0x3a3b7225	0.0007150493
16	0xb8417731	-4.612579e-05
17	0x38ec927e	0.00011280643
18	0xb8c69358	-9.468821e-05
19	0x3a0d9a83	0.0005401747
20	0xb9d806c8	-0.00041203783
21	0xb95cea8d	-0.00021068212
22	0x00000000	0.0
23	0x00000004	6e-45
24	0x3628e384	2.5166382e-06
25	0xb9c038ec	-0.00036663504
26	0x00000004	6e-45
27	0xb9c5536d	-0.00037636925
28	0xb9333d87	-0.00017093691
29	0x3881c809	6.188459e-05
30	0xb9e316e1	-0.0004331386
31	0x382e4241	4.1546537e-05
32	0x00000004	6e-45
33	0x39ee00e3	0.00045395558
34	0x339729e2	7.039104e-08
35	0x00000000	0.0
36	0xb99d3323	-0.00029983473
37	0xb22d8441	-1.0099996e-08
38	0xb9a480d1	-0.00031376493
39	0x00000000	0.0
40	0x00000004	6e-45
41	0x00000000	0.0
42	0x00000004	6e-45
43	0xb98729ea	-0.00025780435
44	0x00000000	0.0
45	0x00000004	6e-45
46	0x36bae40e	5.569781e-06
47	0x00000004	6e-45
48	0x00000004	6e-45
49	0x39b21952	0.0003396967
50	0x3225bf61	9.647779e-09
51	0xb9309fdf	-0.00016844225
52	0x00000004	6e-45
53	0x00000004	6e-45
54	0x00000004	6e-45
55	0x00000004	6e-45
56	0x00000000	0.0
57	0xb0c61e0c	-1.4414936e-09
58	0x00000004	6e-45
59	0x00000004	6e-45
60	0x382ec6b7	4.16699e-05
61	0xb975b510	-0.00023432472
62	0x00000000	0.0
63	0x00000004	6e-45
64	0x39848f5a	0.00025283807
65	0x00000004	6e-45
66	0x39cd5eb1	0.00039171198
67	0xb70c5522	-8.364472e-06
68	0x00000004	6e-45
69	0x399e4b0e	0.00030192028
70	0xb49b05c4	-2.8875195e-07
71	0x00000004	6e-45
72	0xba2ff7f6	-0.0006712669
73	0x00000004	6e-45
74	0x00000000	0.0
75	0xb65dab82	-3.3031397e-06
76	0x00000000	0.0
77	0x00000000	0.0
78	0x394d9f9a	0.0001960978
79	0x3962daeb	0.00021634593
80	0xb7d1ecc0	-2.5024987e-05
81	0x00000000	0.0
82	0xb90e5dbb	-0.00013577093
83	0x00000004	6e-45
84	0x38c06236	9.173567e-05
85	0xb9e9e394	-0.00044610782
86	0xb948dd4b	-0.00019155924
87	0xb92613c8	-0.00015838363
88	0x00000004	6e-45
89	0xb593f79a	-1.1024415e-06
90	0x00000004	6e-45
91	0xba3a9968	-0.0007118196
92	0x39a1b160	0.00030840468
93	0x39dc33f9	0.00042000393
94	0xb9a26940	-0.00030977465
95	0x38133f98	3.5106757e-05
96	0x00000000	0.0
97	0x3a115233	0.00055435597
98	0x389db8d7	7.5207725e-05
99	0x00000004	6e-45
100	0x37cf3b6a	2.470399e-05
101	0x00000004	6e-45
102	0x389f95b1	7.609593e-05
103	0x00000004	6e-45
104	0xb968e3de	-0.00022210131
105	0xb8b801d1	-8.774142e-05
106	0x00000004	6e-45
107	0xba140753	-0.00056468433
108	0xb9c33e6a	-0.000372398
109	0x00000000	0.0
110	0xb8529792	-5.0209062e-05
111	0x39950f6b	0.00028430982
112	0x38859d68	6.3712534e-05
113	0xb73e0794	-1.1326647e-05
114	0x3a244935	0.0006267012
115	0x00000004	6e-45
116	0x00000004	6e-45
117	0x34c1e2bf	3.611403e-07
118	0xb5de3696	-1.6556176e-06
119	0x00000004	6e-45
120	0x00000004	6e-45
121	0x00000004	6e-45
122	0x3a36b482	0.0006969647
123	0x3a85404d	0.0010166258
124	0x00000004	6e-45
125	0x00000004	6e-45
126	0xb86845c2	-5.5378077e-05
127	0xba148ab2	-0.0005666419

exp_avg_sq f4 [128]
0	0x36a1dd4f	4.8239376e-06
1	0x372ed8b9	1.0421668e-05
2	0x379bb5d1	1.8562105e-05
3	0x33d5028b	9.919048e-08
4	0x34e01943	4.1741632e-07
5	0x36e1d498	6.7302717e-06
6	0x36c9c636	6.0133416e-06
7	0x21c2b70b	1.3194402e-18
8	0x329d314e	1.8299627e-08
9	0x00000000	0.0
10	0x00000000	0.0
11	0x349ddce9	2.9404262e-07
12	0x00000000	0.0
13	0x2267a1c6	3.139198e-18
14	0x250e3545	1.2334585e-16
15	0x37c4baec	2.3452063e-05
16	0x35024798	4.8532956e-07
17	0x368928d6	4.087672e-06
18	0x37085c2a	8.12769e-06
19	0x3712e9db	8.756727e-06
20	0x36940f08	4.4124936e-06
21	0x362b47db	2.552281e-06
22	0x00000000	0.0
23	0x2380a816	1.3948975e-17
24	0x35bab1cb	1.3909824e-06
25	0x36fc44e0	7.5182033e-06
26	0x1f4a27bf	4.280804e-20
27	0x36b90b78	5.514765e-06
28	0x367cab17	3.7650514e-06
29	0x33dbe4aa	1.0239576e-07
30	0x371cb9f6	9.341622e-06
31	0x37beb9d8	2.2736305e-05
32	0x17c60e93	1.2799129e-24
33	0x37556d42	1.2721228e-05
34	0x3286106d	1.5607123e-08
35	0x00000000	0.0
36	0x37d1afef	2.4996667e-05
37	0x2cfff0f6	7.274288e-12
38	0x3658d76e	3.2311905e-06
39	0x00000000	0.0
40	0x19a4046a	1.6958985e-23
41	0x00000000	0.0
42	0x26d8b010	1.5035733e-15
43	0x36364c01	2.7164353e-06
44	0x00000000	0.0
45	0x217b625d	8.517229e-19
46	0x3420dd55	1.4981681e-07
47	0x253ac809	1.6200703e-16
48	0x248170ac	5.6135706e-17
49	0x370c4815	8.361433e-06
50	0x2e19208e	3.4817087e-11
51	0x36dc0517	6.5571035e-06
52	0x23aaa5d7	1.8501673e-17
53	0x257e537f	2.2059278e-16
54	0x2207d4ee	1.8408636e-18
55	0x25eb9974	4.0869986e-16
56	0x00000000	0.0
57	0x2da0064a	1.8192687e-11
58	0x26398183	6.436029e-16
59	0x1b90f33d	2.397999e-22
60	0x34b9cc6e	3.4607677e-07
61	0x378866af	1.626028e-05
62	0x00000000	0.0
63	0x25678899	2.0082337e-16
64	0x3329d0dd	3.953834e-08
65	0x26e9030c	1.6168449e-15
66	0x37d10547	2.4917199e-05
67	0x2f70a68a	2.188704e-10
68	0x21e79a70	1.5694048e-18
69	0x35a53bea	1.2310895e-06
70	0x31980697	4.4245314e-09
71	0x1b0a6fba	1.1451193e-22
72	0x37e7aad9	2.7616903e-05
73	0x1bd4529d	3.5125846e-22
74	0x00000000	0.0
75	0x2ee906d8	1.0596829e-10
76	0x00000000	0.0
77	0x00000000	0.0
78	0x35ab5cb9	1.2767479e-06
79	0x3542e699	7.2606196e-07
80	0x371f56a2	9.497309e-06
81	0x00000000	0.0
82	0x3786bde5	1.6062471e-05
83	0x23e28e38	2.4563201e-17
84	0x321ff1a9	9.309965e-09
85	0x340d70d6	1.3172698e-07
86	0x377a22ae	1.4909236e-05
87	0x35b25796	1.3287524e-06
88	0x242d9761	3.7641618e-17
89	0x3462fc65	2.1139711e-07
90	0x2614a5e2	5.157263e-16
91	0x37d8b975	2.5835567e-05
92	0x3632bf7e	2.663553e-06
93	0x37cc9376	2.4387362e-05
94	0x358cc0f4	1.048697e-06
95	0x3355cde1	4.9780173e-08
96	0x00000000	0.0
97	0x37d05c17	2.4838415e-05
98	0x32d2fd83	2.4562501e-08
99	0x1babe78d	2.8439213e-22
100	0x34534de9	1.967925e-07
101	0x210047c8	4.346309e-19
102	0x359ba6a0	1.1596894e-06
103	0x2284128c	3.579831e-18
104	0x36b28e61	5.3213885e-06
105	0x35b6cc11	1.3619448e-06
106	0x2422eb94	3.5327693e-17
107	0x3783a1e1	1.5691798e-05
108	0x37a31fa0	1.944584e-05
109	0x00000000	0.0
110	0x36949277	4.4277945e-06
111	0x35b88eb4	1.37506e-06
112	0x373c57c7	1.12261105e-05
113	0x3263a547	1.3250719e-08
114	0x3705f45c	7.984312e-06
115	0x23f41e48	2.6467358e-17
116	0x1786114c	8.663913e-25
117	0x320a3ecc	8.046936e-09
118	0x34e38840	4.238118e-07
119	0x20832b73	2.2221015e-19
120	0x1fce36f5	8.733531e-20
121	0x237af89d	1.3605173e-17
122	0x37e49293	2.7247972e-05
123	0x37fed8e9	3.0380166e-05
124	0x14157943	7.546492e-27
125	0x20b7c39f	3.1130857e-19
126	0x36a67288	4.9605187e-06
127	0x3687f6d0	4.0520463e-06

exp_avg f4 [128, 128]
0	0x80000004	-6e-45
1	0x80000004	-6e-45
2	0x80000004	-6e-45
3	0x80000004	-6e-45
4	0x00000004	6e-45
5	0x00000004	6e-45
6	0x80000004	-6e-45
7	0x00000004	6e-45
8	0x00000004	6e-45
9	0x00000000	0.0
10	0x00000000	0.0
11	0x80000004	-6e-45
12	0x00000000	0.0
13	0x00000004	6e-45
14	0x00000004	6e-45
15	0x00000004	6e-45
16	0x00000004	6e-45
17	0x80000004	-6e-45
18	0x80000004	-6e-45
19	0x80000004	-6e-45
20	0x80000004	-6e-45
21	0x00000004	6e-45
22	0x00000000	0.0
23	0x80000004	-6e-45
24	0x80000004	-6e-45
25	0x80000004	-6e-45
26	0x00000000	0.0
27	0x80000004	-6e-45
28	0x80000004	-6e-45
29	0x00000004	6e-45
30	0x80000004	-6e-45
31	0x80000004	-6e-45
32	0x00000000	0.0
33	0x80000004	-6e-45
34	0x00000004	6e-45
35	0x00000000	0.0
36	0x80000004	-6e-45
37	0x00000004	6e-45
38	0x80000004	-6e-45
39	0x00000000	0.0
40	0x00000000	0.0
41	0x00000000	0.0
42	0x00000004	6e-45
43	0x00000004	6e-45
44	0x00000000	0.0
45	0x80000004	-6e-45
46	0x80000004	-6e-45
47	0x00000004	6e-45
48	0x00000004	6e-45
49	0x80000004	-6e-45
50	0x00000004	6e-45
51	0x80000004	-6e-45
52	0x80000004	-6e-45
53	0x80000004	-6e-45
54	0x80000004	-6e-45
55	0x00000004	6e-45
56	0x00000000	0.0
57	0x00000004	6e-45
58	0x00000004	6e-45
59	0x00000004	6e-45
60	0x80000004	-6e-45
61	0x80000004	-6e-45
62	0x00000000	0.0
63	0x00000004	6e-45
64	0x00000004	6e-45
65	0x00000004	6e-45
66	0x80000004	-6e-45
67	0x00000004	6e-45
68	0x00000004	6e-45
69	0x00000004	6e-45
70	0x00000004	6e-45
71	0x00000000	0.0
72	0x80000004	-6e-45
73	0x00000004	6e-45
74	0x00000000	0.0
75	0x00000004	6e-45
76	0x00000000	0.0
77	0x00000000	0.0
78	0x80000004	-6e-45
79	0x00000004	6e-45
80	0x80000004	-6e-45
81	0x00000000	0.0
82	0x80000004	-6e-45
83	0x00000004	6e-45
84	0x00000004	6e-45
85	0x00000004	6e-45
86	0x80000004	-6e-45
87	0x80000004	-6e-45
88	0x80000004	-6e-45
89	0x00000004	6e-45
90	0x00000004	6e-45
91	0x80000004	-6e-45
92	0x80000004	-6e-45
93	0x80000004	-6e-45
94	0x80000004	-6e-45
95	0x80000004	-6e-45
96	0x00000000	0.0
97	0x80000004	-6e-45
98	0x00000004	6e-45
99	0x00000000	0.0
100	0x00000004	6e-45
101	0x80000004	-6e-45
102	0x00000004	6e-45
103	0x80000004	-6e-45
104	0x80000004	-6e-45
105	0x80000004	-6e-45
106	0x00000004	6e-45
107	0x80000004	-6e-45
108	0x80000004	-6e-45
109	0x00000000	0.0
110	0x80000004	-6e-45
111	0x80000004	-6e-45
112	0x80000004	-6e-45
113	0x00000004	6e-45
114	0x00000004	6e-45
115	0x00000004	6e-45
116	0x00000000	0.0
117	0x80000004	-6e-45
118	0x00000004	6e-45
119	0x00000004	6e-45
120	0x00000004	6e-45
121	0x00000004	6e-45
122	0x80000004	-6e-45
123	0x00000004	6e-45
124	0x00000000	0.0
125	0x00000004	6e-45
126	0x00000004	6e-45
127	0x80000004	-6e-45
128	0x36e4542b	6.804728e-06
129	0xb5c09a83	-1.4350084e-06
130	0x3789fc76	1.6449234e-05
131	0x35a24412	1.2089752e-06
132	0x378b7049	1.6622378e-05
133	0x378fef2e	1.7158305e-05
134	0x37536cdf	1.2601929e-05
135	0x00000004	6e-45
136	0x31e4e657	6.66186e-09
137	0x00000000	0.0
138	0x00000000	0.0
139	0x3622e034	2.4270385e-06
140	0x00000000	0.0
141	0x00000004	6e-45
142	0x80000004	-6e-45
143	0x379a0064	1.8358412e-05
144	0x372ad9bd	1.0183486e-05
145	0x37e3be1b	2.7149033e-05
146	0x3697513f	4.509609e-06
147	0x37d97117	2.5921077e-05
148	0xb6a1a0c1	-4.816888e-06
149	0xb559e6a0	-8.1174403e-07
150	0x00000000	0.0
151	0x80000004	-6e-45
152	0x3484f098	2.476197e-07
153	0xb69e5d41	-4.719623e-06
154	0x00000004	6e-45
155	0xb69b5d14	-4.6301957e-06
156	0x36599bb4	3.242615e-06
157	0x350efd8e	5.3268093e-07
158	0xb6ab85db	-5.11178e-06
159	0x37607517	1.33787025e-05
160	0x00000000	0.0
161	0x377af387	1.4957862e-05
162	0x33003e01	2.9858715e-08
163	0x00000000	0.0
164	0x3609af4e	2.0516632e-06
165	0x2eeae065	1.06809485e-10
166	0x36119b8d	2.1697226e-06
167	0x00000000	0.0
168	0x00000000	0.0
169	0x00000000	0.0
170	0x80000004	-6e-45
171	0x3536b6d5	6.806634e-07
172	0x00000000	0.0
173	0x00000004	6e-45
174	0x34abfacf	3.203372e-07
175	0x00000004	6e-45
176	0x00000004	6e-45
177	0x37c56ea1	2.3535746e-05
178	0x00000004	6e-45
179	0x353c2454	7.008832e-07
180	0x80000004	-6e-45
181	0x80000004	-6e-45
182	0x80000004	-6e-45
183	0x00000004	6e-45
184	0x00000000	0.0
185	0x00000004	6e-45
186	0x00000004	6e-45
187	0x00000000	0.0
188	0x37a6fc68	1.9906278e-05
189	0xb5c4aac9	-1.4652843e-06
190	0x00000000	0.0
191	0x00000004	6e-45
192	0x38003984	3.0571144e-05
193	0x00000004	6e-45
194	0x37a25e6f	1.9355879e-05
195	0xb54ef72b	-7.7100657e-07
196	0x00000004	6e-45
197	0x380c4742	3.3444965e-05
198	0x3462f05d	2.1135334e-07
199	0x00000004	6e-45
200	0xb53f9d35	-7.138181e-07
201	0x80000004	-6e-45
202	0x00000000	0.0
203	0x80000004	-6e-45
204	0x00000000	0.0
205	0x00000000	0.0
206	0x373689b8	1.08801105e-05
207	0x37c0688b	2.2936865e-05
208	0x37355473	1.0808103e-05
209	0x00000000	0.0
210	0xb5c5d4ee	-1.4739614e-06
211	0x00000004	6e-45
212	0x3353fcae	4.9357077e-08
213	0x377c19a8	1.5026344e-05
214	0x36a16ee3	4.811083e-06
215	0x3622e751	2.4274525e-06
216	0x80000004	-6e-45
217	0x344a10d8	1.8818844e-07
218	0x00000004	6e-45
219	0x343fab90	1.7850675e-07
220	0x37f2db84	2.8950868e-05
221	0x37c3ee3a	2.3356744e-05
222	0x3420b6e2	1.4967694e-07
223	0x372426d1	9.784199e-06
224	0x00000000	0.0
225	0x37ae1ab0	2.0754844e-05
226	0x367c7d46	3.7623845e-06
227	0x00000004	6e-45
228	0x34b4385d	3.3568622e-07
229	0x80000004	-6e-45
230	0x36c2eccb	5.809217e-06
231	0x80000004	-6e-45
232	0x36848d11	3.950329e-06
233	0xb5f97254	-1.858522e-06
234	0x00000004	6e-45
235	0xb6411772	-2.8772888e-06
236	0xb56b378f	-8.762517e-07
237	0x00000000	0.0
238	0xb5f022b4	-1.7891493e-06
239	0x381b1c06	3.698098e-05
240	0x37769445	1.4697264e-05
241	0x338d0dd2	6.568338e-08
242	0x37d92498	2.5885456e-05
243	0x80000004	-6e-45
244	0x00000000	0.0
245	0x313ffdb9	2.7938383e-09
246	0x34ea332e	4.3623135e-07
247	0x00000004	6e-45
248	0x00000004	6e-45
249	0x00000004	6e-45
250	0x37d09335	2.486408e-05
251	0x37aa8dbd	2.0331581e-05
252	0x00000000	0.0
253	0x00000004	6e-45
254	0x370aa461	8.263713e-06
255	0x37836af5	1.5666223e-05
