001-machine_learning/data/00001-MLP-temperature/018_checkpoint.pth (torch_old, 210144 bytes, 24 tensors)

exp_avg f4 [64, 4]
4.2223215e-05 0.00011740115 6.076589e-05 0.00012979891 -5.8355687e-07 -1.1029296e-06 7.8986307e-07 -3.8376348e-07
-3.909023e-06 -2.277781e-06 -1.3209691e-06 -1.542429e-06 -7.227131e-05 -0.00012100259 -4.2434076e-05 -9.4702234e-05
0.0 5.0823127e-07 1.1866206e-07 3.5492806e-07 -1.8136156e-05 -7.192639e-05 -3.776559e-05 -9.805343e-05
0.0 0.0 0.0 0.0 0.0 0.0 0.0 0.0
-4.266602e-05 -7.9780446e-05 -4.6477686e-05 -0.000101641686 -1.5159886e-05 -1.0615367e-05 6.517577e-06 1.0143149e-05
-0.00013920295 -0.00029350733 -0.00013976336 -0.00033865502 5.2343818e-05 9.3147304e-05 4.3420925e-05 8.479562e-05
1.6324451e-05 3.9816496e-05 2.3978073e-05 5.2310454e-05 1.6076048e-05 3.2329546e-05 2.6426618e-05 4.62584e-05
4.573846e-05 7.0917595e-05 3.2780135e-05 6.8846304e-05 0.0 -1.8551031e-09 -5.7142104e-09 -5.938429e-09
7.376515e-05 6.6409055e-05 4.0131963e-05 1.2461452e-05 8.547374e-07 2.0052898e-05 -1.7040778e-06 1.3149041e-05
0.0 0.0 0.0 0.0 -9.763216e-05 -0.00013930707 -8.5231564e-05 -0.00017652113
3.5917077e-05 6.543893e-05 2.4450494e-05 5.162709e-05 2.811157e-06 1.9841912e-06 1.1997066e-06 -3.408437e-07
0.0 0.0 0.0 0.0 0.0 0.0 0.0 0.0
0.0 1.1143678e-07 3.0694206e-08 1.5481427e-09 -4.533357e-06 -5.8993173e-05 -3.9965526e-05 -0.000109163644
2.3467754e-05 1.6254457e-05 1.8792325e-06 1.5778612e-06 3.1450018e-05 7.16406e-05 3.7161128e-05 8.896476e-05
8.9775267e-07 -4.8391392e-08 9.685579e-07 3.3321032e-07 -1.7797083e-05 -1.8025328e-05 -9.5846e-07 5.354491e-06
0.0 0.0 0.0 0.0 -7.718769e-05 -0.00018165722 -9.637463e-05 -0.0002239491
-5.329991e-07 -1.5479904e-05 -2.1649825e-05 -3.5995028e-05 0.0 0.0 0.0 0.0
0.0 0.0 0.0 0.0 -2.0957905e-06 3.3797816e-05 1.4016514e-05 4.923678e-05
0.000115328556 0.00016338693 8.450833e-05 0.00013207858 7.138019e-06 1.771506e-05 6.35764e-06 1.6144095e-05
0.0 0.0 0.0 0.0 0.0 0.0 0.0 0.0
1.6853466e-05 -1.9272886e-05 -2.669708e-05 -7.838454e-05 -6.058092e-06 -1.7844532e-05 -9.526551e-06 -2.8210436e-05
-7.078677e-05 -0.0001667628 -8.790979e-05 -0.00021217875 4.290474e-05 2.5631614e-05 3.1518404e-05 9.328693e-06
-4.1476824e-06 4.7343092e-05 1.2389849e-05 6.676374e-05 0.0 0.0 0.0 0.0
-3.98984e-05 -0.0001318229 -7.857362e-05 -0.00018837882 6.33978e-05 0.00010322236 3.8142753e-05 8.765936e-05
0.0 0.0 0.0 0.0 0.00015722416 0.00014123958 6.980137e-05 8.1068254e-05
0.0 0.0 0.0 0.0 4.0617684e-05 7.47733e-05 6.206126e-05 8.7965134e-05
0.0 0.0 0.0 0.0 -6e-45 -7.082176e-12 3.6119607e-10 4.543463e-11
0.0 0.0 0.0 0.0 0.0 0.0 0.0 0.0
2.1440072e-05 4.6191395e-05 1.7096472e-05 4.977546e-05 -0.00011197968 -9.7844124e-05 -4.8724276e-05 -8.1238395e-05
-1.7168286e-06 -3.8524908e-07 -1.6957741e-06 -9.420278e-07 6.3114516e-05 7.706433e-05 3.0315621e-05 5.6180295e-05
-5.377213e-05 -0.000112503 -6.0675466e-05 -0.00013391828 -0.00015427881 -0.00014443809 2.6606062e-05 4.1259835e-05
0.0 -6.544901e-07 -1.9593996e-07 -6.5147356e-07 7.976123e-05 0.00013348598 5.8007186e-05 0.00012946293
00000000: d518 3138 4335 f638 e1de 7e38 a11a 0839
00000010: b9a5 1cb5 5f08 94b5 fa06 5435 0d08 ceb4
00000020: 402a 83b6 fbdb 18b6 274c b1b5 7505 cfb5
00000030: 5d90 97b8 c5c2 fdb8 3efb 31b8 e09a c6b8
00000040: 0000 0000 636d 0835 28d3 fe33 f18c be34
00000050: 1923 98b7 30d7 96b8 7e66 1eb8 09a2 cdb8
00000060: 0000 0000 0000 0000 0000 0000 0000 0000
00000070: 0000 0000 0000 0000 0000 0000 0000 0000
00000080: 4af4 32b8 cd4f a7b8 09f1 42b8 7728 d5b8
00000090: 3757 7eb7 a718 32b7 8fb1 da36 7e2c 2a37
000000a0: 02f7 11b9 e3e1 99b9 718d 12b9 828d b1b9
000000b0: bf8b 5b38 1458 c338 dd1e 3638 4dd4 b138
000000c0: 7ef0 8837 a300 2738 8524 c937 ec67 5b38
000000d0: 0ddb 8637 9699 0738 bbae dd37 9405 4238
000000e0: 4cd7 3f38 98b9 9438 677d 0938 9461 9038
000000f0: 0000 0000 a3f6 feb0 ba56 c4b1 f90a ccb1
00000100: 5db2 9a38 1745 8b38 5e53 2838 8711 5137
00000110: 1b71 6535 4537 a837 abb7 e4b5 b39a 5c37
00000120: 0000 0000 0000 0000 0000 0000 0000 0000
00000130: debf ccb8 f512 12b9 59be b2b8 8818 39b9
00000140: aba5 1638 423c 8938 091b cd37 2a8a 5838
00000150: 4fa7 3c36 2528 0536 9b05 a135 34fd b6b4
00000160: 0000 0000 0000 0000 0000 0000 0000 0000
00000170: 0000 0000 0000 0000 0000 0000 0000 0000
00000180: 0000 0000 054f ef33 a3d4 0333 6ec6 d430
00000190: 3d1d 98b6 706f 77b8 a8a0 27b8 c9ee e4b8
000001a0: 9edc c437 2e5a 8837 f039 fc35 e6c6 d335
000001b0: 33e9 0338 c13d 9638 75dd 1b38 9892 ba38
000001c0: 18fd 7035 e6d6 4fb3 65ff 8135 14e4 b234
000001d0: f24a 95b7 1935 97b7 6fa4 80b5 baaa b336
000001e0: 0000 0000 0000 0000 0000 0000 0000 0000
000001f0: d3df a1b8 3d7b 3eb9 bc1c cab8 e1d3 6ab9
00000200: 6b13 0fb5 d7da 81b7 a59c b5b7 5ef9 16b8
00000210: 0000 0000 0000 0000 0000 0000 0000 0000
00000220: 0000 0000 0000 0000 0000 0000 0000 0000
00000230: 68a5 0cb6 21c2 0d38 7828 6b37 9783 4e38
00000240: 8cdc f138 d852 2b39 103a b138 937e 0a39
00000250: 1e83 ef36 cd9a 9437 b653 d536 2e6d 8737
00000260: 0000 0000 0000 0000 0000 0000 0000 0000
00000270: 0000 0000 0000 0000 0000 0000 0000 0000
00000280: 8b60 8d37 35ac a1b7 8bf3 dfb7 6162 a4b8
00000290: 9d46 cbb6 d7b0 95b7 3ad4 1fb7 73a5 ecb7
000002a0: 5c73 94b8 0cdd 2eb9 365c b8b8 4d7c 5eb9
000002b0: 9df4 3338 7903 d737 a132 0438 6e82 1c37
000002c0: 522c 8bb6 4292 4638 ffdd 4f37 8303 8c38
000002d0: 0000 0000 0000 0000 0000 0000 0000 0000
000002e0: 9558 27b8 f139 0ab9 e4c7 a4b8 8e87 45b9
000002f0: 6ff4 8438 1579 d838 78fb 1f38 c3d5 b738
00000300: 0000 0000 0000 0000 0000 0000 0000 0000
00000310: 8adc 2439 b619 1439 5362 9238 3003 aa38
00000320: 0000 0000 0000 0000 0000 0000 0000 0000
00000330: e85c 2a38 9ccf 9c38 e326 8238 ec79 b838
00000340: 0000 0000 0000 0000 0000 0000 0000 0000
00000350: 0400 0080 922e f9ac d491 c62f d8d2 472e
00000360: 0000 0000 0000 0000 0000 0000 0000 0000
00000370: 0000 0000 0000 0000 0000 0000 0000 0000
00000380: 34da b337 a2bd 4138 656a 8f37 fec5 5038
00000390: a2d6 eab8 aa31 cdb8 4b5d 4cb8 885e aab8
000003a0: c86d e6b5 3bd4 ceb4 5b9a e3b5 a8df 7cb5
000003b0: 595c 8438 999d a138 4d4e fe37 22a3 6b38
000003c0: 6389 61b8 97ef ebb8 c97d 7eb8 6a6c 0cb9
000003d0: e7c5 21b9 4e74 17b9 1530 df37 690e 2d38
000003e0: 0000 0000 38b0 2fb5 9163 52b4 ece0 2eb5
000003f0: 7c45 a738 5ff8 0b39 be4c 7338 71c0 0739

exp_avg_sq f4 [64, 4]
3.7138832e-06 1.2651609e-06 1.0520819e-06 1.6617594e-06 1.3697786e-07 3.512894e-08 1.2280886e-07 9.7693416e-08
1.7399361e-07 4.7464486e-08 1.5362703e-07 1.2906993e-07 1.5760888e-06 5.754934e-07 4.6009396e-07 6.6087546e-07
0.0 5.9452066e-08 3.6305563e-09 4.884774e-08 2.2232289e-06 7.2868426e-07 7.2673544e-07 9.3948887e-07
0.0 0.0 0.0 0.0 0.0 0.0 0.0 0.0
2.0266832e-07 1.5157767e-07 6.692852e-08 1.189143e-07 3.776046e-09 5.157562e-09 1.8772297e-09 4.0530863e-09
1.536982e-05 6.1763567e-06 4.6879286e-06 7.815025e-06 1.1831944e-06 4.4166893e-07 3.9795475e-07 5.85433e-07
3.6056846e-07 1.2284491e-07 1.0373665e-07 1.4756891e-07 5.434346e-07 1.8558345e-07 1.9912915e-07 2.7555e-07
2.1786333e-07 1.2462594e-07 5.9525018e-08 1.3781666e-07 0.0 3.4311537e-10 5.6810987e-09 5.1149462e-09
2.6616139e-08 7.435858e-08 5.499356e-08 1.4105086e-07 2.824982e-07 1.0048879e-07 9.871709e-08 1.3436983e-07
0.0 0.0 0.0 0.0 2.5096604e-06 8.117462e-07 9.666192e-07 1.1952278e-06
6.568006e-07 2.6544933e-07 2.217384e-07 3.5946078e-07 7.801245e-12 2.1430057e-07 1.7271688e-07 4.4872706e-07
0.0 0.0 0.0 0.0 0.0 0.0 0.0 0.0
0.0 1.8136868e-09 7.422694e-10 6.1528205e-10 2.1389762e-06 6.715378e-07 6.8273914e-07 7.787849e-07
2.0656815e-08 1.2607556e-08 6.574848e-09 9.435345e-09 1.3928975e-06 4.878607e-07 4.7941853e-07 6.600847e-07
1.992197e-08 7.967311e-10 1.8169269e-08 5.684974e-09 1.0588065e-08 4.195059e-09 3.4860954e-09 5.7398815e-09
0.0 0.0 0.0 0.0 7.4228105e-06 2.4648273e-06 2.1787425e-06 2.8638112e-06
2.243143e-07 8.3901334e-08 8.5853145e-08 1.3028951e-07 0.0 0.0 0.0 0.0
0.0 0.0 0.0 0.0 9.328943e-07 3.2620963e-07 3.3208167e-07 4.3854013e-07
2.087523e-06 8.8192655e-07 7.0955406e-07 1.2763362e-06 5.2198914e-08 2.3953382e-08 1.7612853e-08 2.2762341e-08
0.0 0.0 0.0 0.0 0.0 0.0 0.0 0.0
9.3889366e-07 2.9127955e-07 2.9601333e-07 3.219929e-07 9.547221e-08 4.1269622e-08 2.8556308e-08 5.3444037e-08
5.714112e-06 2.1909225e-06 1.889179e-06 2.7874742e-06 5.721814e-08 3.498539e-07 1.6723624e-07 5.369453e-07
1.7497223e-06 6.198585e-07 5.647837e-07 7.8825906e-07 0.0 0.0 0.0 0.0
5.5436535e-06 2.0635425e-06 1.8593859e-06 2.633994e-06 8.5306476e-07 3.6630243e-07 2.7912088e-07 4.4925193e-07
0.0 0.0 0.0 0.0 7.82136e-07 2.1464028e-07 3.1053995e-07 3.4123758e-07
0.0 0.0 0.0 0.0 2.241936e-06 6.8157675e-07 8.440562e-07 1.0224528e-06
0.0 0.0 0.0 0.0 8.207538e-18 6.347447e-14 2.2111268e-10 2.5635529e-12
0.0 0.0 0.0 0.0 0.0 0.0 0.0 0.0
3.1815424e-07 1.3054316e-07 1.0360642e-07 1.5846811e-07 2.3205365e-07 6.1248045e-08 6.955721e-08 8.937885e-08
2.6291758e-08 4.6473208e-08 7.111084e-08 9.4294904e-08 8.800524e-08 3.9997186e-08 3.2952926e-08 4.0906684e-08
2.3970151e-06 8.837977e-07 8.242357e-07 1.1601351e-06 3.590637e-07 8.080344e-08 1.5074387e-07 2.4900972e-08
0.0 7.33242e-08 5.2124033e-08 1.5695623e-07 1.7455576e-06 6.9600765e-07 6.234524e-07 8.5489904e-07
00000000: 073c 7936 99ce a935 4235 8d35 9e09 df35
00000010: 3014 1334 aee0 1633 71dd 0334 86cb d133
00000020: 00d3 3a34 c1db 4b33 adf4 2434 7996 0a34
00000030: 008a d335 9b7b 1a35 d502 f734 0467 3135
00000040: 0000 0000 3d58 7f33 6c7d 7931 a8cc 5133
00000050: c832 1536 cd9a 4335 e114 4335 2f31 7c35
00000060: 0000 0000 0000 0000 0000 0000 0000 0000
00000070: 0000 0000 0000 0000 0000 0000 0000 0000
00000080: 0b9d 5934 5ac1 2234 58ba 8f33 d45d ff33
00000090: 74be 8131 6536 b131 9300 0131 5343 8b31
000000a0: 70ee 8037 803e cf36 004d 9d36 471d 0337
000000b0: 40ce 9e35 841e ed34 7ca6 d534 a626 1d35
000000c0: 2794 c134 5ae7 0334 d4c5 de33 6f73 1e34
000000d0: 8be0 1135 ca44 4734 34d0 5534 4eef 9334
000000e0: d1ed 6934 ebd0 0534 73a8 7f33 c1fa 1334
000000f0: 0000 0000 32a1 bc2f 7933 c331 8bbf af31
00000100: 82a1 e432 10af 9f33 0f32 6c33 c473 1734
00000110: 42aa 9734 4ccc d733 4bfe d333 4c47 1034
00000120: 0000 0000 0000 0000 0000 0000 0000 0000
00000130: a36b 2836 c6e6 5935 c8bc 8135 b76b a035
00000140: fe4e 3035 1483 8e34 fd16 6e34 eafb c034
00000150: af3d 092d 7e1a 6634 0e74 3934 94e8 f034
00000160: 0000 0000 0000 0000 0000 0000 0000 0000
00000170: 0000 0000 0000 0000 0000 0000 0000 0000
00000180: 0000 0000 6e45 f930 9108 4c30 a020 2930
00000190: 558b 0f36 ba43 3435 7a45 3735 b10d 5135
000001a0: d170 b132 9e98 5832 fae8 e131 1619 2232
000001b0: 98f3 ba35 88f5 0235 64b1 0035 ad30 3135
000001c0: e020 ab32 f800 5b30 a512 9c32 8f55 c331
000001d0: cde6 3532 2124 9031 0a90 6f31 8838 c531
000001e0: 0000 0000 0000 0000 0000 0000 0000 0000
000001f0: 7511 f936 6969 2536 8336 1236 e72f 4036
00000200: 0cdb 7034 3f2d b433 445e b833 b5e5 0b34
00000210: 0000 0000 0000 0000 0000 0000 0000 0000
00000220: 0000 0000 0000 0000 0000 0000 0000 0000
00000230: 026c 7a35 e921 af34 f548 b234 7f70 eb34
00000240: 5f17 0c36 88bd 6c35 2f78 3e35 944e ab35
00000250: 5031 6033 0bc2 cd32 134b 9732 eb86 c332
00000260: 0000 0000 0000 0000 0000 0000 0000 0000
00000270: 0000 0000 0000 0000 0000 0000 0000 0000
00000280: 4808 7c35 2861 9c34 c3eb 9e34 5ede ac34
00000290: 6706 cd33 6e40 3133 fc4b f532 578a 6533
000002a0: d9bb bf36 c307 1336 b28f fd35 7110 3b36
000002b0: 03c0 7533 8ed3 bb34 8c91 3334 9a22 1035
000002c0: 00d8 ea35 5a64 2635 a49b 1735 c098 5335
000002d0: 0000 0000 0000 0000 0000 0000 0000 0000
000002e0: 9f03 ba36 647b 0a36 0390 f935 acc3 3036
000002f0: 2afe 6435 39a8 c434 15da 9534 b730 f134
00000300: 0000 0000 0000 0000 0000 0000 0000 0000
00000310: faf3 5135 df77 6634 49b8 a634 5633 b734
00000320: 0000 0000 0000 0000 0000 0000 0000 0000
00000330: 2b74 1636 99f5 3635 1a93 6235 363b 8935
00000340: 0000 0000 0000 0000 0000 0000 0000 0000
00000350: 0167 1723 8aee 8e29 b01d 732f dd64 342c
00000360: 0000 0000 0000 0000 0000 0000 0000 0000
00000370: 0000 0000 0000 0000 0000 0000 0000 0000
00000380: c9ce aa34 6e2b 0c34 3b7e de33 6227 2a34
00000390: 6c2a 7934 7887 8333 7b5f 9533 8bf0 bf33
000003a0: 30d8 e132 d599 4733 99b5 9833 2c7f ca33
000003b0: 64fd bc33 5fc9 2b33 2088 0d33 60b1 2f33
000003c0: 68dc 2036 1e3e 6d35 0c41 5d35 f0b5 9b35
000003d0: 57c5 c034 2986 ad33 29dc 2134 d1e5 d532
000003e0: 0000 0000 6876 9d33 fbde 5f33 cd87 2834
000003f0: e748 ea35 48d5 3a35 535b 2735 377c 6535

exp_avg f4 [64]
4.2223157e-05 -8.0598915e-07 -3.8848966e-06 -7.317357e-05 6.0018397e-07 -1.840848e-05 0.0 0.0
-4.2829466e-05 -1.5207922e-05 -0.00014078946 5.2628075e-05 1.6318441e-05 1.622682e-05 4.5926965e-05 -1.0130543e-08
7.335255e-05 9.797529e-07 0.0 -9.841136e-05 3.5814806e-05 1.8144954e-06 0.0 0.0
1.0836486e-07 -4.4601315e-06 2.3318269e-05 3.164906e-05 8.9627537e-07 -1.779488e-05 0.0 -7.7272496e-05
-8.4876837e-07 0.0 0.0 -1.6930662e-06 0.0001160329 7.2762004e-06 0.0 0.0
1.685367e-05 -6.1504966e-06 -7.169039e-05 4.1648178e-05 -3.8025398e-06 0.0 -4.0623057e-05 6.35283e-05
0.0 0.0001569112 0.0 4.0548504e-05 0.0 3.8233997e-10 0.0 0.0
2.1747786e-05 -0.00011198711 -1.914888e-06 6.328655e-05 -5.4459942e-05 -0.00015452289 -7.765648e-07 8.01156e-05
00000000: c518 3138 275b 58b5 025b 82b6 c374 99b8
00000010: 541c 2135 e96b 9ab7 0000 0000 0000 0000
00000020: caa3 33b8 8725 7fb7 e2a0 13b9 f7bc 5c38
00000030: 96e3 8837 d51e 8837 b4a1 4038 990a 2eb2
00000040: dad4 9938 0e80 8335 0000 0000 3262 ceb8
00000050: db37 1638 9689 f335 0000 0000 0000 0000
00000060: 36b6 e833 3da8 95b6 9a9b c337 ebbe 0438
00000070: 9397 7035 3746 95b7 0000 0000 5b0d a2b8
00000080: ebd6 63b5 0000 0000 0000 0000 503d e3b5
00000090: b056 f338 1626 f436 0000 0000 0000 0000
000000a0: fb60 8d37 5d60 ceb6 7c58 96b8 64af 2e38
000000b0: 232f 7fb6 0000 0000 ad62 2ab8 7f3a 8538
000000c0: 0000 0000 8888 2439 0000 0000 a012 2a38
000000d0: 0000 0000 9131 d22f 0000 0000 0000 0000
000000e0: 046f b637 9fda eab8 8681 00b6 b5b8 8438
000000f0: eb6b 64b8 6c07 22b9 2075 50b5 bc03 a838

exp_avg_sq f4 [64]
3.7138834e-06 2.7416914e-07 3.72512e-07 1.6475053e-06 8.124699e-08 2.4539627e-06 0.0 0.0
2.0526878e-07 8.65443e-09 1.8603183e-05 1.425374e-06 3.7199726e-07 6.6042855e-07 2.5845023e-07 1.7258728e-08
2.7151822e-07 3.5048163e-07 0.0 3.092137e-06 8.408263e-07 7.9191517e-07 0.0 0.0
5.744487e-09 2.1913495e-06 2.9004696e-08 1.6574771e-06 2.605438e-08 1.0589295e-08 0.0 7.4235177e-06
3.0406287e-07 0.0 0.0 1.1480236e-06 2.8681468e-06 6.816261e-08 0.0 0.0
9.4633737e-07 1.1291277e-07 6.7484666e-06 8.9610927e-07 2.0187072e-06 0.0 6.6039147e-06 1.0265578e-06
0.0 9.905682e-07 0.0 2.624293e-06 0.0 2.4978683e-10 0.0 0.0
3.8204385e-07 2.4174366e-07 2.5139005e-07 1.1136719e-07 2.8834543e-06 3.6204514e-07 2.5181438e-07 2.1779529e-06
00000000: 083c 7936 8531 9334 a9fd c734 da1f dd35
00000010: 017a ae33 c2ae 2436 0000 0000 0000 0000
00000020: da67 5c34 96ae 1432 080e 9c37 7a4f bf35
00000030: eab6 c734 4e48 3135 21c1 8a34 5840 9432
00000040: 2ec5 9134 d429 bc34 0000 0000 8282 4f36
00000050: 25b5 6135 ff93 5435 0000 0000 0000 0000
00000060: 0b61 c531 190f 1336 0026 f932 7b76 de35
00000070: 30ce df32 36ec 3532 0000 0000 8817 f936
00000080: 153e a334 0000 0000 0000 0000 ca15 9a35
00000090: 637a 4036 cb60 9233 0000 0000 0000 0000
000000a0: cf07 7e35 747a f233 e370 e236 298c 7035
000000b0: 2079 0736 0000 0000 3297 dd36 42c8 8935
000000c0: 0000 0000 aaf3 8435 0000 0000 031d 3036
000000d0: 0000 0000 5f52 892f 0000 0000 0000 0000
000000e0: b51b cd34 ffc8 8134 c9f6 8634 c328 ef33
000000f0: 5e81 4136 1b5f c234 1b31 8734 f228 1236

exp_avg f4 [128, 64]
6e-45 6e-45 6e-45 6e-45 0.0 6e-45 0.0 0.0
6e-45 6e-45 6e-45 6e-45 6e-45 6e-45 6e-45 -6e-45
-6e-45 6e-45 0.0 6e-45 6e-45 6e-45 0.0 0.0
-6e-45 6e-45 6e-45 6e-45 6e-45 6e-45 0.0 6e-45
6e-45 0.0 0.0 6e-45 6e-45 6e-45 0.0 0.0
6e-45 6e-45 6e-45 6e-45 6e-45 0.0 6e-45 6e-45
0.0 6e-45 0.0 6e-45 0.0 6e-45 0.0 0.0
6e-45 6e-45 -6e-45 6e-45 6e-45 6e-45 -6e-45 6e-45
0.0 0.0 0.0 0.0 0.0 0.0 0.0 0.0
0.0 0.0 0.0 0.0 0.0 0.0 0.0 0.0
0.0 0.0 0.0 0.0 0.0 0.0 0.0 0.0
0.0 0.0 0.0 0.0 0.0 0.0 0.0 0.0
0.0 0.0 0.0 0.0 0.0 0.0 0.0 0.0
0.0 0.0 0.0 0.0 0.0 0.0 0.0 0.0
0.0 0.0 0.0 0.0 0.0 0.0 0.0 0.0
0.0 0.0 0.0 0.0 0.0 0.0 0.0 0.0
0.0 6e-45 6e-45 0.0 0.0 6e-45 0.0 0.0
0.0 6e-45 6e-45 6e-45 0.0 6e-45 6e-45 6e-45
6e-45 6e-45 0.0 6e-45 6e-45 6e-45 0.0 0.0
6e-45 6e-45 6e-45 6e-45 6e-45 0.0 0.0 0.0
6e-45 0.0 0.0 6e-45 6e-45 6e-45 0.0 0.0
6e-45 6e-45 6e-45 0.0 6e-45 0.0 6e-45 6e-45
0.0 6e-45 0.0 6e-45 0.0 0.0 0.0 0.0
6e-45 6e-45 6e-45 6e-45 6e-45 0.0 6e-45 6e-45
3.8183984e-07 1.1865672e-07 1.894635e-07 1.2638503e-05 2.3560809e-09 1.6619357e-05 0.0 0.0
7.0746273e-07 -9.167234e-07 1.2962871e-05 1.1350234e-06 1.7341668e-07 -1.8310086e-06 -3.8203793e-06 -1.566685e-10
2.0197906e-06 1.6288976e-05 0.0 7.743798e-06 1.5368821e-06 1.5145861e-08 0.0 0.0
1.40551695e-08 1.4692144e-05 -1.8416567e-06 6.5391137e-06 2.1224353e-07 4.3304253e-06 0.0 1.2539661e-05
8.789985e-06 0.0 0.0 1.441999e-05 -3.7520936e-06 1.8615605e-05 0.0 0.0
7.3034485e-06 1.08750155e-05 2.30761e-05 2.9654711e-06 -3.15032e-06 0.0 1.7907128e-05 2.8675804e-06
0.0 2.336765e-06 0.0 9.673553e-08 0.0 -5.735337e-12 0.0 0.0
9.783581e-06 1.6338502e-06 1.6382957e-08 1.608981e-05 2.1262102e-05 9.3929475e-06 7.669991e-09 4.126476e-06
00000000: 0400 0000 0400 0000 0400 0000 0400 0000
00000010: 0000 0000 0400 0000 0000 0000 0000 0000
00000020: 0400 0000 0400 0000 0400 0000 0400 0000
00000030: 0400 0000 0400 0000 0400 0000 0400 0080
00000040: 0400 0080 0400 0000 0000 0000 0400 0000
00000050: 0400 0000 0400 0000 0000 0000 0000 0000
00000060: 0400 0080 0400 0000 0400 0000 0400 0000
00000070: 0400 0000 0400 0000 0000 0000 0400 0000
00000080: 0400 0000 0000 0000 0000 0000 0400 0000
00000090: 0400 0000 0400 0000 0000 0000 0000 0000
000000a0: 0400 0000 0400 0000 0400 0000 0400 0000
000000b0: 0400 0000 0000 0000 0400 0000 0400 0000
000000c0: 0000 0000 0400 0000 0000 0000 0400 0000
000000d0: 0000 0000 0400 0000 0000 0000 0000 0000
000000e0: 0400 0000 0400 0000 0400 0080 0400 0000
000000f0: 0400 0000 0400 0000 0400 0080 0400 0000
00000100: 0000 0000 0000 0000 0000 0000 0000 0000
00000110: 0000 0000 0000 0000 0000 0000 0000 0000
00000120: 0000 0000 0000 0000 0000 0000 0000 0000
00000130: 0000 0000 0000 0000 0000 0000 0000 0000
00000140: 0000 0000 0000 0000 0000 0000 0000 0000
00000150: 0000 0000 0000 0000 0000 0000 0000 0000
00000160: 0000 0000 0000 0000 0000 0000 0000 0000
00000170: 0000 0000 0000 0000 0000 0000 0000 0000
00000180: 0000 0000 0000 0000 0000 0000 0000 0000
00000190: 0000 0000 0000 0000 0000 0000 0000 0000
000001a0: 0000 0000 0000 0000 0000 0000 0000 0000
000001b0: 0000 0000 0000 0000 0000 0000 0000 0000
000001c0: 0000 0000 0000 0000 0000 0000 0000 0000
000001d0: 0000 0000 0000 0000 0000 0000 0000 0000
000001e0: 0000 0000 0000 0000 0000 0000 0000 0000
000001f0: 0000 0000 0000 0000 0000 0000 0000 0000
00000200: 0000 0000 0400 0000 0400 0000 0000 0000
00000210: 0000 0000 0400 0000 0000 0000 0000 0000
00000220: 0000 0000 0400 0000 0400 0000 0400 0000
00000230: 0000 0000 0400 0000 0400 0000 0400 0000
00000240: 0400 0000 0400 0000 0000 0000 0400 0000
00000250: 0400 0000 0400 0000 0000 0000 0000 0000
00000260: 0400 0000 0400 0000 0400 0000 0400 0000
00000270: 0400 0000 0000 0000 0000 0000 0000 0000
00000280: 0400 0000 0000 0000 0000 0000 0400 0000
00000290: 0400 0000 0400 0000 0000 0000 0000 0000
000002a0: 0400 0000 0400 0000 0400 0000 0000 0000
000002b0: 0400 0000 0000 0000 0400 0000 0400 0000
000002c0: 0000 0000 0400 0000 0000 0000 0400 0000
000002d0: 0000 0000 0000 0000 0000 0000 0000 0000
000002e0: 0400 0000 0400 0000 0400 0000 0400 0000
000002f0: 0400 0000 0000 0000 0400 0000 0400 0000
00000300: abff cc34 39d0 fe33 556f 4b34 f509 5437
00000310: 9de8 2131 cc69 8b37 0000 0000 0000 0000
00000320: 78e8 3d35 c114 76b5 1b7b 5937 1b57 9835
00000330: 6a34 3a34 fac0 f5b5 cf30 80b6 4342 2caf
00000340: bd8b 0736 4fa4 8837 0000 0000 5ceb 0137
00000350: de46 ce35 1a1a 8232 0000 0000 0000 0000
00000360: 4a77 7132 477e 7637 d82e f7b5 8f6a db36
00000370: 0fe5 6334 124e 9136 0000 0000 6f61 5237
00000380: b378 1337 0000 0000 0000 0000 63ed 7137
00000390: 7acc 7bb6 b528 9c37 0000 0000 0000 0000
000003a0: 2510 f536 d673 3637 8c93 c137 6802 4736
000003b0: 166a 53b6 0000 0000 4437 9637 a870 4036
000003c0: 0000 0000 51d1 1c36 0000 0000 ecbc cf33
000003d0: 0000 0000 53cb c9ac 0000 0000 0000 0000
000003e0: 2924 2437 aa4a db35 81ba 8c32 9bf8 8637
000003f0: 045c b237 6796 1d37 fac4 0332 2976 8a36

exp_avg_sq f4 [128, 64]
2.9182667e-21 7.866467e-17 1.8416883e-16 8.578956e-18 0.0 1.04582946e-16 0.0 0.0
5.603706e-19 2.6281987e-18 1.6777173e-17 1.6951911e-16 8.189921e-18 2.1874299e-16 8.80499e-19 9.451648e-18
3.159103e-17 9.202331e-17 0.0 1.183726e-16 1.06214543e-16 1.9967979e-18 0.0 0.0
2.2308255e-18 1.8142481e-17 2.719752e-16 5.6167536e-17 8.4442144e-17 1.4183368e-18 0.0 2.8675027e-18
2.5168594e-16 0.0 0.0 9.702579e-17 5.220612e-18 5.739634e-17 0.0 0.0
9.292255e-18 1.196297e-16 3.159889e-17 8.811961e-20 5.628014e-16 0.0 1.510492e-16 9.255138e-17
0.0 1.7730456e-16 0.0 4.4451806e-17 0.0 4.0249607e-21 0.0 0.0
2.0975054e-16 1.0175779e-17 2.548706e-17 9.673306e-17 4.1216213e-16 5.563746e-20 4.1953453e-17 4.914339e-18
0.0 0.0 0.0 0.0 0.0 0.0 0.0 0.0
0.0 0.0 0.0 0.0 0.0 0.0 0.0 0.0
0.0 0.0 0.0 0.0 0.0 0.0 0.0 0.0
0.0 0.0 0.0 0.0 0.0 0.0 0.0 0.0
0.0 0.0 0.0 0.0 0.0 0.0 0.0 0.0
0.0 0.0 0.0 0.0 0.0 0.0 0.0 0.0
0.0 0.0 0.0 0.0 0.0 0.0 0.0 0.0
0.0 0.0 0.0 0.0 0.0 0.0 0.0 0.0
0.0 1.1276802e-19 1.7130038e-19 0.0 0.0 3.06465e-20 0.0 0.0
0.0 1.8238816e-19 1.2673749e-21 5.0184665e-19 0.0 3.371682e-19 1.0332593e-21 1.4181505e-25
2.1593722e-19 1.1010882e-19 0.0 4.741415e-20 1.1416914e-19 2.812997e-22 0.0 0.0
1.337705e-19 4.842688e-22 1.3849061e-18 9.0682365e-21 3.5340885e-20 0.0 0.0 0.0
3.4173675e-19 0.0 0.0 5.8930213e-19 2.2574462e-21 3.6786611e-19 0.0 0.0
2.0766992e-28 9.908762e-19 1.580736e-19 0.0 1.5721093e-18 0.0 6.7548945e-20 4.2598176e-19
0.0 3.303176e-19 0.0 8.31573e-21 0.0 0.0 0.0 0.0
5.298105e-19 7.7303724e-25 7.74072e-21 3.9730141e-19 7.1053465e-19 0.0 4.8997536e-20 3.5813185e-20
5.2276644e-10 3.3591774e-10 8.4369267e-10 2.6428373e-09 4.135533e-13 7.328471e-09 0.0 0.0
3.0121503e-11 8.100837e-10 8.4253393e-10 4.538868e-09 1.2953923e-09 1.4181957e-09 7.319389e-10 1.1251512e-11
3.003003e-10 1.5726574e-08 0.0 1.7716435e-09 4.5290247e-09 5.96541e-11 0.0 0.0
7.6146756e-11 4.016235e-09 3.6300372e-09 7.57583e-09 5.320433e-10 7.188031e-10 0.0 5.531492e-10
5.950867e-09 0.0 0.0 1.6093539e-08 7.720611e-10 1.4814368e-08 0.0 0.0
2.7269245e-09 5.1915703e-09 6.8623085e-09 1.5976716e-10 7.903668e-09 0.0 7.3398247e-09 4.276402e-09
0.0 1.3918994e-09 0.0 2.2159516e-09 0.0 5.066949e-14 0.0 0.0
1.41709515e-08 2.8834137e-09 1.0721869e-10 1.3485984e-08 1.5528729e-08 1.1521411e-10 1.3400939e-10 2.0194637e-09
00000000: 7d7f 5c1d 6d63 b524 0b55 5425 f940 1e23
00000010: 0000 0000 e026 f124 0000 0000 0000 0000
00000020: 6864 2521 45ed 4122 fbbd 9a23 3671 4325
00000030: cf13 1723 8931 7c25 50f0 8121 255a 2e23
00000040: 1bb0 1124 f930 d424 0000 0000 6d79 0825
00000050: 00ea f424 7256 1322 0000 0000 0000 0000
00000060: 1a9b 2422 b955 a723 75c8 9c25 7683 8124
00000070: d8b5 c224 404f d121 0000 0000 9895 5322
00000080: 4a16 9125 0000 0000 0000 0000 ebb9 df24
00000090: 499b c022 d258 8424 0000 0000 0000 0000
000000a0: 6f69 2b23 75ec 0925 62b9 1124 0911 d01f
000000b0: 6a37 2226 0000 0000 db25 2e25 b168 d524
000000c0: 0000 0000 126b 4c25 0000 0000 6eff 4c24
000000d0: 0000 0000 080f 981d 0000 0000 0000 0000
000000e0: 6fd3 7125 c2b5 3b23 9e13 eb23 1f0d df24
000000f0: 6598 ed25 c85e 831f e579 4124 9f4e b522
00000100: 0000 0000 0000 0000 0000 0000 0000 0000
00000110: 0000 0000 0000 0000 0000 0000 0000 0000
00000120: 0000 0000 0000 0000 0000 0000 0000 0000
00000130: 0000 0000 0000 0000 0000 0000 0000 0000
00000140: 0000 0000 0000 0000 0000 0000 0000 0000
00000150: 0000 0000 0000 0000 0000 0000 0000 0000
00000160: 0000 0000 0000 0000 0000 0000 0000 0000
00000170: 0000 0000 0000 0000 0000 0000 0000 0000
00000180: 0000 0000 0000 0000 0000 0000 0000 0000
00000190: 0000 0000 0000 0000 0000 0000 0000 0000
000001a0: 0000 0000 0000 0000 0000 0000 0000 0000
000001b0: 0000 0000 0000 0000 0000 0000 0000 0000
000001c0: 0000 0000 0000 0000 0000 0000 0000 0000
000001d0: 0000 0000 0000 0000 0000 0000 0000 0000
000001e0: 0000 0000 0000 0000 0000 0000 0000 0000
000001f0: 0000 0000 0000 0000 0000 0000 0000 0000
00000200: 0000 0000 0b22 0520 5d3c 4a20 0000 0000
00000210: 0000 0000 58b9 101f 0000 0000 0000 0000
00000220: 0000 0000 7053 5720 3185 bf1c 761e 1421
00000230: 0000 0000 6b07 c720 4824 9c1c fc8e 2f16
00000240: 05ef 7e20 59fe 0120 0000 0000 31e8 5f1f
00000250: 81c9 0620 0509 aa1b 0000 0000 0000 0000
00000260: a7ed 1d20 7c5c 121c 4660 cc21 4d4b 2b1e
00000270: 82e4 261f 0000 0000 0000 0000 0000 0000
00000280: ccb9 c920 0000 0000 0000 0000 69ee 2d21
00000290: 5c91 2a1d 5b26 d920 0000 0000 0000 0000
000002a0: 5fa0 8311 3f3a 9221 d09e 3a20 0000 0000
000002b0: 9c00 e821 0000 0000 d57e 9f1f 8b74 fb20
000002c0: 0000 0000 2ffc c220 0000 0000 6714 1d1e
000002d0: 0000 0000 0000 0000 0000 0000 0000 0000
000002e0: 595f 1c21 523e 6f17 d337 121e 7e86 ea20
000002f0: 7bb6 5121 0000 0000 6362 671f 7c1f 291f
00000300: 6bb2 0f30 38ac b82f 98e9 6730 499d 3531
00000310: 50cf e82a eacd fb31 0000 0000 0000 0000
00000320: cc79 042e 93ac 5e30 0e98 6730 4ef4 9b31
00000330: 9109 b230 53ea c230 9f31 4930 4ef0 452d
00000340: 8317 a52f 1a17 8732 0000 0000 2a7e f330
00000350: b99d 9b31 462e 832e 0000 0000 0000 0000
00000360: d072 a72e 2dff 8931 4a74 7931 da26 0232
00000370: 383f 1230 4595 4530 0000 0000 6a0c 1830
00000380: 6178 cc31 0000 0000 0000 0000 113e 8a32
00000390: f838 5430 4882 7e32 0000 0000 0000 0000
000003a0: 9064 3b31 8961 b231 81c9 eb31 75aa 2f2f
000003b0: b3c8 0732 0000 0000 c831 fc31 a1ef 9231
000003c0: 0000 0000 1b4d bf30 0000 0000 6f47 1831
000003d0: 0000 0000 f231 6429 0000 0000 0000 0000
000003e0: 8174 7332 8d25 4631 c2c6 eb2e fcaf 6732
000003f0: 0964 8532 c75b fd2e 4a58 132f c8c6 0a31

exp_avg f4 [128]
6e-45 0.0 6e-45 2.943371e-05 -1.3828778e-05 1.8516508e-05 6e-45 -4.514817e-06
9.381904e-06 2.4506704e-05 3.8922328e-05 0.0 5.2355836e-06 -3.3146e-05 8.875871e-06 8.817064e-06
-5.1083156e-05 6e-45 3.3202814e-05 0.0 0.0 0.0 -3.469344e-08 1.6885333e-05
0.0 -3.469274e-05 -1.1746349e-06 1.1213238e-05 6e-45 0.0 6e-45 -1.3795618e-05
6e-45 0.0 1.8167942e-05 1.662516e-05 1.8108884e-05 6e-45 1.9487283e-05 1.06946045e-05
-3.8304053e-05 4.4195813e-06 -7.999741e-05 0.0 6e-45 -1.1360251e-05 -1.5508504e-05 -4.6632365e-05
8.721788e-06 8.161821e-06 6.75044e-12 0.0 -2.6100082e-07 0.0 -9.388987e-06 1.7192573e-05
0.0 -8.600973e-06 1.0490952e-05 1.0268056e-05 -2.119264e-05 0.0 -5.4059816e-05 -1.7063807e-05
-2.8784041e-05 0.0 6e-45 -5.7435113e-06 1.1010661e-05 0.0 1.581494e-06 0.0
0.0 9.979156e-06 6e-45 -6.910036e-06 6e-45 -1.7194461e-05 -8.870721e-07 1.9787453e-07
-2.6904483e-05 -1.3564733e-05 3.0181265e-05 -4.2312024e-08 2.5536845e-05 2.420793e-06 6e-45 1.4129284e-05
-4.6033174e-06 0.0 2.1716229e-05 3.7039204e-05 -4.6963807e-05 0.0 -1.6508373e-05 0.00013323213
2.0799498e-05 6e-45 1.1092067e-05 -0.00014075421 -1.6612645e-05 3.154265e-05 3.1108615e-05 -3.1358762e-05
-1.0475391e-05 0.0 6e-45 1.3486058e-05 -6e-45 -2.6717813e-05 6e-45 0.0
2.17249e-05 2.7757293e-05 2.4483028e-05 0.00018447652 4.536386e-07 -4.616626e-05 -4.112957e-06 -6.5551462e-06
-9.185839e-06 -1.792344e-09 1.5740934e-06 6e-45 0.0 1.5443362e-06 -6.397465e-05 2.7410137e-11
00000000: 0400 0000 0000 0000 0400 0000 69e8 f637
00000010: 2602 68b7 e653 9b37 0400 0000 fc7d 97b6
00000020: f966 1d37 bf93 cd37 8840 2338 0000 0000
00000030: 52ad af36 3f06 0bb8 93e9 1437 00ed 1337
00000040: 1f42 56b8 0400 0000 4043 0b38 0000 0000
00000050: 0000 0000 0000 0000 d701 15b3 faa4 8d37
00000060: 0000 0000 0c83 11b8 26a8 9db5 7e20 3c37
00000070: 0400 0000 0000 0000 0400 0000 ba73 67b7
00000080: 0400 0000 0000 0000 5c67 9837 4276 8b37
00000090: 88e8 9737 0400 0000 9f78 a337 fa6c 3337
000000a0: aaa8 20b8 ea4b 9436 48c4 a7b8 0000 0000
000000b0: 0400 0000 e897 3eb7 4218 82b7 1f97 43b8
000000c0: cb53 1237 c1ee 0837 8f82 ed2c 0000 0000
000000d0: ae1f 8cb4 0000 0000 6485 1db7 c538 9037
000000e0: 0000 0000 e64c 10b7 4c02 3037 f744 2c37
000000f0: d9c6 b1b7 0000 0000 49be 62b8 3f24 8fb7
00000100: 4275 f1b7 0000 0000 0400 0000 63b8 c0b6
00000110: 6eba 3837 0000 0000 b843 d435 0000 0000
00000120: 0000 0000 266c 2737 0400 0000 c2dc e7b6
00000130: 0400 0000 d33c 90b7 211f 6eb5 5677 5434
00000140: f0b0 e1b7 1694 63b7 c62d fd37 90ba 35b3
00000150: f537 d637 e874 2236 0400 0000 d00c 6d37
00000160: 3276 9ab6 0000 0000 3f2b b637 8b5a 1b38
00000170: 01fb 44b8 0000 0000 767b 8ab7 3ab4 0b39
00000180: 957a ae37 0400 0000 1118 3a37 6c97 13b9
00000190: 625b 8bb7 aa4c 0438 9f7a 0238 3787 03b8
000001a0: 76bf 2fb7 0000 0000 0400 0000 2e42 6237
000001b0: 0400 0080 1120 e0b7 0400 0000 0000 0000
000001c0: de3d b637 55d8 e837 e760 cd37 0a70 4139
000001d0: 9d8b f334 a5a2 41b8 0802 8ab6 47f4 dbb6
000001e0: e11c 1ab7 8056 f6b0 7045 d335 0400 0000
000001f0: 0000 0000 fd46 cf35 212a 86b8 241a f12d

exp_avg_sq f4 [128]
9.44616e-16 0.0 2.9266639e-18 3.7334445e-08 5.3461457e-09 4.2461913e-08 7.4812993e-20 1.2607345e-07
4.6834558e-07 1.9227782e-08 1.1184571e-06 0.0 9.7597265e-08 1.3661044e-07 1.2298134e-08 8.4033026e-08
3.5467913e-08 5.338087e-16 2.3323537e-08 0.0 0.0 0.0 4.8115782e-09 9.693535e-09
0.0 5.531813e-07 1.9306938e-07 2.0408137e-08 3.9021408e-16 0.0 7.034814e-23 9.531206e-07
3.9257372e-16 0.0 4.4064885e-07 5.3318207e-08 1.1305507e-07 1.9628909e-15 2.3812968e-08 1.0466329e-06
6.6178667e-09 2.6937005e-07 4.5955196e-07 0.0 1.4794159e-21 2.166699e-08 1.9728193e-06 2.1955569e-07
2.6007772e-08 2.7427762e-07 6.7843876e-14 0.0 7.121675e-09 0.0 6.883349e-09 6.273175e-08
0.0 2.0216012e-08 1.13394634e-07 6.650046e-07 4.8656075e-09 0.0 6.8261676e-07 1.0298963e-07
4.932077e-07 0.0 3.930341e-23 1.1121214e-08 7.528695e-08 0.0 7.8398976e-08 0.0
0.0 1.5313569e-08 3.3301537e-16 3.8244327e-08 1.6955953e-16 1.593352e-06 6.767526e-07 6.736692e-07
6.732221e-07 2.0546704e-09 1.3242075e-08 2.3155826e-10 8.043007e-08 7.9458786e-08 3.0250293e-15 2.3813449e-07
4.3645775e-07 0.0 6.763402e-07 1.8188981e-08 6.269862e-08 0.0 4.6820722e-07 1.2566231e-07
7.96711e-09 1.3404936e-16 1.1415831e-07 3.194262e-07 2.514342e-07 4.530331e-08 2.2884292e-08 1.8314716e-07
1.749167e-08 0.0 5.729508e-25 4.3129756e-08 1.1453465e-15 2.706753e-07 1.4501366e-20 0.0
3.0200871e-07 1.06621634e-07 3.1121385e-07 1.3522775e-06 7.0421294e-08 2.4582897e-07 6.703621e-08 5.4260493e-08
1.5711706e-06 1.4747383e-15 3.9170172e-07 1.1894189e-19 0.0 1.3941799e-07 9.3540837e-07 1.0101391e-12
00000000: 2e22 8826 0000 0000 1ef3 5722 a859 2033
00000010: 32b1 b731 5e5f 3633 aea5 b01f ce5e 0734
00000020: ed70 fb34 572a a532 e51d 9635 0000 0000
00000030: aa96 d133 31af 1234 c447 5332 a575 b433
00000040: 6255 1833 21dc 1926 0059 c832 0000 0000
00000050: 0000 0000 0000 0000 1753 a531 9e88 2632
00000060: 0000 0000 547e 1435 824e 4f34 f84d af32
00000070: 6ff1 e025 0000 0000 6417 aa1a f3d9 7f35
00000080: a84d e225 0000 0000 5192 ec34 fdff 6433
00000090: afc8 f233 f270 0d27 458d cc32 087a 8c35
000000a0: 5f63 e331 f09d 9034 57b8 f634 0000 0000
000000b0: 2190 df1c 371e ba32 c764 0436 02bf 6b34
000000c0: b267 df32 6e40 9334 55c5 9829 0000 0000
000000d0: eab2 f431 0000 0000 9482 ec31 25b7 8633
000000e0: 0000 0000 7ba7 ad32 5c83 f333 c582 3235
000000f0: 562e a731 0000 0000 113d 3735 262b dd33
00000100: fa64 0435 0000 0000 440f 3e1a 9e0f 3f32
00000110: 70ad a133 0000 0000 4b5c a833 0000 0000
00000120: 0000 0000 e58a 8332 65f8 bf25 1542 2433
00000130: 247d 4325 28db d535 16aa 3535 32d6 3435
00000140: 78b7 3435 2532 0d31 437f 6332 db99 7e2f
00000150: e6b8 ac33 eea2 aa33 f1f9 5927 e9b1 7f34
00000160: 4c52 ea34 0000 0000 bf8d 3535 fe3d 9c32
00000170: eea4 8633 0000 0000 e95d fb34 cbed 0634
00000180: b8df 0832 638c 1a25 3227 f533 9a7d ab34
00000190: dafc 8634 8493 4233 1793 c432 1ca7 4434
000001a0: 9740 9632 0000 0000 d751 3117 ab3d 3933
000001b0: d40f a526 5451 9134 27f6 881e 0000 0000
000001c0: c323 a234 ddf7 e433 e814 a734 e77f b535
000001d0: 843a 9733 7afa 8334 8cf5 8f33 0b0c 6933
000001e0: 03e1 d235 3d88 d426 134b d234 fb6b 0c20
000001f0: 0000 0000 edb2 1534 c618 7b35 192a 8e2b

exp_avg f4 [64, 128]
0.0 0.0 0.0 6e-45 6e-45 6e-45 0.0 0.0
0.0 0.0 6e-45 0.0 6e-45 0.0 6e-45 6e-45
0.0 0.0 6e-45 0.0 0.0 0.0 6e-45 6e-45
0.0 6e-45 6e-45 6e-45 0.0 0.0 0.0 0.0
6e-45 0.0 6e-45 6e-45 6e-45 6e-45 6e-45 0.0
6e-45 6e-45 6e-45 0.0 0.0 6e-45 6e-45 6e-45
6e-45 0.0 0.0 0.0 0.0 0.0 6e-45 6e-45
0.0 0.0 6e-45 6e-45 6e-45 0.0 6e-45 6e-45
6e-45 0.0 0.0 6e-45 6e-45 0.0 6e-45 0.0
0.0 6e-45 6e-45 6e-45 6e-45 0.0 6e-45 6e-45
6e-45 6e-45 6e-45 6e-45 6e-45 6e-45 6e-45 6e-45
6e-45 0.0 6e-45 6e-45 0.0 0.0 6e-45 6e-45
6e-45 6e-45 6e-45 0.0 6e-45 6e-45 6e-45 0.0
6e-45 0.0 0.0 6e-45 0.0 0.0 0.0 0.0
6e-45 6e-45 6e-45 0.0 6e-45 6e-45 6e-45 6e-45
0.0 6e-45 6e-45 0.0 0.0 0.0 6e-45 6e-45
-6e-45 0.0 -6e-45 1.6574859e-05 -7.0744004e-06 -6.465255e-06 -6e-45 -2.454387e-05
-1.9057286e-05 -6.3907523e-06 2.5465784e-05 0.0 -2.1742282e-05 7.690599e-07 1.0478634e-05 -1.9738069e-05
5.522968e-06 -6e-45 5.1722745e-06 0.0 0.0 0.0 -7.3919177e-06 -7.107852e-06
0.0 2.6003829e-05 2.6415635e-05 -1.9601706e-05 6e-45 0.0 6e-45 -3.7797072e-05
6e-45 0.0 -1.7781113e-05 2.1329467e-06 -1.2775335e-05 6e-45 5.7589114e-06 2.3467497e-05
6.6546577e-06 1.8610306e-05 2.185321e-05 0.0 -6e-45 2.2692395e-06 3.0030342e-05 2.4400411e-05
4.910841e-06 1.7263483e-05 -9.859363e-13 0.0 3.4134995e-08 0.0 -1.1179292e-05 -2.5863424e-06
0.0 9.7551606e-08 8.648269e-06 2.7050426e-05 8.337068e-06 0.0 3.508721e-05 1.2858199e-05
2.1637981e-05 0.0 -6e-45 1.7882676e-05 1.105419e-05 0.0 7.384806e-06 0.0
0.0 8.774148e-09 -6e-45 1.0405485e-06 -6e-45 2.8805045e-05 2.6496047e-05 2.4352961e-05
2.5166357e-05 9.076331e-06 9.4598226e-07 6.47115e-09 1.7478827e-05 1.0907315e-05 -6e-45 -2.1159116e-05
2.7778882e-05 0.0 2.5082729e-05 -5.8058964e-07 5.56659e-06 0.0 2.3765606e-05 -8.298912e-06
4.1624975e-07 -6e-45 2.1255013e-05 3.4400666e-05 2.2726566e-05 -5.35267e-06 -2.1342696e-05 2.7101869e-05
1.5225249e-09 0.0 6e-45 1.5815436e-05 6e-45 2.7704024e-05 6e-45 0.0
2.0901201e-05 4.9331725e-06 2.4212315e-05 3.0223538e-05 4.1211656e-06 1.7818804e-05 1.8614435e-05 2.0357755e-05
2.795984e-05 1.1891582e-11 2.5174731e-05 6e-45 0.0 -1.587822e-05 3.3922057e-05 -1.4700283e-13
00000000: 0000 0000 0000 0000 0000 0000 0400 0000
00000010: 0400 0000 0400 0000 0000 0000 0000 0000
00000020: 0000 0000 0000 0000 0400 0000 0000 0000
00000030: 0400 0000 0000 0000 0400 0000 0400 0000
00000040: 0000 0000 0000 0000 0400 0000 0000 0000
00000050: 0000 0000 0000 0000 0400 0000 0400 0000
00000060: 0000 0000 0400 0000 0400 0000 0400 0000
00000070: 0000 0000 0000 0000 0000 0000 0000 0000
00000080: 0400 0000 0000 0000 0400 0000 0400 0000
00000090: 0400 0000 0400 0000 0400 0000 0000 0000
000000a0: 0400 0000 0400 0000 0400 0000 0000 0000
000000b0: 0000 0000 0400 0000 0400 0000 0400 0000
000000c0: 0400 0000 0000 0000 0000 0000 0000 0000
000000d0: 0000 0000 0000 0000 0400 0000 0400 0000
000000e0: 0000 0000 0000 0000 0400 0000 0400 0000
000000f0: 0400 0000 0000 0000 0400 0000 0400 0000
00000100: 0400 0000 0000 0000 0000 0000 0400 0000
00000110: 0400 0000 0000 0000 0400 0000 0000 0000
00000120: 0000 0000 0400 0000 0400 0000 0400 0000
00000130: 0400 0000 0000 0000 0400 0000 0400 0000
00000140: 0400 0000 0400 0000 0400 0000 0400 0000
00000150: 0400 0000 0400 0000 0400 0000 0400 0000
00000160: 0400 0000 0000 0000 0400 0000 0400 0000
00000170: 0000 0000 0000 0000 0400 0000 0400 0000
00000180: 0400 0000 0400 0000 0400 0000 0000 0000
00000190: 0400 0000 0400 0000 0400 0000 0000 0000
000001a0: 0400 0000 0000 0000 0000 0000 0400 0000
000001b0: 0000 0000 0000 0000 0000 0000 0000 0000
000001c0: 0400 0000 0400 0000 0400 0000 0000 0000
000001d0: 0400 0000 0400 0000 0400 0000 0400 0000
000001e0: 0000 0000 0400 0000 0400 0000 0000 0000
000001f0: 0000 0000 0000 0000 0400 0000 0400 0000
00000200: 0400 0080 0000 0000 0400 0080 3d0a 8b37
00000210: a360 edb6 1ef0 d8b6 0400 0080 8fe3 cdb7
00000220: 36dd 9fb7 2570 d6b6 5b9f d537 0000 0000
00000230: 3263 b6b7 6571 4e35 64cd 2f37 2e93 a5b7
00000240: ef51 b936 0400 0080 808d ad36 0000 0000
00000250: 0000 0000 0000 0000 1708 f8b6 fc7f eeb6
00000260: 0000 0000 cc22 da37 2597 dd37 586e a4b7
00000270: 0400 0000 0000 0000 0400 0000 4c88 1eb8
00000280: 0400 0000 0000 0000 a628 95b7 bf23 0f36
00000290: a555 56b7 0400 0000 ac3c c136 11dc c437
000002a0: 134b df36 541d 9c37 6951 b737 0000 0000
000002b0: 0400 0080 3d49 1836 abe9 fb37 7caf cc37
000002c0: cec7 a436 0cd1 9037 19c2 8aab 0000 0000
000002d0: d39b 1233 0000 0000 b28e 3bb7 0691 2db6
000002e0: 0000 0000 907d d133 0818 1137 59ea e237
000002f0: 6fdf 0b37 0000 0000 9b2a 1338 8bb9 5737
00000300: 3683 b537 0000 0000 0400 0080 c102 9637
00000310: 6275 3937 0000 0000 00cb f736 0000 0000
00000320: 0000 0000 1cbd 1632 0400 0080 f9a8 8b35
00000330: 0400 0080 5da2 f137 d443 de37 9649 cc37
00000340: 571c d337 8b46 1837 68ef 7d35 d658 de31
00000350: 7f9f 9237 90fe 3637 0400 0080 db7e b1b7
00000360: b206 e937 0000 0000 c068 d237 d1d9 1bb5
00000370: a5c8 ba36 0000 0000 405c c737 8e3b 0bb7
00000380: ee78 df34 0400 0080 cb4c b237 6f49 1038
00000390: eea4 be37 169b b3b6 1709 b3b7 d258 e337
000003a0: 1541 d130 0000 0000 0400 0000 64ab 8437
000003b0: 0400 0000 f065 e837 0400 0000 0000 0000
000003c0: fd54 af37 a187 a536 8d1b cb37 8e88 fd37
000003d0: 8b48 8a36 9779 9537 3226 9c37 f2c5 aa37
000003e0: 4d8b ea37 ed32 512d 532e d337 0400 0000
000003f0: 0000 0000 3832 85b7 8847 0e38 ae82 25aa

exp_avg_sq f4 [64, 128]
0.0 0.0 0.0 9.2164464e-20 2.306934e-20 5.000567e-20 0.0 0.0
0.0 0.0 1.6259687e-21 0.0 7.9204384e-19 0.0 9.3233634e-26 1.7198382e-18
0.0 0.0 6.5688274e-21 0.0 0.0 0.0 9.3744876e-20 1.7622836e-19
0.0 1.1298066e-18 1.892464e-18 7.0489416e-19 0.0 0.0 0.0 0.0
9.843337e-20 0.0 2.5164165e-25 2.6348918e-19 4.1972558e-19 1.06441834e-19 9.99929e-19 0.0
6.791066e-19 3.835532e-19 2.1485052e-19 0.0 0.0 7.3939323e-19 2.3432466e-21 5.6624876e-19
4.0015077e-19 0.0 0.0 0.0 0.0 0.0 1.2722815e-18 2.6961483e-18
0.0 0.0 3.4896612e-19 2.328494e-19 1.2368501e-18 0.0 1.874446e-18 5.553199e-19
1.401261e-18 0.0 0.0 8.0650266e-28 6.521627e-19 0.0 1.054357e-20 0.0
0.0 1.177212e-18 5.9213964e-26 4.3280687e-18 6.980283e-20 0.0 1.0369344e-18 9.573191e-20
1.8124987e-18 1.5545124e-21 1.298422e-20 1.0904102e-20 2.053685e-18 1.4858321e-19 2.280447e-19 2.4782432e-19
6.7714654e-19 0.0 3.5316223e-19 3.8871357e-19 0.0 0.0 2.6477325e-19 8.678604e-27
1.2047047e-19 4.0322144e-26 8.611039e-25 0.0 1.2768176e-19 1.0991585e-19 1.613799e-18 0.0
1.2255507e-19 0.0 0.0 2.356463e-18 0.0 0.0 0.0 0.0
1.400855e-18 6.037237e-19 3.6931e-18 0.0 8.9554425e-20 1.1882621e-18 2.3415738e-18 2.7153236e-21
0.0 7.9688714e-21 6.128264e-19 0.0 0.0 0.0 9.5634054e-20 7.6902687e-25
7.5331824e-19 0.0 6.313751e-20 4.130078e-09 8.533721e-09 1.07798215e-08 5.517362e-22 2.5445337e-09
8.270075e-09 7.824914e-09 8.969734e-09 0.0 1.9115715e-08 5.8784877e-10 5.687833e-10 1.4954324e-08
3.0510441e-10 4.6904925e-19 1.4521985e-08 0.0 0.0 0.0 1.0696022e-09 1.5322557e-10
0.0 4.6062714e-09 7.330318e-09 4.545729e-09 1.3123523e-17 0.0 4.185121e-28 3.5685368e-08
2.4491868e-17 0.0 3.885838e-09 1.5652452e-09 7.919342e-09 3.720869e-18 1.4133862e-08 7.17711e-09
6.561354e-11 3.897471e-09 2.992608e-09 0.0 2.4560132e-26 9.611443e-09 4.4964463e-09 3.240054e-09
1.25881465e-08 2.529016e-09 1.2989247e-15 0.0 4.422993e-11 0.0 4.3951456e-09 2.5723075e-09
0.0 1.0624106e-10 1.1006805e-08 4.41585e-09 2.476257e-10 0.0 5.7215135e-09 1.5212734e-09
3.850965e-09 0.0 5.9463773e-29 2.985549e-09 2.8064129e-09 0.0 7.952192e-10 0.0
0.0 8.445259e-10 8.2173266e-20 1.368014e-09 9.162945e-17 4.7630913e-09 1.0482793e-08 7.4290485e-09
4.045826e-09 5.6772516e-09 9.501455e-09 4.871344e-12 2.0563066e-08 2.7911111e-09 3.773877e-17 2.5321695e-08
2.6218088e-09 0.0 2.8884029e-09 7.468061e-09 6.7260675e-10 0.0 2.7264402e-09 1.0871464e-10
2.6793241e-11 6.414257e-20 1.6784362e-09 2.4230478e-09 2.4726488e-09 9.955366e-09 4.1964977e-08 1.8744997e-09
1.140132e-09 0.0 8.10466e-32 1.0243694e-08 1.950752e-17 2.2670754e-09 3.0305388e-22 0.0
8.574899e-09 1.18320775e-08 1.2620958e-08 5.100196e-09 1.1700805e-09 4.090222e-09 1.4718169e-08 5.1100957e-10
3.8879446e-09 5.448338e-19 5.650672e-09 1.13647885e-23 0.0 7.961747e-09 4.695468e-09 7.34078e-17
00000000: 0000 0000 0000 0000 0000 0000 009e d91f
00000010: 3ee2 d91e 2525 6c1f 0000 0000 0000 0000
00000020: 0000 0000 0000 0000 9eb5 f51c 0000 0000
00000030: 24c5 6921 0000 0000 d6d5 e615 a6cd fd21
00000040: 0000 0000 0000 0000 cd29 f81d 0000 0000
00000050: 0000 0000 0000 0000 4d59 dd1f c10d 5020
00000060: 0000 0000 e3ba a621 a2a3 0b22 4c0c 5021
00000070: 0000 0000 0000 0000 0000 0000 0000 0000
00000080: 526b e81f 0000 0000 36c2 9b16 5c89 9b20
00000090: 23c3 f720 2454 fb1f 4090 9321 0000 0000
000000a0: d86f 4821 ec68 e220 96a6 7d20 0000 0000
000000b0: 0000 0000 f93a 5a21 fb0c 311d 8c20 2721
000000c0: 1335 ec20 0000 0000 0000 0000 0000 0000
000000d0: 0000 0000 0000 0000 70c1 bb21 cdf0 4622
000000e0: 0000 0000 0000 0000 45fe cd20 3573 8920
000000f0: e086 b621 0000 0000 494f 0a22 c9e6 2321
00000100: 25ca ce21 0000 0000 0000 0000 4597 7f12
00000110: 057c 4021 0000 0000 9329 471e 0000 0000
00000120: 0000 0000 d0b9 ad21 4f9b 9215 74ad 9f22
00000130: 39d1 a41f 0000 0000 4606 9921 640a e21f
00000140: 22bd 0522 49e9 ea1c d643 751e 00f9 4d1e
00000150: 0389 1722 856a 2f20 249d 8620 274a 9220
00000160: bfdb 4721 0000 0000 5e78 d020 bc74 e520
00000170: 0000 0000 0000 0000 674b 9c20 c0e5 2b14
00000180: f739 0e20 64aa 4715 d73f 8517 0000 0000
00000190: 72bd 1620 07c4 0120 9a27 ee21 0000 0000
000001a0: ffaf 1020 0000 0000 0000 0000 54e0 2d22
000001b0: 0000 0000 0000 0000 0000 0000 0000 0000
000001c0: ceba ce21 1330 3221 5840 8822 0000 0000
000001d0: 5474 d31f 465b af21 14c7 2c22 ff29 4d1d
000001e0: 0000 0000 1987 161e dbdf 3421 0000 0000
000001f0: 0000 0000 0000 0000 3dcf e11f 9600 6e17
00000200: 1e57 5e21 0000 0000 4814 951f 8de8 8d31
00000210: b49b 1232 2832 3932 85c0 261c e9db 2e31
00000220: 2d14 0e32 566e 0632 4f19 1a32 0000 0000
00000230: e733 a432 2e96 2130 9158 1c30 e874 8032
00000240: a1bb a72f 5c70 0a21 5e7c 7932 0000 0000
00000250: 0000 0000 0000 0000 4801 9330 2a79 282f
00000260: 0000 0000 3145 9e31 29de fb31 a830 9c31
00000270: 1616 7223 0000 0000 bca1 0412 7a44 1933
00000280: cae5 e123 0000 0000 3184 8531 2b20 d730
00000290: a20d 0832 9d46 8922 62d1 7232 879a f631
000002a0: 2449 902e 84ea 8531 84a6 4d31 0000 0000
000002b0: 553b f314 931f 2532 297f 9a31 a2a7 5e31
000002c0: 4143 5832 ecca 2d31 dd31 bb26 0000 0000
000002d0: 7986 422e 0000 0000 1c04 9731 83c4 3031
000002e0: 0000 0000 66a0 e92e 7118 3d32 3aba 9731
000002f0: 3822 882f 0000 0000 f796 c431 0d15 d130
00000300: 7251 8431 0000 0000 32c2 9610 552a 4d31
00000310: f0da 4031 0000 0000 9496 5a30 0000 0000
00000320: 0000 0000 3a24 6830 b106 c21f b704 bc30
00000330: 7b48 d324 98a8 a331 d017 3432 9a42 ff31
00000340: 7603 8b31 a211 c331 d73b 2332 2b65 ab2c
00000350: a9a2 b032 bfcd 3f31 130a 2e24 ff82 d932
00000360: 592b 3431 0000 0000 527d 4631 e14c 0032
00000370: 7ee2 3830 0000 0000 0b5c 3b31 e710 ef2e
00000380: 04ad eb2d ce73 971f b9ae e630 b582 2631
00000390: 4ceb 2931 2a08 2b32 fb3c 3433 8cd0 0031
000003a0: d4b2 9c30 0000 0000 b468 d20b 3efc 2f32
000003b0: d4ec b323 d0ca 1b31 512f b71b 0000 0000
000003c0: ce50 1332 0746 4b32 8fd3 5832 cc3d af31
000003d0: 8cd0 a030 f989 8c31 31db 7c32 1a77 0c30
000003e0: b996 8531 7ace 2021 d627 c231 b5d3 5b19
000003f0: 0000 0000 22c8 0832 c655 a131 5144 a924

exp_avg f4 [64]
6e-45 1.684157e-05 6e-45 2.44369e-05 0.0 5.221661e-05 3.5631358e-05 -8.801473e-05
6e-45 6e-45 6e-45 2.5042054e-05 3.622986e-05 1.3002365e-05 6e-45 3.469438e-05
6e-45 7.968014e-06 6e-45 6e-45 -4.4893353e-05 -5.1268466e-07 0.0 0.00012615872
9.566708e-05 6e-45 3.877164e-05 1.2538751e-05 6e-45 3.56952e-05 6e-45 6e-45
6e-45 -7.537266e-05 -0.0001360111 6e-45 2.9813495e-05 -0.00010440359 6e-45 6e-45
0.0 6e-45 0.0 0.0 8.261644e-06 6e-45 3.7063637e-05 2.123748e-05
6e-45 1.9973804e-05 6e-45 6e-45 0.0 3.308591e-05 2.9137069e-05 4.9053982e-05
0.0 -4.1219475e-05 -1.2844931e-05 3.2935e-05 6e-45 3.204608e-05 2.4321593e-05 6e-45
00000000: 0400 0000 ff46 8d37 0400 0000 d8fd cc37
00000010: 0000 0000 2803 5b38 e172 1538 8c94 b8b8
00000020: 0400 0000 0400 0000 0400 0000 6711 d237
00000030: 84f5 1738 bc24 5a37 0400 0000 cf84 1138
00000040: 0400 0000 5cae 0537 0400 0000 0400 0000
00000050: df4b 3cb8 6c9f 09b5 0000 0000 7949 0439
00000060: dfa0 c838 0400 0000 bb9e 2238 875d 5237
00000070: 0400 0000 6eb7 1538 0400 0000 0400 0000
00000080: 0400 0000 6411 9eb8 349e 0eb9 0400 0000
00000090: fe17 fa37 40f3 dab8 0400 0000 0400 0000
000000a0: 0000 0000 0400 0000 0000 0000 0000 0000
000000b0: 7e9b 0a37 0400 0000 c774 1b38 2427 b237
000000c0: 0400 0000 6b8d a737 0400 0000 0400 0000
000000d0: 0000 0000 bac5 0a38 616b f437 50bf 4d38
000000e0: 0000 0000 13e3 2cb8 8f80 57b7 b023 0a38
000000f0: 0400 0000 3769 0638 3906 cc37 0400 0000

exp_avg_sq f4 [64]
3.5455955e-17 1.8589171e-07 1.9615532e-15 3.099759e-07 0.0 1.4456984e-06 3.8148326e-07 4.2375444e-08
2.5845127e-15 2.2127902e-22 1.0471408e-14 2.088241e-07 4.2794431e-07 4.7961603e-08 1.6243319e-14 4.0778656e-07
8.828223e-18 4.865942e-08 1.954908e-14 6.935353e-17 7.765356e-07 1.4380994e-07 0.0 7.8738424e-08
4.886947e-07 1.9460743e-15 4.4579286e-07 1.7348685e-07 7.515282e-15 3.7753645e-07 1.2617006e-15 5.3988154e-16
9.632246e-15 5.9031e-08 7.222503e-08 6.960288e-21 3.3161973e-07 7.7031835e-08 5.1928357e-20 1.7680906e-14
0.0 4.182846e-14 0.0 0.0 2.02635e-08 8.843661e-18 4.3614028e-07 2.1344084e-07
1.1808455e-18 1.1359865e-07 6.27443e-15 7.95539e-21 0.0 3.1289352e-07 3.211068e-07 7.1307807e-07
0.0 1.55637e-08 7.20589e-08 4.0833444e-07 2.3813333e-19 2.9791224e-07 1.716711e-07 1.6058286e-15
00000000: 0183 2324 8699 4734 4558 0d27 c36a a634
00000010: 0000 0000 d209 c235 a9ce cc34 4b00 3633
00000020: d83b 3a27 45c1 851b d9a2 3c28 2239 6034
00000030: 38c0 e534 57fe 4d33 8b4e 9228 c2ed da34
00000040: 1bda 2223 99fd 5033 1c15 b028 19eb 9f24
00000050: 1f73 5035 2d6a 1a34 0000 0000 e816 a933
00000060: d82e 0335 bc3a 0c27 4e55 ef34 b447 3a34
00000070: 1f62 0728 37b0 ca34 89d4 b526 3a9c 1b26
00000080: e584 2d28 4589 7d33 211a 9b33 e379 031e
00000090: 7809 b234 b36c a533 8839 751f 6541 9f28
000000a0: 0000 0000 ee60 3c29 0000 0000 0000 0000
000000b0: e80f ae32 0223 2323 aa26 ea34 2c2e 6534
000000c0: 1543 ae21 85f3 f333 670f e227 e845 161e
000000d0: 0000 0000 c2fb a734 9564 ac34 5a6a 3f35
000000e0: 0000 0000 f0b0 8532 cdbe 9a33 0f39 db34
000000f0: b191 8c20 bff0 9f34 9854 3834 9e6c e726

exp_avg f4 [2, 64]
-6e-45 0.00011817313 6e-45 0.0003539856 0.0 -0.00023810878 0.000302892 0.0005264334
-6e-45 6e-45 -6e-45 0.0003553651 0.00030614444 0.00022455532 -6e-45 0.0003391109
6e-45 0.00014333903 -6e-45 -6e-45 -0.0001789853 0.0005500682 0.0 0.00010711355
-3.4239358e-05 -6e-45 0.00034603034 0.00012784435 6e-45 0.0003155029 -6e-45 -6e-45
6e-45 0.00021691356 0.0006154827 6e-45 0.0002680613 0.00056887674 6e-45 -6e-45
0.0 -6e-45 0.0 0.0 0.00011220815 -6e-45 0.00029731842 0.00029265424
-6e-45 0.0003797157 -6e-45 6e-45 0.0 0.00027499077 0.00024264297 0.00036782524
0.0 0.0004306355 -7.3106356e-05 0.0002804632 6e-45 0.00033961504 0.00042669108 -6e-45
-6e-45 4.1463204e-07 6e-45 -6.0879996e-05 0.0 0.00029203942 -6.998219e-05 -2.4550052e-05
-6e-45 -6e-45 -6e-45 -7.5737415e-05 -3.7970378e-05 -2.2955965e-05 -6e-45 -3.7081332e-05
-6e-45 -1.5455993e-05 -6e-45 -6e-45 0.00022223327 -7.0176975e-05 0.0 -5.417929e-07
4.470336e-05 -6e-45 -7.57985e-05 -1.896282e-05 -6e-45 -6.624234e-05 -6e-45 -6e-45
-6e-45 -3.979571e-05 -0.000110160196 -6e-45 -3.0647832e-05 -6.004807e-05 6e-45 -6e-45
0.0 -6e-45 0.0 0.0 -1.9094825e-05 -6e-45 -5.4409218e-05 -4.689104e-05
6e-45 -7.3339994e-05 -6e-45 -6e-45 0.0 -7.227723e-05 -4.580705e-05 -8.424567e-05
0.0 -4.1585274e-05 6.8438836e-05 -2.1465336e-05 6e-45 -5.897842e-05 -9.363615e-05 -6e-45
00000000: 0400 0080 b7d3 f738 0400 0000 2597 b939
00000010: 0000 0000 d7ac 79b9 7acd 9e39 5900 0a3a
00000020: 0400 0080 0400 0000 0400 0080 4c50 ba39
00000030: 0382 a039 9c76 6b39 0400 0080 b2ca b139
00000040: 0400 0000 474d 1639 0400 0080 0400 0080
00000050: 00ae 3bb9 7432 103a 0000 0000 26a2 e038
00000060: 3b9c 0fb8 0400 0080 686b b539 f50d 0639
00000070: 0400 0000 156a a539 0400 0080 0400 0080
00000080: 0400 0000 4a73 6339 5858 213a 0400 0000
00000090: 948a 8c39 ac20 153a 0400 0000 0400 0080
000000a0: 0000 0000 0400 0080 0000 0000 0000 0000
000000b0: 4b51 eb38 0400 0080 67e1 9b39 636f 9939
000000c0: 0400 0080 9414 c739 0400 0080 0400 0000
000000d0: 0000 0000 a32c 9039 fa6d 7e39 abd8 c039
000000e0: 0000 0000 ebc6 e139 ad50 99b8 220b 9339
000000f0: 0400 0000 5c0e b239 82b5 df39 0400 0080
00000100: 0400 0080 989a de34 0400 0000 6659 7fb8
00000110: 0000 0000 de1c 9939 67c3 92b8 d6f0 cdb7
00000120: 0400 0080 0400 0080 0400 0080 37d5 9eb8
00000130: 6242 1fb8 8f91 c0b7 0400 0080 c787 1bb8
00000140: 0400 0080 7ea7 81b7 0400 0080 0400 0080
00000150: 4a07 6939 fa2b 93b8 0000 0000 b96f 11b5
00000160: de7f 3b38 0400 0080 03f6 9eb8 5912 9fb7
00000170: 0400 0080 96eb 8ab8 0400 0080 0400 0080
00000180: 0400 0080 51ea 26b8 ce05 e7b8 0400 0080
00000190: dc8b 00b8 20dc 7bb8 0400 0000 0400 0080
000001a0: 0000 0000 0400 0080 0000 0000 0000 0000
000001b0: d32d a0b7 0400 0080 7435 64b8 dfac 44b8
000001c0: 0400 0000 1cce 99b8 0400 0080 0400 0080
000001d0: 0000 0000 8b93 97b8 f220 40b8 0dad b0b8
000001e0: 0000 0000 d96b 2eb8 d286 8f38 7510 b4b7
000001f0: 0400 0000 995f 77b8 865e c4b8 0400 0080
