001-machine_learning/Data/00001-MLP-temperature/checkpoint.pth (torch_old, 429889 bytes, 15 tensors)

exp_avg f4 [256, 9]
00000000: 0400 0000 0000 0000 0400 0000 0400 0000
00000010: 0400 0000 0400 0000 0400 0000 0400 0000
00000020: 0400 0000 2dd7 5cb7 0000 0000 7df3 e7b3
00000030: ab1c f7b6 48c7 b8b7 7e2f e2b5 c142 37b8
00000040: f011 f0b6 a9d6 feb6 0000 0000 0000 0000
00000050: 0000 0000 0000 0000 0000 0000 0000 0000
00000060: 0000 0000 0000 0000 0000 0000 f763 80b6
00000070: 0000 0000 c7b1 7b31 dcf6 0bb6 73e6 69b7
00000080: c149 1eb5 a7df abb7 f090 b3b5 0223 0ab6
00000090: b52d 42b4 0000 0000 14c6 f530 b72d cfb3
000000a0: d6b2 87b5 feb9 feb2 d979 b0b5 ba33 60b3
000000b0: 7d6c ceb3 0400 0000 0000 0000 0400 0000
000000c0: 0400 0000 0400 0000 0400 0000 0400 0000
000000d0: 0400 0000 0400 0000 0000 0000 0000 0000
000000e0: 0000 0000 0000 0000 0000 0000 0000 0000
000000f0: 0000 0000 0000 0000 0000 0000 0400 0000
00000100: 0000 0000 0400 0000 0400 0000 0400 0000
00000110: 0400 0000 0400 0000 0400 0000 0400 0000
00000120: 0000 0000 0000 0000 0000 0000 0000 0000
00000130: 0000 0000 0000 0000 0000 0000 0000 0000
00000140: 0000 0000 63b7 b5b6 0000 0000 bc57 09b3
00000150: 7271 4ab6 e259 2bb7 5209 3eb5 b0f0 a0b7
00000160: d4a5 3cb6 6df0 4eb6 a615 e638 0000 0000
00000170: c773 4237 cccd cd38 2da4 e636 7130 a538
00000180: 432c 3e38 ccf7 7338 a8ba da38 bc5c f7b1
00000190: 0000 0000 ccc2 0e32 7959 6831 35a3 5ab5
000001a0: 7454 29b1 8abe 4bb5 047f 24b2 f89a 0932
000001b0: 40c7 b538 0000 0000 eca9 1537 30c4 9a38
000001c0: 1a78 8a36 339c 5038 be6e 5038 97f5 8538
000001d0: 620c ac38 146f 9e38 0000 0000 c54e b4b5
000001e0: 47bf 8e38 2e29 2f34 dfa5 4d38 0bea f737
000001f0: e002 6a38 4cc8 9e38 af09 ba38 0000 0000
00000200: b4c8 e1b6 259d af38 7498 8d34 68bd 9938
00000210: aba9 b937 5f90 3138 b186 b638 0400 0000
00000220: 0000 0000 0400 0000 0400 0000 0400 0080
00000230: 0400 0000 0400 0000 0400 0000 0400 0000
00000240: 0400 0000 0000 0000 0400 0000 0400 0000
00000250: 0400 0080 0400 0000 0400 0000 0400 0000
00000260: 0400 0000 03de d338 0000 0000 bbea 09b6
00000270: 34a7 c338 f7ad 8935 5d8d a638 a698 0138
00000280: f908 5238 4275 cc38 8744 4439 0000 0000
00000290: 9e15 a336 9913 2d39 bb14 6937 2ce1 0a39
000002a0: fffb c338 3bbb cc38 dbcc 3539 e91c ae06
000002b0: 0000 0000 6ff4 5602 e7f3 4006 5ca0 5e07
000002c0: 572a 4605 4919 bb07 6376 1106 88e3 3e06
000002d0: 38c7 2639 0000 0000 02fb 9337 f887 1039
000002e0: 2f24 cb37 2162 d938 0ef6 cc38 70cb c138
000002f0: 9e24 1b39 d662 8834 0000 0000 4b13 3c32
00000300: 6d10 1e34 00f8 f935 4464 2d33 ac6e 2136
00000310: 148c 6433 3b96 2634 423e 4539 0000 0000
00000320: 3914 e8b5 7a08 3039 ce0d 2d37 e653 0c39
00000330: 7c67 b038 9b87 d838 c0aa 3a39 0000 0000
00000340: 0000 0000 0000 0000 0000 0000 0000 0000
00000350: 0000 0000 0000 0000 0000 0000 0000 0000
00000360: 28d8 c638 0000 0000 1bb0 6036 19d1 c138
00000370: 5868 2231 3f09 b338 5cdb 3137 d845 2038
00000380: 9053 c738 0000 0000 0000 0000 0000 0000
00000390: 0000 0000 0000 0000 0000 0000 0000 0000
000003a0: 0000 0000 0000 0000 0000 0000 0000 0000
000003b0: 0000 0000 0000 0000 0000 0000 0000 0000
000003c0: 0000 0000 0000 0000 0000 0000 a9e0 e836
000003d0: 0000 0000 a41d aa35 e06c 9a36 6e25 8c36
000003e0: c089 9935 ddda 4f37 2d8f e236 9a3a ba36
000003f0: 98ca feb6 0000 0000 743a 6cb4 4ea3 91b6
6e-45 0.0 6e-45 6e-45 6e-45 6e-45 6e-45 6e-45
6e-45 -1.3163121e-05 0.0 -1.0801066e-07 -7.364511e-06 -2.2027307e-05 -1.6852134e-06 -4.369277e-05
-7.1546456e-06 -7.5947796e-06 0.0 0.0 0.0 0.0 0.0 0.0
0.0 0.0 0.0 -3.8263347e-06 0.0 3.6626362e-09 -2.0856305e-06 -1.3941538e-05
-5.896691e-07 -2.0488935e-05 -1.3378722e-06 -2.058398e-06 -1.8084286e-07 0.0 1.7882393e-09 -9.647504e-08
-1.0110332e-06 -2.9654071e-08 -1.3148484e-06 -5.220111e-08 -9.6123564e-08 6e-45 0.0 6e-45
6e-45 6e-45 6e-45 6e-45 6e-45 6e-45 0.0 0.0
0.0 0.0 0.0 0.0 0.0 0.0 0.0 6e-45
0.0 6e-45 6e-45 6e-45 6e-45 6e-45 6e-45 6e-45
0.0 0.0 0.0 0.0 0.0 0.0 0.0 0.0
0.0 -5.4155694e-06 0.0 -3.1977592e-08 -3.016638e-06 -1.0213322e-05 -7.079408e-07 -1.9185565e-05
-2.8110708e-06 -3.0836338e-06 0.00010971287 0.0 1.1590258e-05 9.8134944e-05 6.8736467e-06 7.876836e-05
4.5340752e-05 5.8166494e-05 0.000104298175 -7.199189e-09 0.0 8.3097795e-09 3.3811303e-09 -8.1448826e-07
-2.4640743e-09 -7.5900664e-07 -9.574936e-09 8.009685e-09 8.667866e-05 0.0 8.920655e-06 7.379835e-05
4.126702e-06 4.9736536e-05 4.96942e-05 6.387679e-05 8.2039056e-05 7.554717e-05 0.0 -1.343397e-06
6.806716e-05 1.6313126e-07 4.903029e-05 2.955368e-05 5.5792625e-05 7.571335e-05 8.870975e-05 0.0
-6.7288875e-06 8.373921e-05 2.637422e-07 7.330888e-05 2.2132726e-05 4.2334545e-05 8.7035245e-05 6e-45
0.0 6e-45 6e-45 -6e-45 6e-45 6e-45 6e-45 6e-45
6e-45 0.0 6e-45 6e-45 -6e-45 6e-45 6e-45 6e-45
6e-45 0.00010102617 0.0 -2.0551222e-06 9.3294686e-05 1.0257926e-06 7.941828e-05 3.089816e-05
5.0076258e-05 9.749319e-05 0.00018717545 0.0 4.860295e-06 0.00016505866 1.3892709e-05 0.00013244589
9.3452625e-05 9.7623524e-05 0.0001733782 6.5494005e-35 0.0 1.5792386e-37 3.6290378e-35 1.6748549e-34
9.317692e-36 2.8151494e-34 2.7358446e-35 3.5902192e-35 0.00015905208 0.0 1.764065e-05 0.00013783562
2.4216335e-05 0.00010365644 9.773309e-05 9.24085e-05 0.00014795593 2.5403887e-07 0.0 1.0947427e-08
1.4720872e-07 1.8624123e-06 4.0370892e-08 2.405529e-06 5.3212787e-08 1.5514608e-07 0.00018810577 0.0
-1.7291233e-06 0.00016787826 1.0314818e-05 0.00013382695 8.4116095e-05 0.00010324941 0.00017801952 0.0
0.0 0.0 0.0 0.0 0.0 0.0 0.0 0.0
9.481638e-05 0.0 3.3481108e-06 9.2419046e-05 2.3633415e-09 8.537107e-05 1.0601096e-05 3.821202e-05
9.504624e-05 0.0 0.0 0.0 0.0 0.0 0.0 0.0
0.0 0.0 0.0 0.0 0.0 0.0 0.0 0.0
0.0 0.0 0.0 6.9402927e-06 0.0 1.2674614e-06 4.6022324e-06 4.1766825e-06
1.1439479e-06 1.238912e-05 6.7519927e-06 5.550054e-06 -7.593375e-06 0.0 -2.2000478e-07 -4.340348e-06

exp_avg_sq f4 [256, 9]
00000000: 8e34 1a2e 0000 0000 a39b 362b 8367 162e
00000010: 0000 0000 053f 092e f2a0 0e29 c525 8c2c
00000020: 7119 1c2e 41d1 1432 0000 0000 b008 0a2f
00000030: e099 6531 445b 7933 6051 562f 459f 0c34
00000040: ae77 c331 5650 9931 0000 0000 0000 0000
00000050: 0000 0000 0000 0000 0000 0000 0000 0000
00000060: 0000 0000 0000 0000 0000 0000 466e 1f31
00000070: 0000 0000 9204 bb2e 63ce a030 e9d1 2833
00000080: fb6f c62f 76ca 7a33 f94e 4230 c778 b730
00000090: 23e2 9632 0000 0000 3544 0a30 59af 0b32
000000a0: 935a cc33 9503 bf30 dc8a 5e34 4b06 2832
000000b0: 0974 3232 9128 1d30 0000 0000 b647 072c
000000c0: 9076 1b30 0000 0000 9067 1530 6691 e729
000000d0: 1a13 4f2e 7b02 1e30 0000 0000 0000 0000
000000e0: 0000 0000 0000 0000 0000 0000 0000 0000
000000f0: 0000 0000 0000 0000 0000 0000 4155 9833
00000100: 0000 0000 6495 9131 0785 1133 4fd0 1333
00000110: 073e bd31 cb1f 6934 85c1 4633 b3a4 4233
00000120: 0000 0000 0000 0000 0000 0000 0000 0000
00000130: 0000 0000 0000 0000 0000 0000 0000 0000
00000140: 0000 0000 c14d 7833 0000 0000 b695 c52f
00000150: b4f7 ab32 f725 e434 7846 8730 7117 8535
00000160: 31dd 0033 60c3 d932 42ca 8934 0000 0000
00000170: ad1c c732 c78e 3c34 1fff 4c33 c4a7 b933
00000180: fb32 ac34 0e01 1034 fb8c 6834 bc51 af30
00000190: 0000 0000 ab0c 562c 32e3 e82f ec5e 8532
000001a0: 7ba4 b72d b0e1 fd32 a240 1c30 0302 0c30
000001b0: e2a2 6834 0000 0000 5d99 9732 8f51 1334
000001c0: be41 cb34 e8ed 7c33 80f0 8135 284d 0234
000001d0: d596 3834 2192 a034 0000 0000 2361 2733
000001e0: bd0b 8934 f087 682f 46db 3534 8814 0233
000001f0: bb53 0134 9ce9 a134 6c26 4c34 0000 0000
00000200: 8a93 ae32 4484 1f34 cb72 de30 d9be ba33
00000210: 03cd 5f33 96a3 b433 4780 3f34 431b 8e32
00000220: 0000 0000 a31a 3931 4e35 7a32 e89a 022b
00000230: b712 2632 150c 3c30 adde e131 2032 9532
00000240: a319 5031 0000 0000 b47d 9630 9527 2831
00000250: 383f 282c 48bc 9c30 0579 552f ca08 0531
00000260: 0794 6231 f0f8 9f34 0000 0000 003f 2233
00000270: ab36 8534 8584 d12f 7dda 2b34 1ef1 3e33
00000280: 6f5f 0b34 d4a5 9e34 8228 2635 0000 0000
00000290: d419 4b33 a558 d934 f046 cf35 9840 4e34
000002a0: daa9 6936 4fed af34 81ec 0535 fd2e 2833
000002b0: 0000 0000 262b 0830 e013 8232 daeb b434
000002c0: 2c44 8730 d729 4135 6d5f d432 902e ac32
000002d0: e748 5934 0000 0000 9bb4 8232 bffc f933
000002e0: 61cb 0235 5525 2933 84be a135 dc7b 0634
000002f0: f53c 2134 5756 e22f 0000 0000 63c8 ed28
00000300: 1f01 0b2f fb20 cf33 a51f 202d d709 f633
00000310: 492c 7f2e deff 0b2f b1cc b834 0000 0000
00000320: c30a 1633 90a4 8934 9d16 3931 e464 1734
00000330: f3f1 0e34 0afc 3d34 8847 a834 0000 0000
00000340: 0000 0000 0000 0000 0000 0000 0000 0000
00000350: 0000 0000 0000 0000 0000 0000 0000 0000
00000360: 70a0 9634 0000 0000 8b46 1233 2576 7834
00000370: 20f0 0b30 9bce 1e34 95fb 5e33 f56b 0934
00000380: 17a9 9434 0000 0000 0000 0000 0000 0000
00000390: 0000 0000 0000 0000 0000 0000 0000 0000
000003a0: 0000 0000 0000 0000 0000 0000 0000 0000
000003b0: 0000 0000 0000 0000 0000 0000 0000 0000
000003c0: 0000 0000 0000 0000 0000 0000 6ef1 a032
000003d0: 0000 0000 2c69 3230 244d 2332 dcf9 d033
000003e0: 343f 4831 088d 6734 0191 2032 1486 4932
000003f0: 0647 5a34 0000 0000 a7e2 cf31 bf34 b833
3.5062224e-11 0.0 6.487538e-13 3.4197988e-11 0.0 3.1206166e-11 3.1669932e-14 3.9832326e-12
3.549289e-11 8.662313e-09 0.0 1.2554113e-10 3.3411354e-09 5.8057836e-08 1.9492097e-10 1.3096458e-07
5.688853e-09 4.462019e-09 0.0 0.0 0.0 0.0 0.0 0.0
0.0 0.0 0.0 2.3200228e-09 0.0 8.504587e-11 1.1700191e-09 3.930646e-08
3.6095557e-10 5.8391798e-08 7.0689016e-10 1.3349329e-09 1.7565133e-08 0.0 5.0301036e-10 8.130734e-09
9.5159656e-08 1.3898097e-09 2.0725878e-07 9.780318e-09 1.0387347e-08 5.7173916e-10 0.0 1.9224461e-12
5.655716e-10 0.0 5.4353055e-10 1.02836834e-13 4.7083316e-11 5.748359e-10 0.0 0.0
0.0 0.0 0.0 0.0 0.0 0.0 0.0 7.093559e-08
0.0 4.237039e-09 3.388143e-08 3.441556e-08 5.5076756e-09 2.1711382e-07 4.6276472e-08 4.5318938e-08
0.0 0.0 0.0 0.0 0.0 0.0 0.0 0.0
0.0 5.7812716e-08 0.0 3.5940467e-10 2.0019662e-08 4.2495932e-07 9.842571e-10 9.916095e-07
3.0003495e-08 2.5350971e-08 2.56654e-07 0.0 2.317969e-08 1.7560806e-07 4.7729483e-08 8.64525e-08
3.207459e-07 1.3411429e-07 2.1657972e-07 1.2756156e-09 0.0 3.0418261e-12 4.2361986e-10 1.5526403e-08
2.0877735e-11 2.9555707e-08 5.684432e-10 5.093456e-10 2.166594e-07 0.0 1.7648455e-08 1.3720113e-07
3.785953e-07 5.8889697e-08 9.681244e-07 1.2135263e-07 1.7191208e-07 2.9908645e-07 0.0 3.8971063e-08
2.552678e-07 2.1148572e-10 1.693671e-07 3.0286657e-08 1.2044522e-07 3.015856e-07 1.9012958e-07 0.0
2.0323359e-08 1.4856147e-07 1.6185252e-09 8.696015e-08 5.210769e-08 8.411659e-08 1.7834928e-07 1.6543373e-08
0.0 2.6936184e-09 1.4564035e-08 4.6400253e-13 9.666727e-09 6.841117e-10 6.573677e-09 1.7368677e-08
3.0282556e-09 0.0 1.0949663e-09 2.4469717e-09 2.390933e-12 1.1404007e-09 1.9415232e-10 1.9359043e-09
3.2971472e-09 2.9797184e-07 0.0 3.7775862e-08 2.4812957e-07 3.811104e-10 1.6005102e-07 4.4457117e-08
1.2980102e-07 2.955045e-07 6.1898766e-07 0.0 4.728811e-08 4.0483897e-07 1.5443347e-06 1.9208744e-07
3.4818572e-06 3.2768955e-07 4.989052e-07 3.9158284e-08 0.0 4.953783e-10 1.514303e-08 3.3699217e-07
9.841918e-10 7.195899e-07 2.4723443e-08 2.004461e-08 2.0236222e-07 0.0 1.5216122e-08 1.164094e-07
4.872473e-07 3.9382332e-08 1.2050882e-06 1.2524782e-07 1.501647e-07 4.117051e-10 0.0 2.639919e-14
1.2642375e-10 9.645188e-08 9.1019735e-12 1.14570575e-07 5.801962e-11 1.2732879e-10 3.4421603e-07 0.0
3.4934384e-08 2.5637974e-07 2.6933897e-09 1.4099675e-07 1.3312801e-07 1.7693688e-07 3.1344484e-07 0.0
0.0 0.0 0.0 0.0 0.0 0.0 0.0 0.0
2.805641e-07 0.0 3.4057432e-08 2.313978e-07 5.0909144e-10 1.479006e-07 5.1917215e-08 1.2798394e-07
2.7690177e-07 0.0 0.0 0.0 0.0 0.0 0.0 0.0
0.0 0.0 0.0 0.0 0.0 0.0 0.0 0.0
0.0 0.0 0.0 1.8736241e-08 0.0 6.490548e-10 9.5053885e-09 9.731204e-08
2.9139757e-09 2.1564858e-07 9.346196e-09 1.1730226e-08 2.032867e-07 0.0 6.0502603e-09 8.577762e-08

exp_avg f4 [256]
00000000: 0400 0000 d9c4 60b8 0000 0000 b74f c3b7
00000010: 2489 c1b5 0400 0000 0000 0000 0400 0000
00000020: 0000 0000 d700 c3b7 f2d3 1739 4db7 45b5
00000030: 3d22 0139 980e c638 ab65 db38 0400 0000
00000040: 0400 0000 32ca 0139 7e4b 8939 7833 dc07
00000050: f1df 7939 6868 3036 0c71 8439 0000 0000
00000060: b27d d638 0000 0000 0000 0000 767e 9137
00000070: 5e4f c9b7 0000 0000 7cf7 eb38 b50a 5839
00000080: 4ea8 4539 0000 0000 0400 0000 0400 0000
00000090: a24c f5b7 b563 b3b7 18b3 e4b7 0000 0000
000000a0: 0400 0000 ee19 9b38 0400 0000 4a81 6539
000000b0: 0000 0000 a509 e538 38ca cab7 6a0b deb7
000000c0: 0400 0000 c5ee 5239 0000 0000 6da0 1439
000000d0: 1e4a a239 0190 4939 5771 0439 0400 0000
000000e0: 0400 0000 9d8a d40e 7c41 94b8 0400 0000
000000f0: 0000 0000 0245 8ab5 34fe 1e39 3d81 02b8
00000100: 0400 0000 af10 2239 0400 0000 0400 0000
00000110: 2d5e f838 481a c6b7 0400 0000 8ed3 b638
00000120: 5000 3238 0400 0000 0400 0000 c0bb 3439
00000130: 0400 0000 0000 0000 0000 0000 0000 0000
00000140: 0e1b 0139 8233 0f39 0000 0000 0000 0000
00000150: 0000 0000 0000 0000 0400 0000 0000 0000
00000160: 0000 0000 0400 0000 0000 0000 3d01 1a39
00000170: 0000 0000 9456 90b5 0000 0000 0000 0000
00000180: 82cf 3d38 0db9 0d36 0000 0000 305c 7eb4
00000190: 09a2 3e39 1b99 0bb6 5ad5 28b5 0000 0000
000001a0: 0000 0000 f17c 00b8 0000 0000 0400 0000
000001b0: 7a22 4bb5 0400 0000 0400 0000 639b 3338
000001c0: 0400 0000 cfe2 8638 0400 0000 ebca df38
000001d0: 0400 0000 0000 0000 35df eeb7 0000 0000
000001e0: 0400 0000 d6a4 3d1b ac56 aab7 d6af 16b8
000001f0: 020d 8b38 d557 3d39 b641 bf38 ce4a d0b6
00000200: d2d3 1cb5 bb08 5d39 0000 0000 0000 0000
00000210: 4c0e 0100 0000 0000 0400 0000 5319 23b8
00000220: d15d ba38 3cd8 9338 0000 0000 9aa0 0100
00000230: bbda 3cb7 0000 0000 0400 0000 12ef d038
00000240: 0000 0000 4bfc 3635 0400 0000 6a1c 2a39
00000250: 52cc b738 b5e5 0839 ea94 fb38 0400 0000
00000260: d0a2 f1b7 0b33 21b8 26cb f6b7 0400 0000
00000270: 64a5 4436 0400 0000 9536 4739 0400 0000
00000280: 0400 0000 1f70 9033 0000 0000 cff6 9db7
00000290: 0000 0000 d1e1 c738 dbf6 4d39 6774 8b38
000002a0: 0000 0000 0000 0000 4fdc deb5 0000 0000
000002b0: 0000 0000 0000 0000 0831 2db8 0400 0000
000002c0: 0400 0000 ff13 6cb6 578a 8b38 0000 0000
000002d0: 0400 0000 0400 0000 0a10 2d37 0400 0000
000002e0: 0400 0000 0000 0000 0000 0000 cfe6 bcb7
000002f0: 0000 0000 1616 b735 0400 0000 7b36 0cb8
00000300: 9a77 1838 ad07 97b7 1ce8 3f39 0400 0000
00000310: 827b 93b7 33d9 1438 0400 0000 b6ec c038
00000320: 62b1 0ab8 0400 0000 e4e2 e138 0000 0000
00000330: 0400 0000 2622 4439 86ff 0fb8 9b35 f038
00000340: 2699 9839 0400 0000 8564 bd38 0400 0000
00000350: 0000 0000 8ef8 d9b7 0400 0000 8a80 7539
00000360: 0400 0000 9f89 31b8 0000 0000 0400 0000
00000370: 6077 b7b4 e9f1 3339 0000 0000 e707 b0b7
00000380: 8c8c 6139 0400 0000 3d2b 2139 0137 84b7
00000390: 3d32 9338 0000 0000 0000 0000 0000 0000
000003a0: 8452 bbb4 0400 0000 9654 0bb8 6c34 00b6
000003b0: 49df d038 2d13 4038 4788 4e39 6fca 3eb7
000003c0: f193 2339 0400 0000 0400 0000 faad a538
000003d0: d763 0db6 0000 0000 3bfe 4137 0400 0000
000003e0: 0400 0000 0000 0000 0000 0000 23a1 f5b4
000003f0: fed4 0e39 0400 0000 0000 0000 0199 e8b7
6e-45 -5.358909e-05 0.0 -2.3282932e-05 -1.4419534e-06 6e-45 0.0 6e-45
0.0 -2.3246203e-05 0.00014479438 -7.3654957e-07 0.00012315153 9.444094e-05 0.00010461671 6e-45
6e-45 0.00012377722 0.00026186922 3.3132172e-34 0.00023829915 2.6286816e-06 0.00025261228 0.0
0.00010227728 0.0 0.0 1.7344235e-05 -2.3998025e-05 0.0 0.00011251771 0.00020603354
0.00018850082 0.0 6e-45 6e-45 -2.924196e-05 -2.1384893e-05 -2.7263115e-05 0.0
6e-45 7.395806e-05 6e-45 0.00021887306 0.0 0.00010921367 -2.4174442e-05 -2.6469777e-05
6e-45 0.00020116109 0.0 0.00014174143 0.0003095427 0.000192225 0.00012630723 6e-45
6e-45 5.2395515e-30 -7.069387e-05 6e-45 0.0 -1.0301885e-06 0.00015162752 -3.1114778e-05
6e-45 0.00015455739 6e-45 6e-45 0.00011843103 -2.3615677e-05 6e-45 8.7178414e-05
4.2438798e-05 6e-45 6e-45 0.0001723608 6e-45 0.0 0.0 0.0
0.00012312477 0.00013656731 0.0 0.0 0.0 0.0 6e-45 0.0
0.0 6e-45 0.0 0.00014687046 0.0 -1.0754034e-06 0.0 0.0
4.5254368e-05 2.111835e-06 0.0 -2.3689131e-07 0.00018180175 -2.0801733e-06 -6.2895344e-07 0.0
0.0 -3.063394e-05 0.0 6e-45 -7.5673563e-07 6e-45 6e-45 4.282164e-05
6e-45 6.431864e-05 6e-45 0.00010671265 6e-45 0.0 -2.847575e-05 0.0
6e-45 1.5686975e-22 -2.0305939e-05 -3.5926547e-05 6.6304594e-05 0.00018057165 9.119829e-05 -6.2075915e-06
-5.842277e-07 0.00021079455 0.0 0.0 9.6964e-41 0.0 6e-45 -3.8885813e-05
8.886646e-05 7.049783e-05 0.0 1.49448e-40 -1.12566e-05 0.0 6e-45 9.962743e-05
0.0 6.816742e-07 6e-45 0.00016223048 8.7641776e-05 0.00013055543 0.0001199635 6e-45
-2.8805254e-05 -3.843293e-05 -2.9420084e-05 6e-45 2.9302546e-06 6e-45 0.00018998452 6e-45
6e-45 6.725917e-08 0.0 -1.8830788e-05 0.0 9.531121e-05 0.00019642284 6.649718e-05
0.0 0.0 -1.6604407e-06 0.0 0.0 0.0 -4.1292078e-05 6e-45
6e-45 -3.517838e-06 6.653804e-05 0.0 6e-45 6e-45 1.0315338e-05 6e-45
6e-45 0.0 0.0 -2.2518825e-05 0.0 1.364099e-06 6e-45 -3.342934e-05
3.635101e-05 -1.8004177e-05 0.00018301647 6e-45 -1.7581278e-05 3.5488232e-05 6e-45 9.199364e-05
-3.3066965e-05 6e-45 0.00010771098 0.0 6e-45 0.00018704738 -3.433183e-05 0.000114540766
0.00029105804 6e-45 9.0309455e-05 6e-45 0.0 -2.5984158e-05 6e-45 0.00023412905
6e-45 -4.2328258e-05 0.0 6e-45 -3.4173263e-07 0.00017160889 0.0 -2.0984515e-05
0.0002151003 6e-45 0.00015370264 -1.576124e-05 7.018864e-05 0.0 0.0 0.0
-3.4891502e-07 6e-45 -3.321896e-05 -1.9104e-06 9.959803e-05 4.5794226e-05 0.00019696458 -1.1372015e-05
0.00015600004 6e-45 6e-45 7.900219e-05 -2.1068752e-06 0.0 1.1562889e-05 6e-45
6e-45 0.0 0.0 -4.5752049e-07 0.00013621521 6e-45 0.0 -2.7727803e-05

exp_avg_sq f4 [256]
00000000: f111 212e f5bd 4434 0000 0000 a223 9d33
00000010: ac49 a534 822f 2030 0000 0000 8b3f ee34
00000020: 0000 0000 5947 b735 d47a 6635 799a 2433
00000030: ae83 e135 9e63 d934 d3ad b634 b274 aa32
00000040: 21d3 7d31 5b9b e834 6e36 b936 8ef7 8335
00000050: 4994 0536 8819 0434 891c 3635 0000 0000
00000060: 92b0 e234 0000 0000 0000 0000 0410 a834
00000070: ec69 8536 0000 0000 b10b da34 d78f cc34
00000080: 9f2e 3c36 0000 0000 f611 b233 fee9 502f
00000090: ffed 3133 ee7d 5134 dfde f635 0000 0000
000000a0: f4ad 4436 91f4 fa34 1fca 2f32 5b69 c135
000000b0: 0000 0000 64bf 7936 4c23 fb35 2c14 d734
000000c0: c371 b734 f938 0635 0000 0000 7f90 ef34
000000d0: 8d7b 8635 685f 1134 1d56 1535 054f fa29
000000e0: abf2 8f33 b62c a334 bd27 b835 2c2d e72f
000000f0: 0000 0000 ac70 0832 0283 3435 a78a d035
00000100: 5166 f134 fe6e f934 085b 2f36 fcc2 fc34
00000110: b4ad c134 0b54 1035 0e8c 832e 16a1 8635
00000120: 1da7 5534 1997 2034 5c6e e532 2d45 1436
00000130: 3be3 c432 0000 0000 0000 0000 0000 0000
00000140: 953f 0b35 7f05 c936 0000 0000 0000 0000
00000150: 0000 0000 0000 0000 2ee2 ed30 0000 0000
00000160: 0000 0000 a9ae 0633 0000 0000 29b9 3135
00000170: 0000 0000 a240 1833 0000 0000 0000 0000
00000180: c8b0 7334 23d6 4032 0000 0000 4dff 4234
00000190: 795a 9434 24c3 dc32 7220 e832 0000 0000
000001a0: 0000 0000 c56b d935 0000 0000 305c ca35
000001b0: 8739 3a34 f8b5 2436 14b0 1e34 fd16 a434
000001c0: 3eab 4e33 2d6c 2b36 12a5 5232 d7a3 ac34
000001d0: 9248 e532 0000 0000 5d00 5a35 0000 0000
000001e0: 498a 7533 4260 1935 5235 7133 66af ea34
000001f0: 2c38 0136 6d1c 0336 e3fc eb34 020d b735
00000200: f01a 9835 9966 0135 0000 0000 0000 0000
00000210: a317 e234 0000 0000 5f0a d835 7ed3 0f35
00000220: 6ba5 8534 77b9 2536 0000 0000 4f19 d134
00000230: c608 f536 0000 0000 4dbb cc34 086f 8f35
00000240: 0000 0000 0f22 f834 23f7 0b33 77ef 0635
00000250: 7aa1 e234 aa7d 1135 1866 2f36 7056 d833
00000260: 38c9 0934 4a19 d035 1422 4a34 da41 732f
00000270: 8ab2 bf34 15a3 1e31 8aeb b734 9fa8 be31
00000280: 7763 0736 7231 4f35 0000 0000 0a77 7835
00000290: 0000 0000 fc9e 4d34 35a1 0d36 70db 9d35
000002a0: 0000 0000 0000 0000 f88f c233 0000 0000
000002b0: 0000 0000 0000 0000 7882 9835 00b6 f830
000002c0: 6882 0f32 3819 b834 4353 1135 0000 0000
000002d0: ff27 9835 2de4 d134 17ac d633 7e7d 1335
000002e0: f9c7 5332 0000 0000 0000 0000 7882 9035
000002f0: 0000 0000 a483 6734 c3e4 e832 b419 0a36
00000300: 4b7f 4e34 d086 bf35 df1a e134 7028 3a34
00000310: 2451 fe34 e3a8 8f34 4f5f c031 e269 0735
00000320: cc4b f835 fc75 9233 a675 1436 0000 0000
00000330: 2546 6f33 e772 9134 19a8 9e35 00f4 cc35
00000340: edf4 3535 3693 bd34 a05d 9635 8071 4330
00000350: 0000 0000 76dd c235 f1fb 7433 1376 fe34
00000360: 0f1c 4d33 66ec 7436 0000 0000 3d6d fa34
00000370: 3eab a332 a13e f034 0000 0000 0e4f 0f36
00000380: 090c fd34 e0d8 9733 6f5d 9a35 882f 9334
00000390: 153e 2335 0000 0000 0000 0000 0000 0000
000003a0: 1d8e ee32 a3ef 2235 ca07 9b35 6e78 1235
000003b0: 09c1 b434 e488 7e34 bca7 0035 ca8a 1a36
000003c0: 89ef b535 9937 6032 1e03 2633 761f 9734
000003d0: 67c7 1036 0000 0000 03d6 9736 f2b4 1e34
000003e0: cd49 0933 0000 0000 0000 0000 3f28 ce33
000003f0: e347 a334 5674 6d32 0000 0000 1c4e cd34
3.6623097e-11 1.8323028e-07 0.0 7.317364e-08 3.0787248e-07 5.8275174e-10 0.0 4.4377188e-07
0.0 1.3655327e-06 8.5860415e-07 3.8324718e-08 1.680213e-06 4.049188e-07 3.4026615e-07 1.9843672e-08
3.6936358e-09 4.3326403e-07 5.519766e-06 9.832308e-07 1.9904858e-06 1.2302746e-07 6.784181e-07 0.0
4.2224252e-07 0.0 0.0 3.130409e-07 3.97604e-06 0.0 4.061417e-07 3.8102618e-07
2.804132e-06 0.0 8.292038e-08 1.900062e-10 4.142748e-08 1.9510455e-07 1.8393292e-06 0.0
2.930753e-06 4.6744074e-07 1.0232298e-08 1.4410283e-06 0.0 3.7215295e-06 1.871123e-06 4.0061548e-07
3.416918e-07 5.0001796e-07 0.0 4.4622354e-07 1.0019736e-06 1.3538886e-07 5.5632137e-07 1.1115938e-13
6.7030975e-08 3.0393647e-07 1.3720634e-06 4.2050752e-10 0.0 7.9418605e-09 6.7245867e-07 1.5537561e-06
4.4964193e-07 4.6460622e-07 2.613002e-06 4.7080528e-07 3.6075437e-07 5.376648e-07 5.982069e-11 1.003066e-06
1.9897966e-07 1.495613e-07 2.6709294e-08 2.2093984e-06 2.2920736e-08 0.0 0.0 0.0
5.187406e-07 5.9909066e-06 0.0 0.0 0.0 0.0 1.7308304e-09 0.0
0.0 3.135816e-08 0.0 6.620708e-07 0.0 3.544904e-08 0.0 0.0
2.2695451e-07 1.122456e-08 0.0 1.8160536e-07 2.7632976e-07 2.570011e-08 2.7023109e-08 0.0
0.0 1.6199125e-06 0.0 1.5077003e-06 1.7343528e-07 2.4543824e-06 1.4778954e-07 3.0564107e-07
4.8118856e-08 2.5543952e-06 1.2261141e-08 3.2156706e-07 2.669211e-08 0.0 8.1211857e-07 0.0
5.7169277e-08 5.7137015e-07 5.616068e-08 4.3713516e-07 1.9255194e-06 1.9537067e-06 4.395616e-07 1.3638348e-06
1.1332722e-06 4.8205544e-07 0.0 0.0 4.2112978e-07 0.0 1.6096272e-06 5.3579413e-07
2.4893538e-07 2.469487e-06 0.0 3.8947698e-07 7.3025903e-06 0.0 3.813424e-07 1.0686645e-06
0.0 4.621838e-07 3.258823e-08 5.026736e-07 4.221327e-07 5.4199575e-07 2.6136458e-06 1.0074007e-07
1.2832322e-07 1.5504568e-06 1.8825114e-07 2.2124116e-10 3.5706427e-07 2.3084727e-09 3.4257783e-07 5.548898e-09
2.0174464e-06 7.718546e-07 0.0 9.2560424e-07 0.0 1.9149951e-07 2.1104472e-06 1.1761276e-06
0.0 0.0 9.060017e-08 0.0 0.0 0.0 1.1362854e-06 1.8096102e-09
8.3533465e-09 3.429102e-07 5.413787e-07 0.0 1.1336523e-06 3.9095303e-07 9.9964545e-08 5.494438e-07
1.2327285e-08 0.0 0.0 1.0766807e-06 0.0 2.1561442e-07 2.7112383e-08 2.0578564e-06
1.9231554e-07 1.4269845e-06 4.1929067e-07 1.7337311e-07 4.7370224e-07 2.6758707e-07 5.598771e-09 5.04455e-07
1.84995e-06 6.820116e-08 2.21222e-06 0.0 5.571032e-08 2.7091957e-07 1.182084e-06 1.5270198e-06
6.778417e-07 3.5311103e-07 1.1203119e-06 7.110188e-10 0.0 1.451858e-06 5.7039816e-08 4.7397097e-07
4.77558e-08 3.6496435e-06 0.0 4.664561e-07 1.905357e-08 4.4749052e-07 0.0 2.1354676e-06
4.713368e-07 7.070935e-08 1.1501087e-06 2.7415467e-07 6.0812573e-07 0.0 0.0 0.0
2.7771472e-08 6.069842e-07 1.1550667e-06 5.4564487e-07 3.3668064e-07 2.3705394e-07 4.79278e-07 2.3028574e-06
1.3555265e-06 1.30511575e-08 3.8652722e-08 2.8148833e-07 2.157374e-06 0.0 4.525065e-06 1.4780724e-07
3.196492e-08 0.0 0.0 9.599943e-08 3.041342e-07 1.3821667e-08 0.0 3.8241058e-07

exp_avg f4 [128, 256]
00000000: 0400 0000 0400 0000 0000 0000 0400 0000
00000010: 0400 0000 0400 0000 0000 0000 0400 0000
00000020: 0000 0000 0400 0000 0400 0000 0400 0000
00000030: 0400 0000 0400 0000 0400 0000 0400 0000
00000040: 0400 0000 0400 0000 0400 0000 0400 0000
00000050: 0400 0000 0400 0080 0400 0000 0000 0000
00000060: 0400 0000 0000 0000 0000 0000 0400 0000
00000070: 0400 0000 0000 0000 0400 0000 0400 0000
00000080: 0400 0000 0000 0000 0400 0000 0400 0000
00000090: 0400 0000 0400 0080 0400 0000 0000 0000
000000a0: 0400 0000 0400 0000 0400 0080 0400 0000
000000b0: 0000 0000 0400 0000 0400 0000 0400 0000
000000c0: 0400 0000 0400 0000 0000 0000 0400 0000
000000d0: 0400 0000 0400 0000 0400 0000 0400 0080
000000e0: 0400 0000 0400 0000 0400 0000 0400 0000
000000f0: 0000 0000 0400 0080 0400 0000 0400 0000
00000100: 0400 0000 0400 0000 0400 0000 0400 0000
00000110: 0400 0000 0400 0000 0400 0000 0400 0000
00000120: 0400 0000 0400 0000 0400 0000 0400 0000
00000130: 0400 0000 0000 0000 0000 0000 0000 0000
00000140: 0400 0000 0400 0000 0000 0000 0000 0000
00000150: 0000 0000 0000 0000 0400 0080 0000 0000
00000160: 0000 0000 0400 0000 0000 0000 0400 0000
00000170: 0000 0000 0400 0000 0000 0000 0000 0000
00000180: 0400 0000 0400 0000 0000 0000 0400 0000
00000190: 0400 0000 0400 0080 0400 0080 0000 0000
000001a0: 0000 0000 0400 0000 0000 0000 0400 0000
000001b0: 0400 0000 0400 0000 0400 0000 0400 0000
000001c0: 0400 0000 0400 0000 0400 0000 0400 0000
000001d0: 0400 0000 0000 0000 0400 0000 0000 0000
000001e0: 0400 0000 0400 0000 0400 0000 0400 0000
000001f0: 0400 0000 0400 0000 0400 0000 0400 0000
00000200: 0400 0000 0400 0000 0000 0000 0000 0000
00000210: 0400 0000 0000 0000 0400 0000 0400 0000
00000220: 0400 0000 0400 0000 0000 0000 0400 0000
00000230: 0400 0000 0000 0000 0400 0000 0400 0000
00000240: 0000 0000 0400 0000 0400 0000 0400 0000
00000250: 0400 0000 0400 0000 0400 0000 0400 0000
00000260: 0400 0000 0400 0000 0400 0000 0400 0000
00000270: 0400 0000 0400 0000 0400 0000 0400 0080
00000280: 0400 0000 0400 0000 0000 0000 0400 0000
00000290: 0000 0000 0400 0000 0400 0000 0400 0000
000002a0: 0000 0000 0000 0000 0400 0000 0000 0000
000002b0: 0000 0000 0000 0000 0400 0000 0400 0000
000002c0: 0000 0000 0400 0000 0400 0000 0000 0000
000002d0: 0400 0000 0400 0000 0400 0000 0400 0000
000002e0: 0400 0000 0000 0000 0000 0000 0400 0000
000002f0: 0000 0000 0400 0000 0400 0000 0400 0000
00000300: 0400 0000 0400 0000 0400 0000 0400 0000
00000310: 0400 0000 0400 0000 0400 0000 0400 0000
00000320: 0400 0000 0400 0000 0400 0000 0000 0000
00000330: 0400 0000 0400 0000 0400 0000 0400 0000
00000340: 0400 0000 0400 0000 0400 0000 0000 0000
00000350: 0000 0000 0400 0000 0400 0000 0400 0000
00000360: 0400 0000 0400 0000 0000 0000 0400 0000
00000370: 0400 0080 0400 0000 0000 0000 0400 0000
00000380: 0400 0000 0400 0000 0400 0000 0400 0000
00000390: 0400 0000 0000 0000 0000 0000 0000 0000
000003a0: 0400 0000 0400 0000 0400 0000 0400 0000
000003b0: 0400 0000 0400 0000 0400 0000 0400 0000
000003c0: 0400 0000 0400 0000 0400 0000 0400 0000
000003d0: 0400 0000 0000 0000 0400 0000 0400 0000
000003e0: 0400 0000 0000 0000 0000 0000 0400 0000
000003f0: 0400 0000 0400 0000 0000 0000 0400 0000
6e-45 6e-45 0.0 6e-45 6e-45 6e-45 0.0 6e-45
0.0 6e-45 6e-45 6e-45 6e-45 6e-45 6e-45 6e-45
6e-45 6e-45 6e-45 6e-45 6e-45 -6e-45 6e-45 0.0
6e-45 0.0 0.0 6e-45 6e-45 0.0 6e-45 6e-45
6e-45 0.0 6e-45 6e-45 6e-45 -6e-45 6e-45 0.0
6e-45 6e-45 -6e-45 6e-45 0.0 6e-45 6e-45 6e-45
6e-45 6e-45 0.0 6e-45 6e-45 6e-45 6e-45 -6e-45
6e-45 6e-45 6e-45 6e-45 0.0 -6e-45 6e-45 6e-45
6e-45 6e-45 6e-45 6e-45 6e-45 6e-45 6e-45 6e-45
6e-45 6e-45 6e-45 6e-45 6e-45 0.0 0.0 0.0
6e-45 6e-45 0.0 0.0 0.0 0.0 -6e-45 0.0
0.0 6e-45 0.0 6e-45 0.0 6e-45 0.0 0.0
6e-45 6e-45 0.0 6e-45 6e-45 -6e-45 -6e-45 0.0
0.0 6e-45 0.0 6e-45 6e-45 6e-45 6e-45 6e-45
6e-45 6e-45 6e-45 6e-45 6e-45 0.0 6e-45 0.0
6e-45 6e-45 6e-45 6e-45 6e-45 6e-45 6e-45 6e-45
6e-45 6e-45 0.0 0.0 6e-45 0.0 6e-45 6e-45
6e-45 6e-45 0.0 6e-45 6e-45 0.0 6e-45 6e-45
0.0 6e-45 6e-45 6e-45 6e-45 6e-45 6e-45 6e-45
6e-45 6e-45 6e-45 6e-45 6e-45 6e-45 6e-45 -6e-45
6e-45 6e-45 0.0 6e-45 0.0 6e-45 6e-45 6e-45
0.0 0.0 6e-45 0.0 0.0 0.0 6e-45 6e-45
0.0 6e-45 6e-45 0.0 6e-45 6e-45 6e-45 6e-45
6e-45 0.0 0.0 6e-45 0.0 6e-45 6e-45 6e-45
6e-45 6e-45 6e-45 6e-45 6e-45 6e-45 6e-45 6e-45
6e-45 6e-45 6e-45 0.0 6e-45 6e-45 6e-45 6e-45
6e-45 6e-45 6e-45 0.0 0.0 6e-45 6e-45 6e-45
6e-45 6e-45 0.0 6e-45 -6e-45 6e-45 0.0 6e-45
6e-45 6e-45 6e-45 6e-45 6e-45 0.0 0.0 0.0
6e-45 6e-45 6e-45 6e-45 6e-45 6e-45 6e-45 6e-45
6e-45 6e-45 6e-45 6e-45 6e-45 0.0 6e-45 6e-45
6e-45 0.0 0.0 6e-45 6e-45 6e-45 0.0 6e-45

exp_avg_sq f4 [128, 256]
00000000: 9b68 4e2c ee51 3e30 0000 0000 eca4 7d25
00000010: 2307 1230 f9de b62e 0000 0000 41cd 1931
00000020: 0000 0000 719a fb2f 6eac d631 978c 5d2f
00000030: e976 8732 bcb3 9631 8c17 2f32 8da6 2f2d
00000040: 4566 0e2f e3a5 c631 cc2a 2c32 b576 1b30
00000050: c891 1533 0d7b 5527 33f0 dd31 0000 0000
00000060: f67e 2f32 0000 0000 0000 0000 3e3e e632
00000070: 58af 0931 0000 0000 aea4 cb30 47fa cc31
00000080: 7830 c132 0000 0000 16f6 a530 af25 dc2b
00000090: 17be f92d f5e1 9e23 3f73 972f 0000 0000
000000a0: d334 6f2e 99fa cd30 5d29 bb25 8d89 1333
000000b0: 0000 0000 1542 b833 d0d9 d02e b554 9c2f
000000c0: 6d7e 7531 046b c131 0000 0000 d064 8d2f
000000d0: 80b5 a02d 7327 c332 3ac7 9f30 ae0a 9924
000000e0: 3c2a 0c2d 40ed 4732 27d7 be2f 9590 2d2b
000000f0: 0000 0000 b000 bf24 0f90 2832 3fc8 e831
00000100: 5776 932c a0c2 f832 9b1c 2631 fa49 a82e
00000110: 1843 bc30 76f3 e02f c81a 252c 94a9 2733
00000120: 0dbc 3331 baea 8929 3bc1 ca29 4d72 7d32
00000130: 99a4 f330 0000 0000 0000 0000 0000 0000
00000140: c238 1031 ade7 1032 0000 0000 0000 0000
00000150: 0000 0000 0000 0000 319c ef26 0000 0000
00000160: 0000 0000 7d86 bd2f 0000 0000 ac47 6c33
00000170: 0000 0000 6feb 822e 0000 0000 0000 0000
00000180: 00dc e530 0639 9c2b 0000 0000 5d0a 832d
00000190: ceb5 6432 88ca f823 dfcd e627 0000 0000
000001a0: 0000 0000 c5c7 3c31 0000 0000 eb18 702f
000001b0: 0cdf 2f2e 643f 212f f0e7 bb2c 6307 a333
000001c0: b276 c82a f76d af32 cb16 062d e17f 9530
000001d0: 74b7 272f 0000 0000 aac6 a22f 0000 0000
000001e0: 78ea b430 358b d031 dbd0 8d2d 626d c42f
000001f0: b0c0 3133 ffc9 9732 a6c8 b732 90ec c832
00000200: 676a 562b 7e89 5832 0000 0000 0000 0000
00000210: ba1c 2029 0000 0000 1ac7 8c2f ac98 a531
00000220: 8c03 dc2f e5c4 2631 0000 0000 3d40 c730
00000230: 9018 f031 0000 0000 6acd 1831 4b32 6732
00000240: 0000 0000 f6d6 fc2e 54e4 a230 e28a e131
00000250: 5a70 6c32 ea8d 4e32 e58a 1632 aaa2 3f2d
00000260: adee 382f 8a0f de31 786d 9232 852d ec2a
00000270: 4217 f02e 1fbb 802d 4400 b732 19b4 0f26
00000280: fec6 942f f0cd bc31 0000 0000 16b3 0432
00000290: 0000 0000 4fa5 d831 a45e b332 f405 dc31
000002a0: 0000 0000 0000 0000 3b9b 5729 0000 0000
000002b0: 0000 0000 0000 0000 ad7b a530 a184 182f
000002c0: 0000 0000 02ca af32 5755 3b32 0000 0000
000002d0: e1e7 bb2f 4bbd 752c 024b 3b31 ebe5 cc2b
000002e0: c248 c82d 0000 0000 0000 0000 cd48 062e
000002f0: 0000 0000 3250 162d 7294 bf30 43f9 3631
00000300: da30 1131 18d9 4032 593b 8730 18cb af2f
00000310: bdf3 2230 a4aa 2230 120c 262c d6c6 f030
00000320: f43a ba31 7834 442b f97f d131 0000 0000
00000330: 1c7a fb2e b803 a72f af3d 8f30 3578 4632
00000340: 3279 4432 ef48 da30 f421 1c33 0000 0000
00000350: 0000 0000 a721 d931 ceb7 ef2c 63ea a830
00000360: c90d 9829 d3a6 9d30 0000 0000 93f1 4232
00000370: 85ad f725 e390 cb32 0000 0000 01c5 9431
00000380: e519 8d31 a0c1 bd2c e192 9331 0bdf bf2d
00000390: 7f99 5f2b 0000 0000 0000 0000 0000 0000
000003a0: 8681 1f27 fd78 a931 7402 f231 5253 9e32
000003b0: 0ca9 4330 baea 2332 46be a12f 779b 8f32
000003c0: c4c0 7232 582c c72d a9c5 552d 4f47 8932
000003d0: d4b9 952e 0000 0000 e2eb 2b32 5a83 a030
000003e0: 7627 fd2e 0000 0000 0000 0000 83b8 242e
000003f0: aa20 282d 4862 df2c 0000 0000 7c47 8d30
2.9332428e-12 6.9238026e-10 0.0 2.200013e-16 5.312463e-10 8.31601e-11 0.0 2.2381104e-09
0.0 4.576637e-10 6.2478227e-09 2.014978e-10 1.5770143e-08 4.386008e-09 1.0191695e-08 9.98458e-12
1.2951158e-10 5.7814176e-09 1.0021449e-08 5.6557364e-10 3.4824353e-08 2.9626394e-15 6.459254e-09 0.0
1.0215208e-08 0.0 0.0 2.6803828e-08 2.0035795e-09 0.0 1.4816999e-09 5.9656347e-09
2.2490198e-08 0.0 1.2075272e-09 1.56424e-12 2.839244e-11 1.7226091e-17 2.7548627e-10 0.0
5.4389226e-11 1.4986937e-09 3.2467358e-16 3.4351206e-08 0.0 8.580188e-08 9.497436e-11 2.8436423e-10
3.5724057e-09 5.6292055e-09 0.0 2.5719382e-10 1.8270496e-11 2.2718927e-08 1.1625396e-09 6.6371265e-17
7.9674566e-12 1.1637269e-08 3.4713674e-10 6.1662595e-13 0.0 8.283421e-17 9.811642e-09 6.774854e-09
4.1911296e-12 2.8959505e-08 2.417244e-09 7.6528964e-11 1.369787e-09 4.0918352e-10 2.3462777e-12 3.9036948e-08
2.6154823e-09 6.124741e-14 9.004122e-14 1.4752527e-08 1.7727358e-09 0.0 0.0 0.0
2.098702e-09 8.43458e-09 0.0 0.0 0.0 0.0 1.6626292e-15 0.0
0.0 3.447446e-10 0.0 5.5013217e-08 0.0 5.953537e-11 0.0 0.0
1.6724471e-09 1.1100294e-12 0.0 1.4897578e-11 1.3312684e-08 2.697399e-17 6.406103e-15 0.0
0.0 2.7471156e-09 0.0 2.1836725e-10 3.99885e-11 1.4665386e-10 5.34061e-12 7.5916226e-08
3.5609498e-13 2.0422688e-08 7.622079e-12 1.0877522e-09 1.5253737e-10 0.0 2.9608788e-10 0.0
1.3163364e-09 6.0694227e-09 1.6122595e-11 3.5729913e-10 4.1386272e-08 1.767057e-08 2.1395248e-08 2.339064e-08
7.6175736e-13 1.2604117e-08 0.0 0.0 3.5552053e-14 0.0 2.5607322e-10 4.819489e-09
4.0020287e-10 2.42681e-09 0.0 1.4497413e-09 6.9877117e-09 0.0 2.2235676e-09 1.3457405e-08
0.0 1.1497818e-10 1.1851946e-09 6.564151e-09 1.3762554e-08 1.2023046e-08 8.76273e-09 1.0893212e-11
1.6819497e-10 6.462817e-09 1.7046418e-08 4.1953607e-13 1.0918068e-10 1.4635014e-11 2.1304125e-08 4.985717e-16
2.7062436e-10 5.4949325e-09 0.0 7.724131e-09 0.0 6.305221e-09 2.088138e-08 6.4035195e-09
0.0 0.0 4.787423e-14 0.0 0.0 0.0 1.2040481e-09 1.3871439e-10
0.0 2.0464544e-08 1.0904237e-08 0.0 3.4179862e-10 3.4921673e-12 2.7254718e-09 1.4558887e-12
2.2769679e-11 0.0 0.0 3.0532733e-11 0.0 8.54432e-12 1.393927e-09 2.6626175e-09
2.1128046e-09 1.1225232e-08 9.83941e-10 3.197662e-10 5.928163e-10 5.917775e-10 2.359672e-12 1.7518811e-09
5.4200147e-09 6.9706003e-13 6.0972494e-09 0.0 1.14358495e-10 3.0379765e-10 1.0422151e-09 1.1552449e-08
1.1436258e-08 1.5882317e-09 3.635246e-08 0.0 0.0 6.319357e-09 6.813195e-12 1.2290226e-09
6.752547e-14 1.1470668e-09 0.0 1.1347214e-08 4.296525e-16 2.3698197e-08 0.0 4.3297637e-09
4.106584e-09 5.3931998e-12 4.2949613e-09 2.1813237e-11 7.9438534e-13 0.0 0.0 0.0
2.2135897e-15 4.932302e-09 7.043406e-09 1.843151e-08 7.1180817e-10 9.541219e-09 2.9420927e-10 1.6718088e-08
1.4130084e-08 2.2643373e-11 1.2151538e-11 1.5981326e-08 6.808745e-11 0.0 1.0007144e-08 1.1678865e-09
1.15121176e-10 0.0 0.0 3.7453162e-11 9.556947e-12 6.3489526e-12 0.0 1.0279417e-09

exp_avg f4 [128]
00000000: 0400 0000 0400 0000 0400 0000 0400 0000
00000010: c38b ab33 0400 0000 0400 0000 c1fc 0939
00000020: 0400 0000 f99c 8d39 0400 0000 0400 0000
00000030: 0400 0000 0400 0000 14bd 3139 0400 0000
00000040: 0400 0000 0400 0000 9281 5e39 0400 0000
00000050: 0400 0000 0400 0000 0400 0000 0400 0000
00000060: 0400 0000 2501 0000 0400 0000 0400 0000
00000070: 0400 0000 0400 0000 bc7a 8439 0400 0000
00000080: 0400 0000 0400 0000 0400 0000 0400 0000
00000090: 0400 0000 0400 0000 0400 0000 0400 0000
000000a0: ae46 3f39 0400 0000 4356 8539 0400 0000
000000b0: 0400 0000 0400 0000 0400 0000 0400 0000
000000c0: 2999 3f39 0400 0000 6615 b538 0400 0000
000000d0: 0400 0000 b967 9a0d 0400 0000 0400 0000
000000e0: 59f2 c938 ace6 9838 0400 0000 ccfa 5439
000000f0: 4653 212c 0400 0000 40a3 3939 0400 0000
00000100: 4abc be38 0400 0000 1a6b 9d39 0400 0000
00000110: 0400 0000 05db 8839 0400 0000 0400 0000
00000120: 0400 0000 0400 0000 0400 0000 0400 0000
00000130: 0400 0000 0400 0000 0400 0000 0400 0000
00000140: 0400 0000 d806 eb38 0400 0000 0400 0000
00000150: 0c5e 6539 4d52 2939 0400 0000 d416 4a39
00000160: 0400 0000 0400 0000 0400 0000 93d0 2f39
00000170: 0400 0000 3a55 2439 0400 0000 9571 6339
00000180: 0000 0000 0400 0000 0400 0000 0400 0000
00000190: 0400 0000 0400 0000 0400 0000 0400 0000
000001a0: 0400 0000 0400 0000 0400 0000 507d 8239
000001b0: 0400 0000 0400 0000 0400 0000 0400 0000
000001c0: 0400 0000 0400 0000 0400 0000 0400 0000
000001d0: bb80 d431 d5e5 4a39 0400 0000 0400 0000
000001e0: 0400 0000 5fee 7239 0400 0000 609d 8237
000001f0: 0400 0000 6ee2 3f39 0400 0000 0400 0000
6e-45 6e-45 6e-45 6e-45 7.9882305e-08 6e-45 6e-45 0.00013159496
6e-45 0.0002701057 6e-45 6e-45 6e-45 6e-45 0.00016950472 6e-45
6e-45 6e-45 0.00021219839 6e-45 6e-45 6e-45 6e-45 6e-45
6e-45 4.1e-43 6e-45 6e-45 6e-45 6e-45 0.00025268446 6e-45
6e-45 6e-45 6e-45 6e-45 6e-45 6e-45 6e-45 6e-45
0.0001824151 6e-45 0.00025432007 6e-45 6e-45 6e-45 6e-45 6e-45
0.00018272236 6e-45 8.634738e-05 6e-45 6e-45 9.515953e-31 6e-45 6e-45
9.629568e-05 7.290891e-05 6e-45 0.00020311325 2.2925702e-12 6e-45 0.0001770379 6e-45
9.0949776e-05 6e-45 0.0003002517 6e-45 6e-45 0.00026103124 6e-45 6e-45
6e-45 6e-45 6e-45 6e-45 6e-45 6e-45 6e-45 6e-45
6e-45 0.00011206948 6e-45 6e-45 0.00021874177 0.00016147755 6e-45 0.00019272725
6e-45 6e-45 6e-45 0.00016767 6e-45 0.00015672008 6e-45 0.0002169072
0.0 6e-45 6e-45 6e-45 6e-45 6e-45 6e-45 6e-45
6e-45 6e-45 6e-45 0.00024888897 6e-45 6e-45 6e-45 6e-45
6e-45 6e-45 6e-45 6e-45 6.184647e-09 0.0001934984 6e-45 6e-45
6e-45 0.00023167719 6e-45 1.5570491e-05 6e-45 0.00018299531 6e-45 6e-45

exp_avg_sq f4 [128]
00000000: f8b5 bd33 1cc7 1635 5582 0b2b ddcb 8a30
00000010: ca02 1a34 2eb8 0933 a97e 2f2e 92ee 9036
00000020: 6611 0c34 efe9 d736 a592 6932 6ad4 ad2d
00000030: d882 1c2f 6aa2 d135 49e7 fc36 46de 2330
00000040: b4dd ad31 3931 7a33 8cee 6936 f881 8b31
00000050: b42c ad33 3800 0534 e410 4834 7f7c e430
00000060: 4d00 5e32 2db3 2236 54b6 7d36 17ea 0235
00000070: 1fb5 9836 fed2 6234 3149 9636 dba3 4e34
00000080: acf8 0f31 bfe2 9a34 5ba6 b430 a608 5a2f
00000090: b82d ed31 695c b536 7f55 8b34 be4b 3235
000000a0: c06d d336 e5f4 cc31 1276 fc36 4114 ac36
000000b0: feea 2037 ad5e be36 417c 1e34 9dc6 ff2d
000000c0: 3132 2936 2e07 c235 bfe5 9b36 1991 fd35
000000d0: 7689 d026 8eca 9635 3579 a935 3615 4235
000000e0: 00cf 4636 d32d 1337 3b7b 5734 4fa8 c336
000000f0: 5fb0 dd35 c567 4435 16a2 b935 1795 5a33
00000100: d6ad 7935 ee13 ce32 a899 b536 7863 f930
00000110: f099 d32f 272d 9d36 9cc3 4936 e6f5 9633
00000120: 5665 242b 177e b932 a540 2b33 270f 8533
00000130: fb2a 192e 294f 4b35 ba67 2a34 d2ad 8233
00000140: 135d 8632 41df 0a35 470a b230 92a7 a234
00000150: 6067 fa35 93d6 3237 9ea5 9429 6d4c 2137
00000160: 3852 b434 4b1a 0537 83c9 e836 496b 9436
00000170: a742 3f2c b642 0e37 e69f 2434 fcdc f536
00000180: 0000 0000 cd49 8b36 64be fd34 4979 ce36
00000190: 6fe6 8033 2279 a032 2a0c be31 4788 092f
000001a0: b437 8c32 8f67 8034 0147 8e31 332d 3036
000001b0: 6e1e ee33 8136 e631 2deb ab36 883f bd33
000001c0: 386b 7833 e5b2 de35 a460 c331 a9f8 6136
000001d0: 851c 4c35 1ef2 0536 92ae 1529 3a2c 3533
000001e0: 26c3 9734 f192 c635 02ef 0636 5545 6c36
000001f0: 1372 df28 eae5 9136 77da 3729 9ff6 c22c
8.834098e-08 5.6169097e-07 4.956359e-13 1.0098763e-09 1.4343382e-07 3.206531e-08 3.990289e-11 4.3193077e-06
1.3044846e-07 6.4347328e-06 1.3595728e-08 1.9762154e-11 1.4234602e-10 1.5618982e-06 7.5371104e-06 5.9614924e-10
5.0601674e-09 5.825243e-08 3.4858558e-06 4.060208e-09 8.064072e-08 1.238667e-07 1.8632596e-07 1.6624567e-09
1.2922169e-08 2.4244175e-06 3.7806067e-06 4.876942e-07 4.5510383e-06 2.1124649e-07 4.478869e-06 1.9244855e-07
2.0950592e-09 2.8849715e-07 1.3144005e-09 1.9830057e-10 6.9028054e-09 5.4049783e-06 2.5952974e-07 6.6420387e-07
6.3010666e-06 5.9650227e-09 7.5239304e-06 5.1283573e-06 9.591457e-06 5.673463e-06 1.47601e-07 2.9078346e-11
2.5212178e-06 1.4456216e-06 4.646106e-06 1.8892198e-06 1.4470158e-15 1.1234822e-06 1.2626757e-06 7.23015e-07
2.962479e-06 8.772552e-06 2.0068266e-07 5.8310466e-06 1.6517114e-06 7.3166694e-07 1.3830747e-06 5.0892677e-08
9.3012693e-07 2.399062e-08 5.4121083e-06 1.8145405e-09 3.8490056e-10 4.684221e-06 3.0065194e-06 7.029648e-08
5.8405136e-13 2.1594174e-08 3.9872834e-08 6.196051e-08 3.4826347e-11 7.5738586e-07 1.5870219e-07 6.0852145e-08
1.5641978e-08 5.1733883e-07 1.2954126e-09 3.0296775e-07 1.8656538e-06 1.0659586e-05 6.60125e-14 9.614142e-06
3.3587435e-07 7.93354e-06 6.937598e-06 4.4232333e-06 2.7179732e-12 8.479392e-06 1.5331861e-07 7.327295e-06
0.0 4.1511144e-06 4.726345e-07 6.153398e-06 6.00238e-08 1.8681536e-08 5.5311107e-09 1.2508493e-10
1.6323476e-08 2.3917207e-07 4.140816e-09 2.6252353e-06 1.1088274e-07 6.7000774e-09 5.123575e-06 8.8125546e-08
5.7839515e-08 1.6592354e-06 5.6862337e-09 3.3672352e-06 7.6037423e-07 1.9959475e-06 3.3236062e-14 4.218257e-08
2.826793e-07 1.4794915e-06 2.0106677e-06 3.5207097e-06 2.4807445e-14 4.3481023e-06 4.082365e-14 5.541192e-12

exp_avg f4 [1, 128]
00000000: 0400 0080 0400 0000 0400 0000 0400 0080
00000010: ffd4 b6b0 0400 0000 0400 0080 9fb1 033b
00000020: 0400 0080 530b 783b 0400 0080 0400 0080
00000030: 0400 0080 0400 0000 fa8c 063b 0400 0080
00000040: 0400 0080 0400 0080 5f06 1a3b 0400 0080
00000050: 0400 0080 0400 0080 0400 0000 0400 0080
00000060: 0400 0080 de07 0080 0400 0000 0400 0080
00000070: 0400 0000 0400 0080 7d90 363b 0400 0080
00000080: 0400 0080 0400 0080 0400 0080 0400 0080
00000090: 0400 0080 0400 0000 0400 0080 0400 0000
000000a0: 851b f73a 0400 0080 f6fb 323b 0400 0000
000000b0: 0400 0000 0400 0000 0400 0000 0400 0080
000000c0: 176a 093b 0400 0000 73d1 073b 0400 0000
000000d0: 0400 0080 b8a9 538e 0400 0000 0400 0000
000000e0: 7cc8 ee3a 5084 d63a 0400 0000 7519 4d3b
000000f0: aa83 58ad 0400 0080 2888 7b3b 0400 0080
00000100: c3a6 e03a 0400 0080 4a03 803b 0400 0080
00000110: 0400 0080 d092 623b 0400 0000 0400 0080
00000120: 0400 0080 0400 0080 0400 0080 0400 0080
00000130: 0400 0080 0400 0080 0400 0080 0400 0080
00000140: 0400 0080 ee2a ae3a 0400 0080 0400 0080
00000150: 6b2b 313b 9458 ef3a 0400 0000 6633 143b
00000160: 0400 0080 0400 0000 0400 0000 2883 f63a
00000170: 0400 0080 f230 fb3a 0400 0080 4f02 0a3b
00000180: 0000 0000 0400 0000 0400 0000 0400 0000
00000190: 0400 0080 0400 0080 0400 0080 0400 0080
000001a0: 0400 0080 0400 0000 0400 0080 887f 5b3b
000001b0: 0400 0080 0400 0080 0400 0000 0400 0080
000001c0: 0400 0080 0400 0000 0400 0080 0400 0000
000001d0: 2a48 53b3 f03a 603b 0400 0000 0400 0080
000001e0: 0400 0000 10c8 9a3b 0400 0000 a3b6 02b6
000001f0: 0400 0080 352c 143b 0400 0000 0400 0080
-6e-45 6e-45 6e-45 -6e-45 -1.330278e-09 6e-45 -6e-45 0.0020094884
-6e-45 0.0037848547 -6e-45 -6e-45 -6e-45 6e-45 0.0020530806 -6e-45
-6e-45 -6e-45 0.0023502333 -6e-45 -6e-45 -6e-45 6e-45 -6e-45
-6e-45 -2.822e-42 6e-45 -6e-45 6e-45 -6e-45 0.0027857118 -6e-45
-6e-45 -6e-45 -6e-45 -6e-45 -6e-45 6e-45 -6e-45 6e-45
0.0018852806 -6e-45 0.0027310825 6e-45 6e-45 6e-45 6e-45 -6e-45
0.0020967775 6e-45 0.0020724207 6e-45 -6e-45 -2.6089475e-30 6e-45 6e-45
0.0018217708 0.0016366336 6e-45 0.003129569 -1.2307414e-11 -6e-45 0.0038380716 -6e-45
0.0017139543 -6e-45 0.003906642 -6e-45 -6e-45 0.003457237 6e-45 -6e-45
-6e-45 -6e-45 -6e-45 -6e-45 -6e-45 -6e-45 -6e-45 -6e-45
-6e-45 0.001328794 -6e-45 -6e-45 0.0027033936 0.0018260651 6e-45 0.0022613644
-6e-45 6e-45 6e-45 0.0018807398 -6e-45 0.0019164367 -6e-45 0.0021058505
0.0 6e-45 6e-45 6e-45 -6e-45 -6e-45 -6e-45 -6e-45
-6e-45 6e-45 -6e-45 0.0033492763 -6e-45 -6e-45 6e-45 -6e-45
-6e-45 6e-45 -6e-45 6e-45 -4.91929e-08 0.0034214817 6e-45 -6e-45
6e-45 0.0047235563 6e-45 -1.9477818e-06 -6e-45 0.0022609357 6e-45 -6e-45

exp_avg_sq f4 [1, 128]
00000000: c3aa 2935 0a2e 8b37 1d46 2528 6471 692e
00000010: be5c 1b36 ea83 8236 e8ef 8735 bb89 6b39
00000020: cec7 2835 231a f139 5a04 0133 23fb 4d2c
00000030: a542 9131 fd53 8738 bb85 a539 d0ff 1332
00000040: c53f 5835 7084 af33 20be c139 1be5 4c33
00000050: bf8d b435 c215 8d34 8b7f 6d35 21e7 e92f
00000060: c308 4135 16ff 5338 68dc 4438 ed24 2336
00000070: 813b b538 e766 6934 9657 7c39 0a94 1a35
00000080: 916a 6336 bb40 d235 6689 442d c975 832f
00000090: 4b4e 2b32 c635 1539 2b23 b135 1488 f838
000000a0: 5e79 013a 64ae 7031 1478 9839 7465 8338
000000b0: ede8 1539 3344 2338 2447 0b38 37a2 8a2a
000000c0: 99c0 b339 f931 cf36 8f24 1538 5928 7038
000000d0: 010d 0123 6362 3d39 f33c d538 ab6e f638
000000e0: e3b0 9a38 f76c 7239 c77b d738 8c84 da39
000000f0: dc9a dc38 2120 1a39 242e 7139 de43 0537
00000100: 7f62 da39 38f4 5732 1d59 de39 428d 8933
00000110: 2908 1433 e5d5 8c39 09bc 9838 13f8 ca35
00000120: 5365 332f 483b 2733 051e 0e35 ff8c e235
00000130: c599 652e 1288 0839 ddbb 0f35 f9b7 4933
00000140: f0af 3432 09df 0639 7d52 0f30 47f7 b636
00000150: 3153 9a39 4505 e739 4d0b f327 db10 b039
00000160: 27e5 cc35 e9c6 5e38 fa71 0a38 504b e439
00000170: 53d0 e230 7583 aa39 dc2a 2034 e63f a039
00000180: 0000 0000 9bdc 5c39 2f68 fc34 d42b 6738
00000190: ffde 2834 0290 d935 a586 9e34 d9c9 0732
000001a0: bffe c933 94b7 0538 4a02 ae36 8896 013a
000001b0: e106 8e34 a57f a630 2450 3438 7215 2d33
000001c0: cd09 4434 0b93 3438 1e96 9131 d89c df38
000001d0: 20b8 5139 c83a a439 d9d1 1d29 7a54 4435
000001e0: 1623 4839 171c 183a 9261 d437 a9af 2d38
000001f0: f7ae 9428 e479 8939 be9e 0028 66fd 822e
6.3205897e-07 1.659153e-05 9.174543e-15 5.3078777e-11 2.3150783e-06 3.8896587e-06 1.0128106e-06 0.00022462655
6.287563e-07 0.00045986575 3.003911e-08 2.927166e-12 4.227632e-09 6.452946e-05 0.0003157089 8.614691e-09
8.055907e-07 8.173163e-08 0.00036953483 4.770582e-08 1.3452299e-06 2.6279127e-07 8.847498e-07 4.254668e-10
7.191085e-07 5.0543887e-05 4.693531e-05 2.4310386e-06 8.641836e-05 2.1737252e-07 0.00024065221 5.7584896e-07
3.3887666e-06 1.5665058e-06 1.1171819e-11 2.3912453e-10 9.971312e-09 0.0001422978 1.3197763e-06 0.00011850908
0.00049390446 3.5023726e-09 0.00029081164 6.265464e-05 0.00014296519 3.8925744e-05 3.3206437e-05 2.4626284e-13
0.00034285037 6.1748983e-06 3.5558416e-05 5.7258036e-05 6.995858e-18 0.00018061096 0.00010167984 0.000117508076
7.37624e-05 0.00023119511 0.00010275054 0.00041678955 0.00010519262 0.00014698553 0.0002300074 7.943219e-06
0.00041653586 1.2570176e-08 0.00042409534 6.405254e-08 3.4466357e-08 0.00026862245 7.282949e-05 1.5122372e-06
1.6315953e-10 3.8936633e-08 5.2942806e-07 1.6879347e-06 5.2205146e-11 0.00013020661 5.354503e-07 4.696628e-08
1.05173825e-08 0.00012862323 5.214032e-10 5.4528095e-06 0.0002943515 0.0004406368 6.74583e-15 0.00033581894
1.5265877e-06 5.3114174e-05 3.3007913e-05 0.0004354366 1.6502874e-09 0.0003252287 1.4916753e-07 0.00030565186
0.0 0.00021063017 4.701446e-07 5.511551e-05 1.5727345e-07 1.6209672e-06 2.952776e-07 7.903929e-09
9.40613e-08 3.188064e-05 5.1858706e-06 0.00049433904 2.6454566e-07 1.2114368e-09 4.298998e-05 4.0299206e-08
1.8257488e-07 4.305229e-05 4.2371218e-09 0.00010662683 0.00020000385 0.00031324313 3.5043017e-14 7.313862e-07
0.00019086557 0.00058025256 2.5317804e-05 4.141001e-05 1.650718e-14 0.00026221492 7.139849e-15 5.956728e-11
